Trans_Prediction/model_saved/numIntegratedCommits/TM_numIntegratedCommits_delay_size_6_delay_3.pth (torch, 387452 bytes, 337 tensors)

encoder.layers.0.attention.w_q.weight f4 [16, 16]
000000 b3 2a af 3e 6c b6 ca bc 92 6e 30 be c9 50 c2 3c
       0.34212264 -0.024745189 -0.17229679 0.023720162
000010 d5 b3 ef 3d 7c 51 ae 3c 19 74 07 3f da ea c5 3e
       0.11704222 0.02127909 0.52911526 0.3865574
000020 bd 9f 9c be 6d 90 18 bf b5 99 b7 3e 18 f3 05 bf
       -0.3059062 -0.59595376 0.35859457 -0.52324057
000030 13 0a 31 3e 77 d4 0a bf 71 ef f6 bd 40 34 02 bd
       0.17289 -0.54230446 -0.120573886 -0.03178811
000040 16 d0 f5 be c9 68 08 bf 14 1f 45 3e 55 b9 87 bd
       -0.4801032 -0.5328489 0.19250137 -0.06627146
000050 28 9d 83 3e 86 eb dc 3e 8c 30 02 3f b0 69 84 3c
       0.25705838 0.4314844 0.50855327 0.016163677
000060 24 ab 08 3f c3 38 95 3e 2b 9e d6 be ee ec c2 be
       0.5338614 0.29144868 -0.41917548 -0.38071388
000070 57 a1 30 3e c7 8b ba be b8 48 2a be e7 89 2f be
       0.17249046 -0.36434767 -0.16629303 -0.1714245
000080 30 85 fb be 42 e4 e6 be b4 27 fb 3e 72 62 9b bd
       -0.49125051 -0.45096022 0.4905373 -0.07587136
000090 cd b8 b2 3e c2 64 13 3f 31 6e f7 3d 54 dc 71 be
       0.34906617 0.5757562 0.12081564 -0.23619205
0000a0 43 38 d8 3e 73 7b e9 3d 08 7c 18 3f 29 67 97 3e
       0.42230424 0.11400499 0.59564257 0.29570892
0000b0 7d 4a 09 bf 01 48 b9 3e 03 00 03 3d 9d fb 18 bf
       -0.53629285 0.36187747 0.031982433 -0.5975893
0000c0 61 4c 11 bf 5b cf bd 3e 64 7e c8 3d 51 c1 0f 3f
       -0.5675717 0.37072262 0.09789732 0.5615435
0000d0 9d 22 ec 3e ee 1e 3c be 5b 8f d3 3e 3c 20 a7 3e
       0.46120158 -0.18371174 0.4132031 0.3264178
0000e0 87 40 dd be b6 d1 4d 3e 72 1a d6 3e b7 b8 8f bc
       -0.43213293 0.2009953 0.4181705 -0.017544134
0000f0 a0 7e 44 bd 5f ae 03 3f 74 c1 d2 3e 5f e5 5a 3e
       -0.04797232 0.51437944 0.41163218 0.2137656
000100 92 ac e6 be 63 cb 59 be 48 90 e7 be 90 f5 6b be
       -0.45053536 -0.21268992 -0.45227265 -0.23042893
000110 ff 3c 13 bf 44 f5 a9 3e 31 3d cf be 71 d2 c5 3d
       -0.5751495 0.33194935 -0.40476373 0.09659279
000120 84 9b 34 3e 4d 84 b9 3d 71 33 64 3e c1 a8 f3 3e
       0.1763745 0.090584375 0.22285248 0.47589687
000130 e7 b9 60 be a2 17 ee 3d 5d c5 ef be 83 10 12 3f
       -0.21945916 0.11625601 -0.46830264 0.57056445
000140 d5 cb 09 3f 4d f5 bd be bd 9a 15 3f cd 5c 77 3e
       0.5382665 -0.37101212 0.58439237 0.24156494
000150 f2 61 b5 3d f3 7a 35 3e b4 5a 0c 3f 1b 7e 11 bf
       0.08856572 0.17722683 0.548259 -0.56833047
000160 7d 69 08 bf 16 49 1a bf 46 fc 92 3d bf f1 f7 3e
       -0.5328596 -0.6026777 0.071770236 0.48426625
000170 54 b5 bb 3e ee 19 17 3f 7a 15 bc 3d bf c0 85 3b
       0.3666178 0.5902394 0.09183784 0.004081815
000180 72 b1 28 be d7 0b 0b 3f 2c ee 93 be ea 19 8e ba
       -0.1647394 0.5431494 -0.28892648 -0.0010841463
000190 0c b0 84 be 9b 1a 37 3e f5 88 9d bc 4e 29 0e 3d
       -0.25915563 0.17881243 -0.019230345 0.03470736
0001a0 e5 4b f2 3e 82 76 17 3e b6 be 0d 3f a1 ca 17 3f
       0.47323528 0.14791301 0.55369127 0.5929356
0001b0 82 b8 38 be 8b 5e 7d be 32 c4 ba be f6 22 78 be
       -0.18039134 -0.24743097 -0.3647781 -0.24232087
0001c0 80 97 b9 be 2b 95 30 be 26 4f 42 be 6d 2c d7 be
       -0.36248398 -0.17244403 -0.18975505 -0.42026082
0001d0 2f 56 95 3e d0 a4 96 3e ab dd 1a bf 67 5c a3 3e
       0.29167315 0.29422617 -0.6049449 0.31906435
0001e0 68 85 24 3d 44 7d 91 3e c1 fa e6 3d 03 cb 4e 3d
       0.04016629 0.28415883 0.11278296 0.050486576
0001f0 23 1e 7c be ec c5 17 bf e6 3d 0e 3f 69 ec 0b be
       -0.24620871 -0.5928638 0.555632 -0.13664402
000200 75 5b 9d be c2 2b a5 be c8 fc 71 3e 17 19 cb be
       -0.3073384 -0.32259947 0.23631585 -0.3966758
000210 02 1a 70 3e cb 32 ea 3e 54 1d 37 be 91 ec e6 be
       0.23447421 0.45741877 -0.17882282 -0.4510236
000220 20 74 f9 3d 5a d3 2f 3e 8b b4 3f bd c3 33 e4 3e
       0.12180352 0.17170468 -0.04680304 0.4457074
000230 39 7f e3 3d e2 3e a9 3d 3b 8e a9 be bc 15 f7 3d
       0.1110825 0.08263947 -0.33116326 0.120646924
000240 e4 58 6c 3e fd 51 0a bf c7 f2 c5 be c2 b3 8f be
       0.23080784 -0.54031354 -0.38661787 -0.28066832
000250 25 a3 7a 3d 4d f4 aa be b9 b1 0a 3f cf d2 11 bf
       0.061190743 -0.33389512 0.54177433 -0.56962293
000260 e2 c0 92 be 6d da 0d 3d b2 c1 9e 3e 5c 04 ec bd
       -0.28662783 0.034632135 0.31007153 -0.11524269
000270 c9 a2 eb 3e 35 78 f9 3e b5 ca 8a be 13 bd b2 3d
       0.46022633 0.48724523 -0.27107778 0.08727469
000280 f8 a2 37 3d e9 1e c4 3e c3 44 66 3d 50 28 9c 3e
       0.044833153 0.38304833 0.05621792 0.30499506
000290 9c 33 6c be 13 bc 59 3d cb c4 d2 3e 51 f8 e2 3e
       -0.23066562 0.053157877 0.41165766 0.44330075
0002a0 b0 f0 84 3e 16 c3 35 be 0e 2f 87 be 94 ee bc 3e
       0.2596488 -0.177502 -0.26403087 0.3690077
0002b0 96 4d 00 bf 6f 97 57 be 97 c1 0d 3f c3 2f bd bd
       -0.50118387 -0.21053861 0.5537352 -0.092376254
0002c0 3e 41 bd 3e af 0a 14 bf cc 01 13 3f b8 c5 0d bf
       0.36963838 -0.578288 0.57424617 -0.5537982
0002d0 4b 04 1e bd ca 46 4c be fe 9c b8 be c2 2b ce 3e
       -0.038578313 -0.19948879 -0.36057276 0.4026776
0002e0 ec ca 16 bf 5a b3 3c 3b 7c 3b fe be 6c ba ef be
       -0.58903384 0.0028793425 -0.49654758 -0.46821916
0002f0 12 19 a3 3e af 9f 03 3f bd a1 46 be 9b ad c3 3e
       0.31855065 0.5141553 -0.19397636 0.38218388
000300 17 81 e0 3e 69 48 62 be 9f ab 76 3e 6b bc 3e 3e
       0.43848488 -0.22097935 0.24088906 0.18626563
000310 a5 64 f5 be 90 43 9d 3e 06 1a b8 3d 18 a3 f9 3e
       -0.47928348 0.3071561 0.089893386 0.48757243
000320 25 9b d2 3d ad 30 22 3e c7 e9 b8 bd 80 e2 c9 3e
       0.10283498 0.15838881 -0.090289645 0.39430618
000330 f4 0e ed 3e cb a4 df 3e 5e 73 59 3e 5d ea cf be
       0.4630047 0.43680415 0.21235415 -0.40608492
000340 6b d3 fb 3e 3f 30 6c 3e 24 58 ba bd 2f 0b 9c be
       0.49184737 0.2306528 -0.09098843 -0.30477282
000350 13 39 8e 3e 7a d4 83 3d 01 69 04 bc 9f 50 62 be
       0.2777792 0.06437011 -0.0080816755 -0.22101067
000360 ca b8 17 bf 1b b6 0d bf 01 22 ba be 89 4e af 3e
       -0.5926634 -0.55355996 -0.36354068 0.34239605
000370 d1 e2 06 bf 9e db 71 be 7e ce eb be fc 3b 95 3e
       -0.52689844 -0.23618934 -0.4605598 0.29147327
000380 f0 a4 f1 3e d1 0e cf 3e be dc ee be 9a 0d cb bd
       0.4719615 0.40440992 -0.46652788 -0.09914704
000390 a3 83 90 3e bb 54 18 3f 8d 14 d5 be 33 ed b4 3e
       0.2822543 0.5950429 -0.41617242 0.3533722
0003a0 e3 b1 38 3e 01 4f d7 bd 37 50 7a be de 3e 6c 3d
       0.18036608 -0.10513116 -0.24444662 0.057677142
0003b0 fe ba c9 3d a2 75 62 be ee 28 09 3f ee 60 a8 3e
       0.09850119 -0.22115186 0.5357808 0.3288645
0003c0 ce 98 90 be 22 73 bf 3e c7 d0 73 be be cc c6 bd
       -0.2824158 0.37392527 -0.23810111 -0.0970702
0003d0 77 b2 11 3f bd 87 32 3d ce 0f ef 3e 25 c4 38 3e
       0.5691294 0.04358648 0.46691746 0.18043573
0003e0 b2 30 be be 4a 41 4f 3b 74 01 ae 3e 3b 68 92 be
       -0.37146527 0.0031624609 0.33985484 -0.28595147
0003f0 d3 65 47 bd d0 3e 17 bf f0 d3 18 bf b0 53 00 3e
       -0.04868109 -0.5908022 -0.5969839 0.12531924

encoder.layers.0.attention.w_q.bias f4 [16]
000000 f8 a8 5d 3d 87 7d b7 3d d9 e8 3a be 18 16 18 3e
       0.05411622 0.08959489 -0.18252887 0.14852178
000010 a9 5c 20 be ab 28 1f be e5 dd d2 3d f9 8f 27 3e
       -0.15660347 -0.15542857 0.10296229 0.16363515
000020 81 66 59 bc 33 02 85 bd fc a7 13 3c 80 ee d4 bd
       -0.013269068 -0.0649456 0.009012219 -0.10397053
000030 bb ac 40 be 29 79 db bd ca 1e 4f bd 4c ed cd bd
       -0.18815891 -0.10716469 -0.050566472 -0.100550264

encoder.layers.0.attention.w_k.weight f4 [16, 16]
000000 e3 8b a0 3e 61 9f 97 be 74 37 55 be 00 93 91 be
       0.31356725 -0.29613784 -0.20821935 -0.28432465
000010 94 85 4f 3c 57 62 e5 be 54 d0 81 be 1a 0b e9 3e
       0.012666125 -0.4480159 -0.25354254 0.45516282
000020 1b 2c 99 be 2a 39 c7 be e0 a4 d5 3d 2f 28 89 3d
       -0.29916462 -0.389108 0.10431838 0.066971175
000030 b2 79 96 3d 29 24 8f 3d 5f 47 ce 3d 1e 27 42 be
       0.0734743 0.06989319 0.10072207 -0.18960235
000040 5e bc b8 bd 83 af ab 3e 96 6f b5 be dc 72 e4 bd
       -0.09020303 0.33532342 -0.35436696 -0.1115472
000050 9f 9e a4 be fb de 94 3e 3a 92 4d 3e 09 78 bf 3d
       -0.32152268 0.2907637 0.20075312 0.09349067
000060 44 07 e4 bd db d2 c7 be 33 a1 52 bd 99 2a 3c 3d
       -0.11134198 -0.39028057 -0.051423263 0.04593906
000070 66 92 0b bf 49 41 cf 3c 97 e6 e3 be c6 34 13 be
       -0.5452026 0.025299685 -0.44511864 -0.143756
000080 93 62 9c 3e 63 cc d6 be 85 17 9b 3d 5e 53 f6 3e
       0.30543956 -0.4195281 0.07572845 0.4811048
000090 86 43 67 3e 3b a6 02 3f 2a d0 47 3e 30 cd 17 3e
       0.22584352 0.510349 0.19513002 0.14824367
0000a0 27 e5 6c 3e f7 16 08 bc 78 97 c9 be 5f 1e bb be
       0.2313429 -0.0083062565 -0.39373374 -0.3654661
0000b0 dd 94 a0 3d 22 28 02 bf 28 7e c8 be 09 35 b8 3e
       0.078408934 -0.5084249 -0.3915875 0.35977963
0000c0 7d d0 57 3e d7 f2 e6 be bc 04 f1 be 2d 5d a8 3e
       0.21075626 -0.45107147 -0.47073925 0.32883587
0000d0 f6 83 08 3e ae d7 92 3e 45 da 94 3e 36 77 5a 3d
       0.13331589 0.28680176 0.29072776 0.053336345
0000e0 0d 6a 0f bf 38 6c 17 3e d4 e8 82 bd af 87 b9 bc
       -0.56021196 0.14787376 -0.06392065 -0.022647707
0000f0 a6 e9 64 3d 1d 50 7a 3d 18 73 06 3e 44 2f a7 be
       0.055886887 0.06111156 0.13129842 -0.32653248
000100 36 ac 1a 3e b7 b5 2c be f5 20 d9 be 30 50 04 3f
       0.15104756 -0.16866194 -0.42407957 0.51684856
000110 6f 2a 91 3c b5 3f d8 bd f4 ac 00 be 6b 72 7d 3e
       0.01772043 -0.10559026 -0.12565976 0.24750678
000120 77 c2 b1 be ab 85 01 bf dc e0 43 be b6 a8 41 be
       -0.34718677 -0.50594586 -0.19128746 -0.18912014
000130 50 01 14 3d ab 4d 01 3f 47 96 75 3e 55 cd ef 3d
       0.036134064 0.50509137 0.23983108 0.11709086
000140 7e 25 5a be cb 82 09 3e 7f 6d 99 3e d4 9f 65 bb
       -0.21303365 0.134288 0.2996635 -0.0035037892
000150 97 5e 31 3e 19 8e e6 3e b5 08 b7 be 81 7e fc be
       0.1732124 0.45030287 -0.3574883 -0.49315265
000160 be 99 8f be 33 b3 16 3f 5b 45 13 be 36 21 6d be
       -0.28046983 0.58867186 -0.14381926 -0.231572
000170 c6 e4 15 3f fa c2 cd be 3a c0 9d be 67 57 17 3e
       0.58552206 -0.40187818 -0.3081072 0.14779435
000180 4e 4b cc be db cc a8 bd d9 71 20 be 1b 38 e0 be
       -0.39901203 -0.08242198 -0.1566843 -0.43792805
000190 30 2c b9 bd 3c b3 0c 3f cf 6f 97 be 93 49 ad 3e
       -0.09041631 0.5496099 -0.2957749 0.33845195
0001a0 2a d0 19 3f 1a 2e 02 bf bc 05 83 bd ba bc 15 3f
       0.6008326 -0.50851595 -0.06397578 0.584911
0001b0 1e 33 ec 3e 98 a9 29 3e aa 60 0d 3e 05 e1 99 3c
       0.4613275 0.16568601 0.13806406 0.018784055
0001c0 06 b9 a8 3e d8 1b 95 3e 1d 53 50 be 62 fa a2 3e
       0.32953662 0.29122806 -0.20344205 0.31831652
0001d0 b6 66 c1 3d 1f f2 06 bf a1 59 d7 be da f5 17 bf
       0.09443419 -0.527132 -0.4206057 -0.59359515
0001e0 06 bf 8a 3e 2a 4b 05 3e 0d 3c 0c bf 2d 64 d6 be
       0.27098864 0.13016954 -0.5477913 -0.41873303
0001f0 3d 49 0f bf a3 f6 84 bc b6 a5 a3 3e 21 5e c2 3e
       -0.5597113 -0.016230887 0.31962365 0.3796244
000200 ff 4b 31 be 02 d7 07 3e 98 86 04 3f f3 f4 d7 3c
       -0.17314146 0.13265613 0.51767874 0.026361918
000210 62 12 cf 3e 36 67 0b bf 40 3d 6b be 88 c0 f3 3e
       0.40443712 -0.5445436 -0.22972584 0.47607827
000220 30 94 d0 3e 7f a3 1c 3d cd 14 ca be b6 50 41 3d
       0.40738058 0.03824186 -0.39468995 0.047196113
000230 98 c0 92 be 66 48 a4 be f2 97 a3 3c 6f 0c d6 3e
       -0.28662562 -0.32086486 0.019969914 0.4180636
000240 ad c7 f1 3e fb 1e 1b 3e 45 2a 43 bd d1 3c 95 be
       0.47222653 0.15148537 -0.047647733 -0.29147962
000250 66 69 ab be 23 ec ab 3e cf 86 c9 3e 65 fd c7 3e
       -0.3347885 0.33578596 0.39360663 0.39060512
000260 4c 88 f3 be f8 dd 7d be bf 49 19 3e 35 bd b1 be
       -0.47564924 -0.24791706 0.14969538 -0.34714666
000270 5c 41 85 be c5 36 8c be b9 3c f6 bd a2 eb c8 be
       -0.26026428 -0.27385536 -0.12023301 -0.39242274
000280 0f a6 37 bd 92 98 9c 3e 16 2d b4 be c5 37 18 3f
       -0.0448361 0.30585152 -0.35190648 0.594601
000290 a6 16 b6 3e 52 9c c9 be c0 2c 05 bf 64 5a d7 3e
       0.35564154 -0.39377075 -0.5202141 0.4206115
0002a0 ba 5d a2 be 99 c6 16 bf b7 68 a8 bd 18 cc 1a 3f
       -0.31712133 -0.58896786 -0.08223098 0.6046767
0002b0 c1 e1 15 be 32 12 5d 3e cc 3b b2 3d f1 a2 04 be
       -0.146369 0.21588972 0.087028116 -0.12952782
0002c0 41 2f 3c be 2f 29 89 3e a9 83 62 be 58 91 e6 3d
       -0.18377401 0.26789233 -0.22120537 0.11258191
0002d0 ba cb dc be 72 d3 be be 60 eb ed be c1 a6 a8 3e
       -0.4312418 -0.37270695 -0.4646864 0.32939723
0002e0 c2 f9 f8 3d 69 16 cd 3d 21 a4 4e 3e ab 27 0a 3f
       0.121570125 0.1001404 0.20179798 0.5396678
0002f0 6a 99 4e be 94 d0 0b bf ea 65 0c bf 45 95 0e bf
       -0.2017571 -0.5461514 -0.5484301 -0.5569652
000300 14 35 13 bd f2 48 86 bd 08 60 9f be 1a f9 d2 bd
       -0.03593929 -0.06556882 -0.31127954 -0.103014186
000310 c7 dc 3c be 7e 77 0d 3f 61 ab 6d bc ef dc 3d be
       -0.18443595 0.55260456 -0.014506192 -0.1854131
000320 93 8e b2 be 0d 2f b5 3d 33 0b a6 3e d5 4d c0 be
       -0.348744 0.08846865 0.3243042 -0.3755938
000330 2a ad c1 be 1e a8 3d 3d d6 67 e8 be f5 61 71 bd
       -0.37827426 0.046302907 -0.4539172 -0.05893131
000340 96 ad 43 be db b8 c4 be b4 8a 8c 3e cb 9d be bc
       -0.19109187 -0.38422284 0.27449572 -0.0232686
000350 7b bf 00 bf 5e e9 ad 3e 7e c2 0c 3f 3f fb 22 be
       -0.50292176 0.33967108 0.5498427 -0.15916155
000360 57 54 ef be d0 1c 55 be 1f 2f db 3d f5 c7 cc be
       -0.46744034 -0.20811772 0.10702347 -0.39996305
000370 d5 29 19 be 9e 83 16 3e a7 22 06 3f 3e a3 f9 be
       -0.14957364 0.14698645 0.52396625 -0.48757356
000380 d8 b0 d4 3c aa 30 be 3e 58 df 74 3e f8 2d 94 be
       0.025963232 0.37146503 0.23913324 -0.2894132
000390 f4 53 f8 bd 9b ff 3e 3e a4 0e c5 3d 9c 2a 1c 3b
       -0.12125388 0.18652193 0.09621933 0.0023829108
0003a0 23 be df 3e 3f 41 05 bf 21 dd f7 3e 9c c0 bc be
       0.4369975 -0.5205268 0.48410895 -0.368657
0003b0 b2 b2 eb bc 2d f4 09 bf 6d b0 20 bc 73 76 1c 3e
       -0.028771732 -0.5388821 -0.009807688 0.1527956
0003c0 f3 8f a0 3e d5 e3 32 be cc 79 b6 3c 30 67 be 3c
       0.31359825 -0.17469724 0.022274874 0.023242563
0003d0 a7 8f 05 be 81 9a 6a be 34 57 bd 3d d8 58 13 bf
       -0.1304308 -0.22910501 0.09245148 -0.5755744
0003e0 d7 5c 5d 3e 1e e2 07 bf 21 30 ee 3e c2 d5 f2 bd
       0.21617447 -0.530794 0.46521094 -0.11857177
0003f0 d3 0f 49 3e d9 e9 02 3e 3d ea 0e 3f 86 eb 97 bd
       0.19634943 0.12784518 0.5582617 -0.074179694

encoder.layers.0.attention.w_k.bias f4 [16]
000000 fb 79 d5 30 63 98 1a 31 af ee c9 31 3f d9 a9 32
       1.5532459e-09 2.2496571e-09 5.877005e-09 1.9772981e-08
000010 c8 fc 0c b2 dd 00 39 32 4a 1e 16 32 08 74 6a b1
       -8.206548e-09 1.0768614e-08 8.738036e-09 -3.4117438e-09
000020 0c 3c 47 31 c1 98 5d 31 61 51 ea b0 e6 19 97 30
       2.8992444e-09 3.2246563e-09 -1.704887e-09 1.0994057e-09
000030 67 43 3a b1 bc 87 87 30 4b 3a d8 b1 7b df b5 2d
       -2.7104876e-09 9.861121e-10 -6.2930545e-09 2.0676563e-11

encoder.layers.0.attention.w_v.weight f4 [16, 16]
000000 95 8b ff 3d d1 cf b7 be 4a e5 ac bc d9 e2 f1 3e
       0.12477795 -0.3590074 -0.021105427 0.47243384
000010 67 3f 38 3d 06 a7 74 3e 21 55 d9 3d 9a ee e3 3e
       0.04498234 0.2389184 0.1061194 0.44517976
000020 d0 72 84 be f3 89 05 3f 4c b9 a8 bc 9e f6 ff 3d
       -0.25868845 0.5216362 -0.020596169 0.1249821
000030 f0 13 ec bd 87 e2 1d 3e 34 67 00 3f 1b 0c b6 be
       -0.1152724 0.15418445 0.50157475 -0.3555611
000040 2d 25 ac 3d 2e 6b 60 be 3a e1 0e 3e c6 a7 1d be
       0.08405528 -0.21915886 0.13953105 -0.15396032
000050 d5 0a 47 be 48 ef d7 be c6 9f 0a 3e c5 23 0c 3d
       -0.19437726 -0.42174745 0.13537511 0.0342138
000060 67 31 b3 3e 00 fc 05 bf 4d da e7 be 45 21 f7 3e
       0.34998628 -0.52337646 -0.45283738 0.4826757
000070 65 d6 3a be b0 8e 8e bd a0 5e 2f 3e cb 3b d8 3d
       -0.18245848 -0.06960809 0.1712594 0.105582796
000080 71 f9 11 be 29 2d 0b be 9f 97 b2 be aa ef 05 3f
       -0.1425531 -0.13591446 -0.34881303 0.52318823
000090 ab 24 37 3e c7 8e 97 be c1 63 11 bf 5b 35 5a ba
       0.17885081 -0.29601118 -0.5679284 -0.00083239906
0000a0 dc 00 06 bd ee 6f 93 3d c6 95 67 3e 64 be ec be
       -0.032715663 0.07199083 0.22615728 -0.46239007
0000b0 19 9e 9d 3e 72 ab 09 bd 44 1b f1 3e 07 f2 23 be
       0.3078468 -0.03361077 0.47091115 -0.16010295
0000c0 3f 31 84 be e8 bc df be d7 fd b4 be a6 55 37 3c
       -0.25818822 -0.43698812 -0.35349914 0.011189854
0000d0 16 3f bf be 4e 03 2e 3e 0f 5b 1f 3e e3 b0 0c bf
       -0.37352818 0.16993448 0.1556208 -0.5495741
0000e0 1c b3 b5 3e 38 e0 d4 3e 10 4e 6a 3e d6 dd 22 be
       0.35488212 0.41577315 0.22881341 -0.15904936
0000f0 86 4a d9 3e ce f4 c1 be 5c e8 a8 3e 6e 63 0f bf
       0.4243967 -0.37882084 0.32989776 -0.5601109
000100 97 00 f1 3d 66 da cd bd 91 8c 2f 3e 32 87 6d 3e
       0.11767691 -0.10051422 0.17143466 0.23196104
000110 c7 eb 51 3e 8a ec f8 3e fb a0 dd 3e f1 ef b4 be
       0.20500098 0.48617965 0.4328688 -0.3533931
000120 85 d2 72 3e 07 97 9d 3e 2d 40 ce bc b4 29 4c be
       0.2371312 0.30779287 -0.025177086 -0.19937783
000130 26 12 f0 3e cb ba e3 bc df bd e7 3e ef f0 eb be
       0.46888846 -0.02779903 0.45262048 -0.46082255
000140 9d 2e 0b 3f f7 53 5e 3e f5 ed 83 3e ad 6e 1f be
       0.54368 0.21711718 0.25767484 -0.15569563
000150 c4 9f 06 3f 3b 8e e6 3e 22 56 05 3e b8 53 1d bd
       0.52587533 0.45030388 0.13021138 -0.03840992
000160 e5 6a 8e be 69 c2 59 be 36 a7 c7 3e 1e 2f 0c 3e
       -0.2781593 -0.21265568 0.3899476 0.13689849
000170 0f c8 a6 be 36 c3 e8 3e 59 98 df 3e df 4c 84 be
       -0.32574508 0.45461434 0.4367092 -0.25839898
000180 2c 02 a0 3e 6b ea af 3e 99 8f b3 be 20 00 8a be
       0.31251657 0.34358534 -0.35070494 -0.2695322
000190 df 8a 95 3d c8 fa 08 3e 66 6b e4 be e9 1c 47 3d
       0.07301878 0.13376915 -0.44613189 0.048611555
0001a0 b4 fe 89 be 78 96 ce bd c9 f5 9e 3e 8b f2 21 3e
       -0.26952136 -0.100872934 0.31046894 0.15815179
0001b0 3c ae 41 be b5 c3 b4 3e 37 9e 9a 3e b8 34 dc 3e
       -0.18914121 0.35305563 0.30198833 0.4300897
0001c0 25 a9 0c bf 25 ea 59 3a 0f 4d 28 3e 80 91 cf bd
       -0.54945594 0.00083127833 0.16435646 -0.10135174
0001d0 d9 bb ff bd 4f d0 38 3e 1e a9 9c 3d ce 18 07 bf
       -0.12487001 0.18048213 0.07649444 -0.52772224
0001e0 12 f5 11 3e f8 4d 93 3e ef 8c 82 bd 8f fd 16 3e
       0.14253643 0.28770423 -0.06374537 0.14745162
0001f0 63 49 11 bf f6 8e ba bc 6f f0 03 bf cf 31 77 be
       -0.56752604 -0.022773247 -0.5153875 -0.24140094
000200 0a 35 7f 3e 1c ab 47 be 83 38 ed bd cc d3 03 3f
       0.24922577 -0.19498867 -0.115830444 0.5149505
000210 54 1a 84 3e c2 e8 ed 3d 6c 23 9c 3e 82 b5 92 3c
       0.25801337 0.11616661 0.30495775 0.017908815
000220 10 0c 03 3f ca c2 1a be f9 c4 62 3e c9 7b b9 bb
       0.5119028 -0.15113369 0.22145452 -0.0056605083
000230 35 15 11 bd 1a 19 f5 3e 5c 16 36 3e fe c2 4e be
       -0.035420615 0.47870713 0.17781967 -0.20191571
000240 7b a7 86 3e b3 89 bd 3e 9a db a6 be 6b f4 5d 3d
       0.26299652 0.3701912 -0.32589418 0.054188173
000250 a9 da 49 3e d3 8e f6 3d 6f 04 79 be f8 f0 05 bf
       0.19712318 0.1203896 -0.24318098 -0.52320814
000260 5e 5a 26 3e 60 ef db 3c d1 4b f5 be b5 9c 04 bf
       0.1624541 0.026847541 -0.47909406 -0.51801616
000270 3a 00 d5 3e 80 fe b7 3e 00 8d 04 3f b2 d9 59 be
       0.41601735 0.35936356 0.5177765 -0.2127445
000280 00 09 ac 3e 47 54 d9 3e 35 e1 23 3e b5 4a a9 be
       0.33600616 0.4244711 0.16003878 -0.3306481
000290 a3 dc 06 bf 9f 2f 04 bf a3 9e 12 be 7b 10 93 3d
       -0.52680415 -0.51635164 -0.14318328 0.07180878
0002a0 eb 98 de be ab 5a 90 3e b0 19 3a 3c a6 bf 9a bd
       -0.43476042 0.28194174 0.011358663 -0.07556085
0002b0 65 36 48 bd b8 9b 94 bd 48 47 a3 3e 44 ad 61 3d
       -0.04888 -0.072562635 0.3189032 0.05509688
0002c0 26 ba 3a be 4c 63 54 3e e1 29 83 be 68 7c bd be
       -0.18235072 0.20741004 -0.2561789 -0.37008977
0002d0 47 53 60 3e 63 13 f1 be 8d 9b 62 3e 09 9e 2e be
       0.21906768 -0.47085103 0.2212965 -0.17052473
0002e0 da 0b 89 3d 9a 91 d2 be 02 2d ca bb 25 73 be 3e
       0.06691714 -0.4112671 -0.006169916 0.37197223
0002f0 13 96 27 3e f3 9f e5 be 53 d3 a5 be df b4 bf 3e
       0.16365843 -0.44848594 -0.3238779 0.3744268
000300 51 f0 df 3e e8 c6 9b be 06 f6 bc be de d0 97 be
       0.43738034 -0.3042519 -0.3690645 -0.2965154
000310 4f 87 be 3e f1 9b 8f be e3 bb 12 3c 49 56 d4 be
       0.37212607 -0.2804866 0.0089559285 -0.4147208
000320 b7 9c fd 3e c3 53 82 be 99 14 01 bf b2 88 ab be
       0.49533626 -0.2545453 -0.50422055 -0.33502728
000330 75 39 85 3e 05 9e f7 3e 62 f1 be be ff 00 fe 3e
       0.260204 0.48362747 -0.37293535 0.49610135
000340 dc c1 89 3e e1 7a 8b 3b 8a 0f 7a 3e bf e3 98 3e
       0.26905715 0.0042565917 0.2441999 0.29861256
000350 86 07 e6 3e 67 8a bf 3e 12 b5 a4 be fb e9 b7 be
       0.44927615 0.3741028 -0.32169396 -0.359207
000360 15 64 8a 3e 14 7c ae be 6c 89 4d 3e 60 dc e1 be
       0.27029482 -0.3407904 0.20071954 -0.44113445
000370 92 66 96 3e e9 43 e3 3e 23 52 e8 3e 90 5c f3 be
       0.2937513 0.4438775 0.45375165 -0.47531557
000380 92 f2 02 3d 17 64 01 3f 2d 3f 85 3e 01 e6 bf bc
       0.031969614 0.5054335 0.26024762 -0.023425104
000390 20 d4 87 bd ef d0 bd be 61 a4 ac bd d0 eb 1c bd
       -0.066322565 -0.37073466 -0.0842979 -0.038310826
0003a0 bd 47 36 be 99 77 97 bb f6 33 d7 3e 39 0a fa 3e
       -0.17800803 -0.0046224114 0.4203183 0.48835924
0003b0 e5 27 c2 3e 12 db e7 be a2 b2 7c be dd 44 05 bf
       0.37921062 -0.45284325 -0.24677518 -0.520582
0003c0 e0 93 06 bc 12 21 ae be 76 f0 0a bd 89 ac 28 be
       -0.008213967 -0.34009606 -0.033920728 -0.16472067
0003d0 28 a5 2b 3e 94 e5 e3 be c2 47 f8 be d8 55 f9 be
       0.16762221 -0.44511092 -0.48492247 -0.48698306
0003e0 a3 0f e6 3e 00 aa b0 be af 0c 80 bd ef 14 55 bd
       0.44933805 -0.345047 -0.06252419 -0.052021917
0003f0 7c 3c 04 bf af ed bd 3e 1b eb 6f be 4f 31 ed bc
       -0.5165479 0.370954 -0.2342953 -0.028954176

encoder.layers.0.attention.w_v.bias f4 [16]
000000 c7 c9 ea b9 73 9f b3 b8 d6 d3 3b ba 67 62 61 b9
       -0.00044782294 -8.565085e-05 -0.000716505 -0.0002149433
000010 53 03 8a 39 51 0f bf b8 c0 ca 02 ba f4 d5 8d ba
       0.00026323888 -9.1104426e-05 -0.00049893185 -0.0010821209
000020 77 06 d7 38 7a 20 1c 3a d6 4a b3 b9 94 fd 0c ba
       0.00010253203 0.0005955767 -0.00034197298 -0.0005378362
000030 a5 b4 67 38 83 62 eb 38 a2 0c 09 38 f3 13 02 39
       5.524293e-05 0.000112240225 3.267511e-05 0.00012405198

encoder.layers.0.attention.w_concat.weight f4 [16, 16]
000000 bc 02 07 3f 4a ed 50 3e 61 1c 7b 3e ee ea fe bd
       0.5273855 0.20403019 0.24522544 -0.12447153
000010 da 32 5b 3e 48 29 48 bc de b3 c0 3e 5f 97 3c 3d
       0.21406117 -0.0122168735 0.37637228 0.046042796
000020 67 24 d7 be 2a f9 57 be ae 23 88 be 08 7d 53 3e
       -0.4201996 -0.21091142 -0.2658972 0.20653164
000030 d9 eb af be a6 d1 2f 3e e9 c9 05 be 67 0c 72 be
       -0.34359625 0.17169818 -0.13065304 -0.23637544
000040 c7 d2 88 3d e0 5d 29 3e ed a6 f4 be 92 e7 9f be
       0.066808276 0.16539717 -0.47783604 -0.31231362
000050 4c 17 dc be d4 ec 8a 3e 9d 64 9c be d4 7e 78 be
       -0.42986524 0.2713381 -0.30545512 -0.24267131
000060 21 5c 42 be 2d 8e 1d be 1d ba c2 3d 05 97 32 be
       -0.18980457 -0.15386267 0.095081545 -0.17440422
000070 18 f1 87 bb fa 0f 04 3f 47 e3 7d 3e 45 c7 e5 3e
       -0.0041486137 0.5158688 0.2479373 0.44878593
000080 b3 62 9f bc 35 75 43 be 56 62 8d bd e1 f9 d2 3e
       -0.019456243 -0.1908768 -0.06903522 0.41206267
000090 81 09 46 3e d4 64 cc 3e d2 c5 cf 3e f2 ef ad 3e
       0.19339563 0.39920676 0.40580612 0.33972126
0000a0 ea df b0 3e db 03 9b 3e ea b3 d9 be 39 3e 1d 3b
       0.34545833 0.3027638 -0.42520076 0.0023993386
0000b0 bc 55 88 be da af 6b be dd a3 a1 3e 24 13 06 bf
       -0.2662791 -0.23016301 0.3157033 -0.52372956
0000c0 93 18 10 3f a5 a9 4f be 59 75 de be 27 f7 c3 3c
       0.562875 -0.20279558 -0.43448904 0.023921562
0000d0 1e 2f 20 be 90 10 0b bf 49 8b 89 3e f8 bb 8d 3e
       -0.15642974 -0.5432215 0.2686408 0.2768247
0000e0 f0 c3 c7 bb 3d 14 c4 bd bc cd c6 be 54 71 85 be
       -0.0060963556 -0.09574173 -0.38828838 -0.26063025
0000f0 72 54 c5 be f0 f3 01 3f f3 e7 3a be 47 66 f7 3e
       -0.3854099 0.50762844 -0.18252544 0.4832022
000100 0f 20 1e 3e e5 c1 ce be c4 e2 1b be a4 73 19 3e
       0.15441917 -0.40382305 -0.15223223 0.1498552
000110 5b 96 89 3d cc 0b cb bd fc 80 f7 3e ea dd e7 be
       0.06718131 -0.099143595 0.48340595 -0.45286494
000120 6f 08 66 be 6a 4b 76 bd cd 81 9c be 9a 12 9e 3e
       -0.22464155 -0.060130514 -0.3056778 0.30873567
000130 a4 e2 83 be 9a 1f 1c 3e ef a0 3a be 7e 51 c2 be
       -0.2575885 0.1524643 -0.18225454 -0.379528
000140 59 55 35 3c 4f a6 ef 3d d8 11 30 be 9b 1c 81 be
       0.011067712 0.11701643 -0.17194307 -0.25217137
000150 e8 76 b9 3d 9a 3e e2 be d7 d5 90 bd f2 da cd 3e
       0.09055883 -0.44188386 -0.07072037 0.40206105
000160 22 1e 6a be 97 ba 9c bd 65 e1 a6 bb cc 61 a3 3e
       -0.22863057 -0.07652777 -0.005092787 0.3191055
000170 ea 81 6f be 92 99 f2 3e f2 35 96 bd 16 2e a9 3e
       -0.23389402 0.4738279 -0.07334508 0.33042973
000180 24 00 29 be 15 d0 f4 be 5d 7f c1 be df fb b3 be
       -0.1650396 -0.47815004 -0.37792483 -0.351531
000190 95 1f 98 3e 9b 32 03 3f 61 da c1 3e a7 36 9f 3d
       0.29711595 0.5124909 0.37861922 0.07774096
0001a0 2d 4b 15 be 9d 76 92 ba 6f ce 0e be 5c 93 f8 bd
       -0.14579459 -0.0011174266 -0.13945936 -0.121374816
0001b0 ad 1d ac 3d a7 a2 ca bd c0 45 b8 3c a5 43 aa be
       0.08404098 -0.09894305 0.022494197 -0.33254734
0001c0 10 87 4f 3e 9f 3e cd 3e 5a f8 eb 3d b0 12 88 bd
       0.20266366 0.4008684 0.11521979 -0.06644189
0001d0 a1 db e2 3b 53 92 12 bf 4e fc 9e be 1f 7a cc 3d
       0.0069231545 -0.57254523 -0.31051868 0.0998423
0001e0 76 74 0e 3e 8f 90 5b 3e f4 8a 07 bf 41 45 ef 3e
       0.13911614 0.21441863 -0.529464 0.46732524
0001f0 36 d8 e3 3e c8 cb 25 be c9 78 33 3e 28 80 01 bf
       0.44500893 -0.16191018 0.17526545 -0.50586176
000200 a9 ad 2a be cb 5d da be 77 33 c9 3e 6c f2 bd 3e
       -0.16667809 -0.42649683 0.39297077 0.37099016
000210 0b 14 43 3e 63 cb db 3e d2 48 87 3e 11 32 17 3e
       0.19050615 0.4292861 0.26422745 0.14765193
000220 8e 6b 64 be 14 94 ba be fa d2 89 bd a5 98 97 3d
       -0.22306654 -0.364411 -0.06729694 0.074021615
000230 c0 62 d6 3d 52 8d e1 be bd 8e a1 be be 80 c3 be
       0.10468054 -0.4405313 -0.31554213 -0.3818416
000240 77 ee 86 be 01 20 b2 3b 91 e3 8c be 13 29 3f bc
       -0.2635381 0.005435944 -0.2751737 -0.011667508
000250 ab 56 b2 3e af 40 b2 3e 79 04 ac be 73 53 bd 3e
       0.34831747 0.34814975 -0.33597162 0.3697773
000260 ef df 70 be d4 dc 26 be 16 64 80 bc 23 94 a0 be
       -0.23522924 -0.16295177 -0.015672725 -0.3136302
000270 8b 0c ae be 84 c5 e2 3d af 3e c2 be e8 13 eb be
       -0.33993945 0.11072829 -0.3793845 -0.45913625
000280 c1 16 98 3e fc e9 ef 3e 35 11 45 bd b8 be bf 3d
       0.2970486 0.46858203 -0.048112113 0.093625486
000290 2b fe 56 be 9f 8e f5 3d 80 d9 ac 3d 8f 0d 08 bf
       -0.20995395 0.119900934 0.08439922 -0.5314569
0002a0 54 2b 7b 3e cf 26 ef 3b 29 04 ed bd e5 28 61 3e
       0.24528247 0.0072983275 -0.11573059 0.21988256
0002b0 a0 c4 99 3d db ce 91 be a9 c6 49 bd f1 da f1 3e
       0.07508206 -0.2847813 -0.049261723 0.47237352
0002c0 f5 d7 d3 be 42 15 93 bd eb e8 05 be ac 5a 8b be
       -0.413757 -0.07181789 -0.13077132 -0.27217615
0002d0 25 dd 6f 3e 7c 2b 81 3e 2c af 57 3e d5 7d ac be
       0.23424204 0.25228488 0.21062917 -0.33689752
0002e0 bb df e9 be 14 c8 5b 3c db e8 61 3e 74 68 11 be
       -0.45678505 0.013414402 0.22061484 -0.14200002
0002f0 7e f8 82 3e e3 0f 44 3e 49 80 4b be 92 72 df 3e
       0.2558021 0.19146685 -0.19873156 0.43642098
000300 ae 05 ed be 3b 07 ea 3e 19 fa 64 be 9a ac 18 be
       -0.46293396 0.4570864 -0.2236103 -0.14909592
000310 0b e6 27 3e c9 5e 07 be a2 3b ce bd 76 a8 fa 3e
       0.16396348 -0.13219751 -0.10069968 0.4895665
000320 d0 6b 23 b9 4a dc 78 be 93 61 5e 3e 45 af e3 3e
       -0.00015585055 -0.24302784 0.21716909 0.44469658
000330 c3 2d a7 3e b3 30 e8 3e 61 af fe bd e9 5f f1 3d
       0.326521 0.45349655 -0.124357946 0.117858715
000340 bf 63 c6 3e cb df e8 3d 4c 75 4c 3d 71 aa 34 bd
       0.38747975 0.1137081 0.04991655 -0.044107858
000350 47 89 b3 bd f1 c2 02 3f 38 f1 94 bd 76 4a 80 be
       -0.08766418 0.51078707 -0.07272571 -0.2505681
000360 78 22 f8 3e 50 ab 67 be 63 53 0c be 96 4a 91 be
       0.48463798 -0.22623944 -0.13703685 -0.28377217
000370 44 5b bf be 68 8a 94 3e 28 db 9b be 78 39 0d 3e
       -0.37374318 0.29011846 -0.3044064 0.13791454
000380 ee e2 5e 3e ed fc 79 bd 9c 99 36 bd e8 7f a4 3e
       0.21766254 -0.061032224 -0.044580087 0.32128835
000390 ee 98 97 be 49 9f 9a 3e 15 f9 87 3e 69 f7 83 3e
       -0.29608864 0.3019965 0.26557222 0.25774696
0003a0 e1 ae 12 bf 76 74 a7 be f7 38 5d 3d ad 4c 7a 3e
       -0.57298094 -0.3270604 0.054009404 0.24443312
0003b0 e2 bf af bd 78 81 39 3d 01 8a 49 3e fd f1 00 bf
       -0.085815206 0.045289487 0.1968155 -0.50369245
0003c0 fc ce 6f 3e 9e 59 dd bd 43 ea 91 3e ed b9 a0 3e
       0.23418802 -0.10808109 0.2849904 0.3139185
0003d0 b8 f1 0f bf ca 0b 23 be ea da 01 bf 9b 52 59 3e
       -0.5622821 -0.15922466 -0.5072466 0.21222918
0003e0 82 47 53 3e 55 2c f9 be 10 bf b1 bc 6e 69 86 be
       0.20632747 -0.48666635 -0.021697551 -0.2625231
0003f0 a0 80 54 bc bf 79 08 3f f3 bf 85 be 44 f7 a0 be
       -0.01297012 0.5331077 -0.26123008 -0.3143865

encoder.layers.0.attention.w_concat.bias f4 [16]
000000 6f 2e 2e ba dd e6 ae 39 a8 0c 4f 38 44 13 18 39
       -0.00066444924 0.00033359873 4.9364433e-05 0.00014503027
000010 47 ad 01 3a 9d 68 d2 b9 a6 dc 35 b9 68 e0 18 3a
       0.000494678 -0.00040132264 -0.00017343703 0.0005831779
000020 49 58 8e b9 d3 7c 6d 3a 55 26 95 b8 ab cc 46 39
       -0.00027150128 0.0009059433 -7.1120136e-05 0.00018958996
000030 a5 b4 8a b9 84 8c d9 b8 9a 79 23 ba d2 35 b8 b9
       -0.00026456002 -0.000103735394 -0.00062360766 -0.00035135314

encoder.layers.0.norm1.gamma f4 [16]
000000 49 37 5d 3f 4d af 65 3f a8 fc 6f 3f 57 74 4a 3f
       0.86412483 0.8972061 0.937449 0.7908377
000010 62 f6 67 3f 39 86 67 3f ba 56 6f 3f 2a 6e 6e 3f
       0.90610325 0.9043918 0.9349171 0.93136847
000020 91 a6 55 3f ed fe 54 3f 1a 5a 4d 3f 5a dc 58 3f
       0.83457285 0.83201486 0.8021561 0.8471123
000030 e0 36 70 3f 2f 38 6f 3f f4 05 6e 3f 10 29 6a 3f
       0.9383373 0.93445104 0.92977834 0.91468906

encoder.layers.0.norm1.beta f4 [16]
000000 57 de 1d 3b 4e fe 14 3b 2e c1 3f 3b 52 df 23 bb
       0.0024088824 0.0022734585 0.0029259431 -0.0025004935
000010 ec 8f 99 3a 1f 75 b0 bb 33 74 82 3a 34 d3 b1 ba
       0.0011715866 -0.0053850557 0.0009952843 -0.0013566972
000020 a7 10 fc ba d9 a0 3d bb 72 ba 2e 3b b7 21 33 3a
       -0.0019231037 -0.0028934984 0.0026661423 0.0006833332
000030 29 bf 55 ba f9 70 31 ba 42 83 b9 ba d6 2a af 3a
       -0.000815379 -0.00067688484 -0.0014153498 0.0013364207

encoder.layers.0.ffn.linear1.weight f4 [64, 16]
000000 27 55 ab 32 25 c5 b7 b6 0a 9a bd 36 ee 88 d3 b3
       1.9945743e-08 -5.4767756e-06 5.6505714e-06 -9.8503605e-08
000010 a4 75 c9 36 cd cf 62 3d 7b c0 b3 bd d2 80 a0 34
       6.003962e-06 0.055373956 -0.08776947 2.9896052e-07
000020 34 14 80 b6 ef 75 2a 36 af 3b 1c b6 0b f1 8b 35
       -3.817049e-06 2.540062e-06 -2.3280552e-06 1.042646e-06
000030 5b 9d 03 b7 ac 0a 38 37 a1 db d0 b6 a0 32 d4 3a
       -7.844846e-06 1.0969739e-05 -6.224451e-06 0.0016189404
000040 ea 70 ad 3c 2b 85 c5 bd 35 93 ac 3e 3f d2 6e be
       0.021172006 -0.096445404 0.3370606 -0.2332239
000050 38 1d a4 3e cb 3b 54 3e b6 8b 79 3c 66 eb 8f be
       0.32053542 0.20725934 0.015231064 -0.28109282
000060 f6 2b eb 3d 72 b1 9b 3e bd 21 b0 be d8 e7 39 3e
       0.11482994 0.30408818 -0.3440074 0.18154848
000070 1e 56 0c 3e 52 35 b1 3e 05 00 ae 3d 73 c6 b8 be
       0.13704726 0.34610993 0.084960975 -0.36088905
000080 21 0f 83 be ac 88 14 3e 2f 11 3d 3d b8 ef 81 3e
       -0.2559748 0.14505261 0.046158966 0.25378203
000090 39 e7 de 3e 73 8b 63 be 98 64 e3 3e 03 86 a8 3e
       0.43535784 -0.22221164 0.44412684 0.32914743
0000a0 fa 2f 4d be a4 72 22 be 68 2d fe bc 45 e9 64 3e
       -0.20037833 -0.15864044 -0.03102751 0.2235461
0000b0 50 75 93 3e 54 11 ad 3d 2c 12 45 3e f6 f8 38 bd
       0.2880044 0.08450571 0.19245213 -0.045159303
0000c0 c3 96 a9 bd af 4f 4f be cb e7 80 3e 73 a0 69 bd
       -0.08280709 -0.2024524 0.25176844 -0.057037782
0000d0 77 20 d6 3e 03 a1 6f 3e 72 99 c2 3e bd 89 aa 3e
       0.41821644 0.23401265 0.38007694 0.3330821
0000e0 87 19 40 bd f6 a3 1f be cd 36 82 be f2 68 ab be
       -0.046899345 -0.1558989 -0.25432435 -0.33478504
0000f0 29 a3 30 be 7f ab af be 8e 05 57 bd bb 6b 97 3e
       -0.1724974 -0.3431053 -0.05249553 0.2957438
000100 4a b5 ba be b9 86 9b 3d 41 97 1b 3e 85 4a 37 be
       -0.36466438 0.07594056 0.15194418 -0.1789952
000110 fd cc 00 3f 1e ad 21 bd b7 c6 07 3f 9c 90 61 3d
       0.5031279 -0.039471738 0.5303759 0.05506955
000120 fc 4f 87 be 33 80 70 3e 8d 50 56 bd 14 47 a3 3e
       -0.2642821 0.23486404 -0.052322913 0.31890166
000130 35 83 60 3e 8f b0 0a 3f 92 d1 a2 be 2e cd cb be
       0.21925052 0.5417566 -0.31800514 -0.39804977
000140 46 32 66 be 3f b1 97 bd 4c 05 0b 3e 9f d1 95 be
       -0.22480115 -0.07406854 0.1357624 -0.2926149
000150 c7 02 25 3e 7c 3d da 3e 81 49 9a 3c 53 ef ec 3d
       0.1611434 0.42625034 0.018833878 0.11569085
000160 df 96 fd bd e3 c5 54 3e 9e 5c 89 3e c5 60 96 be
       -0.12382292 0.20778613 0.26828474 -0.29370704
000170 78 4f 04 bf c5 86 57 3e 7d 3f 5b be 91 9f 85 be
       -0.5168376 0.21047504 -0.21410938 -0.26098302
000180 17 da 57 be 28 b2 37 be 10 f6 bb bd 2b 4a 99 be
       -0.21079288 -0.17939055 -0.09177792 -0.29939398
000190 de 7a e4 3e d5 eb 31 be 98 24 4e be 01 6e 62 be
       0.4462499 -0.17375119 -0.20131147 -0.22112276
0001a0 87 b4 be 3b 3d 35 27 be 40 0c 53 3e 14 18 54 3e
       0.0058198604 -0.16328903 0.20610142 0.2071231
0001b0 a1 08 11 3c 9c 19 e3 3d 1f 9e c9 3d 99 e3 34 3e
       0.008852155 0.11088869 0.09844612 0.17664947
0001c0 22 ec e8 bc c5 ae 65 3d 2f 6c d0 38 79 b5 19 39
       -0.02843291 0.056074876 9.938364e-05 0.00014658821
0001d0 18 4b f8 b9 bc cf e8 39 8e 92 06 3e 95 37 ca 3d
       -0.00047358195 0.00044405262 0.13141844 0.09873883
0001e0 9d d5 fc b8 c6 84 e9 38 35 04 d2 ba cf 7f 23 bc
       -0.00012056085 0.00011135037 -0.0016022982 -0.009979202
0001f0 92 22 d8 3d b6 50 21 ba d1 4e 64 3a 75 68 17 38
       0.10553469 -0.00061536895 0.00087092543 3.609849e-05
000200 9e 19 1c 36 fe 4d ac b6 de 61 a9 37 04 24 29 3e
       2.3260723e-06 -5.135079e-06 2.0191943e-05 0.16517645
000210 77 86 8b 36 7c 03 6c b7 0c 89 8d 36 c3 08 24 b7
       4.1581766e-06 -1.4067507e-05 4.218082e-06 -9.777202e-06
000220 24 f9 c6 b6 aa 6e 32 36 fc 7c e1 b6 30 ae 00 b7
       -5.9298636e-06 2.6588482e-06 -6.7200726e-06 -7.669951e-06
000230 cd e0 12 3e e6 a2 88 b8 41 d0 dc bc ca 0f c9 34
       0.14343567 -6.5153276e-05 -0.026954772 3.7450656e-07
000240 ae c2 87 3e d3 64 43 3d ab 96 4a 3e 96 6e 70 3e
       0.26515716 0.047703575 0.19784038 0.23479685
000250 17 00 74 3e 44 fd b2 3d 15 70 c4 3e f8 28 b0 3d
       0.2382816 0.08739713 0.38366762 0.08601564
000260 79 cc 81 3c ba 11 84 3e d4 cf 97 be 84 32 a1 3e
       0.01584457 0.25794774 -0.29650748 0.31483853
000270 55 59 5a 3e db 58 cb 3e 69 2b b2 3e d7 a7 4b be
       0.2132314 0.3971623 0.34798744 -0.19888245
000280 69 55 b3 3e f1 65 2e 3e d3 db 50 be 47 e3 71 be
       0.350261 0.17031075 -0.20396356 -0.23621856
000290 d3 3f df 3e 7f ab e5 3e 07 c8 a1 bd 2d 39 9e be
       0.43603382 0.44857404 -0.0789948 -0.30902997
0002a0 9d b8 18 be aa dd 22 be e8 0f ba 3d 87 df 12 3d
       -0.14914174 -0.1590487 0.09085065 0.035857704
0002b0 e0 e1 56 3e f9 24 9d 3e 80 6c c6 bd 0e fb 56 bd
       0.20984602 0.3069227 -0.096886635 -0.05248552
0002c0 27 65 db bb 17 1d 54 3e f3 06 d9 bc 06 d0 22 3d
       -0.006695408 0.20714222 -0.026492571 0.039749168
0002d0 64 18 1c 3e f1 3a d7 3c c2 29 80 3e 61 1b 0a 3e
       0.1524368 0.026273223 0.2503186 0.13487007
0002e0 89 92 fc bc f4 45 51 3e db 8a 56 3c 88 34 a2 3d
       -0.030831592 0.20436841 0.013094629 0.07920176
0002f0 08 6f 4d 3e 10 38 b1 bc f3 73 02 3e 17 71 b9 be
       0.20061886 -0.021633178 0.12739544 -0.36219093
000300 ec 8f 8e bd ba 9a ca 3e b9 d0 01 3f 16 4f 97 3c
       -0.06961045 0.39571172 0.5070911 0.018470328
000310 50 44 b5 3e 51 01 4d 3e 77 fd 6c 3e 96 75 1d be
       0.3540368 0.20020033 0.23143564 -0.15376887
000320 20 99 36 3e 6b d9 59 be c9 3e 3e 3e a9 83 9a bd
       0.1783185 -0.21274345 0.18578638 -0.075446434
000330 13 f5 10 3e b8 03 24 3e be 69 67 3d 57 06 cf be
       0.14155988 0.16017044 0.056497328 -0.40434524
000340 92 d4 b2 3d 00 92 f7 3d bc 55 4b be 6a 3f 2a be
       0.08731951 0.12088394 -0.19856924 -0.16625753
000350 26 cb a2 bd 8c 70 63 be 74 1c b7 3e cf a8 74 3d
       -0.07948904 -0.22210902 0.35763896 0.0597313
000360 af 4a c9 3d 3f 6d 2e 3e 71 3f 87 3c 8f 9d c3 bd
       0.09828698 0.17033862 0.016509743 -0.09551536
000370 3e 70 a6 3e f8 d9 ad bd 60 e5 c3 3d 59 da 3d 3e
       0.3250751 -0.0848884 0.09565234 0.18540324
000380 be 52 f8 b7 f7 d1 03 ba 96 65 59 3d 6c 3c 6d b9
       -2.9602434e-05 -0.00050285406 0.053075396 -0.0002262459
000390 49 f2 1c 3e 09 43 70 3c 5f ff 02 bc b6 8d 89 3c
       0.153268 0.01466442 -0.0079954555 0.016791206
0003a0 40 e8 9d 38 cf a3 b1 3a 34 af 88 3c b6 57 05 be
       7.529603e-05 0.0013552847 0.016685106 -0.1302174
0003b0 e3 19 23 3e 44 ba 0a be f2 bb b8 bc a3 e2 12 39
       0.15927844 -0.13547617 -0.022550557 0.00014008074
0003c0 54 2a d2 be e0 5b ea 3e 80 b0 91 3e 92 e6 95 bc
       -0.4104792 0.4577322 0.2845497 -0.018298421
0003d0 7f 2f 97 3e f5 b9 0f bf ba 9f b7 bd e2 7c 09 3e
       0.29528424 -0.5614312 -0.08966012 0.13426545
0003e0 52 87 1e be b4 37 44 3e f5 78 16 be 14 e4 fa be
       -0.15481308 0.19161874 -0.14694579 -0.49002135
0003f0 93 8c a5 3e fb 5b 04 3f a6 e4 7a 3e de 08 fa 3d
       0.32333812 0.5170285 0.24501285 0.122087225

encoder.layers.0.ffn.linear1.bias f4 [64]
000000 8f fa ed 36 f8 54 9f 3d 06 82 e5 bd 73 8c 09 be
       7.0923193e-06 0.077798784 -0.11206441 -0.13432483
000010 fc d7 23 be d9 35 99 bd 5b 1b fd 3d 9d 06 2a 38
       -0.1600036 -0.07480974 0.12358733 4.0537318e-05
000020 db a0 14 37 9d 7a 07 3e fc ec 26 bd 70 fc 0a 3e
       8.8589395e-06 0.13230367 -0.04075335 0.1357286
000030 68 f1 12 3e ee 4d 44 3d 6e e4 67 3b 39 47 f7 bd
       0.14349902 0.047925882 0.0035383957 -0.120741315
000040 fa 49 eb bd 68 16 70 3c 92 f4 41 3e 32 e6 48 3e
       -0.11488719 0.01465378 0.18940952 0.19619063
000050 0e 3b 45 be ec d8 28 3a 05 24 ee 3d e2 53 b9 3d
       -0.19260809 0.0006441015 0.11627964 0.090492025
000060 6b 8c 41 3a ec da 1c be 6b 2c cd 3d ed 0a c8 bc
       0.00073832896 -0.15317887 0.10018238 -0.024419272
000070 60 fe 7e bc 07 7d 80 3c 92 6c 89 bc c6 90 6e 3d
       -0.015563577 0.015684618 -0.016775403 0.058243535
000080 41 c0 9a 38 bd 81 c3 bd 47 91 8d 3d f2 34 e0 bd
       7.379102e-05 -0.0954623 0.06912475 -0.109475985
000090 32 d3 7b bc a0 fe 66 3c 36 e4 0d 3e 80 a3 53 38
       -0.015370177 0.014098793 0.13856587 5.045859e-05
0000a0 ba ff 8d 3d ff 71 bd bd 7e f1 e2 3d 91 bf 01 be
       0.069335416 -0.09250259 0.11081217 -0.12670733
0000b0 25 b2 a1 3c df 1d 24 3e 3a 57 d4 37 cd a6 2d 3e
       0.019738266 0.1602702 2.5312987e-05 0.1695816
0000c0 43 33 2a 3e 9d f0 24 3e 37 7a e2 3d 98 3b 3d 3e
       0.16621117 0.16107412 0.11058467 0.18479764
0000d0 0f d6 80 3d 02 b7 98 3c db 96 45 3e b5 21 8f 36
       0.062908284 0.018641952 0.19295828 4.265656e-06
0000e0 d5 5a 21 3d af a4 22 36 38 46 2b 3d 40 38 21 3d
       0.039393265 2.423574e-06 0.041815013 0.039360285
0000f0 cb e4 b5 3d 9c d2 3a 3a d3 54 3e be 2c 51 a5 3c
       0.088815294 0.000712672 -0.18587045 0.020180307

encoder.layers.0.ffn.linear2.weight f4 [16, 64]
000000 9e ab 05 b8 12 3b dc bd 02 e5 0c be e5 65 65 be
       -3.1869502e-05 -0.10753454 -0.13759235 -0.22402151
000010 d2 43 6b be bc 17 9d 3d 29 62 04 3e c5 b3 db 39
       -0.2297509 0.076705426 0.1292807 0.00041904874
000020 5a 76 f8 b8 de 92 83 be ce 72 d4 3d d9 22 00 be
       -0.00011847606 -0.25697988 0.1037346 -0.12513293
000030 5c 6c 76 bd 4f 0a 3c 3d 8f 3b 4d 3c 05 36 84 3e
       -0.060161933 0.04590827 0.012526407 0.25822464
000040 d2 bd a2 bd 31 6a f5 bd f7 94 9b 3d 2c 92 26 be
       -0.079463616 -0.11983145 0.07596772 -0.16266698
000050 13 d4 cc 3d ff 12 78 ba 12 03 17 be c3 99 0d bc
       0.100013874 -0.000946328 -0.14747265 -0.008642617
000060 cd 18 b7 bd 06 a6 2a 3e ad 67 36 3e 6d 28 b0 bc
       -0.08940277 0.16664895 0.17812987 -0.021503652
000070 31 36 f8 3d 99 2e c4 bc 19 5f 52 3e 0b 98 2e 3e
       0.12119711 -0.023948 0.2054409 0.17050187
000080 f7 6e 6f b8 71 10 53 3e 5c de 97 bd c7 be ad 3c
       -5.7085384e-05 0.2061174 -0.074154586 0.021209134
000090 5d 55 19 bb 3a b1 54 3e 3f 39 b5 3d cc ad 01 b9
       -0.0023396828 0.20770732 0.088488095 -0.00012367143
0000a0 72 8c 90 3d 3d b6 c1 3d fc bf 44 be 0e a6 51 3e
       0.07058038 0.09458587 -0.19213861 0.20473501
0000b0 9b 55 4c 3e 44 90 d6 3d 3b 81 59 38 f3 01 22 3e
       0.19954531 0.10476735 5.1857187e-05 0.15821056
0000c0 93 fe 20 be a8 6e a9 bc b3 09 76 bc 4e 9e 88 be
       -0.15722112 -0.020682648 -0.015016961 -0.26683277
0000d0 35 db 65 be 27 eb 2e be 06 51 93 3c 6e 33 e8 b8
       -0.22446902 -0.17081891 0.01798297 -0.000110722016
0000e0 97 40 83 3e 32 1d 1c b9 6c 47 cc bd 65 7f a2 bb
       0.25635216 -0.00014888195 -0.0997456 -0.0049590343
0000f0 88 cc 17 be 79 e6 b1 39 80 77 7e 3e 90 70 0e 3e
       -0.14824116 0.00033931786 0.24850273 0.13910127
000100 da c4 66 36 34 44 88 bd 43 96 91 bd 05 5d 21 3e
       3.4387253e-06 -0.06653634 -0.07108738 0.1575814
000110 66 3b 02 3e 7f df 50 3e 26 e4 0b 3e 2f 07 a4 38
       0.12717971 0.20397757 0.1366125 7.8214674e-05
000120 8b 9c a3 38 30 fb 13 3e 4c fa c0 bd 35 c6 ee bd
       7.801604e-05 0.14451289 -0.0942274 -0.11658899
000130 b6 b3 d7 bd e8 17 cb 3c 91 6b 10 3a 3f 9b d4 3b
       -0.10532324 0.024791673 0.00055091927 0.0064882333
000140 04 10 2b bd 7a ab f0 bc cd ee f7 3c 2d bd 8e bd
       -0.04176332 -0.029378641 0.030265236 -0.06969676
000150 0e dd 2f 3e 59 77 9e 39 96 05 5a 3e 71 8b c4 3b
       0.1717417 0.0003022503 0.21291193 0.005998068
000160 9e ec 35 3e c6 96 37 be 3e 74 98 bd ec ba b0 3a
       0.17766044 -0.17928609 -0.074440464 0.0013483441
000170 b5 8b 3f 3d f5 90 6d 3a 84 f6 05 be 84 1f dc 3d
       0.046764094 0.0009062433 -0.1308232 0.10748199
000180 ed 38 8b 38 af 2e 3a 3e d8 02 cc 3c 85 91 e4 3d
       6.63864e-05 0.18181871 0.0249037 0.11160568
000190 a8 f5 77 3b 0e 80 65 be 48 3a 2a bd 8b 2d d0 38
       0.0037835632 -0.2241213 -0.041559488 9.926696e-05
0001a0 ee 4c 9c 3d 21 c6 ad 3c 46 50 83 3e e8 eb 58 bd
       0.07631861 0.02121264 0.2564718 -0.052959353
0001b0 91 a5 ec bc 84 fd 48 bc 10 1b 00 3a a5 fe 85 bc
       -0.028887542 -0.012267474 0.0004886845 -0.016356776
0001c0 e5 9d 00 3e ca da 09 be bf 8d db 3b 27 76 94 3d
       0.12560232 -0.13462368 0.006700247 0.07249098
0001d0 15 76 0f 3c ce c6 96 bd 46 25 50 be 6e d5 49 38
       0.00875618 -0.07362138 -0.20326719 4.8120906e-05
0001e0 fc fe 62 3e d6 12 b1 38 10 e2 d0 bc 35 e4 15 bd
       0.22167581 8.443526e-05 -0.02549842 -0.03659459
0001f0 21 ad ee 3c bc e2 14 3a a1 70 36 be e6 a6 d7 3d
       0.029135289 0.0005679538 -0.17816402 0.1052988
000200 40 f6 f9 36 10 92 43 bd 36 a4 2c 3d 2e ae 1f 3c
       7.4494455e-06 -0.047746718 0.04214879 0.0097461175
000210 29 8a 54 be 88 b3 79 3e 1a 53 8f bc a4 be 48 3a
       -0.20755829 0.24384892 -0.01749568 0.0007657802
000220 ef 47 ce b8 71 2b 10 3e a0 5c 07 3e f5 56 a8 bc
       -9.836244e-05 0.14079072 0.13218927 -0.020549277
000230 f2 6a e9 3d 2a 5b 5f 3c 47 9f 9d ba 35 30 13 3d
       0.11397351 0.013632575 -0.0012025618 0.035934646
000240 38 4b e3 bd 4c 36 bc bd d4 cd 78 3d 73 d1 37 be
       -0.11098331 -0.09190044 0.060743168 -0.17950992
000250 b0 b9 85 3e 1d 8c 74 bb d7 1b e7 bd 8d 2b e9 bd
       0.2611823 -0.003731496 -0.11284607 -0.1138526
000260 b2 45 b1 bc bc 04 98 bd 6b 85 11 be 34 70 50 3d
       -0.021639679 -0.07422778 -0.14211051 0.050888255
000270 cf 67 a0 3c 83 e2 a1 bd 53 16 37 3e 07 12 05 be
       0.01958075 -0.07904532 0.1787961 -0.12995158
000280 eb c3 33 b9 24 2b b8 bd 37 5f 10 3e 41 91 07 be
       -0.00017143755 -0.089926034 0.14098822 -0.13239004
000290 fa a3 30 3b 5e 2d 70 3e 23 16 c8 bd cb 85 93 37
       0.0026953206 0.23454806 -0.09769847 1.7586068e-05
0002a0 c8 50 33 3d 10 1d a9 bc 6c 96 37 be fa 58 82 3e
       0.04377821 -0.02064374 -0.17928475 0.2545851
0002b0 38 76 29 bd 8a c0 4d bd 26 f2 68 b9 e5 30 4f bc
       -0.041372508 -0.050232448 -0.00022215451 -0.012645935
0002c0 2c fc 55 be 55 01 3f 3e 96 e7 57 3d 76 36 67 be
       -0.20896977 0.18652852 0.052711092 -0.22579369
0002d0 5a 58 44 be b1 71 a9 3d f1 c4 92 3d 74 fc e9 b6
       -0.19174328 0.08273638 0.0716647 -6.9733305e-06
0002e0 9e ff 86 be cc 38 b5 37 9e d5 61 bd 90 f4 83 bc
       -0.26366895 2.160333e-05 -0.05513536 -0.016107827
0002f0 a8 aa 92 3d e0 5b f7 3a 89 6c 53 be 72 84 ae bd
       0.07161456 0.0018871985 -0.20646872 -0.08521356
000300 a7 fe 90 38 d3 ce f5 bd 17 98 a1 3d 40 16 b3 3d
       6.913888e-05 -0.12002339 0.07890337 0.08744478
000310 10 1a 37 3d 89 a0 f2 bd 41 6a 3f 3e 45 83 fb 38
       0.04470259 -0.11847026 0.18692876 0.000119930635
000320 6a 3d b5 38 05 fe 44 be 93 b2 03 3d a1 f0 17 bd
       8.642192e-05 -0.19237526 0.032152724 -0.037094716
000330 09 09 7d bd 53 49 74 bd 12 c3 59 3a 03 a2 88 bc
       -0.061776195 -0.05964024 0.0008306961 -0.016678816
000340 f2 36 4f bc aa 80 14 bb 39 ac 67 be f2 bc 9e bd
       -0.012647377 -0.0022659698 -0.22624291 -0.07750882
000350 14 25 82 bd df 7d 0d 3b 66 23 07 3e 7e e0 19 be
       -0.06354728 0.0021589918 0.13197097 -0.15027043
000360 dc 60 a8 3d 8c e1 40 3d 52 f5 2a 3c 78 79 44 3c
       0.082215995 0.0470901 0.0104344655 0.011991851
000370 e0 4c 5a be 94 05 09 3d 80 4a c3 3d 95 d8 37 be
       -0.21318388 0.033452585 0.09535694 -0.17953713
000380 bf 4f 21 38 cb ea dc 3d 0d e5 3b 3d b8 3a d0 bc
       3.845966e-05 0.10786971 0.045872737 -0.025418624
000390 19 89 3c bc f5 10 19 3e 6b 46 43 be 2c 7b 93 b7
       -0.011507296 0.14947875 -0.19069831 -1.7581122e-05
0003a0 a0 f8 0f 3d 7a b3 b7 3d 7a f8 9d 3d a6 3b 65 bd
       0.035149217 0.08969779 0.07713409 -0.05596509
0003b0 bf ec 45 3e 55 64 46 be 12 35 8d ba 51 08 00 be
       0.19328593 -0.19374211 -0.0010773262 -0.12503172
0003c0 a6 72 85 3e 15 e6 6f bd 6c 20 68 bd c3 a7 3b 3e
       0.26064032 -0.058569033 -0.056671545 0.18325715
0003d0 7b bb 81 be 21 94 d0 3c 98 43 99 3d 5e ab af 37
       -0.2533835 0.025461258 0.074835956 2.0941425e-05
0003e0 60 92 a6 3d 03 da 0b 38 52 00 87 bd 18 85 07 3d
       0.081333876 3.334322e-05 -0.06591858 0.033085912
0003f0 36 7b eb bd 80 42 06 3a 47 80 27 be cb 5e e2 3d
       -0.1149811 0.00051216036 -0.16357528 0.110532366

encoder.layers.0.ffn.linear2.bias f4 [16]
000000 57 72 ea 3c 41 00 86 bc 38 96 8b 3c d4 44 af bd
       0.028618975 -0.016357543 0.017039403 -0.0855805
000010 26 c2 ae 3d 3f f4 4e bd 02 2a 9a 3d 8c 5f 9e 3d
       0.085331246 -0.0505259 0.075275436 0.07733068
000020 a2 0f 0b bd 70 9e d2 bd 74 f8 29 bd a8 0f 3f 3d
       -0.033950455 -0.10284126 -0.04149671 0.04664579
000030 86 29 95 bd d8 69 d6 3d 2a b2 ab bd 19 61 87 bc
       -0.072833106 0.10469407 -0.083835915 -0.016525792

encoder.layers.0.norm2.gamma f4 [16]
000000 81 17 52 3f 7f 70 57 3f dc 88 57 3f 87 0b 4c 3f
       0.82067114 0.8415603 0.84193206 0.7970509
000010 70 cc 65 3f a3 2b 6b 3f 73 f2 76 3f 14 eb 58 3f
       0.8976507 0.9186346 0.964637 0.847337
000020 ad 67 50 3f ea a4 6c 3f 2a 1e 69 3f 54 d2 5a 3f
       0.81408197 0.9243914 0.9106165 0.85477185
000030 d9 5f 6f 3f 41 da 76 3f 43 93 71 3f 46 28 5b 3f
       0.93505627 0.9642678 0.9436533 0.8560833

encoder.layers.0.norm2.beta f4 [16]
000000 d5 f0 ab 3b 87 b9 89 3b 87 3a ee ba 21 5a 0e ba
       0.0052472153 0.004203025 -0.0018175401 -0.00054303004
000010 e4 5b 2b ba ed e0 6a bb 76 ad 2e 3a 7c 7e 76 ba
       -0.0006536825 -0.0035839633 0.0006663421 -0.0009403003
000020 fe 30 e8 ba ae a2 26 ba 36 81 3b 3b 8f bb ef 3a
       -0.0017714796 -0.00063566386 0.0028610951 0.001829015
000030 ca 1b fd b9 88 39 5c ba b6 0e 8f bb 49 52 ef 39
       -0.00048276625 -0.0008400907 -0.0043657674 0.0004564694
