Trans_Prediction/model_saved/numIntegratedCommits/TM_numIntegratedCommits_delay_size_6_delay_4.pth (torch, 387452 bytes, 337 tensors)

encoder.layers.0.attention.w_q.weight f4 [16, 16]
0.39967537 -0.34900674 0.27901804 -0.21754615 0.31323323 -0.34547475 0.53020567 -0.42969912
-0.18483242 0.6130787 0.07041335 -0.30526182 0.53139657 -0.26777223 0.42409772 0.02726279
-0.44241732 0.23998123 0.11233955 0.45264724 -0.11250041 0.34361586 -0.14810848 -0.40218085
-0.20163375 -0.09647786 -0.4706285 0.59845287 0.1660065 0.16201934 0.10214759 0.33522636
-0.5668351 -0.5635557 -0.4381607 0.26018095 -0.0012763715 0.56131566 0.26088667 0.31343699
0.5498227 0.5785692 -0.3920604 -0.42712528 0.3355896 0.35118085 -0.48614854 0.4117529
0.38651863 0.3145018 0.5031696 0.3330533 -0.21638201 -0.53974515 0.0103306305 0.17612451
-0.48850393 -0.35912025 0.23983897 0.37134492 0.55869675 0.38340834 0.45623103 -0.16849057
-0.32952112 -0.17441821 -0.060853533 -0.4920644 -0.22630987 0.3092372 0.2540713 -0.20145914
0.505836 -0.13129216 -0.39502323 0.58542776 -0.15193802 -0.29856652 0.5154056 0.5960035
0.5907111 0.28822476 -0.04878383 0.60607094 -0.5362999 0.49494866 -0.40133214 -0.6065933
0.3916321 -0.07494392 -0.5743862 -0.2928313 -0.19835664 0.22711086 -0.5092677 -0.50988096
0.5125027 0.059173334 0.36750174 0.050501715 0.31310895 -0.17519362 -0.24779665 -0.042318676
0.39707246 -0.34083253 -0.20966163 -0.06492483 0.53364486 0.5816152 -0.026358109 -0.46876886
0.40774545 0.15368165 -0.38492548 -0.5635173 -0.22101001 -0.43323722 0.11400627 0.12147354
-0.42191464 0.16688499 -0.21349502 0.39454144 0.45403555 0.6096905 0.110010296 -0.53349376
0.30112824 -0.024131771 -0.6070285 -0.3797675 0.43826228 0.29191467 0.45564696 0.5507146
0.5499331 -0.35818562 0.16063951 0.5878743 -0.18466288 0.39803633 -0.30509755 0.39178535
0.31233352 -0.35430852 0.58557713 0.26586828 -0.49403125 -0.52105975 0.33680308 -0.37266904
-0.5246881 0.40333405 -0.39859015 0.31578687 0.07590557 0.02645284 0.33245856 -0.59543943
0.20938642 0.0069815544 -0.4835913 -0.50055236 0.3174639 -0.048244584 -0.5371979 -0.30403778
0.5753611 0.13520002 0.17539252 0.57920194 0.05824459 0.123168 0.4058321 0.07296844
-0.0648783 -0.09625107 0.24824345 -0.5983118 -0.12897682 -0.5371614 0.023335945 -0.24796595
-0.19347633 0.5296993 -0.28469035 0.5575033 -0.5705485 -0.11679449 -0.16946422 0.6034408
-0.0010069066 -0.58926654 -0.1429346 -0.28448236 -0.51711655 0.28315055 0.42829633 -0.30213964
0.021239765 0.52861726 -0.4594091 -0.284029 0.27808458 -0.11266421 0.47332066 -0.07797793
-0.20458186 -0.5943601 0.110075645 -0.459072 -0.5316059 0.06359471 0.3814571 -0.2154233
0.15235978 -0.18529785 -0.30083442 -0.21969666 0.2863841 0.20397191 -0.20476964 -0.4692029
-0.3892131 0.52759916 0.39331922 0.44418648 0.48024148 -0.16765966 0.33424503 0.37654677
-0.37668255 -0.21334954 -0.38304782 -0.15898147 0.36408883 0.03848814 0.030854274 -0.061626952
-0.4038619 0.20401616 0.2691831 0.3322814 -0.4380737 0.3762599 0.5775274 0.14279163
0.3347157 -0.058363598 -0.55905455 -0.46244684 0.16729048 0.18111224 0.49387655 0.1910709
00000000: 40a2 cc3e 03b1 b2be 74db 8e3e 6bc4 5ebe
00000010: 1b60 a03e 11e2 b0be 8fbb 073f 8601 dcbe
00000020: b644 3dbe baf2 1c3f e034 903d 474b 9cbe
00000030: 9b09 083f 7119 89be 5623 d93e 3756 df3c
00000040: 8684 e2be a4bd 753e 4712 e63d 61c1 e73e
00000050: 9d66 e6bd 6bee af3e c0a9 17be a6ea cdbe
00000060: 1479 4ebe 2f96 c5bd 38f6 f0be 3534 193f
00000070: 9cfd 293e 66e8 253e c132 d13d caa2 ab3e
00000080: 1b1c 11bf 3045 10bf 9956 e0be 7036 853e
00000090: ec4b a7ba 62b2 0f3f f092 853e d07a a03e
000000a0: 2ec1 0c3f 1c1d 143f 24bc c8be 2ab0 dabe
000000b0: 66d2 ab3e facd b33e 76e8 f8be 47d1 d23e
000000c0: c5e5 c53e 6106 a13e b9cf 003f f685 aa3e
000000d0: 3f93 5dbe bd2c 0abf ce41 293c fc59 343e
000000e0: 301d fabe 9cde b7be 5998 753e ec20 be3e
000000f0: c006 0f3f 194e c43e 1d97 e93e cb88 2cbe
00000100: feb6 a8be b09a 32be 8e41 79bd ddef fbbe
00000110: c6bd 67be 5754 9e3e a215 823e 4e4b 4ebe
00000120: 787e 013f 7471 06be 7c40 cabe 98de 153f
00000130: a495 1bbe b6dd 98be 9ff1 033f af93 183f
00000140: d838 173f 3292 933e 8ed1 47bd 7727 1b3f
00000150: f34a 09bf e969 fd3e 687b cdbe b349 1bbf
00000160: 0184 c83e 337c 99bd f90a 13bf fced 95be
00000170: 011e 4bbe c08f 683e 5e5f 02bf 8f87 02bf
00000180: 6033 033f bd5f 723d 3029 bc3e e3da 4e3d
00000190: d14f a03e f565 33be 68be 7dbe 5956 2dbd
000001a0: 154d cb3e 9a81 aebe 8ab1 56be 4ff7 84bd
000001b0: f39c 083f bce4 143f f6ec d7bc 7902 f0be
000001c0: 03c4 d03e b95e 1d3e f414 c5be ab42 10bf
000001d0: 7350 62be 45d1 ddbe 1f7c e93d 1fc7 f83d
000001e0: 3205 d8be e6e3 2a3e 709e 5abe 5601 ca3e
000001f0: 5977 e83e ad14 1c3f 144d e13d 0c93 08bf
00000200: 7b2d 9a3e feaf c5bc 3866 1bbf e370 c2be
00000210: ea63 e03e d775 953e 8f4a e93e a2fb 0c3f
00000220: 6ac8 0c3f 1b64 b7be af7e 243e ee7e 163f
00000230: 4418 3dbe 6bcb cb3e bf35 9cbe 1798 c83e
00000240: 2eea 9f3e ed67 b5be 62e8 153f e31f 883e
00000250: aaf1 fcbe 2c64 05bf 7471 ac3e 7ace bebe
00000260: f651 06bf cd81 ce3e 0214 ccbe d1ae a13e
00000270: 6174 9b3d a0b3 d83c 0238 aa3e b86e 18bf
00000280: 6569 563e 86c5 e43b 4799 f7be 3324 00bf
00000290: a18a a23e 1d9c 45bd cd85 09bf d7aa 9bbe
000002a0: dd4a 133f e071 0a3e 199a 333e 9446 143f
000002b0: e191 6e3d 813f fc3d 3ac9 cf3e 7a70 953d
000002c0: eade 84bd 481f c5bd 8833 7e3e f62a 19bf
000002d0: 8012 04be 6983 09bf 062b bf3c c9ea 7dbe
000002e0: a91e 46be 609a 073f efc2 91be 89b8 0e3f
000002f0: 770f 12bf f331 efbd 0788 2dbe 197b 1a3f
00000300: 2efa 83ba 2cda 16bf 735d 12be aca7 91be
00000310: c061 04bf 1cf9 903e a849 db3e 0cb2 9abe
00000320: 04ff ad3c 7653 073f ab37 ebbe 406c 91be
00000330: 1a61 8e3e 7ebc e6bd 1657 f23e e5b2 9fbd
00000340: e87d 51be fc27 18bf 576f e13d 7c0b ebbe
00000350: 5317 08bf f13d 823d 584e c33e ed97 5cbe
00000360: 3404 1c3e b8be 3dbe f806 9abe 29f8 60be
00000370: f0a0 923e 03de 503e 22af 51be 5d3b f0be
00000380: f046 c7be bd10 073f 2361 c93e 696c e33e
00000390: 36e2 f53e f9ae 2bbe 2a22 ab3e bdca c03e
000003a0: 89dc c0be 4d78 5abe d81e c4be 0acc 22be
000003b0: da69 ba3e bda5 1d3d 1ac2 fc3c 8b6c 7cbd
000003c0: fdc6 cebe 9de9 503e 5ed2 893e ca20 aa3e
000003d0: 324b e0be 23a5 c03e d6d8 133f f837 123e
000003e0: db5f ab3e ab0e 6fbd 331e 0fbf d5c5 ecbe
000003f0: 324e 2b3e 7d75 393e 63dd fc3e 17a8 433e

encoder.layers.0.attention.w_q.bias f4 [16]
0.13807046 -0.17448844 0.12243136 0.10848979 0.17644624 -0.18915078 0.18039577 -0.11629707
0.09807609 0.23588231 -0.045804385 0.006624692 -0.063691415 -0.21284737 0.11308077 -0.25627583
00000000: 5862 0d3e 19ad 32be 4bbd fa3d e52f de3d
00000010: 53ae 343e beb0 41be abb9 383e 292d eebd
00000020: 1edc c83d 228b 713e 619d 3bbd f213 d93b
00000030: a570 82bd a9f4 59be e496 e73d 9636 83be

encoder.layers.0.attention.w_k.weight f4 [16, 16]
0.28124827 -0.46471828 -0.5503316 -0.32112 -0.36690736 0.16641678 0.34227902 0.095181815
0.10110192 -0.5206533 0.49668744 -0.33436275 0.05755998 -0.12780711 -0.1087582 0.36205742
-0.5535897 0.5435249 -0.44142827 0.17406432 0.56894016 -0.28299654 0.16437209 -0.3023176
-0.21038026 -0.08115823 0.13454407 -0.5868455 0.1059257 -0.4374748 -0.4361881 -0.046256483
-0.04953026 -0.3880703 0.46224833 -0.020951536 0.08646591 -0.32944465 -0.16342972 -0.3090162
-0.5143331 0.09254307 -0.59539145 0.270029 0.09559862 0.28989202 0.42721084 0.44344246
0.27459264 -0.28582573 0.42949316 -0.33574435 -0.06694792 0.011687557 -0.42388484 0.0076639657
0.2608923 -0.53768736 0.5450338 0.57217205 -0.5491908 0.08143468 -0.4228908 0.07402121
0.16244854 -0.16922241 0.3779634 -0.16523229 -0.32672647 0.057472374 -0.22694428 -0.14553681
-0.31486842 0.13336626 -0.3564834 0.14922878 0.3885509 -0.12128473 -0.29903772 -0.32808077
0.031309582 -0.19152488 0.34864342 0.12723827 -0.40348512 0.17408419 0.33875835 0.3578263
0.18461482 -0.13096708 -0.4964847 0.28565222 -0.33325246 0.09962313 -0.4807448 0.06993161
0.120442465 0.3912492 -0.46928835 0.19083616 -0.57752144 -0.1785476 0.063190356 0.38120604
-0.59041536 -0.38199377 -0.24134539 -0.0377125 -0.46940953 -0.42290473 0.5004316 0.059064604
-0.5182953 0.2689096 0.46914163 0.34723094 0.38608238 0.2897883 -0.5984028 -0.16235292
0.5641245 -0.5454146 0.09796146 -0.25843495 0.36251414 -0.18728054 -0.09657526 -0.4144282
0.12076908 0.53453684 0.26940435 -0.08727431 -0.5350583 0.21632738 0.04427433 0.020330567
-0.6036606 0.35087302 -0.3201469 -0.0025713788 0.027924344 -0.54466903 -0.2476495 0.43737552
0.42018738 -0.44258553 -0.14478351 0.1013723 -0.53478956 -0.18179114 0.45697033 -0.25989264
-0.4332862 0.5649362 0.5897518 -0.3483775 0.5308458 0.2707478 -0.5081614 -0.3441031
-0.012294527 -0.06678584 -0.31798458 0.06687115 0.11991269 0.06546314 0.21914066 0.18282092
-0.27353123 0.19449674 0.32151648 0.40605885 0.43448853 0.28569597 -0.10179366 0.03642059
0.13140358 -0.10707271 -0.41497827 0.20693284 -0.34941855 -0.35341215 0.53512686 -0.47270483
-0.20153865 -0.073305346 -0.31496724 0.22001112 -0.11256855 0.534981 -0.35414734 -0.15694982
0.2586663 0.3306382 -0.4481454 0.07350793 -0.02138784 -0.6025834 -0.16989209 0.50208247
0.30751017 0.07916406 0.4771896 -0.57965815 -0.0020101483 0.5468776 -0.22426103 0.17823346
-0.22171341 -0.1403388 -0.0012668269 0.59014 -0.36675817 0.606017 -0.39362732 -0.03417903
0.2848824 -0.06622693 0.3700151 -0.025604827 -0.5282765 0.5218733 -0.36613008 0.2501498
-0.46036488 0.013448071 0.48225734 0.1334909 -0.56540436 0.42331755 0.20404923 -0.12547058
-0.116035074 0.40206861 0.3462697 0.34237504 -0.4546311 -0.16552188 0.19168338 0.32877722
0.07558145 0.32342142 0.19475392 0.20230035 0.49393108 -0.15632129 0.11579364 -0.05429235
-0.15980554 0.32079947 0.020315446 0.17934135 -0.40756065 0.10539691 0.4646768 -0.38366556
00000000: c6ff 8f3e 8eef edbe 88e2 0cbf d769 a4be
00000010: 48db bbbe 2969 2a3e 323f af3e afee c23d
00000020: 860e cf3d 8949 05bf d14d fe3e 9831 abbe
00000030: 03c4 6b3d dedf 02be 9fbc debd 975f b93e
00000040: 0eb8 0dbf 7324 0b3f e302 e2be eb3d 323e
00000050: 10a6 113f ece4 90be 2851 283e 5fc9 9abe
00000060: ec6d 57be 4936 a6bd ecc5 093e 823b 16bf
00000070: 93ef d83d b2fc dfbe 0c54 dfbe 7077 3dbd
00000080: 3ee0 4abd 26b1 c6be d0ab ec3e 8ea2 abbc
00000090: 0a15 b13d f8ac a8be 1f5a 27be 5f37 9ebe
000000a0: 56ab 03bf 3987 bd3d 936b 18bf 3e41 8a3e
000000b0: 36c9 c33d ba6c 943e 61bb da3e e40a e33e
000000c0: 6897 8c3e c057 92be 87e6 db3e afe6 abbe
000000d0: fe1b 89bd 2b7d 3f3c 6f07 d9be 0122 fb3b
000000e0: ad93 853e e1a5 09bf 5687 0b3f de79 123f
000000f0: c597 0cbf 3ac7 a63d 2585 d8be 6f98 973d
00000100: e958 263e a448 2dbe 6b84 c13e a732 29be
00000110: b148 a7be 2768 6b3d 1564 68be 9a07 15be
00000120: 6f36 a1be 2a91 083e fe84 b6be 6ecf 183e
00000130: 25f0 c63e 2164 f8bd 791b 99be 34fa a7be
00000140: 7a3e 003d 191f 44be 6481 b23e c04a 023e
00000150: 9a95 cebe 2043 323e bc71 ad3e 0235 b73e
00000160: ab0b 3d3e 3c1c 06be 3e33 febe 0241 923e
00000170: 11a0 aabe 3607 cc3d 2f24 f6be 4e38 8f3d
00000180: 8aaa f63d d151 c83e 9046 f0be 8e6a 433e
00000190: 72d8 13bf 2fd5 36be f269 813d 702d c33e
000001a0: 7625 17bf b094 c3be 3f23 77be 6c78 1abd
000001b0: 7256 f0be f886 d8be 491c 003f baed 713d
000001c0: 00af 04bf 85ae 893e 5533 f03e 41c8 b13e
000001d0: 97ac c53e 225f 943e ed30 19bf d83f 26be
000001e0: 776a 103f 4ba0 0bbf 05a0 c83d 9651 84be
000001f0: 749b b93e 78c6 3fbe 40c9 c5bd ef2f d4be
00000200: c855 f73d 68d7 083f 5eef 893e e0bc b2bd
00000210: 95f9 08bf ed84 5d3e 0059 353d 4a8c a63c
00000220: 8089 1abf a1a5 b33e 4bea a3be 9484 28bb
00000230: 98c1 e43c 6e6f 0bbf d597 7dbe afef df3e
00000240: cd22 d73e 929a e2be 2142 14be 489c cf3d
00000250: f8e7 08bf 7527 3abe 04f8 e93e a610 85be
00000260: b0d7 ddbe a99f 103f f9f9 163f 895e b2be
00000270: 83e5 073f 759f 8a3e de16 02bf 482e b0be
00000280: fc6e 49bc 04c7 88bd e0ce a2be bef3 883d
00000290: c994 f53d 8a11 863d 6966 603e 6835 3b3e
000002a0: 490c 8cbe 272a 473e cf9d a43e f2e6 cf3e
000002b0: 4875 de3e be46 923e 3279 d0bd c22d 153d
000002c0: a98e 063e f048 dbbd 0878 d4be 34e6 533e
000002d0: fde6 b2be 70f2 b4be 13fe 083f 5e06 f2be
000002e0: 2660 4ebe 1d21 96bd 6343 a1be 984a 613e
000002f0: 578a e6bd 84f4 083f cd52 b5be 74b7 20be
00000300: e96f 843e 6949 a93e 5073 e5be 538b 963d
00000310: 8d35 afbc e842 1abf 31f8 2dbe 7a88 003f
00000320: f971 9d3e c420 a23d 3252 f43e 7a64 14bf
00000330: b1bc 03bb 2c00 0c3f afa4 65be d582 363e
00000340: d708 63be f9b4 0fbe a80b a6ba 6a13 173f
00000350: bac7 bbbe ee23 1b3f 8589 c9be 50ff 0bbd
00000360: 1bdc 913e fca1 87bd 9f72 bd3e 37c1 d1bc
00000370: 213d 07bf 7d99 053f 6775 bbbe a213 803e
00000380: f2b4 ebbe 4c55 5c3c 6fea f63e d7b1 083e
00000390: 57be 10bf 14bd d83e 48f2 503e 5c7b 00be
000003a0: cca3 edbd f0db cd3e 434a b13e c84b af3e
000003b0: 68c5 e8be 917e 29be a648 443e 7d55 a83e
000003c0: 72ca 9a3d 7e97 a53e 926d 473e d327 4f3e
000003d0: 89e4 fc3e b012 20be 3725 ed3d a861 5ebd
000003e0: 10a4 23be d43f a43e 946c a63c 42a5 373e
000003f0: caab d0be 56da d73d 1eea ed3e d06f c4be

encoder.layers.0.attention.w_k.bias f4 [16]
9.015918e-08 -2.2060401e-07 1.8032121e-07 4.085409e-07 -3.5984115e-07 -4.70409e-07 7.67795e-08 4.292734e-07
-1.3557675e-06 2.2717279e-07 -8.59978e-08 2.0624636e-06 1.0275251e-06 2.020441e-06 -1.8409954e-06 -1.806846e-06
00000000: 899d c133 2bdf 6cb4 519e 4134 6f55 db34
00000010: 3130 c1b4 858c fcb4 fae1 a433 e376 e634
00000020: d1f7 b5b5 c8ec 7334 caad b8b3 db68 0a36
00000030: 7ee9 8935 e996 0736 1f18 f7b5 c182 f2b5

encoder.layers.0.attention.w_v.weight f4 [16, 16]
-0.20265067 0.6035656 -0.50783104 -0.24236807 0.009752764 -0.41752067 0.10296009 0.40626177
-0.088362455 -0.43740225 -0.28438368 0.0630295 0.58164436 -0.37288934 0.068347394 -0.24387018
-0.12775666 -0.084919766 0.09423027 0.41089028 -0.5732589 -0.50520855 0.5866861 -0.3752424
0.12699893 0.58999413 0.043754257 -0.15702203 0.4782401 0.41768083 -0.064914085 0.30277288
0.083000876 -0.24756916 -0.47715196 -0.46762183 -0.24307476 -0.14092538 0.12831801 -0.29869273
-0.29011077 0.046934165 0.20871736 0.09490747 -0.04812876 0.2497629 -0.54837686 0.51992494
-0.30429295 -0.03295824 0.50501806 0.21025343 0.58399224 -0.20051573 0.16770518 -0.06259723
0.38905507 -0.3619572 0.11388056 0.12593882 0.36094877 -0.10007391 -0.2468502 -0.016017027
-0.36911508 -0.40235904 -0.3987105 -0.39503804 0.3510493 0.49181643 -0.19823225 0.5140445
0.5885269 0.0040057325 -0.5938414 -0.3090418 0.013045514 0.2546423 0.4950486 -0.1916837
-0.06702548 0.09321425 -0.21701045 -0.33421457 0.11568086 0.5157037 -0.4449014 0.12326304
0.30492833 -0.019755382 0.2062056 -0.44140324 0.46794078 0.14904219 -0.3316624 -0.59087616
-0.27651644 0.58557045 -0.06641487 0.5398026 0.44242442 0.34963652 0.18585956 0.16363144
0.23711893 0.06323126 0.47658375 -0.13952279 -0.23799613 -0.51665074 0.045720376 0.4983778
-0.5098955 -0.033823684 0.1806605 0.2426981 -0.30513963 0.13931121 -0.2655707 -0.3171128
0.07340581 -0.53979445 -0.05844242 0.47419015 -0.14175946 0.2273625 0.56884944 -0.26377976
0.6061886 -0.5016826 -0.3389682 0.37077346 0.56525165 -0.18720947 -0.15986542 -0.45207754
-0.46875682 -0.572143 0.5526876 -0.4068943 0.110492185 0.3142409 0.61060375 -0.49524406
-0.030319437 -0.33451852 -0.3707374 0.13169828 0.14863616 -0.035643633 0.4952678 0.33681938
0.4281938 0.2626959 0.430275 -0.36707082 0.40651104 -0.37371206 0.07975318 0.45388597
0.28946987 0.46623817 0.0056610256 0.13122758 -0.19348848 -0.29003137 -0.17584151 -0.38573146
0.27128533 -0.20076339 -0.5892211 0.40730312 -0.45046893 0.47103807 -0.57591826 0.30933043
-0.50089395 -0.52558106 0.22450118 0.42404854 -0.5871244 0.36684024 -0.5557851 -0.35719386
0.23783202 0.028258245 0.14195684 -0.27780655 0.3056471 0.5081287 0.2900747 -0.3776139
-0.48071533 -0.4763716 0.33758074 0.44118252 0.26782438 -0.08896753 -0.40215087 -0.32536474
0.52943605 -0.027790146 0.43369657 0.486463 -0.0537922 -0.3703275 -0.58817863 -0.27130955
-0.16712828 -0.22619623 -0.24309501 0.2167335 -0.16082522 0.18862969 -0.6123724 -0.1584234
0.3833229 -0.49469224 -0.0768801 -0.23441945 0.015547093 -0.08761422 0.3385475 0.20937468
0.23311901 -0.21820207 0.17603004 0.05586469 0.48341268 -0.19647746 0.13766214 0.59974825
0.040318754 -0.053387396 -0.29794705 0.077807255 0.20380493 -0.39477727 -0.35281208 -0.53580296
0.08432073 0.57424116 0.22176298 0.09823453 0.452489 -0.3768699 0.5456279 0.44276142
0.07285691 -0.08785829 0.32170144 0.51057553 0.26674402 -0.0870533 0.23163465 0.330966
00000000: a883 4fbe 4683 1a3f 3701 02bf 562f 78be
00000010: 0fca 1f3c 45c5 d5be bddc d23d 8b01 d03e
00000020: 60f7 b4bd 30f3 dfbe bd9a 91be 9c15 813d
00000030: a5e6 143f 5aeb bebe b8f9 8b3d 1bb9 79be
00000040: a4d2 02be 6aea adbd cdfb c03d 3660 d23e
00000050: 18c1 12bf 5955 01bf 0f31 163f c61f c0be
00000060: 020c 023e db09 173f aa37 333d 62ca 20be
00000070: e3db f43e 43da d53e adf1 84bd 0c05 9b3e
00000080: 5dfc a93d c582 7dbe 434d f4be 216c efbe
00000090: 97e8 78be be4e 10be cc65 033e 41ee 98be
000000a0: 6689 94be 0a3e 403d 01ba 553e d95e c23d
000000b0: aa22 45bd d8c1 7f3e 6d62 0cbf cd19 053f
000000c0: 49cc 9bbe 38ff 06bd dd48 013f ad4c 573e
000000d0: 8480 153f ff53 4dbe e8ba 2b3e fa32 80bd
000000e0: 3a32 c73e 7452 b9be 363a e93d 1bf6 003e
000000f0: 47ce b83e 8df3 ccbd 4dc6 7cbe 2436 83bc
00000100: a7fc bcbe 0102 cebe c823 ccbe 6d42 cabe
00000110: bcbc b33e 5dcf fb3e 65fd 4abe 6c98 033f
00000120: b3a9 163f 8542 833b fd05 18bf ba3a 9ebe
00000130: dabc 553c 7a60 823e 0377 fd3e bb48 44be
00000140: a844 89bd 1de7 be3d fd37 5ebe 2c1e abbe
00000150: 16ea ec3d 2805 043f 1eca e3be 5571 fc3d
00000160: 911f 9c3e 0ad6 a1bc 9027 533e 9bff e1be
00000170: ef95 ef3e 849e 183e a7cf a9be a943 17bf
00000180: 9093 8dbe f2e7 153f 8504 88bd 8130 0a3f
00000190: 7485 e23e 8f03 b33e f851 3e3e 008f 273e
000001a0: 4ecf 723e 647f 813d c902 f43e 10df 0ebe
000001b0: 42b5 73be 3943 04bf 4a45 3b3d 602b ff3e
000001c0: 8388 02bf b48a 0abd 11ff 383e da85 783e
000001d0: 433b 9cbe 99a7 0e3e e2f8 87be 9c5c a2be
000001e0: c955 963d f82f 0abf 5261 6fbd 0dc9 f23e
000001f0: 6429 11be b7d1 683e 1ea0 113f 240e 87be
00000200: 2d2f 1b3f 456e 00bf 3d8d adbe 05d6 bd3e
00000210: 55b4 103f d7b3 3fbe c3b3 23be b576 e7be
00000220: e500 f0be f777 12bf ef7c 0d3f 7354 d0be
00000230: ba49 e23d 2fe4 a03e 8750 1c3f a190 fdbe
00000240: 7860 f8bc 0346 abbe 4bd1 bdbe eadb 063e
00000250: 1434 183e 0fff 11bd be93 fd3e 9773 ac3e
00000260: 383c db3e 1480 863e 014d dc3e b5f0 bbbe
00000270: 3722 d03e 3057 bfbe a355 a33d be63 e83e
00000280: 6535 943e c5b6 ee3e 2080 b93b 8660 063e
00000290: d821 46be fe7e 94be cc0f 34be 987e c5be
000002a0: e9e5 8a3e eb94 4dbe 32d7 16bf 098a d03e
000002b0: dda3 e6be e72b f13e 616f 13bf 8f60 9e3e
000002c0: 963a 00bf 7b8c 06bf a3e3 653e e41c d93e
000002d0: c94d 16bf 7cd2 bb3e ef47 0ebf 1de2 b6be
000002e0: 3d8a 733e d67d e73c 225d 113e a93c 8ebe
000002f0: c77d 9c3e b914 023f ac84 943e 9c56 c1be
00000300: 5220 f6be fae6 f3be 62d7 ac3e ade2 e13e
00000310: 4720 893e 9c34 b6bd b8e6 cdbe 3596 a6be
00000320: 1f89 073f 29a8 e3bc 7a0d de3e ae11 f93e
00000330: 3655 5cbd 919b bdbe e092 16bf 16e9 8abe
00000340: ad23 2bbe fc9f 67be e6ed 78be 63ef 5d3e
00000350: 5eaf 24be 2428 413e 70c4 1cbf be39 22be
00000360: e642 c43e 4d48 fdbe 5073 9dbd a70b 70be
00000370: 3cb9 7e3c 166f b3bd 1956 ad3e 5166 563e
00000380: c0b6 6e3e 5d70 5fbe 3841 343e 60d2 643d
00000390: de81 f73e 6331 49be 4ef7 0c3e 1a89 193f
000003a0: 4725 253d beac 5abd 848c 98be 6959 9f3d
000003b0: 3db2 503e 3f20 cabe c9a3 b4be 622a 09bf
000003c0: 59b0 ac3d 7801 133f d615 633e 2f2f c93d
000003d0: a3ac e73e 17f5 c0be 45ae 0b3f a0b1 e23e
000003e0: 0136 953d 0cef b3bd 0db6 a43e 14b5 023f
000003f0: ac92 883e 0049 b2bd a231 6d3e 6074 a93e

encoder.layers.0.attention.w_v.bias f4 [16]
-0.037383433 0.1012572 -0.2263484 0.12520796 -0.06537996 -0.18277708 0.036230944 0.100811444
0.22067267 -0.15397708 -0.11452637 0.0521904 0.057823356 0.11192577 0.10907459 -0.069662794
00000000: 5f1f 19bd ef5f cf3d e0c7 67be 8436 003e
00000010: eee5 85bd ea29 3bbe e666 143d 3b76 ce3d
00000020: 04f8 613e 2bac 1dbe cd8c eabd 9ac5 553d
00000030: 2fd8 6c3d 5739 e53d 8062 df3d 5eab 8ebd

encoder.layers.0.attention.w_concat.weight f4 [16, 16]
-0.21040173 -0.2515667 0.15249334 -0.33801663 -0.4727057 -0.3021551 -0.36632955 -0.4923096
-0.35608816 0.2745769 0.5513714 -0.35956833 -0.057202596 -0.5068762 -0.032363605 0.497209
-0.29892993 0.2673378 0.5033661 0.18979894 -0.23397942 -0.10080294 -0.45101047 0.1748174
0.15490514 -0.43067664 0.51612204 0.025408039 -0.52853423 0.1668128 -0.4563736 0.23978588
0.29038456 -0.08563132 -0.16628104 -0.029769085 -0.33611423 0.12563188 0.16675068 0.3172797
-0.21184912 -0.28439656 0.100218356 -0.55584276 -0.5132115 0.21763831 -0.42022732 -0.16884065
0.44432136 0.47337902 0.2551254 -0.10728239 -0.08496879 -0.3576729 -0.52464867 -0.018503278
0.2587607 -0.08947954 -0.17282215 0.39317816 -0.046919625 -0.2988018 -0.37533623 -0.23550077
-0.33267686 0.13166226 -0.24792787 0.4346764 -0.33526117 -0.11441981 0.5943693 -0.18584038
0.0031561991 0.34650135 -0.19908337 0.5114031 -0.13864702 0.47503373 0.49189025 0.029068427
0.36761886 0.23106237 -0.019063164 0.44357526 0.37150437 -0.34085476 -0.27252063 -0.5504392
-0.078130946 -0.103970766 -0.27640417 -0.09332324 -0.26733297 -0.5182556 0.46424353 -0.31650096
0.063095756 -0.41502124 0.06585443 0.21085557 -0.4597598 -0.45426002 -0.5702631 0.13941368
0.2961064 -0.30657798 0.084821865 -0.22099814 -0.46736544 0.13289598 -0.41221598 0.26654842
-0.428333 -0.56037563 0.6047816 0.43714887 0.040677734 0.5049433 -0.08917776 0.48536947
-0.5640582 0.49780014 0.4456811 -0.098196246 0.17768306 -0.16193374 0.23851402 0.37380984
0.39695445 0.4054111 0.29383427 -0.002669394 -0.52818626 -0.43757677 -0.62069243 -0.40722126
0.37610137 0.08858726 0.26750615 -0.34672478 0.47447014 -0.05406752 -0.3420948 -0.069689915
0.24990599 -0.48553395 0.14888401 0.3246012 -0.18704665 -0.105337396 0.38752624 -0.41955465
0.41715676 0.5150987 0.35572624 -0.16761261 -0.27980894 0.5715812 -0.2084534 -0.44705528
-0.46680266 0.27128133 -0.3214821 0.36167422 0.3442932 -0.0025962158 -0.09485842 -0.298002
-0.33211562 0.18460563 0.32402578 0.4863376 0.2921497 -0.17446697 -0.085913844 -0.0011900329
-0.12013227 -0.46282992 0.44469634 0.31923407 0.50134146 -0.37963107 0.19363412 -0.07920213
0.13361895 0.27137035 0.07804565 0.0718685 -0.027016172 -0.58644116 0.015061281 -0.5648238
-0.07311579 -0.45211783 0.1656401 0.47372115 0.09365274 -0.4015191 0.49409464 -0.3034549
-0.14396721 -0.196604 0.10814107 -0.55437475 -0.56835794 -0.47299466 -0.31143034 0.54969794
0.048383117 -0.4792891 -0.049981125 -0.45031837 0.39665195 0.09018 0.44719505 0.37815568
0.55954003 0.20154649 -0.31013587 0.4072877 0.24089783 0.5747324 0.15174645 0.42964077
0.55561393 0.4324837 -0.4322663 -0.33463275 0.11662517 -0.20546716 0.34402674 0.49932486
0.008943024 -0.039059717 0.50621974 0.34435466 0.20119162 0.55144143 -0.21317323 0.21149312
-0.30564266 -0.33523926 0.03832574 -0.14545108 -0.2724133 0.061358865 -0.44159 0.47203052
0.079107836 -0.31442168 0.028498372 -0.2625714 0.47866195 -0.039414655 -0.002109171 0.5879303
00000000: 8d73 57be 5acd 80be 3727 1c3e 8410 adbe
00000010: 7b06 f2be 13b4 9abe 8c8f bbbe 0110 fcbe
00000020: 3051 b6be 5895 8c3e ad26 0d3f 5719 b8be
00000030: 454d 6abd a3c2 01bf b38f 04bd 2e92 fe3e
00000040: 580d 99be 80e0 883e 9adc 003f a75a 423e
00000050: 4d98 6fbe c671 cebd d8ea e6be 5503 333e
00000060: 749f 1e3e a681 dcbe 9320 043f 8524 d03c
00000070: 054e 07bf fad0 2a3e cda9 e9be 6e8a 753e
00000080: 49ad 943e 795f afbd 9445 2abe 4cde f3bc
00000090: 2a17 acbe a5a5 003e b1c0 2a3e 7c72 a23e
000000a0: faee 58be 6d9c 91be 483f cd3d b64b 0ebf
000000b0: d461 03bf 94dc 5e3e 0928 d7be 90e4 2cbe
000000c0: 177e e33e bc5e f23e cc9f 823e dfb6 dbbd
000000d0: 1e04 aebd e720 b7be 604f 06bf 3094 97bc
000000e0: 487c 843e 0d41 b7bd 4af8 30be a64e c93e
000000f0: cb2e 40bd 8dfc 98be 122c c0be 1d27 71be
00000100: 9f54 aabe 79d2 063e cee0 7dbe e88d de3e
00000110: 5aa7 abbe ef54 eabd 9628 183f f14c 3ebe
00000120: 3cd8 4e3b a068 b13e 83dc 4bbe 50eb 023f
00000130: 7cf9 0dbe 9f37 f33e 0ad9 fb3e e920 ee3c
00000140: 8a38 bc3e 9d9b 6c3e 5a2a 9cbc 4c1c e33e
00000150: d235 be3e 8484 aebe d387 8bbe 95e9 0cbf
00000160: 1e03 a0bd a0ee d4bd d984 8dbe 4120 bfbd
00000170: dedf 88be 66ac 04bf 54b1 ed3e 6a0c a2be
00000180: 5938 813d aa7d d4be b0de 863d 86ea 573e
00000190: a365 ebbe c594 e8be c3fc 11bf 76c2 0e3e
000001a0: 429b 973e caf7 9cbe 16b7 ad3d 564d 62be
000001b0: 864a efbe e215 083e f90d d3be 0979 883e
000001c0: 774e dbbe c774 0fbf f8d2 1a3f fad1 df3e
000001d0: b29d 263d f743 013f d4a2 b6bd 5982 f83e
000001e0: 1e66 10bf a9df fe3e 5030 e43e 1d1b c9bd
000001f0: 8cf2 353e f5d1 25be 053d 743e 0164 bf3e
00000200: 9d3d cb3e 0b92 cf3e 7271 963e 00f1 2ebb
00000210: 3737 07bf 100a e0be b3e5 1ebf 4e7f d0be
00000220: 5c90 c03e 3d6d b53d 91f6 883e e985 b1be
00000230: c0ed f23e e775 5dbd 0d27 afbe 96b9 8ebd
00000240: 5be7 7f3e e897 f8be 0d75 183e 2132 a63e
00000250: 2889 3fbe 22bb d7bd d769 c63e decf d6be
00000260: 9295 d53e 82dd 033f c021 b63e a4a2 2bbe
00000270: 1e43 8fbe 2553 123f cf74 55be 6ee4 e4be
00000280: c200 efbe 63e5 8a3e 4d99 a4be 5d2d b93e
00000290: 3347 b03e 4625 2abb 2245 c2bd b893 98be
000002a0: 0f0b aabe 4209 3d3e b5e6 a53e 3e01 f93e
000002b0: a594 953e 78a7 32be 99f3 afbd e1fa 9bba
000002c0: e807 f6bd 0bf8 ecbe 3daf e33e a672 a33e
000002d0: ea57 003f 015f c2be 0648 463e ba34 a2bd
000002e0: 68d3 083e 0ef1 8a3e 66d6 9f3d cb2f 933d
000002f0: 0551 ddbc 0221 16bf 97c3 763c 4b98 10bf
00000300: bbbd 95bd fd7b e7be 8f9d 293e 948b f23e
00000310: 02cd bf3d e993 cdbe f9f9 fc3e 715e 9bbe
00000320: 246c 13be 8f52 49be 1179 dd3d 81eb 0dbf
00000330: e87f 11bf 5b2c f2be cc73 9fbe 01b9 0c3f
00000340: 602d 463d 6265 f5be 02b9 4cbd 2190 e6be
00000350: f715 cb3e 4bb0 b83d c0f6 e43e 9f9d c13e
00000360: 043e 0f3f 3462 4e3e 21ca 9ebe 0388 d03e
00000370: ecad 763e aa21 133f 6c63 1b3e e0f9 db3e
00000380: b73c 0e3f 816e dd3e 0252 ddbe fc54 abbe
00000390: 2dd9 ee3d fc65 52be 4624 b03e 82a7 ff3e
000003a0: c385 123c 15fd 1fbd 9e97 013f 414f b03e
000003b0: 2d05 4e3e 442b 0d3f 154a 5abe a791 583e
000003c0: 327d 9cbe 7ba4 abbe 73fb 1c3d 21f1 14be
000003d0: c279 8bbe 6f53 7b3d 1618 e2be fcad f13e
000003e0: 4a03 a23d e1fb a0be 6b75 e93c c26f 86be
000003f0: 2e13 f53e 4371 21bd 043a 0abb 9a82 163f

encoder.layers.0.attention.w_concat.bias f4 [16]
-0.0065617096 0.10732418 -0.06650015 0.07557013 -0.07712737 0.0047329706 -0.17390227 -0.08330394
-0.11885514 -0.0612892 -0.12069063 -0.18947661 -0.007609787 0.14613266 0.20953318 0.13729197
00000000: 9c03 d7bb c8cc db3d 3b31 88bd 83c4 9a3d
00000010: f4f4 9dbd 0917 9b3b 7013 32be 429b aabd
00000020: 536a f3bd 620a 7bbd a62c f7bd 2806 42be
00000030: 855b f9bb cda3 153e de8f 563e 4496 0c3e

encoder.layers.0.norm1.gamma f4 [16]
0.9884662 0.96264696 0.9915802 0.969542 0.99588233 0.9861516 1.0069048 1.0050459
0.9913017 0.99680185 1.0008748 0.981954 0.9973655 0.9576894 1.0104731 0.9896728
00000000: 1f0c 7d3f 0870 763f 33d8 7d3f e833 783f
00000010: 25f2 7e3f 6e74 7c3f 42e2 803f 58a5 803f
00000020: f3c5 7d3f 682e 7f3f aa1c 803f 5661 7b3f
00000030: 5853 7f3f 222b 753f 2f57 813f 325b 7d3f

encoder.layers.0.norm1.beta f4 [16]
-0.0052617234 -0.009577539 -0.011244793 0.012169713 -0.0028958742 0.0025597832 0.005008494 0.006297406
-0.012506138 -0.0042209243 0.003710438 0.010863898 -0.0022014475 0.0065459176 -0.0032129337 -0.008032536
00000000: 896a acbb 1ceb 1cbc 153c 38bc 7a63 473c
00000010: b5c8 3dbb 09c2 273b 4b1e a43b 785a ce3b
00000020: 8be6 4cbc ae4f 8abb d22a 733b 7efe 313c
00000030: 2946 10bb 237f d63b 1590 52bb e69a 03bc

encoder.layers.0.ffn.linear1.weight f4 [64, 16]
-0.29530224 0.087709 -0.06077437 0.064368606 -0.47431618 0.478704 0.07580806 -0.5244964
0.04401451 0.5138889 -0.2543813 0.28801596 0.47363967 0.00978338 0.15114158 0.5440621
-0.18434204 -0.20355576 0.35077474 0.13993613 0.17085516 0.07545014 0.4317793 -0.5489698
-0.035520032 -0.12654209 0.034374297 0.1733806 0.47939798 0.20874284 -0.22071312 0.3277644
-0.5268665 -0.16686612 0.25330868 -0.42320293 0.55858535 0.4838838 -0.18214498 0.18162479
-0.023792038 0.24398221 -0.53234124 0.49356937 -0.33684018 -0.35308394 0.26574457 0.112024434
0.1437536 0.025888082 -0.53037673 0.16156362 0.14470349 0.44734022 0.26761413 -0.04784214
-0.30142933 0.4081841 0.14788699 0.13911067 0.15032743 0.46775803 0.21701014 -0.56293744
0.30831814 -0.029181616 -0.43049207 0.27395636 -0.22714762 -0.24930334 -0.45241597 0.1233616
0.3598361 -0.26573852 0.04637611 -0.16420853 0.542957 -0.14777479 0.011796702 -0.13081685
-0.2620615 0.19710153 0.47894558 -0.45578542 0.56332433 -0.34100387 0.16920733 0.3440576
-0.12687725 0.4541693 0.4536039 -0.031032827 -0.19172138 0.45952505 -0.34662318 -0.17339231
0.5874653 0.3900879 -0.28209442 -0.37589705 -0.008545498 0.13512258 -0.017363623 0.26605967
0.029134333 -0.32732585 0.37309694 0.22680733 -0.28932515 -0.2339438 0.39269656 0.25079334
0.07970602 0.007321236 0.23235662 0.019316891 -0.5485902 0.26938155 -0.29944727 0.05012261
-0.07325109 -0.5768897 0.027888358 -0.18184514 -0.058238585 -0.37499332 0.14222743 -0.3610192
-0.5013477 0.39241713 0.34601092 -0.39854512 -0.47775236 0.4473434 0.11321194 -0.2825381
-0.33687702 0.07736859 -0.4490253 -0.16147217 -0.5175576 -0.49981692 -0.08032337 -0.25029945
0.060428493 -0.35725042 0.54336137 -0.09455071 0.2109155 0.46848455 0.10567737 0.5723485
-0.021694124 0.5955093 0.4687911 0.043104675 0.29108107 -0.33378974 0.13813275 -0.10739229
0.21843855 0.29861754 0.057566293 -0.24800745 0.5296403 -0.34783992 0.5483523 -0.123568125
-0.28410083 -0.07443484 -0.2564783 -0.26765504 0.20784812 0.384929 -0.17355329 0.04481479
-0.100748524 0.052482314 -0.28067222 -0.28048792 0.16220805 0.032153666 -0.0729342 0.45616937
-0.5846609 -0.49669132 -0.52835894 0.5777044 -0.51660645 0.40190795 -0.53329957 0.08722562
-0.093788326 -0.19378807 0.21075921 -0.08921723 0.3774353 0.46080568 -0.42729762 -0.509914
-0.52804327 -0.13522774 0.13093098 0.04777256 -0.24922346 0.23959802 -0.0061851083 -0.5232769
-0.4599767 0.42897284 -0.185014 0.35820213 0.40123245 0.26049578 0.3020206 0.22899848
-0.102105774 -0.17838126 0.096464016 -0.39072192 -0.28347582 -0.5469467 0.050508592 0.38000354
0.3215602 0.15673742 -0.015607055 0.052224495 0.022653716 0.40152362 0.20388307 0.478235
-0.092959695 0.24528904 -0.08095369 0.3482767 -0.5225597 -0.06996037 -0.36209235 0.0023880403
-0.4609812 -0.26422668 -0.14684157 -0.19949788 0.52127177 0.06766858 -0.23524156 -0.30104712
0.06335821 0.19339184 0.30633268 0.411074 0.20660904 0.09673333 -0.2757994 0.34623173
00000000: db31 97be c7a0 b33d 8cee 78bd b0d3 833d
00000010: 92d9 f2be b118 f53e 4241 9b3d 6545 06bf
00000020: 8f48 343d 398e 033f 443e 82be d476 933e
00000030: e680 f23e 784a 203c dcc4 1a3e a747 0b3f
00000040: 29c4 3cbe ec70 50be bf98 b33e 6b4b 0f3e
00000050: a8f4 2e3e 9a85 9a3d 2d12 dd3e 4989 0cbf
00000060: 747d 11bd 4094 01be 10cc 0c3d af8a 313e
00000070: a773 f53e afc0 553e 9f02 62be bcd0 a73e
00000080: b9e0 06bf f4de 2abe adb1 813e 0eae d8be
00000090: 73ff 0e3f 9ebf f73e 3784 3abe d9fb 393e
000000a0: 85e7 c2bc 79d6 793e 8447 08bf 20b5 fc3e
000000b0: 5176 acbe 6bc7 b4be ac0f 883e 116d e53d
000000c0: 2534 133e 3e13 d43c c5c6 07bf ef70 253e
000000d0: 272d 143e c709 e53e b804 893e 1ff6 43bd
000000e0: f254 9abe 82fd d03e b06f 173e 0773 0e3e
000000f0: 6fef 193e fb7d ef3e e837 5e3e ab1c 10bf
00000100: e0db 9d3e 490e efbc 7569 dcbe 0244 8c3e
00000110: 6399 68be 6049 7fbe 11a3 e7be 02a5 fc3d
00000120: 703c b83e e10e 88be e0f4 3d3d 4826 28be
00000130: 3bff 0a3f 4652 17be f446 413c daf4 05be
00000140: ed2c 86be fcd4 493e 5b38 f53e b55c e9be
00000150: 0636 103f 0f98 aebe b044 2d3e 5128 b03e
00000160: 1cec 01be e188 e83e c53e e83e 8e38 febc
00000170: 9c52 44be de46 eb3e 9878 b1be c18d 31be
00000180: 2064 163f 9ab9 c73e ae6e 90be 9475 c0be
00000190: 6b02 0cbc 935d 0a3e 283e 8ebc f938 883e
000001a0: 20ab ee3c 4197 a7be 9006 bf3e 2e40 683e
000001b0: 6d22 94be f78e 6fbe 860f c93e fc67 803e
000001c0: e93c a33d fbe6 ef3b e5ee 6d3e 753e 9e3c
000001d0: 6870 0cbf 61ec 893e 2751 99be 5e4d 4d3d
000001e0: ab04 96bd 0baf 13bf 2076 e43c 9d35 3abe
000001f0: 958b 6ebd 20ff bfbe 11a4 113e 82d7 b8be
00000200: 5358 00bf e6ea c83e 5828 b13e 1b0e ccbe
00000210: f59b f4be 320a e53e a9db e73d d5a8 90be
00000220: 257b acbe 6c73 9e3d a5e6 e5be f658 25be
00000230: a87e 04bf 01e8 ffbe 9480 a4bd 4027 80be
00000240: de83 773d 87e9 b6be bb19 0b3f cda3 c1bd
00000250: 3cfa 573e 35dd ef3e 616d d83d 6e85 123f
00000260: e0b7 b1bc 4c73 183f 6305 f03e 878e 303d
00000270: 9408 953e 7de6 aabe ac72 0d3e 7df0 dbbd
00000280: 5bae 5f3e 66e4 983e a2ca 6b3d aaf5 7dbe
00000290: 8296 073f 1318 b2be d160 0c3f 4911 fdbd
000002a0: aa75 91be 4b71 98bd 2051 83be 150a 89be
000002b0: 23d6 543e 6a15 c53e f4b7 31be b78f 373d
000002c0: 3e55 cebd b2f7 563d 45b4 8fbe 1d9c 8fbe
000002d0: de19 263e 90b3 033d 875e 95bd 088f e93e
000002e0: 56ac 15bf 534e febe 8842 07bf 70e4 133f
000002f0: 5240 04bf e1c6 cd3e 5286 08bf 59a3 b23d
00000300: 1814 c0bd 6170 46be 43d1 573e 86b7 b6bd
00000310: 333f c13e b9ee eb3e c1c6 dabe b989 02bf
00000320: d82d 07bf 2479 0abe c512 063e 29ad 433d
00000330: 6f34 7fbe 2f59 753e 73ac cabb 7af5 05bf
00000340: 1182 ebbe 54a2 db3e 4f74 3dbe 4566 b73e
00000350: 576e cd3e b45f 853e 72a2 9a3e 947e 6a3e
00000360: d51c d1bd 94a9 36be ed8e c53d b40c c8be
00000370: be23 91be b304 0cbf 19e2 4e3d d38f c23e
00000380: 8aa3 a43e c67f 203e bcb4 7fbc 5ae9 553d
00000390: 4994 b93c 8194 cd3e b9c6 503e 38db f43e
000003a0: a761 bebd 0d2d 7b3e 0ccb a5bd 5351 b23e
000003b0: 79c6 05bf 6247 8fbd 2b64 b9be ab80 1c3b
000003c0: ba05 ecbe b848 87be a35d 16be 2c49 4cbe
000003d0: 1172 053f d395 8a3d 2ae3 70be d922 9abe
000003e0: f3c1 813d 8308 463e a3d7 9c3e 4b78 d23e
000003f0: 5291 533e 201c c63d 9435 8dbe 4945 b13e

encoder.layers.0.ffn.linear1.bias f4 [64]
-0.030963212 0.08814985 0.18320239 0.07934769 0.16827615 0.16538306 0.07601475 0.07283125
0.06898546 0.004047848 0.20609568 0.2335911 0.06025609 -0.01877425 0.22092041 -0.17471753
0.18602595 0.11137327 0.1705787 -0.012820405 -0.1771397 0.17671542 -0.09787893 0.05140789
0.1225778 -0.19684196 0.012763994 -0.07230012 0.16869019 -0.15613331 0.15428662 0.14415374
0.12361635 0.22955382 0.044624083 -0.22914995 0.1898882 0.030619852 -0.0032950623 -0.2237783
-0.058188707 -0.10769629 0.20824297 0.15167694 0.18940294 0.15442431 -0.16669565 -0.11855011
-0.073859565 -0.08294632 0.16845228 0.08529422 0.1934684 -0.0010222234 -0.2049286 -0.09379649
0.15127839 0.13942091 0.06758072 -0.06991119 -0.2201314 -0.104520224 0.13107549 -0.10846306
00000000: 90a6 fdbc e987 b43d 6899 3b3e 0b81 a23d
00000010: 9550 2c3e 2d5a 293e 9fad 9b3d 8d28 953d
00000020: 4048 8d3d cfa3 843b bf0a 533e 8132 6f3e
00000030: 17cf 763d 75cc 99bc f638 623e 27e9 32be
00000040: 967d 3e3e ab17 e43d 2fac 2e3e ad0c 52bc
00000050: 1c64 35be e3f4 343e c074 c8bd 1491 523d
00000060: 120a fb3d f090 49be 1220 513c 1612 94bd
00000070: 1fbd 2c3e 69e1 1fbe 50fd 1d3e 0a9d 133e
00000080: 922a fd3d 2810 6b3e bec7 363d 49a6 6abe
00000090: 0d72 423e 7cd6 fa3c f9f1 57bb 2426 65be
000000a0: 4857 6ebd df8f dcbd a53d 553e 3351 1b3e
000000b0: d8f2 413e 6821 1e3e 44b2 2abe 66ca f2bd
000000c0: af43 97bd c3df a9bd c17e 2c3e bcae ae3d
000000d0: 951c 463e 20fc 85ba ced8 51be 6018 c0bd
000000e0: b9e8 1a3e 5bc4 0e3e c367 8a3d 992d 8fbd
000000f0: 206a 61be b30e d6bd a738 063e e121 debd

encoder.layers.0.ffn.linear2.weight f4 [16, 64]
-0.08529309 -0.12241081 -0.106071234 -0.08282841 0.08059402 -0.06040633 -0.14635348 0.18201493
-0.12971605 0.26657605 0.15398668 0.3062302 0.20189719 0.13362555 -0.15261734 -0.24809238
-0.22379929 0.108107366 -0.2504522 -0.00516514 0.23818246 -0.05880758 -0.081068866 -0.1487149
0.020713761 -0.13949034 0.0686859 -0.24307789 -0.065126576 0.16748919 -0.10800124 0.06870443
-0.22512531 -0.015894365 -0.31280068 -0.29489654 -0.0887364 -0.05210779 0.1412879 0.2765631
-0.24927506 0.09772656 -0.11318154 -0.12301227 0.18737552 0.1148437 0.012519595 0.104214214
-0.0337762 -0.27577898 -0.24949461 -0.11622392 -0.28906432 0.1836833 -0.057806805 -0.25949693
-0.040134985 -0.16842224 -0.12430589 0.20328237 0.021555344 0.22599195 -0.26087978 0.15747194
-0.020150946 -0.20496756 -0.07981454 0.21854617 -0.1994741 -0.08358529 0.09291355 0.2289029
0.049139537 0.08755317 -0.18453361 0.1306935 0.032460235 -0.11483232 0.22900863 0.23202015
0.08794427 -0.19006176 0.25537148 0.035182685 -0.08250544 -0.111478746 -0.0987807 -0.19596975
-0.1003504 0.25095755 0.19766097 0.13854374 -0.1814723 0.13186872 0.0588238 0.03831762
0.09612563 -0.17495455 0.07529119 0.06199686 -0.24162015 -0.0035155679 0.06226418 -0.06625425
-0.07191454 0.0028048905 0.24419674 -0.07151703 -0.24057484 -0.046495654 -0.14435802 0.09322057
0.07967987 -0.24004182 0.05184508 0.21531418 0.24480323 -0.018509049 -0.046772033 -0.26247126
-0.27434045 0.22000512 -0.058809582 0.14507176 0.1010819 -0.16347297 -0.25874636 0.2733051
-0.18384185 0.08071797 0.04722848 0.065243706 0.17049664 -0.15152344 -0.24991007 -0.12365904
-0.24325378 0.10674761 -0.18889308 -0.18827924 -0.27263907 0.09702974 -0.23421228 -0.089951284
-0.021921465 0.2179511 0.005558717 -0.01418274 0.0016308406 0.1700586 -0.105858274 -0.25922233
0.21455605 0.15647145 0.22723895 0.07829548 -0.29010835 0.1048971 -0.12581979 -0.11425341
0.2117724 0.18100129 0.23764358 0.11043488 0.28559345 -0.23901512 -0.27387705 0.1646911
0.18289693 -0.10477918 -0.031194447 0.18806341 -0.23884957 -0.29405484 -0.08143225 0.1377735
0.16279681 -0.14474961 -0.14182065 0.12620367 0.27295256 -0.06296523 -0.1577839 -0.118497156
-0.17473598 -0.21181819 0.15222739 -0.017468821 0.053934917 0.0958004 0.2131064 -0.044882897
0.1885168 0.058152784 0.21118708 -0.12481855 -0.12283259 0.07255705 0.18813984 -0.053169485
-0.23607501 -0.28475538 -0.013935407 -0.06299423 -0.07636104 -0.13447447 0.015590752 -0.1416345
0.08861409 -0.19512722 0.057498563 0.09839505 -1.4121156e-05 0.24626774 0.14437911 0.19722115
-0.16440034 0.0010852986 0.19450317 -0.15233158 -0.11713441 0.05464728 -0.16322374 -0.09901909
-0.019681608 0.2796802 -0.12661663 -0.2856919 0.19387563 0.1901452 -0.05279457 0.012945701
-0.28204316 -0.031490043 0.15213302 -0.19047762 -0.06604741 -0.2093879 -0.22572857 -0.21026194
0.10366221 0.05317578 0.070523866 0.07454176 0.26890948 0.06364633 0.1930922 -0.19729428
0.23683672 -0.021676539 -0.011242347 0.2914373 0.1742278 0.14675389 0.29337284 -0.03602356
00000000: 25ae aebd 85b2 fabd e03b d9bd f1a1 a9bd
00000010: 7a0e a53d a16c 77bd b0dd 15be 1f62 3a3e
00000020: 49d4 04be a87c 883e afae 1d3e 34ca 9c3e
00000030: 23be 4e3e 23d5 083e b847 1cbe ee0b 7ebe
00000040: a42b 65be 6567 dd3d 453b 80be 5640 a9bb
00000050: 1ae6 733e 38e0 70bd 6f07 a6bd b848 18be
00000060: e8af a93c 8ed6 0ebe 31ab 8c3d 69e9 78be
00000070: 1561 85bd 4982 2b3e c12f ddbd e8b4 8c3d
00000080: 4087 66be e634 82bc 6927 a0be aefc 96be
00000090: 6ebb b5bd fa6e 55bd c6ad 103e ae99 8d3e
000000a0: f641 7fbe dd24 c83d b9cb e7bd dbed fbbd
000000b0: 5edf 3f3e 2c33 eb3d fd1e 4d3c 436e d53d
000000c0: ea58 0abd e732 8dbe 847b 7fbe ce06 eebd
000000d0: 3d00 94be 7a17 3c3e d4c6 6cbd c8dc 84be
000000e0: 9564 24bd e176 2cbe 1694 febd 4129 503e
000000f0: d594 b03c 6f6a 673e 0992 85be 5340 213e
00000100: 9913 a5bc 04e3 51be ce75 a3bd 91ca 5f3e
00000110: f042 4cbe c42e abbd 7649 be3d 8665 6a3e
00000120: 8a46 493d 144f b33d 61f6 3cbe 84d4 053e
00000130: 06f5 043d 352d ebbd 3d81 6a3e b196 6d3e
00000140: 201c b43d 8d9f 42be 0dc0 823e b81b 103d
00000150: 9df8 a8bd f84e e4bd 894d cabd 4bac 48be
00000160: 8384 cdbd 827d 803e a367 4a3e 69de 0d3e
00000170: e0d3 39be 9808 073e 3af1 703d f0f2 1c3d
00000180: 84dd c43d 4927 33be 4432 9a3d 6bf0 7d3d
00000190: 466b 77be 7165 66bb ba08 7f3d 4fb0 87bd
000001a0: ee47 93bd 41d2 373b b60e 7a3e 8577 92bd
000001b0: 4059 76be 3a72 3ebd 97d2 13be 6dea be3d
000001c0: 332f a33d 86cd 75be 825b 543d 527b 5c3e
000001d0: b3ad 7a3e 4aa0 97bc 0894 3fbd a262 86be
000001e0: 5a76 8cbe 0649 613e 51e2 70bd b18d 143e
000001f0: 0704 cf3d 7565 27be 677a 84be a5ee 8b3e
00000200: 0a41 3cbe 774f a53d a772 413d 7e9e 853d
00000210: ac96 2e3e f628 1bbe 6de8 7fbe f340 fdbd
00000220: 8517 79be 7e9e da3d 306d 41be 46cc 40be
00000230: 5997 8bbe 87b7 c63d 58d5 6fbe 6138 b8bd
00000240: a594 b3bc 932e 5f3e e625 b63b b95e 68bc
00000250: eec1 d53a d723 2e3e 39cc d8bd cab8 84be
00000260: 95b4 5b3e 0d3a 203e 54b1 683e 6159 a03d
00000270: 1589 94be 4ad4 d63d e7d6 00be b1fd e9bd
00000280: ddda 583e 6758 393e d758 733e af2b e23d
00000290: 4e39 923e 61c0 74be 9d39 8cbe c9a4 283e
000002a0: 5549 3b3e 7796 d6bd 7f8b ffbc b293 403e
000002b0: fb94 74be 5b8e 96be f4c5 a6bd 7f14 0d3e
000002c0: 35b4 263e 3e39 14be 6f39 11be 893b 013e
000002d0: 70c0 8b3e eaf3 80bd 1a92 21be a3ae f2bd
000002e0: fded 32be dee6 58be 7fe1 1b3e c61a 8fbc
000002f0: dcea 5c3d 0033 c43d 9038 5a3e 21d7 37bd
00000300: 8c0a 413e 9d31 6e3d 6d41 583e dea0 ffbd
00000310: a78f fbbd ca98 943d bba7 403e 3fc8 59bd
00000320: a6bd 71be 75cb 91be 5551 64bc 1e03 81bd
00000330: 2d63 9cbd adb3 09be 5a70 7f3c a208 11be
00000340: 4e7b b53d 6ecf 47be 9d83 6b3d 5883 c93d
00000350: e7e9 6cb7 9c2d 7c3e 1ed8 133e 57f4 493e
00000360: 9058 28be 9440 8e3a d72b 473e cffc 1bbe
00000370: 2ae4 efbd d4d5 5f3d 2024 27be 85ca cabd
00000380: 533b a1bc 3e32 8f3e caa7 01be 3546 92be
00000390: 5587 463e 6cb5 423e 1e3f 58bd 351a 543c
000003a0: f667 90be b4fb 00bd c2c8 1b3e 910c 43be
000003b0: dd43 87bd c869 56be 6425 67be e84e 57be
000003c0: da4c d43d d9ce 593d d16e 903d 5aa9 983d
000003d0: 81ae 893e 0259 823d f6b9 453e 8307 4abe
000003e0: 5385 723e ff92 b1bc d231 38bc 4537 953e
000003f0: c668 323e a746 163e f734 963e 718d 13bd

encoder.layers.0.ffn.linear2.bias f4 [16]
-0.09735027 0.047515336 0.06521058 0.117547594 -0.12075649 0.10436751 0.08814146 0.14137977
0.0571412 -0.05939392 0.099633835 0.12709466 -0.051763225 -0.024064196 0.09484982 0.096901245
00000000: 945f c7bd 719f 423d 208d 853d cbbc f03d
00000010: 2e4f f7bd a2be d53d 8383 b43d dcc5 103e
00000020: e40c 6a3d 0a47 73bd d30c cc3d 1a25 023e
00000030: ad05 54bd 4722 c5bc 9f40 c23d 2974 c63d

encoder.layers.0.norm2.gamma f4 [16]
0.98566025 0.9681111 0.97917897 0.9767692 0.9935289 0.9778868 0.9893083 0.9815767
0.9914963 0.9958564 0.99587095 0.9779526 0.9826555 0.9850903 1.0122795 0.98528355
00000000: 3b54 7c3f 21d6 773f 79ab 7a3f 8c0d 7a3f
00000010: e957 7e3f ca56 7a3f 4f43 7d3f 9c48 7b3f
00000020: b4d2 7d3f 72f0 7e3f 66f1 7e3f 1a5b 7a3f
00000030: 508f 7b3f e12e 7c3f 6092 813f 8b3b 7c3f

encoder.layers.0.norm2.beta f4 [16]
-0.0034277544 0.0013450566 -0.003995564 0.007638389 -0.001585203 -0.008070372 -0.0027834724 0.01642213
-0.007147976 0.0033766401 0.005677684 0.018254334 -0.011296157 -0.0016114007 0.012010287 -0.011902664
00000000: 2da4 60bb 9c4c b03a 38ed 82bb 734b fa3b
00000010: 96c6 cfba 9839 04bc eb6a 36bb b487 863c
00000020: 9239 eabb 9f4a 5d3b de0b ba3b 1d8a 953c
00000030: 8413 39bc a335 d3ba cbc6 443c 6403 43bc

encoder.layers.1.attention.w_q.weight f4 [16, 16]
0.03939525 0.22194219 -0.11310763 0.1437213 -0.47111908 0.044685505 0.013517729 -0.0006095153
-0.05170528 0.16193014 -0.59103113 -0.08819349 0.37835097 0.12003437 -0.29427776 -0.3328686
0.09810928 -0.4387875 0.40479434 0.30300942 -0.508079 0.39724433 0.17404419 0.43668514
0.09258283 0.5155827 -0.44729894 -0.5459451 -0.20535484 -0.16745067 0.5933367 0.54296106
-0.04928155 0.09932466 0.43824747 0.16019309 -0.286952 0.027809681 -0.5591484 -0.41755018
-0.076920025 0.5075191 -0.26098803 -0.11604756 0.57894295 -0.5609948 0.5343721 -0.25794888
-0.5730438 0.1950775 0.45963883 0.14236043 -0.51615995 -0.3299874 -0.56137097 -0.5954465
-0.27039945 0.07028609 0.31744492 -0.047802523 0.35715517 0.45481238 -0.47357273 -0.377489
0.020193119 0.4201811 0.19569959 0.030084213 -0.2865731 0.4121192 -0.4125903 -0.18406102
-0.017715918 0.10444704 0.33171004 -0.017316507 -0.3263606 0.48320955 -0.3205661 0.13917767
-0.12810108 0.079944946 -0.3147385 0.18213739 0.35765824 0.15157299 -0.49868315 -0.3339069
-0.058818072 -0.27744672 0.26766244 0.17407255 0.21443158 -0.52308124 0.58080244 -0.34509012
0.123987354 0.2903175 -0.16855642 0.2345652 0.30315512 -0.44152197 0.07058345 0.027305791
0.17648186 -0.5609427 -0.49484015 0.30169654 -0.23241515 0.41386306 -0.36740816 0.44758254
-0.039455608 0.40631995 0.027151493 -0.49225 -0.54358745 0.28191593 0.4309732 -0.56088233
-0.1797398 0.12128838 0.2654028 0.41002154 0.36132684 0.24980254 -0.15605517 0.3379722
0.31542078 -0.23495835 -0.052559525 0.3219603 0.47822088 -0.21852465 -0.3563575 0.055835485
0.3533072 0.12425362 -0.3852123 -0.4843091 -0.08641756 0.21579958 -0.08853073 0.09300344
0.5486194 -0.1585089 -0.5263683 0.42321095 0.09959779 0.47001785 -0.52980614 0.304456
0.5003875 -0.12741236 -0.36295676 -0.5568393 -0.03243789 -0.46217167 -0.53862363 0.4570735
0.55782354 0.46583697 -0.2988795 0.17430027 -0.3010125 -0.52323663 -0.17913115 0.23326237
-0.1457414 -0.24287799 0.077283114 0.20984504 -0.15503418 -0.17555183 -0.0854661 -0.5695417
0.3954728 -0.4642422 0.27050757 -0.24546786 0.16178292 -0.59457624 0.39373723 -0.19212504
0.07464073 0.4684634 0.42057696 0.034351457 -0.5311447 -0.0502661 0.02008237 0.29971707
0.32393882 -0.10717105 0.4805064 -0.24309719 -0.066310555 0.46491763 0.02859841 -0.26679525
0.19443485 0.30022252 -0.297712 0.057503503 -0.26232708 -0.09512253 -0.42628437 -0.2478131
-0.21059278 0.55154943 -0.3118771 -0.43099308 0.4063664 0.36067754 -0.32127684 0.1740651
-0.00038418514 0.58146024 0.56907564 -0.48657584 -0.37724334 0.5449167 0.06747478 -0.34174207
-0.31929243 -0.15705371 -0.00984233 -0.1549287 0.51567453 -0.32916364 0.16752623 -0.05624823
0.3634207 -0.49783254 -0.121944085 -0.23753867 0.2082475 0.43927023 -0.20994282 0.025339352
0.24221599 0.21153387 0.22889024 -0.41125023 0.07168319 -0.5448823 -0.05788209 -0.52727437
0.2330599 0.19722861 0.2857802 -0.50729406 0.28108457 -0.25949508 0.15175591 -0.22521569
00000000: ea5c 213d d044 633e f9a4 e7bd ad2b 133e
00000010: 8536 f1be 2608 373d 7779 5d3c e1c7 1fba
00000020: eac8 53bd 04d1 253e d14d 17bf ca9e b4bd
00000030: 38b7 c13e 94d4 f53d 93ab 96be c16d aabe
00000040: 85ed c83d c1a8 e0be 3441 cf3e 0d24 9b3e
00000050: 7711 02bf 9c63 cb3e a438 323e 3295 df3e
00000060: 119c bd3d 3afd 033f 5e04 e5be 0fc3 0bbf
00000070: 8a48 52be 3078 2bbe eae4 173f 7fff 0a3f
00000080: 73db 49bd ba6a cb3d f961 e03e a809 243e
00000090: 5feb 92be 21d1 e33c 5924 0fbf 23c9 d5be
000000a0: 3f88 9dbd c6ec 013f 39a0 85be 58aa edbd
000000b0: 9b35 143f 5b9d 0fbf 9ccc 083f e011 84be
000000c0: 00b3 12bf 65c2 473e c855 eb3e efc6 113e
000000d0: 0f23 04bf 1cf4 a8be 02b6 0fbf 2f6f 18bf
000000e0: cc71 8abe 27f2 8f3d 2488 a23e 94cc 43bd
000000f0: 0bdd b63e 2bdd e83e 2078 f2be 3d46 c1be
00000100: 0a6c a53c fa21 d73e 7965 483e 2b73 f63c
00000110: b6b9 92be 4a01 d33e 093f d3be 7e7a 3cbe
00000120: f920 91bc 54e8 d53d e6d5 a93e 59db 8dbc
00000130: bd18 a7be 3e67 f73e 3d21 a4be 9784 0e3e
00000140: ee2c 03be 2dba a33d 6825 a1be 3982 3a3e
00000150: fb1e b73e f335 1b3e 6653 ffbe d8f5 aabe
00000160: 38eb 70bd 7f0d 8ebe 0d0b 893e 1340 323e
00000170: f493 5b3e a7e8 05bf 78af 143f a7af b0be
00000180: 15ed fd3d 7fa4 943e 0e9a 2cbe dc31 703e
00000190: 2637 9b3e 2b0f e2be 0e8e 903d 65b0 df3c
000001a0: a9b7 343e f199 0fbf b05b fdbe f877 9a3e
000001b0: 3dfe 6dbe dce5 d33e ec1c bcbe 8a29 e53e
000001c0: 349c 21bd 2b09 d03e cf6c de3c 3108 fcbe
000001d0: 8c28 0bbf 4957 903e 85a8 dc3e fc95 0fbf
000001e0: b60d 38be 0b66 f83d e0e2 873e 58ee d13e
000001f0: d5ff b83e 3dcc 7f3e edcc 1fbe b10a ad3e
00000200: d57e a13e ec98 70be a848 57bd fbd7 a43e
00000210: 5ed9 f43e edc4 5fbe 7e74 b6be c0b3 643d
00000220: aee4 b43e af78 fe3d 8c3a c5be 5df7 f7be
00000230: b1fb b0bd 91fa 5c3e 994f b5bd 9678 be3d
00000240: 5272 0c3f 2850 22be 13c0 06bf 1baf d83e
00000250: edf9 cb3d 2ea6 f03e 60a1 07bf a8e1 9b3e
00000260: 6519 003f 6378 02be 78d5 b9be 058d 0ebf
00000270: 98dd 04bd c4a1 ecbe 3de3 09bf 8a05 ea3e
00000280: 86cd 0e3f 2f82 ee3e bc06 99be c57b 323e
00000290: 4f1e 9abe d6f2 05bf 286e 37be 55dc 6e3e
000002a0: 3c3d 15be 02b5 78be 9c46 9e3d 9ee1 563e
000002b0: 48c1 1ebe dcc3 33be da08 afbd 7ccd 11bf
000002c0: 697b ca3e 27b1 edbe f87f 8a3e ed5b 7bbe
000002d0: 6caa 253e 2636 18bf ed97 c93e 6dbc 44be
000002e0: 3ddd 983d 6fda ef3e dd55 d73e 1db4 0c3d
000002f0: 19f9 07bf d3e3 4dbd c883 a43c 8474 993e
00000300: 4fdb a53e 7f7c dbbd ef04 f63e 78ee 78be
00000310: d4cd 87bd af09 ee3e 3647 ea3c 6399 88be
00000320: ee19 473e c4b6 993e b56d 98be cb88 6b3d
00000330: bc4f 86be 9acf c2bd f241 dabe b8c2 7dbe
00000340: a2a5 57be 5832 0d3f 5bae 9fbe 20ab dcbe
00000350: 420f d03e baaa b83e 667e a4be 1f3e 323e
00000360: 756c c9b9 94da 143f f1ae 113f 7820 f9be
00000370: 0a26 c1be a97f 0b3f 3830 8a3d d1f8 aebe
00000380: 4c7a a3be b0d2 20be b941 21bc a1a5 1ebe
00000390: 3f03 043f 2388 a8be ff8b 2b3e 8b64 66bd
000003a0: 4712 ba3e e8e3 febe d2bd f9bd 563d 73be
000003b0: d53e 553e 07e8 e03e 40fb 56be 7994 cf3c
000003c0: 7807 783e 569c 583e 3462 6a3e 648f d2be
000003d0: a3ce 923d 687d 0bbf c515 6dbd 74fb 06bf
000003e0: 41a7 6e3e 4cf6 493e c851 923e 06de 01bf
000003f0: 51ea 8f3e 8adc 84be e765 1b3e f19e 66be

encoder.layers.1.attention.w_q.bias f4 [16]
-0.18857469 -0.03418038 0.14956297 0.09828382 -0.16809992 0.021894487 -0.26079515 -0.10756814
0.18401968 -0.1061154 0.15664734 -0.19688311 0.20805676 0.10719279 0.15357894 0.054842133
00000000: b919 41be ba00 0cbd 0927 193e 0749 c93d
00000010: 6322 2cbe 115c b33c f186 85be af4c dcbd
00000020: a86f 3c3e 0853 d9bd 2968 203e ba9b 49be
00000030: d50c 553e e587 db3d cc43 1d3e 25a2 603d
