Trans_Prediction/model_saved/numIntegratedCommits/TM_numIntegratedCommits_delay_size_6_delay_2.pth (torch, 387452 bytes, 337 tensors)

encoder.layers.0.attention.w_q.weight f4 [16, 16]
00000000: 9aa4 cd3e bd33 b3be c166 8d3e ae4c 60be
00000010: b0d3 a23e aeef b4be b8bc 053f b9a5 dabe
00000020: 391c 40be 4425 1c3f 9f59 8d3d bb06 9dbe
00000030: 8de7 073f edbd 89be 8f52 d93e 573b cf3c
00000040: 06ab dfbe 2e4a 763e 843c e83d 42f8 e73e
00000050: b603 d7bd 6d16 ad3e ad4a 17be 2f0d ccbe
00000060: 9093 4dbe b96b c1bd 2c8d eebe 9c15 1a3f
00000070: 7605 2e3e 110f 2a3e d4ae db3d 3bba ac3e
00000080: e8c6 10bf 7f89 0fbf 31fe ddbe a344 893e
00000090: e8c4 613a 37f3 103f c376 863e 9621 9e3e
000000a0: 9a41 0e3f 7dc7 143f 22d3 c5be 5b18 d9be
000000b0: 597e ac3e c6f7 b43e 5eda f6be e750 d43e
000000c0: ed59 c53e e220 a03e a36a ff3e b7d5 aa3e
000000d0: cd0b 59be 5715 0bbf c80a 463b 0df1 333e
000000e0: 1233 fabe 624c b8be 66fd 743e 4110 bd3e
000000f0: 61a7 0e3f 51cf c23e b951 e93e 5736 2dbe
00000100: 5490 a7be d24c 31be 354e 6dbd 8d9c fabe
00000110: ae80 61be 5b43 9c3e fad3 803e 97cb 4fbe
00000120: 8c50 023f b918 06be ecc6 c7be fd21 163f
00000130: 3f46 18be d92c 97be b8de 043f e693 183f
00000140: 0780 163f 1dbd 943e 2b7c 2dbd 0c2f 1b3f
00000150: 82a3 09bf 8d7c fc3e ac38 cbbe 2aae 1abf
00000160: 542e c83e 270c 94bd 8f98 12bf 3a0b 96be
00000170: 8482 49be 003f 693e e029 02bf 3828 02bf
00000180: e04a 033f bc45 813d 1f2c bd3e f733 583d
00000190: 5eca a33e 108f 39be 46df 7dbe c1f6 21bd
000001a0: 92a5 cc3e 0e2c aebe a628 51be 9645 82bd
000001b0: fb2a 0a3f b774 153f 5324 afbc adb1 efbe
000001c0: 0fe6 cf3e 072e 1c3e eea8 c6be 8f46 11bf
000001d0: b036 62be c3a7 dfbe b1a5 e93d 5392 fa3d
000001e0: 01ae dabe cbf3 293e e769 5ebe 7e92 c93e
000001f0: bb14 e63e 30f0 1b3f 3cfa dd3d 61d5 08bf
00000200: 937a 983e cf9c c3bc 3efc 1bbf 41c2 c1be
00000210: 9287 e13e ec9e 963e 20b2 ea3e 3094 0c3f
00000220: 0abb 0b3f a3dc b7be 89b2 233e e2f9 153f
00000230: efd7 3cbe d0ab c93e 412c 9bbe b014 c73e
00000240: e617 a33e d7b8 b5be bf30 163f d1ba 873e
00000250: 0ee5 fbbe 0220 05bf b5f1 ad3e b02a bcbe
00000260: 7f82 07bf 4450 cd3e 92ba ccbe 232d 9f3e
00000270: e428 9d3d b183 a03c 1eab ab3e 12a6 19bf
00000280: 3f39 5f3e 42f6 1c3c f23c f6be 0dc0 00bf
00000290: 4ead a53e d9e7 51bd c7bc 0cbf d3c1 9cbe
000002a0: 1371 143f c39c 043e dd54 353e 15ce 133f
000002b0: 79e9 6f3d aaa4 f53d 5af5 cf3e ba87 943d
000002c0: 1e41 96bd 8dea d2bd 5887 793e 9d04 19bf
000002d0: 09db 09be 125a 09bf 776b e43c ba1c 7fbe
000002e0: ced9 4abe a194 073f e409 93be 5e2e 0e3f
000002f0: 92f8 12bf 2f0f f5bd 79b3 2fbe 46bd 193f
00000300: 6014 4f3b 65ab 15bf 4828 0dbe 6efe 8fbe
00000310: b694 03bf c100 923e d301 da3e 99f4 99be
00000320: 40ec e63c d170 073f 9c26 e9be b895 91be
00000330: 57a3 903e bd2b e5bd d78b f43e d274 9dbd
00000340: a579 4dbe 381b 17bf 8f6c e73d fe83 ebbe
00000350: 957d 08bf de50 823d 16d2 c03e d12d 59be
00000360: 7dea 1a3e 380b 42be b0a4 99be 07b9 65be
00000370: a453 933e 2887 4b3e d80c 50be f4a7 f2be
00000380: 6f4c c4be fa1e 083f 50ec ca3e 71c6 e33e
00000390: 5fc1 f73e e62e 2dbe b6fc a73e f17c c13e
000003a0: 7bb1 bfbe d99c 5ebe cac3 c2be 4435 24be
000003b0: 0d5f bb3e 8c77 0e3d 7045 033d 7b41 82bd
000003c0: f7d5 cbbe db4e 533e e5ec 8b3e 7ed8 a93e
000003d0: 7149 dcbe c1b0 bf3e d52b 123f 2cc2 103e
000003e0: e2d8 ae3e 2ddc 70bd 71c5 0dbf 5430 ebbe
000003f0: 374e 2f3e ff7c 3c3e b774 fd3e f6d0 463e
0.40164644 -0.3500041 0.27617458 -0.21904251 0.3180213 -0.3533911 0.52241087 -0.4270456
-0.18760766 0.6099436 0.069018595 -0.30669197 0.53087693 -0.26902714 0.424458 0.02529685
-0.43685168 0.24051735 0.113396674 0.45306593 -0.10498755 0.33806172 -0.1477458 -0.39853808
-0.20075822 -0.094443746 -0.4659208 0.60189223 0.1699427 0.1660731 0.10726705 0.33735833
-0.56553507 -0.5606918 -0.43357995 0.26810178 0.000861241 0.56621116 0.26262483 0.30885
0.5556885 0.58116895 -0.38637644 -0.42401394 0.33690146 0.35345286 -0.48213476 0.41467974
0.3854517 0.31275088 0.49886045 0.33366176 -0.21195908 -0.54329437 0.0030218828 0.17572422
-0.4886709 -0.35995775 0.23924789 0.36926463 0.5572415 0.38048795 0.45570162 -0.1691526
-0.327273 -0.17314461 -0.057935912 -0.48947564 -0.22021744 0.30520138 0.25161725 -0.20292507
0.50904155 -0.13095368 -0.39018953 0.5864561 -0.14870547 -0.29526404 0.5190234 0.59600675
0.58789104 0.29050532 -0.042354744 0.6061866 -0.5376512 0.49313775 -0.39691675 -0.60422003
0.39097846 -0.072288804 -0.57264036 -0.2930544 -0.19678694 0.22777939 -0.50845146 -0.5084262
0.51286125 0.06312129 0.36947724 0.052783933 0.3199033 -0.1812098 -0.24792203 -0.039541963
0.3997007 -0.34017986 -0.20425662 -0.06360929 0.53971833 0.5838122 -0.021379625 -0.46815243
0.40605208 0.15251933 -0.38800758 -0.5674829 -0.22091174 -0.4368268 0.11408556 0.122349404
-0.4271088 0.16596906 -0.21720086 0.39369577 0.4493769 0.6091337 0.10838744 -0.5345059
0.29781017 -0.023878483 -0.60931766 -0.37843516 0.44048744 0.29418123 0.45839024 0.54913616
0.54582274 -0.3591052 0.15986075 0.58584416 -0.18441747 0.39388895 -0.303072 0.3888297
0.3185417 -0.35492584 0.5866813 0.26509717 -0.49198192 -0.52001965 0.3397347 -0.36751318
-0.52933496 0.401003 -0.39986092 0.31089124 0.07673815 0.019594045 0.3352899 -0.6001903
0.21799181 0.009580197 -0.48093373 -0.50293046 0.32358783 -0.051246498 -0.5497555 -0.30616626
0.5798504 0.12950425 0.17708154 0.5773633 0.058572266 0.11994298 0.40616876 0.0725245
-0.07336639 -0.10298643 0.24368036 -0.59772664 -0.13462462 -0.5365306 0.027883274 -0.24913302
-0.19809648 0.52961165 -0.28718483 0.555395 -0.5741054 -0.11965787 -0.17158307 0.60054433
0.0031597838 -0.5846465 -0.13784897 -0.28123802 -0.5139879 0.285162 0.42579517 -0.30069426
0.028188825 0.5290652 -0.4553727 -0.2843454 0.28249618 -0.11189983 0.4776294 -0.07688297
-0.20065935 -0.5902591 0.11300003 -0.4599914 -0.5331662 0.063630804 0.37660283 -0.21208884
0.15128513 -0.18949592 -0.3000846 -0.22433864 0.2877475 0.19875777 -0.203174 -0.47393763
-0.38339564 0.53172266 0.39633417 0.44487336 0.48389718 -0.16912422 0.3280999 0.37790635
-0.37440094 -0.2173952 -0.3804 -0.16035944 0.36595955 0.034781978 0.032048643 -0.06360146
-0.3981168 0.2063555 0.27329174 0.33172983 -0.4302478 0.3743954 0.5709813 0.1413657
0.34149843 -0.058803726 -0.55379397 -0.4593531 0.1711968 0.18407057 0.4950311 0.1941565

encoder.layers.0.attention.w_q.bias f4 [16]
00000000: fa14 0c3e 5ac5 31be 727e fc3d 3661 dd3d
00000010: 46ab 343e c3ab 41be a5a3 383e bffb eebd
00000020: ad99 c63d e9ef 653e 402f 37bd 719f 1c3b
00000030: 5b4e 88bd e5f4 60be ad73 e63d 2f1e 81be
0.13679877 -0.1736044 0.12328805 0.10809557 0.1764346 -0.18913178 0.18031175 -0.116691105
0.0969728 0.224548 -0.044722795 0.0023898745 -0.0665557 -0.2196842 0.11252532 -0.2521834

encoder.layers.0.attention.w_k.weight f4 [16, 16]
00000000: 1fd2 8c3e 2cba f0be ab1b 0ebf baf8 a4be
00000010: 0abf bdbe 3316 263e 07d6 ac3e c192 bd3d
00000020: 9635 c33d 2747 06bf f6ff fb3e fc57 adbe
00000030: 5ea8 573d c5fc 03be 724f e5bd 8d5e b63e
00000040: 08f1 0cbf 7cca 0b3f 74ef debe 179d 373e
00000050: 9368 123f 27a8 90be bce4 283e 0f1f 99be
00000060: 6889 5cbe d0a5 9bbd 5d90 0b3e 0349 14bf
00000070: 1faf e03d bc8e debe c72e ddbe 9cca 2dbd
00000080: 331b 3abd 0c27 c3be 80e5 ee3e b8c6 79bc
00000090: 4bd3 ba3d 8aa1 a6be 5eb1 23be 39f3 9bbe
000000a0: 7782 03bf c6d2 c93d 470b 17bf bf60 8c3e
000000b0: 970c ca3d de08 973e 2149 dd3e de0c e63e
000000c0: b34e 8a3e f9f5 94be 9ecd d73e 2d5f acbe
000000d0: ba53 93bd 7594 da3b ff5c dabe 0f1e dd3b
000000e0: 5244 823e 4508 0bbf b91f 0a3f 41fc 103f
000000f0: b503 0ebf ac8a a03d 2822 dbbe 45d0 8c3d
00000100: 4547 283e 9343 2abe f69e c33e 7e77 25be
00000110: 0336 a5be 7f8f 693d abb0 63be ab96 13be
00000120: 67b6 a0be 7c82 0b3e 5e9f b5be 6d17 1c3e
00000130: 17b1 c83e 6899 efbd 613b 97be 3f8b a7be
00000140: 71ac 083d a94f 44be 17c9 b33e 3a67 023e
00000150: be79 cebe e3a7 333e 9d3a ac3e 7828 b73e
00000160: cd49 3e3e 46bf 03be 3dd6 fdbe 3344 933e
00000170: ca9d a9be 9fc2 c73d 3912 f6be 2793 923d
00000180: 6047 ec3d ba84 c43e 8989 f3be 090d 3f3e
00000190: dca7 15bf 69d9 3dbe f4c8 6b3d 11e4 c03e
000001a0: 5551 19bf acc7 c5be 4d5f 7cbe 2d78 33bd
000001b0: e329 f3be 7e0c dbbe ce18 fd3e 341e 553d
000001c0: 436d 05bf e3ea 883e 6687 ed3e 1a57 b03e
000001d0: e256 c43e d234 933e eb71 18bf 9147 28be
000001e0: a576 103f fcb3 0cbf d896 c63d 48a7 87be
000001f0: 0815 b83e 5b06 41be 4d40 cbbd ef37 d6be
00000200: c1a1 f53d 69ac 083f 25e9 873e 9911 bbbd
00000210: 50e5 08bf db63 593e be87 1b3d a61c 953c
00000220: a3e5 19bf 218e b33e 9cbf a3be f836 49bb
00000230: 88c5 bd3c a7e3 0bbf bff8 7ebe fd0a de3e
00000240: 048a d33e 6d7b e6be 13db 19be 8cbe bf3d
00000250: 1e17 0abf c8e8 40be 7480 e73e a18f 8abe
00000260: fd1a e0be 38c5 0f3f f8cc 153f 045e b5be
00000270: 4e84 053f 55fe 863e d9c8 03bf 895f b4be
00000280: d2c3 99bb fefe 6bbd 415a a2be c9d3 8d3d
00000290: 0ee1 033e ce55 983d 2859 663e 015d 413e
000002a0: d3a1 89be 9327 4d3e edea a63e 92d0 d53e
000002b0: 7157 e23e 4222 953e 1cbf b9bd b26c 333d
000002c0: 7161 063e 3785 dabd e32c d6be 9005 513e
000002d0: 6bf1 b1be 9879 b4be 6111 093f cb8f f3be
000002e0: 2035 50be e64f 96bd 13d1 a1be 7d12 613e
000002f0: d5f2 eabd aa09 083f 910a b4be 7177 23be
00000300: 8ad0 7a3e e788 a13e a1d7 ebbe 517f 783d
00000310: c2a7 0cbd 7d02 1ebf 7a20 3ebe 9651 fa3e
00000320: abdc 973e d785 863d f4c7 ed3e 0c59 18bf
00000330: 64b6 96bc 1fac 083f ac75 6fbe 907e 263e
00000340: d218 6cbe d826 1bbe ec1f 2dbc be17 153f
00000350: 276e c0be fd58 193f 7c1a cdbe 0911 32bd
00000360: ad7e 8d3e 7af1 9fbd 465d b93e 411d 13bd
00000370: abb9 09bf 8cab 033f 4e8f bdbe cdf3 753e
00000380: 563b ebbe ad63 6c3c 6fb5 f83e 2482 0c3e
00000390: bdcb 10bf b828 d83e 9d2c 4f3e 3634 febd
000003a0: 1e27 e5bd f045 cf3e 9224 b33e ee1a af3e
000003b0: 61b1 e7be fc90 27be 0700 3e3e 13ed a83e
000003c0: 7255 8b3d aa47 a23e 5414 423e 5044 4a3e
000003d0: 9d8a f83e fc4b 29be 41f0 d73d 6390 6ebd
000003e0: 88b2 23be 2a11 a13e ffc7 933c d222 2f3e
000003f0: 315d d4be 8887 cf3d 842f e73e 3549 c8be
0.2750406 -0.47017038 -0.5551097 -0.32221013 -0.37059814 0.16219406 0.3375704 0.09256507
0.09531705 -0.5245232 0.4921872 -0.3385619 0.0526508 -0.12889393 -0.111967936 0.35619012
-0.55055285 0.5460584 -0.43542063 0.17931019 0.5719082 -0.2825329 0.16493505 -0.29906508
-0.21536791 -0.075999856 0.13629289 -0.5792391 0.10970902 -0.43468273 -0.4319975 -0.04242955
-0.045436095 -0.38115728 0.4665947 -0.015245132 0.09122332 -0.3254512 -0.15985629 -0.30459002
-0.5137095 0.09854655 -0.5900158 0.2741756 0.098656826 0.29498953 0.43219855 0.44931692
0.27013168 -0.29093912 0.4214906 -0.33666363 -0.07193704 0.0066705295 -0.42649075 0.006747968
0.2544275 -0.54309493 0.53954655 0.5663491 -0.55474406 0.078389496 -0.42799497 0.06875662
0.16433437 -0.1662734 0.38207215 -0.16158864 -0.3226777 0.057021614 -0.22235362 -0.14412944
-0.31389162 0.13623995 -0.3547315 0.15243311 0.3919761 -0.11699182 -0.2953749 -0.32723424
0.033367578 -0.19171013 0.35114357 0.1273469 -0.40327257 0.17544512 0.33638468 0.35773063
0.1858284 -0.12865934 -0.49577513 0.2876297 -0.33128196 0.09753918 -0.48060778 0.07156973
0.11537051 0.38382512 -0.47565868 0.18657316 -0.5845926 -0.18539967 0.05756469 0.37674
-0.5988973 -0.386289 -0.2464573 -0.04381578 -0.47492895 -0.42782968 0.49432987 0.052030757
-0.52119845 0.26741704 0.46392363 0.34441453 0.38347536 0.28751236 -0.59548825 -0.1643355
0.5643104 -0.54962134 0.0969674 -0.26494813 0.35953546 -0.1885008 -0.09924374 -0.4183955
0.11993743 0.5338808 0.26545063 -0.09134216 -0.53474903 0.21229498 0.03797125 0.018202137
-0.6011602 0.35069373 -0.31982124 -0.003070293 0.02316548 -0.54644245 -0.24899577 0.43367758
0.41316235 -0.4501604 -0.15024976 0.09362516 -0.53941524 -0.18838799 0.4521519 -0.27062705
-0.4377059 0.56160307 0.5851588 -0.3542329 0.52155006 0.26365915 -0.51478344 -0.35229138
-0.004692533 -0.057616226 -0.31709483 0.069251604 0.1287882 0.07438241 0.22494948 0.18883134
-0.26881275 0.20034628 0.3260111 0.4176069 0.44207337 0.291277 -0.09069654 0.04380483
0.13123108 -0.1066994 -0.4183112 0.20412278 -0.347545 -0.3524902 0.53542143 -0.47570643
-0.20332766 -0.07339458 -0.31604823 0.21979709 -0.11472098 0.53139746 -0.35164312 -0.15963532
0.24493614 0.3154976 -0.4606295 0.060668293 -0.034339674 -0.61722547 -0.18567076 0.4889037
0.29660544 0.06568497 0.46441615 -0.59510875 -0.018397518 0.53387636 -0.23384732 0.16259217
-0.23056343 -0.15151536 -0.010566693 0.5823935 -0.3758404 0.5990141 -0.40059268 -0.043473277
0.27635708 -0.0780973 0.36203974 -0.03591657 -0.5379893 0.51433635 -0.37023395 0.24018784
-0.45943707 0.014428061 0.48575923 0.1372152 -0.5656088 0.42218566 0.20231862 -0.12412302
-0.11189102 0.40483046 0.34988838 0.34200233 -0.45252517 -0.16363901 0.18554698 0.32993373
0.06803407 0.316953 0.18953067 0.19752622 0.48543254 -0.16532892 0.10543872 -0.058243167
-0.15986073 0.31458408 0.018039702 0.17103127 -0.4147735 0.101332724 0.4515344 -0.39118353

encoder.layers.0.attention.w_k.bias f4 [16]
00000000: 2189 cc34 1e63 48b3 ee94 b334 323e 2034
00000010: 8b8b 5f33 61af 48b5 dfde 9e33 90eb fe34
00000020: e63a 6ab4 8216 8333 2569 3c33 a91f 8234
00000030: 6a60 20b3 bf6f 54b3 6f6d db33 4202 2e33
3.8097735e-07 -4.6656275e-08 3.344971e-07 1.4923788e-07 5.2048147e-08 -7.4761016e-07 7.397988e-08 4.748258e-07
-2.1814375e-07 6.104257e-08 4.386779e-08 2.4237423e-07 -3.734059e-08 -4.946173e-08 1.0217888e-07 4.0514585e-08

encoder.layers.0.attention.w_v.weight f4 [16, 16]
00000000: 9e24 55be 5aef 173f 31e9 02bf 2b20 7cbe
00000010: 2d43 1e3b f6db d7be d898 c33d d791 cb3e
00000020: 3ef7 ccbd b92e e3be c71a 92be 2b94 603d
00000030: b135 123f 6bd3 c1be 8205 713d 1a76 80be
00000040: a8ae 0cbe 87ed c2bd 45e2 af3d 8ebe cc3e
00000050: d710 14bf ad63 03bf 96d7 123f 7dc6 c3be
00000060: 4994 e63d ec10 143f b733 2d3d 8fa7 28be
00000070: 8018 ef3e d116 d03e a9d4 97bd 0c45 973e
00000080: d880 b93d 4281 6cbe 1f4c edbe 56d2 e6be
00000090: a446 6bbe 842b 00be d66d 0c3e e7a9 90be
000000a0: d158 8bbe 543a 7c3d 60b5 4c3e d44b d83d
000000b0: a80f 0dbd c03e 853e e9fd 08bf 5f16 063f
000000c0: 2009 9abe c2b9 e2bc a78b 013f 91f4 5a3e
000000d0: d04e 163f ef0b 46be 9a14 373e 4af6 54bd
000000e0: 722c c73e 94ef b4be 6cdc d63d 9a5a 053e
000000f0: c9e8 b83e fb4a c0bd e022 79be ca5c 25bc
00000100: 5e96 bfbe 92e8 cfbe f685 cebe ec3b ccbe
00000110: c6bf b03e f13d f63e 8702 53be a64c ff3e
00000120: 2a90 113f afca 8dbb d0ab 16bf 7399 a1be
00000130: f64a cf3b 6090 7a3e a9d5 f73e e2ac 45be
00000140: ce9d 83bd f569 bb3d a886 5ebe 5637 aabe
00000150: 3580 e83d 690e 033f e18d e1be cb80 f83d
00000160: 74c7 9d3e e6b9 a2bc 0ff4 533e 88b3 debe
00000170: a431 ed3e b565 1a3e 22ef a6be b135 15bf
00000180: 5d15 8fbe 719e 113f 1d15 9dbd a74d 063f
00000190: 6901 dc3e 4166 aa3e 89fd 323e 5e46 153e
000001a0: e65e 653e 93da 433d 543f f93e 566a 17be
000001b0: e15e 7ebe 9040 05bf 1777 2c3d 8388 fb3e
000001c0: c544 fcbe 4117 8fbc 84b7 483e a75b 823e
000001d0: 6c00 92be 0ef7 1c3e 0a49 80be f98f 9abe
000001e0: 5478 b13d 026e 05bf c225 5cbd d14c f93e
000001f0: 07fe f9bd 6d7a 783e cd16 143f b65b 7abe
00000200: c867 173f ad99 02bf 5cad b2be 0ab5 b63e
00000210: c4c6 0c3f 79c2 4dbe 3278 30be fc1f ebbe
00000220: dcff f4be aa04 14bf 5d13 0a3f 693a d8be
00000230: ab10 c63d 8f96 9c3e 877e 163f aed5 01bf
00000240: e106 ecbc f6a3 a8be 3ef5 b9be 3a4e 013e
00000250: 323c 133e 6d05 08bd 0d0f fc3e ecba a93e
00000260: 25c1 d63e d71b 863e f807 dc3e 0cd1 b7be
00000270: ae05 cf3e e55e b9be 2319 aa3d 3310 e83e
00000280: c8a1 943e 1c3c ef3e 22a9 2c3c c7f8 053e
00000290: 2236 44be 9520 90be 71a3 2ebe 9b40 c1be
000002a0: 0960 8c3e 3512 4bbe 34ab 15bf 3e83 d23e
000002b0: ee4f e2be 5b9d ed3e 8765 10bf be49 9f3e
000002c0: b29b ffbe c183 04bf 5f8a 6c3e 98c9 d73e
000002d0: 3491 17bf b11a ba3e 1cfb 0dbf 57d4 b5be
000002e0: c2b4 653e f8d7 163d 5ef1 0e3e 5e01 90be
000002f0: 9cce 993e e730 fb3e 42f2 943e bcdb c0be
00000300: b15f f5be 876c f1be 100b ae3e 0516 e03e
00000310: 4522 893e c889 b3bd 5d03 ccbe 72a1 a6be
00000320: 78b7 053f 25fe d7bc 2934 de3e bb69 f83e
00000330: a688 59bd 34a8 bdbe 1f2e 15bf b65e 8abe
00000340: d443 2abe e672 64be a4df 73be 97b2 603e
00000350: 5097 26be 73ea 413e ae5e 1cbf 8078 1fbe
00000360: c1ef c33e 6241 fabe e63b a0bd bb73 70be
00000370: 337b 863c 05c6 cebd 4570 ad3e cf93 543e
00000380: 0404 703e 528a 5cbe 02d4 363e 0702 643d
00000390: 9a7c f83e a192 46be 98fa 103e 9aca 183f
000003a0: 7a4d 203d f8ba 50bd 9a13 95be 1076 a63d
000003b0: aa7b 523e 1861 c4be 0fc9 b3be cfc8 07bf
000003c0: 9c12 b23d 0784 113f fba2 653e 7512 c53d
000003d0: 13fb ea3e 197e bcbe 6037 0b3f c67e e03e
000003e0: ba99 953d de06 bbbd 5288 a03e 1e74 043f
000003f0: d5c6 893e ba88 adbd aac5 703e cccf a93e
-0.2081475 0.59349597 -0.5113707 -0.24621646 0.0024148927 -0.42160004 0.09550637 0.39759704
-0.10008095 -0.44371584 -0.28536054 0.054828804 0.57113177 -0.37856612 0.058843143 -0.25090104
-0.13738501 -0.09517961 0.08588079 0.39989132 -0.57838196 -0.5132397 0.5736021 -0.38237372
0.11258752 0.5783832 0.042285647 -0.16470169 0.4669838 0.40642408 -0.074136086 0.29544866
0.09057778 -0.23096183 -0.46347138 -0.4508235 -0.22976166 -0.125166 0.13713774 -0.28254625
-0.272162 0.061579064 0.19991064 0.10561338 -0.03443876 0.26024437 -0.53512436 0.52377886
-0.30085087 -0.027676467 0.5060372 0.21382357 0.5871401 -0.1934049 0.17878953 -0.051992692
0.38901097 -0.35339034 0.10491261 0.13022843 0.361151 -0.093893014 -0.2432971 -0.010092923
-0.3741941 -0.40607125 -0.4033658 -0.39889467 0.34521312 0.48094133 -0.20606433 0.49863166
0.568606 -0.0043271403 -0.58855915 -0.31562385 0.0063260747 0.24469137 0.48405197 -0.19304231
-0.06426583 0.09151069 -0.21731055 -0.33245343 0.113525786 0.51193863 -0.44053558 0.1213394
0.30816233 -0.019864034 0.2069857 -0.43496346 0.46326935 0.1507786 -0.3260432 -0.5828505
-0.27945986 0.5688239 -0.07670043 0.5246224 0.42969826 0.3328114 0.17479528 0.14577624
0.22399482 0.04781587 0.48681128 -0.14786658 -0.24840881 -0.5205164 0.04210576 0.49127588
-0.49271217 -0.017467143 0.19601256 0.2546055 -0.28515947 0.15328619 -0.25055724 -0.30187967
0.08665529 -0.52120984 -0.053746946 0.4869142 -0.12206655 0.24265452 0.5784729 -0.24449047
0.5914273 -0.5101574 -0.34897888 0.35684997 0.5499079 -0.20093717 -0.17233351 -0.4592284
-0.47851455 -0.57819617 0.53935796 -0.42232063 0.09671148 0.30583617 0.58786815 -0.50716674
-0.028811874 -0.32937592 -0.36319917 0.12627497 0.14378431 -0.0332083 0.49230233 0.33150423
0.41944233 0.26193115 0.4297483 -0.35901678 0.4043402 -0.3620521 0.08305576 0.4532486
0.2902968 0.46725547 0.010538371 0.13083182 -0.19161275 -0.28149858 -0.17054535 -0.37744603
0.2741702 -0.19831164 -0.5846436 0.41115755 -0.44201607 0.46409115 -0.5640492 0.31110948
-0.49923474 -0.5176354 0.2309966 0.4214599 -0.5920594 0.3634849 -0.5546129 -0.35513565
0.22432235 0.036827058 0.13959262 -0.28126043 0.30040443 0.49060747 0.29091078 -0.37667644
-0.4792457 -0.47153112 0.33992815 0.437668 0.26783958 -0.08766514 -0.39846316 -0.32545048
0.52233076 -0.026366303 0.4339917 0.48518166 -0.053108834 -0.3704239 -0.582735 -0.27025384
-0.16627437 -0.22309455 -0.23815781 0.21943127 -0.16268659 0.18937092 -0.6108197 -0.15573311
0.38268855 -0.48878008 -0.07823925 -0.23481648 0.016416168 -0.10096363 0.33874717 0.2075951
0.23439032 -0.2153714 0.17854312 0.055665996 0.48532563 -0.19391872 0.14158094 0.59684145
0.039136387 -0.050959557 -0.29116517 0.081279874 0.20554987 -0.38355327 -0.35114333 -0.53040785
0.08694956 0.5684208 0.22425453 0.09622661 0.4589468 -0.36814955 0.5438137 0.4384672
0.07304712 -0.09132169 0.31354004 0.5173968 0.2690951 -0.08473344 0.23512903 0.3316635

encoder.layers.0.attention.w_v.bias f4 [16]
00000000: 9299 d9bc 3d8d d53d 0609 45be c8cb f83d
00000010: f71e 37bd c9f3 0bbe dbe9 df3c 9faf 953d
00000020: f3ff 303e 7d46 0cbe cf72 bfbd 42a8 503d
00000030: bed8 433d fb96 cc3d d380 b43d 8dc5 96bd
-0.026562486 0.1042733 -0.19241723 0.12148243 -0.044707265 -0.13667215 0.02733319 0.07308888
0.17285137 -0.13698764 -0.0934807 0.050941713 0.047814123 0.09989735 0.08813634 -0.073618986

encoder.layers.0.attention.w_concat.weight f4 [16, 16]
00000000: 5747 58be d964 7fbe d173 1a3e 0643 adbe
00000010: 5889 ebbe 3805 97be 0628 bbbe a56d f3be
00000020: e7a8 b0be b166 8a3e 8d18 0c3f 5ff1 b6be
00000030: 0fa2 65bd dcab 00bf 6025 eabc 61f1 fd3e
00000040: 5318 99be 5069 8a3e 4c3a 003f 0770 433e
00000050: 3eb1 71be 752b d6bd 1cc5 e5be 1cda 293e
00000060: 2937 1c3e ff8b dcbe 0343 033f 2257 a63c
00000070: fe1f 08bf 64fa 253e bb25 e3be 81fd 753e
00000080: dc1e 963e 38a1 b5bd cb91 21be c017 06bd
00000090: e5c9 a8be 7242 ed3d dfd5 243e 530c a23e
000000a0: bf3c 5ebe efec 8dbe f712 bf3d 467e 0dbf
000000b0: 5296 ffbe b899 5f3e d7e5 cbbe a3e7 2abe
000000c0: f9b1 e13e 1361 f13e 84b0 853e e73c dfbd
000000d0: ed76 d0bd 1e9e b6be f9d5 06bf be5e 8cbc
000000e0: a444 883e f290 d5bd 464c 2abe a8d3 cc3e
000000f0: 7296 36bd 6e83 95be 6b3f c2be cacd 7ebe
00000100: b075 adbe b778 0d3e 3e18 78be 3f1b dd3e
00000110: 6463 b2be b34d fcbd b2fb 173f 1fc9 35be
00000120: 7f27 00bc 7528 b33e 6c8f 4ebe ff72 003f
00000130: 3413 0fbe 989f ed3e 6f85 f43e 6f8e 0d3d
00000140: d3f7 bd3e a671 6c3e 09f0 c6bc 3c81 e23e
00000150: 000a bf3e 6aaf acbe ae6d 8abe ef34 0ebf
00000160: c6eb a9bd 5af3 cdbd 06af 8cbe c1b0 bfbd
00000170: cc3a 88be 2469 04bf e0a1 e83e fbda a0be
00000180: 75c5 833d f5fb d2be 3344 553d da40 5b3e
00000190: c2e6 dbbe 084d e1be 4fbc 0fbf 45e0 053e
000001a0: 1e23 9c3e 5872 9fbe fde2 c53d 3826 5ebe
000001b0: e93b eabe 280f 0a3e 5008 c8be d552 863e
000001c0: a418 dcbe cb3d 0dbf 9fed 173f 1617 df3e
000001d0: 4129 6a3d 8ac0 fc3e a034 adbd 5cbf f73e
000001e0: 5b2e 0ebf bb87 fc3e 78fb e73e d6bd d3bd
000001f0: 9d5f 2b3e db55 28be b920 633e b734 c03e
00000200: cf73 ca3e 7302 d03e 7f6e 913e 6dbd 06bb
00000210: b444 02bf 1929 dbbe 9bb8 1dbf c8cd cdbe
00000220: 4fd4 bb3e 9664 c43d 15d1 873e f043 b2be
00000230: 7b62 f13e b7f6 62bd d4a7 a9be b044 82bd
00000240: 9ed4 7f3e 1a75 f7be d5bd 163e e9ad a43e
00000250: 5998 49be 7cbd debd 2243 c63e 3712 d6be
00000260: 05dc d13e 6082 033f 73f3 b13e 5556 21be
00000270: b4d9 8abe 6941 123f 5173 56be 89af e5be
00000280: bc7f edbe b023 863e a6ae 9abe c93c b43e
00000290: d350 a53e f24c 6bbb 0b50 cebd d54e 90be
000002a0: 6160 b0be 468b 423e bab0 9d3e 9613 f53e
000002b0: db90 923e 9302 36be ba29 a6bd 6772 8a3b
000002c0: fad4 fdbd 3afd e9be 4c35 e13e cfc2 a53e
000002d0: cb70 fa3e e627 c2be 630f 4a3e 3ec1 c3bd
000002e0: 7463 123e cdfd 873e 6d15 a63d e130 993d
000002f0: 7502 d4bc cfe0 14bf 9f21 253c 4065 11bf
00000300: 152d 92bd 6138 eabe f7e4 313e 50c1 ed3e
00000310: 5292 db3d 1f98 c9be d434 f93e b6c7 8dbe
00000320: ae0f 22be 4372 3fbe 9c12 d93d f572 0bbf
00000330: 2965 0dbf c081 edbe 4de3 9bbe 9370 0d3f
00000340: c096 463d 983b f6be bdeb 54bd 5cbc e5be
00000350: 7e9b cb3e 73cc c03d e029 e53e 61a4 c43e
00000360: 6440 0f3f 21e1 463e ae82 9bbe 8b07 d13e
00000370: 01f9 793e 0261 133f 96f7 203e 9fa2 d83e
00000380: 8621 0f3f 8ce5 d53e 120e d4be 3cca aebe
00000390: 8248 c93d db1a 49be cb46 aa3e b98c f93e
000003a0: 31ea 6bbb 6f76 13bd d2bc f63e 3c8f b23e
000003b0: 1fe3 513e a396 0c3f 92d1 50be ad57 533e
000003c0: 507a a1be 33be a2be ddd9 aa3c b263 01be
000003d0: 14ed 8abe 08bb 553d cf25 dabe 3fb8 e13e
000003e0: dc67 b63d 3d93 9fbe 9b43 f53c 0cfe 86be
000003f0: 68d6 f43e 2778 2cbd e49a e53a bc8b 163f
-0.21120964 -0.24940814 0.15083243 -0.33840197 -0.46003222 -0.2949617 -0.36553973 -0.4754459
-0.34503862 0.27031472 0.5472496 -0.35731027 -0.056062754 -0.50262237 -0.028582275 0.4959822
-0.2990137 0.27033472 0.50088954 0.19085704 -0.23602769 -0.104575075 -0.44876945 0.16587108
0.15255417 -0.4307556 0.51274127 0.02030522 -0.53173816 0.16208798 -0.44364724 0.24022485
0.2932042 -0.08868641 -0.15778272 -0.032737494 -0.32966533 0.11584939 0.1609721 0.31650028
-0.2170286 -0.27719828 0.09329789 -0.552708 -0.49919373 0.21835983 -0.3982379 -0.16689925
0.44081095 0.47144374 0.26111233 -0.10900288 -0.10178933 -0.3566751 -0.52670246 -0.01713502
0.2661487 -0.10428037 -0.16630659 0.4000523 -0.04457707 -0.29201835 -0.3793901 -0.2488319
-0.3387885 0.1381558 -0.24227998 0.4318485 -0.34841454 -0.123195074 0.5936843 -0.17752503
-0.007821917 0.34991804 -0.20171899 0.5017547 -0.13972169 0.46410823 0.47758052 0.034559663
0.37103137 0.23090228 -0.02428438 0.44239223 0.37312317 -0.3372758 -0.27036804 -0.5554952
-0.08296923 -0.10056181 -0.27477282 -0.09359885 -0.26607358 -0.5172293 0.45436 -0.3141707
0.06434146 -0.41207853 0.052066993 0.21411458 -0.42949492 -0.44004083 -0.5614671 0.13073833
0.30495542 -0.31141925 0.09662435 -0.21694267 -0.45748833 0.13482344 -0.39068842 0.2623507
-0.4298755 -0.55172414 0.59346956 0.435723 0.05716825 0.49365646 -0.08457303 0.48388183
-0.5553948 0.49322304 0.45309043 -0.10338943 0.16735692 -0.16439001 0.22180451 0.37540218
0.3954148 0.4062687 0.28404614 -0.0020559684 -0.5088608 -0.42804793 -0.6160981 -0.4019606
0.36685416 0.09589498 0.26526704 -0.34817457 0.47145447 -0.055411067 -0.33135855 -0.06360757
0.24983451 -0.4833153 0.14720853 0.32163933 -0.19687022 -0.10875985 0.38723093 -0.41810772
0.40988174 0.5137081 0.3475605 -0.1575559 -0.2711922 0.5713106 -0.20942427 -0.44860485
-0.46386516 0.26199102 -0.3021137 0.35202625 0.32288226 -0.0035904017 -0.10073861 -0.28185144
-0.3444853 0.18998441 0.30798894 0.47866505 0.2862614 -0.1777442 -0.081134275 0.0042250636
-0.12394138 -0.4570101 0.43985975 0.3237519 0.4891418 -0.37921065 0.19732432 -0.095583424
0.14295751 0.26560822 0.081095554 0.07480026 -0.025880078 -0.5815553 0.010078817 -0.5679512
-0.07137505 -0.4574614 0.173725 0.46436548 0.10721268 -0.39373872 0.48673117 -0.2769143
-0.15826294 -0.18695931 0.105992526 -0.54472286 -0.55232483 -0.46388054 -0.30446854 0.552499
0.04848361 -0.4809234 -0.05198263 -0.4487027 0.3976707 0.094139956 0.4475851 0.3840666
0.5595763 0.19421817 -0.30373138 0.40826067 0.24411394 0.575699 0.15719447 0.4231157
0.5591053 0.41776693 -0.41416985 -0.34138668 0.09828283 -0.19639151 0.33257136 0.48740175
-0.0035997743 -0.03600162 0.48190933 0.34874904 0.20496796 0.54917353 -0.20392445 0.20638914
-0.3153863 -0.31785735 0.020855838 -0.12635687 -0.27134 0.05218032 -0.4260697 0.4408588
0.08906528 -0.3116702 0.029939463 -0.26365697 0.4781983 -0.042106774 0.0017517474 0.5880697

encoder.layers.0.attention.w_concat.bias f4 [16]
00000000: b23e 09bd 2c75 c13d 73c6 1cbd 08f1 5d3d
00000010: 62e1 1ebd 8eb0 843c c506 0abe 4ff1 9fbd
00000020: 500c 98bd ac89 26bd 32dc a4bd 72db 0dbe
00000030: 1acc 92bc d141 ca3d f5ad 173e 8321 e43d
-0.033507057 0.09446177 -0.038275193 0.054184943 -0.03878916 0.01619747 -0.13479145 -0.07809698
-0.074242234 -0.040658638 -0.080498114 -0.13853243 -0.017919589 0.09875835 0.14812453 0.11139204

encoder.layers.0.norm1.gamma f4 [16]
00000000: fe8a 7b3f 293e 763f 85b9 783f ab7c 7a3f
00000010: 3b35 7f3f 8240 7b3f aafc 7b3f 740e 803f
00000020: 8b79 7a3f afd3 7e3f a84c 7d3f c9b3 7b3f
00000030: bf8c 7d3f 54b1 753f a494 7d3f 90a3 7a3f
0.9825896 0.961886 0.9715808 0.9784648 0.996906 0.98145306 0.9843241 1.0004411
0.9784171 0.99541754 0.98945093 0.98321205 0.99042886 0.95973706 0.9905493 0.97905827

encoder.layers.0.norm1.beta f4 [16]
00000000: cbd4 edbb a042 a6bb 2a2c 38bc 3053 ac3b
00000010: cf95 d73b d34f f33a 13e0 193b b9c2 123c
00000020: 10fd a9bb b148 80bb e353 0b3c 2eca 0d3c
00000030: 8722 8f39 411a a63b 45f0 e7bb 07b5 52bb
-0.007258033 -0.0050738603 -0.011240998 0.00525894 0.006579138 0.0018563218 0.0023479506 0.008957558
-0.005187638 -0.0039149155 0.008503887 0.00865416 0.0002730081 0.0050690477 -0.007078203 -0.0032151358

encoder.layers.0.ffn.linear1.weight f4 [64, 16]
00000000: e682 8ebe 7f31 a83d a526 54bd 50c9 803d
00000010: 2045 e2be c25c e33e 1fea 803d 948c 00bf
00000020: 703b 383d 493f f93e b8d6 68be 914a 8a3e
00000030: 0b2e ea3e 660d e23a a46e 0d3e 6066 013f
00000040: d312 39be c7dc 49be f00e aa3e 1e56 0d3e
00000050: dab0 303e d2d1 873d 6a04 d83e c459 0abf
00000060: 02c2 07bd 4345 02be 38c9 103d 21a4 2b3e
00000070: e2dd f33e 7e12 5b3e 0b70 5ebe e7cb a63e
00000080: d5e0 04bf c918 2cbe 58c1 773e 097c d8be
00000090: 27b8 0f3f 0a76 f93e 65d6 3bbe 901e 303e
000000a0: e6e0 cfbc 8b9e 723e 73d7 04bf 8852 f23e
000000b0: 78a0 a6be 7e13 b9be 4329 843e 5673 cc3d
000000c0: c2a8 023e 3eb4 ee3c 00bf fdbe aaba 2a3e
000000d0: 5242 103e 1f8a df3e 5435 883e f700 70bd
000000e0: 00a5 93be 9493 cc3e 660d 103e b8b9 083e
000000f0: 387e 103e 707e e33e 9358 463e cdce 0dbf
00000100: a473 a13e ff53 f1bc 8a83 d7be c80f 893e
00000110: a09d 69be 0f93 86be 5cbe e0be b034 0a3e
00000120: 45a8 b03e a23b 8bbe f712 2a3d 5e1e 2ebe
00000130: eee9 093f 7b67 f9bd 057d 923b 0ba5 e8bd
00000140: bf5a 85be c4e3 463e 437c ed3e 693d e5be
00000150: 5c98 0e3f 568f a7be 2bdc 2a3e 8dac a93e
00000160: 1d1e 02be 7a93 e23e 1029 e43e 20d1 c9bc
00000170: c4d8 3bbe 17b1 e23e d414 aabe ccac 30be
00000180: dbc6 163f 202c c53e c4d6 8dbe bc80 c0be
00000190: e8e6 67bc 5254 fc3d e505 4fbc 727a 8a3e
000001a0: 729a cd3c a24b a9be 7bc5 ba3e 861d 623e
000001b0: e89d 91be 408e 68be bcf4 c33e 71d9 823e
000001c0: 6ac0 983d 32ea 1d3c 6555 673e 3ab0 bc3c
000001d0: cec5 06bf 4a36 843e 6ac4 92be b3f8 263d
000001e0: 553c 8abd e051 10bf 47a0 053d 007e 30be
000001f0: 54b6 75bd e733 b7be 4766 153e a32c babe
00000200: 644f eabe 0d1a b13e a34a 963e 34fe bebe
00000210: 1d70 ecbe c355 cb3e d859 d83d 45b7 80be
00000220: 71bc 9abe 2e35 733d 5789 d7be fb24 1abe
00000230: b103 f5be a8c9 f3be b684 a5bd 4a7a 65be
00000240: 8a13 933d 10eb b9be 42dd 043f ff21 d1bd
00000250: 84bf 543e 5722 e93e 2817 c63d 27ef 133f
00000260: cc62 d0bc 93f5 153f b9c8 ec3e 75a7 fd3c
00000270: f054 953e 5f1f a0be 0578 173e 5b43 d5bd
00000280: 9501 643e d543 953e 1024 523d a179 81be
00000290: 7431 063f 6151 b9be 3d13 093f b764 e7bd
000002a0: aa9f 92be b542 a9bd 46c3 80be 3382 8bbe
000002b0: 1232 593e 7d97 c83e a229 2abe 8351 4c3d
000002c0: 1bb3 d6bd 01b4 623d 3631 89be 554b 8dbe
000002d0: 83fa 243e 16ff 0d3d 6614 95bd 9a4e e53e
000002e0: 9c42 13bf 6816 fabe fb78 03bf afaa 133f
000002f0: ab1c 04bf beef c63e 7817 05bf 9a49 a63d
00000300: 07b2 85bd c525 3cbe 5e22 443e fb84 c1bd
00000310: 1470 be3e f018 dd3e e913 d4be a09f f6be
00000320: 2cd1 04bf 2577 13be 58d4 023e 236f f13c
00000330: 88d0 72be be38 823e 7314 2639 97ec 00bf
00000340: e382 eabe fb6e cf3e 43bf 36be df1b b63e
00000350: 7daf cd3e 5fc3 6a3e fec7 913e 95c7 633e
00000360: baca c1bd b585 2fbe 6903 d03d 03e2 bebe
00000370: 385a 8ebe 1b2e 09bf 9889 653d 22bb be3e
00000380: 635e 9e3e 5021 243e 13e4 35bb 5ab5 6d3d
00000390: ab63 ab3c 278d c73e 1ce1 4c3e 9686 ea3e
000003a0: 7cc7 a5bd d587 7a3e 5cb3 9cbd fe36 b13e
000003b0: e447 03bf b48e 99bd 98dd b0be 6904 b9bb
000003c0: 4617 edbe 4917 82be 6e1b 0fbe 54bf 48be
000003d0: 2c93 053f daa5 9c3d 9ed5 6ebe cc00 9ebe
000003e0: 55e3 863d 7415 473e 80df 9c3e 06bb cb3e
000003f0: 8a89 513e 7b7b 9d3d c1b6 8bbe af9d ab3e
-0.27834243 0.08212566 -0.051794667 0.06288397 -0.44193363 0.44406706 0.06294655 -0.50214505
0.04497856 0.48681095 -0.22738159 0.27010015 0.45738253 0.0017246425 0.13811737 0.50546837
-0.18073587 -0.19713126 0.3321452 0.13802382 0.17254964 0.06631817 0.42190868 -0.5404322
-0.033144005 -0.12721734 0.035348147 0.16761829 0.4763022 0.21393773 -0.21722429 0.3257744
-0.51905566 -0.1680633 0.24194849 -0.4228213 0.5614037 0.4872287 -0.18343504 0.17199159
-0.025375795 0.23693292 -0.5189125 0.4732859 -0.32544303 -0.36147684 0.2581273 0.09982936
0.12759688 0.02913868 -0.49559784 0.16672769 0.14087799 0.43660066 0.26603186 -0.05859467
-0.28836823 0.39956343 0.14067611 0.13352096 0.14110649 0.44432402 0.19369726 -0.5539368
0.3153354 -0.029458998 -0.42092544 0.26769853 -0.22814035 -0.26284072 -0.43895233 0.13496661
0.3450338 -0.27193934 0.041521993 -0.17003772 0.53872573 -0.121779405 0.00447047 -0.113596044
-0.26045796 0.19422823 0.46383867 -0.44773415 0.5570123 -0.32726544 0.1668555 0.33139458
-0.127068 0.4425314 0.44562578 -0.024635851 -0.18344408 0.44275734 -0.33219016 -0.17253417
0.5889718 0.38510227 -0.27702916 -0.37598217 -0.014154173 0.1232077 -0.012635683 0.27046543
0.02509806 -0.33065516 0.3647879 0.22081575 -0.28440785 -0.22710514 0.38272655 0.2555652
0.07458575 0.009638356 0.22591169 0.02303325 -0.52645576 0.2582267 -0.28665477 0.04076452
-0.06749789 -0.5637493 0.032623556 -0.17235565 -0.059988335 -0.35781786 0.14589797 -0.3636218
-0.45763695 0.34590188 0.29353818 -0.37303317 -0.46179286 0.39713868 0.10564011 -0.25139824
-0.30221894 0.059376888 -0.4209697 -0.1505317 -0.4785438 -0.4761479 -0.08081953 -0.22409931
0.07181461 -0.3631215 0.5190011 -0.10211562 0.20776182 0.45534012 0.096723855 0.5778679
-0.025437735 0.5857784 0.4624689 0.030963639 0.29166365 -0.31273934 0.14791878 -0.10413238
0.22266228 0.29153314 0.051303923 -0.25288108 0.5241921 -0.361949 0.5354498 -0.11298507
-0.2863744 -0.082646765 -0.25148982 -0.27247772 0.21210507 0.39178076 -0.16617444 0.049882423
-0.104833804 0.055347446 -0.26795357 -0.27596536 0.16111188 0.034667097 -0.07279281 0.4478653
-0.5752351 -0.4884522 -0.51356477 0.5768232 -0.51606244 0.38854784 -0.51988935 0.08119507
-0.06528097 -0.18373783 0.19153735 -0.09449192 0.37194884 0.43183088 -0.4142144 -0.4816866
-0.5188167 -0.14400919 0.12776315 0.02947194 -0.23712361 0.25433916 0.00015838612 -0.5036101
-0.45802984 0.4051436 -0.17846398 0.3556814 0.4017295 0.2292609 0.28472894 0.22244103
-0.09462495 -0.17140849 0.101569004 -0.37281808 -0.27803206 -0.53585976 0.056039423 0.37252146
0.30931386 0.16028333 -0.002775435 0.05803428 0.020921549 0.38974878 0.20007747 0.45805806
-0.08094689 0.24465878 -0.076513976 0.34612268 -0.5128157 -0.074979216 -0.34544063 -0.0056462777
-0.4630682 -0.2540839 -0.13975307 -0.19604236 0.5217769 0.07648821 -0.23323676 -0.30859983
0.06586329 0.19441777 0.30639267 0.39791125 0.20462623 0.07689568 -0.27287868 0.3351874

encoder.layers.0.ffn.linear1.bias f4 [64]
00000000: e04f fbbc 806a b53d f9b1 3e3e 7221 973d
00000010: cced 2c3e 1439 253e d233 a33d 5642 8a3d
00000020: 6e08 893d ff4a 063c 5006 563e 72c4 693e
00000030: 8006 743d de35 88bc 5847 553e 7104 2fbe
00000040: a65b 3d3e 94b5 f73d 9984 2e3e 1778 3fbc
00000050: 0bad 29be 5047 353e 12bd c9bd fe13 533d
00000060: 01f7 fb3d d83f 44be 3391 063c 12c6 95bd
00000070: 14e7 273e c545 20be fb9e 0d3e 0ed8 0b3e
00000080: e500 033e eba7 573e 4ca2 413d 04b5 66be
00000090: 7781 3c3e 2670 023d c569 8fbb 2cbc 5fbe
000000a0: d525 56bd be26 cdbd 5424 583e 9648 183e
000000b0: b101 4b3e a7f6 1a3e fe64 24be 94f4 e9bd
000000c0: bbdc a5bd e2b5 a5bd 4e54 353e d7fc b43d
000000d0: 08c9 423e 8669 afba 7c98 4fbe 8125 aebd
000000e0: 7a8e 1f3e 1f98 093e 4f70 793d 3b5f 8dbd
000000f0: 305d 52be f595 ddbd 9e42 083e eead d6bd
-0.030677736 0.08858204 0.18622579 0.07379426 0.16887587 0.16135055 0.07968868 0.06750934
0.06691061 0.008196591 0.20900846 0.22828844 0.05957651 -0.016627248 0.20827997 -0.17091538
0.18491992 0.1209518 0.1704277 -0.0116863465 -0.16569917 0.17702985 -0.098505154 0.051532738
0.12302972 -0.1916498 0.008213329 -0.073131695 0.16396743 -0.15651615 0.13830177 0.13656637
0.1279331 0.2106015 0.04727392 -0.2252999 0.18408762 0.031845234 -0.0043766224 -0.21849126
-0.052282173 -0.10017155 0.21107608 0.1487144 0.19824864 0.15133153 -0.1605415 -0.11423603
-0.080987416 -0.08091332 0.17707941 0.08837288 0.19022 -0.0013382889 -0.20273012 -0.08503247
0.15581694 0.13436936 0.06089812 -0.069029294 -0.2054336 -0.10819618 0.13306662 -0.10482393

encoder.layers.0.ffn.linear2.weight f4 [16, 64]
00000000: 32c5 afbd a49b fdbd fe23 e6bd df46 abbd
00000010: b069 a63d 9aaf 7cbd a45f 18be e561 373e
00000020: 8f77 00be 2cd2 873e 0a86 1d3e d764 993e
00000030: c6ce 4c3e 9359 fc3d ca03 26be 2e02 80be
00000040: a915 66be d288 df3d 3589 7cbe 645d fabb
00000050: 2380 723e 19b1 84bd f22b aebd b97f 1dbe
00000060: 9c6e b23c 2f72 dfbd c72a 893d 3b7b 71be
00000070: ee45 88bd 6336 2a3e 1d30 e0bd 320b 883d
00000080: eea4 68be d9a7 67bb 7575 a0be 1635 94be
00000090: cbe0 bebd fbf6 59bd 65ac 123e 5f32 8d3e
000000a0: e245 81be 205d bf3d aa0e ccbd 7b4c fdbd
000000b0: 51f7 403e 23d7 f63d 9e75 523c 0d8b c33d
000000c0: f293 17bd c5c4 8bbe 889e 7fbe 936b e0bd
000000d0: 1b7c 94be 4f2d 393e 82c7 5ebd 94e0 80be
000000e0: 9f6a 1dbd b19c 29be 3035 ffbd f993 523e
000000f0: 81a5 903c 648b 5e3e 2635 86be 1f4e 223e
00000100: 107f adbc 562e 4fbe 5ba4 a0bd 7bfd 5a3e
00000110: 3f69 50be c6d4 acbd 91bb b93d 23cd 633e
00000120: 8fb4 393d 73a6 ad3d a9a3 3bbe 43dd 013e
00000130: d892 ee3c 9b8c e1bd 9391 693e 6821 6b3e
00000140: ff36 ae3d f610 48be 969c 7b3e 6338 0c3d
00000150: c3cc a0bd 1491 e8bd 9c58 d0bd 3444 48be
00000160: b379 d1bd 74a8 6d3e ef77 473e f93c 0b3e
00000170: 8007 39be 359b 023e 21a3 733d 43aa 233d
00000180: 402d c23d 75a6 29be 49c8 913d c258 613d
00000190: 8c06 76be 72c1 d6ba 9d9a 683d 24dc 89bd
000001a0: 0e3b 8abd dd76 b43b 964f 793e 4da7 94bd
000001b0: 5bff 76be 256a 6bbd d6aa 09be ccbd d23d
000001c0: 752a 9b3d da65 74be 49d9 503d c576 4e3e
000001d0: 2d47 733e 80ba 5dbc dfcc 4abd 2406 7fbe
000001e0: f4a3 8dbe 7c12 5a3e d706 73bd ae69 0d3e
000001f0: 0f04 c43d 35a4 1bbe 1b07 84be 5169 843e
00000200: 0dea 2cbe 428e 9d3d b5a1 463d e6ef 6a3d
00000210: e9ac 2c3e 518f 1dbe 8b8e 7abe 3cc1 03be
00000220: 0135 58be db76 ca3d 2d5f 3fbe c6ae 38be
00000230: bb7d 8cbe f6b4 d43d a36c 65be 0e36 babd
00000240: aa66 8bbc 352b 5d3e 85e0 e43a 336b e3bb
00000250: 7680 baba c0fd 313e 6a13 cbbd fc3a 7abe
00000260: 5c28 5a3e 4131 063e 5614 693e 74d0 8b3d
00000270: e493 91be ec7f d53d 55a2 fdbd 239e e3bd
00000280: d6b3 5b3e e2cb 243e b1f0 6b3e d55f df3d
00000290: f07c 8c3e fadf 77be b57e 8dbe 07d8 263e
000002a0: 570e 3c3e ffd1 d1bd 03ec 0fbd fe39 403e
000002b0: dc1c 73be 2372 98be 7a72 a6bd 9d13 0a3e
000002c0: 6096 0f3e 29cc 0bbe 0cb1 04be 1134 e13d
000002d0: 40d9 843e f92a 81bd 417b 24be 4ad4 e2bd
000002e0: e3e5 35be 454d 5cbe 685d 1c3e c2b0 93bc
000002f0: bd7e 6d3d 2036 af3d 5275 5a3e 16cd 3ebd
00000300: 9e15 313e 2c7e 823d 6b2b 513e b58e 02be
00000310: 077c f8bd da38 893d 713d 3d3e 396f 54bd
00000320: 426f 57be c3fa 91be 625b 77bc a7cc 85bd
00000330: c09d acbd abcc 01be 1649 f33b 12ae 15be
00000340: 4a7c b13d 944a 4ebe 9990 5f3d 4c3b bb3d
00000350: 5f30 2cbc 50a9 793e 2e48 0d3e c326 403e
00000360: 1470 27be b4ed 0e3c b8d2 453e 0e3d 13be
00000370: 7c18 f2bd 8220 5b3d abe3 26be 9445 c9bd
00000380: 6e61 a4bc 60f5 8a3e 7b76 02be d963 90be
00000390: 846f 3e3e 8a8e 423e d169 57bd fec8 643c
000003a0: 33e8 8fbe 5e56 07bd 8835 1e3e 8d5a 3cbe
000003b0: fe2d 84bd 09ae 57be b5ad 67be e093 54be
000003c0: 651e af3d 1a58 5b3d 57a8 7e3d b3b3 a23d
000003d0: d11d 873e 55b2 843d 623d 3b3e 9a18 3dbe
000003e0: e565 673e aad4 90bc 56f1 4bbc 5a82 913e
000003f0: e6eb 243e c462 013e 7a0d 953e 98f9 ddbc
-0.08582534 -0.12383202 -0.11237334 -0.08363127 0.08125627 -0.061690904 -0.14880234 0.17908438
-0.12545608 0.26527536 0.15383163 0.29959747 0.20000753 0.123217724 -0.16212383 -0.25001663
-0.224692 0.10914768 -0.24661715 -0.0076405276 0.23681693 -0.06479091 -0.08504476 -0.15380754
0.021781258 -0.10910451 0.06697612 -0.23582165 -0.06653963 0.1662231 -0.10946677 0.0664276
-0.22719166 -0.0035347848 -0.31339613 -0.2894675 -0.093202196 -0.053214055 0.14323576 0.27577493
-0.2524863 0.09343934 -0.099637344 -0.12368103 0.18844344 0.12052753 0.012845425 0.09548006
-0.037006326 -0.2729856 -0.24962819 -0.10958018 -0.29000935 0.1808369 -0.054389484 -0.2517134
-0.03843176 -0.1656368 -0.124613166 0.2056426 0.017657043 0.21732861 -0.26212424 0.15850113
-0.021178752 -0.2023252 -0.07843848 0.21385758 -0.20352648 -0.08439021 0.090689786 0.22246222
0.04533821 0.08479013 -0.1832415 0.12682061 0.029122755 -0.110131465 0.22809438 0.22961962
0.085065834 -0.1953772 0.24571452 0.034233462 -0.07851555 -0.113557965 -0.10173151 -0.19557267
-0.102282904 0.23208791 0.19479345 0.13597478 -0.18069267 0.1275452 0.059481744 0.039957296
0.09481287 -0.16567405 0.071182795 0.055016287 -0.24025935 -0.0016384555 0.056788076 -0.067314416
-0.06749545 0.0055073337 0.24346766 -0.072584726 -0.24120848 -0.057474274 -0.13444075 0.10290107
0.075764574 -0.23866978 0.05098847 0.20162494 0.2375762 -0.013533235 -0.049511787 -0.24904686
-0.2766415 0.21296114 -0.059332695 0.13809845 0.095710866 -0.15199359 -0.2578667 0.258616
-0.16886158 0.07693149 0.04849406 0.05735769 0.16862835 -0.15386702 -0.24468438 -0.12866682
-0.2111397 0.09885951 -0.1868865 -0.18035421 -0.27439675 0.10386078 -0.22404723 -0.09092341
-0.017016727 0.21598513 0.0017461932 -0.0069402694 -0.0014228958 0.17381954 -0.09915812 -0.24436563
0.21304458 0.13104726 0.22761664 0.06826869 -0.28433144 0.1042479 -0.12384478 -0.111141466
0.2145532 0.160934 0.23041035 0.109069504 0.2743907 -0.24206534 -0.27635732 0.16293345
0.18364845 -0.10245132 -0.035137188 0.18772122 -0.23741478 -0.2977458 -0.081273034 0.13484044
0.14022207 -0.136521 -0.12958163 0.10996259 0.25947 -0.063070245 -0.16062643 -0.11075647
-0.17763476 -0.21513851 0.15270007 -0.01802862 0.057982195 0.085552454 0.21333817 -0.046582304
0.17293403 0.063717216 0.20426719 -0.12749751 -0.12133031 0.06700297 0.1848047 -0.051863883
-0.21038535 -0.28511629 -0.015097471 -0.06533175 -0.08428526 -0.12675731 0.007424484 -0.14617184
0.086662844 -0.20145637 0.05458126 0.09142169 -0.010509579 0.24380994 0.13797066 0.18764786
-0.16351348 0.008723665 0.19318664 -0.1437876 -0.11821076 0.0534978 -0.16297786 -0.09827724
-0.02006599 0.2714033 -0.12740509 -0.28201178 0.18597227 0.18999687 -0.05259115 0.013963936
-0.2810684 -0.03304135 0.15450108 -0.18393917 -0.06454085 -0.21062483 -0.22624858 -0.20759535
0.08550719 0.053550817 0.06217226 0.07944431 0.26389936 0.06479327 0.18285134 -0.18466416
0.22597463 -0.017679531 -0.012447676 0.28419763 0.16105613 0.12635332 0.29111844 -0.027096555

encoder.layers.0.ffn.linear2.bias f4 [16]
00000000: fe89 c9bd 994c 3f3d e09d 843d 0d11 ed3d
00000010: e841 e0bd 197b d93d 1cb3 a23d 9fa0 0c3e
00000020: a8df 3d3d f9b2 70bd ce20 d73d 271d fd3d
00000030: 7a85 5abd 1d31 d1bc c3c2 bf3d 11a0 c83d
-0.09840773 0.04670391 0.06475425 0.11575518 -0.109500706 0.10619182 0.07944319 0.13733147
0.046355873 -0.05876443 0.10504304 0.12359076 -0.05334995 -0.025536114 0.0936332 0.09796155

encoder.layers.0.norm2.gamma f4 [16]
00000000: 8fd2 7c3f 932e 773f 494e 763f ad58 783f
00000010: 6330 7d3f 0ca8 7b3f 04c0 7a3f c46c 793f
00000020: f478 7c3f bc37 7d3f 03fe 7c3f 3e05 773f
00000030: 61d3 783f dbbf 7b3f d091 803f 694b 793f
0.98758787 0.9655544 0.96213204 0.9701031 0.9890196 0.98303294 0.9794924 0.9743159
0.9862206 0.9891317 0.9882509 0.96492374 0.9719754 0.98339623 1.0044498 0.9738069

encoder.layers.0.norm2.beta f4 [16]
00000000: c878 9dbb b572 c13a 3ef5 43bb 4082 f83b
00000010: a426 c13b 4b70 72bb c743 d4bb 11cc 623c
00000020: 9a75 0ebc f98d 8a3b b84b fe3b 1cb8 7d3c
00000030: adbd 1cbc ffae d5ba 0893 fd3b 58b3 36bc
-0.004805658 0.0014758917 -0.0029900814 0.0075838864 0.005894499 -0.0036993201 -0.0064778063 0.013842599
-0.008695031 0.0042283502 0.007760491 0.01548579 -0.009566707 -0.0016302763 0.0077384748 -0.011151157

encoder.layers.1.attention.w_q.weight f4 [16, 16]
00000000: 97f1 2a3d 5549 603e 6a18 edbd ac57 0c3e
00000010: c418 ebbe dec9 373d c187 483c 18c1 d23b
00000020: 24a2 69bd 3ac4 283e 7750 17bf 0709 b0bd
00000030: 73ba c03e 1021 f53d efda 94be 949e abbe
00000040: 2251 bc3d 2b07 d6be abf5 c13e fa0f 943e
00000050: 07de f4be b35e c13e 55f4 2e3e a067 cf3e
00000060: 8fbd c33d 929d 033f a5a0 ddbe 5d35 00bf
00000070: 5e4a 4bbe 7696 2cbe 0445 163f 9bfe 053f
00000080: de32 4fbd 67ab cb3d ecc6 d43e 59dd 223e
00000090: d1c9 8cbe b319 c83c 2635 0dbf 8d91 ccbe
000000a0: 675f 9abd 1916 033f 2a39 87be ce4d e2bd
000000b0: 66a3 113f 34db 0fbf 7715 093f c4ba 86be
000000c0: c228 11bf 2df1 453e d4b9 e53e 76ca 123e
000000d0: 1d07 03bf b907 a6be a0f7 0ebf 6434 18bf
000000e0: d2f5 85be 34c4 803d 423d a23e cb65 36bd
000000f0: d424 b63e a2ef e83e e334 f4be 3d12 bcbe
00000100: 8187 9c3c 5270 d43e 68c0 413e 12af fd3c
00000110: 7e3f 8cbe 4819 ce3e 2d40 d1be ec1b 42be
00000120: e110 16bc 4266 d03d 62f0 a83e e64c 49bc
00000130: d3f4 a4be 6893 f53e 6da0 a2be 9690 0d3e
00000140: ab0e eebd ef07 963d aa1f 98be c1c1 2e3e
00000150: 114d a83e 2cb3 203e d610 febe 05bc a4be
00000160: 63fa 84bd 51ba 92be 9f1f 893e 2f44 253e
00000170: 37b3 5f3e 5bd6 01bf 616f 0f3f 4e70 a7be
00000180: ad43 013e e6b1 8c3e 8258 2bbe e767 603e
00000190: f21a 953e 4963 dabe 012b 6c3d 31d4 1c39
000001a0: 64b6 2d3e 7799 0ebf fbb2 f2be 673e 983e
000001b0: 8037 5fbe 7f1a d53e 157e b9be 70fc e03e
000001c0: d43d 24bd 814d cc3e 7ffa cd3c c208 fbbe
000001d0: 4dcc 06bf 9922 8e3e 1b7b da3e b2c7 0bbf
000001e0: 3f1f 34be c8d9 013e c110 863e 20bb c83e
000001f0: 13fd b63e 11df 7d3e f0f6 19be dc1b a83e
00000200: 2f17 9c3e 69df 66be 9262 3dbd 6a01 a13e
00000210: 1ea1 eb3e d5ae 5dbe e7b6 b0be cb15 763d
00000220: d723 a93e a221 013e 30a1 c0be 3fa5 eabe
00000230: 2825 b5bd 85d4 553e 7c2f a9bd e5f5 b83d
00000240: c25f 0c3f ed2b 27be 2e22 05bf 571f d53e
00000250: a619 bf3d 1359 f03e 56df 08bf 6cde 993e
00000260: 56f0 fb3e 297b 02be c3d9 b6be e630 0dbf
00000270: 6df6 b9bc 0aa6 eabe 1f52 09bf 926f e93e
00000280: a401 0b3f 631d eb3e 6eb0 8cbe 9d36 2f3e
00000290: 1eb5 92be aab3 05bf 89c2 33be 5481 5d3e
000002a0: b4fa 0ebe 5500 6cbe 4152 9c3d dcee 4d3e
000002b0: 4071 19be 6e0e 37be c387 99bd 6207 13bf
000002c0: 7e11 c93e fc4a ecbe f1f8 883e 8da2 79be
000002d0: d489 1f3e 7774 17bf bb56 c63e 47e9 42be
000002e0: 5b06 8d3d 1265 ef3e 1501 d73e 53fa 073d
000002f0: 0971 05bf 61d2 4bbd 12bd b93c 2d10 983e
00000300: 6f89 a63e 1c0d dbbd 8b71 ed3e 19ee 76be
00000310: 3b52 85bd 6e6a ee3e 2b83 ed3c a5f2 86be
00000320: db92 473e a727 963e f775 96be 5c1d 6f3d
00000330: a92a 85be e15b bcbd 6529 dcbe 6856 77be
00000340: 6bf4 52be 3d44 0a3f 1ebf 99be c0a3 d6be
00000350: 4d9d ca3e 8d44 b63e 24bf 9fbe e08d 293e
00000360: c15d a03b 38cc 123f 8d8e 0e3f 2b18 edbe
00000370: 55aa bebe ff43 093f 14ff 813d e28d acbe
00000380: 29e8 a2be e8cc 1bbe 1cdd 31bc 92f5 1abe
00000390: b802 043f 33b9 a7be c3ac 303e 808f 6cbd
000003a0: 3920 bb3e c153 febe 02ae ffbd 916f 6fbe
000003b0: 7961 4d3e d3aa de3e f230 58be a53d d63c
000003c0: 9a78 783e 73a6 553e 616f 613e 2f21 cfbe
000003d0: 22dd 923d 7544 09bf 4ef0 5ebd d1b1 05bf
000003e0: c683 6e3e 1850 453e 7c3f 903e db64 fcbe
000003f0: 93c3 8c3e 379b 82be 2698 153e abe6 61be
0.041734304 0.21902974 -0.11576922 0.13705319 -0.45917332 0.04487025 0.0122393975 0.00643171
-0.057039395 0.16481104 -0.59107155 -0.08595472 0.3764225 0.11969197 -0.29073283 -0.33519423
0.09195162 -0.41802344 0.37882742 0.2891844 -0.47825643 0.37767562 0.17085393 0.40508747
0.0955764 0.5141231 -0.43286625 -0.50081426 -0.19852588 -0.16854271 0.5869906 0.5234162
-0.05058562 0.09944802 0.41558015 0.1590475 -0.27497724 0.024426317 -0.55159223 -0.39954796
-0.07537728 0.51205593 -0.264108 -0.11049996 0.5688995 -0.5619385 0.5354838 -0.26314366
-0.56702816 0.19330283 0.44868338 0.14335045 -0.5118273 -0.32427767 -0.55846596 -0.5945494
-0.2616411 0.06287423 0.3168736 -0.04453067 0.35574973 0.45495325 -0.476966 -0.36732665
0.019107582 0.41491944 0.18921053 0.03096727 -0.2739219 0.40253663 -0.40869275 -0.18955964
-0.009159298 0.10175754 0.32995898 -0.0122864 -0.32218036 0.47964025 -0.3176302 0.13824686
-0.116238914 0.07325732 -0.29711658 0.17066099 0.32871297 0.15693349 -0.4962222 -0.32174698
-0.0649307 -0.28657773 0.26781937 0.16139291 0.21845709 -0.50717705 0.56029326 -0.3270287
0.12623473 0.27479476 -0.16732982 0.21914636 0.2912212 -0.42653874 0.0576582 0.00014956367
0.16964108 -0.5570292 -0.47402176 0.2973511 -0.21798515 0.41621777 -0.36229005 0.43942595
-0.040098026 0.3990288 0.02514386 -0.4903012 -0.5265549 0.2776077 0.42672047 -0.54601586
-0.17590044 0.12680733 0.26184657 0.39205265 0.35739955 0.24792124 -0.15035605 0.32833755
0.30486438 -0.22546162 -0.046236582 0.3144639 0.4602136 -0.21648724 -0.34514543 0.060079377
0.33035156 0.12610486 -0.37622976 -0.45829198 -0.088449776 0.20881851 -0.0826101 0.09031276
0.54833615 -0.1632535 -0.5200528 0.41625473 0.09331064 0.46942958 -0.53465784 0.30052507
0.492068 -0.12742294 -0.35713014 -0.5515274 -0.022700513 -0.45829803 -0.5364093 0.45592934
0.5429938 0.45920858 -0.27478355 0.17110677 -0.28653806 -0.5222727 -0.17554678 0.21631366
-0.13962823 -0.23047002 0.07632876 0.20110649 -0.14984608 -0.17876598 -0.074965976 -0.5743314
0.39271158 -0.4615096 0.26752427 -0.24378414 0.15579921 -0.59162086 0.38738045 -0.190343
0.06885978 0.46756798 0.41993013 0.033197712 -0.521256 -0.04976118 0.022673164 0.2969984
0.3252673 -0.1069586 0.4637569 -0.24114265 -0.06509825 0.46565574 0.02899321 -0.26356998
0.19489615 0.29327127 -0.29386875 0.05837761 -0.2600911 -0.09197212 -0.43000332 -0.24154055
-0.2060105 0.54010373 -0.30028623 -0.41921806 0.39573136 0.35599175 -0.31200516 0.16558027
0.004893989 0.57342863 0.55686265 -0.463075 -0.37239328 0.5361938 0.063474804 -0.33701998
-0.3181775 -0.15214884 -0.010855939 -0.1513274 0.5156665 -0.32758483 0.17253403 -0.05775404
0.3654802 -0.49673274 -0.12484361 -0.23382403 0.20056714 0.43489704 -0.21112421 0.026152441
0.24264756 0.20864277 0.22015144 -0.40455005 0.07171084 -0.5362008 -0.05442839 -0.5222445
0.23292455 0.19268835 0.28173435 -0.49295697 0.2749296 -0.25509045 0.14608821 -0.22060649

encoder.layers.1.attention.w_q.bias f4 [16]
00000000: ebf7 3ebe cd6b 13bd a039 133e 8809 cd3d
00000010: b85f 2abe a345 043d 4599 7ebe 1a1b ddbd
00000020: 6a47 343e 2e0f d6bd d3d3 143e c21a 49be
00000030: dab2 573e 147d db3d ea8a 1c3e 2b31 6a3d
-0.1864926 -0.03599148 0.14377451 0.100115836 -0.16638076 0.032292973 -0.24863155 -0.10796185
0.17605367 -0.10452114 0.1453393 -0.19639114 0.2106432 0.10717216 0.15287367 0.057175796
