Trans_Prediction/model_saved/numBugReportIssues/TM_numBugReportIssues_delay_size_6_delay_3.pth (torch, 386768 bytes, 337 tensors)

encoder.layers.0.attention.w_q.weight f4 [16, 16]
00000000: 87f2 af3e bc89 c0bc 7128 32be 1bb2 d23c
00000010: d68d f63d 87d5 b83c 902b 083f c33a c73e
00000020: 89ad 9dbe b54e 19bf 8bdf b73e 0a17 06bf
00000030: 5a2a 313e 90ac 0bbf 95a4 f8bd 0941 08bd
00000040: cdab f8be f967 0abf 1485 3f3e 7077 91bd
00000050: 1778 823e 8a21 dc3e 57cd 013f 649b 4c3c
00000060: 09cf 083f 8d6d 933e c1d4 dabe becb c6be
00000070: e4c1 2b3e a300 bebe bd1a 30be f53a 35be
00000080: 24ec fcbe 6bda e7be aa94 fa3e bea7 a1bd
00000090: 5afc b23e c65d 133f 5b24 f33d 4589 74be
000000a0: 8938 d83e 8396 e73d d659 183f cc75 963e
000000b0: 50bc 09bf fadc b93e 0970 fe3c 3f10 1abf
000000c0: a47d 12bf 5d1e c03e 3fc8 c63d 5149 103f
000000d0: 363e ed3e 7a3a 3bbe a4e2 d43e 1fd8 a73e
000000e0: e156 dfbe 650b 4f3e 39cf d63e 5a53 8bbc
000000f0: 176a 47bd d114 053f 52e2 d23e 5a53 5b3e
00000100: 09a7 e6be a527 57be 2de2 e7be 7bde 69be
00000110: bb51 13bf 1468 ab3e 6715 cfbe ec04 cb3d
00000120: be92 343e b85f bb3d 0803 653e 6d05 f73e
00000130: f90c 60be 866a f43d 9d97 efbe cc34 133f
00000140: a28f 0a3f 0c0b bdbe 7ddb 163f 38d9 783e
00000150: 8320 ba3d ffcb 373e dd02 0d3f 841c 11bf
00000160: a16b 07bf 0a24 1abf f28a 983d 64c9 f93e
00000170: 12fe bc3e 6903 183f e2b1 c33d bafd c63b
00000180: 4732 2abe 7570 0b3f 0d28 94be 35be 9cba
00000190: d94f 85be 9ec3 343e bfa1 a7bc 3692 0d3d
000001a0: 8c89 f13e e55c 173e d39b 0d3f 4fcb 173f
000001b0: f12f 39be 522c 7fbe 3009 bbbe 7dee 79be
000001c0: b89d b8be ac9a 30be 63c2 41be 09fd d6be
000001d0: 6728 973e cdf3 973e 57b9 1abf 6ff9 a43e
000001e0: f972 323d b9b6 923e bdbe ea3d 0c79 543d
000001f0: 891e 79be 8ec8 17bf 11ea 0e3f 6430 0abe
00000200: 5202 a0be 5320 a8be bb38 753e ceb3 cfbe
00000210: 846b 723e 8943 ee3e ed62 3bbe c59d eabe
00000220: dc17 003e 17e9 323e 07f1 49bd 333d e73e
00000230: 0561 e43d 4629 a73d bea5 adbe 2663 f83d
00000240: 473d 743e 8a9d 09bf 0915 c5be e923 8ebe
00000250: 9f91 893d f414 a9be bcb9 0d3f 0753 12bf
00000260: 381f 92be fab1 243d cfa6 a33e 1bf4 e1bd
00000270: ca10 f13e 4a6d fe3e 1d7f 88be e74b c13d
00000280: f492 3b3d 3b71 c63e 67f0 6c3d 2a47 9f3e
00000290: 9dcd 6ebe 10bd 5d3d b466 d53e 69c8 e43e
000002a0: 53e9 863e 8b8c 36be 8506 88be d0b6 bf3e
000002b0: 5e8c 01bf 2ba0 58be a9a2 0f3f ef49 b8bd
000002c0: 1893 be3e 8147 14bf c201 143f c6c9 0ebf
000002d0: db09 1cbd e323 4ebe fd5f b9be 360c d03e
000002e0: b748 18bf 9297 873b b227 ffbe 8d34 f0be
000002f0: c6dd a43e 2794 043f 6873 46be 0e09 c63e
00000300: df65 e43e c9b2 61be 3200 7b3e 5027 423e
00000310: 9ad2 f6be b2b4 9f3e ca3d bf3d 1399 fd3e
00000320: e92c d73d cf0c 253e 357f b4bd 1f2d cd3e
00000330: 08db f03e b0cf e23e 1d36 5f3e 1d21 d0be
00000340: 5cb0 003f fe86 743e cf38 b4bd 2c3e 9bbe
00000350: 7193 913e 4a9b 8e3d 4696 36bb 3791 60be
00000360: 8fb3 18bf 0a64 0ebf 5020 b9be 6931 b33e
00000370: 94ff 06bf cc89 6ebe c47c ebbe ab55 993e
00000380: 14f7 f43e 2431 d13e 8f2f f0be f7b4 cbbd
00000390: b91b 923e 23c2 193f 3a08 d6be b40c b83e
000003a0: a12c 3e3e 0d54 d1bd ac4c 7bbe a83a 743d
000003b0: d093 ce3d 4089 62be 7bb4 0a3f 15a3 a93e
000003c0: 1bc2 91be 8e66 c23e fe96 75be 5908 c5bd
000003d0: b3c2 133f 68fd 393d 494f f23e 8daa 3c3e
000003e0: f8e8 bfbe 229e 9d3b bb28 b23e b3f9 92be
000003f0: 385d 42bd 2e0d 18bf b2f5 19bf a776 033e
0.3436472 -0.023503177 -0.1739824 0.025719693 0.12038772 0.022562755 0.5319147 0.3891202
-0.3079646 -0.5988572 0.35912737 -0.52378905 0.17301312 -0.54560184 -0.121407665 -0.033265147
-0.48568574 -0.540649 0.18703109 -0.07102859 0.25482246 0.42994338 0.5070395 0.01248822
0.5344091 0.28794518 -0.42740443 -0.38827318 0.16773182 -0.3710986 -0.171977 -0.17698272
-0.4939891 -0.45283827 0.48941547 -0.078933224 0.34958154 0.5756496 0.11872169 -0.23880489
0.42230633 0.11308005 0.5951208 0.29386747 -0.5380297 0.36301404 0.031059282 -0.6018104
-0.5722296 0.37523165 0.09706163 0.5636187 0.46336526 -0.18284026 0.41579163 0.32782075
-0.4362097 0.2021919 0.41954973 -0.017007519 -0.04868516 0.5198489 0.41188294 0.21418515
-0.45049313 -0.21011217 -0.45289746 -0.22838776 -0.57546586 0.33477843 -0.40446016 0.09913048
0.17634103 0.09149116 0.22364438 0.48246327 -0.21879949 0.1193438 -0.4679536 0.57502437
0.54125416 -0.3692249 0.5892866 0.24301612 0.09088232 0.17948912 0.55082494 -0.56684136
-0.52898604 -0.6021124 0.07448377 0.4878646 0.3691259 0.59380203 0.09555413 0.006072727
-0.16620742 0.5446847 -0.28936806 -0.0011958542 -0.2603748 0.17652747 -0.020462869 0.034563266
0.47175252 0.1478153 0.55315894 0.592946 -0.18084694 -0.2491925 -0.36530447 -0.24407382
-0.3605783 -0.17246503 -0.18921809 -0.41989926 0.29523012 0.29678193 -0.60439056 0.32221553
0.043566678 0.2865503 0.11462162 0.05187325 -0.24328054 -0.592904 0.55825907 -0.13495022
-0.3125177 -0.3283716 0.23947422 -0.40566868 0.23673826 0.465359 -0.18299456 -0.45823494
0.12509102 0.17471729 -0.049302127 0.4516388 0.111513175 0.08162169 -0.33915514 0.12128286
0.238515 -0.5375601 -0.3849261 -0.27761772 0.06717228 -0.33023798 0.55361533 -0.5715794
-0.28539443 0.040208794 0.31963202 -0.110328875 0.47083122 0.49692756 -0.2665948 0.09438305
0.045794442 0.38758263 0.057846453 0.3110898 -0.23320623 0.054135382 0.4167992 0.4468415
0.26349887 -0.1782705 -0.26567474 0.37444162 -0.5060481 -0.21154849 0.56107575 -0.08998477
0.372216 -0.57921606 0.5781518 -0.5577663 -0.038095336 -0.20130877 -0.36206046 0.40634316
-0.59485954 0.0041379416 -0.49834973 -0.46915093 0.3220045 0.5178856 -0.19379961 0.38678783
0.4460897 -0.22040857 0.24511793 0.18960309 -0.4820755 0.31192547 0.09337957 0.4953085
0.10506613 0.16118167 -0.08813325 0.40073487 0.47042108 0.44299078 0.21797986 -0.40650263
0.50269103 0.2387962 -0.08799898 -0.3032087 0.284328 0.06963213 -0.0027860566 -0.21930395
-0.59648985 -0.556214 -0.36157465 0.34998634 -0.5273373 -0.23294753 -0.45993626 0.29948172
0.47844756 0.40857804 -0.46911284 -0.09946626 0.28536776 0.60061854 -0.4180315 0.35947192
0.18571712 -0.102211095 -0.24540967 0.05962625 0.10086787 -0.22122669 0.5418164 0.33132234
-0.28468403 0.37968868 -0.2398338 -0.09620733 0.5771896 0.045407683 0.47326115 0.18424435
-0.3748243 0.0048101107 0.347967 -0.2870613 -0.04745218 -0.5939511 -0.60140526 0.12838231

encoder.layers.0.attention.w_q.bias f4 [16]
00000000: 640b 603d 78fd be3d ade6 49be 49f6 223e
00000010: f0f7 30be 489d 28be c3f2 dc3d 86d6 323e
00000020: e29f 4dbc 159c 8ebd 3a39 513c 8f78 dabd
00000030: 8dc7 48be f0ea e3bd 5d12 55bd c5ed d7bd
0.054698363 0.09325689 -0.19716902 0.15914263 -0.1728208 -0.16466248 0.107884906 0.17464647
-0.012550326 -0.06963364 0.0127699915 -0.10667526 -0.19607373 -0.11128795 -0.052019466 -0.10543398

encoder.layers.0.attention.w_k.weight f4 [16, 16]
00000000: e324 a33e 9f03 9bbe 8427 59be ccd6 96be
00000010: 0aa3 ee3b 08ad f0be b8a5 85be f365 eb3e
00000020: 5075 9bbe 8d87 cfbe 685a c93d 6384 8c3d
00000030: 1e24 8f3d d34b 8e3d 06c7 c93d 7c68 48be
00000040: 0faa babd 8b1e ac3e c171 b7be 047e f3bd
00000050: 5485 a8be d5e1 993e b7bb 533e 7a19 b93d
00000060: 620f e4bd 84dc d0be 5504 64bd 1b35 433d
00000070: 9368 11bf 8abf bc3c 71b0 e4be f489 17be
00000080: cb78 9e3e c486 d6be 3cc6 9b3d cc1d fa3e
00000090: ba74 6d3e c6d9 043f 6a5c 473e 6ca8 1a3e
000000a0: be7e 6d3e 3547 17bb 1c12 c7be 24f2 bcbe
000000b0: e00f ac3d c47b 02bf 27d1 c7be 94ed bc3e
000000c0: e790 573e 99b6 e6be efce f1be 99d5 a93e
000000d0: 09a2 0c3e cb2c 943e f8f1 933e 6a51 623d
000000e0: 9859 0fbf 7fb0 1d3e 2f52 74bd cd35 bbbc
000000f0: 40a8 6e3d 39d7 823d 81d9 093e 36d9 a4be
00000100: da1e 1c3e 0026 2dbe 468b dabe 64f2 043f
00000110: 6f92 673c d073 d9bd 7556 f9bd f411 7d3e
00000120: 361b b2be 8eab 03bf 38e7 44be cab2 44be
00000130: eada 103d 7513 013f 0ba7 753e 1863 e43d
00000140: 607b 5cbe 24a3 0a3e bc0f 9a3e 93fd 00bb
00000150: 78cf 353e 04f6 e83e 0af2 b8be db6d fdbe
00000160: 7c75 8fbe a3d2 183f f1b4 0ebe b89b 6ebe
00000170: 3c9c 173f 437d ccbe bfa6 9cbe 67b6 1c3e
00000180: 58af cebe 031f a6bd b852 23be 63ef e1be
00000190: 5d47 b3bd 2d83 103f e993 9abe ce80 af3e
000001a0: 6b6b 1a3f cca3 02bf 7ff9 74bd e7ac 173f
000001b0: a10a f23e 97c3 2c3e 0b2b 103e 67ee ba3c
000001c0: b8dc ab3e 5dd1 953e 2438 50be efc3 a33e
000001d0: 6189 be3d a46a 08bf 74dc d8be 9157 19bf
000001e0: cd77 8a3e d212 043e dcf1 0dbf 6748 d7be
000001f0: 8859 11bf 350c a6bc 12e0 a33e a954 c13e
00000200: 9fa6 31be 021d 0d3e b452 093f e13a f43c
00000210: 7b62 d73e 1b3b 10bf d011 6ebe dc62 fc3e
00000220: 1e37 d73e 6f53 163d acd1 cfbe aade 4f3d
00000230: f2bd 96be 29f5 a7be 898f 883c 8c32 de3e
00000240: 888a f53e 77c6 203e 8afd 43bd cd31 96be
00000250: 24a3 afbe a3bc af3e bc4d cd3e 5f4e cb3e
00000260: dd80 f6be 954d 80be e4d3 1e3e f07b b5be
00000270: 223a 87be 1ea2 8dbe 1638 febd 1d99 cebe
00000280: 7eb6 41bd 48c2 9c3e 4052 b6be 38a6 183f
00000290: 4dbd b63e 906a ccbe dae8 06bf 7760 d83e
000002a0: e6b2 a5be 0dce 18bf 7129 b0bd eb61 1b3f
000002b0: ec9a 17be 0d0b 5b3e 18d1 b83d 54a4 09be
000002c0: 7ab4 3dbe 96b9 8d3e 0db1 65be 2ddb f03d
000002d0: bea7 e0be b8ac c2be 59a4 eebe dcea a93e
000002e0: b58d 003e 789a d93d 1786 553e 6e3d 0d3f
000002f0: 49fc 50be 4278 0cbf ba52 0ebf e983 11bf
00000300: 7258 17bd 3bb5 8cbd 8f49 a0be 0160 d9bd
00000310: c66d 40be dbec 0d3f a93b 8bbc 5c98 3fbe
00000320: b4e7 b4be 7829 ad3d cf3e a63e a8e2 c3be
00000330: ff6f c2be a14e 343d 119d e8be cdfb 7ebd
00000340: f2c2 44be b80f c6be 475f 8d3e 54cd b2bc
00000350: 7ed9 01bf 071c b03e 87e7 0d3f 6520 24be
00000360: a07b efbe 0405 52be 694f df3d b55c cdbe
00000370: 5aa6 1abe a779 193e 444a 063f e205 fbbe
00000380: 1435 cb3c 12aa be3e 222e 763e 6697 97be
00000390: 8676 00be e6a3 3e3e a898 be3d 20ce be3a
000003a0: 5f0d df3e a619 07bf 0c0c f93e a780 c1be
000003b0: ae1f f4bc 9a50 0bbf 27ea eebb f372 1a3e
000003c0: 8edb a23e b436 37be 65da b23c ee8a a43c
000003d0: d22c 0abe 95f1 70be 19d3 c13d f45d 16bf
000003e0: 27b0 613e dc05 09bf 7b8c f23e bba9 f4bd
000003f0: cff1 4b3e 356d 053e 1935 113f a03f 9cbd
0.3186408 -0.302762 -0.2120648 -0.29460752 0.0072826194 -0.47007012 -0.26102996 0.4597622
-0.3036294 -0.40533105 0.09831697 0.06861188 0.06989311 0.06948056 0.09852414 -0.19571108
-0.09114467 0.33617052 -0.35828975 -0.1188927 -0.3291422 0.3005511 0.20677076 0.090380624
-0.111357465 -0.4079324 -0.055668194 0.047658067 -0.5680019 0.023040552 -0.44665864 -0.14798719
0.30951533 -0.41899693 0.076061696 0.48850858 0.23189059 0.51894796 0.19468847 0.1510331
0.2319288 -0.0023083214 -0.38881004 -0.3690349 0.084014654 -0.509701 -0.39026758 0.36900008
0.2105137 -0.45061186 -0.4722819 0.33170775 0.13733687 0.28940424 0.28895545 0.055253424
-0.55996084 0.15399359 -0.05964869 -0.022852803 0.058265924 0.06388707 0.13461877 -0.3219697
0.15246144 -0.16909027 -0.42684382 0.5193236 0.014134034 -0.106177926 -0.121746935 0.2471388
-0.34786385 -0.51433647 -0.19228828 -0.19208828 0.035365023 0.50420314 0.23989503 0.11151713
-0.21531439 0.13538796 0.3009013 -0.0019682392 0.17754924 0.45500195 -0.3612216 -0.49497876
-0.2801932 0.59696406 -0.13936211 -0.2330159 0.5922277 -0.39939317 -0.30595967 0.15303956
-0.40368152 -0.08111384 -0.15949523 -0.4412795 -0.08753846 0.5645016 -0.30190971 0.34277958
0.60320157 -0.51031184 -0.05980825 0.59248203 0.47273734 0.16871487 0.1407892 0.022818757
0.33566833 0.29261294 -0.20333916 0.31985423 0.09303547 -0.5328772 -0.42355692 -0.5989924
0.27044526 0.12897804 -0.55447173 -0.42047426 -0.5677724 -0.020269493 0.3200689 0.37759903
-0.17348717 0.13780597 0.5364182 0.029813232 0.42067322 -0.5634019 -0.23248982 0.49294174
0.4203424 0.036700662 -0.40589654 0.05074946 -0.29441792 -0.3280423 0.016670005 0.4339794
0.47957253 0.15700708 -0.047849216 -0.2933487 -0.34304154 0.34323606 0.4009837 0.3970823
-0.4814519 -0.2505919 0.15510517 -0.3544612 -0.2641154 -0.27662748 -0.12413041 -0.4035119
-0.04729318 0.30616975 -0.35609627 0.5962863 0.356913 -0.3992505 -0.52699053 0.42261097
-0.3236305 -0.5968941 -0.08601654 0.60696286 -0.14805192 0.21390934 0.090242565 -0.13441592
-0.18525878 0.27680653 -0.22430821 0.117605545 -0.43877977 -0.380224 -0.46609762 0.33186996
0.12554057 0.10625166 0.20851932 0.5517186 -0.20408739 -0.54871 -0.5559498 -0.56841904
-0.036949582 -0.068705045 -0.3130612 -0.106140144 -0.18791875 0.5543954 -0.016996222 -0.18710464
-0.35333025 0.08455175 0.32469794 -0.38258862 -0.3797607 0.0440203 -0.45432332 -0.062251855
-0.1921499 -0.38683867 0.27611753 -0.021826424 -0.5072249 0.34396383 0.5543141 -0.16027983
-0.46774006 -0.20509726 0.10903818 -0.40109792 -0.1510252 0.14987813 0.5245707 -0.49027926
0.024805583 0.37239128 0.24041036 -0.29607695 -0.12545213 0.1861721 0.093064606 0.001455728
0.4356489 -0.5277351 0.48642004 -0.37793466 -0.029800262 -0.54419863 -0.0072910967 0.15082912
0.31808132 -0.17891961 0.021832654 0.020085778 -0.1349366 -0.23529656 0.09464092 -0.5873711
0.22039853 -0.53524566 0.47372803 -0.11946436 0.19916461 0.1302994 0.56721646 -0.07629323

encoder.layers.0.attention.w_k.bias f4 [16]
00000000: 2bf3 8831 ea1d 2032 dab9 a231 8c99 fab1
00000010: 12b2 8bb0 7262 8831 281e e231 4683 a22b
00000020: 79c9 28b3 ee64 75b2 8448 4833 fbe0 e0b2
00000030: a504 8233 9490 93b3 c31f a033 3771 35b2
3.985766e-09 9.320027e-09 4.7359494e-09 -7.293414e-09 -1.0164192e-09 3.969313e-09 6.580894e-09 1.1547228e-12
-3.9298786e-08 -1.4283826e-08 4.663208e-08 -2.6179341e-08 6.0544416e-08 -6.8715195e-08 7.456358e-08 -1.0561329e-08

encoder.layers.0.attention.w_v.weight f4 [16, 16]
00000000: 43cc 0e3e 5ef8 dcbe b79e f2bc 067a 073f
00000010: 67b5 3d3d 8433 893e 52d4 ec3d 1af9 003f
00000020: ea1b 9dbe 0cb1 153f ad77 f2bc 6cd5 0c3e
00000030: 3d7b 09be 5425 333e a407 123f dac2 d3be
00000040: 6cbe ba3d 5967 7bbe 1fee 1a3e 2747 2dbe
00000050: 885d 5bbe 5f1d ebbe 0ce8 143e 9856 123d
00000060: bc6e c63e 5373 11bf 8108 ffbe e04f 053f
00000070: 4a94 4cbe 6c63 9abd 1f73 413e 7431 e93d
00000080: e521 19be 5bc3 1bbe a4af babe 49df 0a3f
00000090: f908 3f3e ff75 9cbe 63d0 16bf 9e86 16b9
000000a0: e752 17bd 0fa0 993d 9f85 6f3e fceb f5be
000000b0: ab8f a33e e587 1ebd 5557 fa3e 71b6 2abe
000000c0: c9ef 8abe 3d51 f1be da8b bdbe 05b0 6f3c
000000d0: 63f6 c6be 86f2 393e 4f02 2a3e a728 13bf
000000e0: 4b8a c03e b7c8 e03e 8123 793e 9b9a 28be
000000f0: 444c e53e 3211 cfbe 9543 b33e 7b61 16bf
00000100: cee8 0c3e aedb eabd d0ce 4a3e 5162 873e
00000110: 53a5 6e3e 3472 0b3f 2e84 fa3e ee85 cebe
00000120: f307 8e3e c6fc b13e e5d8 d6bc c8ca 66be
00000130: 6e05 073f 5708 e0bc 9c7e 073f d502 06bf
00000140: cb1a 123f 9b41 6a3e cf1c 8c3e f583 20be
00000150: a54f 0d3f b0cc f13e dab7 0e3e a56b 0cbd
00000160: 2d62 94be bced 5cbe 5dc1 d23e 4b12 163e
00000170: 82a9 aabe 9798 f53e 7876 eb3e 8efd 87be
00000180: 6afe b63e d5a3 d23e ffaf d3be 1826 a2be
00000190: 4743 a13d fcee 183e d139 04bf efd4 523d
000001a0: adf0 a5be b9f7 fdbd b319 b83e 633d 373e
000001b0: a037 66be b402 d53e 69d2 b23e 8ec4 fa3e
000001c0: 1329 11bf 9821 57ba a4ab 313e da8a cdbd
000001d0: e4fc febd 81cb 433e 948e aa3d 2d1f 0bbf
000001e0: 1244 1a3e 9d88 9a3e 3a13 80bd a0a4 1f3e
000001f0: 1ac8 14bf bdb6 c2bc 6be5 08bf c7e6 7cbe
00000200: e8cb 863e 81c8 52be 9f74 fdbd 91eb 0a3f
00000210: d720 8b3e ee3e fc3d 9f65 a73e 47e2 903c
00000220: 6b5d 0a3f fc30 26be 59c1 6f3e f511 d3bb
00000230: b888 1bbd 81f6 013f cb77 443e d136 59be
00000240: 729f 8c3e 76fc c53e 4722 b3be 5e3c 5a3d
00000250: 5f25 513e 9f92 fd3d 1388 86be f8bb 0ebf
00000260: 0af2 2c3e e140 dd3c 72ed 02bf bec9 0dbf
00000270: 9135 e13e 3b92 c13e 7e2d 103f ba3c 6abe
00000280: f12c b83e 379b e73e b60b 313e 4a1c b1be
00000290: 5232 0dbf 61b6 0abf ad58 1cbe 012b a43d
000002a0: 3db4 e9be b6aa 9b3e c912 763c 445f 9dbd
000002b0: a2e7 42bd 06b8 97bd 4014 b13e 0044 803d
000002c0: 2d8d 59be d5ce 6d3e 2c3f 99be f28b d8be
000002d0: ecbe 7b3e d822 09bf 6fc0 863e 04f2 49be
000002e0: 3b40 953d a42f f3be 2485 1dbc 1623 d93e
000002f0: 3f6c 3e3e f233 04bf 3854 c5be db04 d73e
00000300: ac9c f53e 4951 aebe a586 d6be 8726 abbe
00000310: adba cf3e 0874 a1be 1611 193c 64bf ecbe
00000320: d7fc 0a3f 0f1a 94be 557a 10bf d803 c1be
00000330: 17f6 933e cff9 073f 7421 dfbe bdbb 0a3f
00000340: 1552 a03e 1475 f13b 3a36 943e 05b6 b23e
00000350: dce7 033f 8faf dd3e 9ace c5be 1354 d4be
00000360: f1eb a03e 89ee cdbe a976 713e 99d5 02bf
00000370: d51b b13e 09bd 033f a8e6 0c3f b658 0abf
00000380: 4a11 023d 1ace 0b3f 67ad 933e f5a4 dfbc
00000390: 94d6 97bd a1b7 cfbe b790 c0bd d9a0 35bd
000003a0: f1ab 48be 84a2 bbbb 6d8d ea3e 7d83 083f
000003b0: 35d9 d43e 7f14 ffbe 5eb3 91be 4a36 11bf
000003c0: 538b 56bc e97e b8be 74d4 1fbd d065 35be
000003d0: e396 2e3e 3d8d f0be 380b 04bf a59b 03bf
000003e0: 37df ee3e c7c7 bbbe c528 8fbd 12aa 6dbd
000003f0: 2f16 0cbf 120b c53e 8fad 81be 7262 0dbd
0.13945107 -0.4315824 -0.029616697 0.5292057 0.046315577 0.26797116 0.115639344 0.503801
-0.3068536 0.5847328 -0.029598081 0.13753289 -0.13425918 0.17494708 0.5704291 -0.41359597
0.09118351 -0.24551143 0.15129898 -0.16921674 -0.21422398 -0.45920846 0.14541644 0.035727113
0.3875636 -0.56816596 -0.49811175 0.52075005 -0.19978443 -0.075384945 0.18891571 0.113863856
-0.14954336 -0.15211241 -0.36462128 0.54246956 0.18655767 -0.30558774 -0.5891172 -0.00014355264
-0.036944296 0.07501232 0.23390816 -0.48031604 0.31945547 -0.038703818 0.48894754 -0.16671158
-0.27136067 -0.47132292 -0.3702076 0.014629369 -0.38859853 0.18158922 0.16602443 -0.57483906
0.3760551 0.43903133 0.2432995 -0.16465227 0.4478475 -0.40442806 0.35012498 -0.58742493
0.13760683 -0.11467682 0.19805455 0.26442197 0.23305254 0.54471135 0.4892897 -0.40336555
0.2774044 0.34763163 -0.02622647 -0.22538292 0.5274266 -0.027347727 0.52927566 -0.5234807
0.5707213 0.22876589 0.2736573 -0.15675338 0.5519965 0.47226477 0.13937321 -0.034282345
-0.28981152 -0.21575063 0.4116315 0.14655416 -0.3333245 0.4796798 0.45988822 -0.26560634
0.35740978 0.4114062 -0.41345212 -0.31669688 0.0787416 0.14934915 -0.5165072 0.0514726
-0.32410184 -0.12400765 0.35957107 0.17894511 -0.22482157 0.41603625 0.34926155 0.48978084
-0.567033 -0.0008206605 0.17350632 -0.100362495 -0.12450579 0.191206 0.08327976 -0.54344445
0.1506503 0.30182353 -0.06253667 0.15590143 -0.5811783 -0.023768777 -0.53475064 -0.2469741
0.26327443 -0.20584299 -0.12375759 0.54265696 0.27173492 0.123166904 0.32694718 0.017686022
0.54048795 -0.16229624 0.234136 -0.0064413496 -0.037972182 0.5076676 0.19186322 -0.21212317
0.27465397 0.38669175 -0.3498709 0.053280227 0.20424412 0.123814814 -0.2627569 -0.5575557
0.16889206 0.027008476 -0.5114356 -0.5538596 0.4398618 0.37806877 0.56319416 -0.22874728
0.35971788 0.45235607 0.17289624 -0.34591895 -0.5515491 -0.5418454 -0.15268202 0.08016015
-0.45645323 0.3040368 0.015019127 -0.07684186 -0.047584184 -0.074081466 0.34585762 0.0626297
-0.2124526 0.23223431 -0.2993101 -0.4229427 0.2458455 -0.5356879 0.2631869 -0.19721228
0.072876416 -0.47497284 -0.009614263 0.4240958 0.1859598 -0.5164176 -0.38540816 0.41995892
0.47971094 -0.3404639 -0.418996 -0.33427832 0.4057211 -0.31533837 0.0093424525 -0.4623977
0.54292053 -0.2892613 -0.56436664 -0.37698245 0.2889869 0.5311555 -0.4358021 0.54192716
0.31312624 0.007368693 0.28947622 0.34904495 0.51525664 0.43298003 -0.38634187 -0.41470394
0.3143001 -0.4022105 0.23580422 -0.51107174 0.34591547 0.5146032 0.55039454 -0.5404161
0.03175477 0.5461136 0.28843233 -0.027300337 -0.074139744 -0.40569785 -0.09402602 -0.04434285
-0.1959684 -0.0057261605 0.45811024 0.53325635 0.41571966 -0.49820325 -0.2845716 -0.56723464
-0.013094741 -0.36034325 -0.03902097 -0.1771462 0.17049746 -0.46982756 -0.5157962 -0.5140937
0.46654674 -0.36675856 -0.06990198 -0.05802352 -0.5472135 0.38485008 -0.25327727 -0.034517713

encoder.layers.0.attention.w_v.bias f4 [16]
00000000: 3573 b1bc 2a58 1abd 4b41 4c3c f3e3 91bc
00000010: 6f96 3c3d 56d4 f53c 2f58 f9bc 42f1 68bd
00000020: 0ecf 27bc 20e0 33bd 4ca3 ab3a 71ba 11bd
00000030: abd8 a7bc a084 373d 962f a83c 2e1d 273d
-0.02166138 -0.037681736 0.012466739 -0.01780889 0.046041902 0.030008476 -0.030437557 -0.056870706
-0.010242237 -0.043914914 0.0013094931 -0.035578195 -0.020489058 0.044804215 0.020530503 0.040799312

encoder.layers.0.attention.w_concat.weight f4 [16, 16]
00000000: babf 113f 121b 773e a9ef a63e 93ff 11be
00000010: a790 683e f28d 87bc 9aef e73e fce5 583d
00000020: 4b11 e8be c067 9abe 57bc a9be c5a5 7e3e
00000030: 6e6c eabe 760e 483e 779e 58be ab62 84be
00000040: 42d3 863d 7870 353e aa87 08bf c8d7 abbe
00000050: 2ba7 e2be 4448 8e3e a3f2 a6be b581 7fbe
00000060: 3ba3 4bbe 8bf1 3fbe 879b d93d bfa0 3bbe
00000070: a2a4 97bb 0ed5 083f 9bd1 9b3e c3c0 ee3e
00000080: df7e 66bc c2ae 6abe 045d b5bd 8ada f23e
00000090: c9db 573e ef1e dc3e ff03 fc3e 83ec b93e
000000a0: 81f6 bc3e ae57 c43e 53f6 ffbe 5e34 a7ba
000000b0: 42c6 a5be ce03 77be d5a0 d73e f00e 0fbf
000000c0: 21b9 133f ab19 5cbe 5de3 fabe 8ff0 dc3c
000000d0: 4f76 25be 9d13 0fbf 6221 973e 86a6 933e
000000e0: cda2 24bc 4ba8 debd d3ad d2be eb8a 8bbe
000000f0: 18f8 dcbe e045 063f a199 65be db17 003f
00000100: 168c 213e 407b e2be 67ef 39be e9e0 2a3e
00000110: 00dd 863d 801d d9bd a211 0d3f ecbf f3be
00000120: 482c 75be d757 afbd 146b b0be 86ca b03e
00000130: 1e40 a2be e8c0 213e cb99 81be a4a6 cabe
00000140: 5d84 863c 72e6 0d3e ea5f 83be 7706 a3be
00000150: ea43 d43d 8188 f6be 22a0 c0bd d402 e63e
00000160: 556e 78be 69b0 eebd 06cb 67bc d3c1 be3e
00000170: 88af a3be 5cee 093f 8237 06be e20f b83e
00000180: 532f 30be 92a2 03bf 80cd debe 643c c3be
00000190: 7282 9c3e e65b 073f db95 d53e 0218 a83d
000001a0: e301 1cbe d0d1 883a 1d33 1abe 829e 07be
000001b0: 3765 bf3d 32d0 d5bd 4c94 eb3c 0336 b0be
000001c0: b964 513e d9b4 dc3e 2ed8 043e 7654 94bd
000001d0: a61f 813b 4c00 17bf b3f5 abbe 7e55 d83d
000001e0: b7ac 0d3e 4dcc 753e 9503 10bf 883c fd3e
000001f0: 804a fb3e 98a5 30be 7fae 573e 7d0e 04bf
00000200: dd8f 30be 55ac e7be 75aa e53e ab4e cb3e
00000210: 77c2 473e 2049 e23e aa48 943e add7 1b3e
00000220: 4eb3 6abe eb2e dabe 842d 91bd fb05 a33d
00000230: 2765 f53d 1a56 ecbe 2dc8 bfbe 524b c9be
00000240: 3bd8 89be 23f9 a1b9 ae35 a5be fc9f afbc
00000250: ea93 bb3e ad73 bc3e acfc b9be b596 c23e
00000260: 9d11 79be 1213 4dbe 64c0 90bc a4af afbe
00000270: aa58 cbbe b411 f23d f519 e4be 68b0 f4be
00000280: 8ddf 9f3e d73e 073f a4f1 74bd 0dd4 d33d
00000290: 4fa0 63be 8577 013e 3c17 d43d 652d 11bf
000002a0: 85b7 823e 5d5f 993b b109 06be caa5 7f3e
000002b0: 36e6 c93d f39e 9fbe c5f5 96bd f7de 003f
000002c0: a048 debe 699e 9bbd 7320 22be 75ca 9cbe
000002d0: 0fdc 773e f09d 863e d3dd 763e 1e34 b6be
000002e0: 61d6 f6be 68b6 843c 354e 833e 2001 23be
000002f0: e6cf a43e 4201 523e c8dc 8bbe 1733 ec3e
00000300: bcc9 f8be f57c 013f ee6c 8dbe 7f90 31be
00000310: 4cc0 343e 6483 0abe 3fe6 f0bd 6fa6 043f
00000320: aec1 473b 69d1 a5be de67 823e 91e1 003f
00000330: 9e7f d33e b9b6 ff3e 7312 3abe f3d3 f83d
00000340: 5ee5 d83e a65a 0b3e 655c 923d 90d8 3bbd
00000350: 42aa c1bd ecb8 0c3f f568 cbbd 00f0 8cbe
00000360: 510e 053f dc6d 99be eb34 29be 0c7b aabe
00000370: 48ee e5be 269c a63e 541b c7be fef4 163e
00000380: 09fe 653e ce16 87bd 0159 44bd 2366 ae3e
00000390: e4cc 99be 7a68 9d3e 56cf 8d3e d930 873e
000003a0: c0d6 14bf 2f4d bbbe df7c 5b3d c6d1 813e
000003b0: 7b3a c4bd bcce 513d 86c9 6e3e 75ef 04bf
000003c0: 321e 7c3e 2547 f5bd 3d38 a33e 66ac ad3e
000003d0: 95f1 12bf 042d 26be 96b5 0ebf 8708 5f3e
000003e0: 4f20 5c3e 4592 0dbf 8071 f0bc a5c1 8ebe
000003f0: 9b92 2dbc 2dc2 0e3f d001 a1be a4b4 a6be
0.56933177 0.2413142 0.3260472 -0.1425765 0.2271143 -0.016547177 0.4529999 0.052953705
-0.45325693 -0.3015728 -0.33151504 0.24867924 -0.4578585 0.19536766 -0.211542 -0.25856528
0.06583263 0.17718685 -0.53332007 -0.33563066 -0.44268164 0.2778951 -0.32606992 -0.24951823
-0.19886486 -0.18744485 0.106253676 -0.18323039 -0.00462778 0.53450096 0.30433354 0.4663144
-0.014068334 -0.22918227 -0.08855632 0.47432357 0.21079935 0.4299235 0.492218 0.36313257
0.36906818 0.38348144 -0.49992618 -0.0012756696 -0.3237782 -0.24122545 0.42114893 -0.5588217
0.5770436 -0.21494167 -0.4900159 0.026970176 -0.16158412 -0.558893 0.29517657 0.28837985
-0.01004858 -0.10871943 -0.41148242 -0.27254423 -0.4315803 0.5245037 -0.22421886 0.500364
0.15776095 -0.44234657 -0.18157731 0.16687359 0.06585121 -0.1060133 0.5510503 -0.47607362
-0.23942673 -0.08561676 -0.34456694 0.34529513 -0.31689543 0.15796244 -0.25312647 -0.39580262
0.016420538 0.13857439 -0.25659114 -0.3184087 0.10364516 -0.4815102 -0.09405543 0.44924033
-0.24260838 -0.11654741 -0.014147526 0.3725725 -0.31969857 0.5387933 -0.13107112 0.35949618
-0.17205553 -0.5141994 -0.4351616 -0.38132012 0.30568272 0.528746 0.41715893 0.08207704
-0.15235095 0.0010438506 -0.1505856 -0.1324406 0.09345477 -0.10440101 0.028757237 -0.34416208
0.20448579 0.43106726 0.12973091 -0.07242672 0.0039405404 -0.5898483 -0.3358589 0.10563181
0.13835417 0.24003716 -0.56255466 0.49460244 0.49080276 -0.17250669 0.21062659 -0.5158461
-0.1724238 -0.45248666 0.4485661 0.39708456 0.19507776 0.44196415 0.28961688 0.15218993
-0.22919962 -0.4261392 -0.070887595 0.07960125 0.11982184 -0.4615944 -0.3745741 -0.39315277
-0.26922783 -0.00030893934 -0.32267517 -0.021438591 0.36636287 0.36807004 -0.36325586 0.38005605
-0.24323125 -0.20026806 -0.017669864 -0.3431369 -0.39716083 0.11819783 -0.44551054 -0.47790837
0.31225243 0.5283026 -0.05980076 0.1034318 -0.22229122 0.1264325 0.10355994 -0.5670989
0.2553064 0.0046805576 -0.13089634 0.24965587 0.098583624 -0.31175956 -0.073710956 0.5034022
-0.43414783 -0.07598574 -0.15832691 -0.30623212 0.2420504 0.26292372 0.24108057 -0.35586637
-0.48210433 0.01620026 0.25645605 -0.15918398 0.32189864 0.20508292 -0.2731688 0.46132728
-0.4859141 0.50581294 -0.2762217 -0.17340277 0.1765148 -0.13526684 -0.11762666 0.5181646
0.0030480432 -0.3238633 0.2546987 0.5034419 0.41308302 0.49944094 -0.181711 0.12149801
0.42362493 0.13608798 0.07146529 -0.045860827 -0.09456302 0.5496967 -0.09932128 -0.27526855
0.5197497 -0.2996663 -0.16524093 -0.33297002 -0.44908357 0.32541007 -0.38888037 0.14741895
0.22460188 -0.065961465 -0.047936443 0.340623 -0.30039132 0.30743772 0.27697247 0.26404455
-0.5814018 -0.36582324 0.053585883 0.25355357 -0.09581467 0.051222548 0.23319063 -0.5192788
0.24620894 -0.1197646 0.31878844 0.33920592 -0.57399875 -0.1622811 -0.5574583 0.21780597
0.214967 -0.55301315 -0.029350996 -0.27882114 -0.0105940355 0.5576504 -0.31446695 -0.32559693

encoder.layers.0.attention.w_concat.bias f4 [16]
00000000: 9be5 543b dc4c 66bc 294a 343c d740 6f3a
00000010: 6b76 3cbc 97ca 24bd 5d63 3abd 3607 18bd
00000020: 0799 093c 26ba 4d3c b95c 663c f9d2 ffbc
00000030: ca2f 08bc 603f cfbb 8a24 66bd 83e7 31bd
0.0032485488 -0.014056411 0.011004009 0.00091267884 -0.011502842 -0.040232267 -0.045504916 -0.037116252
0.008398301 0.012556588 0.014060193 -0.03122853 -0.008312175 -0.0063246936 -0.05618719 -0.043433677

encoder.layers.0.norm1.gamma f4 [16]
00000000: 3c05 763f 176c 763f 5edb 793f 55e1 603f
00000010: 6e57 753f 3289 733f 613c 773f fc8e 793f
00000020: 2deb 6c3f c793 673f a398 683f 5e2c 6f3f
00000030: 0792 773f eccf 763f 12d4 763f 9138 7a3f
0.9610174 0.9625868 0.9760035 0.8784383 0.9583653 0.9513122 0.96576506 0.974838
0.9254635 0.90459865 0.90857905 0.93427074 0.96707195 0.96411014 0.96417344 0.97742563

encoder.layers.0.norm1.beta f4 [16]
00000000: d064 c3b9 c53f 9139 532d fe3b c68e 72bb
00000010: 6fc1 0cbb 6eef 6fbb c9c4 9ab9 23ad 90bb
00000020: 4886 f8ba 1be0 a03b bc7d ee3a 0335 a737
00000030: cfec c23a 32c8 92bb 3ab9 4dba 3985 3d3b
-0.0003726841 0.00027704067 0.007756868 -0.003701137 -0.00214776 -0.0036611217 -0.00029519785 -0.0044151708
-0.0018960917 0.004909528 0.0018195431 1.9932637e-05 0.00148716 -0.0044794315 -0.00078477303 0.0028918518

encoder.layers.0.ffn.linear1.weight f4 [64, 16]
00000000: b983 f8b8 76e5 d6b7 fac6 a4b8 3822 99b8
00000010: fac4 f8b8 2b7c 8e3d 6c2a cebd 8555 1e38
00000020: 560d 9e38 ed1a a3b8 fb19 a438 5fd2 f438
00000030: b5e2 2439 6a9b c8b8 bce1 c337 4d60 ba3b
00000040: 459c ed3c 14b0 03be 5a9b c03e 600c aabe
00000050: 76fe be3e d53b 6b3e 45ab 873c 6ae7 acbe
00000060: 3be5 4e3e 1fb6 ca3e 7d64 e6be 783e 783e
00000070: 95d2 1b3e 4ac3 c03e a78c e43d 1bfc ebbe
00000080: 9221 a7be 51a3 483e 9303 553d 29d3 aa3e
00000090: f8d8 f93e 6d08 79be cda1 f73e 0672 c63e
000000a0: 6b76 90be 89fa 54be 90a9 43bd af18 963e
000000b0: 1e2d a03e 5cf8 bb3d b8dd 6a3e cfb6 7dbd
000000c0: d157 edbd 1f46 84be b910 8f3e 4b5e b7bd
000000d0: 87e0 f43e 557f 853e f5b1 d73e b69b d13e
000000e0: 3d26 a9bd b484 55be 070d aabe 8cf0 cdbe
000000f0: 3998 43be 13ac c0be 33fc 85bd 05ad bd3e
00000100: ba3d e1be c285 d83d 534a 2c3e 62ba 82be
00000110: 2312 103f 02ae 2ebd f00b 143f 68ba 773d
00000120: e7fe c3be 48f5 a13e 0f17 95bd 4764 e03e
00000130: 973b 723e 609d 143f 6fc9 c4be dc95 f2be
00000140: 1dcf 92be c865 d6bd 5e69 1d3e 71c6 ccbe
00000150: 389d 3d3e 3b5d f03e 2aa2 9e3c c0d7 0f3e
00000160: dd6b 4dbe 187f 943e 378e bd3e d0c9 d3be
00000170: e87a 10bf bdc9 6a3e 84eb 8ebe 321d 9fbe
00000180: 36b6 9dbe b990 8dbe a9e2 debd fe34 eabe
00000190: 20e3 0a3f d3b1 51be 2653 6fbe 1bd7 93be
000001a0: 74b1 873c 72fd 85be 368d ab3e 3135 9f3e
000001b0: 4b2c fb3b 5744 033e 5103 133e f076 823e
000001c0: 5303 35bd 6acb 923d 282d 7abb 8d9d 5b3c
000001d0: 01ee ddbc 0b30 bd3c 4a1d 473e 33c0 f43d
000001e0: d546 d8bc 35da 90bb 084d 03bd 7a45 27bd
000001f0: bec0 083e 7c4b f2bc 85aa 143d db39 b5ba
00000200: 82c8 283b f50c 61bc 6ec3 683d 5e32 443e
00000210: b13f be3c 8b40 5cbd 6ccc 14bd 1cbb 193d
00000220: 2cdf ad3c ef85 d93b aff4 6037 5592 b53c
00000230: fc58 4e3e 5db0 77bd 978e fcbd 3c97 16bc
00000240: 5bb6 c73e d270 aa3d ef03 743e d28c c13e
00000250: 1cbd 9c3e fb38 dd3d 8dc8 e83e 281b f43d
00000260: fb8a 323d 8df7 c23e 680f dcbe 6d26 de3e
00000270: 8729 823e 52e8 e83e eff8 f13e 84f9 95be
00000280: b9ad f73e 0bb6 a13e 0146 91be fee3 c7be
00000290: 3352 0b3f fdf1 0c3f 4716 d6bd 4ce9 c8be
000002a0: 90d9 94be 36a5 9bbe 0852 563e 032c b53d
000002b0: 1038 843e e5a3 b43e 4009 18be f4b0 86bd
000002c0: 60e5 c0bb 63c3 903e df9b f4bc 0710 963d
000002d0: afa1 433e 78bd e93c e5d7 923e 8b7a 2d3e
000002e0: 8627 a0bd 5b22 943e 8296 d33c 5eb5 233e
000002f0: 1200 6b3e 2413 b4bc 165f 303e 6c6f eabe
00000300: 7aae abbd ef25 f43e 56ba 0b3f c5fb d53c
00000310: 17a6 c53e 1f41 5b3e 87c3 7a3e b347 30be
00000320: 0c8d 8b3e 2afc 89be f570 7a3e f7fe bfbd
00000330: 11ee 1a3e 2aed 2b3e 40d1 8c3d c6ff f2be
00000340: 2ead 553e 74fd 7d3e af61 9abe e5f5 9dbe
00000350: 6175 0ebe 5a12 9fbe 6502 f03e f3a5 033e
00000360: 48b4 7c3e f65f a13e d1d2 4c3d a7c1 5cbe
00000370: eedf e43e efc5 fcbd 6976 543e 8b2b ad3e
00000380: af51 11bd 1ff8 033b b295 2e3e 4132 aebc
00000390: 7cdf 833e 1b3f d03d 5662 98bd d269 bd3d
000003a0: 9147 52bc 9cca 7f3d 6a16 dd3d b9c7 6bbe
000003b0: 93cf 823e 196f 78be d819 e2bd 5adc 89bc
000003c0: 71e6 edbe 879c 043f 9d77 983e aa3e cbbc
000003d0: b0ab a13e 48d9 15bf 909f bdbd fb89 153e
000003e0: 84fa 4bbe 87f0 5d3e 38a3 2dbe 5a30 0bbf
000003f0: dd2b ac3e 1a47 093f 6252 8a3e 2140 083e
-0.00011850097 -2.5617639e-05 -7.857192e-05 -7.301982e-05 -0.00011862251 0.06957277 -0.10066685 3.774978e-05
7.536511e-05 -7.777461e-05 7.8249686e-05 0.00011674011 0.00015724714 -9.565691e-05 2.3350927e-05 0.0056877495
0.02900518 -0.12860137 0.37618524 -0.33212566 0.37303513 0.22972043 0.01656116 -0.33770305
0.20204632 0.39592072 -0.4499854 0.2424258 0.1521705 0.37648994 0.1115964 -0.4609078
-0.326428 0.1959355 0.05200536 0.33364227 0.48798347 -0.2431962 0.48365632 0.38758868
-0.28215346 -0.20798697 -0.04776913 0.29315707 0.31284422 0.0917823 0.22936141 -0.061941918
-0.11589015 -0.25834748 0.27942446 -0.08953532 0.4782755 0.2607371 0.42127958 0.4093911
-0.082592465 -0.20851403 -0.33213064 -0.40222585 -0.19101037 -0.37631282 -0.06542244 0.37046066
-0.43992406 0.10572387 0.16825227 -0.25532824 0.56277674 -0.042646416 0.57830715 0.060480505
-0.38280413 0.31632447 -0.07279789 0.43826506 0.23655544 0.58052635 -0.38434932 -0.4737996
-0.2867364 -0.10468632 0.15372226 -0.3999515 0.18517005 0.4694613 0.019364435 0.14047146
-0.20060678 0.29003215 0.37022564 -0.41364908 -0.5643754 0.2292852 -0.2791406 -0.31076962
-0.30803078 -0.27649477 -0.10883076 -0.45743555 0.54252815 -0.20477991 -0.23371562 -0.2887505
0.016564108 -0.26169926 0.33506173 0.3109527 0.0076651922 0.12819038 0.14356734 0.25481367
-0.044192623 0.071677044 -0.0038173888 0.013404262 -0.027091028 0.023094198 0.19444767 0.119507216
-0.026400963 -0.0044205436 -0.032055885 -0.040837742 0.13354775 -0.02957701 0.036295433 -0.0013826446
0.0025754278 -0.013735999 0.056827 0.19159839 0.02322373 -0.05377249 -0.036327764 0.037531957
0.02122458 0.0066382806 1.340841e-05 0.022164503 0.20151132 -0.060470928 -0.12331884 -0.0091913305
0.39006314 0.083223 0.23829626 0.3780275 0.3061303 0.10801884 0.45465508 0.11919242
0.043589573 0.3807949 -0.42980504 0.43388692 0.25422308 0.45489746 0.47260234 -0.29291928
0.48374727 0.315842 -0.2837372 -0.39041132 0.544223 0.55056745 -0.10453468 -0.3924049
-0.29072237 -0.30399483 0.2092973 0.08846285 0.25824022 0.35281292 -0.14847279 -0.0657672
-0.0058867186 0.28274068 -0.029859481 0.07327276 0.19104646 0.028532729 0.2868034 0.16941278
-0.078200385 0.2893246 0.025828604 0.15987155 0.22949246 -0.021981783 0.17223772 -0.45788133
-0.08382888 0.4768519 0.545812 0.02612103 0.3860328 0.2141156 0.2448865 -0.17214851
0.27256048 -0.26950198 0.24457152 -0.093748026 0.15129878 0.1678969 0.06875849 -0.47460765
0.20866844 0.24803716 -0.30152652 -0.30851665 -0.13911964 -0.3106869 0.46876827 0.12856273
0.24678147 0.31518525 0.050005738 -0.21558248 0.44702095 -0.1234244 0.20748295 0.33822283
-0.03547829 0.0020136905 0.17049292 -0.021264197 0.25756443 0.101682864 -0.07440631 0.09248699
-0.012834446 0.062449083 0.10795291 -0.23025407 0.25548992 -0.2426113 -0.110400856 -0.016828705
-0.46464875 0.5180134 0.29778758 -0.024810154 0.315763 -0.5853467 -0.0925895 0.14603417
-0.19919783 0.21673785 -0.16956794 -0.54370654 0.33627215 0.5362412 0.27015978 0.13305713

encoder.layers.0.ffn.linear1.bias f4 [64]
00000000: f0b5 7637 a28a b73d 68f5 00be e391 1dbe
00000010: e35a 36be d94e b1bd 5624 1e3e 3438 18bc
00000020: 01ad 243d afc9 283e 6767 6bbd 39a5 2c3e
00000030: 0fa5 1d3e 90ee ad3d 275e 543d 9ec5 02be
00000040: f2cf 2fbe 2600 783c 02ec 463e c4cd 563e
00000050: 2949 54be c527 b23c 9884 073e c3cf 0b3e
00000060: 8533 563a 1b7f 22be 1cb4 d53d 8e00 34bd
00000070: f97b 67bc 4938 103d a43e 9bbc 30d0 863d
00000080: edd5 843c 8b46 dbbd 1801 c63d 482d fdbd
00000090: fba8 d2bd 46ef 673c b2d9 193e 6aae 1239
000000a0: 2fc8 f83d a445 02be 1ce5 f13d 37f7 0abe
000000b0: cc2c b43c c826 383e bb00 0bb9 a51e 423e
000000c0: 33ef 3a3e 0379 443e 5596 1b3e ede7 553e
000000d0: 3c98 a93d e2ef f93c 5a2c 5c3e 8feb b23a
000000e0: 52bd 483d 336a 8439 59d9 6e3d 2288 a13d
000000f0: 9a63 b63d e175 af3c 64bf 47be 16da 8e3c
1.4705103e-05 0.08961989 -0.12593615 -0.15387683 -0.17808108 -0.08657617 0.15443549 -0.009290744
0.040204052 0.16483186 -0.05747166 0.16859902 0.15394996 0.08492768 0.051847603 -0.12770697
-0.17169169 0.015136754 0.19425967 0.20976931 -0.20731033 0.02174748 0.13234174 0.13653474
0.0008171129 -0.158688 0.10434744 -0.04394584 -0.0141286785 0.035209928 -0.018950768 0.06582677
0.016215289 -0.107068144 0.09668177 -0.12362152 -0.10286137 0.014156168 0.1502445 0.0001398862
0.12147557 -0.12721878 0.11811277 -0.13570867 0.021994017 0.17983544 -0.00013256345 0.18957002
0.1825531 0.19186787 0.15194066 0.20889254 0.082809895 0.030509893 0.21501294 0.0013650524
0.049008675 0.00025256127 0.058312748 0.078872934 0.08905716 0.021418514 -0.19506603 0.017437976

encoder.layers.0.ffn.linear2.weight f4 [16, 64]
00000000: 952c 07ba 0112 efbd d86d 3dbe 8b90 84be
00000010: 4cc2 77be 9947 af3d a710 2d3e 26af 953b
00000020: 14a6 7e3c 24b2 8ebe b85d 373e e53b 39be
00000030: 0978 89bd 0ee5 c23d f37b bf3d 653d 903e
00000040: 23f4 0cbe 96ee 60be d5d1 a93d 7c51 31be
00000050: a3a1 e03d 7596 d4bb a733 26be af63 44bc
00000060: a7ce cfbd 5ad0 363e 0449 4c3e b2d8 cabd
00000070: b134 063e 9b6e 17be b0e1 7c3e babc 4c3e
00000080: b3e2 853c 6a6e 6c3e 5839 b2bd 6913 d53c
00000090: 843f 9bbc b2c4 743e 21ab dc3d 07ad c0bc
000000a0: 2b36 f73d c03b 283e 99de 4bbe 9b74 633e
000000b0: 7698 733e bac4 013e 8e48 63b9 fb7b 433e
000000c0: c90c 2abe f392 b1bc cacd 12bd caf0 91be
000000d0: 568c 7bbe 54dd 4ebe c625 9a3c af1a 97bb
000000e0: c736 8c3e 5fe7 30bb 85fc 1fbe 8f13 4abc
000000f0: 17dd 3fbe 2a06 473d 1ba2 8e3e b63e 403e
00000100: 55df e339 67d1 94bd 73cf 00be 4cea 503e
00000110: 0966 0e3e beeb 6c3e ccf0 4d3e 718c 9a3b
00000120: cfed d2bb bd1b 293e dc39 4ebe 0265 5dbe
00000130: 04c9 f6bd 1b68 fa3d fcbb 2a3d 8ed2 bc3a
00000140: debe efbd 7bf8 9bbd b91f 193d 179b 9ebd
00000150: ea9f 493e 997f f7bc d63e 813e e2be 2e3c
00000160: 55c3 703e 1cd0 4ebe 43a1 c1bd 5903 4e3c
00000170: d578 543d 2e4f bb3c 1c72 38be ef74 133e
00000180: 0dab 823b 70bb 663e 963f f83c b6a1 243e
00000190: 480a 3a3d b5e5 87be 77d6 89bd f79b 703c
000001a0: 41f2 2f3e 0d21 643d ff42 8b3e 4924 83bd
000001b0: ea1b 2bbd 9816 99bc 614f a33a cbf8 dcbc
000001c0: 1e72 0e3e 7a55 1abe 3f38 033d 06ee a53d
000001d0: f19b 013c 7838 e0bd cfa8 69be 095f 0f3a
000001e0: d407 7a3e 776f a1ba 648d 9abd 992a 9abd
000001f0: a201 493d 99fc 563d 6e2a 54be 5ba3 1d3e
00000200: 3935 38ba cea0 5bbd 40e5 793d 0f46 9b3c
00000210: b75c 62be fb53 8e3e 81d8 c4bc 5058 003d
00000220: 8cb5 6dbd a155 1d3e afaa 4b3e 6496 06bd
00000230: 3638 003e 6bf4 223d 1f7a fcbc 0830 383d
00000240: a1f1 52be 521e 3bbe 6bf4 853d 08c6 45be
00000250: 09c9 923e ab3c f0bd fbd1 02be e34c 40be
00000260: a9ba d1bc 29e3 a6bd f346 2bbe 5598 2f3e
00000270: 8768 b63c 7382 69be 2303 743e 64dc 1dbe
00000280: 1981 55bd fe4d d9bd 0567 393e 7406 25be
00000290: 6673 d13c efbd 893e 3004 10be 643b 2e3d
000002a0: 915f cd3d 5371 5cbd 1a45 41be 605b 943e
000002b0: ea67 5ebd 8587 85bd f117 efbb 9ecf 6fbc
000002c0: 58f9 66be ef08 4d3e 1a67 bf3d 478b 7dbe
000002d0: 7480 5cbe a9c3 f73d 2c2e a43d c3f4 f9b9
000002e0: cf7f 93be 3609 81bb 6d12 eabd 217b 01bd
000002f0: 40b5 a83d dba6 393d 62ce 71be 4be0 eebd
00000300: 1c03 72b9 0289 05be dec5 e73d 3a1a df3d
00000310: 24c0 383d 62ea 06be 7db3 653e e93c 65ba
00000320: 2165 06bd 98cf 56be e80c 403d 86ed 78bd
00000330: dee8 8fbd 3743 0ebe ea97 993c 6637 95bc
00000340: 3742 a3bc 5a1f c8bb 1320 80be 518c acbd
00000350: eade 90bd d3e6 943d b844 123e 006c 66be
00000360: facc ce3d 4ccf 463d a73c 553c cd80 7b3d
00000370: d20c 74be 73ab 2f3e 362a e43d af15 5abe
00000380: 84e0 77bc 6913 f53d d15b 5a3d 1c0e 0cbd
00000390: d989 40bd e0fe 243e 6e5b 7abe 9343 193b
000003a0: e1f2 813d 8e10 243e 3915 9f3d e953 7fbd
000003b0: 7759 6f3e 46bc 6cbe 077e e6bb 276d 1cbe
000003c0: 21df 8c3e a3e8 85bd 686e 01be 5a30 493e
000003d0: 96bb 8ebe f8c9 023d 62fd 9f3d 07ff 6fba
000003e0: 2efb ad3d 92e7 f7b9 e4cf f6bd 4c5e 4d3d
000003f0: 6348 14be cf3f ad3c e2df 3cbe bc4a 0b3e
-0.00051564845 -0.11673356 -0.18498933 -0.25891528 -0.24195212 0.08558578 0.16900884 0.0045679985
0.015542526 -0.27870286 0.17906845 -0.18089254 -0.06712348 0.09516345 0.09349813 0.2817184
-0.13765006 -0.21966013 0.082919754 -0.1731624 0.1096833 -0.0064876624 -0.16230641 -0.011986657
-0.10146838 0.17852917 0.19949728 -0.099046126 0.13106038 -0.14788286 0.24695468 0.19993868
0.01634345 0.23088995 -0.08702344 0.026010232 -0.018951185 0.23903158 0.10774828 -0.023520006
0.120708786 0.16429043 -0.19909133 0.2221245 0.23788628 0.12672701 -0.00021675436 0.19090264
-0.1660644 -0.021676516 -0.035840787 -0.2850402 -0.24565253 -0.20201617 0.01881684 -0.004611335
0.27385542 -0.0026993377 -0.15623672 -0.012333765 -0.18736683 0.048589863 0.27858052 0.18773922
0.0004346321 -0.07266503 -0.12579136 0.20401877 0.13906111 0.23136804 0.20111388 0.004716449
-0.0064370404 0.16514488 -0.20139259 -0.21620563 -0.120500594 0.12226888 0.041683182 0.0014406012
-0.11706327 -0.07615753 0.03738377 -0.07744425 0.19689909 -0.03021221 0.25243253 0.010665627
0.23512013 -0.20196575 -0.09454586 0.01257404 0.051873047 0.022864904 -0.1801228 0.14400075
0.003987676 0.22532439 0.030303758 0.16077313 0.04541996 -0.2654244 -0.06730359 0.014685622
0.17182256 0.055695582 0.2719955 -0.06403405 -0.041774668 -0.018687531 0.001245957 -0.026974102
0.1391072 -0.15071669 0.032036062 0.0810204 0.0079107145 -0.109482706 -0.22818302 0.00054691784
0.24417049 -0.0012316544 -0.07546499 -0.07527656 0.049073823 0.05248699 -0.2071931 0.15394346
-0.0007026974 -0.053620152 0.061009645 0.018954305 -0.2210568 0.27798447 -0.024029018 0.03133422
-0.058034465 0.15364696 0.1988933 -0.032858267 0.12521443 0.039783876 -0.03081995 0.04496768
-0.20599987 -0.18273285 0.0654076 -0.19313824 0.28669003 -0.117303215 -0.12775414 -0.1877933
-0.025601702 -0.08148796 -0.16726284 0.17147954 0.02226664 -0.22803669 0.23829322 -0.15416104
-0.05212507 -0.10610579 0.18105705 -0.16115743 0.025567722 0.2690272 -0.14064097 0.042537108
0.100279935 -0.053819012 -0.18874016 0.28975964 -0.05429832 -0.06519989 -0.007296555 -0.014636902
-0.22556055 0.20022939 0.09345837 -0.24760161 -0.21533376 0.12097866 0.08016619 -0.00047675343
-0.28808448 -0.0039378656 -0.11429296 -0.031611566 0.08237696 0.04532514 -0.23613885 -0.11663874
-0.00023080077 -0.13040546 0.11317037 0.10893674 0.045105115 -0.13175347 0.2243175 -0.0008744733
-0.032811288 -0.20977628 0.04688731 -0.060773395 -0.07026838 -0.13892828 0.018749196 -0.018214893
-0.019929035 -0.006107253 -0.2502447 -0.08425201 -0.070737675 0.07270589 0.14284027 -0.22502136
0.1009769 0.048537537 0.013014949 0.06140213 -0.23833016 0.17155246 0.111408636 -0.21297334
-0.015129212 0.11966593 0.05331022 -0.034193143 -0.04700646 0.16112852 -0.2444894 0.0023386225
0.063451536 0.1602194 0.0776772 -0.062335882 0.23373972 -0.23118696 -0.0070340666 -0.15276013
0.27513984 -0.065385126 -0.12639773 0.19647351 -0.27877492 0.031930894 0.07812001 -0.00091551285
0.08495174 -0.00047284045 -0.12051371 0.050138757 -0.14480738 0.02114859 -0.1844478 0.13602728

encoder.layers.0.ffn.linear2.bias f4 [16]
00000000: 8eb4 013d 4f4e a3bc 87e7 9d3c ca6d c4bd
00000010: 6ce7 b23d f139 51bd 3068 9d3d 0f3e a33d
00000020: 37e2 12bd e6fd d1bd f0bc 2ebd 2aae 4a3d
00000030: 6d53 a5bd a996 dd3d b176 afbd 64a5 9fbc
0.03166633 -0.019934801 0.01927544 -0.09591253 0.087355465 -0.051080648 0.07685888 0.07970821
-0.035860267 -0.102535054 -0.042660654 0.049482502 -0.08072553 0.10819752 -0.085675605 -0.019488044

encoder.layers.0.norm2.gamma f4 [16]
00000000: 7a7d 6c3f 40ec 743f 67ec 753f 4c51 6f3f
00000010: 645e 783f bff7 723f 0964 7a3f 7394 713f
00000020: d7d0 6d3f b4d5 733f 54dd 753f d09a 743f
00000030: 96e6 783f 2bc1 7a3f 69b7 763f 0ef8 733f
0.9237896 0.9567299 0.96063846 0.93483424 0.9701903 0.9490928 0.9780889 0.9436714
0.9289679 0.9524796 0.96040845 0.95548725 0.97226846 0.97951 0.9637361 0.95300376

encoder.layers.0.norm2.beta f4 [16]
00000000: 9bbe bb3b 39d8 9c3b 4443 e4ba 54b9 12bb
00000010: 923a e5ba 809a 28bb bb50 8439 7cc7 50bb
00000020: 876b 49ba 7c61 173b 589a 6a3b 9c21 cb3a
00000030: eb7f 2db9 4a4c 54ba 9418 82bb d301 b8ba
0.005729509 0.004786518 -0.0017415066 -0.0022388296 -0.0017488769 -0.0025726855 0.0002523715 -0.0031857183
-0.00076835643 0.0023098877 0.0035797562 0.0015497687 -0.00016546219 -0.0008098526 -0.003970215 -0.001403863

encoder.layers.1.attention.w_q.weight f4 [16, 16]
00000000: 6a31 bc3d 0509 953e 2348 b6bd 3617 8cbe
00000010: f685 c3be 12b7 9bbb d4c2 4bbc baca ef3c
00000020: a49e 9bbd 54ca 1bbe 66bb 393e 5b68 09be
00000030: 288a b03e 24a1 af3d e7e3 db3b 11a5 0abd
00000040: dacd 84be a5e9 a8bd a15a cb3c b845 dc3d
00000050: 314e 4dbe f742 6dbe 3a73 bebd 9e6a 883e
00000060: 528d d6be 98a6 e9be 2644 05be 7600 f0bd
00000070: c049 5f3e ed72 4d3e 608f f9be 09ca bbbe
00000080: 6e92 84be 5c46 88be 50c9 a4bc d7e9 903e
00000090: df64 643d c56d 753e 41d1 b03d 345a cdbe
000000a0: a5c4 793e c358 50be 9a4c 82bd d67a 90ba
000000b0: 7dd8 f83e 5af1 88bd 690e ec3d 051f 0fbe
000000c0: 8a19 ac3e a900 febe 7a6a 45be 41ec ba3e
000000d0: 179f 51be a2f4 193e c68b eb3e 5808 24bc
000000e0: 9fe1 ccbe ea42 7a3e b278 95bd 4f51 fdbd
000000f0: cd5b 89bd ea16 88be 1b93 b2be a40c 97be
00000100: a0b4 a2be ea8f b63d e12e 02bc 16e4 083d
00000110: ecc7 89be aa74 843e cc3f 5ebe b21e f33d
00000120: c02b 113d 9ee9 edbd 0fb3 80be 868e 183d
00000130: 8e70 a7be 0eff 933e 5f2c ec3a f87d e6bd
00000140: d97f 923e dde8 a13e 405d 16be 749f 67bc
00000150: 3ed7 a5bc 7fb8 86ba a4b2 fdbe 10a9 a93d
00000160: 1c2c 3ebe 16d7 83bd ba18 ad3e 8acb 77be
00000170: 9122 34be e7db b63e c160 9dbe 05b3 c43d
00000180: 494f abbe ca5a ea3e ac7b 39be cf01 85be
00000190: d18b 5e3e 4a51 c53e 003f fcbe b053 3c3e
000001a0: 6107 6a3e dbd2 a4be b2ee 22bd 1300 803e
000001b0: c789 f4be ff1b 213e 929f e43d 2796 9e3e
000001c0: 2595 1a3e 546d 23be 2e62 bd3d 9197 02be
000001d0: 8e68 8e3e ab07 b3be 65a5 eebe 67a2 123e
000001e0: 48ea ffbc 8349 a03d a96a 543d 143b 0cbe
000001f0: c84e 8a3e 7a54 bf3e 19b4 d53b 6ede 98be
00000200: 0074 db3e 6c8d b43e b5f7 edbe 3397 f7be
00000210: 4a57 a6be d87d cd3e fe5e a1bc f3d5 d1be
00000220: 505b 5abe 753e 813e 99ad fc3e 8598 d73e
00000230: 3856 ce3e 244f 903e a5bf 733d c555 95be
00000240: 3209 9fbe c6c4 d4be 760c 8fbe 7cf2 f93e
00000250: 99d4 fe3e b55b b33e f5b2 e0be 73db 9e3e
00000260: ee49 e63e 09bb 01bf 6399 ad3d 9958 3ebe
00000270: 26f1 96be 643f 8a3e e533 d4be d244 d5bd
00000280: 1884 c2be 89cf 3cbd dda2 c5be 6deb 5ebe
00000290: 9d8c f63e 9469 8d3d d0d9 a9be 39c6 ad3e
000002a0: 63f9 3c3e 1caa 933d a827 a1be e751 8a3e
000002b0: aec3 9fbd ab34 ed3e 7284 babd f7de 473d
000002c0: 1f1f df3d eaf6 c03e c7e3 8bbe 5f54 173e
000002d0: 2c51 5c3e 7124 003f 97bc e2be 2c34 d03d
000002e0: b266 673e 282e 353e f65b b5be 815c cfbe
000002f0: b9b5 463e 082b ad3e ce5c 473e 5d00 483e
00000300: 8391 203e ac3c 133e 1091 d83e bc02 343e
00000310: 115f 5b3e b003 9fbd 69cb c23e dfb3 6bbe
00000320: 0dc1 d63e e977 62be 28f0 853e e4f3 ce3e
00000330: 65be f23e f022 2cbd ffd8 8f3e 02fc 053e
00000340: 80df 20be b00e f0be 3cdb 76bc 59c6 143e
00000350: f2e3 ee3e 2b17 dc3e dd73 553e 0b80 f93c
00000360: a105 50bd 4bbc 91bc 69f4 debe 8b36 93be
00000370: 312d 983e 5498 03bf b9b3 0e3e 4338 9bbe
00000380: 3c07 bf3c dd16 b83e 1555 86be ce4e d73d
00000390: 671d 343e 6bc6 b2be 76e6 ffbe 9772 77be
000003a0: b481 c33e ab4d b3be 7185 c13d 51fc 5dbe
000003b0: 4ffc 06bf 726e 823e 220e d43e 5933 0cbe
000003c0: 1a8c 853e 3206 09be b0ce a73d 228a ad3e
000003d0: 77b1 06be 401c 333d 2aff 29be 6837 f9bd
000003e0: a2e5 c3bd 7d36 e7bd 4ce3 cdbe 5119 bf3e
000003f0: e432 32be 7b48 953e cc30 db3e 0ead c2be
0.091891125 0.29108444 -0.08900478 -0.2736146 -0.38188142 -0.0047520483 -0.012436587 0.029271472
-0.07598618 -0.15213901 0.18137893 -0.13418715 0.34480405 0.08575657 0.0067105177 -0.033848826
-0.25938302 -0.08247689 0.024823489 0.10755485 -0.20049359 -0.23170076 -0.092993215 0.26643842
-0.41904694 -0.45634913 -0.13014278 -0.11718838 0.21805477 0.20063372 -0.487422 -0.36677578
-0.25892967 -0.2661618 -0.020115525 0.28303406 0.05576026 0.23967655 0.08633662 -0.40107882
0.2439142 -0.2034636 -0.06362267 -0.0011022936 0.48602667 -0.06686659 0.11526186 -0.13976677
0.33613235 -0.4960988 -0.19278899 0.36508372 -0.20470844 0.15034726 0.46005076 -0.010011755
-0.40015885 0.24439588 -0.072984114 -0.12369024 -0.06706963 -0.26579982 -0.34877858 -0.29501832
-0.3177843 0.08914168 -0.007945747 0.033420645 -0.2691034 0.25870258 -0.21704024 0.11871089
0.035442114 -0.116168246 -0.2513661 0.037245296 -0.3270306 0.2890553 0.0018018595 -0.112544954
0.28613165 0.31622973 -0.1468401 -0.014137138 -0.020244237 -0.0010278373 -0.49550354 0.08284199
-0.18571514 -0.06437509 0.33807927 -0.24198738 -0.17591311 0.35714647 -0.3073788 0.09604458
-0.33458927 0.45772392 -0.18113583 -0.25977942 0.21733023 0.3853858 -0.49266815 0.18391299
0.22854377 -0.3219212 -0.03977842 0.25000057 -0.47761366 0.15733336 0.11163248 0.30973932
0.15095957 -0.15959674 0.09247242 -0.1275313 0.27814144 -0.34966788 -0.4661056 0.14319764
-0.031239644 0.07826521 0.05185953 -0.13694412 0.2701323 0.37369138 0.0065217135 -0.298572
0.42861938 0.35264146 -0.46478048 -0.48357543 -0.3248847 0.40135074 -0.019698616 -0.40983543
-0.21323895 0.25242963 0.49351195 0.4210855 0.40300155 0.2818538 0.05950894 -0.29167
-0.31061703 -0.41556376 -0.27939194 0.48817813 0.49771574 0.35030904 -0.43886533 0.310268
0.4497828 -0.5067602 0.08476522 -0.18588485 -0.29480857 0.27001488 -0.41445842 -0.10413517
-0.37991405 -0.04609636 -0.38600817 -0.21769495 0.48154154 0.06904903 -0.3317399 0.33940294
0.18454508 0.0721018 -0.31475568 0.27015612 -0.07800995 0.46329245 -0.09107293 0.04879662
0.10894608 0.3768838 -0.27322218 0.14778279 0.2151534 0.50055605 -0.44284508 0.10166201
0.22597769 0.17693388 -0.35421723 -0.40500262 0.19405259 0.33821893 0.19468996 0.19531389
0.15680508 0.14378613 0.42298174 0.17579168 0.21422984 -0.07764375 0.38045815 -0.23017834
0.4194416 -0.22116055 0.26159787 0.4042045 0.47410884 -0.042025506 0.28095242 0.13084415
-0.15710258 -0.46886206 -0.015066918 0.14528789 0.46658283 0.42986426 0.2084498 0.030456563
-0.05078662 -0.01778998 -0.43545845 -0.2875255 0.29721978 -0.5140431 0.13935746 -0.30316362
0.02331888 0.35954943 -0.26236787 0.10513078 0.17589341 -0.34917006 -0.49980515 -0.24164806
0.38184893 -0.35020193 0.0944928 -0.21678282 -0.5272874 0.25474888 0.41417032 -0.13691463
0.26083452 -0.1338127 0.081937194 0.3389445 -0.13153635 0.043728113 -0.16601244 -0.12168771
-0.09565283 -0.1128969 -0.40212476 0.37324002 -0.17402226 0.2915686 0.42810667 -0.38022655

encoder.layers.1.attention.w_q.bias f4 [16]
00000000: 730d 313e b7a6 163e 90a6 1e3d 5d42 17be
00000010: 2ac3 05be 5e78 013e 37af 53be 80fe cabd
00000020: 4bad d8bd a741 04bc 31ed 453c 0126 3fbe
00000030: a871 c2bd 8a6e 163e 8e20 ee3b 4663 18bc
0.17290287 0.14712034 0.038733065 -0.1477141 -0.1306273 0.12643573 -0.20672308 -0.09911823
-0.10579928 -0.008072293 0.012080477 -0.18666841 -0.094943345 0.14690605 0.0072670644 -0.009301012
