Trans_Prediction/model_saved/numBugReportIssues/TM_numBugReportIssues_delay_size_6_delay_4.pth (torch, 386768 bytes, 337 tensors)

encoder.layers.0.attention.w_q.weight f4 [16, 16]
0.3986871 -0.35130355 0.27815396 -0.21773696 0.31220832 -0.34714508 0.52424103 -0.43293864
-0.1870285 0.60902494 0.0658258 -0.30723143 0.5269951 -0.27145997 0.41986495 0.025470745
-0.44189444 0.24143808 0.11405365 0.45586887 -0.10997598 0.34470633 -0.1497995 -0.4046319
-0.20072247 -0.09815333 -0.4702159 0.60178983 0.16492705 0.1632959 0.10219521 0.3331396
-0.565427 -0.56291765 -0.43694037 0.26546675 0.0044136113 0.56332815 0.26143762 0.31267953
0.55730623 0.5813937 -0.38902763 -0.42643514 0.3371164 0.35597104 -0.48281038 0.41254523
0.38685188 0.31154397 0.50355697 0.3300933 -0.22059837 -0.540593 0.010958327 0.17414288
-0.4892719 -0.35713637 0.24028929 0.373396 0.55775464 0.3835092 0.45563772 -0.1665019
-0.3301431 -0.17522694 -0.06100217 -0.49068028 -0.22516909 0.30941463 0.24952741 -0.2050589
0.5079401 -0.13414647 -0.39576006 0.58610904 -0.15550227 -0.29754555 0.5146973 0.5941584
0.5895053 0.2878805 -0.047624666 0.60698086 -0.5418248 0.49406263 -0.40493003 -0.6062018
0.39044815 -0.078267455 -0.5768038 -0.29742095 -0.19890122 0.2240828 -0.5107813 -0.5126118
0.50943875 0.059054065 0.36648464 0.052286074 0.3146854 -0.17704158 -0.25336245 -0.0470862
0.39769545 -0.34585768 -0.21168213 -0.06594254 0.5311441 0.58042955 -0.029949902 -0.4721707
0.40975752 0.15481766 -0.3844889 -0.5648113 -0.22022307 -0.43468517 0.11573835 0.120408855
-0.4265095 0.16745539 -0.21477747 0.3968154 0.45505086 0.61048555 0.10884108 -0.53504795
0.29846638 -0.025377182 -0.6122744 -0.38407716 0.43778348 0.28915152 0.4532964 0.5494984
0.54706186 -0.3608362 0.15794641 0.58730847 -0.1880846 0.39709312 -0.30696177 0.39007604
0.31763324 -0.35614 0.58185357 0.26768038 -0.49293315 -0.5212254 0.33905903 -0.370972
-0.5246046 0.4026919 -0.40019152 0.31568864 0.074184 0.024523692 0.33257473 -0.5962802
0.21127413 0.008269159 -0.4804578 -0.5008612 0.31991354 -0.048470564 -0.5388598 -0.3082541
0.5767834 0.13479024 0.17469478 0.57739127 0.056405216 0.122297585 0.40362617 0.07313291
-0.065222375 -0.10112974 0.24239148 -0.6008364 -0.13112734 -0.5384024 0.021388818 -0.24754779
-0.1952309 0.52694625 -0.2868301 0.55572206 -0.5749185 -0.1193018 -0.17073853 0.6006255
-0.002720261 -0.58723 -0.14206405 -0.27908754 -0.5133665 0.28758493 0.4276718 -0.3036252
0.025846165 0.5283458 -0.4573504 -0.28635398 0.2790982 -0.11198274 0.4740777 -0.07678271
-0.20500627 -0.59531623 0.1080604 -0.45969817 -0.5314109 0.06365255 0.37866002 -0.21725494
0.15079351 -0.18773966 -0.30100667 -0.22338364 0.28582472 0.20089568 -0.2067002 -0.47217962
-0.3859333 0.5300803 0.39542827 0.44593835 0.48341292 -0.16695519 0.3355365 0.37659857
-0.374853 -0.21228042 -0.3816936 -0.15887006 0.36603796 0.0388919 0.03185935 -0.05904852
-0.4015346 0.20569463 0.27523527 0.33389592 -0.43608838 0.37738207 0.57902867 0.14316353
0.33698776 -0.056336578 -0.5570671 -0.46152824 0.17008097 0.18378557 0.49473327 0.19366768
00000000: b720 cc3e 0fde b3be 326a 8e3e 70f6 5ebe
00000010: c5d9 9f3e 00bd b1be a934 063f 22aa ddbe
00000020: 6684 3fbe 0fe9 1b3f adcf 863d 704d 9dbe
00000030: 27e9 063f cdfc 8abe 8af8 d63e 06a8 d03c
00000040: fd3f e2be 8b3b 773e f694 e93d a567 e93e
00000050: 163b e1bd 597d b03e 0a65 19be ea2b cfbe
00000060: 318a 4dbe 9d04 c9bd 23c0 f0be e60e 1a3f
00000070: a3e2 283e 0a37 273e b94b d13d 4691 aa3e
00000080: d3bf 10bf 5f1b 10bf a6b6 dfbe 42eb 873e
00000090: 0ea0 903b 4636 103f 27db 853e 8817 a03e
000000a0: 9fab 0e3f 38d6 143f a12e c7be b555 dabe
000000b0: 859a ac3e d641 b63e ec32 f7be 2139 d33e
000000c0: 7311 c63e b182 9f3e 1ce9 003f fd01 a93e
000000d0: 8ae4 61be 4e64 0abf 8e8a 333c 8352 323e
000000e0: d981 fabe 94da b6be 650e 763e c32d bf3e
000000f0: 02c9 0e3f 515b c43e 5949 e93e 797f 2abe
00000100: 8408 a9be b16e 33be 69dd 79bd 723a fbbe
00000110: ba92 66be 986b 9e3e 1d84 7f3e f6fa 51be
00000120: 5d08 023f b15d 09be 10a1 cabe 3e0b 163f
00000130: fd3b 1fbe e457 98be 34c3 033f c41a 183f
00000140: d2e9 163f 1365 933e 1512 43bd 1963 1b3f
00000150: 08b5 0abf c7f5 fc3e fd52 cfbe 0b30 1bbf
00000160: d2e8 c73e b04a a0bd 6aa9 13bf 8f47 98be
00000170: c3ac 4bbe f675 653e 90c2 02bf 873a 03bf
00000180: 946a 023f ade2 713d e0a3 bb3e ec29 563d
00000190: 721e a13e 634a 35be b9b8 81be 76dd 40bd
000001a0: bd9e cb3e 4214 b1be 33c3 58be e20c 87bd
000001b0: 0ff9 073f 0897 143f 7f59 f5bc 5cc0 f1be
000001c0: bdcb d13e 8588 1e3e bbdb c4be 7997 10bf
000001d0: 2882 61be 0e8f debe 3a08 ed3d eb98 f63d
000001e0: 745f dabe 6d79 2b3e a0ee 5bbe 632b cb3e
000001f0: 6dfc e83e c848 1c3f 12e8 de3d e7f8 08bf
00000200: 96d0 983e cfe3 cfbc 04be 1cbf c3a5 c4be
00000210: 2825 e03e ab0b 943e 7716 e83e edab 0c3f
00000220: 3f0c 0c3f 86bf b8be b4bc 213e d959 163f
00000230: 4099 40be ca4f cb3e 182a 9dbe 0cb8 c73e
00000240: d3a0 a23e fb57 b6be 5bf4 143f 670d 893e
00000250: bc61 fcbe 076f 05bf 2599 ad3e 0bf0 bdbe
00000260: 7d4c 06bf a22d ce3e e7e5 ccbe f1a1 a13e
00000270: c8ed 973d e9e5 c83c 3c47 aa3e d2a5 18bf
00000280: 3f58 583e 5e7b 073c 91fe f5be 7138 00bf
00000290: b5cb a33e 1289 46bd b7f2 09bf 7bd3 9dbe
000002a0: 14a8 133f 7406 0a3e 30e3 323e eacf 133f
000002b0: 2809 673d 2877 fa3d 17a8 ce3e b5c6 953d
000002c0: 4f93 85bd 1c1d cfbd 7935 783e 6ad0 19bf
000002d0: 3f46 06be bdd4 09bf 9a37 af3c 2b7d 7dbe
000002e0: 9cea 47be f3e5 063f 65db 92be cd43 0e3f
000002f0: dc2d 13bf 8154 f4bd 15d6 2ebe 98c2 193f
00000300: 6846 32bb b554 16bf 3d79 11be 90e4 8ebe
00000310: fd6b 03bf 553e 933e ccf7 da3e c374 9bbe
00000320: 56bb d33c ac41 073f d529 eabe fd9c 92be
00000330: f6e5 8e3e 3557 e5bd 50ba f23e 4140 9dbd
00000340: 2aed 51be a566 18bf c54e dd3d 8f5d ebbe
00000350: 8b0a 08bf 455c 823d badf c13e 1478 5ebe
00000360: 9d69 1a3e d33e 40be 8c1d 9abe aebe 64be
00000370: 9e57 923e 99b7 4d3e 38a9 53be 87c1 f1be
00000380: 0d99 c5be 58b3 073f 9375 ca3e 0852 e43e
00000390: e681 f73e 4df6 2abe 71cb ab3e 87d1 c03e
000003a0: bbec bfbe 0a60 59be 586d c3be d5ae 22be
000003b0: 5469 bb3e 1d4d 1f3d f37e 023d dcdc 71bd
000003c0: f195 cdbe 9da1 523e a3eb 8c3e 68f4 aa3e
000003d0: fa46 dfbe 3938 c13e 393b 143f 7699 123e
000003e0: a989 ac3e 2fc1 66bd f39b 0ebf 6e4d ecbe
000003f0: b529 2e3e 4932 3c3e ae4d fd3e d250 463e

encoder.layers.0.attention.w_q.bias f4 [16]
0.13761534 -0.17728679 0.12603343 0.109856635 0.1764377 -0.19198519 0.1798824 -0.118899114
0.101118445 0.23380531 -0.046918977 0.0053313267 -0.06705288 -0.21621127 0.11475528 -0.25626394
00000000: 09eb 0c3e ab8a 35be e80e 013e 84fc e03d
00000010: 16ac 343e c497 44be 1833 383e 6181 f3bd
00000020: 3017 cf3d a96a 6f3e 1d2e 40bd 69b2 ae3b
00000030: 0553 89bd 7d66 5dbe d104 eb3d 0735 83be

encoder.layers.0.attention.w_k.weight f4 [16, 16]
0.2810096 -0.4652968 -0.54940146 -0.32066432 -0.3644311 0.16711356 0.34105998 0.09612439
0.10087468 -0.52013934 0.49827668 -0.33317748 0.059258208 -0.12559067 -0.107924305 0.3638305
-0.5551172 0.54262114 -0.4425583 0.1736747 0.56910473 -0.2861931 0.16293626 -0.30611762
-0.21914747 -0.08423467 0.13403918 -0.5898425 0.10669764 -0.4429823 -0.43969762 -0.04771348
-0.04386867 -0.38476354 0.46559197 -0.01842768 0.09059884 -0.3278948 -0.16247219 -0.30621397
-0.51341015 0.097542465 -0.5900311 0.27554935 0.098955415 0.29273677 0.42846012 0.4479051
0.27453005 -0.28617543 0.4307355 -0.333341 -0.064254016 0.012385915 -0.42110166 0.009425196
0.26009956 -0.5350145 0.5454239 0.57266706 -0.5463178 0.08352601 -0.42371964 0.07615444
0.16559868 -0.16739798 0.38161394 -0.16565715 -0.3244955 0.055720802 -0.22559905 -0.14190364
-0.31252354 0.13632701 -0.35215446 0.15200664 0.3904005 -0.12027159 -0.29721493 -0.32720974
0.026647376 -0.1955437 0.34493703 0.12402289 -0.40947613 0.17131588 0.3330748 0.3541939
0.18119931 -0.13720705 -0.5012955 0.28166294 -0.33744025 0.09541336 -0.4834647 0.0655486
0.11695023 0.3886663 -0.47074008 0.19133328 -0.5785988 -0.1811834 0.061172273 0.37915102
-0.59587705 -0.38361117 -0.24519703 -0.039737493 -0.46728256 -0.42378336 0.49943212 0.05786555
-0.51751554 0.2724125 0.47208473 0.34855843 0.38738182 0.28891733 -0.5971479 -0.15956613
0.5681627 -0.54448867 0.10139106 -0.25722086 0.3645484 -0.18446249 -0.09562912 -0.41460207
0.11743275 0.53359926 0.2658862 -0.090173274 -0.534295 0.21436715 0.044094633 0.020930309
-0.6031163 0.351489 -0.3170968 -0.003555898 0.025615064 -0.5468378 -0.24805297 0.43351492
0.42284578 -0.44489956 -0.1414628 0.10394411 -0.531891 -0.18058528 0.4580446 -0.26475886
-0.43435857 0.5660856 0.58900243 -0.34614897 0.5321816 0.26832208 -0.5040773 -0.3429327
-0.016160043 -0.06528921 -0.32415396 0.0631081 0.118603535 0.06520163 0.21804173 0.1815767
-0.27605325 0.19506702 0.32308632 0.40669432 0.43328953 0.28564113 -0.1011301 0.034883626
0.13069683 -0.10633948 -0.41435516 0.20600389 -0.3513148 -0.3515714 0.53512156 -0.4754893
-0.204821 -0.0726198 -0.31728557 0.22046377 -0.114230655 0.5336464 -0.35053453 -0.15762621
0.25990784 0.32757017 -0.44598517 0.075395584 -0.02417534 -0.6068182 -0.17149158 0.4999647
0.30883238 0.07566683 0.47525498 -0.58156836 -0.0028906683 0.54466087 -0.22346605 0.17752016
-0.21950006 -0.14114211 0.0009501003 0.5919699 -0.36944044 0.6065177 -0.39515707 -0.036802467
0.2838487 -0.06857992 0.36658648 -0.027109548 -0.52863485 0.5220156 -0.36558163 0.25126112
-0.46429145 0.0126153985 0.48189434 0.13454343 -0.5635318 0.4215033 0.2031359 -0.12302526
-0.11367152 0.40234807 0.34893113 0.3404421 -0.45506674 -0.16765276 0.18760368 0.32871732
0.073222235 0.3233292 0.1948627 0.20371912 0.4960302 -0.15897886 0.11786848 -0.051399447
-0.15535262 0.3209911 0.023839582 0.17827523 -0.40614274 0.10232851 0.46369132 -0.3849011
00000000: 7ee0 8f3e 623b eebe 93a5 0cbf 1d2e a4be
00000010: b796 babe d11f 2b3e 6a9f ae3e dddc c43d
00000020: 6297 ce3d da27 05bf 1f1e ff3e 3d96 aabe
00000030: bcb8 723d d79a 00be 6b07 ddbd fe47 ba3e
00000040: 291c 0ebf 38e9 0a3f 0097 e2be c8d7 313e
00000050: d9b0 113f e787 92be c3d8 263e 73bb 9cbe
00000060: 3268 60be 3a83 acbd 9141 093e ebff 16bf
00000070: 4b84 da3d 93ce e2be 0c20 e1be 366f 43bd
00000080: a2af 33bd baff c4be 1262 ee3e a5f5 96bc
00000090: e28b b93d d4e1 a7be 1c5f 26be 14c8 9cbe
000000a0: d96e 03bf 58c4 c73d 470c 17bf ce14 8d3e
000000b0: 23a9 ca3d 98e1 953e 205f db3e d153 e53e
000000c0: 348f 8c3e 9685 92be 5d89 dc3e acab aabe
000000d0: 9c97 83bd 4bee 4a3c a39a d7be 236c 1a3c
000000e0: c52b 853e b6f6 08bf e7a0 0b3f 4f9a 123f
000000f0: 7cdb 0bbf af0f ab3d c8f1 d8be dcf6 9b3d
00000100: b392 293e 606a 2bbe e762 c33e 07a2 29be
00000110: 4624 a6be 7f3b 643d 7003 67be 304f 11be
00000120: 1603 a0be 4f99 0b3e 974d b4be a1a7 1b3e
00000130: 93e2 c73e f450 f6bd 8e2c 98be 0988 a7be
00000140: 994b da3c 9c3c 48be 969b b03e b7ff fd3d
00000150: dba6 d1be 6e6d 2f3e c888 aa3e e758 b53e
00000160: 508c 393e 0180 0cbe e754 00bf 2036 903e
00000170: f8c4 acbe 1468 c33d af88 f7be 583e 863d
00000180: 9a83 ef3d 45ff c63e d804 f1be dfec 433e
00000190: 0d1f 14bf 2488 39be c78f 7a3d 1520 c23e
000001a0: 668b 18bf af68 c4be ee14 7bbe c8c3 22bd
000001b0: a93f efbe 22fa d8be 91b5 ff3e 6d04 6d3d
000001c0: e67b 04bf a779 8b3e 17b5 f13e 4076 b23e
000001d0: e956 c63e f9ec 933e afde 18bf 4e65 23be
000001e0: 1c73 113f 9c63 0bbf 1ea6 cf3d 74b2 83be
000001f0: 16a6 ba3e bce3 3cbe 33d9 c3bd b946 d4be
00000200: 9580 f03d f699 083f 3c22 883e c4ac b8bd
00000210: 8fc7 08bf 1083 5b3e 939c 343d 0a76 ab3c
00000220: d465 1abf 5ef6 b33e 835a a2be 120a 69bb
00000230: afd6 d13c 90fd 0bbf 9901 7ebe abf5 dd3e
00000240: 3e7f d83e e0c9 e3be a0db 10be a6e0 d43d
00000250: 022a 08bf 59eb 38be d284 ea3e 798e 87be
00000260: 3f64 debe fcea 103f ddc8 163f 703a b1be
00000270: 0e3d 083f 8361 893e 360b 01bf e094 afbe
00000280: 1162 84bc 59b6 85bd 82f7 a5be d23e 813d
00000290: 69e6 f23d 6f88 853d 5546 5f3e 3eef 393e
000002a0: da56 8dbe a6bf 473e 926b a53e 3d3a d03e
000002b0: 20d8 dd3e 8e3f 923e 4c1d cfbd 22e2 0e3d
000002c0: 64d5 053e 83c8 d9bd 5c26 d4be aff2 523e
000002d0: 89df b3be 2b01 b4be bafd 083f 5573 f3be
000002e0: 99bc 51be b1b9 94bd 4173 a2be 41c1 613e
000002f0: c3f1 e9bd 0d9d 083f 4379 b3be c468 21be
00000300: a412 853e 47b7 a73e 2b58 e4be 0069 9a3d
00000310: 5d0b c6bc 7058 1bbf 7d9b 2fbe 60fb ff3e
00000320: 471f 9e3e 36f7 9a3d 9f54 f33e aae1 14bf
00000330: 5e71 3dbb e56e 0b3f 49d4 64be d8c7 353e
00000340: a0c4 60be 8f87 10be 2710 793a 578b 173f
00000350: 4c27 bdbe be44 1b3f 0752 cabe 2fbe 16bd
00000360: 9e54 913e a173 8cbd 39b1 bb3e d814 debc
00000370: 9d54 07bf d0a2 053f 842d bbbe 4ca5 803e
00000380: 9cb7 edbe d1b0 4e3c dbba f63e c1c5 093e
00000390: 9f43 10bf 48cf d73e db02 503e abf4 fbbd
000003a0: 9dcc e8bd 9100 ce3e 1aa7 b23e 6d4e ae3e
000003b0: 82fe e8be 2aad 2bbe 2e1b 403e a34d a83e
000003c0: 8af5 953d 688b a53e 168a 473e bf9b 503e
000003d0: acf7 fd3e 5bcb 22be 0865 f13d 3a88 52bd
000003e0: c214 1fbe f258 a43e 3a4b c33c c88d 363e
000003f0: f1f1 cfbe 9c91 d13d f368 ed3e c211 c5be

encoder.layers.0.attention.w_k.bias f4 [16]
-9.791858e-07 5.554892e-08 -1.2189543e-07 -2.0193415e-06 1.44755e-08 2.6959583e-06 -3.3531487e-07 2.7137185e-07
-7.3562563e-07 3.2317732e-08 -2.969538e-07 1.3298694e-07 -1.5655853e-07 -1.6336519e-07 2.4613922e-08 -4.4395472e-07
00000000: 916c 83b5 af94 6e33 5ce2 02b4 0684 07b6
00000010: ecaf 7832 36ec 3436 5305 b4b4 10b1 9134
00000020: cf77 45b5 b9cd 0a33 056d 9fb4 2ccb 0e34
00000030: 7b1a 28b4 7b69 2fb4 966e d332 ac58 eeb4

encoder.layers.0.attention.w_v.weight f4 [16, 16]
-0.20246148 0.61889863 -0.51109755 -0.24259445 0.014948506 -0.42039132 0.11183215 0.41750252
-0.08407993 -0.44213358 -0.28149998 0.070239045 0.59385586 -0.373443 0.06867343 -0.24384628
-0.13174203 -0.089902796 0.09068779 0.40931156 -0.5800898 -0.512653 0.592678 -0.38370815
0.12574634 0.59101623 0.042726632 -0.15825728 0.47772574 0.41681716 -0.07005375 0.30121127
0.091499135 -0.24561642 -0.47447145 -0.46568617 -0.23786905 -0.13461408 0.13472079 -0.29548886
-0.2883197 0.055064533 0.21281737 0.10220375 -0.039969046 0.2594649 -0.54146653 0.5342061
-0.32069844 -0.049514223 0.5022032 0.19777521 0.5823016 -0.21803321 0.14905092 -0.07886919
0.38346484 -0.3883862 0.11945489 0.11354663 0.35473585 -0.114303365 -0.25316277 -0.020563502
-0.37297788 -0.40692094 -0.40381473 -0.40012026 0.3556923 0.49690285 -0.19857296 0.51583
0.5956992 0.005611328 -0.6000061 -0.31022066 0.011937123 0.2578461 0.49704152 -0.19291249
-0.06887034 0.09600304 -0.22242558 -0.34105855 0.11653257 0.5272757 -0.45618594 0.12879893
0.31183577 -0.017267754 0.20534533 -0.45184785 0.4768798 0.15403362 -0.3344645 -0.6007364
-0.28407508 0.58835536 -0.073611595 0.54062647 0.4405975 0.35059252 0.18434553 0.15525086
0.24041873 0.06104031 0.48219532 -0.14106858 -0.2465784 -0.5224586 0.039659854 0.502829
-0.5247551 -0.04278198 0.17708328 0.23686628 -0.31292456 0.13184336 -0.28149483 -0.33333787
0.067150615 -0.55639327 -0.06200642 0.47146854 -0.14968812 0.22262156 0.5740304 -0.2733173
0.6075998 -0.50313425 -0.33680966 0.36593074 0.56705374 -0.19505695 -0.16648471 -0.45480198
-0.49858266 -0.57698184 0.5498803 -0.4206673 0.10546061 0.29707888 0.6114116 -0.50905955
-0.01762697 -0.3343029 -0.37052447 0.13476542 0.15740313 -0.026860747 0.50922555 0.34129873
0.42821017 0.2701074 0.44412932 -0.3551682 0.41846144 -0.35100266 0.085702285 0.4680926
0.2989476 0.46970737 0.0043045394 0.13636917 -0.18568368 -0.2886662 -0.17127407 -0.37852517
0.2847282 -0.20412783 -0.58267456 0.41638407 -0.44674167 0.48170617 -0.57703745 0.31472316
-0.50149333 -0.53085005 0.22417139 0.4284902 -0.58247024 0.37033552 -0.5541996 -0.35486448
0.24813801 0.028831718 0.1476384 -0.27437618 0.31037116 0.5081156 0.29170984 -0.37689695
-0.47367042 -0.47043023 0.34481052 0.45524803 0.28020543 -0.0786644 -0.39369297 -0.31986362
0.54475766 -0.021401063 0.44497967 0.49836835 -0.04396209 -0.3569225 -0.5829625 -0.26327002
-0.17774189 -0.23414868 -0.24892831 0.21399678 -0.16666341 0.18021333 -0.6232842 -0.1610111
0.38964403 -0.50446975 -0.082327515 -0.2455302 0.0065785004 -0.10828894 0.33035815 0.19933486
0.2428885 -0.20703559 0.18990673 0.06306554 0.49288762 -0.18672092 0.14695501 0.6069241
0.033853043 -0.04193886 -0.2952087 0.08721358 0.21407978 -0.38599917 -0.3435707 -0.5304582
0.09081315 0.5884879 0.23309411 0.10839463 0.46321622 -0.37053907 0.5583119 0.4550043
0.096298285 -0.07848101 0.33219987 0.52425134 0.27823693 -0.08237984 0.24238124 0.3445653
00000000: 1052 4fbe 2470 1e3f 4ad7 02bf ae6a 78be
00000010: 94ea 743c 883d d7be 4108 e53d e4c2 d53e
00000020: 1932 acbd 555f e2be c420 90be 7dd9 8f3d
00000030: f006 183f ec33 bfbe a8a4 8c3d d7b2 79be
00000040: 62e7 06be f51e b8bd 85ba b93d 4991 d13e
00000050: c480 14bf 3a3d 03bf bfb9 173f 6575 c4be
00000060: a6c3 003e d74c 173f 1f02 2f3d 320e 22be
00000070: 7898 f43e 0f69 d53e 5778 8fbd 5d38 9a3e
00000080: e663 bb3d df82 7bbe eced f2be 6b6e eebe
00000090: f293 73be 46d8 09be 3ff4 093e 514a 97be
000000a0: a49e 93be 598b 613d ccec 593e 3350 d13d
000000b0: 95b6 23bd 95d8 843e 8d9d 0abf bbc1 083f
000000c0: 9632 a4be 6dcf 4abd 6490 003f 9685 4a3e
000000d0: b811 153f 1944 5fbe cea0 183e 2b86 a1bd
000000e0: 8155 c43e 8eda c6be c4a4 f43d 238b e83d
000000f0: f09f b53e e217 eabd 8d9e 81be ca74 a8bc
00000100: f5f6 bebe f157 d0be cec0 cebe 90dc ccbe
00000110: 4d1d b63e 0d6a fe3e b656 4bbe 6f0d 043f
00000120: be7f 183f 3bdf b73b 009a 19bf 3ed5 9ebe
00000130: ec93 433c 6704 843e 3a7c fe3e da8a 45be
00000140: e50b 8dbd 3e9d c43d 88c3 63be 3a9f aebe
00000150: a1a8 ee3d 8afb 063f 3491 e9be dee3 033e
00000160: f0a8 9f3e 1b75 8dbc 0c46 523e 9a58 e7be
00000170: 9729 f43e fdba 1d3e ee3e abbe dcc9 19bf
00000180: 4a72 91be 759e 163f adc1 96bd 7f66 0a3f
00000190: ff95 e13e dd80 b33e 13c5 3c3e 15fa 1e3e
000001a0: 5430 763e 6705 7a3d 4ee2 f63e 4874 10be
000001b0: 0c7f 7cbe d9bf 05bf 5f72 223d 67b9 003f
000001c0: 5a56 06bf 283c 2fbd 5255 353e 138d 723e
000001d0: a637 a0be f201 073e 1720 90be 43ab aabe
000001e0: 4386 893d ca6f 0ebf 72fa 7dbd 5364 f13e
000001f0: d847 19be e8f6 633e a8f3 123f 3ff0 8bbe
00000200: a98b 1b3f 68cd 00bf 5172 acbe 465b bb3e
00000210: 6f2a 113f 02bd 47be f87a 2abe cedb e8be
00000220: 3a46 ffbe 15b5 13bf f5c4 0c3f b461 d7be
00000230: bbfb d73d b91a 983e 7885 1c3f ba51 02bf
00000240: 6f66 90bc c029 abbe 62b5 bdbe f2ff 093e
00000250: 492e 213e 120b dcbc 9b5c 023f b5be ae3e
00000260: 5d3e db3e 844b 8a3e eb64 e33e 9bd8 b5be
00000270: 9440 d63e 9fb6 b3be ae84 af3d d5a9 ef3e
00000280: a90f 993e 7c7d f03e 180d 8d3b 5ca4 0b3e
00000290: dd23 3ebe 0ecc 93be 7862 2fbe 0dce c1be
000002a0: e5c7 913e e306 51be 292a 15bf 4b30 d53e
000002b0: 53bb e4be 31a2 f63e bab8 13bf 6523 a13e
000002c0: de61 00bf cae5 07bf 2f8d 653e 1163 db3e
000002d0: c51c 15bf 9e9c bd3e 06e0 0dbf ccb0 b5be
000002e0: e417 7e3e 7f30 ec3c 852e 173e 097b 8cbe
000002f0: f8e8 9e3e dd13 023f fe5a 953e a3f8 c0be
00000300: ee84 f2be 3bdc f0be 018b b03e 4516 e93e
00000310: 1677 8f3e cd1a a1bd 2092 c9be 2ac5 a3be
00000320: 3d75 0b3f 4851 afbc 60d4 e33e 232a ff3e
00000330: 9811 34bd 8cbe b6be 083d 15bf 54cb 86be
00000340: f801 36be acc4 6fbe 10e7 7ebe f921 5b3e
00000350: d0a9 2abe d889 383e 8e8f 1fbf 18e0 24be
00000360: 6c7f c73e ee24 01bf 549b a8bd 456c 7bbe
00000370: 7690 d73b 97c6 ddbd b424 a93e 701e 4c3e
00000380: c3b7 783e 2301 54be e976 423e 8128 813d
00000390: c45b fc3e c533 3fbe 607b 163e 615f 1b3f
000003a0: 7da9 0a3d 15c8 2bbd 9825 97be 099d b23d
000003b0: bb37 5b3e afa1 c5be 80e8 afbe 1ccc 07bf
000003c0: 3ffc b93d 25a7 163f 39b0 6e3e 01fe dd3d
000003d0: ad2a ed3e 4cb7 bdbe 87ed 0e3f 53f6 e83e
000003e0: 0938 c53d a7ba a0bd 1a16 aa3e 5635 063f
000003f0: 1275 8e3e c3b6 a8bd ca32 783e dd6a b03e

encoder.layers.0.attention.w_v.bias f4 [16]
-0.03395714 0.10855965 -0.24654879 0.13158755 -0.05533498 -0.19437265 0.061271098 0.09380265
0.19244063 -0.14454903 -0.122650534 0.061457284 0.055867855 0.095098436 0.11538269 -0.06782845
00000000: a416 0bbd 8654 de3d 4977 7cbe e3be 063e
00000010: efa6 62bd a009 47be 67f7 7a3d 9b1b c03d
00000020: 280f 453e a904 14be 3430 fbbd a2ba 7b3d
00000030: b1d5 643d f8c2 c23d c34d ec3d a4e9 8abd

encoder.layers.0.attention.w_concat.weight f4 [16, 16]
-0.22972465 -0.23003682 0.13209479 -0.32301337 -0.4777895 -0.3278191 -0.35019356 -0.5327152
-0.35968077 0.28344524 0.54871994 -0.37485224 -0.0723533 -0.5232975 -0.03407238 0.5079602
-0.29726827 0.2592179 0.50768507 0.18917443 -0.23198308 -0.0999307 -0.4572673 0.19226536
0.14458536 -0.42970288 0.50605947 0.017746959 -0.53324294 0.16395085 -0.44037712 0.24519466
0.2870034 -0.07639507 -0.174676 -0.023621531 -0.3429049 0.12604764 0.17619969 0.33204502
-0.20916331 -0.28710586 0.10689275 -0.5450595 -0.49526995 0.2327756 -0.4279935 -0.17757297
0.44344568 0.48586544 0.26157185 -0.10590651 -0.09718616 -0.37784156 -0.528305 -0.01865235
0.27192056 -0.09739355 -0.16451928 0.40279818 -0.047127005 -0.3031297 -0.39738235 -0.24206835
-0.32677653 0.11236574 -0.2262542 0.42386118 -0.34947598 -0.09487022 0.58196074 -0.16037855
-0.0016303677 0.34259337 -0.20265086 0.5150895 -0.1363606 0.4784136 0.49718022 0.026376706
0.37239033 0.22969693 -0.019436905 0.45162886 0.37250438 -0.34254676 -0.2716884 -0.56890213
-0.07683206 -0.10794047 -0.2734405 -0.08562404 -0.27322128 -0.51719904 0.45630622 -0.3188861
0.06841806 -0.42845756 0.06379182 0.21273808 -0.46838626 -0.45814654 -0.5752651 0.14299716
0.2902248 -0.30717224 0.07379478 -0.23106389 -0.48242474 0.12785283 -0.41152388 0.2715423
-0.4400308 -0.5635253 0.60515857 0.4447983 0.046115268 0.51106614 -0.08455653 0.5018913
-0.5770776 0.50604105 0.44455028 -0.10145255 0.16972427 -0.16787478 0.23026688 0.38251674
0.4035896 0.41070935 0.29075068 0.0003532005 -0.5344307 -0.4471171 -0.6225228 -0.41935918
0.37133095 0.08667383 0.26647377 -0.3357712 0.48789567 -0.042256992 -0.3493405 -0.07445569
0.25794035 -0.5021259 0.15078822 0.32566494 -0.18986656 -0.10487863 0.3878562 -0.4275867
0.4355942 0.5126602 0.36347204 -0.16474691 -0.28464824 0.5772828 -0.21829696 -0.4518381
-0.4683554 0.27169356 -0.31955218 0.3604444 0.35186145 -0.0017244996 -0.09914213 -0.3076987
-0.32935017 0.1897459 0.33291438 0.49402365 0.31096894 -0.16575645 -0.08206998 -0.0038507804
-0.12582453 -0.46520028 0.44622642 0.32467428 0.50031406 -0.39335552 0.19887793 -0.08479746
0.13266572 0.27854612 0.07033615 0.05951835 -0.03494024 -0.59998155 0.02767606 -0.55657303
-0.08780539 -0.44175428 0.17573926 0.4866212 0.09554052 -0.4283176 0.50230616 -0.32032025
-0.13712141 -0.21060134 0.1341091 -0.5388233 -0.557611 -0.45932516 -0.34297884 0.5349714
0.048687335 -0.48421207 -0.05034449 -0.45341888 0.40631622 0.10101481 0.44989204 0.39120764
0.5549197 0.20711195 -0.31778908 0.41199237 0.25145045 0.5816627 0.16527736 0.43109292
0.56515104 0.43968803 -0.43297887 -0.34169266 0.11718696 -0.21152434 0.3452689 0.518529
0.014548365 -0.042223413 0.5174451 0.34849414 0.20162998 0.5568751 -0.22585827 0.21122025
-0.30110893 -0.34853023 0.03955423 -0.14572264 -0.28503287 0.069305524 -0.44399086 0.4784275
0.07560123 -0.3155552 0.02159859 -0.27168396 0.4645124 -0.05060726 -0.0042205807 0.5951215
00000000: f03c 6bbe c68e 6bbe db43 073e 0262 a5be
00000010: d3a0 f4be e8d7 a7be 924c b3be 0660 08bf
00000020: 1428 b8be bc1f 913e e978 0c3f a2ec bfbe
00000030: f82d 94bd d3f6 05bf 7b8f 0bbd ae09 023f
00000040: 8c33 98be 35b8 843e a6f7 013f f1b6 413e
00000050: f98c 6dbe 78a8 ccbd f11e eabe 36e1 443e
00000060: 2f0e 143e 0402 dcbe 1d8d 013f 1262 913c
00000070: 9c82 08bf bbe2 273e 1c79 e1be 4f14 7b3e
00000080: 1cf2 923e 0575 9cbd 44de 32be f181 c1bc
00000090: 3b91 afbe a212 013e b16d 343e ce01 aa3e
000000a0: e82e 56be 8aff 92be 96ea da3d 0589 0bbf
000000b0: 0694 fdbe ba5c 6e3e f721 dbbe b0d5 35be
000000c0: 500b e33e 5bc3 f83e bfec 853e 83e5 d8bd
000000d0: 8a09 c7bd 7374 c1be ff3e 07bf d0cc 98bc
000000e0: 2c39 8b3e 4576 c7bd be77 28be 903b ce3e
000000f0: 3f08 41bd d133 9bbe b375 cbbe c4e0 77be
00000100: 414f a7be 0220 e63d 2eaf 67be 5504 d93e
00000110: 84ee b2be 514b c2bd 61fb 143f 463a 24be
00000120: 10b2 d5ba 6668 af3e b583 4fbe e8dc 033f
00000130: 1da2 0bbe a1f2 f43e 688e fe3e f613 d83c
00000140: f2a9 be3e ac35 6b3e 253a 9fbc e63b e73e
00000150: e5b8 be3e 4a62 afbe be1a 8bbe 92a3 11bf
00000160: 215a 9dbd e50f ddbd 6500 8cbe a85b afbd
00000170: a9e3 8bbe 2867 04bf f8a0 e93e 0a45 a3be
00000180: c51e 8c3d ca5e dbbe 49a5 823d 03d8 593e
00000190: 53d0 efbe 2f92 eabe 9344 13bf d96d 123e
000001a0: 5898 943e ae45 9dbe b821 973d 039c 6cbe
000001b0: 6000 f7be daeb 023e 42b3 d2be 9807 8b3e
000001c0: b84b e1be 3243 10bf aceb 1a3f 9abc e33e
000001d0: 5de3 3c3d 3bd5 023f f92b adbd f37b 003f
000001e0: 5cbb 13bf e88b 013f 189c e33e 5bc6 cfbd
000001f0: 33cc 2d3e 5ee7 2bbe 15cb 6b3e 3cd9 c33e
00000200: 4ca3 ce3e 7f48 d23e 46dd 943e c52d b939
00000210: 73d0 08bf 88ec e4be a75d 1fbf 3fb6 d6be
00000220: 171f be3e 0d82 b13d 406f 883e 34ea abbe
00000230: 76cd f93e ab15 2dbd c2dc b2be 3a7c 98bd
00000240: c210 843e 538b 00bf 3a68 1a3e 8ebd a63e
00000250: 616c 42be 9bca d6bd 1695 c63e a5ec dabe
00000260: 3406 df3e b33d 033f 0219 ba3e 6ab3 28be
00000270: 6abd 91be cec8 133f 3d89 5fbe 5357 e7be
00000280: 47cc efbe 6b1b 8b3e 589c a3be 2b8c b83e
00000290: 2f27 b43e 9b08 e2ba 070b cbbd af8a 9dbe
000002a0: 96a0 a8be c04c 423e c173 aa3e abf0 fc3e
000002b0: 5237 9f3e 0fbc 29be 4e14 a8bd 605d 7cbb
000002c0: 25d8 00be bb2e eebe ca77 e43e b53b a63e
000002d0: 9514 003f e565 c9be a8a6 4b3e 4aaa adbd
000002e0: 86d9 073e 999d 8e3e 660c 903d 83c9 733d
000002f0: 7f1d 0fbd 6498 19bf e8b8 e23c 927b 0ebf
00000300: 50d3 b3bd 9e2d e2be fef4 333e 6a26 f93e
00000310: c0aa c33d 724c dbbe 2397 003f 0401 a4be
00000320: 8e69 0cbe e1a7 57be e553 093e 53f0 09bf
00000330: 98bf 0ebf ab2c ebbe ec9a afbe e3f3 083f
00000340: 5f6c 473d a5ea f7be 0636 4ebd 8526 e8be
00000350: ae08 d03e dae0 ce3d 4058 e63e 5e4c c83e
00000360: 380f 0e3f 2815 543e 40b5 a2be aaf0 d23e
00000370: 1dbe 803e d9e7 143f 783e 293e 36b8 dc3e
00000380: bdad 103f ca1e e13e 68af ddbe 57f2 aebe
00000390: b8ff ef3d d699 58be 16c7 b03e 51be 043f
000003a0: 445c 6e3c 75f2 2cbd 4877 043f d36d b23e
000003b0: 1778 4e3e 5e8f 0e3f 6447 67be 1f4a 583e
000003c0: f32a 9abe 8e72 b2be 9e03 223d 5138 15be
000003d0: d4ef 91be 0ef0 8d3d c552 e3be 73f4 f43e
000003e0: d1d4 9a3d 7490 a1be 87ef b03c 291a 8bbe
000003f0: 92d4 ed3e 8f49 4fbd cc4c 8abb e259 183f

encoder.layers.0.attention.w_concat.bias f4 [16]
0.003965806 0.087271824 -0.061391637 0.10149264 -0.08130533 -0.0030385877 -0.21468037 -0.085774
-0.13541876 -0.076825514 -0.12184267 -0.20406158 0.032093022 0.1578371 0.23448826 0.11691276
00000000: 98f3 813b 92bb b23d cc75 7bbd 60db cf3d
00000010: 6983 a6bd 0b23 47bb 2cd5 5bbe 47aa afbd
00000020: 37ab 0abe b256 9dbd a688 f9bd 85f5 50be
00000030: f973 033d 0ca0 213e b11d 703e f56f ef3d

encoder.layers.0.norm1.gamma f4 [16]
0.9982049 0.9588039 0.99560106 0.9819207 0.9873119 0.9819965 1.0186487 1.0132316
0.99906206 1.0067471 1.0184085 0.9755924 0.9808014 0.9704661 1.0218629 0.99331886
00000000: 5b8a 7f3f 2c74 753f b6df 7e3f 285f 7b3f
00000010: 79c0 7c3f 1f64 7b3f 1563 823f 93b1 813f
00000020: 88c2 7f3f 17dd 803f 365b 823f 6cc0 793f
00000030: cd15 7b3f 7770 783f 67cc 823f 254a 7e3f

encoder.layers.0.norm1.beta f4 [16]
0.0073339758 -0.0074737193 -0.018975925 0.01199023 -0.011862427 0.00020850668 0.002409499 0.006972602
-0.025360188 -0.010431723 0.0010028175 0.02174046 -0.010815255 0.0025914758 -0.0032004856 -0.003326741
00000000: d951 f03b 1ae6 f4bb 6673 9bbc ab72 443c
00000010: a05a 42bc 96a2 5a39 afe8 1d3b 6d7a e43b
00000020: 2bc0 cfbc d1e9 2abc f970 833a 0d19 b23c
00000030: 7832 31bc c0d5 293b 3dbf 51bb 7405 5abb

encoder.layers.0.ffn.linear1.weight f4 [64, 16]
-0.3096932 0.094650306 -0.071161665 0.07815118 -0.4861017 0.502349 0.076214425 -0.5625032
0.05505759 0.5359283 -0.26379964 0.29769886 0.46576515 0.020739269 0.16639814 0.55232865
-0.19676901 -0.2151965 0.36277345 0.15444869 0.17957093 0.07450509 0.42510957 -0.56610346
-0.02618719 -0.114391275 0.04607373 0.18498658 0.46658677 0.22452824 -0.20820959 0.32029408
-0.55484384 -0.17269392 0.29403192 -0.43235072 0.56655735 0.51866263 -0.18761356 0.1942063
-0.022592572 0.27308783 -0.5523095 0.53560144 -0.3496172 -0.38191554 0.27774486 0.118429475
0.14427513 0.032151237 -0.5755805 0.1655234 0.15056115 0.48715982 0.2824369 -0.05398573
-0.30786675 0.45232058 0.15105668 0.16166829 0.14993615 0.49957412 0.23139183 -0.59608054
0.30445817 -0.0286019 -0.46178663 0.28122556 -0.20520744 -0.27326727 -0.4895718 0.11583565
0.37706432 -0.25856394 0.0760756 -0.16273361 0.5365891 -0.14572819 0.03241862 -0.1480741
-0.26092345 0.22074386 0.52225035 -0.45808706 0.5629193 -0.36597794 0.19478317 0.36201558
-0.1264493 0.46166113 0.45438886 -0.02888866 -0.20524953 0.49198455 -0.38364354 -0.1619157
0.591444 0.382878 -0.30046287 -0.3801068 -0.0006125285 0.12419776 -0.03800406 0.27404118
0.02805874 -0.33229724 0.38717127 0.22195654 -0.28882954 -0.22277988 0.3952212 0.2571041
0.08092101 0.00041821453 0.2405268 0.01618594 -0.5608521 0.27676022 -0.31931153 0.049402647
-0.07977329 -0.58553284 0.036937203 -0.1876117 -0.05261713 -0.3901247 0.14698489 -0.3697807
-0.50587827 0.37180096 0.34287915 -0.4151608 -0.49067616 0.48735696 0.11146803 -0.29545978
-0.35961998 0.08796311 -0.48644295 -0.15770832 -0.5294155 -0.50392526 -0.0760377 -0.27081588
0.054732528 -0.36941174 0.5730573 -0.08920973 0.22210334 0.49459657 0.10256154 0.5707974
-0.019456701 0.6111982 0.49134108 0.049148593 0.28539497 -0.34149903 0.14952148 -0.1161432
0.21714805 0.31087872 0.057964247 -0.23850797 0.53039795 -0.3649424 0.55307 -0.12670316
-0.28163153 -0.075584054 -0.25514558 -0.26642585 0.20121858 0.38563612 -0.1689212 0.045982037
-0.09323145 0.057491176 -0.28009668 -0.2862419 0.15160033 0.037361957 -0.05580566 0.45975634
-0.5957859 -0.50694954 -0.5500652 0.5722741 -0.5059209 0.3875557 -0.5496138 0.093856886
-0.08777997 -0.22121118 0.2332691 -0.098250024 0.39079803 0.5034426 -0.46203595 -0.5494535
-0.5566689 -0.16981944 0.14455855 0.028001256 -0.24540304 0.25330344 0.0038571616 -0.560193
-0.46892175 0.47013062 -0.2120394 0.38948882 0.40491366 0.2542246 0.3186274 0.22574064
-0.08758539 -0.17928566 0.099505 -0.40139985 -0.29862422 -0.5735831 0.05926949 0.3924516
0.3304009 0.14928745 -0.020695627 0.04651302 0.02886956 0.4415864 0.2061903 0.49208948
-0.10487267 0.24501753 -0.08421805 0.35405573 -0.5262681 -0.06820628 -0.37835607 0.0077384026
-0.48182556 -0.26474416 -0.14597595 -0.20261183 0.5244315 0.06987447 -0.23424748 -0.30445752
0.06527058 0.20171355 0.30564255 0.43330854 0.2053762 0.10022538 -0.2954149 0.36128062
00000000: 1b90 9ebe 05d8 c13d 35bd 91bd ba0d a03d
00000010: 52e2 f8be f299 003f 4f16 9c3d 3600 10bf
00000020: 1184 613d 9932 093f bf10 87be fc6b 983e
00000030: c578 ee3e 66e5 a93c 4664 2a3e 6965 0d3f
00000040: d17d 49be 795c 5cbe 71bd b93e cc27 1e3e
00000050: 71e1 373e 2096 983d f6a7 d93e 28ec 10bf
00000060: 8586 d6bc f945 eabd cfb7 3c3d 1f6d 3d3e
00000070: 76e4 ee3e bbea 653e e534 55be 96fd a33e
00000080: 3f0a 0ebf add6 30be 5a8b 963e 135d ddbe
00000090: e709 113f 13c7 043f c51d 40be 04de 463e
000000a0: 0f14 b9bc 2bd2 8b3e 2864 0dbf 2d1d 093f
000000b0: 0701 b3be 6f8a c3be 9334 8e3e 278b f23d
000000c0: dcbc 133e 04b1 033d 3e59 13bf f77e 293e
000000d0: b42c 1a3e 036d f93e 929b 903e 2420 5dbd
000000e0: b6a0 9dbe 9096 e73e 9aae 1a3e 5f8c 253e
000000f0: dd88 193e 2ec8 ff3e fbf1 6c3e bc98 18bf
00000100: f1e1 9b3e 884e eabc 4c6f ecbe ccfc 8f3e
00000110: e621 52be b0e9 8bbe 28a9 fabe 3e3b ed3d
00000120: 930e c13e 7e62 84be 86cd 9b3d a4a3 26be
00000130: e75d 093f c539 15be 63c9 043d bda0 17be
00000140: c297 85be ae0a 623e 33b2 053f 638a eabe
00000150: 7b1b 103f 7661 bbbe 3d75 473e 1b5a b93e
00000160: ed7b 01be d95e ec3e a8a5 e83e e9a7 ecbc
00000170: ef2c 52be 66e5 fb3e ed6c c4be 3bcd 25be
00000180: e068 173f 9608 c43e 45d6 99be 5c9d c2be
00000190: 1892 20ba 655b fe3d 25aa 1bbd 204f 8c3e
000001a0: 71db e53c dd22 aabe 503b c63e 9348 633e
000001b0: 77e1 93be 6920 64be 6f5a ca3e 26a3 833e
000001c0: eab9 a53d ce43 db39 a84c 763e 6098 843c
000001d0: 0194 0fbf 84b3 8d3e cd7c a3be 6e5a 4a3d
000001e0: 2e60 a3bd 7be5 15bf 774b 173d 481d 40be
000001f0: 0f85 57bd 6dbe c7be 3583 163e e553 bdbe
00000200: 3d81 01bf b25c be3e db8d af3e f58f d4be
00000210: e839 fbbe da86 f93e 5a49 e43d 8146 97be
00000220: 1c20 b8be 0126 b43d 0d0f f9be 4a7e 21be
00000230: c687 07bf 3f01 01bf a7b9 9bbd 61a8 8abe
00000240: 372f 603d 8923 bdbe e2b3 123f 97b3 b6bd
00000250: 0f6f 633e c33b fd3e c90b d23d c71f 123f
00000260: a963 9fbc 7c77 1c3f 0f91 fb3e 0950 493d
00000270: 4a1f 923e f6d8 aebe 291c 193e 7cdc edbd
00000280: 0f5c 5e3e 7f2b 9f3e eb6b 6d3d 6f3b 74be
00000290: 29c8 073f bbd9 babe ff95 0d3f 79be 01be
000002a0: 0232 90be d0cb 9abd 71a2 82be f868 88be
000002b0: 3e0c 4e3e 1972 c53e aef9 2cbe a957 3c3d
000002c0: 21f0 bebd de7b 6b3d d568 8fbe 4c8e 92be
000002d0: 1e3d 1b3e da08 193d 7a94 64bd 2f65 eb3e
000002e0: 6d85 18bf 72c7 01bf 13d1 0cbf 8e80 123f
000002f0: 0884 01bf b36d c63e 7db3 0cbf 0a38 c03d
00000300: fcc5 b3bd 2f85 62be 18de 6e3e 4f37 c9bd
00000310: ae16 c83e 9de1 003f fa8f ecbe fca8 0cbf
00000320: da81 0ebf 26e5 2dbe 2807 143e e462 e53c
00000330: ef4a 7bbe fdb0 813e 6fc8 7c3b cf68 0fbf
00000340: 8316 f0be f6b4 f03e db20 59be 146b c73e
00000350: d850 cf3e ba29 823e 2123 a33e 8e28 673e
00000360: f85f b3bd a996 37be 47c9 cb3d 4884 cdbe
00000370: 46e5 98be 58d6 12bf 91c4 723d 6bef c83e
00000380: 4f2a a93e cfde 183e e089 a9bc 7084 3e3d
00000390: db7f ec3c 9d17 e23e 8d23 533e 27f3 fb3e
000003a0: 7bc7 d6bd e0e5 7a3e 837a acbd cb46 b53e
000003b0: 82b9 06bf bcaf 8bbd e3b7 c1be 6d92 fd3b
000003c0: d7b1 f6be 8c8c 87be b87a 15be 7a79 4fbe
000003d0: 2541 063f 591a 8f3d 92de 6fbe dbe1 9bbe
000003e0: 95ac 853d ff8d 4e3e 2e7d 9c3e 9eda dd3e
000003f0: 234e 523e f742 cd3d 9f40 97be c6f9 b83e

encoder.layers.0.ffn.linear1.bias f4 [64]
-0.04308712 0.075818546 0.18835978 0.08142054 0.17016573 0.16040176 0.08020578 0.07625403
0.057079487 -0.0039681694 0.2006569 0.24155927 0.07256618 -0.018884605 0.23088065 -0.1799954
0.18577352 0.11942989 0.16807298 -0.020172037 -0.20743947 0.17533176 -0.10249656 0.06112317
0.12731962 -0.21878743 0.019663475 -0.07216567 0.17542306 -0.16602942 0.16410841 0.15467894
0.12918025 0.24172854 0.035615154 -0.2288627 0.1881178 0.022953663 0.0023522084 -0.21789888
-0.05966633 -0.11254579 0.20918699 0.16254085 0.18910503 0.16105884 -0.16115315 -0.12738958
-0.06904093 -0.085235655 0.17997679 0.0788994 0.18968935 -0.0005172616 -0.2248026 -0.08735627
0.15496567 0.1395588 0.067232504 -0.070853524 -0.23362893 -0.111117914 0.12997589 -0.10788141
00000000: 1f7c 30bd c146 9b3d 63e1 403e d0bf a63d
00000010: ed3f 2e3e 5c40 243e ee42 a43d 132b 9c3d
00000020: 2ecc 693d 6b07 82bb 0179 4d3e 505b 773e
00000030: 949d 943d e3b3 9abc fa6b 6c3e b750 38be
00000040: 6a3b 3e3e a897 f43d 531b 2c3e d43f a5bc
00000050: 036b 54be 2b8a 333e b7e9 d1bd 4a5c 7a3d
00000060: 1360 023e d009 60be 4c15 a13c 98cb 93bd
00000070: 1aa2 333e 9e03 2abe 090c 283e 2864 1e3e
00000080: d447 043e b087 773e 32e1 113d fc5a 6abe
00000090: f4a1 403e 5209 bc3c 8227 1a3b e220 5fbe
000000a0: af64 74bd 687e e6bd 1d35 563e 1c71 263e
000000b0: c0a4 413e 9cec 243e 5505 25be 6a72 02be
000000c0: 5565 8dbd 0890 aebd d64b 383e 0296 a13d
000000d0: ed3d 423e d798 07ba a732 66be d8e7 b2bd
000000e0: 52af 1e3e 81e8 0e3e 32b1 893d a71b 91bd
000000f0: 6c3c 6fbe ca91 e3bd 6618 053e eef0 dcbd

encoder.layers.0.ffn.linear2.weight f4 [16, 64]
-0.074619226 -0.10499675 -0.11059962 -0.080003776 0.08738194 -0.06396203 -0.1510098 0.19797078
-0.11855242 0.26789063 0.16430926 0.295759 0.20962477 0.13727222 -0.164247 -0.24995674
-0.23045264 0.10129266 -0.24956201 -0.018007668 0.24285251 -0.07170586 -0.087141626 -0.15080185
0.02983419 -0.119748786 0.070325546 -0.24102053 -0.063188866 0.17127855 -0.10226566 0.08332927
-0.22209659 0.0025876937 -0.3039787 -0.3006168 -0.081772834 -0.04528771 0.15321551 0.28502458
-0.23833507 0.09589322 -0.11089999 -0.13188787 0.1926593 0.11041318 0.0115435375 0.10873892
-0.026921049 -0.29154328 -0.27211154 -0.099467106 -0.27284506 0.19931085 -0.056227356 -0.24693175
-0.03560127 -0.1456085 -0.12377482 0.20223062 0.009623605 0.22797553 -0.24110891 0.1767086
-0.0280023 -0.22175397 -0.0778698 0.2239419 -0.20459415 -0.08458036 0.09587151 0.232615
0.042699415 0.09039782 -0.19158624 0.1387772 0.032429494 -0.12077801 0.24035032 0.23493463
0.09095525 -0.1861328 0.24972883 0.041190926 -0.096039206 -0.107501574 -0.09868518 -0.20349312
-0.10469217 0.25052246 0.19898736 0.13877136 -0.18040268 0.1303918 0.056185868 0.037647717
0.09452169 -0.1948507 0.0665769 0.06908375 -0.25897318 -0.005584704 0.05918729 -0.064617164
-0.07505936 -0.0055242935 0.23858137 -0.07883058 -0.24038838 -0.055412993 -0.15470421 0.09031503
0.0833635 -0.25042844 0.05486668 0.21889423 0.2438864 -0.03143263 -0.050216187 -0.2836275
-0.27769706 0.21652906 -0.056884363 0.14450331 0.103139 -0.16868292 -0.26641628 0.25598904
-0.20281763 0.07573106 0.06236267 0.08102499 0.1695914 -0.14303353 -0.24849266 -0.13236453
-0.25130194 0.11347272 -0.19044466 -0.18834338 -0.2689885 0.10957218 -0.23433046 -0.08135058
-0.017103115 0.22842449 0.008628608 -0.005548839 0.013993953 0.17238005 -0.103985704 -0.25463635
0.21183597 0.19481371 0.227057 0.094829 -0.2944805 0.10503098 -0.117225714 -0.116528764
0.22041996 0.21169344 0.24117365 0.110041395 0.30042058 -0.24881597 -0.27906838 0.15691145
0.19320095 -0.09741936 -0.011474868 0.21399255 -0.24486044 -0.29468355 -0.06918956 0.1478606
0.20210822 -0.15046224 -0.1527786 0.11573335 0.27700454 -0.04056009 -0.15359673 -0.124631606
-0.17173654 -0.21645921 0.15008914 -0.016720582 0.06713978 0.11381871 0.20774597 -0.04234205
0.20231639 0.061814178 0.21158475 -0.134526 -0.1206798 0.06752568 0.1895885 -0.05398747
-0.24781653 -0.29238 -0.011368913 -0.0677899 -0.086188525 -0.14021668 0.0016211153 -0.15002473
0.09437301 -0.1982942 0.060529597 0.09794409 0.0049740872 0.24291646 0.14802374 0.20979555
-0.1638614 0.008428187 0.19509636 -0.1662237 -0.12055285 0.05667922 -0.17285927 -0.09711517
-0.016328651 0.287492 -0.13108414 -0.29429638 0.20294015 0.18511224 -0.052378573 0.0082551455
-0.28971717 -0.033467814 0.16444527 -0.19583641 -0.0655822 -0.20897412 -0.23204854 -0.21343443
0.10663836 0.052624274 0.079253525 0.07880563 0.27899238 0.06545687 0.18774918 -0.2085253
0.23477782 -0.017517908 -0.010317082 0.2941286 0.18145505 0.14714701 0.29577163 -0.02817793
00000000: f7d1 98bd 8908 d7bd 0e82 e2bd 05d9 a3bd
00000010: 4df5 b23d 86fe 82bd 50a2 1abe dab8 4a3e
00000020: 9ccb f2bd f628 893e b040 283e b96d 973e
00000030: e0a7 563e 1791 0c3e 5e30 28be a9f4 7fbe
00000040: c7fb 6bbe 8772 cf3d 2f8d 7fbe d184 93bc
00000050: 54ae 783e 86da 92bd 4f77 b2bd cd6b 1abe
00000060: d566 f43c da3e f5bd d706 903d 16ce 76be
00000070: 2a69 81bd a563 2f3e a970 d1bd 89a8 aa3d
00000080: 4a6d 63be 4c96 293b 19a3 9bbe 72ea 99be
00000090: 8478 a7bd 9b7f 39bd 87e4 1c3e beee 913e
000000a0: 1c0e 74be aa63 c43d 891f e3bd 9d0d 07be
000000b0: 7b48 453e 4e20 e23d 1b21 3d3c 83b2 de3d
000000c0: 8889 dcbc 2945 95be 3452 8bbe 69b5 cbbd
000000d0: 59b2 8bbe 2518 4c3e a84e 66bd addb 7cbe
000000e0: a3d2 11bd 651a 15be a77d fdbd 8b15 4f3e
000000f0: 53ac 1d3c 6b72 693e 41e5 76be 19f3 343e
00000100: 1465 e5bc 7913 63be 347a 9fbd 0751 653e
00000110: 2181 51be 7838 adbd 4858 c43d a032 6e3e
00000120: 95e5 2e3d 7e22 b93d 2f2f 44be 9c1b 0e3e
00000130: cad4 043d 765a f7bd 651e 763e b492 703e
00000140: bf46 ba3d 9999 3ebe eab8 7f3e d1b7 283d
00000150: 34b0 c4bd c929 dcbd 751b cabd 8060 50be
00000160: d968 d6bd 7b44 803e 58c3 4b3e 141a 0e3e
00000170: 7bbb 38be 6e85 053e 2723 663d 7e34 1a3d
00000180: 9694 c13d f186 47be 7859 883d c87b 8d3d
00000190: 2298 84be e5ff b6bb 5f6e 723d 0156 84bd
000001a0: b9b8 99bd 2205 b5bb ad4e 743e ed71 a1bd
000001b0: 5f28 76be bcf8 62bd c86a 1ebe 16f7 b83d
000001c0: 7cba aa3d 2838 80be e2bb 603d cf25 603e
000001d0: 5bbd 793e 80bf 00bd 7daf 4dbd a037 91be
000001e0: 4f2e 8ebe cbb9 5d3e 94ff 68bd adf8 133e
000001f0: 8a3a d33d 37bb 2cbe b767 88be ff10 833e
00000200: 6daf 4fbe e318 9b3d 0070 7f3d 6ef0 a53d
00000210: 5ea9 2d3e 6277 12be dc74 7ebe 918a 07be
00000220: a6aa 80be 6364 e83d ed03 43be 16dd 40be
00000230: dcb8 89be 6167 e03d 53f4 6fbe 229b a6bd
00000240: d51b 8cbc 1ce8 693e 015f 0d3c 09d3 b5bb
00000250: e546 653c 6584 303e 75f6 d4bd b25f 82be
00000260: 87eb 583e 3f7d 473e a181 683e b535 c23d
00000270: 26c6 96be 7c1a d73d 0914 f0bd a2a6 eebd
00000280: c5b5 613e 2ac6 583e 3af6 763e 625d e13d
00000290: bad0 993e 9dc9 7ebe 0de2 8ebe 65ad 203e
000002a0: 78d6 453e cd83 c7bd 1601 3cbc dd20 5b3e
000002b0: b2bc 7abe c3e0 96be 42b3 8dbd c568 173e
000002c0: 75f5 4e3e c612 1abe fe71 1cbe 9b05 ed3d
000002d0: 8ad3 8d3e 5622 26bd 7648 1dbe db3e ffbd
000002e0: b4db 2fbe 7ca7 5dbe f8b0 193e 9af9 88bc
000002f0: 9580 893d c919 e93d 5cbb 543e db6e 2dbd
00000300: 072c 4f3e dd30 7d3d aca9 583e 2fc1 09be
00000310: f926 f7bd e74a 8a3d 7d23 423e f721 5dbd
00000320: 9ec3 7dbe d5b2 95be ad44 3abc 6ed5 8abd
00000330: 9c83 b0bd f694 0fbe 9a7b d43a 15a0 19be
00000340: a346 c13d a20d 4bbe e2ed 773d e996 c83d
00000350: abfd a23b 18bf 783e 8993 173e a5d4 563e
00000360: 48cb 27be 6116 0a3c 57c7 473e 8c36 2abe
00000370: 6ae4 f6bd 7828 683d 0502 31be 51e4 c6bd
00000380: aac3 85bc 2732 933e ec3a 06be 04ae 96be
00000390: 8bcf 4f3e 108e 3d3e ea8a 56bd 9740 073c
000003a0: cf55 94be 8c15 09bd 5764 283e 5789 48be
000003b0: f64f 86bd 50fd 55be 229e 6dbe 8e8e 5abe
000003c0: 3665 da3d 8d8c 573d ac4f a23d d964 a13d
000003d0: 17d8 8e3e 400e 863d 5241 403e a887 55be
000003e0: 9969 703e b781 8fbc fa08 29bc 0698 963e
000003f0: 5acf 393e b5ad 163e 616f 973e 67d5 e6bc

encoder.layers.0.ffn.linear2.bias f4 [16]
-0.09282896 0.04523642 0.067206256 0.118792735 -0.12491615 0.109560184 0.092884205 0.13258326
0.059943274 -0.06812493 0.10049228 0.1232618 -0.05463379 -0.026802927 0.10520008 0.103757896
00000000: 1c1d bebd d349 393d 6fa3 893d 9b49 f33d
00000010: 0ad4 ffbd 1761 e03d 133a be3d e8c3 073e
00000020: 1487 753d 1585 8bbd e6ce cd3d af70 fc3d
00000030: aec7 5fbd d091 dbbc 2473 d73d 057f d43d

encoder.layers.0.norm2.gamma f4 [16]
0.9956381 0.9730408 0.9902284 0.98551065 0.9848328 0.98582506 1.0059375 0.99199814
0.99515504 1.001983 0.98997563 0.9922051 0.9533498 0.97969055 1.0018715 0.9633163
00000000: 23e2 7e3f 3419 793f 9c7f 7d3f 6d4a 7c3f
00000010: 011e 7c3f 085f 7c3f 8fc2 803f 97f3 7d3f
00000020: 7bc2 7e3f fb40 803f 0b6f 7d3f 2701 7e3f
00000030: bc0e 743f 00cd 7a3f 533d 803f e69b 763f

encoder.layers.0.norm2.beta f4 [16]
-0.0027118148 -0.0016141356 -0.0011907265 0.009156644 -0.0042024762 -0.0092775365 -0.0015201651 0.009075591
-0.004515151 -0.0016195023 0.003421334 0.0104374075 -0.013750309 -0.0017633633 0.01625892 -0.009431458
00000000: b4b8 31bb 6791 d3ba 2712 9cba c005 163c
00000010: edb4 89bb cf00 18bc 4740 c7ba cab1 143c
00000020: d5f3 93bb 7b45 d4ba 7638 603b a901 2b3c
00000030: fa48 61bc a720 e7ba 6d31 853c 6786 1abc

encoder.layers.1.attention.w_q.weight f4 [16, 16]
0.046774387 0.22547287 -0.1120065 0.14721951 -0.4992636 0.057870105 0.021434855 -0.013782443
-0.020716554 0.15273473 -0.60693085 -0.10847651 0.38526028 0.11745531 -0.31757155 -0.32394657
0.107003935 -0.46219668 0.4398335 0.3070243 -0.53494966 0.41948253 0.17064346 0.4488866
0.08774773 0.5205902 -0.45455745 -0.5782525 -0.2056358 -0.16770504 0.5982309 0.5571522
-0.054899275 0.10481784 0.471701 0.17176922 -0.29185566 0.030032147 -0.5565977 -0.43274695
-0.05793467 0.51089156 -0.27177328 -0.13258281 0.5742601 -0.5723218 0.5313327 -0.2587706
-0.58561665 0.20137008 0.46788955 0.14359735 -0.50044596 -0.34641925 -0.5668083 -0.5865657
-0.30104727 0.08367113 0.31745335 -0.03606533 0.35263002 0.45524374 -0.44886187 -0.39478856
0.002669413 0.43200138 0.2115506 0.03819474 -0.26702923 0.39447576 -0.41410583 -0.17173177
-0.036283966 0.1210203 0.3340413 -0.005773963 -0.33515233 0.4766576 -0.29508948 0.11981533
-0.11632257 0.0730598 -0.34661725 0.16402316 0.34666485 0.1682142 -0.5087063 -0.35693246
-0.05946582 -0.28760958 0.27350122 0.18847534 0.22706006 -0.51794446 0.57374763 -0.33683416
0.12425359 0.29406443 -0.18446818 0.24531257 0.3115382 -0.45067078 0.06569721 0.023545418
0.1841928 -0.5781563 -0.49531743 0.33848011 -0.23162852 0.4211308 -0.37717152 0.45759708
-0.05076172 0.41811562 0.053749047 -0.47942734 -0.5472929 0.28012568 0.44683084 -0.56950873
-0.16205211 0.12925051 0.25774026 0.41183 0.3510146 0.23555891 -0.15597698 0.33107543
0.31030393 -0.23314966 -0.055131596 0.33821645 0.5038553 -0.2326405 -0.36142302 0.055186853
0.38076755 0.13512747 -0.40273002 -0.5160976 -0.09307701 0.21577847 -0.0779978 0.084232494
0.5510704 -0.16077228 -0.53605235 0.42707074 0.101987414 0.47113946 -0.5344152 0.29725295
0.52341044 -0.12661512 -0.36297843 -0.5664899 -0.025096837 -0.468097 -0.5381132 0.45524007
0.57311064 0.47437295 -0.323413 0.17307368 -0.31685004 -0.5330303 -0.18942823 0.22176893
-0.14201577 -0.25162846 0.090969756 0.21982679 -0.14385484 -0.17535155 -0.090451725 -0.5755104
0.39944217 -0.4720041 0.27202514 -0.25018853 0.16412188 -0.6020408 0.40062687 -0.2080875
0.089344986 0.47206348 0.43495086 0.03594508 -0.53109676 -0.050469384 0.021894477 0.2999126
0.32999858 -0.11157822 0.49927974 -0.24934478 -0.07080762 0.47578505 0.026228083 -0.26075298
0.18527667 0.2991796 -0.30776113 0.062217135 -0.2688113 -0.094998635 -0.43501005 -0.24459895
-0.20710003 0.5609018 -0.3263846 -0.44572687 0.40830016 0.3749524 -0.3333664 0.1891765
-0.01589461 0.58239883 0.589246 -0.50899416 -0.38509738 0.557116 0.059773985 -0.33711725
-0.32050565 -0.15749179 -0.0058403923 -0.15706128 0.5201156 -0.32996187 0.16961241 -0.045527067
0.35706672 -0.50159425 -0.1288754 -0.24248861 0.20431446 0.4442693 -0.21381351 0.027865117
0.24744831 0.21348272 0.24039932 -0.42070824 0.0696798 -0.5481703 -0.06154261 -0.52994215
0.22489136 0.1957085 0.2905804 -0.5235701 0.28165412 -0.2618172 0.14797543 -0.2223556
00000000: 8096 3f3d 5ce2 663e aa63 e5bd b6c0 163e
00000010: 7b9f ffbe 3409 6d3d 2698 af3c c1cf 61bc
00000020: c3b5 a9bc 7e66 1c3e d25f 1bbf ef28 debd
00000030: d640 c53e 698c f03d bd98 a2be 53dc a5be
00000040: e124 db3d 0ba5 ecbe db31 e13e 4a32 9d3e
00000050: 76f2 08bf 6ac6 d63e 29bd 2e3e 77d4 e53e
00000060: 15b5 b33d 6645 053f c1bb e8be 5b08 14bf
00000070: 3192 52be dfba 2bbe a925 193f 87a1 0e3f
00000080: 10de 60bd bcaa d63d cb82 f13e 45e4 2f3e
00000090: 1b6e 95be fa05 f63c 307d 0ebf 0291 ddbe
000000a0: e84c 6dbd cac9 023f de25 8bbe cac3 07be
000000b0: b602 133f ae83 12bf 6b05 083f 957d 84be
000000c0: f9ea 15bf f533 4e3e 388f ef3e 2f0b 133e
000000d0: 3a1d 00bf dd5d b1be 591a 11bf 2b29 16bf
000000e0: de22 9abe c55b ab3d 3f89 a23e 3db9 13bd
000000f0: ec8b b43e b515 e93e 39d1 e5be ba21 cabe
00000100: 52f1 2e3b 492f dd3e b8a0 583e 1672 1c3d
00000110: 0eb8 88be baf8 c93e ae05 d4be 74da 2fbe
00000120: 7f9e 14bd 7ed9 f73d 7607 ab3e 8333 bdbb
00000130: 1699 abbe 770c f43e f815 97be bd61 f53d
00000140: 873a eebd 60a0 953d d177 b1be b0f5 273e
00000150: 0e7e b13e 5840 2c3e 933a 02bf dabf b6be
00000160: 6f92 73bd 9041 93be 5a08 8c3e aeff 403e
00000170: 6f82 683e 0298 04bf 20e1 123f 8775 acbe
00000180: ab78 fe3d 9d8f 963e 3ae5 3cbe 3833 7b3e
00000190: ef81 9f3e 52be e6be 428c 863d 52e2 c03c
000001a0: 0a9d 3c3e 0d02 14bf 3f9a fdbe 444d ad3e
000001b0: 0730 6dbe 759e d73e a01c c1be 2a4a ea3e
000001c0: 85eb 4fbd 4013 d63e f627 5c3d 8077 f5be
000001d0: 631b 0cbf a26c 8f3e 03c7 e43e 53cb 11bf
000001e0: fdf0 25be 3f5a 043e 88f6 833e 62db d23e
000001f0: 30b8 b33e 5b36 713e 6eb8 1fbe b882 a93e
00000200: 28e0 9e3e c9be 6ebe abd1 61bd b52a ad3e
00000210: a9fc 003f 5039 6ebe 700c b9be 9c0b 623d
00000220: f7f3 c23e db5e 0a3e a132 cebe f91e 04bf
00000230: 299f bebd 08f5 5c3e 50bd 9fbd 1682 ac3d
00000240: f312 0d3f 7da1 24be ba3a 09bf 04a9 da3e
00000250: c7de d03d 3139 f13e 6fcf 08bf 8a31 983e
00000260: 3afe 053f 65a7 01be 4fd8 b9be 7b05 11bf
00000270: e297 cdbc 69aa efbe c9c1 09bf 3a15 e93e
00000280: 61b7 123f 03e1 f23e 6496 a5be 3a3a 313e
00000290: 2b3a a2be ac74 08bf 79f9 41be 6517 633e
000002a0: 956c 11be 72d5 80be 5a4e ba3d 461a 613e
000002b0: af4e 13be 5b8f 33be c13e b9bd a654 13bf
000002c0: af83 cc3e 85aa f1be e146 8b3e b618 80be
000002d0: 910f 283e 591f 1abf f71e cd3e e414 55be
000002e0: 81fa b63d 4eb2 f13e e1b1 de3e 263b 133d
000002f0: f5f5 07bf fcb8 4ebd 0c5c b33c 258e 993e
00000300: 93f5 a83e 1f83 e4bd 98a1 ff3e 3d54 7fbe
00000310: 9603 91bd 199a f33e 47dc d63c 6a81 85be
00000320: 2bb9 3d3e 122e 993e de92 9dbe 65d7 7e3d
00000330: a2a1 89be a58e c2bd a3b9 debe 2678 7abe
00000340: 0812 54be 4397 0f3f e21b a7be 5036 e4be
00000350: b80c d13e c3f9 bf3e 00af aabe 7cb7 413e
00000360: 6a35 82bc 1718 153f d3d8 163f 714d 02bf
00000370: 7c2b c5be 279f 0e3f 91d5 743d a29a acbe
00000380: 5119 a4be 8745 21be c360 bfbb acd4 20be
00000390: 4c26 053f c3f0 a8be e0ae 2d3e 977a 3abd
000003a0: 73d1 b63e 7b68 00bf eaf7 03be ef4e 78be
000003b0: cf37 513e 4477 e33e eef1 5abe 6345 e43c
000003c0: 1763 7d3e 379b 5a3e 3d2b 763e 1267 d7be
000003d0: 48b4 8e3d e454 0cbf 1b14 7cbd 4aaa 07bf
000003e0: ec49 663e cf67 483e f4c6 943e b108 06bf
000003f0: f834 903e e70c 86be df86 173e 30b1 63be

encoder.layers.1.attention.w_q.bias f4 [16]
-0.18538022 -0.029413912 0.14607593 0.09134537 -0.18392684 0.03616145 -0.26377097 -0.120192766
0.1792296 -0.10722106 0.16536133 -0.19829953 0.21328592 0.11411762 0.15495226 0.057942756
00000000: 50d4 3dbe 72f5 f0bc ee94 153e 4813 bb3d
00000010: 5157 3cbe 071e 143d fd0c 87be a027 f6bd
00000020: f787 373e b796 dbbd 7b54 293e 080f 4bbe
00000030: a067 5a3e 80b6 e93d ceab 1e3e 6255 6d3d
