Trans_Prediction/model_saved/numBugReportIssues/TM_numBugReportIssues_delay_size_6_delay_2.pth (torch, 386768 bytes, 337 tensors)

encoder.layers.0.attention.w_q.weight f4 [16, 16]
000000 33 77 cc 3e f0 5e b3 be 9c 8a 8f 3e 0c 48 5d be
       0.39934692 -0.3503337 0.28035438 -0.21609515
000010 fa 78 a0 3e 05 f0 b2 be 4d 4c 06 3f 5f e8 dc be
       0.31342298 -0.34948745 0.52460176 -0.43146035
000020 33 b6 3d be 45 76 1c 3f 55 10 89 3d c1 1a 9c be
       -0.18526535 0.61117965 0.06692568 -0.30489162
000030 25 e6 06 3f f1 47 89 be c2 43 d7 3e 72 35 eb 3c
       0.5269492 -0.268127 0.42043883 0.028712008
000040 18 ac e1 be c8 e2 76 3e f2 45 ea 3d 97 57 e9 3e
       -0.4407661 0.24109948 0.11439122 0.45574638
000050 3a b5 e2 bd 06 a0 af 3e 9d c1 18 be 48 d5 ce be
       -0.110697225 0.34301776 -0.14917608 -0.40397096
000060 31 da 4c be 7b 5a c3 bd 57 0a f1 be b0 e7 19 3f
       -0.20005108 -0.09538742 -0.470782 0.6011915
000070 3d 32 29 3e d4 88 29 3e 27 b6 cf 3d 77 46 ad 3e
       0.1652307 0.16556102 0.10142165 0.33842823
000080 03 9f 10 bf 74 0e 10 bf 28 04 e1 be 33 30 87 3e
       -0.5649263 -0.56272054 -0.43948483 0.2640396
000090 72 0a 14 3b 36 42 10 3f 8d b3 86 3e 96 49 9f 3e
       0.0022589234 0.5635103 0.2630886 0.3111083
0000a0 61 fc 0d 3f 18 a4 14 3f 44 7a c7 be 03 a0 d9 be
       0.55463225 0.5806289 -0.3896047 -0.42504892
0000b0 7d cc ac 3e 6f 7a b5 3e 42 2a f7 be 83 93 d3 3e
       0.33749762 0.35444972 -0.48274428 0.4132348
0000c0 03 e6 c4 3e 1d aa 9f 3e 13 2b 00 3f 10 eb aa 3e
       0.38456735 0.31184474 0.50065726 0.33382463
0000d0 4b 00 5d be 19 6f 0b bf 4b 99 a5 3b 4e 7d 30 3e
       -0.21582143 -0.54466397 0.0050536743 0.172353
0000e0 4c e8 f9 be 76 98 b8 be 65 01 75 3e 91 e2 be 3e
       -0.4881004 -0.36053818 0.23926313 0.3728223
0000f0 5e 28 0e 3f aa fc c3 3e 77 1b ea 3e fc 0e 2b be
       0.55530345 0.38278705 0.4572408 -0.16704935
000100 c9 20 a8 be fa 35 32 be 87 9d 6f bd 3b 35 fa be
       -0.32837513 -0.17403403 -0.05849984 -0.48868737
000110 1a 15 65 be ba ea 9d 3e 5d 81 80 3e 20 e8 52 be
       -0.22371331 0.30843145 0.25098696 -0.20596361
000120 f2 85 02 3f 2b 1d 07 be d1 af c9 be c8 5a 16 3f
       0.50985634 -0.1319472 -0.3939195 0.5873227
000130 b7 e0 1c be cf f4 96 be b7 2d 04 3f 57 3f 19 3f
       -0.15320097 -0.2948365 0.51632255 0.59862274
000140 2b 56 17 3f 7b 88 94 3e 27 63 36 bd 84 3f 1c 3f
       0.59115857 0.29010376 -0.044528153 0.6103442
000150 d0 04 09 bf ef cf fc 3e f0 ac cc be 84 cf 1a bf
       -0.5352297 0.4937739 -0.3997569 -0.60472894
000160 58 17 c9 3e 82 ab 98 bd 3b e5 12 bf 28 7e 96 be
       0.39275622 -0.074545875 -0.5738103 -0.29393125
000170 7b e4 48 be 8d b1 6a 3e c2 cd 02 bf c8 63 02 bf
       -0.19618408 0.22919293 -0.5109521 -0.50933504
000180 c7 7a 03 3f 39 b6 7d 3d 5b 61 be 3e 6a 51 5f 3d
       0.5135922 0.06194136 0.3718365 0.054521002
000190 50 e1 a1 3e 49 ed 33 be fd 20 80 be 05 c8 36 bd
       0.31617212 -0.17570986 -0.25025168 -0.044624347
0001a0 31 90 cc 3e c6 92 af be fb 81 57 be 97 59 85 bd
       0.3995376 -0.34291667 -0.21045677 -0.065112285
0001b0 7b 6f 08 3f 1b 93 15 3f 03 ea e5 bc cd 91 ef be
       0.53295106 0.5842759 -0.028065687 -0.46790925
0001c0 98 99 d0 3e 08 08 1d 3e e9 dc c4 be 5c 81 10 bf
       0.40742183 0.15335095 -0.3844979 -0.56447387
0001d0 6a 47 62 be 7d d5 dd be b3 5f ea 3d be a5 f6 3d
       -0.22097555 -0.4332694 0.114440344 0.120433316
0001e0 b7 65 d9 be e1 62 2d 3e 62 f2 5b be 38 cd c9 3e
       -0.42460415 0.1693225 -0.2147918 0.39414382
0001f0 59 41 e7 3e a4 94 1c 3f 94 89 e0 3d 69 f1 08 bf
       0.45167044 0.6116431 0.10963741 -0.5349336
000200 79 3f 99 3e 4d 7b db bc f3 ce 1b bf 41 31 c4 be
       0.29931238 -0.026792193 -0.60862654 -0.38318828
000210 cb 06 e0 3e 47 96 96 3e 0f b1 e8 3e d4 3b 0d 3f
       0.43755183 0.29411528 0.45447585 0.55169415
000220 f7 a1 0b 3f a1 44 b9 be 4b e4 21 3e 28 82 15 3f
       0.54544014 -0.36185172 0.15809743 0.5840173
000230 ce 4e 40 be 10 32 c9 3e ac da 9b be e0 7e c6 3e
       -0.18780062 0.39296007 -0.3044027 0.38768673
000240 31 c9 a1 3e 0c a7 b7 be dd 20 16 3f c6 1a 88 3e
       0.3159881 -0.35869634 0.58643895 0.26582927
000250 4f 96 fd be b3 fb 05 bf 70 bd ad 3e b2 6b bf be
       -0.4952874 -0.5233719 0.33933592 -0.37386853
000260 20 57 07 bf a5 85 cd 3e fe d9 cd be cb 53 9f 3e
       -0.5286732 0.40141025 -0.40205377 0.31118616
000270 e1 61 99 3d 17 27 ae 3c f2 71 aa 3e fd 9d 19 bf
       0.07489372 0.021258874 0.33290058 -0.60006696
000280 8c 18 5c 3e 2a e9 e9 3b 41 7b f9 be 8f 34 00 bf
       0.21493739 0.007138391 -0.48726848 -0.500802
000290 b6 a4 a4 3e 11 6c 61 bd 28 55 0c bf 4f d3 a0 be
       0.32156914 -0.0550347 -0.5481744 -0.31411216
0002a0 30 df 14 3f d0 05 05 3e ac 2c 30 3e 11 62 14 3f
       0.5815306 0.12990499 0.17204541 0.5796214
0002b0 79 c8 57 3d c0 cb fd 3d 10 c7 cc 3e 6b 88 97 3d
       0.05268142 0.12392378 0.39995623 0.073990665
0002c0 8e 33 90 bd 41 4b cb bd a3 e3 7e 3e 67 09 1a bf
       -0.07041083 -0.09926463 0.24891524 -0.60170597
0002d0 ca f1 08 be e5 2b 09 bf 44 88 de 3c b9 fb 78 be
       -0.13373485 -0.535826 0.027164586 -0.24314775
0002e0 a3 68 4b be ec d4 07 3f 2a c0 92 be de 4d 0e 3f
       -0.19864134 0.5305927 -0.28662235 0.55587566
0002f0 af 8c 12 bf 85 48 f7 bd 6d dd 2d be 86 bf 19 3f
       -0.57245916 -0.12074379 -0.16978998 0.60057867
000300 e9 4f 87 3a f4 6a 16 bf 3d 00 13 be 7e ac 8f be
       0.0010323498 -0.5875695 -0.1435556 -0.2806129
000310 fb 5d 03 bf be 70 90 3e 4b 31 db 3e e9 79 9c be
       -0.5131528 0.28211015 0.42811045 -0.3056176
000320 10 83 db 3c 6a 7d 07 3f 7c 61 ea be 2d 7e 90 be
       0.026795894 0.5292574 -0.457775 -0.28221264
000330 4f 9e 8f 3e 82 d3 dd bd da 2d f2 3e b5 9f 99 bd
       0.28050467 -0.108313575 0.47300607 -0.07501165
000340 38 3b 4f be 99 1a 18 bf a8 c6 dd 3d c4 d5 ea be
       -0.20237434 -0.59415585 0.10828906 -0.45866215
000350 2e 56 07 bf d2 fc 7b 3d 30 db c1 3e a3 4a 5d be
       -0.52865875 0.061520405 0.3786254 -0.21610503
000360 f6 b3 1d 3e f2 fe 3f be 07 de 99 be 8e 99 62 be
       0.15400681 -0.18749598 -0.30052206 -0.22128889
000370 b4 da 92 3e 2b a0 4f 3e f4 69 51 be 8a ab f0 be
       0.28682482 0.20275943 -0.20450574 -0.47005874
000380 af ec c4 be 79 28 07 3f a8 3e c8 3e fb 9b e4 3e
       -0.38461825 0.5279613 0.39110303 0.44650254
000390 ff 28 f8 3e 7d ff 2c be de ae a8 3e 38 c9 be 3e
       0.48468778 -0.16894336 0.32945913 0.37262893
0003a0 43 d4 bf be 80 b0 5e be bf 04 c5 be cb 3f 23 be
       -0.3746663 -0.21747017 -0.38480183 -0.15942304
0003b0 35 26 ba 3e 7b 24 19 3d 97 16 f4 3c aa f2 7b bd
       0.36357275 0.037388306 0.029795928 -0.06151072
0003c0 0b 9c cc be bf 68 52 3e 75 9f 89 3e ed 9a ab 3e
       -0.399628 0.2054777 0.2687947 0.33516636
0003d0 2e e5 dd be 5f 17 bf 3e d1 36 12 3f a3 9a 0a 3e
       -0.43338913 0.37322518 0.57114893 0.13535552
0003e0 03 ab ae 3e 63 f4 7a bd ef fd 0e bf 4c b8 eb be
       0.34114847 -0.06126822 -0.5585622 -0.46039045
0003f0 d1 ca 2a 3e 26 97 3c 3e 3c b7 fb 3e 0a 29 46 3e
       0.16678931 0.18417034 0.49163234 0.19351593

encoder.layers.0.attention.w_q.bias f4 [16]
000000 52 af 0d 3e 17 00 32 be 2d 96 00 3e 9e d8 e0 3d
       0.1383641 -0.17382847 0.12557288 0.109788164
000010 67 bb 35 3e 15 90 41 be 24 4f 38 3e 92 be f0 bd
       0.1774727 -0.18902619 0.1799894 -0.117550984
000020 b7 04 c0 3d 28 d1 6c 3e be c2 21 bd 2b 97 6f 3a
       0.09375899 0.23126662 -0.03949236 0.0009139652
000030 2d 3c 7a bd 22 53 5b be 19 09 ee 3d 35 58 80 be
       -0.061092544 -0.21418431 0.11622829 -0.25067297

encoder.layers.0.attention.w_k.weight f4 [16, 16]
000000 81 0e 8f 3e 26 db ee be 09 00 0d bf f2 29 a5 be
       0.27940753 -0.46651572 -0.5507818 -0.32258564
000010 f5 d5 bb be f4 34 2a 3e 3a 76 ae 3e b7 f8 c1 3d
       -0.36686674 0.16621763 0.34074575 0.09471267
000020 6b 75 cd 3d a6 72 05 bf 6d 4d fd 3e b8 d0 ab be
       0.10032161 -0.52128065 0.49473134 -0.33557677
000030 47 e9 6b 3d 9d c0 00 be b8 28 de bd c8 cd b8 3e
       0.057595517 -0.12573476 -0.1084761 0.360945
000040 f3 68 0e bf b6 ea 0a 3f 99 a2 e1 be ad 7f 31 3e
       -0.5562889 0.5426439 -0.44069365 0.1733386
000050 20 aa 11 3f 89 fc 90 be a5 15 26 3e c3 d2 9b be
       0.56900215 -0.2831767 0.16219194 -0.30434236
000060 ce d9 5c be c4 dd a7 bd a3 c7 09 3e 2c ab 16 bf
       -0.21567461 -0.08196595 0.13455062 -0.5885494
000070 b6 6d d9 3d 4c cf e0 be f8 04 e1 be a2 a4 3c bd
       0.10616629 -0.43908155 -0.43949103 -0.046055444
000080 f9 da 43 bd 3f ea c4 be 25 32 ee 3e a9 7d 9c bc
       -0.04781625 -0.38459966 0.46522632 -0.019102888
000090 e9 4e b8 3d 99 08 a7 be 7f c2 25 be d2 63 9e be
       0.08999426 -0.32623747 -0.16187476 -0.30935532
0000a0 fe 24 03 bf b2 62 c7 3d ca 06 18 bf 4f 7e 8b 3e
       -0.5122832 0.097356215 -0.5938536 0.27244803
0000b0 51 26 c9 3d db ad 96 3e d0 de db 3e c1 33 e5 3e
       0.098217614 0.29429516 0.4294343 0.44766048
0000c0 1b cb 8b 3e 03 fe 93 be f7 8e da 3e c8 da ac be
       0.27303395 -0.28904733 0.426872 -0.33760667
0000d0 bd 50 8e bd 9e b2 29 3c e9 ff d9 be 06 33 02 3c
       -0.06948993 0.010357527 -0.42578056 0.007946735
0000e0 f8 a3 83 3e ee c2 09 bf 49 f7 0a 3f b1 e3 11 3f
       0.25711036 -0.53813064 0.5428358 0.56988055
0000f0 ab 5c 0d bf bd 20 a7 3d bf 6b d9 be 22 bc 91 3d
       -0.55219525 0.08160541 -0.42465016 0.071159616
000100 d8 fb 25 3e 07 57 2c be c9 02 c3 3e c0 f4 2a be
       0.16209352 -0.16830073 0.38088062 -0.16694927
000110 54 7f a6 be 06 79 66 3d 2b 84 67 be c0 1a 18 be
       -0.3251902 0.05626776 -0.22609012 -0.14853954
000120 12 ed 9f be e5 1d 0b 3e ab f4 b5 be 3d 2e 19 3e
       -0.31235558 0.13585623 -0.3553823 0.14959045
000130 70 72 c7 3e 0f 10 f3 bd 74 19 99 be 01 09 a7 be
       0.38954496 -0.11868297 -0.29902232 -0.32624057
000140 91 71 fc 3c 47 9b 45 be 89 8b b2 3e 85 93 02 3e
       0.030815871 -0.19297515 0.34872082 0.12751587
000150 e6 fa cf be 8e f9 30 3e 98 a1 ab 3e ab 31 b7 3e
       -0.40621108 0.17282698 0.33521724 0.3578008
000160 15 4b 3a 3e e4 ba 07 be e0 37 fe be f7 04 92 3e
       0.18192704 -0.13254887 -0.49652004 0.28519413
000170 c4 6b ab be 50 91 c2 3d cd 12 f7 be 87 55 8f 3d
       -0.33480656 0.095003724 -0.4825653 0.06998735
000180 d9 aa ed 3d 82 02 c6 3e 0d 70 f2 be 6a 1a 3f 3e
       0.11604852 0.38673788 -0.47351113 0.1866242
000190 4c 73 15 bf cc 57 3a be d7 c6 6b 3d 12 a2 c1 3e
       -0.58379054 -0.18197554 0.057562675 0.37818962
0001a0 1f c8 19 bf 94 0a c6 be 2e 82 7c be 17 19 2d bd
       -0.60070986 -0.38679945 -0.24659035 -0.042260256
0001b0 45 4d f3 be db c6 d9 be 20 02 ff 3e 4f 6c 58 3d
       -0.4751989 -0.42534527 0.4980631 0.052837666
0001c0 f5 83 04 bf 7a 3f 8b 3e e3 03 f1 3e 33 1d b2 3e
       -0.5176385 0.27196866 0.47073278 0.34787902
0001d0 34 77 c7 3e 64 4a 94 3e 77 2c 18 bf 9a 19 27 be
       0.38958132 0.28963006 -0.5944285 -0.1631836
0001e0 2d 0a 11 3f 82 59 0b bf 2c 9b cd 3d 20 5e 84 be
       0.5665615 -0.54433453 0.10039362 -0.25853062
0001f0 c6 3d ba 3e 6d 82 3b be 36 b0 c1 bd d5 f2 d3 be
       0.36375254 -0.18311472 -0.09457438 -0.41396204
000200 a3 1c f0 3d 26 bc 08 3f 8d 7c 88 3e 3a 2b ba bd
       0.11724212 0.5341209 0.26657525 -0.09090276
000210 a3 83 09 bf ea 81 5a 3e e5 23 26 3d 44 96 99 3c
       -0.53716487 0.21338621 0.040561575 0.01874841
000220 b6 5c 1a bf a7 11 b2 3e 22 b7 a4 be a5 bc c8 bb
       -0.60297716 0.34779093 -0.3217097 -0.006126004
000230 9b 3d c0 3c fd 94 0b bf a0 ec 7d be 42 aa de 3e
       0.023466876 -0.54524213 -0.24797297 0.4348927
000240 2a e0 d5 3e b4 e0 e5 be c0 39 17 be 4d 09 c8 3d
       0.41772586 -0.44897997 -0.14768124 0.09767399
000250 1c b7 09 bf 2e 52 40 be 71 2a e8 3e fc 31 89 be
       -0.5379503 -0.18781349 0.4534488 -0.26795948
000260 2b 2e e1 be 5c b7 10 3f 0c fe 15 3f 07 a5 b4 be
       -0.43980536 0.56529784 0.5859077 -0.35282156
000270 8d 25 07 3f d0 ad 88 3e b8 da 03 bf 41 6e b4 be
       0.5279167 0.26695108 -0.51505613 -0.35240367
000280 9a 4b ae bb c7 43 61 bd 44 06 a0 be 33 a5 95 3d
       -0.005319071 -0.054996278 -0.3125478 0.073069
000290 1f da 04 3e 8a d0 9d 3d ea 0e 6a 3e 0a 66 44 3e
       0.12973832 0.07705791 0.22857252 0.1917955
0002a0 36 b2 88 be 53 4f 4d 3e 10 40 a8 3e b5 90 d5 3e
       -0.26698464 0.20049791 0.32861376 0.41711965
0002b0 1f 59 e3 3e 06 45 97 3e c9 c2 ba bd 90 10 3f 3d
       0.44403931 0.29544848 -0.091191836 0.046646655
0002c0 37 06 0a 3e 90 70 d5 bd 2a 6e d4 be 20 3e 56 3e
       0.13478933 -0.1042186 -0.41490299 0.20922136
0002d0 d5 c1 b0 be f2 b8 b1 be cf 97 09 3f 61 9e f2 be
       -0.34522882 -0.34711415 0.53747267 -0.4738646
0002e0 66 44 4f be da 1d 92 bd f5 73 a1 be 41 da 64 3e
       -0.20240936 -0.071346 -0.3153378 0.22348882
0002f0 53 a6 df bd 13 74 09 3f 55 2b b3 be b8 66 1f be
       -0.10920396 0.5369274 -0.34993997 -0.15566528
000300 6a 43 7d 3e 9a 57 a2 3e 0c 0b eb be 56 bb 7c 3d
       0.24732748 0.3170746 -0.45906866 0.061702095
000310 8b e3 0c bd 90 db 1d bf ab 56 3f be 69 f2 fa 3e
       -0.03439669 -0.6166315 -0.18685405 0.4901307
000320 63 8b 97 3e d1 86 8b 3d 05 6d ef 3e fe 6c 18 bf
       0.2959853 0.068128236 0.46762863 -0.5954131
000330 8b 43 7b bc 10 cc 08 3f 58 94 6f be eb d4 26 3e
       -0.015335928 0.53436375 -0.23396432 0.1629216
000340 e7 4f 69 be f0 33 17 be be c8 f3 bb 7b fb 15 3f
       -0.22784387 -0.14765906 -0.007439702 0.58586854
000350 16 e7 be be a9 10 1a 3f b1 2b cd be 02 cb 2d bd
       -0.3728568 0.6018167 -0.40072396 -0.04242993
000360 e8 9d 8d 3e b5 93 95 bd 9f 20 ba 3e 4e 27 0a bd
       0.27659535 -0.073035635 0.36353013 -0.03372889
000370 10 b1 08 bf d0 fd 03 3f 9a cd bd be 72 92 78 3e
       -0.53395176 0.5155916 -0.37070924 0.24274614
000380 a6 3c ee be 2d 69 1b 3c af eb f5 3e 2a 6a 07 3e
       -0.46530646 0.009485525 0.48031375 0.13224092
000390 d1 d5 11 bf 1b 9d d5 3e 99 ab 4c 3e 8a c7 02 be
       -0.5696688 0.41721424 0.19987334 -0.1277143
0003a0 ec 9d e9 bd c4 03 cd 3e d5 c9 b0 3e bd 9a ac 3e
       -0.11407074 0.40041935 0.34528986 0.33711806
0003b0 23 4e eb be 60 a2 2c be 4f 9d 3d 3e 34 54 a7 3e
       -0.4595805 -0.16858816 0.1851704 0.3268143
0003c0 f1 a0 84 3d 68 5b a0 3e 8f 4e 3d 3e 39 24 47 3e
       0.0647601 0.31319737 0.18486999 0.19447412
0003d0 2b 5a f7 3e 14 f4 2c be 87 89 d6 3d 35 e1 78 bd
       0.4831098 -0.16889983 0.1047545 -0.06076165
0003e0 df cf 27 be 43 22 a0 3e 4b 75 8a 3c e0 a5 2c 3e
       -0.1638789 0.3127614 0.016901633 0.16860151
0003f0 ce 0c d6 be 3f a9 c6 3d 64 b3 e9 3e f3 91 c9 be
       -0.41806644 0.0970025 0.45644677 -0.39369163

encoder.layers.0.attention.w_k.bias f4 [16]
000000 7d 64 19 39 49 ad fc b6 c7 5f d5 b6 14 60 60 39
       0.00014628652 -7.5303583e-06 -6.3590446e-06 0.00021398097
000010 38 91 53 34 df 24 8b b8 24 6d 14 39 17 43 d4 37
       1.9703737e-07 -6.634904e-05 0.00014155038 2.530361e-05
000020 6d a0 66 34 70 1e 8e 35 ce 4c a3 b4 e8 aa d5 35
       2.1478782e-07 1.0588683e-06 -3.0417e-07 1.5919477e-06
000030 f9 6f 55 34 ef 02 bd b4 0e d0 a6 34 99 d8 06 35
       1.9877906e-07 -3.5206128e-07 3.107129e-07 5.023408e-07

encoder.layers.0.attention.w_v.weight f4 [16, 16]
000000 8c 46 52 be 72 c7 1e 3f 36 bf 01 bf d0 12 72 be
       -0.20534724 0.6202308 -0.5068239 -0.23639989
000010 c0 e4 86 3c e4 5d d7 be 86 ab ed 3d b6 99 d5 3e
       0.016466498 -0.4206382 0.11604981 0.41718835
000020 8e 9d ad bd 60 ba e0 be 64 54 8f be 04 6f 89 3d
       -0.08477317 -0.43892193 -0.27994072 0.06710628
000030 d1 85 18 3f 9e 8c bf be 32 99 8d 3d 84 67 7c be
       0.5957919 -0.3741197 0.06913985 -0.24648863
000040 90 bc 10 be 24 12 c2 bd 1b cf b2 3d 94 cf d0 3e
       -0.14134431 -0.09476116 0.087309085 0.4078337
000050 d9 d1 15 bf bc f3 04 bf 09 27 18 3f 2e 0e c6 be
       -0.5852333 -0.5193441 0.5943456 -0.38682693
000060 26 a3 f1 3d 3e 47 16 3f 9c f3 1c 3d 13 14 2a be
       0.11798696 0.58702457 0.03831826 -0.1660922
000070 a4 d7 f1 3e 0e c8 d1 3e 91 86 9e bd aa be 95 3e
       0.47234833 0.40972942 -0.0774051 0.29247028
000080 e2 f0 ce 3d 83 d8 75 be f6 18 f1 be c8 1d ed be
       0.101045385 -0.24008374 -0.47089356 -0.46311784
000090 4b 30 6d be bd d4 00 be a3 dc 0b 3e 00 b5 92 be
       -0.23162954 -0.12581153 0.13658385 -0.28653717
0000a0 cf 6b 8e be 08 b6 7f 3d 29 e5 57 3e e4 ba e6 3d
       -0.27816626 0.062429458 0.21083511 0.11266115
0000b0 56 12 07 bd cc 92 89 3e 59 db 08 bf 71 91 0a 3f
       -0.03297647 0.2686981 -0.534597 0.54128176
0000c0 ad 7f 9f be e3 b6 44 bd 98 de 00 3f ef 6c 4b 3e
       -0.31152096 -0.048025977 0.5033965 0.19865774
0000d0 3a 0c 16 3f 53 c6 5a be 3b 30 1b 3e 74 31 97 bd
       0.58612406 -0.21364717 0.15155117 -0.07382479
0000e0 12 87 c5 3e 7a 62 c5 be 43 9d f3 3d 9f b0 f4 3d
       0.38579613 -0.38551694 0.1189523 0.1194775
0000f0 2e 2a b7 3e 1b 3a e3 bd b7 4f 7d be 01 ec 73 bc
       0.35774368 -0.11095067 -0.2473744 -0.014887811
000100 07 c9 c2 be a3 f6 d1 be ea 5e d0 be 3f da cd be
       -0.38043997 -0.4100848 -0.40697414 -0.4020557
000110 70 22 b4 3e 7a af fb 3e 99 6d 4b be eb 1a 04 3f
       0.35182524 0.49157315 -0.19866027 0.51603574
000120 eb 26 16 3f e1 bc b1 3a cb 3c 1a bf f7 f1 a1 be
       0.58653134 0.0013560319 -0.6024901 -0.31629917
000130 c3 fb 17 3c 70 13 81 3e 81 61 fb 3e da b8 4d be
       0.009276333 0.25210142 0.49097827 -0.20090047
000140 be 5e 8b bd f1 47 b9 3d 50 de 68 be c0 90 b2 be
       -0.0680518 0.09046925 -0.22741055 -0.3487606
000150 a7 81 e4 3d 72 38 06 3f 21 c3 ee be 85 ab fb 3d
       0.11157542 0.5242988 -0.46633247 0.12288574
000160 56 00 9e 3e c9 fe c5 bc bd 2d 4d 3e 74 3d e7 be
       0.3085963 -0.024169343 0.20036979 -0.45164073
000170 5e ae f0 3e d2 31 1b 3e f3 06 ad be 96 12 19 bf
       0.47008032 0.15155724 -0.33794364 -0.59793985
000180 d8 df 92 be 08 ce 14 3f e2 fd 9b bd d5 31 0a 3f
       -0.28686404 0.5812688 -0.07616784 0.5398229
000190 84 ff df 3e cb c8 af 3e 8a 34 37 3e 60 e6 1b 3e
       0.4374963 0.3433288 0.17891136 0.152246
0001a0 d4 45 6b 3e 7f 19 68 3d e8 d0 f6 3e aa 8b 18 be
       0.22975856 0.05666494 0.48206258 -0.14897028
0001b0 e3 be 80 be 2e 5d 07 bf 5e 48 18 3d 79 c0 fe 3e
       -0.25145635 -0.52876556 0.03717839 0.4975622
0001c0 c3 5b 06 bf 91 be 30 bd b0 c7 33 3e 03 c8 6d 3e
       -0.5248377 -0.04315049 0.17556643 0.2322083
0001d0 8f 71 a1 be ce b0 09 3e c0 f2 94 be 78 75 aa be
       -0.3153195 0.13446352 -0.29091454 -0.33292747
0001e0 e8 23 90 3d 72 37 0f bf 2b 2c 89 bd 19 86 f2 3e
       0.070380986 -0.5594398 -0.066978775 0.47367933
0001f0 6b 23 1a be df 47 65 3e 14 bd 12 3f f7 f0 8a be
       -0.15052573 0.22390698 0.5731976 -0.27136967
000200 c4 7b 1a 3f 8f ee 01 bf 3b 9b af be e1 80 b7 3e
       0.603451 -0.50754637 -0.3429812 0.35840514
000210 28 d6 0f 3f a2 96 4c be b2 3e 2d be cc 9c eb be
       0.5618615 -0.19979337 -0.16918448 -0.46018064
000220 2d d0 00 bf 51 de 14 bf 76 e6 0b 3f e1 84 d8 be
       -0.5031765 -0.5815173 0.5464853 -0.4228888
000230 97 96 ce 3d 8f 4c 95 3e ef 08 1b 3f e3 fc 02 bf
       0.100873165 0.29159972 0.60560507 -0.51167125
000240 a7 03 8a bc ca 95 aa be f2 7d bd be 00 cd 0c 3e
       -0.016847445 -0.33317405 -0.3701015 0.13750076
000250 6a 2c 1e 3e 22 28 e3 bc 90 f3 01 3f d4 fd ae 3e
       0.1544663 -0.027729098 0.5076227 0.3417803
000260 99 44 dd 3e 9c 6d 8b 3e f7 94 e5 3e 85 cd b7 be
       0.43216398 0.27232063 0.44840214 -0.35898986
000270 af 5e d6 3e 5c a6 b1 be 94 49 a8 3d 20 52 ef 3e
       0.41869113 -0.34697235 0.08217159 0.46742344
000280 34 46 99 3e da 4f ef 3e c9 20 a3 3a a9 87 0a 3e
       0.29936373 0.4674061 0.0012445684 0.13528313
000290 a0 3a 42 be 42 03 93 be bb 62 2f be d5 b7 c2 be
       -0.18967676 -0.28713423 -0.17127506 -0.38030878
0002a0 ae 70 92 3e 5f ce 4f be 43 eb 14 bf 5b e6 d2 3e
       0.28601593 -0.20293568 -0.5817148 0.41191372
0002b0 7b a3 e4 be 92 3c f6 3e fa 98 14 bf 13 f5 a0 3e
       -0.44655976 0.48093086 -0.58045924 0.31436977
0002c0 ba c2 fc be ac c3 05 bf 8f 07 6c 3e c4 38 e0 3e
       -0.49367315 -0.52251697 0.23049758 0.4379331
0002d0 21 97 15 bf 2c dd be 3e d8 b3 0c bf 83 ef b1 be
       -0.5843373 0.37278116 -0.5496192 -0.34753045
0002e0 c9 db 80 3e 5e 6c 2b 3d 9f 6e 22 3e e0 01 8f be
       0.25167683 0.041851394 0.15862511 -0.27931118
0002f0 46 75 a0 3e 44 db 00 3f ea 8f 94 3e 4d f6 bf be
       0.31339473 0.5033457 0.29016048 -0.374926
000300 04 ea f0 be 64 3f ef be e8 74 b3 3e 53 0b eb 3e
       -0.4705354 -0.4672805 0.3505013 0.45907077
000310 a0 5b 8f 3e 1f d5 99 bd 47 45 c8 be ac f0 a1 be
       0.27999592 -0.07511353 -0.39115354 -0.3162893
000320 66 c1 0c 3f 99 a4 77 bc 4e e4 e6 3e 09 5b ff 3e
       0.549826 -0.015114927 0.45096058 0.49874142
000330 9a 09 29 bd 9e 97 b4 be 7d b8 14 bf e9 59 85 be
       -0.041268922 -0.35271925 -0.58094007 -0.26045159
000340 90 99 32 be 96 28 66 be 9d b4 73 be 19 74 5f 3e
       -0.17441392 -0.2247642 -0.23799367 0.21821631
000350 b7 7f 25 be 0c 8c 3f 3e 0f 2b 1e bf 41 cf 1e be
       -0.16162 0.18705767 -0.6178445 -0.15508749
000360 b0 a6 c9 3e 70 98 fd be 5b df a3 bd c7 10 75 be
       0.39384985 -0.49530363 -0.08001586 -0.23932181
000370 58 f9 6f 3c 2a 2b fa bd 25 77 af 3e 07 9a 51 3e
       0.0146468505 -0.12215264 0.34270588 0.20468913
000380 7b 38 7b 3e 39 ae 52 be 72 f6 46 3e 66 5e 84 3d
       0.24533264 -0.20574273 0.19429949 0.064633176
000390 76 f3 fd 3e 74 23 3d be ae 74 18 3e 0a e1 1b 3f
       0.49599808 -0.18470556 0.1488826 0.6089026
0003a0 64 f4 20 3d 4b ad 27 bd c8 f5 95 be ea 91 bf 3d
       0.03929557 -0.04093675 -0.2928908 0.09354003
0003b0 f5 b4 5c 3e e8 af c1 be 4b c2 ad be fa eb 06 bf
       0.21553405 -0.37829518 -0.33937296 -0.5270382
0003c0 01 04 b8 3d 20 1c 15 3f 3c b0 6e 3e a9 3e d3 3d
       0.08985139 0.5824604 0.23309416 0.10314686
0003d0 41 99 ef 3e 1f 8c bc be 25 20 0f 3f b9 d3 e7 3e
       0.4679661 -0.36825654 0.55908424 0.4527872
0003e0 73 ef c6 3d 07 53 ac bd d7 e6 a5 3e 9a ac 07 3f
       0.0971364 -0.08414274 0.3240268 0.52997744
0003f0 9a 71 8e 3e 12 fd b8 bd ad cf 7f 3e 64 b3 b0 3e
       0.27821046 -0.09032644 0.24981566 0.34511864

encoder.layers.0.attention.w_v.bias f4 [16]
000000 83 35 14 bd 4e 08 ba 3d bb 4b 50 be 33 04 e3 3d
       -0.036183845 0.09083615 -0.20341389 0.11084785
000010 04 6b 62 bd 92 8e 22 be 4e b1 0e 3d f6 c4 be 3d
       -0.05527784 -0.15874699 0.03483706 0.09314911
000020 ed 1a 37 3e e4 96 08 be a5 3a e1 bd fc b3 34 3d
       0.17881365 -0.1333881 -0.10997514 0.04411696
000030 db eb 80 3d 0e 47 96 3d ab fc e3 3d 54 e0 5a bd
       0.06294986 0.07337771 0.11132177 -0.053436592

encoder.layers.0.attention.w_concat.weight f4 [16, 16]
000000 44 43 6d be f6 c7 64 be 4f 82 04 3e 98 cd a4 be
       -0.23170191 -0.22341904 0.12940334 -0.32188106
000010 ad e4 f6 be d2 10 a8 be 8b 6b b2 be 56 65 0a bf
       -0.4822134 -0.32825333 -0.34847674 -0.54060876
000020 de 83 b4 be de af 8f 3e 6b 5f 0c 3f f9 9d be be
       -0.35256857 0.28063864 0.54833096 -0.372299
000030 6a ce 8a bd 0b 43 04 bf ba eb ee bc e9 f7 00 3f
       -0.067776516 -0.516648 -0.029165138 0.5037828
000040 47 da 98 be 4a dd 86 3e 03 dc 02 3f b3 7b 3e 3e
       -0.29854032 0.26340705 0.5111696 0.18601875
000050 90 96 6f be c8 0e d0 bd 65 e3 eb be cc 67 43 3e
       -0.23397279 -0.10159069 -0.46071926 0.19082564
000060 4c 34 13 3e 62 f9 db be 56 ff 00 3f a7 90 80 3c
       0.14375418 -0.429637 0.5038961 0.015693976
000070 6a 01 09 bf a9 42 29 3e 43 f8 e1 be 00 7f 79 3e
       -0.5351778 0.16529335 -0.4413472 0.24364853
000080 a2 a3 97 3e fa c7 bd bd e6 86 31 be 23 cc f6 bc
       0.2961703 -0.09266658 -0.17336616 -0.030126637
000090 2e 2d b2 be c8 d7 fa 3d 77 09 2f 3e 70 d9 aa 3e
       -0.34800094 0.12248188 0.17093454 0.33369017
0000a0 36 8f 5c be c6 a5 90 be ec 4b c0 3d f7 d0 0d bf
       -0.21539006 -0.28251475 0.09389481 -0.5539698
0000b0 3a 52 ff be 23 b8 69 3e de 17 d2 be d9 74 30 be
       -0.4986742 0.22824149 -0.41033834 -0.17232074
0000c0 80 74 e6 3e da ef f8 3e cd 0b 87 3e 00 f4 dc bd
       0.45010757 0.48620492 0.2637619 -0.10788727
0000d0 cb ce cf bd 08 8a bf be 23 12 08 bf 8f e9 91 bc
       -0.101468645 -0.37409997 -0.53152674 -0.017811565
0000e0 a5 7e 8b 3e 73 7b c3 bd f6 cb 24 be 80 32 d0 3e
       0.2724506 -0.095450304 -0.1609343 0.40663528
0000f0 e8 6d 3c bd e6 a4 9c be d8 66 ce be 83 96 78 be
       -0.046003252 -0.30594558 -0.4031284 -0.24276166
000100 e7 0b a8 be 71 35 d6 3d fd f6 5d be 1c d2 d5 3e
       -0.3282158 0.10459412 -0.2167625 0.41761863
000110 b5 9e b7 be 14 87 cd bd 91 4c 14 3f 73 2c 19 be
       -0.3586327 -0.1003553 0.5792933 -0.14958362
000120 81 39 99 bc 26 b5 b4 3e 87 9f 5c be 39 a5 00 3f
       -0.018704178 0.35294455 -0.2154523 0.5025211
000130 db 5b 15 be 75 ff ee 3e a3 5c 00 3f 6a 45 21 3d
       -0.14585821 0.46679273 0.5014135 0.03937284
000140 15 2a bd 3e be 42 70 3e 9c dd d5 bc 04 c4 eb 3e
       0.3694617 0.2346296 -0.026106648 0.46047986
000150 53 51 be 3e bc 62 b0 be 8e bf 87 be e6 79 11 bf
       0.3717142 -0.34450328 -0.26513332 -0.5682663
000160 47 ba a0 bd 1f ca e1 bd 69 fe 89 be bf e5 a5 bd
       -0.078480296 -0.1102488 -0.26951912 -0.08100461
000170 e2 f5 8a be 35 4a 04 bf 5e 0e e6 3e df 3b a3 be
       -0.2714072 -0.5167573 0.44932836 -0.31881616
000180 84 7b 82 3d 9a 59 dc be 77 d5 74 3d 2b ca 5b 3e
       0.06371215 -0.4303711 0.05977389 0.2146384
000190 67 28 ea be 0f 68 e8 be dc 1d 12 bf fd b2 14 3e
       -0.4573395 -0.4539189 -0.5707681 0.14521404
0001a0 75 05 97 3e e9 ee 9f be 86 d2 a9 3d dc c5 6f be
       0.2949635 -0.3123696 0.08292107 -0.23415321
0001b0 31 9b f8 be f7 3c 06 3e 39 93 d0 be d1 a7 8a 3e
       -0.48555902 0.13109194 -0.40737322 0.2708116
0001c0 91 3e e2 be f0 0e 11 bf 27 40 1b 3f 89 18 e2 3e
       -0.4418836 -0.5666342 0.60644764 0.44159344
0001d0 a0 7c 6e 3d ab 85 01 3f 9a 99 b0 bd 6e 7a 00 3f
       0.05822432 0.50594586 -0.08623047 0.5018681
0001e0 db a3 12 bf 6d 73 00 3f a5 81 eb 3e a1 8e d0 bd
       -0.57281274 0.50176126 0.45997348 -0.10183454
0001f0 b8 75 25 3e 2b 24 2c be 5c a7 5e 3e 02 5d c4 3e
       0.16158187 -0.16810672 0.2174353 0.3835221
000200 74 12 cb 3e be bf d4 3e ba 85 94 3e 0f 2b 68 3b
       0.39662516 0.41552538 0.29008275 0.0035426056
000210 43 cc 09 bf 3a 5d e7 be f8 76 1e bf 76 ca d6 be
       -0.53827304 -0.45188314 -0.6190028 -0.4195134
000220 9c 26 bc 3e 57 4b aa 3d 01 e3 8c 3e d4 24 aa be
       0.36748207 0.08315151 0.2751694 -0.33231223
000230 bd 40 fa 3e 1c 3e 1f bd fc 14 b4 be e3 ac 99 bd
       0.48877516 -0.03887759 -0.3517226 -0.07503679
000240 d6 d4 81 3e 63 cb fc be 7f dd 15 3e 24 2d a9 3e
       0.25357693 -0.49373922 0.14635275 0.33042252
000250 51 c8 4c be f6 89 ea bd 37 4c c9 3e 6c 24 e1 be
       -0.1999829 -0.11452095 0.3931596 -0.439731
000260 1c 4b dc 3e 04 31 04 3f 1d 50 ba 3e 12 a3 25 be
       0.43026054 0.5163729 0.36389247 -0.16175488
000270 fd aa 90 be f1 dd 12 3f 23 e1 69 be a9 30 e6 be
       -0.28255454 0.57369906 -0.22839789 -0.44959
000280 70 62 eb be 14 6a 89 3e 64 89 a0 be 47 ad b5 3e
       -0.4597354 0.26838744 -0.3135482 0.35483763
000290 f4 da ae 3e f2 8e 8a ba b8 62 d6 bd 30 f2 9d be
       0.34151423 -0.0010571165 -0.10468048 -0.30848837
0002a0 d9 3d aa be e2 37 49 3e 42 8b a2 3e ed 75 fc 3e
       -0.3325031 0.19650224 0.3174687 0.4930872
0002b0 31 a0 a1 3e 72 ee 2b be 51 6f 91 bd 14 6f 0e bb
       0.3156753 -0.16790178 -0.0710131 -0.0021733688
0002c0 0b 75 fa bd c2 08 ed be f3 42 e2 3e 2c 87 a8 3e
       -0.122293554 -0.46295744 0.44191703 0.32915628
0002d0 4f c5 01 3f 75 51 c7 be f0 3c 4c 3e 6b 8a b8 bd
       0.50691694 -0.38929334 0.19945121 -0.09010776
0002e0 38 46 11 3e aa c8 8e 3e d1 18 9e 3d e3 f9 76 3d
       0.14186943 0.2788747 0.07719577 0.060296904
0002f0 a0 67 0a bd 87 37 19 bf 1e 14 a8 3c d5 16 0f bf
       -0.03379023 -0.59850353 0.020517405 -0.55894214
000300 7d dd bd bd b3 59 e2 be 98 33 29 3e 9e 60 fb 3e
       -0.09270761 -0.4420906 0.16523588 0.4909715
000310 da 41 bf 3d bb 9c db be 50 bd 02 3f 21 18 a8 be
       0.09338732 -0.42893013 0.5107012 -0.3283091
000320 a0 6f 08 be d7 5d 5a be 78 e9 08 3e 71 9c 08 bf
       -0.13323832 -0.2132486 0.13370311 -0.5336371
000330 42 61 0c bf 60 36 e8 be ce f8 ab be 3f 24 08 3f
       -0.54835904 -0.45353985 -0.3358826 0.5318031
000340 eb 36 3b 3d d4 ee fb be 1d 21 49 bd 8b b8 e9 be
       0.04570667 -0.4920565 -0.049103845 -0.45648608
000350 44 1c d3 3e e9 64 d1 3d 27 59 e6 3e 53 ca cb 3e
       0.41232502 0.10224325 0.44989893 0.398028
000360 8b 28 0f 3f b1 4d 51 3e b6 2d a5 be 9d 42 d1 3e
       0.5592124 0.20439793 -0.32261437 0.40871134
000370 6d 41 81 3e 49 97 15 3f 1b 94 33 3e c6 a3 db 3e
       0.25245228 0.5843397 0.17536967 0.42898387
000380 40 a2 11 3f 6e 06 e2 3e 12 3f dd be 5b f1 ae be
       0.568882 0.4414553 -0.4321218 -0.34168515
000390 ef 3e db 3d ab 32 56 be bb 44 af 3e 58 31 03 3f
       0.10705363 -0.20917766 0.34232125 0.5124717
0003a0 74 02 4d 3c 50 2d 17 bd 5b 7f 01 3f c3 66 b5 3e
       0.012512792 -0.036908448 0.50584954 0.35429963
0003b0 4b d3 55 3e 8a 03 0e 3f 44 82 63 be 4e 55 56 3e
       0.20881383 0.5547415 -0.22217661 0.20930979
0003c0 70 19 9c be 16 1f b0 be 6b 48 1a 3d f4 fc 0d be
       -0.30488157 -0.34398717 0.03766672 -0.13866025
0003d0 89 1d 8f be fe bb 93 3d 89 78 e1 be 16 fa f8 3e
       -0.2795222 0.07213591 -0.44037274 0.486283
0003e0 05 2e 9c 3d 38 4e a0 be ee 52 cd 3c ee 0a 8c be
       0.07625965 -0.31309676 0.025063958 -0.2735209
0003f0 b5 01 ed 3e ad d8 56 bd 1e 67 27 bc 6f 64 19 3f
       0.46290365 -0.052452732 -0.010217456 0.59918875

encoder.layers.0.attention.w_concat.bias f4 [16]
000000 bb 3d f0 3b dc d3 b3 3d c7 2e 8b bd 46 57 c4 3d
       0.0073315776 0.08780643 -0.067960314 0.095869586
000010 90 68 9d bd 6d 96 11 3b 8f 8c 3e be b0 bd 88 bd
       -0.07685959 0.0022214905 -0.18608306 -0.06676805
000020 6f 74 e0 bd 05 3d 87 bd 71 cb fd bd 0d 7d 39 be
       -0.10959708 -0.066034354 -0.12392319 -0.1811411
000030 28 8e 8c 3c 26 18 11 3e 68 8b 3d 3e 8e 93 fb 3d
       0.01715763 0.14169368 0.1851021 0.12284003

encoder.layers.0.norm1.gamma f4 [16]
000000 b5 d2 7e 3f 63 d5 76 3f 8e dd 7d 3f e2 62 7c 3f
       0.99540263 0.9641935 0.9916619 0.98588383
000010 b3 01 7c 3f 01 ab 7a 3f 84 25 82 3f e3 85 81 3f
       0.9844009 0.9791718 1.0167699 1.0118984
000020 87 b0 7e 3f 66 79 80 3f 61 a3 81 3f ed 42 7a 3f
       0.9948811 1.0037048 1.0127984 0.9775837
000030 e4 a6 7a 3f 38 8e 7b 3f 7d 8d 82 3f 85 80 7f 3f
       0.97910905 0.98263884 1.0199429 0.9980548

encoder.layers.0.norm1.beta f4 [16]
000000 1f 16 02 3c 74 51 05 bc f0 23 79 bc 24 04 1b 3c
       0.007939844 -0.008137096 -0.015206322 0.009461436
000010 ee 0d 14 bb 1c 9a ed 3a 9c 8f 94 3b ca d4 14 3c
       -0.002259131 0.0018127593 0.004533721 0.009083936
000020 5f 35 9e bc e7 10 cf bb 89 a2 fc b8 69 65 8f 3c
       -0.019312559 -0.0063191536 -0.00012046571 0.01750441
000030 b2 df 24 bc c5 59 8f 3b 48 93 a9 bb 2d 6f 83 3a
       -0.010063099 0.004374715 -0.005175028 0.001002764

encoder.layers.0.ffn.linear1.weight f4 [64, 16]
000000 3b 9b 9e be 2f c0 c3 3d 60 c3 97 bd 33 59 a9 3d
       -0.30977806 0.095581405 -0.07410312 0.082689665
000010 2d 41 f9 be 74 76 03 3f 8d e9 94 3d 93 fc 10 bf
       -0.48682538 0.5135262 0.07271109 -0.566354
000020 3c 77 75 3d a3 3c 07 3f 9c 89 86 be 4b 58 97 3e
       0.059928164 0.528269 -0.26276863 0.2955955
000030 1a c2 ea 3e c8 62 b8 3c 77 dc 2c 3e 9a ed 0b 3f
       0.45851213 0.02250804 0.16880976 0.54659426
000040 b5 36 47 be 26 97 5e be 68 15 ba 3e 38 e0 1a 3e
       -0.19454463 -0.21737346 0.36344457 0.15124595
000050 f9 ff 34 3e a7 af 90 3d 10 e9 da 3e a2 7f 0f bf
       0.17675771 0.07064753 0.42755938 -0.5605413
000060 45 5e f0 bc f3 58 f0 bd b7 8d 2d 3d d9 c8 3a 3e
       -0.029341826 -0.11735716 0.042371478 0.1824068
000070 c3 38 f0 3e 29 be 70 3e ab 5d 58 be 0d 8c a9 3e
       0.46918306 0.2351004 -0.21129481 0.33114663
000080 fb eb 0e bf 61 b7 33 be 9f df 99 3e 1f c9 df be
       -0.5582883 -0.17550422 0.30053422 -0.4370813
000090 0e 34 12 3f b6 e9 05 3f d4 2e 44 be 98 e1 48 3e
       0.5711068 0.5230974 -0.19158489 0.19617307
0000a0 dc 78 e5 bc d1 95 8c 3e d6 c2 0c bf 5d 44 08 3f
       -0.028011732 0.2745805 -0.54984796 0.53229314
0000b0 ae 54 b0 be 95 47 c7 be ea d3 8f 3e ed aa e9 3d
       -0.34439605 -0.389218 0.28091365 0.11409555
0000c0 d2 06 10 3e 08 7f ef 3c 8c 97 13 bf 18 2e 2f 3e
       0.14065102 0.029235378 -0.5765312 0.17107427
0000d0 a0 f5 18 3e de 97 fe 3e 8c 84 8f 3e fd 74 7a bd
       0.14937449 0.4972524 0.28030813 -0.061146725
0000e0 f9 af 98 be ed e0 e4 3e 74 a5 17 3e 77 d2 22 3e
       -0.29821756 0.44702855 0.14809209 0.15900598
0000f0 7f 9b 14 3e 5e e7 fa 3e 05 0f 69 3e 4d dc 18 bf
       0.14512442 0.49004644 0.22759636 -0.5971115
000100 f5 7b 9c 3e f5 43 11 bd e8 47 ed be da 67 8e 3e
       0.30563322 -0.0354652 -0.46343923 0.27813607
000110 01 25 56 be 77 24 8a be 1c dc f7 be 2b e3 f7 3d
       -0.20912553 -0.26980945 -0.48410118 0.12103876
000120 03 0b c0 3e e2 5b 85 be 5b ca 91 3d 13 3d 2a be
       0.375084 -0.26046664 0.07118674 -0.1662486
000130 e2 07 09 3f 23 8d 0b be 32 be f1 3c 60 54 12 be
       0.53527653 -0.13628058 0.029509638 -0.14289999
000140 f5 8e 82 be fb 5a 60 3e 8b 4d 05 3f 03 7a e9 be
       -0.25499693 0.21909706 0.52071446 -0.456009
000150 7f de 0e 3f ca 74 c0 be 16 c1 4b 3e 0d 70 ba 3e
       0.5580825 -0.37589103 0.19897875 0.36413613
000160 03 36 01 be 0a 33 eb 3e 67 20 e8 3e c8 dc d4 bc
       -0.1261826 0.45937377 0.4533722 -0.025984183
000170 57 08 52 be e7 79 00 3f bb 3a c5 be 39 17 24 be
       -0.20510994 0.5018601 -0.3852137 -0.16024484
000180 b5 b6 17 3f e5 75 c6 3e 60 05 98 be 9d 63 c1 be
       0.59263164 0.3876182 -0.296916 -0.3777131
000190 a6 03 61 bc 1f e1 fa 3d 06 d2 bc bc 97 3c 8e 3e
       -0.01373378 0.1224997 -0.023049366 0.277806
0001a0 aa 7c f4 3c 61 21 ac be 4b 4a c0 3e 54 94 60 3e
       0.0298446 -0.33619216 0.3755668 0.21931583
0001b0 be 24 95 be c2 cc 59 be e2 11 c6 3e 87 dd 88 3e
       -0.29129595 -0.21269515 0.38685519 0.26731512
0001c0 a6 c2 9d 3d 73 cb f0 3b 86 d6 79 3e a7 75 9f 3c
       0.07703142 0.007348472 0.2439824 0.01946528
0001d0 20 81 0e bf 74 25 8a 3e 00 47 a4 be d7 6c 36 3d
       -0.5566578 0.269817 -0.3208542 0.04453739
0001e0 03 cf 9c bd 56 e7 14 bf 1a 81 32 3d 84 46 39 be
       -0.07656672 -0.5816549 0.043580152 -0.18093306
0001f0 89 8c 60 bd 8e ad c6 be 91 cf 1c 3e bc 46 c0 be
       -0.054821525 -0.38804287 0.15313555 -0.37553966
000200 24 6f 02 bf 19 74 be 3e 1f 07 ad 3e 50 44 d2 be
       -0.5095084 0.3719795 0.33794495 -0.41067743
000210 f4 2e fd be 54 25 f4 3e aa cd e3 3d c3 f8 98 be
       -0.49449885 0.4768473 0.11123212 -0.2987729
000220 e9 0c b3 be 8e 0e b2 3d 05 c8 fa be fb b4 23 be
       -0.34970787 0.08694182 -0.48980728 -0.15987007
000230 fc 85 08 bf 79 ae 03 bf 70 df 9f bd 98 5a 8c be
       -0.53329444 -0.514381 -0.07806289 -0.27412868
000240 0b 4a 82 3d f8 1d c3 be 72 9e 0f 3f bf 5e ce bd
       0.06361779 -0.38108802 0.56101143 -0.10076665
000250 46 3a 6a 3e 94 ee fd 3e 9a ce bd 3d 3c 29 13 3f
       0.22873792 0.49596083 0.09267922 0.57484794
000260 b5 d9 cb bc 06 81 1b 3f 9e 10 ff 3e ac d2 2b 3d
       -0.024884084 0.6074375 0.49817365 0.04194896
000270 b7 24 96 3e 95 85 af be 92 56 1c 3e 0d 94 f4 bd
       0.29324886 -0.34281603 0.15267399 -0.11942301
000280 1c 24 5e 3e 26 c4 a0 3e 7a 0f 7e 3d 32 60 7a be
       0.21693462 0.3139965 0.06202648 -0.24450758
000290 a1 99 07 3f 99 d2 bf be c8 0b 0e 3f 6e 8b fe bd
       0.52968794 -0.3746536 0.55486727 -0.12428938
0002a0 82 dd 93 be a1 3c 98 bd a0 fd 82 be 19 5a 89 be
       -0.28879935 -0.07433439 -0.25584126 -0.26826552
0002b0 9a 29 4f 3e d6 20 cd 3e 7c ce 2a be 14 19 40 3d
       0.20230713 0.40064114 -0.1668033 0.046898916
0002c0 d0 fe bc bd fa a4 71 3d 2a 3d 8d be fc 9d 93 be
       -0.09228289 0.058995225 -0.27585727 -0.2883147
0002d0 17 25 1c 3e 7d 78 17 3d 97 f4 62 bd b8 4c ea 3e
       0.15248524 0.03698014 -0.05540904 0.45761657
0002e0 b1 77 18 bf 22 f6 00 bf 15 9e 0b bf 2c c1 12 3f
       -0.59557635 -0.5037557 -0.5453809 0.57326007
0002f0 eb a1 00 bf 9a b6 c3 3e 6e 65 0b bf 0e bd b5 3d
       -0.5024707 0.3822525 -0.54451644 0.0887395
000300 d3 37 9b bd ca d4 60 be 5b f3 63 3e 29 13 d6 bd
       -0.07579007 -0.21956173 0.22260801 -0.10452873
000310 df 75 c7 3e 0f 19 fd 3e d7 9c ea be cf 34 0a bf
       0.38957116 0.4943318 -0.45822784 -0.5398683
000320 ac 0b 0e bf 67 9f 29 be 14 f7 15 3e 29 59 cc 3c
       -0.5548656 -0.16564713 0.14645034 0.024944859
000330 bb cf 73 be 36 ef 88 3e 15 7d e7 3b a5 e0 0e bf
       -0.23809712 0.26745003 0.0070644715 -0.5581153
000340 6e 12 f0 be a4 57 eb 3e 1a 1b 60 be 72 55 c3 3e
       -0.4688906 0.45965302 -0.21885338 0.38151127
000350 7a f9 d2 3e 95 e4 7f 3e 7b b7 a3 3e 4b 6b 70 3e
       0.4120596 0.24989541 0.31975922 0.23478429
000360 df 25 bf bd 12 79 3a be 07 51 d2 3d 9f 8b d1 be
       -0.09333395 -0.18210247 0.10269361 -0.40926835
000370 1d 5c 95 be f1 19 14 bf f7 04 75 3d 03 c4 cb 3e
       -0.2917184 -0.57852083 0.059819188 0.39797983
000380 17 e2 a8 3e 21 71 17 3e 9f 06 8e bc a7 71 3c 3d
       0.32984993 0.14789249 -0.017337142 0.046006825
000390 48 fb e1 3c 68 5f e1 3e fd e7 57 3e 9a 4c fb 3e
       0.02758564 0.44018102 0.2108459 0.4908188
0003a0 7b ec d6 bd d8 7a 7a 3e 3e e1 b5 bd ea ee b4 3e
       -0.10494324 0.24460924 -0.08880852 0.35338527
0003b0 3e b5 05 bf fc f2 8c bd 4a 2b c2 be e5 1b 11 3c
       -0.5222968 -0.06882283 -0.37923652 0.008856748
0003c0 8a 16 f2 be 33 6d 89 be d1 a2 20 be 6f bf 4e be
       -0.4728282 -0.26841125 -0.1568711 -0.20190214
0003d0 ff cb 06 3f dd 6f 87 3d c0 94 71 be 72 54 9a be
       0.52655023 0.06613133 -0.235919 -0.30142552
0003e0 7e 5d 88 3d 19 51 45 3e fc 5c 9d 3e 9b 3d db 3e
       0.06658457 0.19269218 0.30735004 0.4282044
0003f0 f2 34 55 3e 7a 44 bf 3d 4f f2 97 be dc 3f b9 3e
       0.20820978 0.09339233 -0.29677054 0.36181533

encoder.layers.0.ffn.linear1.bias f4 [64]
000000 48 7e 46 bd 3f d3 a0 3d ae 67 44 3e 1d f6 a0 3d
       -0.048460275 0.07852792 0.19180176 0.078594424
000010 0f 29 2e 3e 9b 42 21 3e 19 87 a3 3d e0 a1 98 3d
       0.1700785 0.15748064 0.07984752 0.0745275
000020 e5 e9 78 3d a4 d0 99 3b a0 ad 4f 3e 43 60 77 3e
       0.060769934 0.0046940614 0.20281076 0.24157815
000030 7e b8 97 3d 22 86 8c bc e3 77 6c 3e 81 1b 36 be
       0.07408236 -0.017153803 0.23092608 -0.1778393
000040 e4 47 3f 3e a9 59 fa 3d 7b b9 28 3e 99 30 a4 bc
       0.18679768 0.122241326 0.16477005 -0.020042704
000050 aa b3 47 be cd 58 34 3e f9 27 d5 bd b7 a0 80 3d
       -0.1950213 0.17612 -0.10408015 0.06280654
000060 ae 3e 03 3e bb 1a 5f be b5 56 82 3c 55 84 a4 bd
       0.12816879 -0.2178754 0.015910486 -0.08033053
000070 53 30 35 3e d7 d5 29 be f5 c2 1e 3e 90 3b 1e 3e
       0.17694215 -0.1658548 0.15504058 0.15452409
000080 1c 73 04 3e 26 12 7c 3e 83 e7 0c 3d d1 a0 6b be
       0.12934536 0.24616298 0.034400474 -0.23010565
000090 b6 2a 41 3e 90 b3 ad 3c 38 eb af 3a d0 7d 62 be
       0.18863949 0.021203786 0.0013421541 -0.22118306
0000a0 66 30 69 bd a9 67 e4 bd 84 38 61 3e 85 7a 2a 3e
       -0.056930922 -0.11152584 0.21994215 0.166483
0000b0 07 ba 45 3e e9 21 23 3e 04 22 2a be d5 33 fb bd
       0.19309245 0.15930904 -0.16614538 -0.122657456
0000c0 8e b5 9f bd 58 8c ae bd d9 ba 3b 3e fd 93 9e 3d
       -0.07798301 -0.08522862 0.18332995 0.0774307
0000d0 12 0e 40 3e d7 43 35 bc 4a 2c 61 be c1 13 af bd
       0.18755367 -0.011063538 -0.21989551 -0.0854869
0000e0 1a 26 1d 3e 58 20 0e 3e b2 33 90 3d 15 13 91 bd
       0.15346566 0.13879526 0.0704111 -0.07083718
0000f0 3c 76 6c be f8 c5 e5 bd 53 69 08 3e c0 03 d7 bd
       -0.23091978 -0.112194 0.13321428 -0.10498762

encoder.layers.0.ffn.linear2.weight f4 [16, 64]
000000 38 f9 94 bd 96 c2 d9 bd 7e 91 e5 bd 50 26 a4 bd
       -0.07274097 -0.106328174 -0.11209391 -0.0801512
000010 75 14 b1 3d 3a e8 80 bd a4 be 18 be 0b 35 48 3e
       0.0864648 -0.06294294 -0.14916474 0.19551484
000020 09 2e ed bd 12 20 87 3e 9c c8 27 3e fa 2b 97 3e
       -0.11581046 0.26391655 0.1638512 0.2952574
000030 d4 8e 54 3e d5 e0 07 3e ec c2 2a be 3f 72 81 be
       0.2075761 0.1326936 -0.1667592 -0.25282475
000040 9d b2 6b be 44 27 bf 3d 6a ba 7b be 9c ea 8e bc
       -0.23017354 0.09333661 -0.2458283 -0.017445855
000050 23 c7 75 3e 29 e0 91 bd 85 0c bc bd 78 64 20 be
       0.24001746 -0.07122833 -0.091820754 -0.15663326
000060 44 5f f7 3c 90 82 c7 bd 3c 01 90 3d da 08 73 be
       0.030196793 -0.097417 0.070314854 -0.23733845
000070 89 4a 84 bd df 1e 31 3e c7 f9 da bd 51 c6 9d 3d
       -0.06459529 0.17296933 -0.106921725 0.077038415
000080 c6 03 66 be 25 95 5d 3c 82 09 9c be 1c c2 98 be
       -0.22462377 0.013524328 -0.30476004 -0.29835594
000090 aa cf ae bd db e8 3b bd 06 f5 1a 3e e3 47 91 3e
       -0.085357025 -0.045876365 0.15132532 0.28375158
0000a0 01 c9 79 be 61 e9 bd 3d 64 a9 d8 bd 12 3b 02 be
       -0.24393083 0.09273029 -0.10579184 -0.12717846
0000b0 d2 6f 46 3e 42 fb fa 3d 85 da 19 3c fb d2 d8 3d
       0.19378594 0.12254955 0.009390478 0.10587116
0000c0 33 8b e9 bc fd 5c 94 be 40 a2 85 be e3 a5 cb bd
       -0.028508758 -0.28977194 -0.2610035 -0.0994375
0000d0 c0 d4 8d be a7 85 4c 3e 4a e8 67 bd a0 a6 77 be
       -0.27701378 0.1997286 -0.056618012 -0.24184656
0000e0 1f 81 06 bd 72 58 16 be 09 df 00 be 97 d5 54 3e
       -0.032837983 -0.14682177 -0.12585081 0.20784603
0000f0 c5 c6 14 3c b2 22 6c 3e ab ca 80 be 48 f8 3a 3e
       0.0090805935 0.2306011 -0.25154623 0.18258774
000100 3a 8b e1 bc ba 6f 5d be 44 11 a4 bd bb 16 65 3e
       -0.027532209 -0.21624652 -0.08011106 0.22371952
000110 a7 47 55 be df c3 b2 bd 78 2d bd 3d 0f 33 6a 3e
       -0.20828114 -0.08728766 0.09237188 0.2287104
000120 9c bf 30 3d 83 3a b5 3d ee af 48 be 60 48 0c 3e
       0.043151483 0.08849051 -0.19598362 0.13699484
000130 7c aa 00 3d 58 a1 f5 bd d4 46 76 3e 81 3d 71 3e
       0.031412587 -0.119936645 0.24050456 0.23558618
000140 72 24 b3 3d 2e 41 42 be ef eb 76 3e a0 fc 25 3d
       0.08747186 -0.18970177 0.24113439 0.040524125
000150 7f 3b be bd 77 23 e1 bd 6a 89 cf bd 28 ca 4c be
       -0.09288692 -0.109930925 -0.101336315 -0.19998991
000160 05 5a de bd aa c7 7e 3e b6 32 47 3e b0 fe 13 3e
       -0.108570136 0.24880853 0.19452938 0.14452624
000170 d1 85 3a be c6 49 00 3e 2e da 75 3d d0 ed 18 3d
       -0.1821511 0.12528142 0.060022525 0.03733617
000180 05 c3 bc 3d 7f 84 3e be c1 8b 87 3d 7b c1 89 3d
       0.092168845 -0.18605231 0.06618453 0.067263566
000190 c7 8c 81 be 88 b7 76 bb 86 40 5a 3d 0a b7 87 bd
       -0.25302717 -0.0037646014 0.05328419 -0.06626709
0001a0 53 fb 90 bd a7 cf dc bb 8a fd 7d 3e e9 28 9b bd
       -0.07079186 -0.0067386213 0.24803749 -0.07576162
0001b0 65 71 7a be d7 f0 83 bd 52 ed 1a be 7a 42 c0 3d
       -0.24457319 -0.06442421 -0.15129593 0.093876794
0001c0 f0 18 b4 3d 34 79 81 be 0c 94 5c 3d d4 75 5c 3e
       0.08793819 -0.25287783 0.053852126 0.21529323
0001d0 5b 78 80 3e 96 37 76 bc 79 b1 54 bd 54 02 95 be
       0.25091824 -0.015027901 -0.051927064 -0.2910334
0001e0 4d 1d 8e be 46 28 5a 3e 1d 3c 76 bd c9 ef 0d 3e
       -0.2775673 0.21304426 -0.060115922 0.13861002
0001f0 24 34 d8 3d fb fa 31 be 82 c8 88 be 1f 00 83 3e
       0.1055682 -0.17380898 -0.26715475 0.2558603
000200 2e b7 46 be aa 85 9d 3d ac 2f 8c 3d ee c3 a8 3d
       -0.19405815 0.0769151 0.0684503 0.082404956
000210 37 4d 2c 3e e7 2f 14 be 67 c5 7e be 80 33 08 be
       0.1682633 -0.14471398 -0.2487999 -0.13300896
000220 b9 bc 78 be c0 f0 e9 3d d9 53 44 be 0d d5 41 be
       -0.24290742 0.114228725 -0.1917261 -0.18928929
000230 0e e7 87 be 49 7a de 3d 08 55 70 be f5 04 a2 bd
       -0.26543468 0.10863168 -0.23469937 -0.07911102
000240 51 23 83 bc 09 b3 6a 3e 35 31 c9 3b cf be a1 bb
       -0.016008051 0.22919859 0.006139899 -0.0049360762
000250 da 92 80 3c 2e 49 31 3e 17 5f d0 bd 7a 8f 7b be
       0.015695024 0.17313072 -0.10174387 -0.2456645
000260 0a 1f 57 3e 82 da 27 3e d5 b7 66 3e b1 57 a6 3d
       0.21007934 0.16391948 0.22531064 0.081221946
000270 89 a8 97 be 56 13 d5 3d 98 fb e2 bd e7 f7 ef bd
       -0.2962077 0.10404079 -0.11083144 -0.117172055
000280 a6 d3 5f 3e 4c 05 44 3e 05 e9 79 3e fe bd de 3d
       0.21858081 0.19142646 0.24405296 0.10876082
000290 b4 f8 9a 3e 5e 29 7e be f8 a4 8f be eb 03 1f 3e
       0.3026787 -0.24820468 -0.2805555 0.15528838
0002a0 f8 0f 43 3e b2 f1 c2 bd cd c6 a7 bc 9b c6 53 3e
       0.1904906 -0.09518756 -0.020480538 0.2068123
0002b0 b6 77 7c be cc ad 98 be 36 4d 8c bd e4 12 1b 3e
       -0.24655041 -0.29820096 -0.06850664 0.15143925
0002c0 f2 80 4b 3e 3e 9a 1d be 31 23 20 be dd 33 e8 3d
       0.19873407 -0.1539087 -0.15638424 0.11338017
0002d0 c8 ae 8c 3e e3 8f 6d bd a0 08 1a be 6e 49 ff bd
       0.27477098 -0.05799855 -0.15042353 -0.124651775
0002e0 9e 04 32 be 16 67 61 be 28 87 18 3e c6 c6 a2 bc
       -0.17384574 -0.2201198 0.14895308 -0.019870173
0002f0 a1 3a 8f 3d 71 e3 d8 3d 62 5e 55 3e 46 0b 32 bd
       0.069936045 0.10590256 0.20836785 -0.043467782
000300 e2 61 51 3e fd 2e 6e 3d f2 30 55 3e f1 cd 0c be
       0.20447496 0.05815028 0.20819452 -0.13750435
000310 fa 37 f0 bd fb 7d 7a 3d 31 bd 43 3e 93 e0 52 bd
       -0.11729427 0.0611553 0.1911514 -0.051483702
000320 24 58 82 be 63 9f 97 be af 1f 39 bc 21 80 8a bd
       -0.2545787 -0.2961379 -0.011299058 -0.0676272
000330 44 02 b8 bd 4f 81 0c be ae 67 a6 3a c1 1c 1f be
       -0.08984807 -0.13721202 0.0012695694 -0.15538312
000340 dd d9 c2 3d f3 47 50 be fb c5 7c 3d 29 0c c9 3d
       0.095142104 -0.20339946 0.061712246 0.098167725
000350 3b ad 4f 3b a5 e3 78 3e 5a 8b 17 3e 7d 73 52 3e
       0.0031688947 0.2430559 0.14799252 0.20551868
000360 aa 50 24 be bb ce 3d 3c 38 64 48 3e 0d 5c 2c be
       -0.16046396 0.011584933 0.1956948 -0.1683199
000370 87 4b f5 bd 8e 7a 78 3d b4 61 31 be 19 d8 c3 bd
       -0.11977296 0.060663752 -0.17322427 -0.09562702
000380 d5 68 75 bc 21 01 96 3e fc 7f 07 be 8f 32 95 be
       -0.014978607 0.29297736 -0.13232416 -0.29140136
000390 83 e5 4f 3e e0 81 3a 3e da fc 4d bd a7 4a 1e 3c
       0.20302396 0.18213606 -0.050289966 0.009661353
0003a0 d4 5a 93 be dc b0 07 bd 29 a6 2d 3e f8 86 47 be
       -0.28780234 -0.03312765 0.16957916 -0.1948508
0003b0 be 11 7f bd 8e 96 55 be 26 f7 6f be 50 86 60 be
       -0.06227278 -0.20858213 -0.23434123 -0.21926236
0003c0 ea 30 d7 3d 98 58 59 3d fb 78 a0 3d 34 4e a5 3d
       0.105073765 0.053063005 0.07835575 0.08071557
0003d0 3f 6e 8f 3e e7 40 95 3d 50 77 3b 3e 71 cf 55 be
       0.280138 0.0728777 0.18307233 -0.20879914
0003e0 ce 0f 6b 3e 6a 4e 2b bc a2 e7 2e bc 92 db 95 3e
       0.22955248 -0.010455707 -0.010675343 0.2926908
0003f0 d3 3d 35 3e 10 ad 16 3e 42 d9 96 3e 47 06 bb bc
       0.17699365 0.14714456 0.2946263 -0.022830142

encoder.layers.0.ffn.linear2.bias f4 [16]
000000 ea ba bd bd ae 05 29 3d b0 0a 87 3d 04 57 f4 3d
       -0.09264167 0.041265182 0.06593835 0.119306594
000010 90 e1 f7 bd 68 7d db 3d 55 df be 3d 86 72 07 3e
       -0.121035695 0.10717279 0.09319941 0.13227281
000020 92 3e 75 3d 68 73 89 bd 7a 18 cd 3d 3b 4b f8 3d
       0.059874125 -0.06711465 0.10014434 0.12123724
000030 a6 9e 56 bd 1a 05 cf bc 2a ae d4 3d 64 7e d5 3d
       -0.052397393 -0.025270987 0.10384782 0.10424498

encoder.layers.0.norm2.gamma f4 [16]
000000 f6 61 7f 3f d4 36 7a 3f 72 36 7d 3f ac fa 7b 3f
       0.9975885 0.9773991 0.989112 0.9842937
000010 41 af 7a 3f 2c 17 7c 3f 57 ac 80 3f 3e d8 7d 3f
       0.97923666 0.9847286 1.0052594 0.99158084
000020 1f 7e 7e 3f 9c 1f 80 3f ba 69 7d 3f 50 3e 7c 3f
       0.99411196 1.0009646 0.9898945 0.9853258
000030 8a e0 75 3f 8a bd 7b 3f 3a 6a 80 3f d8 ff 76 3f
       0.96045744 0.9833609 1.0032418 0.96484137

encoder.layers.0.norm2.beta f4 [16]
000000 b9 1a 91 ba 05 18 99 bb c0 8f 25 bb 3c 46 1f 3c
       -0.0011070586 -0.004672053 -0.0025262684 0.009721335
000010 90 2d b5 ba 61 11 35 bc 56 57 0a bb 0f 6a 03 3c
       -0.0013822783 -0.011051507 -0.0021109185 0.008020892
000020 8d 6b 9e bb 8e aa 14 bb 46 e4 90 3b 9f da 05 3c
       -0.0048345984 -0.0022684666 0.0044217436 0.008169799
000030 2a a5 16 bc 5b 05 94 ba 2a 13 84 3c 9a 95 dd bb
       -0.009194652 -0.00112931 0.01612242 -0.0067622187
