Trans_Prediction/model_saved/ratioMergedPrs/TM_ratioMergedPrs_delay_size_7_delay_2.pth (torch, 385400 bytes, 337 tensors)

encoder.layers.0.attention.w_q.weight f4 [16, 16]
0	0x3ecc1e80	0.3986702
1	0xbeb55042	-0.35412794
2	0x3e909799	0.2824066
3	0xbe67bee7	-0.22631417
4	0x3ea367f5	0.3191525
5	0xbeb55b64	-0.35421288
6	0x3f09952b	0.5374324
7	0xbed8d7c0	-0.42352104
8	0xbe34e3c1	-0.17665006
9	0x3f1f861f	0.6231403
10	0x3d9678e4	0.07347277
11	0xbe95b8bf	-0.29242513
12	0x3f07e8c7	0.53089565
13	0xbe84684f	-0.2586083
14	0x3ed9f69e	0.42570966
15	0x3d240155	0.040040333
16	0xbedf8e67	-0.43663332
17	0x3e6ff290	0.23432374
18	0x3df4fdff	0.119625084
19	0x3ee5e116	0.4489829
20	0xbdcf923c	-0.10135314
21	0x3eaeccbf	0.34140584
22	0xbe0d6748	-0.1380893
23	0xbec9996d	-0.39374867
24	0xbe44c1ff	-0.19214629
25	0xbdadf5ee	-0.08494173
26	0xbeecbe72	-0.46239048
27	0x3f1cdb10	0.6127176
28	0x3e300135	0.1718796
29	0x3e305f59	0.17223872
30	0x3ddfab62	0.109213606
31	0x3eb17f15	0.34667268
32	0xbf118da9	-0.5685678
33	0xbf0f9d1d	-0.5609911
34	0xbee1bf51	-0.44091275
35	0x3e883834	0.2660538
36	0x3b421b7a	0.0029618428
37	0x3f10010a	0.56251585
38	0x3e8522d1	0.26003125
39	0x3e9e40be	0.3090877
40	0x3f0d2081	0.5512772
41	0x3f13bb32	0.5770751
42	0xbec74c77	-0.38925526
43	0xbedb5279	-0.4283636
44	0x3eab3c04	0.33444226
45	0x3eb3f6c5	0.35149208
46	0xbef8797b	-0.48530182
47	0x3ed1a2d8	0.40944552
48	0x3ec41af2	0.38301808
49	0x3ea0316e	0.31287712
50	0x3f0132bd	0.50468045
51	0x3ea95eb0	0.33080053
52	0xbe56931b	-0.20954554
53	0xbf0b75bc	-0.54476523
54	0x3c550ff4	0.013004292
55	0x3e364c01	0.1780243
56	0xbef8124d	-0.48451462
57	0xbeb3abc6	-0.3509199
58	0x3e776039	0.241578
59	0x3ec38bab	0.38192496
60	0x3f0ebfe4	0.5576155
61	0x3ec758bb	0.38934883
62	0x3ee9b137	0.45643017
63	0xbe21926c	-0.15778512
64	0xbea75f76	-0.32690018
65	0xbe34eeb6	-0.17669186
66	0xbd631227	-0.055437233
67	0xbefdb2a2	-0.4955035
68	0xbe596744	-0.21230799
69	0x3e9cc81b	0.30621418
70	0x3e872ea3	0.26402768
71	0xbe478c7a	-0.19487181
72	0x3f045957	0.5169882
73	0xbdf06439	-0.11737866
74	0xbec4a0de	-0.38403982
75	0x3f1a4b82	0.60271466
76	0xbe16d3cf	-0.14729236
77	0xbe91bb92	-0.28463417
78	0x3f057b86	0.52141607
79	0x3f1c7cb6	0.61127794
80	0x3f16e0aa	0.5893656
81	0x3e91f3e9	0.285064
82	0xbd367410	-0.04454428
83	0x3f18bfe0	0.5966778
84	0xbf07e7b0	-0.530879
85	0x3efbc4a8	0.49173474
86	0xbec9b319	-0.39394453
87	0xbf19fc7a	-0.60150874
88	0x3ecb6d8e	0.3973202
89	0xbd869bae	-0.06572662
90	0xbf11db1b	-0.56974953
91	0xbe9072e7	-0.28212664
92	0xbe47b7ef	-0.19503759
93	0x3e702a26	0.23453578
94	0xbf025d4c	-0.5092361
95	0xbeffc070	-0.49951506
96	0x3f02964b	0.5101058
97	0x3d575b31	0.0525772
98	0x3ebd25a4	0.3694278
99	0x3d290fee	0.041274957
100	0x3ea5af3f	0.32360265
101	0xbe3a6571	-0.1820276
102	0xbe7607f0	-0.24026465
103	0xbd160e8d	-0.03663497
104	0x3ecfe136	0.4060151
105	0xbea9a514	-0.33133757
106	0xbe51651d	-0.20448728
107	0xbd55975c	-0.0521463
108	0x3f08d002	0.53442395
109	0x3f176c4f	0.5914964
110	0xbcd2f531	-0.025751682
111	0xbeeaaa92	-0.4583326
112	0x3ed1b6e5	0.4095985
113	0x3e1f29a5	0.1554323
114	0xbec41d57	-0.38303635
115	0xbf0e83d5	-0.5566991
116	0xbe612840	-0.2198801
117	0xbedc0799	-0.42974547
118	0x3de62a6a	0.112385586
119	0x3df901ff	0.12158584
120	0xbeda536f	-0.4264178
121	0x3e297f0d	0.16552372
122	0xbe5bab33	-0.21452026
123	0x3ec77eba	0.38963872
124	0x3ee82c8d	0.4534649
125	0x3f1b9b42	0.6078378
126	0x3de3294d	0.11091862
127	0xbf095079	-0.53638417
128	0x3e94db8f	0.2907376
129	0xbcee01bf	-0.029053567
130	0xbf1e75a1	-0.6189824
131	0xbec88a10	-0.39167833
132	0x3edc4a97	0.43025658
133	0x3e919c64	0.2843963
134	0x3ee88470	0.45413542
135	0x3f0b71d2	0.5447055
136	0x3f0a5a18	0.5404372
137	0xbeb95aa2	-0.3620196
138	0x3e1b54bc	0.15169042
139	0x3f157825	0.5838645
140	0xbe462480	-0.19349861
141	0x3ec8df0a	0.39232665
142	0xbea027b6	-0.31280297
143	0x3ec6f841	0.38861278
144	0x3ea26255	0.31715646
145	0xbeb76194	-0.35816634
146	0x3f163a8c	0.58683085
147	0x3e866067	0.26245424
148	0xbefc4b3e	-0.49276155
149	0xbf05c11d	-0.5224779
150	0x3eaf9c52	0.3429895
151	0xbebe76d3	-0.3720003
152	0xbf072e42	-0.5280496
153	0x3ece77f4	0.40325892
154	0xbecccbae	-0.39999145
155	0x3ea0da0a	0.3141635
156	0x3d993b38	0.07481998
157	0x3cc50723	0.024051255
158	0x3eabe863	0.33575734
159	0xbf193d90	-0.5985956
160	0x3e63b057	0.22235237
161	0x3c11cdc7	0.008899159
162	0xbef0a7c3	-0.47002992
163	0xbefe6f92	-0.49694496
164	0x3ead8a08	0.33894372
165	0xbd434c15	-0.04767998
166	0xbf089fe4	-0.53368974
167	0xbe96aeaa	-0.29430133
168	0x3f177846	0.591679
169	0x3e159fb2	0.146117
170	0x3e3ed616	0.18636355
171	0x3f17257e	0.59041584
172	0x3d891e6e	0.06695257
173	0x3e09b6a4	0.13448578
174	0x3ed49250	0.41517878
175	0x3db14e8f	0.08657562
176	0xbd92c7ba	-0.07167001
177	0xbdcfbc5f	-0.10143351
178	0x3e724fb3	0.23663215
179	0xbf19cb57	-0.60075897
180	0xbe14c73f	-0.14529131
181	0xbf09d8c8	-0.53846407
182	0x3c8a06ec	0.016849004
183	0xbe851a8f	-0.25996825
184	0xbe51dd93	-0.2049468
185	0x3f04ab03	0.51823443
186	0xbe96fa7c	-0.2948798
187	0x3f0be9bb	0.5465352
188	0xbf148cb6	-0.5802721
189	0xbe044b7c	-0.1291942
190	0xbe368739	-0.17825021
191	0x3f16c8f9	0.5890041
192	0x3c65561d	0.013997582
193	0xbf15172f	-0.582385
194	0xbe00494e	-0.12527964
195	0xbe8c2029	-0.27368286
196	0xbeff2524	-0.49833024
197	0x3e96ac75	0.2942845
198	0x3ee0c638	0.4390123
199	0xbe948a18	-0.29011607
200	0x3d21a269	0.039461527
201	0x3f0b178a	0.5433279
202	0xbee2f65f	-0.4432859
203	0xbe8bf670	-0.27336454
204	0x3e960922	0.29303843
205	0xbdcd2c87	-0.100182585
206	0x3efa40c5	0.4887754
207	0xbd83bf0e	-0.06432925
208	0xbe486c1a	-0.19572487
209	0xbf177ba2	-0.59173024
210	0x3df93970	0.121691585
211	0xbee8b138	-0.45447707
212	0xbf059c3a	-0.5219151
213	0x3d887c5f	0.06664347
214	0x3ec6b2da	0.38808328
215	0xbe530e3b	-0.20610897
216	0x3e254a57	0.1614164
217	0xbe35029f	-0.17676781
218	0xbe95633f	-0.2917728
219	0xbe598a4a	-0.2124416
220	0x3e9779bc	0.29585063
221	0x3e56ce12	0.20977047
222	0xbe47b211	-0.1950152
223	0xbeebf1d7	-0.46082947
224	0xbec523df	-0.3850393
225	0x3f074446	0.5283855
226	0x3ecd918d	0.4015011
227	0x3ee24ad1	0.44197705
228	0x3efdd1eb	0.49574217
229	0xbe2faa73	-0.17154865
230	0x3eae1016	0.33996648
231	0x3ec626b3	0.387014
232	0xbebc6792	-0.36797768
233	0xbe50af67	-0.2037941
234	0xbec08333	-0.37600097
235	0xbe18c960	-0.14920568
236	0x3ebdcecf	0.37071845
237	0x3d3c0c91	0.04591042
238	0x3d19bc4a	0.037533082
239	0xbd49969e	-0.049215905
240	0xbeca8d82	-0.39561087
241	0x3e51874c	0.20461768
242	0x3e903b8e	0.28170437
243	0x3eaaf774	0.33391917
244	0xbed771e7	-0.42079088
245	0x3ec07e5d	0.37596408
246	0x3f1445b2	0.57918847
247	0x3e1c89ab	0.15286891
248	0x3eb10818	0.34576488
249	0xbd4c2210	-0.049837172
250	0xbf0c34db	-0.5476815
251	0xbee8beb2	-0.4545799
252	0x3e34f494	0.17671424
253	0x3e423596	0.18965754
254	0x3f0085d8	0.5020423
255	0x3e4ee5d5	0.20204861

encoder.layers.0.attention.w_q.bias f4 [16]
0	0x3e19ffa1	0.15038921
1	0xbe292189	-0.16516699
2	0x3dfc8542	0.123301044
3	0x3df23427	0.118263535
4	0x3e42ea2b	0.1903464
5	0xbe399a93	-0.18125372
6	0x3e453d94	0.19261771
7	0xbdfa8ba5	-0.12233666
8	0x3dd5998e	0.10429679
9	0x3e6c7282	0.23090556
10	0xbd2b4b7e	-0.04182004
11	0xbafaa611	-0.0019122978
12	0xbd8c8ca7	-0.06862765
13	0xbe5af675	-0.21383078
14	0x3dfbcff6	0.12295525
15	0xbe8078eb	-0.25092253

encoder.layers.0.attention.w_k.weight f4 [16, 16]
0	0x3e89d754	0.26922095
1	0xbef3d8ea	-0.4762643
2	0xbf103c37	-0.5634188
3	0xbea98790	-0.33111238
4	0xbec15cb7	-0.37766048
5	0x3e1f1d03	0.15538411
6	0x3eaa87ef	0.33306834
7	0x3db21006	0.086944625
8	0x3db8d17e	0.090243325
9	0xbf083614	-0.53207517
10	0x3ef832a3	0.48476133
11	0xbeb01f77	-0.34399006
12	0x3d3d9f9c	0.046294793
13	0xbe0c5064	-0.13702542
14	0xbdfb1dde	-0.12261556
15	0x3eb2adea	0.3489831
16	0xbf0ce11d	-0.55030996
17	0x3f0b0c54	0.54315686
18	0xbee04929	-0.43805817
19	0x3e326223	0.17420249
20	0x3f11ce39	0.56955296
21	0xbe903cf5	-0.28171507
22	0x3e23def5	0.1600302
23	0xbe9ba2a4	-0.30397522
24	0xbe5bcb43	-0.21464257
25	0xbda75724	-0.08170918
26	0x3e0c5fed	0.13708468
27	0xbf15fcec	-0.58589053
28	0x3ddc2110	0.10748494
29	0xbedfea0d	-0.43733254
30	0xbedfc279	-0.43703058
31	0xbd397a00	-0.045282364
32	0xbd662853	-0.0561908
33	0xbec9fe6a	-0.39451915
34	0x3ee85614	0.45378172
35	0xbcf5dc1e	-0.030012187
36	0x3d9e01fb	0.077152215
37	0xbeac0b70	-0.33602476
38	0xbe2ee4b1	-0.17079426
39	0xbea252be	-0.31703752
40	0xbf060b95	-0.5236142
41	0x3dac30ad	0.08407722
42	0xbf1ad62a	-0.6048304
43	0x3e869c16	0.2629096
44	0x3dae7c41	0.08519793
45	0x3e9004f7	0.28128788
46	0x3ed59067	0.41711733
47	0x3ede1112	0.433724
48	0x3e89b22f	0.26893756
49	0xbe954558	-0.29154468
50	0x3ed81bce	0.42208713
51	0xbead8dfe	-0.33897394
52	0xbd9253a2	-0.07144858
53	0x3c020b07	0.007937199
54	0xbedae836	-0.42755288
55	0x3b372856	0.0027947626
56	0x3e82ab91	0.2552152
57	0xbf0a419c	-0.5400636
58	0x3f0a678e	0.5406426
59	0x3f11416a	0.5674044
60	0xbf0d7dcb	-0.5527007
61	0x3da04feb	0.07827743
62	0xbedd038d	-0.43166772
63	0x3d8b6f17	0.06808298
64	0x3e1daf63	0.15398936
65	0xbe392008	-0.18078625
66	0x3ebc6661	0.3679686
67	0xbe36442b	-0.17799442
68	0xbead4427	-0.3384106
69	0x3d3f3a22	0.0466863
70	0xbe6f157a	-0.23348036
71	0xbe1da098	-0.15393293
72	0xbea6bd54	-0.3256632
73	0x3dfec21e	0.12439369
74	0xbebbcd31	-0.36679986
75	0x3e10bb08	0.14133847
76	0x3ec07f0d	0.37596932
77	0xbe06acdc	-0.13151878
78	0xbe9f8d24	-0.3116237
79	0xbeae3408	-0.34024072
80	0x3d27e187	0.040986564
81	0xbe38b75d	-0.18038698
82	0x3eb8aeeb	0.36070952
83	0x3e0e8908	0.13919461
84	0xbec8b720	-0.39202213
85	0x3e3be194	0.1834777
86	0x3eb18932	0.34674984
87	0x3ebbc149	0.36670902
88	0x3e462ad0	0.19352269
89	0xbdf4ef4f	-0.11959707
90	0xbef77eda	-0.48338968
91	0x3e976109	0.2956622
92	0xbea42161	-0.32056716
93	0x3ddfe6df	0.10932707
94	0xbeef9309	-0.46791866
95	0x3daacdd1	0.083400376
96	0x3df17572	0.11789979
97	0x3ec7cc94	0.39023268
98	0xbef095eb	-0.46989378
99	0x3e452f41	0.19256307
100	0xbf13bb55	-0.5770772
101	0xbe397932	-0.18112639
102	0x3d7490f5	0.059708554
103	0x3ec1ed37	0.37876293
104	0xbf1847f8	-0.59484816
105	0xbec3a3aa	-0.38210803
106	0xbe788523	-0.24269538
107	0xbd210438	-0.039310664
108	0xbeef26e5	-0.46709362
109	0xbed73a60	-0.42036724
110	0x3efe9154	0.49720252
111	0x3d68a6d6	0.056799732
112	0xbf05cb62	-0.5226346
113	0x3e872c23	0.2640086
114	0x3eec10ef	0.4610667
115	0x3eae17fe	0.3400268
116	0x3ec2ad8d	0.38023034
117	0x3e90f6b4	0.2831322
118	0xbf191e9c	-0.5981233
119	0xbe283e4a	-0.16430011
120	0x3f0f6e6b	0.5602786
121	0xbf0d3321	-0.5515614
122	0x3dbc91fc	0.09207532
123	0xbe87845a	-0.26468164
124	0x3eb57466	0.35440367
125	0xbe4573f5	-0.19282515
126	0xbdd34a26	-0.10316877
127	0xbed7f951	-0.421824
128	0x3e05c6e6	0.13064155
129	0x3f0c3b8e	0.54778373
130	0x3e8e3183	0.2777215
131	0xbd975429	-0.07389099
132	0xbf061e17	-0.52389663
133	0x3e69532c	0.22785634
134	0x3d668a27	0.056284096
135	0x3d0b538b	0.03401522
136	0xbf16869e	-0.5879916
137	0x3eb8f0ff	0.36121365
138	0xbe9d2e6d	-0.30699483
139	0x3c1d908e	0.009616984
140	0x3d1d22ae	0.03836315
141	0xbf083ab8	-0.532146
142	0xbe7697bb	-0.24081318
143	0x3ee69cce	0.45041507
144	0x3ed62205	0.4182283
145	0xbee496a1	-0.4464617
146	0xbe18207c	-0.14856142
147	0x3dcec2e2	0.10095765
148	0xbf09e7d8	-0.5386939
149	0xbe39c4ba	-0.18141451
150	0x3ee91155	0.45521036
151	0xbe882976	-0.26594132
152	0xbedf585e	-0.43622106
153	0x3f1113a9	0.56670624
154	0x3f166182	0.58742535
155	0xbeb34c2d	-0.35019055
156	0x3f0767dc	0.5289285
157	0x3e89cc43	0.26913652
158	0xbf035163	-0.5129606
159	0xbeb2392c	-0.34809244
160	0xbb76a27b	-0.0037633467
161	0xbd5f3ac9	-0.05449942
162	0xbe9e3e3f	-0.30906865
163	0x3d9b2942	0.07576229
164	0x3e052c1b	0.13005106
165	0x3d9f9be7	0.07793408
166	0x3e6d2b50	0.23161054
167	0x3e4642fe	0.19361493
168	0xbe8800af	-0.26563022
169	0x3e501701	0.20321275
170	0x3ea9d1bc	0.33167827
171	0x3ed65459	0.41861227
172	0x3ee49f69	0.4465287
173	0x3e979ccf	0.29611823
174	0xbdbb4d47	-0.09145599
175	0x3d4b2f7b	0.049605828
176	0x3e077a5c	0.1323027
177	0xbdd6d12c	-0.10489115
178	0xbed19add	-0.40938464
179	0x3e534bbb	0.20634358
180	0xbeb3f729	-0.35149506
181	0xbeb2a251	-0.34889463
182	0x3f099dc6	0.5375637
183	0xbef2fbc8	-0.4745772
184	0xbe535493	-0.20637731
185	0xbd8f4c26	-0.06996946
186	0xbea1b431	-0.31582788
187	0x3e621ffb	0.22082512
188	0xbde65cd5	-0.11248175
189	0x3f086138	0.53273344
190	0xbeb25eec	-0.34838045
191	0xbe2077e0	-0.15670729
192	0x3e79a8e9	0.2438084
193	0x3e9ff415	0.31240907
194	0xbeebe921	-0.460763
195	0x3d6e55a7	0.058187153
196	0xbd26adef	-0.04069322
197	0xbf1f074f	-0.6212053
198	0xbe43066a	-0.19045416
199	0x3ef8d0c9	0.4859679
200	0x3e94e765	0.2908279
201	0x3d8629ef	0.06550967
202	0x3eed085c	0.4629544
203	0xbf19831e	-0.59965694
204	0xbca36ff0	-0.019950837
205	0x3f07f509	0.5310827
206	0xbe70bfb6	-0.23510632
207	0x3e22d63e	0.1590204
208	0xbe7365d5	-0.23769315
209	0xbe23901e	-0.15972945
210	0xbc6f7c52	-0.014617043
211	0x3f11f59b	0.5701539
212	0xbec53dc9	-0.385237
213	0x3f16ca3c	0.58902335
214	0xbed3afd3	-0.4134508
215	0xbd5bda5a	-0.053675033
216	0x3e877508	0.26456475
217	0xbda76c64	-0.08174971
218	0x3eb5077c	0.35357273
219	0xbd3aa9c1	-0.045572046
220	0xbf0bbe3c	-0.5458715
221	0x3f011d92	0.50435746
222	0xbec03c8d	-0.37546197
223	0x3e6acb13	0.22929029
224	0xbee76d82	-0.45200735
225	0x3ccd335a	0.0250489
226	0x3efb76f8	0.49114203
227	0x3e1840b2	0.1486843
228	0xbf0db1c9	-0.55349404
229	0x3edea926	0.43488425
230	0x3e5c576c	0.21517724
231	0xbde7abed	-0.11312089
232	0xbdce1369	-0.10062296
233	0x3ed381a2	0.4130984
234	0x3eb832cd	0.35976258
235	0x3eb49d8d	0.35276452
236	0xbee31c04	-0.44357312
237	0xbe1c27cc	-0.15249556
238	0x3e46c900	0.19412613
239	0x3eaefc56	0.34176892
240	0x3d985bc0	0.07439375
241	0x3ea4f424	0.32217515
242	0x3e428861	0.18997337
243	0x3e531995	0.20615228
244	0x3efd56e3	0.49480352
245	0xbe22a74b	-0.1588413
246	0x3de89db9	0.11358208
247	0xbd4f97ca	-0.050681867
248	0xbe1b61d1	-0.15174033
249	0x3ea32c94	0.31869948
250	0x3cd56fd7	0.026054306
251	0x3e371044	0.17877299
252	0xbed155cd	-0.40885773
253	0x3ddd0a26	0.10792951
254	0x3eea0306	0.45705432
255	0xbec44fc7	-0.38342115

encoder.layers.0.attention.w_k.bias f4 [16]
0	0xb42322f6	-1.5193277e-07
1	0x34ee64f2	4.4404402e-07
2	0x34c8caf1	3.7400562e-07
3	0x321921b3	8.913434e-09
4	0xb46c696b	-2.2017564e-07
5	0x33a3ac37	7.621605e-08
6	0x337c64db	5.876505e-08
7	0xb39e7e4d	-7.380422e-08
8	0xb5798419	-9.2951956e-07
9	0xb208ebcb	-7.969855e-09
10	0xb565d96f	-8.5625555e-07
11	0xb5a8b4ff	-1.2569652e-06
12	0xb50e764a	-5.3071255e-07
13	0xb46490cc	-2.1286831e-07
14	0x35992585	1.1410308e-06
15	0x3519850d	5.7190556e-07

encoder.layers.0.attention.w_v.weight f4 [16, 16]
0	0xbe5042d8	-0.20337999
1	0x3f1db2ec	0.6160114
2	0xbf03db64	-0.5150664
3	0xbe798a66	-0.24369201
4	0x3c075ea5	0.008262311
5	0xbed7f699	-0.42180327
6	0x3de30395	0.110846676
7	0x3ed9ec7d	0.4256324
8	0xbdb50e0d	-0.088405706
9	0xbee4202d	-0.44555798
10	0xbe8e8c6e	-0.27841514
11	0x3d80e386	0.06293397
12	0x3f172b31	0.5905028
13	0xbec21275	-0.37904707
14	0x3d80957c	0.06278512
15	0xbe859338	-0.26088881
16	0xbe064986	-0.13113984
17	0xbdbcb3aa	-0.09213956
18	0x3db7850d	0.08960924
19	0x3ed1dc03	0.40988168
20	0xbf14ed56	-0.58174646
21	0xbf039049	-0.51392037
22	0x3f16ae29	0.588595
23	0xbec302c7	-0.38088056
24	0x3dfef9d7	0.12449997
25	0x3f16ebbd	0.5895346
26	0x3d6bb137	0.057542052
27	0xbe28a4bd	-0.16469093
28	0x3ef2d6dd	0.47429553
29	0x3ed3e1bd	0.41383162
30	0xbd965990	-0.073413014
31	0x3e940d5c	0.28916442
32	0x3dcc3a72	0.09972085
33	0xbe711a33	-0.2354515
34	0xbef05484	-0.4693948
35	0xbeec041b	-0.46096882
36	0xbe6cc156	-0.23120627
37	0xbe011263	-0.1260467
38	0x3e101bcd	0.14073105
39	0xbe94700a	-0.2899173
40	0xbe8e4c63	-0.27792653
41	0x3d806201	0.06268693
42	0x3e551835	0.20810015
43	0x3de57620	0.11204171
44	0xbd02b05f	-0.03190648
45	0x3e887378	0.26650596
46	0xbf088510	-0.5332804
47	0x3f0ab6cd	0.5418518
48	0xbe997a57	-0.2997615
49	0xbcb10b77	-0.021611912
50	0x3f04e770	0.51915646
51	0x3e648c11	0.22319056
52	0x3f1a3a75	0.6024545
53	0xbe459592	-0.19295338
54	0x3e3ff62c	0.18746251
55	0xbd516519	-0.051121805
56	0x3ece8303	0.4033433
57	0xbeb7fa2e	-0.3593306
58	0x3de8aa30	0.11360586
59	0x3e0e3d53	0.13890581
60	0x3ebe1aa0	0.37129688
61	0xbdbeac7a	-0.09310241
62	0xbe7a961b	-0.24471323
63	0xbc772bbb	-0.01508611
64	0xbebeb15d	-0.37244692
65	0xbed33766	-0.41253203
66	0xbecfd74b	-0.40593943
67	0xbecda156	-0.40162152
68	0x3eb3d844	0.35125935
69	0x3effb577	0.49943134
70	0xbe50945b	-0.20369093
71	0x3f04c19e	0.51857936
72	0x3f16d4fe	0.5891875
73	0xbb368585	-0.002785058
74	0xbf155f15	-0.5834821
75	0xbea2ac4e	-0.31772083
76	0x3c0b6e9d	0.008510259
77	0x3e8101b9	0.25196627
78	0x3ef9f8b7	0.48822567
79	0xbe4f6abe	-0.20255563
80	0xbd97f3c3	-0.07419541
81	0x3dc4c666	0.09608154
82	0xbe6618f1	-0.22470452
83	0xbeb1285d	-0.34601107
84	0x3df24848	0.11830193
85	0x3f05dcd7	0.522901
86	0xbeeb89d8	-0.46003604
87	0x3df31c66	0.11870651
88	0x3e9eed3c	0.3104037
89	0xbcaa4bf6	-0.020788174
90	0x3e4a01e6	0.19727287
91	0xbee57dc3	-0.4482251
92	0x3ef46e81	0.47740558
93	0x3e1d8b54	0.1538518
94	0xbeaabe55	-0.33348337
95	0xbf17108e	-0.59009635
96	0xbe8f5879	-0.27997187
97	0x3f1994b3	0.5999252
98	0xbd85b350	-0.06528342
99	0x3f0df1bd	0.5544699
100	0x3ee59a19	0.4484413
101	0x3eb6c0f2	0.3569408
102	0x3e508a9b	0.20365374
103	0x3e34a298	0.1764015
104	0x3e7969b7	0.24356733
105	0x3d8c5e04	0.068538696
106	0x3efd8654	0.49516547
107	0xbe07d7df	-0.13265942
108	0xbe776e4c	-0.24163169
109	0xbf03d426	-0.5149559
110	0x3d2ccd11	0.042187754
111	0x3f01ad04	0.50654626
112	0xbf015602	-0.5052186
113	0xbc92b279	-0.017907368
114	0x3e4d2c6e	0.2003648
115	0x3e84d8b4	0.2594658
116	0xbe9517cb	-0.29119715
117	0x3e247d97	0.16063534
118	0xbe84e660	-0.25957012
119	0xbea2ae5b	-0.31773648
120	0x3db31111	0.087434895
121	0xbf0931ff	-0.53591913
122	0xbd4c2221	-0.049837235
123	0x3eff1908	0.49823785
124	0xbdfd0064	-0.1235359
125	0x3e7ddd6b	0.24791496
126	0x3f1844df	0.5948009
127	0xbe74398a	-0.23850074
128	0x3f17d487	0.59308666
129	0xbf064f3d	-0.5246466
130	0xbebd496e	-0.36970085
131	0x3eb5bf44	0.35497487
132	0x3f0e7348	0.55644655
133	0xbe59b39d	-0.21259923
134	0xbe3b0d49	-0.18266787
135	0xbef12e8a	-0.4710582
136	0xbef7f926	-0.48432273
137	0xbf19a77f	-0.60021204
138	0x3f0a0d94	0.5392697
139	0xbedd5fc4	-0.43237126
140	0x3dbaa664	0.09113768
141	0x3ea181cd	0.31544343
142	0x3f1538bf	0.5828971
143	0xbf057b90	-0.52141666
144	0xbcd7ac86	-0.026327383
145	0xbea8ee65	-0.3299438
146	0xbeb7ea1a	-0.35920793
147	0x3e0a0ea5	0.13482149
148	0x3e1f5b24	0.15562111
149	0xbce8c307	-0.028413309
150	0x3f01c495	0.50690585
151	0x3eafb3bb	0.3431681
152	0x3ee2c216	0.442887
153	0x3e8bede8	0.27329946
154	0x3ee043ba	0.4380167
155	0xbeb653a0	-0.35610676
156	0x3ed57a10	0.4169469
157	0xbebbbe7e	-0.36668772
158	0x3dbde8fb	0.09272953
159	0x3eef17e5	0.46697918
160	0x3e948f8c	0.29015768
161	0x3eeec22e	0.46632522
162	0x3c116ad8	0.008875571
163	0x3df90b12	0.121603146
164	0xbe4d3bd9	-0.20042361
165	0xbe9559ed	-0.2917017
166	0xbe35d6b1	-0.1775768
167	0xbec7d5cc	-0.39030302
168	0x3e820ce1	0.2540045
169	0xbe521820	-0.20517015
170	0xbf19054e	-0.5977372
171	0x3ed19cea	0.40940028
172	0xbee9b77f	-0.4564781
173	0x3eeb4d7d	0.45957556
174	0xbf128e39	-0.57248265
175	0x3e9da208	0.30787683
176	0xbf02f6e5	-0.5115798
177	0xbf079b7f	-0.52971643
178	0x3e6813a8	0.22663748
179	0x3ed6be5e	0.41942114
180	0xbf191bc7	-0.5980801
181	0x3eb9603c	0.36206234
182	0xbf114047	-0.56738704
183	0xbeba62bc	-0.36403453
184	0x3e63014b	0.22168462
185	0x3cd14fd8	0.025550768
186	0x3e07fd3d	0.13280196
187	0xbe9498e4	-0.29022896
188	0x3e97a405	0.29617324
189	0x3ef8e96b	0.48615584
190	0x3e947aa9	0.28999832
191	0xbec664e8	-0.3874886
192	0xbef34fa0	-0.47521687
193	0xbef21ffc	-0.47290027
194	0x3eb1134b	0.34585032
195	0x3ee6f57d	0.45109168
196	0x3e8b4119	0.27198103
197	0xbda9f513	-0.08298697
198	0xbeccb1f9	-0.39979532
199	0xbea60152	-0.32422882
200	0x3f08fb92	0.53508866
201	0xbcbae760	-0.022815406
202	0x3ee4638d	0.446072
203	0x3efbc621	0.49174598
204	0xbd460aac	-0.04835002
205	0xbebf1097	-0.37317345
206	0xbf164e1a	-0.58712924
207	0xbe8992c3	-0.26869783
208	0xbe303962	-0.1720939
209	0xbe67578b	-0.22591989
210	0xbe79a835	-0.24380572
211	0x3e6021bf	0.21887873
212	0xbe260fe6	-0.16217002
213	0x3e3f9ca8	0.18712103
214	0xbf1d6a5e	-0.6149043
215	0xbe2137e8	-0.15743983
216	0x3ec83326	0.39101523
217	0xbefe1c70	-0.4963107
218	0xbda37ef4	-0.07983199
219	0xbe70b354	-0.23505908
220	0x3c63a2d2	0.0138938
221	0xbdd5f746	-0.10447554
222	0x3eac1418	0.3360908
223	0x3e54f3a2	0.20796064
224	0x3e7863c2	0.24256805
225	0xbe5a9459	-0.21345653
226	0x3e3c4701	0.18386461
227	0x3d8316aa	0.06400807
228	0x3efd6a08	0.49494958
229	0xbe446e2b	-0.1918265
230	0x3e16f39f	0.14741372
231	0x3f1bf712	0.60923874
232	0x3d705d06	0.058682464
233	0xbd3ca5cc	-0.046056554
234	0xbe95b982	-0.29243094
235	0x3db2b2ce	0.087255105
236	0x3e59d050	0.21270871
237	0xbec2b2d8	-0.38027072
238	0xbeb5968e	-0.35466427
239	0xbf080a87	-0.53141063
240	0x3dc84490	0.09778702
241	0x3f158b24	0.58415437
242	0x3e753ca4	0.23948914
243	0x3dd57774	0.104231745
244	0x3eed53bd	0.4635295
245	0xbeba611e	-0.3640222
246	0x3f107a2e	0.5643643
247	0x3ee74fcf	0.45178077
248	0x3d989032	0.07449378
249	0xbd96ecce	-0.07369386
250	0x3eac4b8b	0.33651385
251	0x3f07cc6b	0.5304629
252	0x3e8f3f3e	0.27977937
253	0xbd9f6d36	-0.07784502
254	0x3e77f9c9	0.24216379
255	0x3eb131a6	0.3460819

encoder.layers.0.attention.w_v.bias f4 [16]
0	0xbd163ff1	-0.036682073
1	0x3d9355ed	0.071941234
2	0xbe5bec1a	-0.21476784
3	0x3e044ce2	0.12919953
4	0xbda0aa91	-0.07845033
5	0xbe26005a	-0.16211072
6	0x3d7bf120	0.06150925
7	0x3dca9646	0.09891944
8	0x3e4ea2ec	0.20179337
9	0xbdfb2cb7	-0.12264388
10	0xbdd826c2	-0.105542675
11	0x3cf3d96e	0.029766764
12	0x3d0e7c59	0.034786556
13	0x3de8295e	0.11336015
14	0x3e00884d	0.12551995
15	0xbd687d10	-0.056759894

encoder.layers.0.attention.w_concat.weight f4 [16, 16]
0	0xbe5371c9	-0.20648874
1	0xbe83b675	-0.2572514
2	0x3e28ddf5	0.1649092
3	0xbeb493dd	-0.3526906
4	0xbef1c7b2	-0.47222668
5	0xbea5b411	-0.32363942
6	0xbec3220e	-0.3811192
7	0xbefe6b76	-0.4969136
8	0xbeb65331	-0.35610345
9	0x3e8a6249	0.2702811
10	0x3f0fc81a	0.56164706
11	0xbeb70f62	-0.35753924
12	0xbd5bfb58	-0.053706497
13	0xbf02348e	-0.5086144
14	0xbd0d7f73	-0.034545373
15	0x3efde709	0.49590328
16	0xbe9beee4	-0.30455697
17	0x3e8bec8f	0.27328917
18	0x3eff2045	0.49829307
19	0x3e4bd898	0.19906843
20	0xbe7a2f6e	-0.24432155
21	0xbdd2ee29	-0.10299332
22	0xbee4687d	-0.44610968
23	0x3e3a1da5	0.18175371
24	0x3e2ba374	0.16761571
25	0xbee2d65d	-0.4430417
26	0x3f033b8a	0.51262724
27	0x3c858cfe	0.016302582
28	0xbf0c16cd	-0.5472229
29	0x3e294017	0.16528355
30	0xbee82d35	-0.4534699
31	0x3e6f4837	0.23367392
32	0x3ea27ae1	0.31734374
33	0xbdd6f51b	-0.10495969
34	0xbe1c7e54	-0.15282565
35	0xbd3dca72	-0.046335645
36	0xbeaf78e3	-0.34271917
37	0x3df6a6e4	0.120435506
38	0x3e1b61c8	0.1517402
39	0x3eb7b867	0.35882875
40	0xbe5ec853	-0.21756105
41	0xbe90b6ee	-0.28264564
42	0x3dbd96cf	0.0925728
43	0xbf0e6680	-0.5562515
44	0xbf00d429	-0.5032373
45	0x3e643e34	0.22289354
46	0xbed2023f	-0.4101734
47	0xbe2e0cbd	-0.16997047
48	0x3edcb07e	0.43103403
49	0x3ef89a63	0.48555288
50	0x3e82d9f6	0.25556916
51	0xbdcc9016	-0.0998842
52	0xbde7003a	-0.1127934
53	0xbeb73787	-0.35784552
54	0xbf0529e9	-0.52017075
55	0xbcfeb384	-0.03109146
56	0x3e8e5ccf	0.27805182
57	0xbde47230	-0.11154592
58	0xbe2a1028	-0.16607726
59	0x3ed2825a	0.41115075
60	0xbd2e6585	-0.042577285
61	0xbe93ab18	-0.28841472
62	0xbec8763d	-0.3915271
63	0xbe836b05	-0.25667587
64	0xbeb483fd	-0.3525695
65	0x3e1e1d75	0.15440924
66	0xbe84d38b	-0.25942644
67	0x3ee82083	0.45337304
68	0xbebc62f6	-0.3679425
69	0xbe0714c0	-0.13191509
70	0x3f1dd440	0.6165199
71	0xbe4c6fa0	-0.19964457
72	0xbc9c7d5d	-0.019102747
73	0x3eb76845	0.3582174
74	0xbe4c47e5	-0.199493
75	0x3f010180	0.50392914
76	0xbe1043f6	-0.14088425
77	0x3ef00d32	0.46885067
78	0x3f00e5d1	0.5035067
79	0x3d239f98	0.039947122
80	0x3ec3dce4	0.38254464
81	0x3e673f46	0.2258273
82	0xbcaeec2b	-0.021352848
83	0x3ee429a7	0.44563028
84	0x3ec8649e	0.39139265
85	0xbea783b6	-0.32717675
86	0xbe8fe4eb	-0.28104338
87	0xbf150815	-0.5821546
88	0xbdabc0f1	-0.0838641
89	0xbdca2788	-0.09870821
90	0xbe8b8dec	-0.27256715
91	0xbdbbe11e	-0.09173797
92	0xbe8a5d54	-0.2702433
93	0xbf054943	-0.52064914
94	0x3eecfad5	0.4628512
95	0xbea097b7	-0.3136575
96	0x3d9703fa	0.07373805
97	0xbedcedd7	-0.43150207
98	0x3d8773c0	0.066138744
99	0x3e5358e7	0.20639382
100	0xbee446cc	-0.44585264
101	0xbeec59f3	-0.46162376
102	0xbf140f04	-0.5783541
103	0x3e1170b9	0.14203157
104	0x3e9c318c	0.3050655
105	0xbe9d9965	-0.30781093
106	0x3dcdef7a	0.10055442
107	0xbe6509d2	-0.22367027
108	0xbef5973d	-0.47966948
109	0x3dfed562	0.12443043
110	0xbedaf9e8	-0.42768788
111	0x3e8a142b	0.26968512
112	0xbedf3df1	-0.43601945
113	0xbf0f6dc8	-0.5602689
114	0x3f1c5dcf	0.6108064
115	0x3ee3c756	0.4448802
116	0x3d73575e	0.05940949
117	0x3ef7f280	0.484272
118	0xbdb52163	-0.08844259
119	0x3f04b1a1	0.5183354
120	0xbf0ff339	-0.56230503
121	0x3f00fa48	0.503819
122	0x3eeae851	0.45880368
123	0xbddc48ce	-0.10756074
124	0x3e293b45	0.16526516
125	0xbe322b38	-0.17399299
126	0x3e670a56	0.22562537
127	0x3ec1a5ea	0.37821895
128	0x3ed118cf	0.4083924
129	0x3ed2cbd4	0.41171134
130	0x3e91e0ac	0.28491724
131	0xbbd45bb3	-0.006480658
132	0xbf0575ea	-0.5213305
133	0xbee3049b	-0.4433945
134	0xbf2168dd	-0.63050634
135	0xbed6a330	-0.41921377
136	0x3ebf82a2	0.37404352
137	0x3dd6dfe7	0.10491925
138	0x3e8acaef	0.2710795
139	0xbeb7a98f	-0.3587155
140	0x3ef31d38	0.4748323
141	0xbd7f7b5f	-0.062373515
142	0xbeb656f3	-0.35613212
143	0xbd70dea8	-0.05880609
144	0x3e7ff772	0.24996737
145	0xbef80a4a	-0.4844535
146	0x3e0d6120	0.13806581
147	0x3eae97b3	0.34100112
148	0xbe5227fb	-0.20523064
149	0xbdee2cb3	-0.116296194
150	0x3ecf7aee	0.40523475
151	0xbee76299	-0.45192412
152	0x3ed3ddba	0.413801
153	0x3f04626e	0.5171269
154	0x3ebac7d7	0.3648059
155	0xbe242197	-0.16028439
156	0xbe8895ec	-0.2667688
157	0x3f164f38	0.5871463
158	0xbe5135ec	-0.20430726
159	0xbee6e887	-0.4509928
160	0xbeeb7a31	-0.45991662
161	0x3e81647e	0.25271982
162	0xbe9a52da	-0.30141336
163	0x3eb46f17	0.35241005
164	0x3eac01f4	0.3359524
165	0x3c103e2b	0.0088038845
166	0xbddef93c	-0.108873814
167	0xbe8c8b79	-0.2745016
168	0xbeb16611	-0.34648183
169	0x3e4ad36a	0.1980721
170	0x3e979225	0.29603687
171	0x3ef2b9e8	0.4740746
172	0x3e8f2c11	0.27963307
173	0xbe3e59ac	-0.18588895
174	0xbda52ff8	-0.0806579
175	0x3c37449e	0.011185793
176	0xbe089fda	-0.13342229
177	0xbeeeebfd	-0.4666442
178	0x3ee1a39b	0.44070134
179	0x3ea98cb9	0.33115175
180	0x3eff18be	0.49823564
181	0xbebde8d4	-0.37091696
182	0x3e51637a	0.20448104
183	0xbdd8132d	-0.105505325
184	0x3e1ba1b7	0.15198408
185	0x3e845100	0.25843048
186	0x3db457e7	0.088058285
187	0x3daaa99c	0.08333132
188	0xbc8ca664	-0.017169185
189	0xbf13c31f	-0.57719606
190	0x3c8bd4b0	0.01706919
191	0xbf13a00e	-0.576661
192	0xbd943e7d	-0.07238481
193	0xbeeee7cb	-0.4666122
194	0x3e3b61ed	0.18299074
195	0x3ef55e10	0.47923326
196	0x3dea1670	0.11430061
197	0xbede840e	-0.43460125
198	0x3efcfbba	0.49410802
199	0xbe972f24	-0.29528153
200	0xbe329c5c	-0.17442459
201	0xbe3b78f1	-0.18307854
202	0x3dd7d856	0.1053931
203	0xbf0e3cf3	-0.5556175
204	0xbf101c6d	-0.56293374
205	0xbef5488c	-0.4790691
206	0xbea73d5c	-0.32664
207	0x3f1080b0	0.5644636
208	0x3d4244b8	0.047428817
209	0xbef575c2	-0.47941405
210	0xbd50187f	-0.05080461
211	0xbee7a2e4	-0.45241463
212	0x3ed03f1d	0.40673152
213	0x3da9e5ff	0.082958214
214	0x3ee7c3e5	0.45266643
215	0x3eca8aa3	0.39558896
216	0x3f106f14	0.5641949
217	0x3e4b93da	0.1988062
218	0xbe9d3cee	-0.30710548
219	0x3ed42ebe	0.4144191
220	0x3e8437a5	0.25823703
221	0x3f14b893	0.5809414
222	0x3e2857f4	0.16439801
223	0x3eda2d85	0.42612854
224	0x3f107030	0.56421185
225	0x3edef4dd	0.4354619
226	0xbedd61e5	-0.4323875
227	0xbeadeb22	-0.33968455
228	0x3dd22b2b	0.1026214
229	0xbe49a009	-0.19689955
230	0x3eb141ec	0.34620607
231	0x3f01655b	0.5054528
232	0xbb9827bd	-0.004643409
233	0xbd3c198d	-0.045922805
234	0x3eff0bb3	0.49813613
235	0x3eb787bb	0.35845742
236	0x3e608e79	0.21929349
237	0x3f113de3	0.56735057
238	0xbe581d40	-0.21104908
239	0x3e53dc0e	0.20689413
240	0xbea46d89	-0.3211482
241	0xbea98847	-0.33111784
242	0x3ce2af8e	0.027671602
243	0xbe09e69f	-0.13466881
244	0xbe914676	-0.2837407
245	0x3d94762e	0.072491035
246	0xbeddba4f	-0.43306205
247	0x3ee6f899	0.4511154
248	0x3dbd4b94	0.09242931
249	0xbea02640	-0.31279182
250	0x3d174dde	0.036939494
251	0xbe867532	-0.26261288
252	0x3ef72038	0.48266768
253	0xbd1d549d	-0.03841077
254	0xbb8a7ba7	-0.0042261663
255	0x3f16a0e5	0.58839256

encoder.layers.0.attention.w_concat.bias f4 [16]
0	0x3c04a9e3	0.008097145
1	0x3dc02b8e	0.093833074
2	0xbd73d147	-0.059525754
3	0x3d88d0ed	0.066804744
4	0xbd553ad2	-0.05205805
5	0xbbe33d08	-0.0069347657
6	0xbe36653c	-0.17812055
7	0xbd93767f	-0.07200336
8	0xbe03ee29	-0.1288382
9	0xbd4eaf97	-0.050460424
10	0xbe21022f	-0.15723489
11	0xbe44aeee	-0.19207355
12	0x3cac0c5c	0.021001987
13	0x3e11fb26	0.14255962
14	0x3e4dcb20	0.20097017
15	0x3dfab643	0.12241795

encoder.layers.0.norm1.gamma f4 [16]
0	0x3f7e63b5	0.9937089
1	0x3f7a9d59	0.97896343
2	0x3f7d1c66	0.9887146
3	0x3f7a3a2c	0.97745013
4	0x3f81e005	1.014649
5	0x3f7ab15e	0.9792689
6	0x3f825c56	1.0184429
7	0x3f8099ad	1.0046898
8	0x3f7e3c74	0.99310994
9	0x3f80c603	1.0060428
10	0x3f7a6915	0.9781659
11	0x3f7ea6ee	0.99473464
12	0x3f80338f	1.0015734
13	0x3f7665a5	0.9624885
14	0x3f81e761	1.0148736
15	0x3f7d760f	0.9900827

encoder.layers.0.norm1.beta f4 [16]
0	0xbc506467	-0.01271925
1	0xbbe47984	-0.0069724936
2	0xbc8654eb	-0.016397914
3	0x3bdf0356	0.0068058176
4	0x3c9636d2	0.018336687
5	0x3adb42be	0.0016728265
6	0x3b28f020	0.0025777891
7	0x3be57047	0.00700191
8	0x3b1020f8	0.0021992307
9	0x3bb04609	0.0053794426
10	0x3c6aef30	0.014339253
11	0x3b737578	0.0037148874
12	0x3bbed0cd	0.005823231
13	0x3be56ca2	0.0070014754
14	0xbbdb63a5	-0.006695228
15	0xbbadb51f	-0.0053011323

encoder.layers.0.ffn.linear1.weight f4 [64, 16]
0	0xbe9c7075	-0.30554548
1	0x3dc87171	0.09787262
2	0xbd7d6413	-0.061863016
3	0x3d8cab16	0.068685696
4	0xbf055fde	-0.52099407
5	0x3f08fbf3	0.53509444
6	0x3d96efc5	0.07369951
7	0xbf12c195	-0.5732663
8	0x3d460421	0.04834378
9	0x3f0bff91	0.5468684
10	0xbe864f54	-0.26232398
11	0x3ea083d3	0.31350574
12	0x3ef7e2ca	0.48415214
13	0x3c1ab8b6	0.009443453
14	0x3e2d5788	0.16927922
15	0x3f0fdc7e	0.5619582
16	0xbe31ea29	-0.17374481
17	0xbe51a494	-0.20472938
18	0x3eb1cfd0	0.3472886
19	0x3e0dec70	0.13859725
20	0x3e3163bc	0.17323202
21	0x3d832e3b	0.06405302
22	0x3ee5c97d	0.44880286
23	0xbf0e2058	-0.555181
24	0xbd055051	-0.0325473
25	0xbe0de3f0	-0.13856483
26	0x3ceda83a	0.02901088
27	0x3e27318f	0.16327499
28	0x3efb284f	0.4905419
29	0x3e5df45d	0.21675248
30	0xbe6d91b0	-0.23200107
31	0x3eae17f7	0.3400266
32	0xbf11ddb8	-0.5697894
33	0xbe497a84	-0.19675642
34	0x3e97e3e6	0.2966606
35	0xbee90f6a	-0.45519572
36	0x3f14b163	0.5808317
37	0x3f0c852f	0.5489072
38	0xbe512a07	-0.20426188
39	0x3e480fee	0.19537327
40	0xbd0d4f16	-0.03449925
41	0x3e93e5cb	0.28886256
42	0xbf0a9903	-0.5413973
43	0x3f0957ff	0.53649896
44	0xbeaef5a6	-0.3417179
45	0xbec5a41c	-0.38601768
46	0x3e9566c9	0.2917998
47	0x3dddd3f6	0.10831444
48	0x3e023262	0.12714532
49	0x3cbfa05e	0.023391899
50	0xbf0cd6e7	-0.55015415
51	0x3e251729	0.16122116
52	0x3e18b38d	0.14912243
53	0x3efccc14	0.4937445
54	0x3e8e1fb6	0.2775857
55	0xbd5edb4b	-0.054408353
56	0xbe9fe316	-0.3122794
57	0x3eeffc01	0.4687195
58	0x3e1e2eb4	0.15447503
59	0x3e1df809	0.15426649
60	0x3e1ac482	0.15114024
61	0x3efe6de3	0.49693212
62	0x3e62b298	0.2213844
63	0xbf193a72	-0.59854805
64	0x3eabbc62	0.33542162
65	0xbd22bf97	-0.039733496
66	0xbef0fa4a	-0.47065955
67	0x3e88fd38	0.2675569
68	0xbe71ca72	-0.23612383
69	0xbe94ae7d	-0.29039374
70	0xbeec3d94	-0.4614073
71	0x3e1a4ca1	0.15068294
72	0x3eb792d4	0.35854208
73	0xbe98e1b0	-0.29859686
74	0x3d1262bd	0.035738695
75	0xbe4474ec	-0.19185227
76	0x3f0f757e	0.56038654
77	0xbe02ed56	-0.12785849
78	0xbc3c7f40	-0.011504948
79	0xbdcf6343	-0.101263545
80	0xbe916313	-0.283959
81	0x3e505e67	0.20348512
82	0x3f08460c	0.53231883
83	0xbef2c39f	-0.47414872
84	0x3f15d0a5	0.5852149
85	0xbeb679d2	-0.35639817
86	0x3e2643dd	0.16236825
87	0x3ead3db4	0.33836138
88	0xbe1502c4	-0.14551836
89	0x3efcef63	0.49401388
90	0x3ef6913e	0.48157686
91	0xbc8df317	-0.017327828
92	0xbe3c0244	-0.1836024
93	0x3ef89703	0.48552713
94	0xbeb3bc51	-0.35104612
95	0xbe4f55c3	-0.20247559
96	0x3f17e0bd	0.593273
97	0x3ecebc66	0.40378112
98	0xbe9696c2	-0.29411894
99	0xbec15f7b	-0.37768158
100	0xbc8a5f38	-0.016891107
101	0x3e03513d	0.12823959
102	0xbbd308cc	-0.0064402577
103	0x3e8bb3dd	0.27285662
104	0x3d04a578	0.032384366
105	0xbeaa2afe	-0.33235925
106	0x3ebb92f8	0.36635566
107	0x3e687b0a	0.22703186
108	0xbe9529ca	-0.29133445
109	0xbe6e34a0	-0.23262262
110	0x3ec80dd5	0.39073053
111	0x3e84fbe7	0.25973436
112	0x3d944c10	0.0724107
113	0x3c8852c8	0.016641036
114	0x3e8089ef	0.25105235
115	0x3cccd3aa	0.025003273
116	0xbf0c619e	-0.5483645
117	0x3e92c260	0.2866392
118	0xbe9e507a	-0.30920774
119	0x3d04c4e7	0.032414343
120	0xbd8d390a	-0.06895645
121	0xbf12c8dc	-0.5733774
122	0x3ce5d852	0.028057251
123	0xbe31ec02	-0.17375186
124	0xbd67572b	-0.056479614
125	0xbec5def2	-0.38646656
126	0x3e19ccad	0.15019484
127	0xbec6887f	-0.38776013
128	0xbf023122	-0.5085622
129	0x3ed45ab1	0.41475442
130	0x3ec9b20b	0.39393649
131	0xbedc6bbb	-0.43050942
132	0xbf0bbcc5	-0.54584914
133	0x3f01d300	0.50712585
134	0x3e08e287	0.13367663
135	0xbe94de9b	-0.29076084
136	0xbebcc0ac	-0.36865747
137	0x3da19230	0.07889211
138	0xbf048935	-0.5177186
139	0xbe340fe9	-0.17584194
140	0xbf0a85f6	-0.5411066
141	0xbf0ca1bd	-0.54934293
142	0xbdbe22ce	-0.09283982
143	0xbe88823e	-0.26661867
144	0x3d9acb61	0.07558323
145	0xbec3f6c5	-0.38274208
146	0x3f0f1c2d	0.5590237
147	0xbdd2cd4b	-0.10293063
148	0x3e5449e6	0.20731315
149	0x3efc5178	0.49280906
150	0x3de78b62	0.11305882
151	0x3f171cbc	0.5902822
152	0xbcb14be4	-0.021642633
153	0x3f18919e	0.59597194
154	0x3ef48b57	0.47762558
155	0x3ce93a58	0.028470203
156	0x3e98d3b4	0.29849017
157	0xbead741b	-0.33877644
158	0x3e1f467e	0.15554234
159	0xbdd092f5	-0.1018428
160	0x3e72d1a2	0.23712781
161	0x3e9e14d2	0.3087526
162	0x3d0c3bbe	0.034236662
163	0xbe827d87	-0.25486395
164	0x3f070b9d	0.52752095
165	0xbec25fb5	-0.37963644
166	0x3f0e9c2f	0.5570707
167	0xbde0de9a	-0.10979958
168	0xbe91b92d	-0.2846159
169	0xbdce94b8	-0.100869596
170	0xbe841a3e	-0.2580127
171	0xbe95a3ec	-0.29226625
172	0x3e64efc9	0.22357096
173	0x3ec7dc3e	0.3903522
174	0xbe2e3a93	-0.17014532
175	0x3d685425	0.05672087
176	0xbde1fd34	-0.11034623
177	0x3d825c73	0.063652895
178	0xbe8eedcc	-0.279158
179	0xbe8da038	-0.276613
180	0x3e2b3638	0.16719902
181	0x3d2de0ab	0.04245059
182	0xbda1fd98	-0.07909697
183	0x3ee59444	0.4483968
184	0xbf15ea58	-0.58560705
185	0xbefbfd7c	-0.4921683
186	0xbf0659dd	-0.5248087
187	0x3f174901	0.5909577
188	0xbf05f3a2	-0.5232488
189	0x3eceb133	0.40369567
190	0xbf06d2e8	-0.5266557
191	0x3da4a3e9	0.08039076
192	0xbd7c4c35	-0.061596114
193	0xbe549118	-0.20758474
194	0x3e533a2d	0.20627661
195	0xbdb3a57e	-0.087717995
196	0x3ec4f703	0.38469705
197	0x3f01ed82	0.50753033
198	0xbee661e5	-0.44996563
199	0xbf0b0e67	-0.5431885
200	0xbf0b5eea	-0.544417
201	0xbe493698	-0.19649732
202	0x3e0486d6	0.12942061
203	0x3ce3301a	0.027732898
204	0xbe815df8	-0.25267005
205	0x3e853f10	0.26024675
206	0xbb0133fd	-0.0019714825
207	0xbf0e56d6	-0.5560125
208	0xbefa28a1	-0.48859122
209	0x3eeb3a48	0.45942903
210	0xbe61ec67	-0.22062837
211	0x3ec656d6	0.38738126
212	0x3ed8dbf0	0.423553
213	0x3e8bdc52	0.2731653
214	0x3ea0e1a2	0.31422144
215	0x3e68572d	0.22689505
216	0xbdd0bb86	-0.10192017
217	0xbe3d4159	-0.1848196
218	0x3ddf1a5c	0.108936995
219	0xbecc78d8	-0.39935946
220	0xbe8fa6c5	-0.28056923
221	0xbf172c50	-0.5905199
222	0x3d9088fe	0.07057379
223	0x3ec9cad4	0.39412558
224	0x3ea20ade	0.31648916
225	0x3e3521d3	0.17688684
226	0x3b95bd4f	0.0045696865
227	0x3d7a2143	0.061066877
228	0x3c85bc0b	0.016325017
229	0x3ee5c2c3	0.44875154
230	0x3e6b9e11	0.23009516
231	0x3ef0f70a	0.47063476
232	0xbdb66871	-0.08906639
233	0x3e84b8b8	0.2592218
234	0xbdc662a7	-0.09686785
235	0x3ebc3f79	0.36767176
236	0xbf06a5c4	-0.5259669
237	0xbdb7b166	-0.08969383
238	0xbebe9d92	-0.37229592
239	0xbc3135e5	-0.010816072
240	0xbeff5907	-0.4987261
241	0xbe8f9266	-0.2804138
242	0xbe0d7d92	-0.13817433
243	0xbe5b760e	-0.21431753
244	0x3f0878e6	0.53309476
245	0x3d9b4e64	0.07583311
246	0xbe804668	-0.25053716
247	0xbea1ccd4	-0.31601584
248	0x3d5dfef1	0.05419821
249	0x3e6eb68f	0.23311828
250	0x3ea44652	0.320849
251	0x3edf2cf0	0.43588972
252	0x3e5ae38b	0.21375863
253	0x3dc55116	0.096346065
254	0xbe957946	-0.29194087
255	0x3eb1ffba	0.34765416

encoder.layers.0.ffn.linear1.bias f4 [64]
0	0xbcde4607	-0.027133001
1	0x3dc663b3	0.09686985
2	0x3e4f1ef0	0.20226645
3	0x3dab556f	0.083659045
4	0x3e3ec3fb	0.18629448
5	0x3e354cd7	0.17705093
6	0x3d9e9917	0.07744043
7	0x3d8b7c6c	0.06810841
8	0x3da8754a	0.08225496
9	0x3c17d741	0.009267629
10	0x3e61b7ef	0.22042821
11	0x3e699205	0.22809608
12	0x3d7d84f1	0.06189436
13	0xbc86f81e	-0.016475733
14	0x3e5fcdf5	0.2185591
15	0xbe314e81	-0.17315103
16	0x3e436863	0.19082789
17	0x3df76299	0.12079353
18	0x3e2d5bbd	0.16929527
19	0xbc82125e	-0.015877899
20	0xbe2a56a8	-0.16634619
21	0x3e3a1501	0.18172075
22	0xbdcdceee	-0.10049234
23	0x3d71b1d7	0.059007492
24	0x3e019db7	0.1265782
25	0xbe636fea	-0.2221066
26	0x3acdf100	0.0015712082
27	0xbd917730	-0.07102811
28	0x3e29e53a	0.16591349
29	0xbe2511c2	-0.16120055
30	0x3e1b0285	0.1513768
31	0x3e03c2a2	0.12867215
32	0x3e0259f4	0.12729627
33	0x3e66a78c	0.22524852
34	0x3d4f042d	0.05054109
35	0xbe6c8f74	-0.23101598
36	0x3e414052	0.18872193
37	0x3cf5f176	0.030022364
38	0xbbd19b7b	-0.0063967085
39	0xbe5f1135	-0.21783908
40	0xbd5530ba	-0.052048422
41	0xbdbe1dd6	-0.092830345
42	0x3e6a7641	0.22896673
43	0x3e15707b	0.14593689
44	0x3e56cfe6	0.20977744
45	0x3e1d0a5b	0.15335982
46	0xbe336dab	-0.17522304
47	0xbdfe1d92	-0.12407984
48	0xbdc12545	-0.09430937
49	0xbdb56baa	-0.08858426
50	0x3e540555	0.20705159
51	0x3dcb2b26	0.09920339
52	0x3e439edd	0.1910357
53	0xbbfa79cf	-0.0076439152
54	0xbe5686ff	-0.20949934
55	0xbda780b9	-0.08178849
56	0x3e2c8dc1	0.1685095
57	0x3e0d0cc8	0.13774407
58	0x3d6eb497	0.058277693
59	0xbd9c998a	-0.07646473
60	0xbe5bf15d	-0.21478792
61	0xbe02f716	-0.12789568
62	0x3e12b248	0.14325821
63	0xbddc4f89	-0.107573576

encoder.layers.0.ffn.linear2.weight f4 [16, 64]
0	0xbdcb7f64	-0.09936407
1	0xbe02222b	-0.12708347
2	0xbdf37255	-0.118870415
3	0xbdbbedd8	-0.091762245
4	0x3dafed54	0.085901886
5	0xbd9a96af	-0.07548272
6	0xbe10dc3b	-0.14146511
7	0x3e3d0951	0.18460585
8	0xbe0ff216	-0.14057192
9	0x3e84d58d	0.25944176
10	0x3e197b64	0.14988476
11	0x3e997aa8	0.29976392
12	0x3e471eb1	0.19445302
13	0x3e0c16d7	0.13680588
14	0xbe2c56a7	-0.1682993
15	0xbe840bd9	-0.2579029
16	0xbe63d52e	-0.2224929
17	0x3dcc6b7f	0.09981441
18	0xbe80b804	-0.25140393
19	0xbc57167e	-0.013127921
20	0x3e80a28d	0.25124016
21	0xbd88c0be	-0.06677388
22	0xbdaa58d2	-0.083177224
23	0xbe1f4c6f	-0.15556501
24	0x3cb75819	0.022380875
25	0xbe0753fb	-0.1321563
26	0x3d896c78	0.06710142
27	0xbe82f141	-0.25574687
28	0xbd8fc953	-0.070208214
29	0x3e3513e2	0.17683366
30	0xbdec423f	-0.11536073
31	0x3d93dbee	0.07219683
32	0xbe66dff1	-0.22546364
33	0xbc0879a4	-0.008329783
34	0xbea1edf8	-0.31626868
35	0xbe9534e0	-0.29141903
36	0xbdb63e7c	-0.08898637
37	0xbd7c015d	-0.061524738
38	0x3e1385f4	0.14406568
39	0x3e8d117b	0.275524
40	0xbe806a3a	-0.25081044
41	0x3dc4fa1e	0.096180186
42	0xbdedbe9d	-0.11608622
43	0xbe07f879	-0.13278379
44	0x3e41904b	0.189027
45	0x3dec1345	0.11527113
46	0x3bd8e0af	0.0066185812
47	0x3dc6f63e	0.09714936
48	0xbd4202e8	-0.047366053
49	0xbe9965a2	-0.29960352
50	0xbe990b13	-0.2989126
51	0xbdee46b7	-0.116345815
52	0xbe94169f	-0.2892351
53	0x3e498f9e	0.19683692
54	0xbd83e1ef	-0.06439578
55	0xbe884396	-0.26614064
56	0xbd3cd915	-0.046105463
57	0xbe276ca3	-0.16350035
58	0xbe002040	-0.12512302
59	0x3e51007e	0.20410344
60	0x3c343b1a	0.011000419
61	0x3e691abd	0.22764106
62	0xbe85fb5d	-0.26168337
63	0x3e26be85	0.16283615
64	0xbc9f132f	-0.019418327
65	0xbe45c411	-0.19313075
66	0xbd8d98c7	-0.069139056
67	0x3e6cfebe	0.23144051
68	0xbe5bfdac	-0.21483487
69	0xbd973b04	-0.07384303
70	0x3d94a519	0.072580524
71	0x3e6223cb	0.22083966
72	0x3d7551fa	0.059892632
73	0x3db64d78	0.08901495
74	0xbe3f9a5a	-0.18711224
75	0x3e009a67	0.125589
76	0x3d244b82	0.040111072
77	0xbdee8d80	-0.11648083
78	0x3e6a4d8d	0.22881146
79	0x3e7a2dbe	0.24431512
80	0x3d95ed7b	0.073206864
81	0xbe48593f	-0.19565295
82	0x3e73f15b	0.23822539
83	0x3c9e9f5a	0.019363094
84	0xbdd242be	-0.10266636
85	0xbe00cdc6	-0.12578496
86	0xbdee5add	-0.116384245
87	0xbe4e099c	-0.20120853
88	0xbdd6807e	-0.10473727
89	0x3e8a5dcd	0.2702469
90	0x3e42285e	0.18960711
91	0x3e17bf8a	0.1481916
92	0xbe38cd3c	-0.1804704
93	0x3de71513	0.112833165
94	0x3d8f9f14	0.070127636
95	0x3d065f5c	0.032805786
96	0x3da52a6e	0.080647334
97	0xbe317b0a	-0.17332092
98	0x3d9a9e05	0.07549671
99	0x3d2abb28	0.041682392
100	0xbe8f0ffa	-0.27941877
101	0x3c011d28	0.007880487
102	0x3d5f1828	0.054466397
103	0xbd84cf4e	-0.06484853
104	0xbd939b6a	-0.07207377
105	0xbb6fcd9b	-0.0036591056
106	0x3e885732	0.26629025
107	0xbd8f9b18	-0.07012004
108	0xbe7dcd1e	-0.24785277
109	0xbd81f32d	-0.0634521
110	0xbe10652a	-0.14101091
111	0x3dda4433	0.10657539
112	0x3db2450c	0.08704576
113	0xbe81c9c4	-0.25349247
114	0x3d80aaf3	0.06282606
115	0x3e697ba4	0.22801071
116	0x3e822c6c	0.25424516
117	0xbc06e646	-0.008233612
118	0xbd2003cf	-0.039066132
119	0xbe862420	-0.26199436
120	0xbe8abf40	-0.27099037
121	0x3e54b9c8	0.20773995
122	0xbd89d023	-0.06729152
123	0x3e0af3a8	0.1356951
124	0x3dde734c	0.10861835
125	0xbe28d054	-0.16485721
126	0xbe86f4fe	-0.2635879
127	0x3e961f07	0.29320547
128	0xbe5ae188	-0.21375096
129	0x3d9a0d52	0.07522072
130	0x3d11fe01	0.035642628
131	0x3d271941	0.04079557
132	0x3e2b7e42	0.16747382
133	0xbe2d052b	-0.16896503
134	0xbe80fd52	-0.25193268
135	0xbe0b2771	-0.13589264
136	0xbe8e2e7b	-0.27769837
137	0x3db66109	0.08905227
138	0xbe421464	-0.18953091
139	0xbe358aef	-0.1772878
140	0xbe9c5289	-0.3053172
141	0x3dc9accd	0.09847412
142	0xbe6e6063	-0.23278956
143	0xbde42fee	-0.11141954
144	0xbc8863be	-0.016649123
145	0x3e5aa1a8	0.2135073
146	0xbbdf5ee8	-0.0068167336
147	0xbbe3a1c2	-0.0069467733
148	0xbb848076	-0.004043634
149	0x3e33c00b	0.17553727
150	0xbdd83de8	-0.10558683
151	0xbe8a0161	-0.26954177
152	0x3e5ce855	0.21573003
153	0x3e1aca15	0.1511615
154	0x3e6627ca	0.22476116
155	0x3d853f4c	0.065062135
156	0xbe90d265	-0.28285518
157	0x3dcd7d89	0.100337096
158	0xbe196084	-0.14978224
159	0xbde43b6f	-0.111441486
160	0x3e5a2df8	0.21306598
161	0x3e2b3613	0.16719846
162	0x3e5db1ff	0.21649931
163	0x3de285a3	0.110606454
164	0x3e8c7d06	0.27439135
165	0xbe82785d	-0.25482455
166	0xbe91e62e	-0.28495926
167	0x3e2a93da	0.16657963
168	0x3e3d56bc	0.18490118
169	0xbde92a0b	-0.11384972
170	0xbd39de59	-0.045378063
171	0x3e485405	0.19563301
172	0xbe74da04	-0.23911291
173	0xbe9d98e2	-0.30780703
174	0xbdc33b17	-0.09532755
175	0x3dfd2efc	0.12362477
176	0x3e21a6bc	0.1578626
177	0xbe183051	-0.14862181
178	0xbe2da0ed	-0.1695592
179	0x3df03f7d	0.117308594
180	0x3e85572d	0.26043072
181	0xbda1da6c	-0.07902989
182	0xbe3a270b	-0.18178956
183	0xbe0407fd	-0.12893672
184	0xbe4f2817	-0.20230137
185	0xbe69cc67	-0.2283188
186	0x3e1d38c7	0.1535369
187	0xbcbfa1e3	-0.023392623
188	0x3d7d47d6	0.061836086
189	0x3dd61e66	0.10455017
190	0x3e58f251	0.21186186
191	0xbd507f65	-0.050902743
192	0x3e52e790	0.20596147
193	0x3d95e0c5	0.07318262
194	0x3e6c23ae	0.23060486
195	0xbdf1d3d5	-0.11807982
196	0xbe01bc49	-0.12669481
197	0x3db4e055	0.088318504
198	0x3e3a600c	0.18200701
199	0xbd714e2f	-0.058912452
200	0xbe87eff8	-0.2655027
201	0xbe90f7ca	-0.28314048
202	0xbc81c2af	-0.015839903
203	0xbd8bd8f3	-0.06828489
204	0xbd83fa6d	-0.06444249
205	0xbe01f3ca	-0.12690654
206	0x3b3ccfdc	0.0028810417
207	0xbe053c61	-0.13011314
208	0x3dabfda2	0.08397986
209	0xbe4ad8b0	-0.19809222
210	0x3d630570	0.055425107
211	0x3db98b62	0.09059788
212	0xbc86cbdf	-0.016454635
213	0x3e7b96f8	0.24569309
214	0x3e0cd564	0.13753277
215	0x3e4cb45f	0.19990681
216	0xbe2a3ca7	-0.166247
217	0x3b2752ef	0.002553161
218	0x3e446bbf	0.19181727
219	0xbe15d94b	-0.14633672
220	0xbdf2616b	-0.11834987
221	0x3d48a3c1	0.048984293
222	0xbe1ae4b7	-0.1512631
223	0xbdd17d98	-0.10229033
224	0xbcbd20fa	-0.023087014
225	0x3e911cac	0.28342187
226	0xbe016aac	-0.12638348
227	0xbe953887	-0.2914469
228	0x3e41c2dd	0.1892199
229	0x3e4db3df	0.20088147
230	0xbd6241d7	-0.05523857
231	0x3c5949c2	0.013262214
232	0xbe9548ff	-0.29157254
233	0xbd096e93	-0.033552717
234	0x3e37ace2	0.17937043
235	0xbe3c442b	-0.18385379
236	0xbd8bb864	-0.06822279
237	0xbe589b6d	-0.2115304
238	0xbe699e8a	-0.22814384
239	0xbe56d2bb	-0.20978825
240	0x3de5a12c	0.11212382
241	0x3d7fa882	0.06241656
242	0x3daec3f2	0.08533467
243	0x3dabc770	0.08387649
244	0x3e936a9c	0.28792274
245	0x3d8c982f	0.06864964
246	0x3e56670f	0.20937751
247	0xbe463fcb	-0.19360273
248	0x3e813294	0.252339
249	0xbcb69600	-0.022288322
250	0xbc7a0944	-0.015260998
251	0x3e93cf92	0.288693
252	0x3e39cac5	0.18143757
253	0x3e1b097b	0.15140335
254	0x3e95999e	0.29218763
255	0xbcb45f9e	-0.02201825

encoder.layers.0.ffn.linear2.bias f4 [16]
0	0xbdd02b6a	-0.101645306
1	0x3d379186	0.044816516
2	0x3d6f510b	0.058426898
3	0x3def48fa	0.11683841
4	0xbdc384e7	-0.095468335
5	0x3dd832b3	0.10556545
6	0x3d91a1db	0.071109496
7	0x3e0d2d07	0.13786708
8	0x3d3b2d28	0.04569736
9	0xbd6be2a7	-0.0575892
10	0x3de996c6	0.11405711
11	0x3df78874	0.12086573
12	0xbd4bc069	-0.049744043
13	0xbcf4a9e8	-0.029866174
14	0x3dc64ec0	0.09682989
15	0x3dc8fd7e	0.09813975

encoder.layers.0.norm2.gamma f4 [16]
0	0x3f7a83f4	0.97857594
1	0x3f7b7f18	0.98240805
2	0x3f7cd4fe	0.987625
3	0x3f7af4c7	0.9802975
4	0x3f807756	1.0036418
5	0x3f7c5174	0.9856179
6	0x3f7d7c17	0.9901747
7	0x3f792e69	0.9733644
8	0x3f80c2dd	1.0059468
9	0x3f7e2227	0.9927086
10	0x3f7f9844	0.99841714
11	0x3f78de72	0.97214425
12	0x3f7ca73f	0.986927
13	0x3f7c3727	0.98521656
14	0x3f80df41	1.0068132
15	0x3f76ab97	0.96355575

encoder.layers.0.norm2.beta f4 [16]
0	0xbc0f4402	-0.008744242
1	0xbb3b1889	-0.002854856
2	0xbbf98c8a	-0.0076156305
3	0x3bef9a1f	0.007312074
4	0x3c9dbfd2	0.019256506
5	0xbc1a4eca	-0.009418199
6	0xbbd19b4a	-0.0063966857
7	0x3ca4e184	0.020127065
8	0xbc7dbd5b	-0.01548704
9	0x3c2a76fe	0.0104043465
10	0x3c051965	0.00812373
11	0x3c22261d	0.009896782
12	0xbc21e15e	-0.009880392
13	0xbb407781	-0.0029368105
14	0x3beab234	0.0071623567
15	0xbcbea0eb	-0.023270091
