Trans_Prediction/model_saved/ratioMergedPrs/TM_ratioMergedPrs_delay_size_8_delay_4.pth (torch, 385400 bytes, 337 tensors)

encoder.layers.0.attention.w_q.weight f4 [16, 16]
00000000: 0d8e b43e 5069 85bd 410c a7be 9791 f33e
00000010: ed11 e9be e962 5f3e 0dfa 303e 5ef7 123f
00000020: b4c3 063f 274b 0c3d dbec 043f 08dc a93d
00000030: 59ec f2bd 7565 503e c8f2 65be 0110 13bf
00000040: cb98 94be 94df 07bf 3d8b 88bc 1191 e23e
00000050: ef34 cf3e 04f6 03be 8371 0d3f e6cc f3bd
00000060: 1752 03bf 2eef 3fbb ad86 59bd ca19 1abe
00000070: cf28 93bd 82fe 003f 664a 66be 7601 86be
00000080: 8b27 26bb 32d5 0fbf f829 1a3f dcd5 84bc
00000090: 77cf 053f 3336 9a3d f563 8d3c 4b97 b33d
000000a0: da85 6abe 8abb e5be 0f2c 833e f955 553e
000000b0: 639b b43e 6e0e 86be dfd0 dfbe 4b6f 713e
000000c0: 0cb9 b33e 89f0 e73e c9f0 b4be 886c ea3c
000000d0: e879 703e 96b9 efbe f3cd d0be 52ea 183e
000000e0: 41f3 d7be 16df 743c c9e7 a53e f7ba 103f
000000f0: cf01 1cbf 9bf3 c53e c069 03bf 6a23 fabe
00000100: 2c8b 0fbf f9d6 29be 1982 dabe 9ab2 883e
00000110: 982b 08bf 8816 883e eae4 12be 15ed db3d
00000120: ac5b 06bf a28d c23e ab00 75bd 6bca d33d
00000130: 6100 6ebe 9770 bf3e c11e 4c3e d602 1b3f
00000140: 5203 a9be 9da1 73bc d79d 16be fd26 a83e
00000150: e5cd 8fbd eb07 01be 2aef 0fbf 3d7a 0f3f
00000160: 9989 003f ce5d f43e 500b e6be 2a20 4d3e
00000170: 3ec7 6fbe 7311 05be fa4a 26bd 34d7 2fbd
00000180: 57a1 1a3d e7d2 13bf 750d 6e3e cd09 a23e
00000190: 684d c3be 1f04 2d3e d7b2 ef3e dcfb d0bd
000001a0: 3f7c 98be fc9f 81be fb6a f7be 5fe8 143f
000001b0: 3650 433e 74fe 58be 9b5e 6f3e d73d 333e
000001c0: 6d77 5e3e d4f2 efbe 3c9b ee3e 57e5 813e
000001d0: 2527 ccbe a9f1 13bf 4fe9 113f 7e23 073f
000001e0: 1c7d 16bf 4264 19be 05c1 b03e e51d 033f
000001f0: 1abf f73e 1673 68be da90 debe c4bd 0dbf
00000200: 6d2d 673e d008 cd3e ed66 f93e eb2e 04bf
00000210: d813 c4be 3154 53be 6b3a c8be de19 0e3f
00000220: 58ed 00bf 7c7f 6dbe feff 803b d414 d73d
00000230: aab6 fb3e 8818 7ebd 7404 d3be 4eac cb3e
00000240: 178a c8be 97b7 d1be f232 c9be f805 b7be
00000250: 6542 c7bd 82a3 bfbe 7873 983e 61f1 07be
00000260: 2ef5 a3be 8434 13bf 1e60 d93d 252d 0dbf
00000270: 9e16 113f 2f7d 17bf 894c 0a3f 3604 aabe
00000280: a631 fe3d 0d52 c8be a83a b5be b486 ffbe
00000290: d2a5 efbe 5d76 abbd 5e22 0c3f 8a69 f9be
000002a0: 4f4d 113f 64eb 223e 8b18 cdbe 797c fa3e
000002b0: ff7f 283d a997 9ebe f7e4 1dbf 9a20 f53e
000002c0: 3043 0a3e 4d7a 09bd b095 cf3e 075b 6d3e
000002d0: 1e56 ad3e 0acc c9be dc7d 103f f7fe d53e
000002e0: 0772 ab3e 72ed 053f 9429 6ebe cbed d83e
000002f0: f30e 59bd 8c77 bbbd ceeb 933e b5e8 de3e
00000300: 6c4c 573e fde4 b83d 3d67 39be 6087 99be
00000310: cc42 3e3e fe9e 05bf 5a5e f03e 43a3 02be
00000320: 0e9d e63e 8548 153f 6063 17bf e56d 1cbf
00000330: 874e 183f 61cb 213e 30e3 dd3e af12 12bf
00000340: e043 de3e 8487 183c b119 19be 8c8a 053f
00000350: 2b8d 0d3f 4b4a e03e 4acc ecbe 5758 1cbf
00000360: e5ac a2be 8c8f 57bd 987a 883e 1f73 83be
00000370: c26e 28be 3c63 023e c90d 94be 468f c43e
00000380: 882c c2be 050f f53e fd57 bcbe 38c0 e53e
00000390: 534c c23d bceb a53e 0ed0 7fbe a4d1 ac3e
000003a0: 31c2 04bf 4ece e3bd 7754 b13d 06dd 8dbe
000003b0: 374c a73e de8a a13d b393 2e3d 1a9b 8e3d
000003c0: 171a b53d 3e86 e1be b909 a9bd 464a 18bf
000003d0: bfff afbe 7837 1c3f 916f debe 6ebc 843e
000003e0: d6b2 113f f752 fb3e e347 96be e547 e63e
000003f0: 7bab 893e 7036 11bf a247 1abd cb8c 59be
0.35264626 -0.065142274 -0.32626536 0.47572014 -0.4552149 0.21815075 0.17282887 0.574087
0.5264237 0.03425136 0.5192391 0.08293921 -0.11861486 0.20351203 -0.22455895 -0.57446295
-0.29022822 -0.5307553 -0.016667956 0.44251302 0.40470073 -0.12886816 0.5525133 -0.11904316
-0.51297134 -0.002928685 -0.053106952 -0.150489 -0.07185518 0.5038835 -0.22489318 -0.2617299
-0.002535316 -0.56184685 0.6022029 -0.016215257 0.5226969 0.07529869 0.017259577 0.08769091
-0.22902623 -0.44869643 0.25619552 0.20833577 0.352748 -0.26182884 -0.43714043 0.23577611
0.35102117 0.453007 -0.35339954 0.028616205 0.23484004 -0.46821278 -0.40782127 0.14933136
-0.42177776 0.014945766 0.324034 0.56535286 -0.6094026 0.3866242 -0.51333237 -0.48855144
-0.56071734 -0.16585912 -0.42677382 0.26698762 -0.5319152 0.2657969 -0.14345136 0.10738579
-0.5248363 0.37998682 -0.05981509 0.103413425 -0.23242332 0.37390587 0.19933607 0.605512
-0.33010346 -0.014870075 -0.14708649 0.32842246 -0.07021693 -0.12600677 -0.5622431 0.56045896
0.5020996 0.47727817 -0.44930506 0.20031801 -0.23415849 -0.12994938 -0.040598847 -0.042929843
0.037751522 -0.57743686 0.23247321 0.31648102 -0.38144994 0.16896103 0.4681613 -0.10204288
-0.29782292 -0.2531737 -0.48323807 0.5816707 0.19073567 -0.21190816 0.23375933 0.17504059
0.21725245 -0.4686495 0.4660281 0.25370285 -0.39873615 -0.5779062 0.56996626 0.5278853
-0.5878465 -0.14979652 0.34522262 0.5121749 0.48387986 -0.22700152 -0.43469888 -0.55367684
0.22575922 0.40045786 0.4871134 -0.5163409 -0.3829639 -0.20637585 -0.3910707 0.5550822
-0.5036216 -0.23193163 0.0039367666 0.105020195 0.491628 -0.062035114 -0.41214335 0.39779896
-0.39167854 -0.4096038 -0.3929668 -0.3574674 -0.097294606 -0.37429434 0.29775596 -0.13275672
-0.32022995 -0.5750201 0.10614036 -0.5514701 0.56675136 -0.5917539 0.54023033 -0.33206338
0.124118134 -0.391251 -0.35396314 -0.49907458 -0.46806198 -0.083721854 0.5473994 -0.48713332
0.5675859 0.15910107 -0.40057787 0.4892309 0.04113769 -0.30975083 -0.616775 0.47876436
0.13502192 -0.0335639 0.4054389 0.23179255 0.33854765 -0.39413482 0.56442046 0.41796085
0.33485433 0.5231544 -0.23258048 0.42368922 -0.052992772 -0.09153661 0.28890842 0.43536916
0.21025246 0.09028051 -0.18105789 -0.29986095 0.18580168 -0.5219573 0.46946985 -0.12757592
0.45041698 0.5831378 -0.5913601 -0.61105186 0.59494823 0.15800239 0.43337393 -0.5705976
0.4341116 0.009309653 -0.14951207 0.5216453 0.5529353 0.4380668 -0.4624961 -0.61072296
-0.31772533 -0.05262713 0.26656032 -0.25673768 -0.16448501 0.12733167 -0.28916767 0.3839056
-0.379246 0.47863021 -0.3678588 0.44873214 0.09487214 0.32406414 -0.2498171 0.33753693
-0.5185881 -0.11123334 0.086586885 -0.2770769 0.32675335 0.07887815 0.042621326 0.06963177
0.08842867 -0.4404773 -0.082538076 -0.5948833 -0.34374806 0.6102214 -0.43444493 0.2592501
0.56913507 0.49086735 -0.2935172 0.44976726 0.26888642 -0.5672369 -0.03766597 -0.21245115

encoder.layers.0.attention.w_q.bias f4 [16]
00000000: ca4d 603c 0ec0 5dbe 3ff7 0ebe e954 89bc
00000010: b7f6 91bd 6a00 70be b8e4 66be 2888 10be
00000020: 1266 e13d f039 e23d ab09 24be 8864 b4bc
00000030: 43ee 5ebe 656e f0bd 6329 5fbe 3cb7 57be
0.013690421 -0.21655294 -0.13961504 -0.016764121 -0.07127135 -0.23437658 -0.22548187 -0.1411444
0.110057965 0.11046207 -0.16019313 -0.022020593 -0.21770577 -0.11739806 -0.21793132 -0.21065992

encoder.layers.0.attention.w_k.weight f4 [16, 16]
00000000: 47e7 a13b 9fe8 8bbe a974 15bf e82d d33e
00000010: caa2 bebe ef18 c9be d872 eebd da10 243e
00000020: ae7a 673e c63c 193f c939 6e3d deaa fdbc
00000030: c760 46bd 8439 2e3e a4c9 edbe ba1e ca3a
00000040: 6deb 113f f37c edbe 54ba 0e3f 1a59 d63e
00000050: ba62 d43d d02c babe 36f1 a7be 6474 093f
00000060: 14cb d73e 96fd d83e c4ae eabe 003d 083e
00000070: 4ac9 31bd 83f3 b63e 265c 18be 6856 b13e
00000080: 749e 4ebe 5271 20be 3580 0c3f 4590 dcbe
00000090: 668a a6be 6c92 7a3e 9ed3 853e 92f7 66be
000000a0: bac2 d43d 30fe 04bf e6cc fa3e a88a 9d3e
000000b0: 00e9 0ebd e6c8 93be 373a 65be 6614 e2be
000000c0: 951e 083f 76a9 0ebf 7cef 2c3e 5980 b2be
000000d0: a3c8 b5be 35f5 1c3f 94a5 0b3c 8bd0 0f3f
000000e0: 0855 f83d 8543 0b3f 8548 3e3e ad39 633e
000000f0: 4adc f63e 690e 4a3c a9c7 453e bc72 8e3e
00000100: 30ff 49bd 6660 843e e35b 0d3e ecb8 07bf
00000110: 3c23 983e 3a6e e13d c274 09be 6dce bf3e
00000120: 129a 833d 74fc 313e d9fb a6be 1ae6 12bf
00000130: 0f87 d13d bab1 0b3f 7b45 823e 5af0 1abf
00000140: 4179 fabe 44a8 523e 66c0 133e c120 503e
00000150: 0288 32bd 731d b7be 11b5 db3e d7f9 bbbd
00000160: bd60 0dbe 9d9c 51be 6e27 a93e 533f d23e
00000170: 036b b3bc c5be 23be d05e 86be 3c7d 2a3d
00000180: 1cc0 503e cb3f 813e 37a7 d73e fd1c 4fbe
00000190: 98ac 59be f37a f03e 4d8a c93d 86eb da3e
000001a0: 5fb6 8b3e fb07 203e ea2e febc d32f 1a3f
000001b0: 0a3b 663e f673 9a3e ae86 913e 6773 0bbf
000001c0: 00c2 19be 7920 db3e a65a ccbd c796 0ebe
000001d0: 6aa2 0d3f 545d f4bd afb0 17bf f94a edbe
000001e0: b46b 7d3e 1128 e03e fcdb 1b3e 9a1b f5be
000001f0: 3e86 363d 1941 113f 52ee 003f 2dde 15bf
00000200: 0ef5 79be fffd 13be edcd b3be f76a d1bd
00000210: 0336 193f dc72 d8be 420c 98be 34e5 363d
00000220: 0a2f 123f 296e 9a3e 03c0 b43e e98d dcbd
00000230: 2b79 58be dc47 20be cc6d 203e 56cd fc3d
00000240: c217 c83e e648 993d 4742 8e3e cd17 a6bd
00000250: be71 3c3e fce6 febe 42f8 a63c a2c2 ebbe
00000260: f433 87be 958a d0be 6af4 13be 0f6a 0d3f
00000270: 7ccd 63be 92c7 903d 1580 123e 0a11 09bf
00000280: 4d83 0cbe db64 cc3e 03f9 e7be 767a 843c
00000290: 3713 1abe 4f64 023f 1fa2 1abf 8632 f6be
000002a0: 1dd4 1ebf 96fb 0b3f 432d 943e 433c a7be
000002b0: 48ee b5be ec6d 0d3b ca84 a6be 0d6a ac3c
000002c0: 72ea 643e 0620 70bd 8a1a c93e 8802 153f
000002d0: a34d 55be 73be dcbe 07fd 6d3e 86d7 f0be
000002e0: 5f8f a4be 5422 84be c16f 9f3e 9065 e7be
000002f0: 8447 9b3d ebfc 083f 314a c73e 25f4 dbbe
00000300: 89e3 943e 6613 d1be 8e14 6c3e b4ba 07bf
00000310: bb7c bebe 6e6c 913d 2447 07be b937 2a3e
00000320: 5067 f63e de84 4e3d feb6 f13e 9e62 3cbe
00000330: ce9e 6d3d 7052 0dbf dfef 64be 3ea0 ef3e
00000340: 9558 0abe 676c e1be 0701 d53e 2e69 83be
00000350: 8407 a23e 5f53 953e 25ce 35be 24f2 8ebe
00000360: f4ad 153f 9534 f53c 609d 9ebe cc31 7b3e
00000370: 734b 10bf 00ef 933e 3a5f 64be c0e1 31be
00000380: 4eaa ca3e 430f 12bf 5e8f c5be f9e8 8cbd
00000390: e662 1e3f f629 e7be 0e2e f5be 217c b8be
000003a0: 87b7 093e f020 8bbe e09a 5f3e 275c 0f3f
000003b0: 07d0 09bf f32a f2bd b23c 833d fef0 1a3f
000003c0: 0b1c 0ebf ccad b2be 2a93 143f c2e0 c13e
000003d0: e1b0 eebe 6399 113f eeb3 163f 474b 003e
000003e0: 309c 9c3e 71d1 7c3c 078a c73e 6bbb 863d
000003f0: 1331 63be a92c de3e 552b b7be c35b 84be
0.0049409005 -0.27325913 -0.58381134 0.4124596 -0.37233573 -0.39276835 -0.116429985 0.16022053
0.22605392 0.5985836 0.058160577 -0.030965265 -0.048432138 0.17014128 -0.46442902 0.0015420534
0.56999856 -0.4638439 0.55753064 0.41864854 0.10370393 -0.36362314 -0.32801217 0.53693223
0.42147124 0.4238097 -0.4583646 0.1330452 -0.043404855 0.3573266 -0.14878902 0.34636235
-0.20177633 -0.15668228 0.5488313 -0.4307882 -0.32527465 0.24469918 0.26138014 -0.22555378
0.10388704 -0.5195036 0.4898445 0.3076985 -0.034890175 -0.2886421 -0.22385488 -0.44156188
0.53171664 -0.55727327 0.16888231 -0.34863546 -0.35504636 0.61311656 0.008523364 0.56177586
0.121255934 0.543999 0.18582352 0.2218997 0.48214942 0.012332537 0.19314446 0.2782191
-0.04931563 0.25854796 0.13804583 -0.53016543 0.29714382 0.11007352 -0.13423446 0.37462178
0.06425871 0.1738146 -0.3261402 -0.5738236 0.102308385 0.54568064 0.25443634 -0.60523
-0.48920634 0.20572 0.14428863 0.20324995 -0.04358674 -0.35764655 0.4291158 -0.091785125
-0.13806434 -0.204699 0.33037895 0.41063938 -0.021901613 -0.15990742 -0.2624421 0.04162334
0.20385784 0.25243983 0.42119762 -0.20225902 -0.21257246 0.46968803 0.09840832 0.42757815
0.27287576 0.15628044 -0.03102823 0.60229224 0.22483459 0.30166596 0.28423065 -0.54472965
-0.15015411 0.42798212 -0.09978227 -0.13924704 0.5532595 -0.119318634 -0.5925397 -0.46346262
0.24748117 0.43780568 0.15220636 -0.4787262 0.044561617 0.56739956 0.5036365 -0.5854214
-0.24409887 -0.1445236 -0.35118046 -0.1022548 0.5984804 -0.4227513 -0.29696852 0.04465218
0.57103026 0.3016217 0.35302743 -0.10769255 -0.21139972 -0.15652412 0.15666884 0.12343852
0.39080626 0.074846074 0.2778494 -0.081100084 0.18402764 -0.49785602 0.02038205 -0.4604693
-0.26406825 -0.4073073 -0.14448705 0.5523996 -0.22246355 0.07069315 0.14306672 -0.53541625
-0.13721962 0.39920697 -0.45307168 0.016171675 -0.15046392 0.5093431 -0.6040363 -0.4808542
-0.6204241 0.54680765 0.28940782 -0.32663164 -0.35533357 0.002158041 -0.32523185 0.021046663
0.22355059 -0.05862429 0.3927806 0.5820699 -0.20830397 -0.4311405 0.23241054 -0.4703943
-0.32140633 -0.2580744 0.3113995 -0.45194674 0.07582 0.5351092 0.3892379 -0.42959705
0.29079846 -0.40835112 0.23054716 -0.5301926 -0.37204537 0.071007594 -0.13210732 0.16622819
0.48125696 0.05041968 0.47209924 -0.18396994 0.058012776 -0.55203915 -0.22357129 0.46801943
-0.13510354 -0.44028017 0.41602346 -0.25666183 0.3164636 0.2916517 -0.17754419 -0.27919114
0.58468556 0.0299323 -0.30979443 0.24530715 -0.56365126 0.2889328 -0.22301951 -0.17371273
0.39583057 -0.5705454 -0.38585943 -0.068803735 0.6186966 -0.451492 -0.478867 -0.36032203
0.13448916 -0.27173567 0.21836424 0.5599999 -0.5383305 -0.11824598 0.06408061 0.60523975
-0.5551154 -0.34898221 0.58037055 0.3786679 -0.46619323 0.56874675 0.588683 0.12528716
0.30587912 0.015430794 0.38972494 0.06578716 -0.22186689 0.43393448 -0.35775247 -0.2585126

encoder.layers.0.attention.w_k.bias f4 [16]
00000000: 9bd6 e034 84d0 ed33 3191 1e34 4398 4034
00000010: 94c7 0f35 73ec cfb4 127f 04b4 880d 46b4
00000020: fe5d ceb3 c61c 1735 5fda eb35 ff27 91b5
00000030: 2bd7 2134 229f a3b5 d4f7 15b5 78b3 b234
4.1879397e-07 1.1074101e-07 1.4767717e-07 1.7936786e-07 5.3562076e-07 -3.8728794e-07 -1.2339686e-07 -1.844511e-07
-9.6097196e-08 5.6293754e-07 1.7572419e-06 -1.0814982e-06 1.5072571e-07 -1.219076e-06 -5.586746e-07 3.3285664e-07

encoder.layers.0.attention.w_v.weight f4 [16, 16]
00000000: 33b1 d8bd ed35 15bf 79fe 143f 0ee5 afbe
00000010: a789 7e3d cd7a d93e f63c 843d c6ce 76be
00000020: 374c 1c3e 4b16 963e a134 0cbf 9342 87be
00000030: af87 623e db25 4bbe c35b 13bf f757 bfbe
00000040: 4963 ea3e aae9 efbe c437 843d 4de6 863e
00000050: 0cf4 c0be 2c3c e43d ce3e c8be e990 0cbf
00000060: 4589 d23e 149f df3d 30b2 593d d9ea 3c3e
00000070: bed8 be3e e5a7 743e fbc0 003f 3627 13bf
00000080: f8ac e73d 5682 19be c74d 2a3d 68e6 e9bd
00000090: 84f7 e1be 4e19 0f3e 4a6f 21be 1cc2 92be
000000a0: f9c2 153f 9747 de3e 8b62 223e 790b 0f3f
000000b0: f3fc 52be c317 bbbe 2b47 a03d 8565 eb3e
000000c0: 7726 bbbe c3e0 1ebd e01e 50be efa6 5f3d
000000d0: f8d5 17bf a97a 173f 991e f13e 9acb 3dbe
000000e0: 4558 59bb ef35 af3e 48b0 f7bd 046c a1be
000000f0: c415 ff3d 9f09 f3be 6092 83be 52ec 423e
00000100: afab 2bbe e54e 9bbe 047f 0cbf 7191 c33b
00000110: bd83 d23d e1c6 0cbf 6416 49bd b7a3 e1be
00000120: 5322 563e ad21 953d e2f1 153f ac56 023f
00000130: 0a7f 32be 6593 1c3f c660 33be 5ad1 5a3d
00000140: 0792 b2be af03 3c3d e819 7fbc caa0 183f
00000150: 9fea db3d f669 1b3f 1880 91bd 9eb0 ff3e
00000160: dd67 2ebe 3398 0fbf da2e eebd f8e7 8abc
00000170: e61c 8bbe 995c 333e 790c 8a3e e4df 40be
00000180: 9a5a 093f f4d3 c13e be08 8bbe 4be7 9d3e
00000190: 1670 8e3d 793e cabe 19c2 80be 58b7 fcbe
000001a0: f791 023f 6a8d ec3e 99e7 eebe cb2e 43bc
000001b0: c811 893e 63c9 a63e 27e2 4fbd 5ce1 a33e
000001c0: b191 203e bc2a 09bf a822 ec3d f03c aebd
000001d0: 9593 22be dedf 11be c6ef ad3e bf8b d63e
000001e0: 4047 163f e793 0cbf e2a1 8d3d 1b1f dabe
000001f0: 56ce 833d 8420 fb3e 56cd 433e f82d 193f
00000200: 9e7a e6be 89ce 69be 52bf d1bd bea1 adbd
00000210: a5ba 003f 80e6 f5be 334a 9a3e b72c 15be
00000220: 43fc 1abf ef5f 143f e7df fabe e566 173e
00000230: b0ab 10bf bc87 37be 29b4 19bf 5747 863e
00000240: 4b92 04bf 2c15 163f 869f 923e 8937 f33e
00000250: b754 17be a7e3 933d 037f 993d 281c 973e
00000260: 78f1 55be 3119 123f 3716 df3e 02d5 b1be
00000270: 972d 623e 30bc 82be d3dc b3bd fb62 97be
00000280: 78bd 99bd d7c5 17bf 08e1 873e 42dd af3e
00000290: 0b83 04bf 9aa1 23bd 7a71 4d3e 6868 3e3e
000002a0: 62d7 73be a229 10be 0a95 133f e1a0 a23e
000002b0: 0f88 083f 09c8 b33e f771 5ebe 8e18 083f
000002c0: 655d 593e ab34 863e 8ac2 e9be dbb7 10be
000002d0: 49e6 063e 8911 9a3c 9057 0ebf af69 abbe
000002e0: feef 41bc a882 9cbd 0599 df3e 4757 033f
000002f0: fae1 8abe 15ed 8abe 542f 2e3e 62b6 8a3e
00000300: 0b5c b0be d7f5 0a3f 3233 36be 8836 e23e
00000310: 4ccf a3be f4a2 823e 26b9 063f 9fa4 c03e
00000320: bcbb 0c3f da20 6b3e 8516 ac3e 267e 003f
00000330: 8695 4f3e 5751 b0be 9a03 0f3f 2d75 c33e
00000340: 0870 bfbe b74b 25be 2ded f03c 6701 2abe
00000350: 3869 af3e 6336 c2be 1654 083d 965e b13a
00000360: 6f11 523e bc5e babe 3839 0fbf 642e 9bbd
00000370: dc47 053f b197 ad3e aa16 493e 4677 eabe
00000380: 626b 4ebe bd07 f6be f99c f8be 6d29 f53e
00000390: b862 c33e dc72 d8be 0aa7 cabe b205 e23e
000003a0: bec0 333e c261 ab3c fd13 193f 6b09 0bbe
000003b0: fcdc 35be eb9d c9be 72ec a3be dcf6 11bf
000003c0: db61 82be e0b8 043e 3c7c 06bf 82ec ad3e
000003d0: 09b3 19bf 0c05 69be 5360 90bd f356 083f
000003e0: db3c ba3e 3cd5 1abe b2b5 343e e6b0 913e
000003f0: 5a6f e9bd b5eb cebe a468 f33e d3f5 53be
-0.10580673 -0.5828541 0.58200794 -0.34354442 0.062142994 0.42476502 0.0645694 -0.24102315
0.15263449 0.29313883 -0.54767805 -0.2641798 0.22122072 -0.1983866 -0.5756189 -0.373718
0.45778874 -0.4685796 0.06455949 0.2634758 -0.37686193 0.111442894 -0.39110416 -0.54908615
0.41120353 0.109190136 0.05314845 0.18448962 0.37274736 0.23892172 0.50294465 -0.57481706
0.11312288 -0.14991125 0.04157808 -0.114209 -0.44134152 0.13974497 -0.1576511 -0.2866372
0.5850063 0.43413994 0.15857904 0.5587688 -0.20604305 -0.36541566 0.07826074 0.4597589
-0.36552784 -0.03878857 -0.20324278 0.05460256 -0.59310865 0.5917154 0.47093657 -0.18534699
-0.0033164185 0.34220836 -0.1209417 -0.31527722 0.12455323 -0.47468278 -0.25697613 0.19035462
-0.16764711 -0.3033363 -0.5488131 0.0059682657 0.10279033 -0.54990965 -0.04909362 -0.44070217
0.20911531 0.07281814 0.5857221 0.509135 -0.17431274 0.61162406 -0.17517385 0.05342231
-0.34877035 0.04590195 -0.015570141 0.59620345 0.1073811 0.6070856 -0.0710451 0.49939436
-0.17031808 -0.5609161 -0.1163003 -0.016956314 -0.27170485 0.17515792 0.2696264 -0.18835407
0.5365387 0.3785702 -0.27155107 0.30840525 0.069549724 -0.39500788 -0.25148085 -0.4935863
0.51003975 0.4620164 -0.4666107 -0.011913012 0.2677138 0.3257552 -0.050752785 0.32007873
0.15680577 -0.5358083 0.11530048 -0.08507717 -0.1587661 -0.14245555 0.33971995 0.41903493
0.5870247 -0.5491318 0.06915642 -0.42601857 0.0643584 0.49048245 0.19121298 0.5983577
-0.45015424 -0.22832693 -0.102415696 -0.084781155 0.50284797 -0.4802742 0.30134735 -0.14567839
-0.6054117 0.57958883 -0.4899895 0.14785345 -0.56511974 -0.17922872 -0.6004053 0.26226303
-0.51785725 0.58626056 0.28637332 0.47503307 -0.1477841 0.072211556 0.07494929 0.2951367
-0.20892894 0.5706969 0.43571636 -0.34732825 0.22087704 -0.255342 -0.08782353 -0.29567704
-0.075068414 -0.59286255 0.26538873 0.34348494 -0.51762456 -0.039949037 0.20062819 0.18594515
-0.23812631 -0.14078382 0.5764929 0.31763366 0.5333261 0.35113552 -0.21723162 0.5316247
0.21227033 0.26212057 -0.45656234 -0.14132635 0.13173784 0.01880719 -0.5560236 -0.33479068
-0.011837004 -0.07642108 0.43671432 0.5130505 -0.2712553 -0.27134004 0.17010242 0.27092272
-0.34445223 0.5428137 -0.17792967 0.4418223 -0.31994092 0.25514948 0.52626264 0.37625596
0.5497396 0.2296175 0.3361093 0.5019249 0.20271882 -0.34437057 0.5586487 0.38175336
-0.3739016 -0.16142164 0.02940997 -0.16602097 0.34259963 -0.3793212 0.033283316 0.0013532217
0.20514463 -0.36400402 -0.55946684 -0.07577208 0.52062774 0.33904794 0.19637552 -0.45794123
-0.20158151 -0.4805278 -0.4855726 0.47883168 0.38161254 -0.4227513 -0.39580566 0.4414497
0.17553994 0.020920638 0.59796125 -0.13577811 -0.1776008 -0.39378294 -0.3201633 -0.570173
-0.25465283 0.12961149 -0.52533317 0.33969504 -0.6003881 -0.22755831 -0.070496224 0.53257674
0.36374554 -0.15120405 0.17647436 0.28455275 -0.11398192 -0.40414205 0.47540772 -0.20699243

encoder.layers.0.attention.w_v.bias f4 [16]
00000000: b2e9 7cbd 8f8c f5bd 4a16 cebd 50c5 a03d
00000010: e015 ffbd eb8d 323d 4a05 32bd b51f debc
00000020: 941f 153c 493a 4cbe 0460 be3d 0ab3 6dbc
00000030: 53d2 4cbe 6f19 02be 0243 21be f3b1 133e
-0.061746307 -0.119897 -0.10062845 0.078501344 -0.12455344 0.043592375 -0.043462075 -0.027114728
0.009101767 -0.19944109 0.09295657 -0.014508018 -0.20002107 -0.12705015 -0.15748218 0.14423351

encoder.layers.0.attention.w_concat.weight f4 [16, 16]
00000000: 44c3 813e 75f5 a13d f0d0 913e 48a2 0dbf
00000010: fb61 e43e b994 8e3e c281 d6be ccc7 cc3e
00000020: fc8d f73e 22f0 97be 9a95 0ebd 3b9d 833e
00000030: 25ba e9be 7b3c 20be 99c5 953e 7efd 843e
00000040: 265d a93c f8ff 153d 1f95 cc3c 9e22 e6be
00000050: f1d6 203c 6a74 2cbe 5d71 e0be 7319 0f3f
00000060: 7578 ca3d 26f6 e8be b5e6 60be 53fc 933d
00000070: 675a a2be fdad 033e 7d83 83bd eb25 14be
00000080: 8478 c7be 5ec0 9a3e aeb4 663e 3bdb 913e
00000090: cd60 4c3d cb54 af3e a237 20be 7537 fb3c
000000a0: 5a89 1f3b c063 043e 4c2d 103f a9b5 bb3e
000000b0: 6a26 193f b8c3 ccbe 4a4f f93c 4275 91be
000000c0: 2a5d 933e 9cd1 043f 91c8 d8be e319 01bf
000000d0: 73c9 a9be 43e0 46be 0527 67bc 7818 143d
000000e0: e754 14bf b3fc b93e f870 10bf fcc4 d33d
000000f0: fc3a 153f 96a4 4b3e e29c 0c3f 18cc 84be
00000100: 21ae 913c 2e8d a8be d3af c83e 7603 eb3e
00000110: 12cf a03e 865b dabd 2a6d e03e d506 0abf
00000120: b0f8 6f3e bb6d 77be 6b1f 2fbe 5a07 52be
00000130: e8eb 17be 288c 5b3d 0290 993c f6e3 1bbd
00000140: 9e76 213d 38f3 b1be 19b5 b53d 0700 923c
00000150: 1fbb e0bb 2ba0 abbe 8ac4 cbbd 3206 393d
00000160: 1eef 383e 9b20 113e 7fc7 0dbe 9ba8 c9be
00000170: 2d9e 17bf f261 c13e 4038 f13e f5c8 ee3e
00000180: e140 253c 13e9 f0bd 7164 12bf 3df9 bdbd
00000190: 49b8 ec3e fae9 c23d dbc4 b73e d062 b3be
000001a0: 2298 123f 0280 5abe c93c 9a3e 4a0c fe3d
000001b0: 9490 dbbe 5c3e c8be e0d5 79be c6d0 42be
000001c0: 3e68 d5bd b488 8dbe a2cc d3bb 604b 1b3c
000001d0: a03c c33e f661 fc3e 85b8 fcbe 582c 95be
000001e0: 43e2 0cbe b6dc c5be c0c9 8eba dec0 e5be
000001f0: 73e2 f3be 67c9 af3e 6ef7 d33e 3858 b23e
00000200: f6a1 08bf 2014 4c3d 612e c1be ad25 b1be
00000210: 9cb4 003e 531e 89be 0cf9 3d3e 4dcd 7abd
00000220: a53c 4fbd e920 93be 3073 0d3f 8211 903e
00000230: a539 173f 2818 16bf 1c61 31be e681 87be
00000240: 73e8 163e 9b9a d0bd 3a80 67be 5261 61bd
00000250: f053 3b3e e596 d3be e475 933c 0144 0bbf
00000260: 5ab7 bebd 4653 8fbd 0373 133e ff9c 9dbe
00000270: c6ed be3e cede 80be 4c1d 8a3e 43dd efbd
00000280: 9542 983c 8233 0ebd 01ef 85be b055 603e
00000290: 3509 e03e e5e1 433e 19ce 893d 481c 95be
000002a0: 8a3d 13bf d08c f53e 10f6 9bbe b2de e7be
000002b0: 067d 033e 5a03 f63e 6eb1 f53e 40d2 b6be
000002c0: f1d2 6dbe 2792 cf3e 1b5a c63d 1fce 4d3e
000002d0: f2d6 4d3e 57e5 e53e 8f84 13bf 027f ea3e
000002e0: 8471 883e ea9f 783d 18ac 023f 8c9a e0be
000002f0: aef3 cdbe 8ddb f2be c14e 81be 2203 fcbe
00000300: e346 bf3e d91b a4be 8089 273e 59d6 a9be
00000310: e4bf 9bbc 2255 65be 6497 d4bd fb02 833e
00000320: b8b3 a33d 46fe 023f 59de e1bd 3391 8dbe
00000330: 6dfc 98be 7671 f7be 5aee a03e c7aa 82bd
00000340: b784 cebe 566f e13e e5a5 ae3e a7f4 5e3e
00000350: f4e6 cdbe 8e22 cb3e e1c1 8b3d bd5c d83e
00000360: 2dce e7be 1637 dd3e ef38 e03e 72e8 e93e
00000370: 5fe1 14be ab38 68be eb4d 22bd b86b bbbe
00000380: ac0d 1ebf 7555 d03c 1bd3 c93e 16c6 103f
00000390: 6e99 c8bd b373 033e f120 d53d e1cf c63e
000003a0: f567 e6be ce09 10bf 0541 d3be 40af 75be
000003b0: d166 10bf d440 a8be e7c9 aabe 2f2d e2be
000003c0: 8735 85be 6f17 c23e 4be6 00bf 8821 b03e
000003d0: 6bf5 04bf 2a8a 01bf 1d26 943e 6125 b4be
000003e0: b857 113f a30e 21be cfb7 a53e ca06 3b3b
000003f0: 8000 443d ae95 e1be d7ae 77bd 7419 42bd
0.25344288 0.07908145 0.2847972 -0.55325747 0.44606003 0.2784784 -0.41895872 0.39996183
0.48350513 -0.29675394 -0.03481064 0.25705895 -0.4564983 -0.15648071 0.29252318 0.2597465
0.0206743 0.036621064 0.02497345 -0.44948286 0.009816871 -0.16841283 -0.4383649 0.5589821
0.098862566 -0.45500296 -0.21963008 0.072258614 -0.31709597 0.1285934 -0.06421564 -0.1446759
-0.38959134 0.3022489 0.22529861 0.28487572 0.049897004 0.3424438 -0.15646222 0.030666092
0.0024343343 0.12928677 0.5631912 0.36662033 0.5982424 -0.39993072 0.030433316 -0.28409773
0.28782016 0.5188234 -0.4234052 -0.50430125 -0.33161506 -0.19421487 -0.014108424 0.036156148
-0.5794205 0.36325607 -0.56422377 0.10340306 0.5829313 0.19887003 0.54926884 -0.2593696
0.017783226 -0.32920212 0.39196643 0.45901078 0.31407982 -0.10661988 0.43833286 -0.53916675
0.2343471 -0.24162953 -0.17101829 -0.20510617 -0.14836085 0.05360046 0.018745426 -0.038059197
0.039419763 -0.34755874 0.08872432 0.017822279 -0.006858244 -0.33520636 -0.09949596 0.045171924
0.18059966 0.14172594 -0.13845633 -0.39386448 -0.5922573 0.3777004 0.47113228 0.46637693
0.010086269 -0.117632054 -0.5718451 -0.09276054 0.46234348 0.09517284 0.35892376 -0.35036325
0.57263386 -0.21337894 0.301245 0.12404688 -0.42883742 -0.39110076 -0.24397993 -0.19024953
-0.10420273 -0.2764336 -0.006463603 0.00947842 0.3813219 0.49293488 -0.49359527 -0.29135394
-0.13758187 -0.38644952 -0.0010893866 -0.44873708 -0.47633705 0.34333345 0.4139971 0.3483293
-0.5337213 0.04982388 -0.37730697 -0.34599057 0.12568897 -0.26780948 0.18552035 -0.061230946
-0.050594945 -0.28736046 0.5525389 0.28138357 0.59072334 -0.5863061 -0.173222 -0.26466292
0.1473711 -0.10185739 -0.22607508 -0.055024453 0.18293738 -0.4132606 0.01800055 -0.5440064
-0.09312315 -0.06998305 0.14399342 -0.3078384 0.37290782 -0.25169986 0.26975477 -0.11712124
0.018586436 -0.03471709 -0.26158908 0.21907687 0.43757024 0.1912914 0.06728763 -0.2912314
-0.57515776 0.47958994 -0.30461168 -0.4528709 0.12840661 0.48049432 0.4798693 -0.35707283
-0.23224999 0.40541193 0.09685155 0.2009816 0.20101526 0.44901535 -0.57624143 0.45800024
0.26649106 0.06069938 0.51043844 -0.4386791 -0.40224975 -0.4743313 -0.25255397 -0.4922114
0.3735877 -0.32052496 0.16361046 -0.33171347 -0.019012399 -0.22395757 -0.10380438 0.2558821
0.07993263 0.5116924 -0.110287376 -0.2764984 -0.29880086 -0.4832875 0.31431848 -0.063802294
-0.40335628 0.44030255 0.34110942 0.21773015 -0.40215266 0.396748 0.06824089 0.42258254
-0.45274487 0.4320609 0.43793437 0.45685154 -0.14539097 -0.22677867 -0.03962509 -0.3660562
-0.6173961 0.025431374 0.39418873 0.56552255 -0.097948894 0.12837104 0.10406674 0.38830474
-0.45001188 -0.5626496 -0.41260543 -0.23992634 -0.56406885 -0.3286196 -0.33357164 -0.44175097
-0.260174 0.37908503 -0.503514 0.34400582 -0.5193698 -0.50601447 0.28935328 -0.35184768
0.56774473 -0.1572824 0.32366797 0.0028537982 0.04785204 -0.4405951 -0.060469475 -0.047387555

encoder.layers.0.attention.w_concat.bias f4 [16]
00000000: 8792 be3d b3e0 6cbd 23bd f73d 351a 17bd
00000010: 63ef b7bb 0367 b13c 9bfe fabd f8ba aebd
00000020: 4fda fe3b 5e51 663d a215 6ebd 337a fb3b
00000030: a1f1 2cbe acae 25be 16ed cdbd f4a4 30bb
0.093052916 -0.057831477 0.12096622 -0.036890227 -0.005613254 0.021655565 -0.122555934 -0.08531755
0.0077774893 0.05622994 -0.0581261 0.0076744794 -0.16889049 -0.16179913 -0.10054986 -0.0026953788

encoder.layers.0.norm1.gamma f4 [16]
00000000: 0611 7f3f cf57 7f3f 70d9 7f3f 0a30 7d3f
00000010: 7d03 7d3f cbf4 7e3f bb61 803f da29 7f3f
00000020: 5672 7d3f c878 803f 0f2a 823f a23f 763f
00000030: f189 7a3f ac1b 7b3f abff 7f3f 7790 723f
0.9963535 0.9974336 0.9994116 0.98901427 0.9883345 0.99592274 1.0029825 0.99673235
0.9900259 1.003686 1.0169085 0.96190846 0.9786673 0.980891 0.99999493 0.94751686

encoder.layers.0.norm1.beta f4 [16]
00000000: 3895 a5ba 340c 95bc e777 a83b 8c41 40bb
00000010: 0742 833b 0ca5 763b a55e 02bb 1554 a2bb
00000020: 12de beba 3406 45ba 6a2a e53a c6db 3b3c
00000030: 85f5 f2ba aaf4 42bc 59ce fe3b 31dd cfbb
-0.0012632972 -0.018194295 0.0051412466 -0.0029335944 0.004005674 0.0037634997 -0.0019892838 -0.004953871
-0.0014562032 -0.0007515878 0.0017483954 0.011465972 -0.0018536305 -0.011899153 0.0077760634 -0.0063435067

encoder.layers.0.ffn.linear1.weight f4 [64, 16]
00000000: 6f27 903a 197c fcbb 4d47 553e e303 723e
00000010: a717 963d b6ca 97bd dbe2 e63d 8a8f 1abf
00000020: 4296 963e 5e65 40be b44b 0c3b 4afd b4bc
00000030: a1b1 6c3e 1f04 0d3f 4eb8 033e ceac d83e
00000040: 994d 093f fe20 983d 674c a03e 8e8b ddbe
00000050: 8a41 c83e c73e 40be cd3d 083f 0817 753e
00000060: 5bfc 073f bcfb 28be b3bd b73e af81 c8be
00000070: 602e 363e 1f2c 293c 5b70 3bbe 0624 d6be
00000080: 8a60 32be 9d58 163e 268b d1be 0bc2 bcbe
00000090: a8e4 313e 7e50 c23e 10c5 64be 020f 0cbe
000000a0: 5f7d 62be c463 c1bb 19cf 7fbc e152 1fbe
000000b0: a4e4 e13d 49c5 b6be 18da db3e 8f69 aebe
000000c0: e5cc 13be 4349 083f d2e4 983e 7080 ebbd
000000d0: 0bf5 27be 67d9 f93d 2aae b83e 720d eabe
000000e0: 50b3 133f f8ac 83be 3359 edbe be92 fbbc
000000f0: e015 d83e 1f38 9cbe 83c6 a63e eeb3 033f
00000100: c695 1bbe 6108 aa3e 902b 103f 6a10 5b3e
00000110: e828 9dbe 8b10 b83e a998 afbe b180 d53e
00000120: 4a6b c8bd 4ab2 f1be 793b d6be c036 85bd
00000130: d8d5 f23d c628 b9be 5cb6 ba3e f134 8e3d
00000140: 4c0d 6fbd 73a3 243d cad7 88be cbf2 e9be
00000150: 6cff aa3e 13cd e03e 213d f4be 058b 95bd
00000160: 8c68 27be 1dce 193e 5352 00bf 0903 1ebe
00000170: be14 03be bf3a 863e 82df 37be 6242 aabe
00000180: 3c06 7a3e 8974 9f3e a47d 42be 1fcf bb3d
00000190: 98d7 013d d1c4 983e b08d a63e e4a3 333c
000001a0: ee4f 66be beef 6e3e a87a 213e 7019 d6bc
000001b0: 5df9 9bbd 6c9a d2bd 182d 003e c66e 983e
000001c0: 1b34 7dbe ac33 f83e 040d f73d 8532 b63d
000001d0: 2d45 34be de2b 10bf e9b9 97bc 75ab 473e
000001e0: 2e95 fc3e 3538 0f3f e1df fa3e 34c6 99bd
000001f0: 9f61 2bbe b7a1 c3be 9b3e 023f 53d3 003f
00000200: cb27 9ebe 385e b53e 3ae4 043f 1550 c6be
00000210: 13a9 c6be 00f6 2a3b c32e 0abf 4364 febd
00000220: 52bc 353e 1ad8 2bbe 6fa6 873e bf81 00bf
00000230: 879a 07be 278c 6e3e 3684 cbbd d4d1 a0bd
00000240: fe83 563e 8cf9 b7be 927d 88be bf04 80be
00000250: 1961 403e eaae 233e d77e 823e 694a dbbe
00000260: 84e7 083e a541 0bbf 6132 453e 90f1 903e
00000270: 0fba da3e ac00 8bbe 481a ab3e 1e66 b5bd
00000280: 57ff 0ebf 7d1d bcbc 85ef adbd 667a f13e
00000290: a2ea 91be 13cd 0e3f aa7e 85be 7c66 2e3e
000002a0: 29ce 0c3f 3252 82bb 464a 21be 3451 c5bc
000002b0: 6bd7 b83e 5883 01bf c634 3b3e 24cd b83d
000002c0: b5ef 0c3e 1bbb 413d b585 90be e615 133c
000002d0: abbe 99be edcd 973e bd3c c3be 2905 ce3e
000002e0: 2a6e adbc 70f5 a83e 1cc3 e1be 1529 41be
000002f0: 79b2 703e 62d7 c7bc 8c46 68be 9ab5 c23e
00000300: 2d61 ffbe 8c67 8d3e cd67 9b3d df3a 65be
00000310: b029 443e bd26 a43d 0e47 263e be1f b33e
00000320: 6a37 fbbe 1bfe 0b3f cbe2 c8be 34d5 a03d
00000330: ab5b 063f 1c14 143f dc04 623e f367 e1be
00000340: 4bf4 ed3e 1add b93c fe06 073e 277a 8d3e
00000350: 57f1 a63e 6242 9cbe 347e 64be cb07 e7bd
00000360: 2b35 d1bd a9d9 2f3e 549f a23e a2f9 b63d
00000370: 99b1 f0be 9df4 ea3e 68ae 073d fa5d fcbe
00000380: 061e 88be 4c72 923e 4372 c4be 5ef1 d8be
00000390: ed5e a53e cb0d cd3e fa9f ac3d 0caf 983c
000003a0: 765d c3bd 6e35 0a3d 50b1 953e f7b2 48bd
000003b0: 9564 ab3e 174e b5be 895d 90be 38f2 9c3e
000003c0: b4c7 303e 7677 a93e 9c95 9abe 01d6 04bf
000003d0: 90fd 583e c6f4 553e 4b5b 4f3d c82c 2d3e
000003e0: 2dd9 ff3e 667f b13d 8f06 a9be 8a6f ae3e
000003f0: 182d cd39 4ef2 a03e e332 d4be c29a dd3e
0.001099808 -0.0077052233 0.2082798 0.23634295 0.0732873 -0.07411711 0.11273738 -0.60375273
0.29411513 -0.18788669 0.0021407427 -0.022093434 0.23114635 0.55084413 0.12863275 0.4231934
0.5363403 0.07428168 0.3130829 -0.43270534 0.39112502 -0.18773948 0.532193 0.23934567
0.5311944 -0.16502279 0.35886917 -0.3916144 0.17791128 0.010325461 -0.18304579 -0.4182436
-0.17419639 0.14682241 -0.40926474 -0.36866793 0.17372382 0.37952036 -0.22340798 -0.136776
-0.22118138 -0.0059017856 -0.015613341 -0.1555896 0.11029938 -0.35697392 0.4293983 -0.3406491
-0.1443363 0.5323679 0.29862076 -0.11499107 -0.1640207 0.12199669 0.36070377 -0.45713383
0.57695484 -0.25717902 -0.46357116 -0.03070962 0.4220419 -0.30511567 0.32573327 0.51446426
-0.15193853 0.33209518 0.5631647 0.2139298 -0.30695271 0.3595012 -0.34296158 0.41699746
-0.09786089 -0.47206336 -0.4184225 -0.06504583 0.11857194 -0.3616392 0.36467254 0.069436915
-0.05836229 0.04019494 -0.26727134 -0.4569305 0.33397996 0.4390646 -0.47702888 -0.073019065
-0.16348475 0.15020032 -0.50125617 -0.15430845 -0.12800881 0.26216695 -0.17956355 -0.3325377
0.2441644 0.31143597 -0.1899324 0.091703646 0.031699747 0.2983766 0.32529974 0.010964368
-0.22491428 0.23333642 0.15769446 -0.026135176 -0.07615922 -0.1028336 0.12517202 0.29772013
-0.24726908 0.48476923 0.120630294 0.088963546 -0.17604513 -0.56316936 -0.018521266 0.19499
0.49332565 0.5594514 0.4899893 -0.07508507 -0.16736458 -0.38209316 0.5087678 0.50322455
-0.30889735 0.35423446 0.51910746 -0.38732973 -0.38800868 0.0026086569 -0.539776 -0.12421467
0.1774762 -0.16781655 0.26494166 -0.50197977 -0.13242541 0.23295651 -0.099373266 -0.078525215
0.20948789 -0.35932577 -0.26658303 -0.2500362 0.1878704 0.15984693 0.25487396 -0.42830208
0.13369566 -0.5439704 0.192575 0.28309298 0.42720076 -0.2714895 0.33418489 -0.08857368
-0.5585837 -0.02296328 -0.0849295 0.47163695 -0.28499323 0.5578167 -0.260732 0.17031282
0.55002075 -0.0039770836 -0.1575099 -0.024086572 0.3610185 -0.5059104 0.1828185 0.090235025
0.13763316 0.04729758 -0.2822701 0.008977389 -0.3002828 0.29649296 -0.38132277 0.40238312
-0.021170694 0.32999754 -0.4409417 -0.18863328 0.23505582 -0.024394695 -0.22683161 0.38029176
-0.49878827 0.27618062 0.07588158 -0.22385739 0.19156528 0.08015201 0.16238043 0.34985155
-0.49065715 0.5468461 -0.3923553 0.07853165 0.52483624 0.57843184 0.22072166 -0.4402462
0.46475443 0.022688437 0.13186261 0.27632257 0.32606003 -0.30519396 -0.22313768 -0.11280783
-0.10215219 0.17172875 0.31762183 0.089343324 -0.47010496 0.4588975 0.03312531 -0.49290448
-0.26585406 0.28602827 -0.38368425 -0.4237165 0.32298985 0.40049586 0.084289506 0.018638156
-0.09539311 0.03374236 0.2923684 -0.0489988 0.33475175 -0.3541114 -0.28196362 0.30653548
0.1726368 0.33098954 -0.30192268 -0.51889044 0.21190476 0.20894155 0.050624173 0.16911614
0.4997038 0.086668774 -0.33012816 0.34069473 0.00039134244 0.31434864 -0.41445073 0.43282133

encoder.layers.0.ffn.linear1.bias f4 [64]
00000000: b4da 06be d835 633c e902 0f3e 8be8 5cbe
00000010: 4af8 393d d067 5f3e cf8f bf3b 361d 293d
00000020: 1b9e f0bc 1acb f73d ee85 4abe bafc 7bbd
00000030: 8acf 583e e765 333e a35e 49bb 26b0 3d3e
00000040: bd3a 083d aaa4 ab3d 2331 ac3d 136c 2abe
00000050: 770e 183e 729c c9bd d6e2 523e d568 dd3d
00000060: 3282 6b3e c4e5 fbbd 94af f43d 5394 9fbd
00000070: 1b61 82bd c45d 08be b157 533e 911c 4bbe
00000080: 4f08 6b3e 1750 343e 7259 d3bd 4d44 7f3e
00000090: 9939 7fbd 4fa8 42be f4e2 6d3e 69ac 70bd
000000a0: 0bf2 09be dc7b 073c 6118 5dbe aaa6 a73b
000000b0: 80d0 ef3c 0800 063e 5de7 2bbc a1b8 2cbe
000000c0: a265 0c3e ffb1 003e 8d3b d83d b85b 0c3d
000000d0: 3f45 55bd 692b 2ebe 45d8 c93c 302e 143e
000000e0: ee92 693e 2ada 25be 9b29 903d bb17 aebd
000000f0: e182 5fbd d551 48be 999f 29be 987b d93d
-0.13169366 0.013867818 0.13965954 -0.21573083 0.045402803 0.21816945 0.0058460007 0.041287623
-0.029372266 0.120992854 -0.19777653 -0.061520316 0.2117292 0.17519341 -0.0030726574 0.18524227
0.033259142 0.083810166 0.084078096 -0.1664279 0.14849268 -0.09844293 0.20594344 0.10811011
0.22998884 -0.12299684 0.11947551 -0.077919625 -0.06366178 -0.13317019 0.2063892 -0.19835116
0.22952388 0.17608677 -0.10319795 0.24928398 -0.06231079 -0.19009517 0.23231107 -0.058758173
-0.13471238 0.0082692765 -0.21591331 0.0051163035 0.029274225 0.1308595 -0.010492173 -0.16867305
0.13710645 0.125679 0.105582334 0.034267157 -0.05206799 -0.17008747 0.024639258 0.14470744
0.22809955 -0.16196504 0.070391856 -0.0850062 -0.054568175 -0.19562466 -0.16564788 0.10619277

encoder.layers.0.ffn.linear2.weight f4 [16, 64]
00000000: e883 803e a911 423e 2196 3cbd 9941 9d3e
00000010: de0f debc 89ef 873e 8e73 5c3d ce28 b73c
00000020: 5d10 c63d d071 fa3c 3ae2 8d3e a770 ab3d
00000030: 6819 383e 9151 81ba 9616 fc3d 6305 2fbc
00000040: 87c0 013e 4e8b a93d 1b62 7bbe 5c96 b0bd
00000050: eccc e1bc 9d48 eabd fc54 e2bd eb12 163e
00000060: fc4d 0bbd 1216 8abe 1aaa 373e 05fe 8b3d
00000070: a3c9 14bd 4d23 b33d 5a19 61be 4b73 4abe
00000080: 8d5a 85be a1b3 f73d 8cc7 2dbe 9ce1 7a3e
00000090: 15cd 693e 81cd 3f3e c6bb 0d3e 99a8 5a3d
000000a0: bc18 a03d c1d2 943e 0225 ea3d bc7a 813d
000000b0: 9818 26be 922d f2bd a6a6 46bd a74e 863e
000000c0: af11 18be 2173 ca3d 69d5 2cbd 7db9 553e
000000d0: 5a22 66be b1e3 c2bd 9879 8e3d 87ea 3ebe
000000e0: a943 72bd f156 8a3e eac4 0ebe defe 88bd
000000f0: 692e 773e 1c5e 82be af6b 36be 6718 093e
00000100: 2c45 cfbc 61f6 303e 0271 63be 2910 68be
00000110: 81f5 bcbd be3a f93d e0fb c3bd f694 76bd
00000120: 9601 713d 9a9a 34be 6ab5 513e 173a 053e
00000130: a3ae 223e 3908 0cbc 71fa 2ebe 558d 153d
00000140: 2136 89be f754 8dbe 420b 0b3e 039f c7bd
00000150: 5c6f d7bd acc0 7dbe aff3 86be 5132 2b3e
00000160: f9f7 923e 63da 0ebc 01e4 613d c192 303d
00000170: ef26 913e 723b 67be f16b 8bbe d74e 4d3d
00000180: 3a47 4ebe a9bc 3d3e 859b d03d c5a9 17be
00000190: f390 6d3d ca98 153d 39f7 aabd 43a3 183e
000001a0: fcc2 72bc 1555 3c3e 43a8 35be bb72 2a3e
000001b0: 38ee eabd d63a 79be eddd c0bd fb75 4ebe
000001c0: 0bf3 babd a352 8ebe 5dc5 c63b 1a74 6e3e
000001d0: d8b4 fdbc 0beb 133e 8863 e43d 4a49 823e
000001e0: abb0 523e f58d 413e ad88 48be e457 85be
000001f0: 3ad7 503e eb19 64be 76ec b9bd a700 08bc
00000200: a700 023e f95e b1ba 5ecb 37be 5f98 833e
00000210: 49ee 75be ba4f 5dbe ff22 d73d d979 a6bc
00000220: 1347 50bd 653d 743e 7363 6f3e 2184 463d
00000230: ad97 69be 6cc2 313e d9bb ae3d cd3b 1f3d
00000240: b8a6 493d fd9c 11bd b4ed 16bd 2d5d 8fbe
00000250: 16ec ca3d 4347 0b3e fb05 4a3d 111a 5c3d
00000260: 6047 59be 1d26 903e 6379 f6bc b52f 613e
00000270: bfd7 dbbd 8ef1 e9bd 617a 953e b5f4 5cbd
00000280: 20b7 303d 0c78 963e bf87 7cbe 11b0 1d3e
00000290: ef8a 863d eab2 10bd 8829 4bbe 1252 1b3e
000002a0: 2d32 1d3c 51f7 c9bd 5813 2c3d bbfe 4a3e
000002b0: 4c72 25be ec28 f53d b5f0 ebbd a3d9 043e
000002c0: 2db7 32be 0fcd 653e c606 7cbe 1e3a 82bd
000002d0: c439 ba3c 5192 53bd 91a0 d83d a3b7 143e
000002e0: 0e54 853d 8601 75be 901f 433e 69d1 afbd
000002f0: b951 5a3e 61df bdbd f810 aa3c bf99 14be
00000300: a002 89be 1599 123e ef28 39be a86b 83bd
00000310: 85d4 aa3d fdc8 bf3d 28ef bdbd 6a6f b2bc
00000320: 6a55 7bbe a4ec bf3c 7050 7bbe f267 16be
00000330: bab8 d7bc e934 4abe 35e0 8a3d 103e 58bd
00000340: f44d 0f3e a4dd bb3d ea0d c6bc 3f60 683d
00000350: 1772 783e 88c7 36be e431 48be 3d10 643e
00000360: 1709 c9bd 6eed 983e 573f ffb9 5835 8f3e
00000370: 3c13 02be baaa 30be 789e cc3d eca8 5fbe
00000380: 0f65 26be 2cc0 d5bd d4fa efbd 18e8 41be
00000390: 1a42 4cbe 7d61 103e e03b 81be 3168 5e3e
000003a0: 8607 8f3d 4a2f 7abe f79a 7cbe 85c5 743d
000003b0: 007b e1bd c33f ab3d 64f4 713e 0e38 6b3c
000003c0: 4948 76be 647b 4fbe f7f9 98bd a2e5 2d3e
000003d0: 364c 70be 315e 403e c766 f3bc e6de 2e3e
000003e0: 6d73 38be 353c e73d 9cd4 bcbd 8fcd 84be
000003f0: 33fd 63bd 2250 8b3d 8040 4e3e 6aa0 9dbe
0.25100636 0.1895205 -0.04604161 0.3071411 -0.027107175 0.26549938 0.05382114 0.022358324
0.0967109 0.030571848 0.2771166 0.08371096 0.17978442 -0.0009866228 0.123089954 -0.010682437
0.126711 0.082785234 -0.24549143 -0.08622429 -0.027563535 -0.11439631 -0.11051366 0.14655654
-0.03400992 -0.26969963 0.17935982 0.0683556 -0.03632511 0.087469675 -0.21982327 -0.19770543
-0.26045647 0.12094808 -0.16970652 0.24500126 0.22832139 0.18730737 0.13841161 0.053383444
0.07817218 0.29067042 0.1143284 0.06322238 -0.1622032 -0.11825098 -0.048498772 0.26231882
-0.14850496 0.0988524 -0.04219571 0.2087154 -0.22474042 -0.09516085 0.06956786 -0.18644153
-0.059146557 0.27019456 -0.13942304 -0.06689237 0.24138798 -0.25462425 -0.17814516 0.13388215
-0.025301538 0.17281486 -0.22211078 -0.22662415 -0.09226514 0.12169407 -0.09569526 -0.060200654
0.058839403 -0.17637101 0.2047936 0.13010441 0.15886931 -0.008546882 -0.17087723 0.036511738
-0.2679911 -0.27603886 0.13578513 -0.09747126 -0.10519287 -0.2478053 -0.2635779 0.16718413
0.28704813 -0.00871906 0.055149082 0.043108705 0.28350016 -0.2258127 -0.2723079 0.050124016
-0.20144358 0.18529 0.10185913 -0.14810856 0.057999562 0.036522664 -0.08347935 0.1490603
-0.014816996 0.18391831 -0.17739968 0.16645329 -0.11471218 -0.2433885 -0.09417329 -0.20162193
-0.09128388 -0.27797422 0.006066008 0.23286477 -0.030970022 0.1444513 0.111517966 0.2544654
0.20575206 0.18901809 -0.19583388 -0.26043618 0.20394602 -0.22275512 -0.090783045 -0.008300937
0.12695561 -0.0013532332 -0.17948672 0.25702187 -0.2401668 -0.21612445 0.10504722 -0.020321773
-0.05084903 0.23851545 0.2337778 0.04846585 -0.22811766 0.17359322 0.08531923 0.03887539
0.04923126 -0.035550106 -0.036847785 -0.28000775 0.09908311 0.13601403 0.04932211 0.053735796
-0.21218634 0.28154078 -0.030087179 0.21990855 -0.1073451 -0.11423026 0.2919493 -0.05394431
0.04314339 0.29388463 -0.24661158 0.15399195 0.06569468 -0.035326876 -0.19840062 0.15168026
0.009594482 -0.09861625 0.042010635 0.19823734 -0.16156882 0.11970696 -0.115205206 0.12973647
-0.17452689 0.22441505 -0.24611959 -0.06358741 0.022732623 -0.05165321 0.105775006 0.14523177
0.06510173 -0.23926362 0.19055009 -0.08584864 0.21320237 -0.09271122 0.020760044 -0.14511774
-0.26759815 0.14316209 -0.18082021 -0.06417018 0.08341316 0.09364507 -0.09274131 -0.021781642
-0.24544302 0.023428269 -0.24542403 -0.1468809 -0.026333202 -0.19746746 0.06781045 -0.052793562
0.1399458 0.09173134 -0.024176557 0.056732412 0.24262272 -0.17849553 -0.19550282 0.2227182
-0.09816187 0.29868644 -0.00048684582 0.27970386 -0.1270265 -0.17252627 0.09991163 -0.21841782
-0.16249488 -0.104370445 -0.117177635 -0.18936193 -0.1994709 0.14099689 -0.25240993 0.21719433
0.06983857 -0.24432102 -0.2466849 0.05975868 -0.110097885 0.08361771 0.23628384 0.014356626
-0.24051012 -0.20261914 -0.07469552 0.16982129 -0.23466572 0.18785931 -0.029712094 0.17077217
-0.18012781 0.112907805 -0.092202395 -0.2593808 -0.05566139 0.068023935 0.20141792 -0.3078645

encoder.layers.0.ffn.linear2.bias f4 [16]
00000000: b127 5c3b 1083 e1bd 8530 de3d 5728 b2bd
00000010: 2a94 4b3d 9cd6 943d 9157 633d 8afa b1bd
00000020: e59e 1a3d 15aa 3abd f867 99bd 5cf2 2abd
00000030: 31ce 283b bf6a 9a3d 14e9 833b 00fd 98bc
0.0033592994 -0.11011326 0.10849098 -0.086991005 0.049701847 0.07267496 0.05550343 -0.08690365
0.03774919 -0.04557236 -0.074905336 -0.04173504 0.0025757665 0.075398915 0.004025588 -0.018675327

encoder.layers.0.norm2.gamma f4 [16]
00000000: 3dcc 7a3f feed 7b3f 3ffb 7e3f 0fdd 7d3f
00000010: 6e10 7d3f e73b 7c3f 7d9b 7d3f a921 7e3f
00000020: e2b1 7a3f a259 803f 796a 813f 4078 7a3f
00000030: 2f05 7e3f c8d5 7a3f e976 7a3f 2076 7a3f
0.9796789 0.9841002 0.9960212 0.99165434 0.98853195 0.98528904 0.9906538 0.9927011
0.9792768 1.0027354 1.0110618 0.97839737 0.9922666 0.97982454 0.9783769 0.97836494

encoder.layers.0.norm2.beta f4 [16]
00000000: 1395 9f3b d2d2 0dbb f1e2 ba39 6108 a8ba
00000010: 4272 813b b768 f839 3b05 543a b1b1 feba
00000020: 86dd b2bb 9ae3 8cbb 1b28 343a 9183 f63b
00000030: 4343 c43a ee2f 7839 9fae 9d3c 6f71 b9ba
0.004870066 -0.0021640551 0.0003564577 -0.001281988 0.003950388 0.00047380265 0.00080879376 -0.0019431618
-0.0054585366 -0.004299593 0.0006872431 0.007523008 0.0014973659 0.00023668978 0.019248305 -0.0014148186

encoder.layers.1.attention.w_q.weight f4 [16, 16]
00000000: 2468 cb3e 3e4b 4c3d 2c66 87be e29d 0e3f
00000010: f908 b63d 1d33 8fbc 91ee dbbd 41d5 e8be
00000020: 3766 a73d 1627 08bf 3382 ce3d c3ef 473e
00000030: c612 2e3e 7de6 e63e 799b 9b3e 3f8e 253d
00000040: b6c7 683e c944 783e 5e0e 853e 3743 a33d
00000050: 6564 593e 4e4e 8b3e 99d4 0b3e 0dac 04be
00000060: 280f c4bd 1622 f03e 062e e9be e0c7 06bf
00000070: 5b3e ddbe d038 9cbe 149b 843e c4ab a93e
00000080: 63b2 283d df36 f5be 08c0 4bbe 52e7 9f3d
00000090: 0af3 a5be 85d3 48be 39a1 87be c18e 91be
000000a0: 7a21 593e 3b39 8a3b 3355 9fbd 3a4a 34be
000000b0: a979 0dbf c3da ca3e f3a6 db3e 6525 553e
000000c0: c516 babe 7843 65be 10fe debe fc37 81be
000000d0: ba15 dfbe f0c2 c7be 2052 bf3d 648a bdbe
000000e0: 65c9 fcbe aa23 d63d b9f2 a83e a22c 343c
000000f0: 3f7e 1d3e befb 9c3c 4485 49be 48e2 54be
00000100: 2340 a4be c681 c13e bc20 06bf 2aa5 8ebe
00000110: f041 073f a72d f33e 8086 ea3e ea58 8e3e
00000120: f113 f73c aac5 633b 42c4 f73e 4e13 2a3e
00000130: dc28 443e 2d85 b8be 7900 f0be cb34 b7be
00000140: 7fc1 103e 492e fc3e 0cdf 02bf 45bd 39be
00000150: e953 ebbd b7cf c9be 2fca 303e aaa0 0cbf
00000160: cf05 e9be 7fcf 173e 204c 753e 9590 43be
00000170: f3a8 7e3d 596f a3be 5810 72be 3f37 96be
00000180: 3b18 11be c09d 9ebe a2f8 d83e 0954 153e
00000190: cb8a f53c 9244 fe3d c197 943e 5698 003f
000001a0: b96a 82be f69f 32be 0eca 85be 10d7 723d
000001b0: c914 493e 340a 9abe a43e 003e a665 ad3e
000001c0: 954f 6abe b1f4 a5be 1594 02bd c9a2 87bc
000001d0: 749e b3be 2090 e4be b75e ed3e d1df a23d
000001e0: 5ee9 8c3d ce36 013f 435c dc3e f4f3 cbbe
000001f0: a23c c13e 502a dabe 1aee 9abe 234c 5dbe
00000200: 36f6 83be 0aff 383e 7d99 103f 8887 e5be
00000210: 90b7 543e 2183 6bbe a121 cbbe 2f7d f33e
00000220: a228 b93d e124 93be 415b b1be 59b9 95be
00000230: d53c b13c 5c10 ef3e 2976 16bf 19a1 05bf
00000240: ca75 e2be 01a3 cf3e 9c6a bebe ed65 ff3e
00000250: 98d5 51be 9050 b7bd 36ad aabc 458d 20be
00000260: f9f1 21be c4ee 743e 36b2 153e b5fa d8be
00000270: 5b8b cb3e 3867 a5be 0f39 ccbe 1769 dabe
00000280: e074 593c d04c edbe 0e68 123f ba75 933e
00000290: 7516 e4be 74a6 9ebe 37c7 08bf 3f07 0e3f
000002a0: 40ea e8be 57e1 0ebf 3668 6e3e 7e33 0dbf
000002b0: 716f d13e 2934 76be 3f07 82be c09d d33e
000002c0: ff21 90be de9c ebbe 93f4 d9bd 3f38 cb3e
000002d0: 5860 e83e 79fe fb3d 3e6c fb3e 41e9 9a3e
000002e0: 99a1 04bf b6df cb3c ec7a f0be e2ab 9abe
000002f0: 58bd f6be 9f75 87be 1fc0 933e 50ba b53e
00000300: 23e4 0a3d c026 08bf 9057 1cbe 0e43 b93e
00000310: 251a 613e 2a3f f6be e16b b83e 7178 7bbe
00000320: a77f 083f 699a 053f b89f c1be b2cc 08bf
00000330: 7f40 fbbe 25e6 f8bd 39e9 acbe dbf1 e8bd
00000340: 19f6 8a3e 486f 493d 0495 bd3d 0ca2 c03d
00000350: 1db8 023e 609c d73e 7b47 713e b582 72bc
00000360: bfbd 013f 822c adbd 0c83 cabe 4b6b 693e
00000370: 4773 0cbf 2b5e b6be d35c 103f a3dc 033e
00000380: 7f3a 8d3e a899 1a3e 6075 0e3f b151 afbe
00000390: ac9f 803e 2f4f 963d 2149 bfbe 4879 4a3e
000003a0: 691b eebd 52de d1be 5eef 133f f87a bbbd
000003b0: 39e1 ba3e b015 32be 257d 783e 9745 05bf
000003c0: ddef f1bc a067 02bf 2ac8 953e e423 7c3d
000003d0: ec6d 3dbe 4a69 d1be 8c66 00bf c83a 56be
000003e0: eb93 e2be 2d51 b43d 1587 98bd cd19 d9bd
000003f0: b3e4 af3d 0f9f a5bd e750 79be 6d18 03be
0.3972789 0.049876444 -0.26445138 0.5570966 0.0888843 -0.017480427 -0.10738862 -0.454752
0.08173793 -0.5318464 0.10083427 0.19525056 0.16999349 0.45097724 0.30392054 0.04041886
0.22732434 0.2424499 0.25987524 0.079718046 0.21229704 0.2720818 0.13655318 -0.12956257
-0.09573203 0.46901006 -0.45542926 -0.52648735 -0.43211636 -0.30512094 0.25899565 0.3313886
0.041185748 -0.47893426 -0.19897473 0.07807793 -0.32411987 -0.19611938 -0.2649019 -0.28429225
0.21204177 0.004218248 -0.07779922 -0.1760644 -0.55263764 0.39620027 0.4290081 0.20815046
-0.36345497 -0.22389019 -0.4355321 -0.25238025 -0.43571264 -0.39015913 0.09341836 -0.37019646
-0.49372402 0.10456021 0.32997683 0.010996969 0.1538019 0.019163009 -0.19679743 -0.20789444
-0.32080182 0.37794322 -0.523937 -0.27860385 0.5283499 0.47495767 0.4580574 0.2780221
0.030160876 0.0034755268 0.4839192 0.16608927 0.19156212 -0.36039105 -0.4687536 -0.35782465
0.14136313 0.49254063 -0.5112159 -0.18138607 -0.11490614 -0.39416286 0.17264627 -0.54932654
-0.45512244 0.14825247 0.2395482 -0.19098122 0.06217284 -0.3192089 -0.23639047 -0.29339024
-0.141694 -0.3097973 0.42377192 0.14582838 0.029973408 0.124154225 0.2902203 0.50232446
-0.25472048 -0.17443833 -0.26130718 0.05928713 0.19636835 -0.3008591 0.12523896 0.33866614
-0.2288192 -0.32413247 -0.031879503 -0.016557114 -0.35081828 -0.4464121 0.46361324 0.07952846
0.06880449 0.5047425 0.4303914 -0.3983456 0.37741572 -0.42610407 -0.30259782 -0.21611075
-0.25773782 0.1806604 0.56484205 -0.44829965 0.20773149 -0.2299924 -0.39674094 0.47556445
0.09040953 -0.28739074 -0.34639934 -0.29242972 0.021635452 0.4669217 -0.5877405 -0.5219894
-0.4423049 0.4055405 -0.37190711 0.4988245 -0.20491636 -0.08950913 -0.020834547 -0.1567889
-0.15814961 0.23919207 0.14618763 -0.42378774 0.39754757 -0.32305312 -0.39887282 -0.42658302
0.013272494 -0.46347666 0.57190025 0.28800756 -0.44548383 -0.3098637 -0.5342898 0.55479807
-0.4549122 -0.5581259 0.23281941 -0.55156696 0.40905336 -0.24043335 -0.25396153 0.4133129
-0.28150937 -0.46018118 -0.10642352 0.3969135 0.45386004 0.12304396 0.4910602 0.30256084
-0.5180908 0.024886947 -0.46968782 -0.3020926 -0.48191333 -0.26456925 0.28857514 0.35493708
0.033908974 -0.5318413 -0.15267777 0.3618397 0.2198263 -0.48095065 0.36019805 -0.24557664
0.5331978 0.52188736 -0.37817168 -0.5343734 -0.49072644 -0.121532716 -0.33771685 -0.11374255
0.27140883 0.04917839 0.09256938 0.09405908 0.12765546 0.42111492 0.23562424 -0.014801671
0.50680155 -0.08455755 -0.39553106 0.22794835 -0.548634 -0.3561872 0.5639164 0.12877135
0.2758369 0.15097678 0.5564785 -0.34242013 0.2512182 0.07339322 -0.3736048 0.19772828
-0.11626322 -0.4098993 0.5778712 -0.09154314 0.36499956 -0.17391086 0.24266489 -0.5205931
-0.029533321 -0.5093937 0.29254276 0.061557665 -0.18498963 -0.40900642 -0.50156474 -0.20920861
-0.44253477 0.088045456 -0.0744764 -0.10600624 0.08588543 -0.08086979 -0.24347268 -0.12802286

encoder.layers.1.attention.w_q.bias f4 [16]
00000000: 7756 a43d dd12 7ebc 3015 3cbe 232e 09be
00000010: 73c1 57be cda5 663e 227b 1fbe 7a3e fc3d
00000020: 327e 563e 1b63 a3bd 54c8 173e add3 15bc
00000030: 2467 6ebe 46e9 cdbd 7b21 be3d 65f1 353d
0.08024304 -0.015507427 -0.18367457 -0.13396506 -0.21069889 0.22524185 -0.15574315 0.12316604
0.20946577 -0.07977887 0.14822513 -0.009144706 -0.23281533 -0.10054259 0.0928373 0.044419665
