Trans_Prediction/model_saved/ratioMergedPrs/TM_ratioMergedPrs_delay_size_8_delay_10.pth (torch, 385742 bytes, 337 tensors)

encoder.layers.0.attention.w_q.weight f4 [16, 16]
000000 52 5b ce 3e 11 8c b2 be 72 dd 90 3e 22 a2 5e be
       0.40304047 -0.34872487 0.2829395 -0.21741536
000010 b9 47 a0 3e 34 3b b2 be 07 5f 06 3f 06 50 dc be
       0.3130472 -0.34810793 0.5248875 -0.43029803
000020 b7 51 3c be 08 ae 1b 3f dc f0 94 3d 52 90 98 be
       -0.18390547 0.60812426 0.07272503 -0.29797608
000030 62 e3 07 3f 24 0b 86 be 54 53 d9 3e 22 58 13 3d
       0.53081334 -0.26180375 0.42446387 0.035972722
000040 47 17 df be 04 dd 76 3e ab 0f ee 3d cc 42 e9 3e
       -0.43572447 0.24107748 0.11624082 0.45558774
000050 01 80 e2 bd 75 4b b0 3e 26 42 14 be 3e e1 cd be
       -0.11059571 0.3443257 -0.14478359 -0.4021091
000060 8f 12 4c be 7e 8a c4 bd dc 4c ee be 2d 65 1b 3f
       -0.19928955 -0.09596728 -0.46543014 0.60701257
000070 0e 90 2b 3e b0 ab 2d 3e f9 4f d8 3d 71 17 b0 3e
       0.16754171 0.16960025 0.105621286 0.34392884
000080 29 6b 10 bf e2 36 10 bf 13 d0 e0 be 63 46 87 3e
       -0.56413513 -0.56333745 -0.43908748 0.26420888
000090 09 0c 63 3b ac c8 0f 3f e7 a7 87 3e 66 32 a0 3e
       0.0034644625 0.56165576 0.26495287 0.3128845
0000a0 dc 08 0e 3f b5 20 15 3f d5 95 c6 be c5 4f da be
       0.5548227 0.5825303 -0.38786188 -0.42638984
0000b0 c6 7b ac 3e 77 4e b6 3e b4 60 f7 be ac 26 d5 3e
       0.33688182 0.3560674 -0.48315966 0.41631067
0000c0 6a 9e c6 3e ec 27 a2 3e 24 20 02 3f 39 55 ae 3e
       0.38792735 0.31671083 0.5083029 0.34049395
0000d0 4e b4 54 be 61 62 09 bf 83 f8 2d 3c fa 80 31 3e
       -0.20771906 -0.5366574 0.010618332 0.17334357
0000e0 de 0b f5 be 69 6e b3 be 5e 80 76 3e 6c e4 c2 3e
       -0.47860616 -0.35045174 0.24072406 0.38064897
0000f0 76 53 0f 3f ae 70 c6 3e 7a 9a eb 3e c3 b1 24 be
       0.55986726 0.38757843 0.46016294 -0.16083436
000100 24 10 a5 be 51 7e 2f be fa 9b 67 bd 96 64 f8 be
       -0.32238877 -0.1713803 -0.056545235 -0.4851424
000110 af d1 62 be 80 16 a0 3e c8 3c 84 3e 98 67 4f be
       -0.221503 0.31267166 0.25827622 -0.20254362
000120 5b 79 03 3f ff cb 01 be 62 91 c7 be c6 a1 18 3f
       0.5135705 -0.12675475 -0.38978106 0.59621847
000130 eb e2 18 be ec 53 94 be 95 7d 05 3f 34 03 1b 3f
       -0.14930312 -0.28970277 0.5214475 0.6055176
000140 6f ab 18 3f b4 d6 95 3e 3d f7 22 bd cd ba 1c 3f
       0.59636587 0.29265368 -0.039786566 0.61222535
000150 fa 5e 08 bf c2 32 fe 3e c8 72 cc be d2 05 19 bf
       -0.5326992 0.496481 -0.3993132 -0.59774506
000160 5f 03 c9 3e 64 ef 96 bd 60 60 11 bf e3 d8 92 be
       0.39260384 -0.07369879 -0.5678768 -0.28681096
000170 5c 32 40 be b8 30 70 3e c7 4b 01 bf cd c9 00 bf
       -0.1876921 0.23456085 -0.5050625 -0.50307924
000180 0c 6f 04 3f 33 54 7a 3d f7 c3 bd 3e ce 0f 60 3d
       0.51731944 0.061115455 0.37063572 0.054702573
000190 5d 3d a1 3e 14 30 34 be 22 f9 7c be 9c 26 2a bd
       0.3149213 -0.17596465 -0.24704412 -0.041540727
0001a0 06 a0 cc 3e 06 ec b0 be d0 25 4f be 40 b3 5e bd
       0.39965838 -0.34555072 -0.20229268 -0.054370165
0001b0 74 95 09 3f 1f 2f 17 3f 15 b3 b9 bc 75 46 eb be
       0.5374367 0.59056276 -0.0226684 -0.45952192
0001c0 e2 f4 d0 3e 8e 46 1e 3e 9c 72 c3 be c4 69 0f bf
       0.4081183 0.15456602 -0.38173378 -0.5602076
0001d0 8a b8 5d be 53 58 db be 4c cd f1 3d 27 d8 f9 3d
       -0.21652427 -0.42840824 0.118067354 0.12199431
0001e0 84 fc d7 be dc 8e 30 3e 63 9f 5d be 1f a8 c7 3e
       -0.42184842 0.17241997 -0.21642832 0.38995454
0001f0 04 da e7 3e 9c 62 1b 3f 10 90 e4 3d c2 4b 09 bf
       0.4528352 0.6069734 0.1116029 -0.5363122
000200 ba 14 99 3e 02 c0 cb bc c5 fb 1b bf 2b 23 c6 be
       0.29898626 -0.02487183 -0.60931045 -0.38698706
000210 21 05 de 3e 34 50 94 3e 95 59 e9 3e c1 95 0d 3f
       0.43363288 0.2896744 0.45576158 0.5530663
000220 cd 82 0a 3f 0c ad ba be 85 40 28 3e 7f 24 15 3f
       0.54105836 -0.3646015 0.16430862 0.58258814
000230 2b 26 3e be c2 26 ca 3e de f6 9c be e7 6d c8 3e
       -0.18569247 0.39482695 -0.30657095 0.3914635
000240 1f 7b a1 3e 4f 02 b7 be 08 51 16 3f e6 0d 87 3e
       0.31539246 -0.3574395 0.58717394 0.2637779
000250 9d 67 fd be 60 dd 05 bf 68 47 b0 3e 01 35 be be
       -0.49493113 -0.52290916 0.3442948 -0.37149814
000260 a6 88 06 bf 17 26 d0 3e bd f2 ce be 55 72 a1 3e
       -0.5255226 0.4065406 -0.4041957 0.3153254
000270 e1 65 96 3d ae 73 ba 3c 21 2b aa 3e 6d 2c 19 bf
       0.073436506 0.022760238 0.3323603 -0.59833413
000280 9b ec 5a 3e e7 45 c9 3b 56 dd f7 be 42 de ff be
       0.2137932 0.006142366 -0.48411053 -0.49974257
000290 7e 0a a6 3e 79 d6 64 bd f1 18 0b bf 8e db 9f be
       0.3242988 -0.0558686 -0.5433493 -0.31222194
0002a0 60 37 16 3f 56 1b 0d 3e 9d 8c 2f 3e 4f ea 16 3f
       0.58678246 0.13779959 0.17143483 0.58951277
0002b0 ad d4 53 3d 08 25 06 3e d5 fe cc 3e ec 20 a9 3d
       0.051716495 0.13100064 0.4003817 0.082582325
0002c0 26 29 8d bd d7 2c c5 bd 8d 59 7f 3e 6d 1e 19 bf
       -0.06892614 -0.09627693 0.24936505 -0.5981205
0002d0 8c e0 07 be 3d 3a 08 bf 5c d1 d7 3c 71 32 79 be
       -0.13269252 -0.53213865 0.026344948 -0.24335648
0002e0 4d a6 48 be e6 02 08 3f 73 6b 91 be 04 bb 0d 3f
       -0.19594689 0.5312942 -0.2840229 0.5536349
0002f0 70 f1 11 bf 86 22 f9 bd f7 85 2a be 74 39 19 3f
       -0.5700903 -0.12164788 -0.16652666 0.5985329
000300 07 a8 69 3a 26 22 16 bf 90 61 0f be 8e 23 8e be
       0.00089132827 -0.58645856 -0.14002061 -0.277615
000310 e1 10 02 bf 93 be 91 3e 0d a1 dd 3e 1d 29 9c be
       -0.50807005 0.2846571 0.43286934 -0.30500117
000320 81 09 0a 3d 2c 77 09 3f 49 d3 ea be 41 6c 8c be
       0.03370047 0.53697467 -0.45864323 -0.2742634
000330 af 34 8f 3e d9 47 d3 bd 71 66 f3 3e 38 a6 8d bd
       0.27969882 -0.10316438 0.47539094 -0.06916469
000340 58 ce 52 be b3 30 18 bf 8f a4 dc 3d bb 79 e9 be
       -0.20586526 -0.5944931 0.107735746 -0.45600685
000350 2c 45 06 bf 2f dd 79 3d dd d2 c2 3e 5a 34 5f be
       -0.524493 0.061001953 0.380515 -0.21797314
000360 99 15 22 3e 5c 33 38 be 4d 75 9c be ee b4 5d be
       0.15828551 -0.17988342 -0.30558243 -0.2165105
000370 11 ae 91 3e c5 ef 50 3e 61 df 53 be 82 1b f0 be
       0.28453115 0.20403965 -0.20690681 -0.46895987
000380 02 48 c7 be d6 8b 06 3f 8e b2 c7 3e 43 a9 e2 3e
       -0.38922125 0.5255712 0.39003414 0.4426976
000390 8e 30 f7 3e 0d 6a 32 be e0 da a8 3e c9 f4 be 3e
       0.48279232 -0.17423268 0.32979488 0.3729613
0003a0 19 04 c0 be 3b 73 5c be a1 96 c5 be 71 5c 20 be
       -0.37503126 -0.21528332 -0.38591483 -0.15660264
0003b0 cb 5c b8 3e ce 5f 21 3d 65 da d2 3c 2c 60 6d bd
       0.36008295 0.039398007 0.025738904 -0.057953045
0003c0 dc a5 cd be 1d f8 4f 3e 50 fa 89 3e 2e d4 aa 3e
       -0.40165603 0.20309491 0.26948786 0.33365005
0003d0 c8 73 de be 58 64 bd 3e de 86 12 3f c0 a9 0c 3e
       -0.4344771 0.3699062 0.5723704 0.1373663
0003e0 5b 5e ae 3e 69 47 74 bd b3 f5 0e bf 61 24 e9 be
       0.34056363 -0.059638415 -0.5584366 -0.45535567
0003f0 09 bf 28 3e 4a 58 40 3e 72 90 fa 3e 50 2e 4c 3e
       0.16479124 0.1878368 0.48938328 0.19939542

encoder.layers.0.attention.w_q.bias f4 [16]
000000 43 0a 1a 3e 94 ec 27 be a9 68 01 3e 4e 9b e4 3d
       0.15042977 -0.16398841 0.12637581 0.111624345
000010 ac 94 3b 3e 36 2e 3f be 9e 2a 44 3e 5a b4 ff bd
       0.18318433 -0.18669972 0.19156882 -0.12485571
000020 44 82 cf 3d 1d 29 6e 3e 57 18 08 bd 4d a2 ab bb
       0.10132268 0.23257871 -0.033226337 -0.0052378536
000030 6f 38 68 bd a5 ab 5a be 4e 02 fe 3d 01 90 77 be
       -0.056694444 -0.2135454 0.12402783 -0.24176027

encoder.layers.0.attention.w_k.weight f4 [16, 16]
000000 f9 79 8d 3e 17 88 f0 be 5d 16 0d bf 13 f8 a5 be
       0.2763212 -0.46978828 -0.5511225 -0.32415828
000010 4c d9 bc be 8f 9c 25 3e 83 78 ac 3e 09 ce b7 3d
       -0.36884534 0.16173004 0.33685693 0.08974845
000020 33 e1 c5 3d 16 b8 06 bf 36 08 fc 3e 73 b8 ac be
       0.09662094 -0.5262464 0.49225014 -0.33734474
000030 71 b2 5b 3d 7a d7 05 be c8 7c e8 bd 22 79 b6 3e
       0.05363697 -0.13070479 -0.11351925 0.35639292
000040 f4 03 0e bf 91 f3 09 3f aa 33 e3 be 31 8e 2c 3e
       -0.5547478 0.5388728 -0.44375354 0.16851117
000050 8e dd 0f 3f 89 79 92 be 80 cb 1c 3e e7 0c 9e be
       0.5619744 -0.2860835 0.15312004 -0.3086922
000060 69 5e 61 be 0b 2a b3 bd af 36 07 3e d2 48 17 bf
       -0.22008671 -0.087482534 0.13204454 -0.5909549
000070 a0 72 ca 3d e7 c6 e2 be d8 b0 e3 be c7 27 55 bd
       0.09885144 -0.44292375 -0.4447086 -0.052039888
000080 b6 d0 43 bd 48 b8 c6 be 3a 45 ef 3e 9c 6f b3 bc
       -0.047806464 -0.3881247 0.46732503 -0.021903805
000090 ec 75 b7 3d 63 88 a8 be 19 ed 29 be a9 15 a0 be
       0.08958039 -0.32916555 -0.16594352 -0.31266525
0000a0 4f 3e 04 bf dd 96 ba 3d 96 e8 17 bf d7 37 8b 3e
       -0.51657575 0.09110806 -0.5933927 0.2719104
0000b0 b0 90 c4 3d 01 1a 94 3e 61 de d9 3e 10 9b e1 3e
       0.095979095 0.2892609 0.42552474 0.44063616
0000c0 26 39 89 3e 7c 9b 95 be a7 5a d9 3e d5 13 ae be
       0.26801413 -0.29220188 0.42451975 -0.33999506
0000d0 a4 89 95 bd 5f d9 f2 3b 89 7a d9 be dd a0 a6 3b
       -0.073016435 0.0074111666 -0.424763 0.0050850944
0000e0 7e 27 82 3e 88 21 0b bf e9 65 09 3f b1 db 10 3f
       0.25420755 -0.5434804 0.5367113 0.5658522
0000f0 af 7a 0e bf 90 35 9c 3d aa 63 db be b1 61 8e 3d
       -0.5565595 0.07627404 -0.42849475 0.06952227
000100 d3 24 21 3e 75 68 35 be 7b 99 be 3e a5 4a 32 be
       0.15736704 -0.17715628 0.3722647 -0.17411287
000110 79 d8 a9 be d9 cf 44 3d cb a1 6f be c3 b4 1e be
       -0.33172968 0.04804978 -0.23401563 -0.15498643
000120 14 ed a5 be 72 bc 02 3e 16 f2 b8 be b6 23 10 3e
       -0.3240744 0.12767199 -0.36122197 0.14076123
000130 3f d4 c2 3e c2 26 03 be fb 15 9d be 69 e4 ac be
       0.38052556 -0.12807754 -0.30680832 -0.33768013
000140 b3 02 13 3d d8 8c 40 be a7 03 b4 3e d7 56 05 3e
       0.035891246 -0.18803728 0.35159037 0.13021408
000150 70 f3 cd be ab 72 35 3e 06 19 ac 3e df 4c b8 3e
       -0.4022479 0.17719524 0.3361284 0.35996148
000160 87 7f 40 3e 92 9e 02 be 05 75 fb be 91 0f 94 3e
       0.18798648 -0.12755802 -0.49112716 0.28918126
000170 dd 6b a8 be d6 51 d1 3d b1 08 f5 be e7 83 96 3d
       -0.32894793 0.10220687 -0.47858194 0.07349377
000180 6c e4 ec 3d 14 b0 c4 3e 50 de f2 be 88 7f 3e 3e
       0.115670055 0.38415587 -0.47435236 0.18603337
000190 57 ef 15 bf 58 d6 3c be af 31 6b 3d a6 ca bf 3e
       -0.5856833 -0.1844114 0.05742043 0.37459296
0001a0 03 3d 19 bf 67 2c c8 be cc f6 7e be f7 1d 33 bd
       -0.5985872 -0.39096376 -0.24898833 -0.04372975
0001b0 f4 90 f4 be 66 54 db be 7d 97 fc 3e 62 3d 5a 3d
       -0.4776684 -0.42837828 0.49334326 0.053281195
0001c0 63 ab 04 bf 05 38 8b 3e 58 1c f0 3e 47 72 b2 3e
       -0.51824015 0.27191177 0.46896625 0.34852812
0001d0 32 88 c6 3e 59 8e 94 3e 08 18 17 bf 79 1e 22 be
       0.38775784 0.29014853 -0.59021044 -0.15831937
0001e0 e3 6b 10 3f cf 82 0a bf 8b f3 c9 3d 4a 60 84 be
       0.5641462 -0.5410585 0.09860905 -0.25854713
0001f0 20 22 bb 3e 2f 7c 3c be fe 8b bf bd 9c 5f d3 be
       0.36549473 -0.18406747 -0.09352873 -0.41283882
000200 ed 98 ff 3d f9 0f 0a 3f fb b9 8b 3e 7d b1 b1 bd
       0.1248034 0.5393062 0.2729033 -0.08676431
000210 8d fa 07 bf 4c 72 61 3e c9 6e 45 3d 40 22 e2 3c
       -0.53116685 0.22016257 0.048201356 0.027604222
000220 f0 98 19 bf 38 88 b5 3e 02 27 a2 be 58 e0 85 3b
       -0.5999899 0.3545549 -0.31670386 0.0040855817
000230 6b ad f5 3c 64 c5 09 bf 30 c6 7d be dc b4 e2 3e
       0.029989919 -0.5381682 -0.24782634 0.4427861
000240 d9 f0 d6 3e 4c 1c e5 be 7f 6f 15 be 57 cc ce 3d
       0.41980627 -0.4474815 -0.14593314 0.100975685
000250 81 54 09 bf 9e e7 3b be fd 09 ea 3e 21 fa 87 be
       -0.5364457 -0.18350074 0.45710745 -0.2655802
000260 1e f4 de be d0 c0 11 3f 39 4c 17 3f a1 7f b4 be
       -0.43545622 0.56934834 0.5910068 -0.35253623
000270 8a b5 07 3f 6e 43 88 3e bf eb 02 bf e2 7a b3 be
       0.5301138 0.26613945 -0.5114097 -0.3505469
000280 b7 27 91 3b bb 3b 43 bd f8 a1 9d be 5a 2b a3 3d
       0.004429783 -0.047664385 -0.30787635 0.07967253
000290 be 8e 0b 3e 36 0c b0 3d ae 63 74 3e b3 c9 4d 3e
       0.1362867 0.08596079 0.2386615 0.20096473
0002a0 5b 55 85 be 51 e7 52 3e 65 33 ab 3e f0 25 db 3e
       -0.26041684 0.20596053 0.33437648 0.42802382
0002b0 8f ca e7 3e 67 be 9b 3e cb 84 b7 bd 9a 2b 69 3d
       0.45271727 0.30418703 -0.08960875 0.056926347
0002c0 94 14 0e 3e ad ec c6 bd 95 7e d2 be d0 de 5b 3e
       0.13875037 -0.09713111 -0.411122 0.21471715
0002d0 66 53 af be 64 51 b0 be dc a2 0b 3f f1 04 f0 be
       -0.34243315 -0.34437096 0.5454538 -0.4687877
0002e0 60 1f 4b be db fa 81 bd 14 45 9e be 42 82 68 3e
       -0.19836187 -0.06346675 -0.30912077 0.2270594
0002f0 d7 cb d6 bd 23 05 0a 3f 50 ce b0 be 7e 54 1a be
       -0.10488098 0.5391409 -0.34532404 -0.15071294
000300 16 1b 81 3e 86 aa a2 3e 06 ac e9 be 23 79 88 3d
       0.25215977 0.31770724 -0.45639056 0.0666373
000310 4c 66 05 bd 78 22 1d bf f3 fb 38 be dc 00 fc 3e
       -0.03256826 -0.6138072 -0.18064861 0.49219406
000320 d0 67 9b 3e 80 17 8f 3d 6e dc f2 3e de da 17 bf
       0.3035264 0.06986904 0.474338 -0.5931834
000330 d8 b9 44 bc 57 6d 09 3f 67 aa 6d be 54 ce 29 3e
       -0.012007199 0.53682464 -0.23209535 0.16582614
000340 87 4d 69 be 7a 2a 17 be 85 5b 11 bc e8 79 16 3f
       -0.2278348 -0.14762297 -0.008871918 0.58779764
000350 9d 8b bf be c1 62 19 3f ec e9 cc be 51 9c 32 bd
       -0.37411204 0.5991631 -0.40022218 -0.043606106
000360 52 4f 8f 3e a6 fd 91 bd b8 00 bc 3e 72 39 15 bd
       0.27990204 -0.07128458 0.36719298 -0.036431737
000370 44 b7 08 bf 7c 69 03 3f b6 63 bc be ae 82 77 3e
       -0.5340464 0.5133283 -0.36794823 0.24170944
000380 1c 66 ef be 9a b6 d6 3b 39 9c f5 3e 41 74 04 3e
       -0.4675759 0.0065525295 0.4797075 0.12934972
000390 5b db 11 bf 0b 35 d5 3e 3e 7f 48 3e e6 81 04 be
       -0.56975335 0.4164203 0.19579789 -0.12940177
0003a0 28 42 f0 bd ba a0 cb 3e eb 5c af 3e 90 ee ab 3e
       -0.11731368 0.39771062 0.34250578 0.33580446
0003b0 e7 86 ec be ff a7 2c be 29 a5 37 3e 99 e3 a5 3e
       -0.46196672 -0.1686096 0.17934097 0.32400206
0003c0 c7 00 86 3d 8e d4 9e 3e 79 49 3e 3e 63 38 45 3e
       0.06543117 0.3102154 0.18582715 0.19259791
0003d0 34 a0 f7 3e d1 4b 2d be ae 25 d4 3d 1b 57 77 bd
       0.48364413 -0.16923453 0.10358749 -0.060385805
0003e0 8a 05 27 be 0a 18 9f 3e b6 f2 6e 3c 35 e1 2b 3e
       -0.16310707 0.31073028 0.014584234 0.16785128
0003f0 e8 90 d6 be 37 89 cc 3d 4d 15 e6 3e 2c ac c9 be
       -0.4190743 0.09987109 0.44938126 -0.3938917

encoder.layers.0.attention.w_k.bias f4 [16]
000000 57 c8 8f 34 2c 07 1d b5 bc 80 35 b4 6a 62 83 b5
       2.6781592e-07 -5.8497494e-07 -1.6903772e-07 -9.788903e-07
000010 b3 6e 51 b2 e9 86 4f 35 03 ab e2 b4 d3 a1 8a 34
       -1.2190571e-08 7.730983e-07 -4.2220208e-07 2.5822246e-07
000020 f8 7e 3f b6 5c b2 08 35 c7 af 7a b5 25 e1 bc 35
       -2.8535123e-06 5.0923495e-07 -9.338805e-07 1.4072617e-06
000030 5c 3b 07 35 1d 4c 19 36 56 7e 89 b5 ff f6 ef b5
       5.03778e-07 2.284308e-06 -1.0244064e-06 -1.7878773e-06

encoder.layers.0.attention.w_v.weight f4 [16, 16]
000000 9b 9e 4c be 13 e9 1d 3f 1b ab 01 bf 51 77 79 be
       -0.19982378 0.6168377 -0.5065171 -0.24361922
000010 33 61 94 3c 62 b0 d7 be 13 63 e6 3d 82 34 d5 3e
       0.018112754 -0.42126757 0.11249366 0.41641623
000020 52 50 ac bd 71 db e3 be 7c 9e 8a be ff ff 89 3d
       -0.084137574 -0.44503358 -0.2707404 0.067382805
000030 29 67 19 3f c2 c0 be be 88 b8 99 3d b4 02 76 be
       0.59923035 -0.37256438 0.075059 -0.24024469
000040 70 ef 0b be 8c 48 cb bd 41 3f b0 3d af c1 ce 3e
       -0.13665557 -0.099259466 0.08605815 0.40382144
000050 61 32 16 bf 6f 76 05 bf 1b 06 16 3f 83 b6 c8 be
       -0.5867062 -0.5213384 0.58603066 -0.39201745
000060 46 7c f6 3d 5c b8 14 3f c2 d2 7b 3d 54 45 2d be
       0.12035422 0.5809381 0.06148029 -0.16920978
000070 96 a9 f2 3e f7 f9 d1 3e a6 3a 99 bd ac cc 95 3e
       0.4739501 0.4101102 -0.074818894 0.29257715
000080 8f 20 b9 3d 61 3b 76 be 6b b3 f4 be c5 00 ee be
       0.09039413 -0.24046089 -0.47793135 -0.46484962
000090 c9 bf 74 be 99 a4 08 be ce c9 09 3e df 76 96 be
       -0.23901285 -0.13344039 0.13455889 -0.29387566
0000a0 71 cc 91 be 1c 2e 7a 3d b1 b5 4d 3e ed ec dd 3d
       -0.2847629 0.06107913 0.20088841 0.10836206
0000b0 56 95 28 bd 51 74 86 3e d2 50 0c bf 8f 66 08 3f
       -0.041158043 0.26260617 -0.5481082 0.5328149
0000c0 98 4f a7 be db c5 51 bd a8 1c fe 3e 86 56 47 3e
       -0.32677913 -0.05121408 0.49631238 0.194666
0000d0 96 81 14 3f 82 a4 62 be 2c 53 1d 3e 05 7c a2 bd
       0.5801023 -0.22133067 0.15363759 -0.07933811
0000e0 6a d3 c1 3e ee 24 c7 be 2c a4 ce 3d c3 ec e6 3d
       0.3785661 -0.38895363 0.10089907 0.112756275
0000f0 b4 95 b1 3e af 18 f7 bd f8 bd 86 be 26 76 fd bc
       0.34684527 -0.12065255 -0.2631681 -0.030940127
000100 e9 5e c4 be 39 4a d8 be a1 70 d4 be 44 88 d3 be
       -0.3835366 -0.42244127 -0.4149218 -0.413149
000110 81 1c b2 3e a7 a8 f8 3e 7d a1 57 be d2 2d 00 3f
       0.34787372 0.48566172 -0.21057697 0.50069916
000120 a9 90 16 3f 4c 33 36 bc f8 ef 15 bf 1a e9 a6 be
       0.58814484 -0.011120629 -0.5856929 -0.32599717
000130 33 6f 3d 3b c0 ec 7a 3e 07 c2 f9 3e ef 24 58 be
       0.0028905391 0.24504375 0.48780844 -0.21107839
000140 64 6a 9e bd ef 33 bf 3d e7 9b 6d be 42 f7 b0 be
       -0.07735136 0.093360774 -0.23204003 -0.34563643
000150 f4 c3 da 3d 7a c2 05 3f b8 bd e7 be 46 ba 02 3e
       0.10681906 0.5224987 -0.4526193 0.1276637
000160 27 e0 9a 3e ee 8d 95 bc c0 9a 3b 3e e7 36 e8 be
       0.3024914 -0.018256154 0.18320751 -0.45354387
000170 1b 1c ee 3e 93 7f 17 3e 6e d9 b3 be 9b f8 1b bf
       0.46505818 0.1479476 -0.35126823 -0.60926217
000180 28 de 95 be d2 90 13 3f c0 6d aa bd 88 48 08 3f
       -0.29271054 0.57642853 -0.083217144 0.53235674
000190 64 0d de 3e 01 ac ae 3e 1e d2 39 3e dd 2c 17 3e
       0.4336959 0.34115604 0.1814656 0.14763208
0001a0 bb 9e 67 3e c6 dc 3f 3d 1c d1 fa 3e 0b 83 1e be
       0.22619145 0.046841405 0.48987663 -0.15479676
0001b0 5e 55 85 be 67 88 09 bf 26 e0 f4 3c 06 36 fa 3e
       -0.26041692 -0.5372376 0.029892039 0.48869342
0001c0 01 84 07 bf 69 1a 2d bd e8 88 31 3e b0 e5 70 3e
       -0.52935797 -0.042261515 0.17337382 0.23525119
0001d0 50 d6 a1 be 06 b6 07 3e c5 d9 93 be 04 21 ad be
       -0.3160882 0.1325303 -0.28877082 -0.3381425
0001e0 ff 6f 8b 3d c2 c3 0e bf 87 4c 89 bd 16 19 f3 3e
       0.06808471 -0.5576745 -0.067040496 0.47480077
0001f0 29 34 1b be 9f d1 64 3e 92 f5 10 3f 47 24 8c be
       -0.15156616 0.22345589 0.5662471 -0.27371427
000200 16 e3 19 3f 64 e7 02 bf 3b 15 b2 be 82 eb b6 3e
       0.6011213 -0.51134324 -0.34781823 0.35726553
000210 03 e8 0f 3f 37 e1 4f be f3 e7 31 be 23 f6 ec be
       0.56213397 -0.20300756 -0.17373638 -0.46281537
000220 d8 2a 01 bf 71 7a 15 bf 82 20 0c 3f 22 77 da be
       -0.50456 -0.58389956 0.54737103 -0.42669016
000230 9a a4 ca 3d 91 11 99 3e 91 02 1b 3f 4e e2 03 bf
       0.098946765 0.29896215 0.6055079 -0.5151719
000240 c8 63 06 bd 9e 99 af be a6 b4 bd be 4c 17 02 3e
       -0.032810003 -0.34296888 -0.37051886 0.127042
000250 11 f5 16 3e 8a dc 17 bd 96 a3 fe 3e 52 a7 ab 3e
       0.14741923 -0.037075557 0.4973418 0.33526093
000260 5c 8a dd 3e db 6b 86 3e 8e 3d e0 3e c2 e8 bc be
       0.43269622 0.26254162 0.43796962 -0.3689633
000270 c0 32 d1 3e d7 4e be be bb ea a6 3d fa 9d eb 3e
       0.40859032 -0.37169525 0.0815024 0.46018964
000280 c3 30 99 3e 2e 0b f2 3e 7c 7c 43 3c c2 f7 09 3e
       0.29920015 0.47274154 0.011931535 0.13473418
000290 5f 2a 3f be e6 ed 92 be 96 52 31 be 9a 6c c1 be
       -0.18668507 -0.28697127 -0.1731666 -0.3777817
0002a0 df 38 91 3e c7 0c 4f be dc b0 14 bf cc 21 d6 3e
       0.28363702 -0.20219718 -0.58082366 0.4182266
0002b0 a0 40 e5 be 32 10 f5 3e 17 fb 12 bf f8 0c a3 3e
       -0.44775867 0.4786392 -0.5741438 0.31845832
0002c0 5a 1e 03 bf 50 2d 0a bf 61 3a 69 3e 8a 89 d7 3e
       -0.5121819 -0.5397539 0.22776176 0.4209712
0002d0 1f d0 17 bf a1 5d b9 3e 17 de 11 bf 88 51 b8 be
       -0.5930194 0.36204246 -0.5697951 -0.35999703
0002e0 bb 3a 73 3e eb 3c 9a 3c cd 12 12 3e 36 63 96 be
       0.23752873 0.018827876 0.14264984 -0.29372567
0002f0 cb e3 96 3e 10 17 fd 3e fa fd 91 3e 0b c5 c7 be
       0.29470667 0.49431658 0.2851408 -0.3901752
000300 c4 25 f2 be 88 f8 ed be 1f 8b b4 3e ab 6c eb 3e
       -0.47294438 -0.46478677 0.3526239 0.45981345
000310 f5 4e 8f 3e 24 81 9d bd c6 04 c9 be 7e 29 a3 be
       0.27989927 -0.07690647 -0.39261454 -0.31867594
000320 d5 21 0c 3f af 64 83 bc 26 30 e5 3e a4 0f 00 3f
       0.54739124 -0.01603922 0.44763297 0.50023866
000330 98 f3 2d bd 33 92 b6 be 74 5a 14 bf 63 c8 85 be
       -0.042468637 -0.35658416 -0.5795052 -0.26129445
000340 ea 4a 3a be ca 49 75 be e3 03 81 be 8f a5 55 3e
       -0.1819264 -0.2395393 -0.25198278 0.20863937
000350 93 e3 2f be 25 69 37 3e fe b7 20 bf 4c 81 2b be
       -0.17176656 0.17911203 -0.6278075 -0.16748542
000360 c0 46 c3 3e ea 7a 02 bf 55 65 b2 bd 38 e2 80 be
       0.38139915 -0.509688 -0.08710734 -0.2517259
000370 ea 8d 4f 3b 0e 22 f3 bd 7e 08 a9 3e 21 0c 48 3e
       0.003167028 -0.1187173 0.33014292 0.19535877
000380 a3 fd 78 3e 95 8e 54 be 27 86 41 3e 53 f7 86 3d
       0.24315505 -0.20757516 0.18898831 0.06590142
000390 19 71 fc 3e 32 fa 3f be 2b 0c 1a 3e 1e 42 1b 3f
       0.49305037 -0.18747786 0.15043704 0.6064776
0003a0 81 c7 3d 3d 4d c7 28 bd be f5 98 be 0b c4 b9 3d
       0.04633284 -0.041205693 -0.29874986 0.09070595
0003b0 06 17 5d 3e 45 76 c3 be c3 b8 b0 be 3a a6 07 bf
       0.21590814 -0.3817617 -0.34515962 -0.52988017
0003c0 e5 24 cd 3d 0a c8 17 3f d8 e5 6a 3e 6a 20 e5 3d
       0.10016803 0.5928961 0.22939241 0.11187823
0003d0 da 6a f2 3e 41 52 ba be 93 f3 11 3f 14 84 eb 3e
       0.47347146 -0.3639088 0.5701229 0.45999205
0003e0 b4 1d da 3d c4 76 91 bd af 9f ac 3e 1e e5 09 3f
       0.10650197 -0.07102731 0.3371558 0.5386523
0003f0 70 43 94 3e e5 c0 96 bd d9 9f 7d 3e 55 64 b4 3e
       0.289577 -0.073610105 0.24768008 0.35232797

encoder.layers.0.attention.w_v.bias f4 [16]
000000 c6 36 55 bd c9 17 a5 3d 82 99 44 be 15 88 03 3e
       -0.05205419 0.08061177 -0.19199184 0.1284488
000010 02 9e 84 bd bd 1e 1e be a8 cd 0b 3d ed da f4 3d
       -0.0647545 -0.15441413 0.034131676 0.11955819
000020 e7 d0 47 3e 78 9e f9 bd 26 02 cf bd 81 06 4c 3d
       0.19513284 -0.12188429 -0.10107832 0.04981089
000030 90 59 8e 3d a3 30 af 3d c2 9f e6 3d 29 6c 5e bd
       0.069506764 0.085541986 0.1126094 -0.05430237

encoder.layers.0.attention.w_concat.weight f4 [16, 16]
000000 30 51 6e be 48 38 69 be e6 eb 04 3e f2 30 a7 be
       -0.23273158 -0.22775376 0.12980613 -0.3265453
000010 5a 9a f4 be d7 c3 ac be 7d a8 b3 be 5c 11 09 bf
       -0.4777401 -0.33743164 -0.35089484 -0.53542113
000020 e5 a9 b7 be 9c 03 90 3e 08 8b 0d 3f 56 f5 be be
       -0.35871807 0.28127754 0.5529027 -0.3729655
000030 9f 64 88 bd 49 49 05 bf 21 4d fa bc fb 41 01 3f
       -0.06659817 -0.5206495 -0.030554356 0.50491303
000040 15 02 98 be 82 5d 84 3e 16 4a 03 3f a0 c0 40 3e
       -0.29689088 0.2585259 0.5128492 0.1882348
000050 27 ed 7c be 7a 57 a1 bd 2b d7 ea be 73 81 41 3e
       -0.24699841 -0.07878013 -0.45867285 0.18897037
000060 97 04 19 3e 4d c4 dc be 3b 38 02 3f cd 0d a0 3c
       0.14943157 -0.43118516 0.5086705 0.01953783
000070 df 00 09 bf fa de 28 3e 34 2d e5 be 5a e9 79 3e
       -0.53516954 0.16491309 -0.4476105 0.24405423
000080 44 da 94 3e 6d 92 a1 bd 08 16 3d be 78 0d b5 bc
       0.29072773 -0.078892566 -0.18465436 -0.022101149
000090 7d 4d b1 be e6 02 f0 3d 35 be 38 3e 24 a6 a2 3e
       -0.3462943 0.11719303 0.18041308 0.3176738
0000a0 85 bd 55 be 53 2c 91 be 0a bc c8 3d 9a f4 0d bf
       -0.20873077 -0.2835413 0.098014906 -0.5545136
0000b0 83 7e 01 bf 2b a8 68 3e 20 6f d5 be e7 5d 31 be
       -0.50583667 0.22720401 -0.41686344 -0.17320977
0000c0 97 d2 e3 3e 6f 15 f6 3e fe 14 8b 3e 6a 53 db bd
       0.44496605 0.48063228 0.27164453 -0.10709269
0000d0 75 a3 f6 bd 0b e3 b3 be 42 bc 08 bf 43 a6 22 bc
       -0.12042896 -0.35134158 -0.5341226 -0.009927335
0000e0 b7 2b 8a 3e 2a d2 cb bd c5 5e 2a be ac 2d cf 3e
       0.26986477 -0.09952195 -0.16637714 0.40464532
0000f0 f1 ef 4c bd a3 9a 9c be b6 f6 cf be d1 d9 76 be
       -0.050033513 -0.30586728 -0.40617913 -0.24106528
000100 54 c5 a8 be 16 b7 eb 3d 6c cc 68 be ac 2c d8 3e
       -0.3296305 0.1150953 -0.22734231 0.42221582
000110 ec 6a b3 be af 1c f4 bd c1 c0 15 3f 97 6a 2b be
       -0.35042512 -0.119195335 0.58497244 -0.1673988
000120 6a df fc b9 70 87 ad 3e 88 f1 49 be 16 f6 05 3f
       -0.00048231642 0.33892393 -0.19721043 0.5232862
000130 7e 72 08 be fa 2f f9 3e fd 67 fe 3e ff 5e aa 3c
       -0.13324925 0.48669416 0.49688712 0.02079725
000140 52 28 be 3e fd a5 73 3e 72 38 df bc 03 01 ec 3e
       0.37140137 0.23793788 -0.027248595 0.46094522
000150 55 d6 c8 3e 9f 2f bc be d8 9b 89 be ef ce 12 bf
       0.39226022 -0.36755082 -0.26876712 -0.57347006
000160 43 0d ab bd 6f 7d d7 bd 8d 53 8a be 1d 54 b6 bd
       -0.08352139 -0.105219714 -0.2701687 -0.08902762
000170 93 fd 8c be ed 8c 05 bf 94 b8 eb 3e f4 fd a1 be
       -0.27537212 -0.5216816 0.4603926 -0.31639063
000180 54 1e 83 3d 0e 9b d6 be ca 0d 55 3d 53 51 5f 3e
       0.06402269 -0.41915172 0.052015103 0.21808366
000190 c6 60 e4 be 2e 48 f7 be 66 c3 11 bf cf 69 0b 3e
       -0.44605082 -0.48297256 -0.5693878 0.13614582
0001a0 82 4d 93 3e 66 93 9a be c7 30 b7 3d bf be 73 be
       0.2877007 -0.3019058 0.089448504 -0.23803233
0001b0 37 03 fc be 1e 43 fa 3d 38 52 d6 be 4f e6 8d 3e
       -0.49221203 0.12219833 -0.41859603 0.27714774
0001c0 29 a4 df be 6a b8 0f bf 18 f1 1a 3f f5 f3 e2 3e
       -0.43679932 -0.5614077 0.6052413 0.4432675
0001d0 0e 03 8d 3d 3f cd fb 3e a0 5b b0 bd 0d e2 00 3f
       0.06885348 0.49180028 -0.08611226 0.50344926
0001e0 e4 94 15 bf 03 6d 04 3f 67 dc ea 3e 4e 52 d7 bd
       -0.58430314 0.5172884 0.4587128 -0.10513745
0001f0 26 b6 32 3e 75 d5 2f be ab 1e 68 3e 52 92 c7 3e
       0.17452297 -0.17171271 0.22667949 0.3897882
000200 fd b1 cd 3e e4 d6 d8 3e 17 9f 8f 3e 99 9b 5f 3b
       0.40174857 0.4235145 0.28051063 0.0034119843
000210 67 f3 06 bf 76 b8 f4 be 50 9c 1d bf b0 54 dd be
       -0.5271515 -0.47796983 -0.6156664 -0.43228674
000220 33 32 bd 3e 46 9b bb 3d 30 dd 8e 3e 60 fc ad be
       0.3695236 0.091604754 0.27903128 -0.3398161
000230 25 72 fa 3e 62 7e 35 bd ca 69 b5 be 82 bf 93 bd
       0.4891521 -0.04430998 -0.35432273 -0.072142616
000240 12 db 87 3e bc e4 02 bf 4f f6 27 3e c1 3a a3 3e
       0.26534325 -0.5113027 0.16402553 0.31880763
000250 61 7b 51 be 4d b1 c5 bd 8b cd c3 3e 15 c8 de be
       -0.20457222 -0.09652958 0.38242754 -0.43512025
000260 40 b3 de 3e 9e 8b 02 3f 1b f9 b7 3e cb e9 23 be
       0.43496132 0.5099429 0.3593224 -0.16007154
000270 7a bb 8f be 61 5f 15 3f 65 8d 67 be ab 70 e9 be
       -0.2807272 0.5834866 -0.22612531 -0.4559377
000280 4a 02 ed be 7e 88 84 3e 20 1c 9e be a8 70 b5 3e
       -0.4629081 0.25885385 -0.30880833 0.35437512
000290 d1 77 aa 3e 9b dc af 3c fc 2d da bd 1b 5b 9b be
       0.33294538 0.021467498 -0.10653302 -0.30342945
0002a0 28 c1 a6 be 5e 6a 3d 3e 32 ce a2 3e 85 2b fe 3e
       -0.32569242 0.18497607 0.3179794 0.49642578
0002b0 65 f7 9f 3e 93 22 27 be 4b 02 90 bd fb 86 02 bc
       0.31243435 -0.16321783 -0.07031687 -0.007966752
0002c0 6b 59 f7 bd 23 dc f3 be 6f 4d e9 3e 24 5a a6 3e
       -0.12077602 -0.47628888 0.4556689 0.32490647
0002d0 13 87 fc 3e 3c 06 b6 be 32 49 44 3e 92 4c 9b bd
       0.49321803 -0.3555163 0.19168547 -0.07582964
0002e0 5f 64 11 3e 23 0a 8a 3e 27 41 96 3d 0e 16 89 3d
       0.14198445 0.2696086 0.073366456 0.0669366
0002f0 f5 aa 00 bd 16 03 18 bf 02 db ce 3c 83 d7 10 bf
       -0.031413037 -0.5937971 0.025250915 -0.56578845
000300 c9 7a c3 bd 05 aa e3 be 25 56 23 3e df 4c 00 3f
       -0.09544904 -0.44465652 0.1595083 0.50117296
000310 24 f7 df 3d ff da e2 be 8c e3 04 3f 7b 6c a9 be
       0.1093581 -0.44307706 0.5190971 -0.33090577
000320 7f 04 13 be f7 b8 52 be c6 25 00 3e 38 24 0c bf
       -0.14357184 -0.20578371 0.1251441 -0.54742765
000330 c3 24 11 bf 0b 75 ee be 0d 17 ad be d1 68 0a 3f
       -0.5669672 -0.46573672 -0.3380665 0.5406619
000340 66 4e 4c 3d 3a b9 f7 be 9c b1 62 bd 1f 89 ea be
       0.049879454 -0.48383504 -0.055345163 -0.4580774
000350 df e9 d9 3e 1d a7 9c 3d b8 7e e7 3e f7 b8 ca 3e
       0.42561242 0.07649062 0.45213866 0.39594242
000360 d0 7e 10 3f b3 9e 52 3e 3b b6 a3 be 93 01 d5 3e
       0.564435 0.20568351 -0.31974968 0.41602764
000370 96 59 83 3e b9 5b 16 3f db ca 2e 3e 91 2a db 3e
       0.25654286 0.5873371 0.1706957 0.42805913
000380 4f 3f 11 3f 96 f4 dd 3e 09 1e da be 25 d7 af be
       0.56737226 0.43350667 -0.4260104 -0.3434383
000390 dc 94 be 3d c3 ff 41 be 31 cc ae 3e 91 40 06 3f
       0.093057364 -0.18945222 0.3414016 0.5244227
0003a0 b7 b1 32 3c 80 8b 3b bd da 8f 00 3f c8 8b b2 3e
       0.010906628 -0.045787334 0.502195 0.3487227
0003b0 b6 c5 46 3e f4 17 0e 3f 93 69 6a be b2 d5 58 3e
       0.19411358 0.555053 -0.22891836 0.21175268
0003c0 f7 59 a0 be b6 41 ad be 6d 84 0c 3d 72 5a 0a be
       -0.31318638 -0.33839196 0.03430598 -0.13511065
0003d0 45 86 8f be 1b bc 83 3d b4 27 e0 be 3a 91 f8 3e
       -0.28032127 0.06432363 -0.4378029 0.485483
0003e0 04 52 90 3d 6b ee 9a be 4c 35 f1 3c a9 c6 91 be
       0.07046893 -0.30260023 0.02944436 -0.28471878
0003f0 4c 7b e9 3e 76 d1 83 bd 72 72 65 bc 1b d5 1b 3f
       0.4560188 -0.06436436 -0.014004337 0.6087205

encoder.layers.0.attention.w_concat.bias f4 [16]
000000 d0 47 3f 3b 53 b5 de 3d 5d 81 bd bd b4 09 d2 3d
       0.002918709 0.108744286 -0.0925319 0.10255757
000010 66 d1 9e bd 66 cf 94 bc 3d a0 4a be 3f 95 38 bd
       -0.07754783 -0.018165302 -0.19787689 -0.045064207
000020 0d cf e7 bd c7 b4 81 bd 64 fe 14 be ae be 3a be
       -0.11318789 -0.06333309 -0.14550167 -0.18236801
000030 e3 4d 08 3c cc b0 14 3e d3 69 51 3e 45 f0 fb 3d
       0.008319351 0.14520568 0.20450525 0.12301687

encoder.layers.0.norm1.gamma f4 [16]
000000 32 41 7f 3f a8 0c 76 3f 49 c1 7f 3f f2 35 7c 3f
       0.99708855 0.9611306 0.99904305 0.98519814
000010 35 b7 7d 3f 31 c3 7d 3f 52 a1 81 3f 5b 45 82 3f
       0.99107677 0.99125963 1.0127356 1.0177416
000020 cd 2c 80 3f 02 37 81 3f 77 fd 80 3f ab 72 7c 3f
       1.0013672 1.0094912 1.0077351 0.9861247
000030 e6 1c 7d 3f 30 cf 7b 3f 25 ee 7f 3f 16 57 80 3f
       0.9887222 0.9836302 0.99972755 1.0026577

encoder.layers.0.norm1.beta f4 [16]
000000 65 a6 8e 3b 51 27 07 bc 6b 9e a6 bc 73 f2 14 3c
       0.004353332 -0.00824912 -0.020339211 0.0090910075
000010 a2 c5 88 bc 06 f9 04 3b c8 9c cd 3b 3b fd 0b 3c
       -0.016695801 0.002029003 0.0062747933 0.008544262
000020 65 67 93 bc e5 47 3a bc ba f0 1e bb d4 44 42 3c
       -0.017993638 -0.01136968 -0.002425237 0.01185723
000030 fe 26 d3 bb 8b f0 e1 b8 9c 98 84 bb 98 91 75 3b
       -0.006443857 -0.00010773641 -0.004046513 0.0037470814

encoder.layers.0.ffn.linear1.weight f4 [64, 16]
000000 8e 8a a3 be e5 ad c4 3d 3a 17 82 bd a0 2f aa 3d
       -0.31941646 0.0960348 -0.06352086 0.08309865
000010 49 3c ff be a6 5e 02 3f ad a7 96 3d 5c 56 13 bf
       -0.4985068 0.5092567 0.073562 -0.5755365
000020 51 c1 7d 3d 8d 87 0d 3f e1 e7 87 be fb b0 9f 3e
       0.06195194 0.5528496 -0.26544097 0.31189713
000030 06 83 ea 3e 68 5e 00 3d e3 b8 30 3e 4d e2 0e 3f
       0.45803088 0.031340033 0.17258029 0.5581406
000040 4b 82 40 be b0 81 61 be a6 7d b8 3e 5c 7f 1b 3e
       -0.18799703 -0.22022128 0.36033362 0.15185302
000050 8a 1e 36 3e 99 28 a4 3d 65 83 de 3e 06 1d 11 bf
       0.17785087 0.08015556 0.4345962 -0.5668491
000060 2a 8d f5 bc c2 a9 02 be df 08 31 3d 0d f7 38 3e
       -0.029974539 -0.1276007 0.04322135 0.18062992
000070 b3 bf f3 3e 89 c8 65 3e a7 a1 5b be ec 4d a9 3e
       0.47607192 0.2243978 -0.21448384 0.33067262
000080 b0 4b 0e bf ec e4 2f be 03 eb 97 3e 76 ae df be
       -0.5558424 -0.1717717 0.29671487 -0.4368779
000090 c8 ca 11 3f 61 51 05 3f 70 18 42 be a0 63 51 3e
       0.56950045 0.520773 -0.18954635 0.2044816
0000a0 ab ff fa bc 5b f8 86 3e 4f cc 0d bf 09 e8 0b 3f
       -0.03063949 0.26361355 -0.55389875 0.5465093
0000b0 fd bd b0 be 01 c8 c7 be f5 d3 8d 3e 30 2c f9 3d
       -0.3451995 -0.39019778 0.27700773 0.12166631
0000c0 08 fa fc 3d e2 06 2d 3d 56 00 10 bf 27 12 35 3e
       0.12352377 0.042242892 -0.5625051 0.17682706
0000d0 b3 f0 14 3e 74 12 f5 3e 74 87 94 3e cc 4b 67 bd
       0.14544944 0.4786564 0.29009593 -0.05646877
0000e0 6b 4d 9b be 25 21 f8 3e 94 8a 13 3e f8 eb 2f 3e
       -0.30332503 0.48462787 0.14408332 0.17179859
0000f0 d7 29 0e 3e d2 82 00 3f a9 0b 61 3e 4a 1a 18 bf
       0.13883148 0.50199616 0.21977104 -0.59415114
000100 9b 87 9c 3e 53 de 2c bd c1 ed ec be 9e 1e 8f 3e
       0.3057221 -0.042204212 -0.46275142 0.27953047
000110 e5 7d 55 be 30 1f 87 be 70 20 fc be 6a b3 f4 3d
       -0.20848806 -0.26390982 -0.49243498 0.11948283
000120 67 67 c0 3e 37 76 84 be cd c6 90 3d 00 44 28 be
       0.3757889 -0.2587144 0.07069168 -0.1643219
000130 22 61 09 3f d9 cf 11 be 3d d8 da 3c 91 e7 14 be
       0.5366384 -0.14239444 0.026714439 -0.1454146
000140 b1 57 89 be 14 ed 5c 3e 7f ed 05 3f 09 5a ed be
       -0.26824716 0.21574813 0.52315515 -0.46357754
000150 bf 1a 12 3f 61 02 c3 be 09 f5 43 3e 4d ed b5 3e
       0.5707206 -0.38087752 0.19136442 0.3553261
000160 91 54 fd bd 71 ad f6 3e e5 7b ed 3e 09 dd 02 bd
       -0.123696454 0.481792 0.46383587 -0.031949077
000170 9c d6 50 be 33 9f 01 3f 83 4b c0 be 4e 58 32 be
       -0.20394367 0.50633544 -0.3755761 -0.17416498
000180 d6 9b 17 3f e3 db c0 3e 8a 7b 9b be 72 28 c4 be
       0.5922216 0.3766776 -0.3036769 -0.38312107
000190 03 84 de 3b f8 30 03 3e 97 f7 2b bd 3b 65 8c 3e
       0.0067906394 0.12811649 -0.041984167 0.27420983
0001a0 09 10 da 3c 43 04 aa be e3 2d c8 3e 65 17 64 3e
       0.026618974 -0.33206376 0.3909751 0.2227455
0001b0 6e 88 94 be 2e 8d 5e be a9 43 cc 3e 4a 68 84 3e
       -0.29010338 -0.21733543 0.3989537 0.25860816
0001c0 51 ab ac 3d e0 2e d2 3a 71 89 6d 3e b8 59 53 3c
       0.084311135 0.0016035698 0.23196961 0.012899809
0001d0 ed 4f 0e bf 72 a7 89 3e 76 7c aa be f6 34 53 3d
       -0.5559071 0.26885563 -0.3329808 0.05156418
0001e0 a1 c9 a5 bd fb 51 17 bf 0a ad 3d 3d 1c db 40 be
       -0.08095098 -0.5910947 0.0463076 -0.18833584
0001f0 71 b0 50 bd b2 46 c8 be 2f 5c 1a 3e 1e 2d be be
       -0.050949518 -0.39116436 0.15074228 -0.37143797
000200 a2 13 07 bf bf 65 c6 3e 54 71 c0 3e cb 95 d9 be
       -0.5276433 0.387495 0.37586462 -0.42497095
000210 0f 58 00 bf f2 3e 00 3f 5f 74 e6 3d ea 87 a1 be
       -0.50134367 0.50096047 0.11252665 -0.31549007
000220 7b 9c b9 be cf d7 c1 3d db e4 fc be d3 68 2c be
       -0.36252198 0.0946499 -0.49393353 -0.16836862
000230 ee 1b 0c bf 34 b3 06 bf ea 1c 94 bd 89 4f 93 be
       -0.5473012 -0.5261719 -0.072320774 -0.28771618
000240 e2 3f 7a 3d 87 8a bf be 32 62 12 3f fc 91 ac bd
       0.06109608 -0.37410375 0.57181084 -0.08426282
000250 f3 19 65 3e ea 5c 03 3f 8a 97 db 3d 79 05 13 3f
       0.2237318 0.5131365 0.10722263 0.57430226
000260 b7 51 24 bc 30 06 1c 3f 58 08 fc 3e 92 0f 46 3d
       -0.010029248 0.6094694 0.49225116 0.048354693
000270 fe 1e 91 3e 1a 8a ae be 86 99 19 3e 94 3c f5 bd
       0.28343958 -0.34089738 0.14999971 -0.11974445
000280 39 d2 60 3e 19 ba 98 3e bc a5 40 3d 32 4d 80 be
       0.21955194 0.2982948 0.047033057 -0.25058895
000290 da 22 0a 3f 7e d0 b8 be 91 7c 0c 3f 77 e5 04 be
       0.5395943 -0.36096567 0.54877573 -0.12978159
0002a0 87 92 93 be 11 58 9e bd 3f 5b 7e be 69 b5 89 be
       -0.2882273 -0.07731641 -0.24839495 -0.26896217
0002b0 85 df 51 3e 8f 53 c9 3e da b6 1f be 88 49 1d 3d
       0.20495422 0.39321563 -0.15597096 0.038400203
0002c0 30 84 c7 bd 8b 72 67 3d 25 20 93 be 5f a4 91 be
       -0.0974201 0.05650572 -0.28735462 -0.28445718
0002d0 d8 06 15 3e 74 0f 25 3d b2 12 6b bd b3 8d ec 3e
       0.14553392 0.04029794 -0.057390876 0.46201858
0002e0 df a7 17 bf 99 50 01 bf 3e 81 0d bf de 8f 14 3f
       -0.59240526 -0.5051361 -0.5527533 0.58032024
0002f0 e5 98 03 bf 6c 22 cc 3e 67 8a 0b bf f6 82 bb 3d
       -0.51405174 0.39870012 -0.5450806 0.09155838
000300 d5 50 a9 bd f7 a3 6d be c3 c1 63 3e 7b 84 d7 bd
       -0.082673706 -0.23207079 0.22241883 -0.105233155
000310 27 cc cb 3e dc 55 08 3f 7b 1d f1 be 4d d2 11 bf
       0.39804193 0.5325601 -0.47092804 -0.5696152
000320 6e 50 10 bf a3 ee 3f be f4 78 19 3e 9a 93 df 3c
       -0.56372726 -0.18743376 0.14987546 0.027292062
000330 6f 82 77 be 41 0a 88 3e b4 56 50 3c c2 1a 14 bf
       -0.2417085 0.26570323 0.012715984 -0.5785333
000340 ea d9 f0 be c1 f3 f2 3e 46 82 62 be 85 7d c3 3e
       -0.47041255 0.47451594 -0.22120008 0.381817
000350 04 7a d2 3e 30 95 86 3e 4c 04 a6 3e 1c b1 74 3e
       0.41108716 0.26285696 0.32425153 0.23895687
000360 ed ce c8 bd e8 06 43 be aa 49 cf 3d 53 2d d6 be
       -0.09805093 -0.19045603 0.10121472 -0.41831455
000370 c1 4e 97 be fa 05 16 bf 30 73 6c 3d 4e d4 ce 3e
       -0.29552272 -0.5860287 0.05772704 0.4039635
000380 1d a1 a7 3e bc dd 1d 3e 77 25 90 bc 38 e4 51 3d
       0.32740107 0.15416616 -0.01759599 0.051243037
000390 99 f3 dd 3c e6 82 e8 3e 51 cb 58 3e 3f 25 fa 3e
       0.027093695 0.45412368 0.21171309 0.48856542
0003a0 42 5f d0 bd a2 42 7e 3e 12 de a8 bd c8 94 b8 3e
       -0.10174419 0.24830106 -0.082454816 0.3605101
0003b0 8d c8 07 bf bc 86 91 bd f4 09 c1 be 35 ef 95 3b
       -0.5304039 -0.07105777 -0.37702906 0.004575635
0003c0 50 30 01 bf f8 ca 85 be a6 b9 09 be db bd 49 be
       -0.50464344 -0.26131415 -0.13449726 -0.1970133
0003d0 29 5b 06 3f c8 ec 59 3d 3b f8 6f be e5 09 9e be
       0.5248285 0.053204328 -0.23434536 -0.30866924
0003e0 10 81 90 3d 84 7f 6b 3e bc 36 9c 3e 1b cf e6 3e
       0.07055867 0.22997862 0.3051051 0.45079884
0003f0 38 3c 49 3e 8b 23 d5 3d 89 95 9b be 5a a5 bc 3e
       0.19651878 0.1040717 -0.30387524 0.36844903

encoder.layers.0.ffn.linear1.bias f4 [64]
000000 44 70 58 bd 6f 85 a6 3d 69 b8 42 3e 29 24 94 3d
       -0.05284144 0.08130919 0.1901566 0.072334595
000010 7c 2f 2d 3e bc b3 27 3e d8 98 a2 3d 5f a0 aa 3d
       0.16912645 0.16377157 0.07939309 0.083313696
000020 a5 76 86 3d 12 73 da bb 55 96 54 3e 68 b8 74 3e
       0.065655984 -0.0066665495 0.20760472 0.2389847
000030 6a 16 a1 3d 88 33 6d bc a2 40 6a 3e c8 49 41 be
       0.07865603 -0.014477618 0.22876218 -0.18875802
000040 c1 64 3d 3e 82 28 f7 3d 4d 39 2b 3e cd 2f b1 bb
       0.18495466 0.12068273 0.16721077 -0.0054073096
000050 8e ea 4e be a7 92 37 3e f1 92 d4 bd a0 cc 65 3d
       -0.20206663 0.17927037 -0.10379589 0.05610335
000060 87 29 0c 3e 5a ea 67 be ab 9a b2 3c 91 01 a8 bd
       0.13687716 -0.22647992 0.021802267 -0.08203424
000070 33 6a 39 3e 10 d3 21 be 61 f4 21 3e 0b 85 1d 3e
       0.18106918 -0.1580317 0.1581588 0.15382783
000080 3f 93 05 3e b5 90 78 3e 1d 37 10 3d 84 df 6d be
       0.13044451 0.24273951 0.03520881 -0.23229796
000090 6e 7c 3f 3e 7b 9a be 3c ea 54 97 bb 58 17 5e be
       0.1869981 0.023267021 -0.004618277 -0.21688592
0000a0 d4 ba 6f bd 71 0e fa bd 61 16 61 3e ef cf 22 3e
       -0.058527783 -0.12209786 0.21981193 0.15899633
0000b0 5d 6b 45 3e a5 92 25 3e 27 3c 2d be 6f 2e 07 be
       0.19279237 0.16169222 -0.16917478 -0.13201307
0000c0 fd 98 9f bd 64 35 b3 bd 2f 06 2f 3e c3 f2 b0 3d
       -0.07792852 -0.08750418 0.17092203 0.08640053
0000d0 48 1d 3a 3e 2d e3 d4 bb b0 7a 6b be c6 2f b8 bd
       0.18175232 -0.006496808 -0.2299602 -0.08993487
0000e0 aa f4 2a 3e b6 4c 12 3e 17 55 8d 3d ad d5 8b bd
       0.16694894 0.14287075 0.06900995 -0.06827865
0000f0 fe f5 74 be df 72 e2 bd 3e fe 08 3e 36 4b d8 bd
       -0.23921964 -0.11057066 0.13378236 -0.1056122

encoder.layers.0.ffn.linear2.weight f4 [16, 64]
000000 a4 0a 9d bd 34 a7 ef bd c0 48 ea bd 91 35 95 bd
       -0.07668045 -0.11701813 -0.11439657 -0.072856076
000010 38 db b6 3d 47 02 86 bd 6d c9 14 be 76 31 4a 3e
       0.089285314 -0.06543403 -0.14529963 0.1974543
000020 7d 8b ec bd ce 33 8b 3e 12 99 23 3e 31 6a 98 3e
       -0.11550043 0.2718796 0.1597636 0.29768518
000030 0d 74 5b 3e f2 67 15 3e 69 1b 27 be db 12 81 be
       0.21430989 0.14590433 -0.1631905 -0.25209698
000040 c0 eb 68 be 60 d3 d3 3d 5f a7 7b be c9 20 48 bc
       -0.22746181 0.10343051 -0.24575566 -0.012214848
000050 0d 6b 81 3e cf e2 8c bd 5b 02 a5 bd ee ac 16 be
       0.25276986 -0.06879198 -0.0805709 -0.14714405
000060 92 44 e7 3c fd c0 dd bd 48 65 8e 3d 8d 96 7e be
       0.028230939 -0.10827825 0.069529116 -0.24862118
000070 74 d5 86 bd 83 33 35 3e c4 c6 d2 bd bb 0c a2 3d
       -0.06583682 0.17695431 -0.10291818 0.079125844
000080 9c 40 63 be 45 0e 8d 3c f4 d7 9c be ae ef 96 be
       -0.22192615 0.017218718 -0.3063351 -0.29479736
000090 d4 d8 99 bd ec 70 51 bd b2 cb 1d 3e 95 84 91 3e
       -0.0751206 -0.05113308 0.15409735 0.28421465
0000a0 ff 93 71 be 3f 70 c6 3d ca 45 e5 bd c7 d8 05 be
       -0.23591612 0.09689378 -0.11194952 -0.13070975
0000b0 a9 18 47 3e 7d 6d eb 3d de 7b 74 3c ae 22 e4 3d
       0.19443001 0.114954926 0.01492211 0.11139427
0000c0 81 d7 aa bc b8 e1 98 be c9 95 92 be 57 6f d1 bd
       -0.020854713 -0.2985971 -0.28629902 -0.102263145
0000d0 0b c3 8a be a6 96 5a 3e 17 20 64 bd da de 84 be
       -0.2710193 0.2134653 -0.055694666 -0.25951272
0000e0 10 8f 15 bd f3 97 15 be 5f f7 fe bd e1 ff 54 3e
       -0.03651339 -0.14608745 -0.12449526 0.20800735
0000f0 c3 83 c5 3b 60 fd 73 3e 4c 41 7f be eb a0 31 3e
       0.00602767 0.23827124 -0.24927253 0.17346542
000100 86 c6 f5 bc 64 33 62 be 89 82 9d bd a1 a4 5c 3e
       -0.03000189 -0.22089916 -0.07690913 0.21547176
000110 ac 61 53 be 9e 4e ad bd df 15 c1 3d 0d 75 6e 3e
       -0.20642728 -0.08462261 0.09428 0.23286839
000120 8f 51 61 3d 5d fd a0 3d 21 97 43 be bd 68 0e 3e
       0.05500942 0.07860825 -0.1910062 0.13907142
000130 0b 71 cc 3c 1c 54 fe bd e8 06 77 3e 16 c0 6e 3e
       0.024956247 -0.12418386 0.24123728 0.23315462
000140 a6 13 bc 3d 04 bc 43 be f5 fb 74 3e 72 f0 26 3d
       0.09183435 -0.19114691 0.23924239 0.04075665
000150 f3 e4 bf bd ac eb e2 bd 54 9b d3 bd 2a 0a 57 be
       -0.093698405 -0.11080107 -0.10332361 -0.20999971
000160 a2 8c d4 bd dd dd 8d 3e f7 fa 4a 3e 35 1a 1a 3e
       -0.10378386 0.2770833 0.19822298 0.1504906
000170 e0 dd 36 be 84 52 04 3e 27 93 7b 3d f8 56 2d 3d
       -0.17858076 0.12922102 0.061419632 0.042319268
000180 d3 a9 c4 3d 38 ba 33 be 79 78 66 3d 2f 3e 89 3d
       0.09602704 -0.17551506 0.056267235 0.06701314
000190 3c 97 8c be f9 1b 08 bc 43 c5 66 3d ee 45 82 bd
       -0.27459133 -0.00830745 0.056340467 -0.06360994
0001a0 fc 83 8d bd 27 bc 0d bc 8c a0 8b 3e 41 a6 94 bd
       -0.0690994 -0.008650816 0.27270925 -0.07258273
0001b0 ba 1f 76 be f0 2c 7d bd 46 6e 19 be c6 46 ac 3d
       -0.2403554 -0.061810434 -0.14983472 0.084119365
0001c0 ee f4 9c 3d 5d 4b 81 be 17 d1 94 3d 9b aa 66 3e
       0.07663904 -0.2525281 0.07266443 0.22526018
0001d0 c6 7e 75 3e d5 90 be bb b0 55 55 bd 70 f5 91 be
       0.23974141 -0.005815605 -0.05208367 -0.28507566
0001e0 44 bd 90 be ba db 60 3e 7c fd 66 bd a4 84 10 3e
       -0.28269398 0.21958819 -0.056394085 0.14113098
0001f0 48 2a e9 3d b7 45 35 be 25 70 88 be f0 c1 89 3e
       0.11385018 -0.17702375 -0.2664806 0.26905775
000200 44 96 52 be 79 23 a4 3d 71 95 78 3d 8c 1b 8a 3d
       -0.20565134 0.08014578 0.060689393 0.067435354
000210 14 79 2d 3e 21 a0 16 be 8f 53 80 be fe 06 07 be
       0.16940719 -0.14709522 -0.2506375 -0.13186261
000220 85 4d 8a be 16 24 e2 3d 2c 64 40 be c8 b8 41 be
       -0.27012268 0.11042039 -0.18788213 -0.18918145
000230 85 aa 8f be d4 de d0 3d af 3f 71 be a1 0f b2 bd
       -0.28059784 0.10198751 -0.2355945 -0.08694387
000240 81 54 9e bc 07 c2 66 3e 6c 32 cf 3b 74 a6 53 bc
       -0.019327404 0.22534953 0.0063231494 -0.0129181035
000250 fd 40 54 3b 59 46 32 3e 71 af da bd c1 27 88 be
       0.003238737 0.17409648 -0.10677994 -0.2659283
000260 f3 ae 5b 3e 2e 57 2b 3e 1a d7 6a 3e 38 74 af 3d
       0.21453457 0.16732475 0.22933617 0.08567089
000270 2f 74 95 be ae c7 d2 3d cc e6 03 be d2 ca eb bd
       -0.29190204 0.10291992 -0.12881011 -0.11513294
000280 21 05 60 3e 5c 90 3d 3e 68 8f 75 3e d6 84 d9 3d
       0.21876957 0.185121 0.23980486 0.106210396
000290 4a e4 95 3e 30 f8 7c be e0 55 8e be 39 f8 23 3e
       0.29275733 -0.24704051 -0.27799892 0.16012658
0002a0 81 b8 3e 3e bb 00 c9 bd f4 9f 04 bd 13 0f 54 3e
       0.1862507 -0.098145925 -0.032379106 0.20708875
0002b0 ae 31 7a be 6e c8 97 be ad c5 9f bd c5 f2 14 3e
       -0.24433014 -0.29645103 -0.078013755 0.14545734
0002c0 ec ef 41 3e 3f ed 19 be 93 68 24 be f5 47 f4 3d
       0.18939179 -0.15031908 -0.16055517 0.11927787
0002d0 99 58 8c 3e ef 91 94 bd 90 63 24 be df 06 fb bd
       0.27411345 -0.07254397 -0.16053605 -0.1225717
0002e0 0f a4 38 be 57 4e 62 be 6c 20 1c 3e 60 8d 96 bc
       -0.18031333 -0.22100197 0.15246743 -0.01837796
0002f0 94 9f 87 3d 66 91 de 3d e2 51 59 3e 6c 48 40 bd
       0.06622234 0.10867576 0.21222642 -0.046944067
000300 96 09 56 3e b4 78 6a 3d b1 e7 5d 3e 0f e3 12 be
       0.20902094 0.057244018 0.21670415 -0.14344428
000310 e0 61 f7 bd 3e da 94 3d 23 4b 42 3e 83 8e 5d bd
       -0.12079215 0.07268189 0.18973975 -0.054090988
000320 36 cc 85 be 5d d7 95 be e9 49 3c bc 87 1b 8b bd
       -0.26132363 -0.29265872 -0.011492231 -0.0679236
000330 44 25 b8 bd 9f a6 06 be 37 cd 36 3b 4c 04 1a be
       -0.08991483 -0.13149498 0.0027893314 -0.15040702
000340 9f e9 c1 3d d4 54 4b be 4a 62 71 3d 29 00 cd 3d
       0.09468388 -0.19856578 0.058931626 0.10009796
000350 fb 79 4e 3b 64 1f 7b 3e d1 3f 12 3e b5 d0 4d 3e
       0.0031505811 0.24523693 0.14282157 0.20099147
000360 84 88 28 be 2a b6 79 3c c9 bc 46 3e 90 07 1f be
       -0.16458327 0.015241185 0.19407953 -0.15530229
000370 d1 b1 fa bd 84 85 71 3d b0 58 2f be 4c 01 c9 bd
       -0.12240947 0.05896522 -0.17123675 -0.098147005
000380 90 69 62 bc 5e a3 9a 3e 13 4a 0a be b9 c2 95 be
       -0.013819113 0.30202764 -0.1350482 -0.29250124
000390 87 b6 48 3e 8c 66 3e 3e 11 9a 5a bd c5 1a 19 3c
       0.19600879 0.18593806 -0.053369585 0.009344761
0003a0 20 12 93 be cc ec e6 bc 68 17 3c 3e 6f bc 40 be
       -0.28724766 -0.028189085 0.18368304 -0.18821882
0003b0 75 8b 85 bd a8 5e 57 be 7e 73 66 be 21 ac 5e be
       -0.0652074 -0.21032202 -0.22504994 -0.2174535
0003c0 66 4b cf 3d ca ba 65 3d 78 65 b4 3d 4f c4 a8 3d
       0.10121803 0.05608634 0.08808416 0.08240568
0003d0 66 d6 8f 3e ce a1 96 3d ca cc 44 3e db c9 54 be
       0.2809326 0.073550805 0.19218746 -0.20780127
0003e0 51 ae 73 3e 41 39 75 bc 21 bc 43 bc 1b 0c 96 3e
       0.23796965 -0.014967264 -0.011946709 0.2930611
0003f0 83 e7 3c 3e 74 e5 22 3e 48 b8 96 3e 1a ea f5 bc
       0.1844769 0.15907842 0.2943747 -0.030018855

encoder.layers.0.ffn.linear2.bias f4 [16]
000000 fe ae bc bd fe 94 37 3d 17 07 88 3d 5a 81 f1 3d
       -0.092130646 0.044819824 0.06641977 0.1179225
000010 2c 19 05 be 2a 48 f4 3d e3 57 c0 3d ab 62 05 3e
       -0.12997884 0.11927827 0.09391763 0.1302592
000020 38 34 83 3d 9e 10 89 bd 09 d1 cb 3d d5 f6 f7 3d
       0.06406444 -0.066926226 0.0995198 0.12107626
000030 1f 13 64 bd ae 5a f1 bc a1 10 d1 3d fe f0 d8 3d
       -0.055682298 -0.029462185 0.1020825 0.105928406

encoder.layers.0.norm2.gamma f4 [16]
000000 13 73 7f 3f a0 31 78 3f ad e2 7d 3f 74 37 7c 3f
       0.99784964 0.9695072 0.99174005 0.98522115
000010 5d 2e 80 3f 72 e0 7e 3f 1f fb 7f 3f 7b 62 7d 3f
       1.0014149 0.99561226 0.99992555 0.98978394
000020 b7 d2 7e 3f f0 bf 80 3f 78 38 7d 3f 1e 70 77 3f
       0.99540275 1.0058575 0.9891429 0.9665545
000030 6e 53 77 3f 0c 09 7b 3f e4 45 80 3f 6a 00 7c 3f
       0.9661168 0.9806068 1.0021329 0.9843813

encoder.layers.0.norm2.beta f4 [16]
000000 b2 04 db ba 3b 75 d0 39 ab e1 37 bb 17 9c ec 3b
       -0.0016709773 0.00039760195 -0.0028058093 0.007220756
000010 e5 c2 dd bb d3 3c 82 bb d6 40 16 3a 9c f6 31 3c
       -0.006767618 -0.003974536 0.0005731707 0.010862019
000020 2f 31 25 bb 50 4a 6a ba ac ce 31 3b 44 7e 4f 3c
       -0.0025206318 -0.0008937465 0.0027131243 0.012664381
000030 c9 86 72 bc 6a 61 c2 bb 3d 80 02 3c 44 5d d6 bb
       -0.014802643 -0.005932023 0.007965145 -0.00654188
