Trans_Prediction/model_saved/ratioMergedPrs/TM_ratioMergedPrs_delay_size_7_delay_9.pth (torch, 385400 bytes, 337 tensors)

encoder.layers.0.attention.w_q.weight f4 [16, 16]
000000 db e8 30 3e c0 de d5 3e 64 e7 a5 3e 82 c4 c3 be
       0.17276327 0.41771507 0.324031 -0.3823586
000010 b2 47 b8 be be f9 9f 3e 69 ae f3 be 48 7a 16 bf
       -0.359922 0.31245226 -0.47594002 -0.58780336
000020 cb 1c d1 3e 8e 11 84 bd 1e 5a 50 3e d3 7a f0 be
       0.4084228 -0.06448661 0.20346877 -0.46968707
000030 7f 4e 97 3e 36 4a 71 be ba 70 2a 3d e4 83 d6 3e
       0.29552075 -0.23563465 0.04161141 0.418975
000040 ca 51 e5 3d 43 a5 9c be 0f 86 22 be 85 5b f3 3d
       0.11197241 -0.30594835 -0.15871452 0.1188269
000050 e7 ad 14 bf 72 2a 01 bf 9d e2 98 be 84 1a 9d be
       -0.58077854 -0.5045539 -0.29860392 -0.30684292
000060 e3 ac f3 3e 5c d9 27 3e 23 93 3e be 09 23 1a 3f
       0.4759284 0.1639151 -0.18610816 0.6020971
000070 ff dc 09 bd 2e df d8 3e a4 59 8c be 94 43 98 be
       -0.033658024 0.42357773 -0.2741214 -0.29739058
000080 fe b7 d8 bd 6b ed b7 bd 73 c3 da 3d 5e af b0 be
       -0.10581969 -0.08980831 0.1068181 -0.34508795
000090 1f 36 67 be c1 f5 09 3f 91 2f 95 be 45 3b b1 be
       -0.2257924 0.53890616 -0.29137853 -0.34615532
0000a0 1d 5c 00 bf 91 f0 e2 bd 4c b4 87 be 42 d7 14 3f
       -0.50140554 -0.11081041 -0.26504743 0.5814096
0000b0 ab b0 f6 3e 06 39 72 3b 2b 54 12 3e d5 00 03 bd
       0.48181662 0.0036960258 0.1428992 -0.031983215
0000c0 fa 40 e9 3d 51 50 3d be d0 82 f1 3e 6c 41 16 3f
       0.113893464 -0.1848767 0.47170115 0.58693576
0000d0 98 b1 f6 bc 13 ff 93 3d 8c ca de be d6 f7 0c be
       -0.03011398 0.07226386 -0.43513906 -0.13766417
0000e0 df 50 51 bc 3b d2 11 bf 20 02 f8 3e 8d ef 68 3e
       -0.012775629 -0.5696141 0.4843912 0.22747631
0000f0 fe 40 19 bf 6f b3 dc be 9b 80 d2 bb e0 c7 d6 be
       -0.59864795 -0.43105647 -0.0064240224 -0.41949368
000100 97 2e 5d be d5 78 ba 3e f5 47 af 3e 9a 84 89 be
       -0.21599804 0.36420313 0.34234586 -0.2685898
000110 05 cb e8 bd 16 f1 16 3f ef 0f b4 bc 01 27 d3 3e
       -0.11366848 0.5896162 -0.021980254 0.41240695
000120 df b3 ef 3e 79 d4 f1 3e ee 2e 19 3f 96 1d ff be
       0.46816918 0.47232416 0.59837234 -0.4982726
000130 e7 af 03 be 1f a9 b1 be f8 be 0c bf a6 09 53 3e
       -0.1286007 -0.34699342 -0.54978895 0.2060915
000140 a5 59 d6 3e 49 6a 01 bf f4 0a 0e 3f 83 90 35 3d
       0.41865268 -0.50552803 0.55485463 0.04432727
000150 47 d5 09 be 20 59 00 3f 58 47 fb be 0f 80 c1 bc
       -0.13460265 0.50135994 -0.49077868 -0.023620633
000160 b4 0e 70 be bc c3 fa 3e 27 1c 4d 3e ac a1 48 be
       -0.23443109 0.48977458 0.2003027 -0.19592923
000170 12 08 b6 3e 9c bd 0a 3f e7 98 f9 be 72 95 1a 3f
       0.35553032 0.5419557 -0.48749468 0.60384285
000180 05 eb 78 3e 4c 46 a3 3d 37 46 a2 3e 26 7e 2d be
       0.24308403 0.079723924 0.31694195 -0.16942653
000190 2e d3 60 be 97 a9 d0 be fc ef e5 3e dd 17 bf be
       -0.21955559 -0.40754387 0.44909656 -0.37322894
0001a0 23 49 dc be fb 70 12 3f 4d 57 3e be 51 80 42 be
       -0.4302455 0.57203645 -0.1858799 -0.18994261
0001b0 79 a2 b3 3e c2 a5 c9 bd 24 4a 4f bd b8 af 62 be
       0.35084894 -0.09846069 -0.050607815 -0.22137344
0001c0 7f ca 93 3e 34 8d e2 bb 0e f5 ce be cd be 06 bf
       0.2886543 -0.0069138054 -0.40421337 -0.5263489
0001d0 ac 25 60 be 6f 2a 54 bc fe 2e ee 3d 12 82 0e bf
       -0.2188937 -0.01294957 0.11630057 -0.5566722
0001e0 3e 12 cf 3e 64 fb fe be c5 57 f1 3e 4b cd 55 be
       0.40443605 -0.4980117 0.47137275 -0.20879094
0001f0 f8 68 7a be 02 93 97 be c5 87 9b be 6e a9 e9 be
       -0.24454105 -0.29604346 -0.3037702 -0.45637077
000200 50 43 4a 3d c3 b5 d9 be 23 dd 88 be ff fc ee 3e
       0.0493806 -0.42521486 -0.26731214 0.46677396
000210 07 06 e9 bc 1a 8b e2 be 46 b7 68 3e f4 67 3d be
       -0.028445257 -0.4424675 0.22726163 -0.18496686
000220 0b ef 50 3e 1a ff 22 be 74 86 05 3e 99 e7 1c 3f
       0.20403688 -0.15917626 0.13039571 0.6129089
000230 ca e2 1a ba b7 9f 35 3d 67 e9 b6 3c 41 42 5b 3e
       -0.0005908428 0.04434177 0.022328092 0.21411993
000240 b7 5d 05 bf 2c be fa 3e 2d 68 08 3d 4b d5 04 3f
       -0.5209612 0.48973215 0.033302475 0.5188796
000250 bb 6d a4 bc 47 e9 77 3e dc e7 f5 be e1 d9 f7 be
       -0.020071855 0.24210082 -0.48028457 -0.48408416
000260 d8 d2 a2 be 59 34 0e 3f ee 25 f9 3e b5 ec 0d 3f
       -0.31801486 0.55548626 0.4866175 0.5543931
000270 d7 fa ad 3d 76 b5 84 3c 89 9f b4 3e 3d 1b c1 3e
       0.084951095 0.016199809 0.35277966 0.37716094
000280 de 28 71 be 0f ec 1c 3f f7 e1 9d 3e 28 70 07 bf
       -0.23550746 0.61297697 0.3083646 -0.5290551
000290 38 40 18 3f aa 3a 11 3f cd 40 2d 3e 0f ce 50 bc
       0.5947299 0.5673014 0.16919251 -0.012744441
0002a0 66 7b 0b be 07 c1 e4 3e 20 05 cb 3d 30 c0 22 be
       -0.13621292 0.44678518 0.09913087 -0.15893626
0002b0 c9 7e 19 3f 7f b2 e8 3d 59 ba 35 be 7b d8 b8 3e
       0.59959084 0.113621704 -0.17746867 0.36102661
0002c0 9b b8 cd 3e 9d 51 f6 be 1b 5e ba 3e 60 6f 98 be
       0.40179905 -0.4810914 0.36399922 -0.29772472
0002d0 b5 dd 91 be 37 4d 95 3e 67 f8 c7 be a8 1c f0 be
       -0.28489462 0.29160473 -0.39056703 -0.46896863
0002e0 ed 36 d1 3e 46 09 b6 be 91 81 89 be 94 3e 0f be
       0.40862218 -0.3555395 -0.26856664 -0.13988715
0002f0 bc ea ed be 11 4e 3e bc fd 1c 86 bc 0f 66 b1 be
       -0.4646815 -0.011615292 -0.016371245 -0.34648177
000300 29 d5 3c 3e 1d 0c f9 3e 50 f9 13 3e 5c f5 a8 be
       0.18440689 0.48642054 0.14450574 -0.32999694
000310 58 36 71 be 2f 5f 95 be 75 dd cc be 1b ee 23 be
       -0.23555887 -0.29174182 -0.40012708 -0.16008799
000320 b0 11 05 bf bd ca c9 be ab 9b 1e bf 78 f8 8f be
       -0.51980114 -0.3941249 -0.6195628 -0.28119254
000330 6f d9 82 bc 13 09 8d be 72 3b c6 be 37 ad c0 be
       -0.015972821 -0.27545986 -0.38717228 -0.37632152
000340 61 b8 5a be 4c 39 a0 be ab 0b 5d be 4d 4f fd 3c
       -0.21359397 -0.31293714 -0.21586482 0.030921603
000350 a0 90 c4 be 1b 28 bd be 4c 26 b9 be fa 4c b0 3b
       -0.3839159 -0.3694466 -0.3616203 0.00538027
000360 8c 9d 0f bf 3c c3 0c bf e8 95 5c be 81 44 d6 3e
       -0.5609977 -0.54985404 -0.2154156 0.4184914
000370 07 c2 11 3e 15 5e 5c 3e d3 92 c6 be 39 21 72 3e
       0.14234172 0.21520264 -0.38783893 0.23645486
000380 fa 07 ec 3e 34 a4 0d 3f cd 4d e7 be 35 c8 9b be
       0.46099836 0.5532868 -0.45176545 -0.30426183
000390 7e bf fa 3e 00 19 8a 3e 2c 0a d4 be 89 3d 9b be
       0.48974222 0.26972198 -0.4141401 -0.30320385
0003a0 74 34 59 bd 39 1b b1 3c 38 f8 ad bd 16 bc 10 bf
       -0.05302854 0.021619426 -0.084946096 -0.56536996
0003b0 7e 67 53 be f5 ec f3 bd c6 6e 8d bd 49 81 8f be
       -0.20644948 -0.1191043 -0.06905894 -0.28028324
0003c0 9b b7 3f be 5d 40 dd be b6 df d6 be fb 92 04 bf
       -0.18722384 -0.43213168 -0.41967553 -0.51786774
0003d0 0f ea 02 3f 97 ad dc 3e c0 19 f5 be 20 83 a4 3e
       0.51138395 0.4310119 -0.47871208 0.3213129
0003e0 69 b2 13 3f af c4 2d be c9 df 1c 3e 42 16 dc 3e
       0.5769411 -0.1696956 0.15319742 0.4298573
0003f0 72 c5 53 3e f0 8e 37 be 96 3d 45 3e ac 8d fb 3e
       0.20680788 -0.1792562 0.19261774 0.49131525

encoder.layers.0.attention.w_q.bias f4 [16]
000000 50 e0 5b 3d 59 88 cb 3d 23 5f 5a be f4 c4 25 3e
       0.053680718 0.099381156 -0.21325354 0.16188413
000010 82 ed 2a be 9b 66 25 be c3 9a ef 3d a9 43 43 3e
       -0.16692165 -0.16152422 0.1169944 0.19068779
000020 80 a7 0a bc 3f f7 70 bd 20 d2 8e 3c 83 66 f1 bd
       -0.008462787 -0.058829542 0.01743418 -0.11787131
000030 38 65 54 be eb f2 fb bd 7c 8d 56 bd 66 ba eb bd
       -0.20741737 -0.12302192 -0.052381024 -0.11510162

encoder.layers.0.attention.w_k.weight f4 [16, 16]
000000 f5 be 04 3f 68 1f 04 bf 05 fa 02 be 14 02 aa 3e
       0.5185388 -0.5161042 -0.12790687 0.3320471
000010 2c 87 ec 3e 74 35 fc 3e ec 94 e9 be 41 be 07 3e
       0.46196878 0.49259531 -0.4562143 0.1325617
000020 3f f4 38 3e df 8e 84 be 51 ae 65 be c2 a6 b2 be
       0.18061922 -0.25890252 -0.22429778 -0.3489285
000030 d6 dd 14 3f 2f 31 ad 3e 92 fc 4e 3e 81 9e e0 be
       0.58150995 0.33826587 0.20213535 -0.4387093
000040 65 6a 94 be 20 b1 07 bf d9 b0 15 3f 84 46 a8 3d
       -0.28987423 -0.53004646 0.58472973 0.08216575
000050 fd 98 8b bd 51 f3 13 bc 79 a9 9f ba 5c c1 dd be
       -0.068162896 -0.009030179 -0.0012181244 -0.43311584
000060 ea 97 06 bf 61 68 02 3f 1c e8 17 be fc 5d c9 bd
       -0.5257555 0.5094052 -0.14834636 -0.09832379
000070 d5 58 00 bf 1f 72 d0 3e be f2 ea be 09 2f 7c 3e
       -0.50135547 0.40712067 -0.45888323 0.24627317
000080 b8 be 07 bf d7 af 80 be c9 e2 2a 3e 15 c6 04 bf
       -0.5302539 -0.25134155 0.16688074 -0.5186475
000090 a4 67 be 3e 6a fa 0d 3d 71 bc c8 be 7d 5c f8 3e
       0.37188447 0.03466264 -0.3920627 0.48508063
0000a0 52 a7 7b 3e c1 16 b6 be 4f 82 81 3e 84 31 0f 3f
       0.24575546 -0.35564235 0.2529473 0.5593493
0000b0 a7 31 d9 3e 02 d6 46 3d 50 f7 c9 3e 1b 3c 0f 3f
       0.42420694 0.048543938 0.39446497 0.5595109
0000c0 db 2c 72 3e 9b b2 cd bd 7c bd 72 3e 5d 88 d6 3e
       0.23649924 -0.10043832 0.23705095 0.41900912
0000d0 fd 5f fb 3e 51 91 11 be 15 72 85 3e b4 85 66 3e
       0.4909667 -0.1421559 0.260636 0.22511941
0000e0 50 7c f3 bd 67 d5 b9 be bf 2a 1c bc 24 b7 eb 3e
       -0.11888945 -0.36295626 -0.009531676 0.46038163
0000f0 5f 3e 5d be 8f c1 0c bf 74 b9 e6 3e 59 80 e6 be
       -0.21605824 -0.54982847 0.45063365 -0.45019796
000100 a4 7d 06 be a1 87 f8 be 9d e6 ce 3e 00 da 39 3d
       -0.13133866 -0.48540977 0.4041032 0.045373917
000110 44 10 46 3e 55 56 84 be 3f 17 aa 3e 23 02 0a bf
       0.19342142 -0.25847116 0.3322086 -0.5390951
000120 44 44 15 bf 21 d3 9f be 67 bf 0e bf a6 a1 3c 3e
       -0.5830729 -0.31215766 -0.55760807 0.18421039
000130 6c 9d 25 be c9 bd d0 bd 67 c2 f6 be 21 c2 8d be
       -0.16173333 -0.10192449 -0.48195192 -0.2768717
000140 fc 15 7a 3d 51 e9 2c 3e 7c f4 ea be 6d 63 c1 be
       0.061056122 0.16885878 -0.45889652 -0.37771168
000150 68 a4 f4 be 31 87 0a bd ad 6c 10 3f 55 04 15 bf
       -0.47781682 -0.033820335 0.56415826 -0.58209735
000160 db f1 d2 bd 88 80 78 be b4 66 53 bd 73 02 1e bf
       -0.103000365 -0.24267781 -0.051611617 -0.6172249
000170 ff 4a b4 be f6 6a 10 be f1 07 a6 be 9e c5 55 3d
       -0.35213467 -0.14103302 -0.32427934 0.052190416
000180 4a 29 97 be ba 60 e1 be 8f 0b a7 bd 70 4f 6c 3e
       -0.2952369 -0.4401911 -0.081565015 0.23077178
000190 bc 1c 0b bf 1c 77 b1 3e 8e ba 53 3e 4d b5 af be
       -0.5434072 0.34661186 0.20676634 -0.3431801
0001a0 f3 96 1e 3e d0 78 01 3e ed 93 cd be e0 58 dd 3d
       0.1548727 0.12643743 -0.4015192 0.10807967
0001b0 39 84 a9 3e 5c cc cb be 73 9e ee 3d 4c 25 1d 3e
       0.3310869 -0.3980435 0.116513155 0.15346259
0001c0 b5 56 83 bc 42 f3 04 be 2e b5 99 be 69 5c 39 be
       -0.016032556 -0.1298342 -0.30021042 -0.18101658
0001d0 35 2b 91 3c 04 cf bd bd 9a 39 7c be b7 f6 c5 3e
       0.017720798 -0.09268001 -0.24631348 0.3866479
0001e0 d5 c0 07 bf 86 37 a4 bc 05 b2 b4 be ca 98 fd bc
       -0.53028613 -0.020046007 -0.35292068 -0.030956645
0001f0 d8 c5 9b be fc 7a 06 bf b4 d9 30 be 27 f4 33 3e
       -0.3042438 -0.5253141 -0.17270547 0.17573605
000200 b3 a6 0d 3f 4e f6 92 be 69 4a ee 3e 21 33 dc 3e
       0.5533249 -0.2870354 0.46541145 0.43007758
000210 03 a9 18 3f 1f 28 04 bf e9 74 e4 be 01 58 b5 bd
       0.5963289 -0.5162372 -0.44620445 -0.08854676
000220 1d bc 6b bc e0 d3 8c 3d db 5c 59 3e a3 7d d2 be
       -0.014388111 0.068763494 0.21226828 -0.41111478
000230 ad 5e 27 bd 50 cc 97 be 2e 3d 69 3e 96 64 05 3f
       -0.040861774 -0.29648066 0.22777244 0.52106607
000240 69 8c aa bc fe cb 03 3f 04 c3 48 be 47 64 c1 bd
       -0.020818906 0.5148314 -0.19605643 -0.094429545
000250 b2 6f d8 3e 04 11 10 bf d0 47 b0 be 5f 70 d1 be
       0.42272717 -0.56275964 -0.3442979 -0.40906045
000260 6f 1e d1 be 2f 9b a2 3e fb a3 ee 3e 48 5b 04 3f
       -0.4084353 0.3175902 0.46609482 0.51701784
000270 15 29 eb be 54 ac 94 be e5 6c f7 be 46 80 a9 3e
       -0.4592978 -0.29037726 -0.48325267 0.33105677
000280 d7 80 f8 be f3 89 77 be 2c be 0b 3f 0d 58 d7 bd
       -0.48535797 -0.24173717 0.54587054 -0.10514841
000290 66 91 dd 3e b1 48 a6 bd c0 16 d1 be 0b 7c 13 3d
       0.43274993 -0.081193335 -0.4083767 0.03600697
0002a0 cb 34 cf 3e e9 37 1e 3f 19 e3 a2 3e 58 45 c7 3d
       0.40469965 0.6180406 0.31813887 0.09730023
0002b0 29 ca fb 3e 13 31 28 be c5 b9 f1 be e6 3f f8 3e
       0.49177673 -0.1642497 -0.47212043 0.4848625
0002c0 05 fd c7 3e 9d 58 0a bf 3c a7 82 be fd 9c 63 3e
       0.39060226 -0.54041463 -0.25518215 0.22227855
0002d0 81 dc f0 3e 40 ee 6a 3e cc 38 5e 3e 25 4a d5 3e
       0.4704323 0.22942448 0.21701354 0.4165813
0002e0 a8 34 ff be 35 73 cf bd 92 32 e1 3e 2f 16 0e bf
       -0.4984486 -0.10129396 0.43983895 -0.555026
0002f0 8b a9 d8 be c7 d7 18 bf 09 4d 9d 3d 84 1d 67 3e
       -0.4231685 -0.5970425 0.07680709 0.22569853
000300 11 67 83 be 23 57 8a 3e 86 38 62 3e 97 ff 21 3e
       -0.2566457 0.27019605 0.22091874 0.15820156
000310 7a 02 00 bf 26 dc b9 be 55 4e a0 3e 78 e6 d1 bb
       -0.5000378 -0.36300772 0.31309763 -0.006405648
000320 aa 4e 0d 3f 95 0e 12 bf db 96 cb be 72 03 f9 be
       0.55198157 -0.570535 -0.3976353 -0.4863544
000330 e5 91 a6 be 28 80 a0 be ae ab cb be 91 39 99 be
       -0.32533184 -0.31347775 -0.3977942 -0.29926732
000340 ad bf a8 be c3 e4 4e bd c8 dc 42 3e 49 6c 81 3e
       -0.32958737 -0.050511133 0.19029534 0.25277928
000350 51 93 45 be 09 4f fc be c0 5b 87 3e 59 9f a3 3c
       -0.19294478 -0.4927905 0.26437187 0.019973444
000360 e4 ec bc be 1a cd ca 3e aa 3e 35 be f1 d5 70 be
       -0.36899483 0.39609605 -0.17699686 -0.23519112
000370 f6 17 2e be 86 f0 ef 3d 31 e6 a4 3e 48 da d8 be
       -0.17001328 0.11715798 0.32206872 -0.42354035
000380 b4 c7 09 3f 34 b1 22 3e 98 9d 1c 3d fa dd bb 3c
       0.5382035 0.1588791 0.03823623 0.022932995
000390 f5 f0 bc 3e 14 72 6e 3e 87 b5 af 3e d7 65 43 be
       0.36902586 0.23285705 0.34318182 -0.19081818
0003a0 74 51 e4 be 65 cc ac 3e 7f 44 e5 3e fe fb 3b be
       -0.44593394 0.3374969 0.4477882 -0.18357846
0003b0 6c 7b ff 3e d8 58 8e 3e cb 93 2a 3e cd 60 cf 3d
       0.4989885 0.27802157 0.16657941 0.10125885
0003c0 0e 5b 9e bd 58 b4 d1 3e e1 12 c2 be 2c 48 ac bd
       -0.07732211 0.40957904 -0.37905028 -0.08412203
0003d0 88 30 13 be b5 36 0c bf 20 a4 9a 3e f1 12 0c 3d
       -0.14373982 -0.54770976 0.30203342 0.03419775
0003e0 45 28 f2 3e e4 ef e4 3d 60 92 36 3e 81 ae fb be
       0.47296348 0.11178568 0.17829275 -0.49156573
0003f0 41 73 b4 be 21 2d c0 be 67 9f 6b be a8 5d 32 bc
       -0.35244182 -0.3753443 -0.23010026 -0.010886587

encoder.layers.0.attention.w_k.bias f4 [16]
000000 80 98 00 b5 29 83 c9 b4 12 60 ac 34 03 22 39 b5
       -4.790563e-07 -3.75346e-07 3.2107397e-07 -6.8967364e-07
000010 93 dc 64 34 72 47 87 34 be e0 64 b4 ff 8e 8f b3
       2.1314399e-07 2.5197693e-07 -2.1315915e-07 -6.684967e-08
000020 22 d0 e6 32 fc bb fc b3 8b 86 43 b4 9f 0a 2d 33
       2.6870172e-08 -1.17688586e-07 -1.8209737e-07 4.028936e-08
000030 8f d9 46 b5 05 76 ac b4 26 55 11 b5 74 50 e9 b4
       -7.407734e-07 -3.2123367e-07 -5.4140617e-07 -4.345817e-07

encoder.layers.0.attention.w_v.weight f4 [16, 16]
000000 4b f8 eb 3e 49 af 8d be 41 ee 08 3f e6 fb e5 3e
       0.4608787 -0.27672794 0.53488547 0.44918746
000010 7c 85 01 bf 62 9d fd be 54 9f 11 3f 80 a7 80 be
       -0.50594306 -0.49534136 0.5688374 -0.25127792
000020 b9 94 d9 be d7 4f c4 3e 53 fe 05 be 71 bb aa 3d
       -0.4249628 0.38342163 -0.13085298 0.08336533
000030 e9 cc 94 3e 96 50 2c bd c3 35 a1 3b e8 5b 42 bc
       0.29062584 -0.04206904 0.004919739 -0.0118627325
000040 1e 28 0f bf b3 4d 1d be 35 bd 12 bf f6 80 d9 be
       -0.5592059 -0.15361671 -0.57319957 -0.42481202
000050 a4 1d 49 3e 82 fd 4c 3e 67 62 f1 3e 5b ea 94 be
       0.19640213 0.2001858 0.47145388 -0.2908505
000060 78 70 51 be cb 2f eb be 3c a4 d8 be 6a 0b 23 be
       -0.2045306 -0.459349 -0.423128 -0.15922323
000070 a5 d7 00 bf 19 7f 8d 3e c3 fa d1 be 8e c9 15 3f
       -0.5032905 0.2763603 -0.41011629 0.58510673
000080 49 f6 b2 be 21 05 a2 3d b2 2e 0d bd 9e 7b dc 3e
       -0.34953526 0.079111345 -0.03446836 0.43063062
000090 b5 97 73 be 63 3c c7 3e ff 05 c6 be 83 b2 13 3f
       -0.2378834 0.3891326 -0.3867645 0.5769426
0000a0 03 6f b8 be 6d de b7 3e 44 7f 18 3c d4 9b 13 3f
       -0.36022195 0.35911885 0.009307686 0.5765965
0000b0 47 9c 7d 3e 2e 3a 12 bf 93 bf 8a 3e e0 de 5a 3e
       0.24766646 -0.57120025 0.27099285 0.21374083
0000c0 b5 be 18 bf 21 06 d4 be 33 72 14 3f 78 49 3d 3e
       -0.59665996 -0.41410926 0.57986754 0.18485057
0000d0 15 76 b9 3e 3a 2f 75 3e 54 d6 f6 be df f7 6d be
       0.36222902 0.23943797 -0.48210394 -0.23239087
0000e0 86 82 0a 3f 9e 2a 83 be db bc fb be 99 c7 d5 3e
       0.5410541 -0.25618452 -0.49167523 0.41753843
0000f0 f0 b8 69 be a0 b5 3c be d1 a6 f3 3e e4 2a 0a 3e
       -0.22824454 -0.1842866 0.47588208 0.13492924
000100 90 b3 e8 3d 6f 30 ad 3d 22 1b 2e 3e 2d 27 43 3e
       0.11362374 0.084565036 0.17002538 0.19057913
000110 a4 08 09 3e 6f ee a0 3e 3d 55 bd be 88 49 14 bd
       0.13382202 0.3143191 -0.36979094 -0.036202937
000120 98 65 07 3f 73 b6 f0 3e 64 34 cc bd 96 ac ea 3e
       0.52889395 0.47014198 -0.0997093 0.45834798
000130 e1 78 28 bc 22 28 b8 3d 88 c1 48 3e 35 63 24 bd
       -0.010282726 0.0899203 0.19605076 -0.040133674
000140 7d 92 f2 be 89 50 3f 3e f6 13 a7 3e 4e 24 9d 3e
       -0.47377387 0.18683065 0.32632416 0.3069176
000150 d8 11 98 be 7e 7f 45 3e 73 3d 07 3f f2 bc c6 3e
       -0.29701114 0.19286916 0.5282814 0.3881603
000160 5c 27 93 3e 77 63 2d 3e bd a4 15 bf 0c 39 60 3e
       0.28740966 0.16932474 -0.58454496 0.21896762
000170 03 d2 03 bf a0 0f 1b 3f 86 2b fa 3e 4e 56 b8 3e
       -0.5149233 0.60570717 0.4886133 0.36003345
000180 a1 c8 ba 3d 82 01 de 3e 49 67 a5 3e 8e 84 53 3e
       0.09120298 0.43360525 0.32305363 0.20656034
000190 44 66 7c bd 21 69 0b 3f 16 4c ac 3e 4a c4 08 3f
       -0.061620966 0.5445729 0.336518 0.53424513
0001a0 1d ab 94 3d 7d 66 16 bf 86 c8 d0 be b1 c8 16 3f
       0.072592 -0.58750135 -0.40777987 0.5889998
0001b0 22 95 06 3f 1a b8 d3 bd ce 51 41 be 88 6a 85 be
       0.5257131 -0.10337849 -0.18878862 -0.2605784
0001c0 3f 0e 6f be 65 5e fc be bf 69 c4 be 89 f5 9a 3e
       -0.23345278 -0.49290767 -0.38361928 0.30265453
0001d0 e8 ed 7d bd a8 3d f5 3e 94 80 05 3f a0 af 0f bd
       -0.061994463 0.47898602 0.5214932 -0.0350796
0001e0 9f 54 a3 3e d4 79 c9 3e 3e ff 1e 3e cd 50 1e 3d
       0.31900498 0.3935076 0.15527055 0.038651276
0001f0 ad c8 a4 be ba 54 38 bd 23 a9 b1 be 5a 80 ad 3e
       -0.32184353 -0.045002677 -0.34699354 0.33886987
000200 7a 27 4b be 48 36 66 3e a2 ac c0 3e 7d 5e 04 be
       -0.19839278 0.22481644 0.37631708 -0.1292667
000210 ad fd 08 bd 59 e9 0b 3f 13 91 b1 3e 2c e2 3d 3e
       -0.03344505 0.54652935 0.34680995 0.18543309
000220 ef 62 20 3e 25 93 06 3f e0 e7 8b be 11 0c d1 3e
       0.1566274 0.52568275 -0.27325344 0.40829518
000230 77 70 0b bf d9 14 b4 3e 6c d6 2c 3e 9c 77 e6 3e
       -0.5446848 0.35172155 0.1687867 0.4501313
000240 fa c7 43 3e 0b 02 f3 be 75 83 5e 3e 6c fc 82 be
       0.19119254 -0.47462496 0.21729834 -0.25583208
000250 6a 35 1f bf 5c fc 76 be 3e c7 aa 3e f5 22 b6 be
       -0.6219088 -0.24119705 0.33355135 -0.35573545
000260 69 85 e1 3d 24 e1 78 be 31 be ed be c4 f4 df 3d
       0.11011774 -0.24304634 -0.46434167 0.10935357
000270 fc 9d 96 3e e1 8f 25 3e 78 59 e7 be 0d e7 0a bf
       0.29417408 0.16168167 -0.45185447 -0.54258806
000280 e7 bd 2d be 1e 80 52 3e 72 7c b0 39 ee 6c c4 be
       -0.16966973 0.20556685 0.00033662055 -0.38364357
000290 b3 de de 3e 5d e6 ee be ca a7 15 3f 67 32 7b 3e
       0.4352928 -0.46660128 0.5845915 0.24530946
0002a0 13 bf 67 3e 39 ba 9e 3e b0 9d 09 3f 4e 26 18 bf
       0.22631483 0.31001452 0.5375624 -0.5943345
0002b0 a3 7f c3 be 38 a0 c8 be 77 69 c6 3e 75 6a 51 3e
       -0.38183317 -0.39184737 0.38752338 0.20450766
0002c0 da 0f 8f 3e 54 c6 03 3f 90 03 fa be 95 de a1 be
       0.2794178 0.514745 -0.48830843 -0.3161513
0002d0 93 d9 bc be f0 97 b2 3e a9 a6 a5 bd 16 ea c6 3d
       -0.36884746 0.34881544 -0.080884285 0.09712617
0002e0 73 55 88 3c 59 30 be be 3e 39 32 3e 30 3d 7b 3e
       0.016642308 -0.3714626 0.17404649 0.2453506
0002f0 f8 66 0f be 4a af ad be 9d a9 46 3e 5a d3 3c be
       -0.14004123 -0.33922797 0.1940064 -0.18439999
000300 1e e3 26 be 48 bf fd 3d b0 00 e4 be 4c 5e 48 3e
       -0.16297576 0.1239 -0.44531775 0.19567221
000310 bb e7 4c be 9c 37 0d 3f 08 24 89 be 82 f9 af 3e
       -0.20010273 0.5516298 -0.26785302 0.34370047
000320 be 46 14 3f b0 51 9f 3e 98 4c 8b bc cd 7b 15 3f
       0.57920444 0.3111701 -0.017004296 0.5839203
000330 5b ea b4 3d ac 54 f5 be 6f a0 95 3e b9 0f 28 bd
       0.08833762 -0.47916162 0.29223964 -0.04103062
000340 e2 bd 1b 3f a7 cd cd 3e 76 04 19 3f 7a b2 d6 3e
       0.60836613 0.40195963 0.5977243 0.41933042
000350 66 41 07 be 49 05 87 3e 18 d0 e1 3e 5e 4a 6d 3e
       -0.13208541 0.2637122 0.44104075 0.231729
000360 e2 42 95 bd d6 be a0 bd e7 f4 76 be 56 a9 9f be
       -0.072881475 -0.07848899 -0.2411686 -0.3118388
000370 75 62 8f be 7e 9e 1a 3f 72 8e b0 be e7 4b 1a 3f
       -0.28004804 0.6039809 -0.34483677 0.6027207
000380 38 60 fc be 5a 1e b2 3c c7 9a a1 be 93 3b 76 be
       -0.4929216 0.021742988 -0.31563398 -0.24046163
000390 b9 63 c0 3e b7 01 91 3e 36 02 f1 3e db 9d 91 3e
       0.37576082 0.2832162 0.47072 0.28440747
0003a0 7a 33 d0 be ed 68 dd 3e 97 3f 07 3f d8 3f a9 be
       -0.40664274 0.43244115 0.52831405 -0.3305652
0003b0 16 59 dc be 70 47 c1 3e fd e9 b4 be b9 f2 e7 3e
       -0.43036717 0.37749815 -0.3533477 0.4530237
0003c0 83 84 73 be 5a 7e 02 3f 7b 11 bd 3d 8d b8 0e bf
       -0.23781018 0.5097405 0.0923185 -0.5575035
0003d0 46 05 f9 3e 5b d4 4b 3e d5 9b 11 be 67 62 79 3e
       0.48636836 0.19905226 -0.14219601 0.24353944
0003e0 9d 85 0f 3c d5 15 e4 be 61 83 0f bf e5 9a 0d bf
       0.008759883 -0.44547907 -0.56059843 -0.55314475
0003f0 04 66 d5 3e bd 92 eb 3e a7 0f 86 3e 80 22 06 3f
       0.41679394 0.4601039 0.26183817 0.5239639

encoder.layers.0.attention.w_v.bias f4 [16]
000000 1b b3 92 bc 9b 42 7f be 48 82 ab 3d 19 d6 0f be
       -0.01790767 -0.24927752 0.083744586 -0.14046516
000010 2a 47 68 3e 16 fe 28 3e 48 ba b0 bd 07 72 01 be
       0.22683397 0.16503176 -0.0862928 -0.12641154
000020 00 a5 b4 bd 38 53 3a be 22 85 ff 3c 2c 23 13 be
       -0.08820534 -0.18195808 0.031191412 -0.14368886
000030 3e 80 b3 bd 82 3c 15 3e df b5 cd 3d f8 03 d7 3d
       -0.08764695 0.14573863 0.10044455 0.10498804

encoder.layers.0.attention.w_concat.weight f4 [16, 16]
000000 d6 f8 be 3d 97 42 85 3e 02 e1 db be a0 97 c6 3e
       0.093248054 0.26027367 -0.42945105 0.38787556
000010 e9 62 c6 bd 77 9a b2 3e eb f3 d6 bd e3 08 39 bd
       -0.09686834 0.34883472 -0.104957424 -0.04517449
000020 d4 68 18 bf 01 ac bb be 10 1a b7 be f1 44 d2 3e
       -0.59534955 -0.36654666 -0.35762072 0.41068223
000030 cc 45 37 be 1a e6 ee be 80 b1 e2 be cf a6 a4 be
       -0.17897719 -0.4665993 -0.44276047 -0.32158515
000040 f8 d5 72 3e c4 60 f8 3d be 2a fe be 50 f8 8f be
       0.23714435 0.121278316 -0.49641985 -0.28119135
000050 0b 68 d6 be 00 9f 85 3d 57 5f 18 bf 15 bf f7 3e
       -0.41876253 0.065244675 -0.5952048 0.48387972
000060 71 3c 3c be e2 c6 6b be 99 78 d3 be 25 77 11 bf
       -0.18382432 -0.23025087 -0.41302946 -0.56822425
000070 56 b6 1b 3f 40 9f b4 3e 6e ca 18 3f a2 87 c8 3e
       0.608251 0.35277748 0.59683883 0.3916598
000080 bc fc b3 be bf e3 09 bf c0 67 db be d9 2a 56 be
       -0.3515376 -0.5386314 -0.42852592 -0.20914783
000090 15 56 ef be 97 1f eb 3e db 2f bd 3e 9f 2e 84 be
       -0.46745363 0.4592254 0.36950573 -0.2581682
0000a0 a2 0f 82 be 6b a7 c9 be 44 6b 13 bf 2e 52 0e bf
       -0.25402552 -0.39385542 -0.5758555 -0.55594146
0000b0 87 7c 23 be 15 49 fa be 95 68 0a bf f3 a0 fb 3b
       -0.15965472 -0.48883882 -0.5406583 0.0076790988
0000c0 54 8b bb bd 07 d0 c5 be 7b de 7a be 98 ff 97 3e
       -0.09157434 -0.38635275 -0.24498932 0.2968719
0000d0 fd 04 90 bd 06 27 42 be 03 d2 c5 3e 70 4c 54 3e
       -0.070322014 -0.18960199 0.3863679 0.20732284
0000e0 14 d3 50 be e4 33 14 3f 83 6d 94 3e 38 66 da be
       -0.2039302 0.5789168 0.289898 -0.42656112
0000f0 93 d6 ea 3d 87 4f 05 3f 3d 53 8f be 84 f7 8e bd
       0.11466708 0.52074474 -0.27993193 -0.069808036
000100 d2 b2 07 bf bb 9b a5 3e b3 4e 5a 3e 79 a5 0b bf
       -0.53007233 0.32345375 0.21319084 -0.54549366
000110 7e 0f 9d be f6 7e f7 3e c0 fd ad be 82 c6 cd be
       -0.30675882 0.4833905 -0.33982658 -0.40190512
000120 86 cf f7 3e f7 21 51 be 11 93 0c 3f 85 4b 02 3e
       0.48400515 -0.20423113 0.54911906 0.12724121
000130 65 68 ae 3e 54 4c 07 3f 9c ca b4 bd ba aa 15 3e
       0.34064022 0.5285084 -0.08827707 0.14615908
000140 b9 c5 d7 be 4b f9 04 bf 00 6f cb be 00 67 35 be
       -0.42143038 -0.5194289 -0.39733124 -0.17715073
000150 6d 6e 0c be 21 29 e7 3e 7d b6 89 be 45 0f 6d 3e
       -0.13713999 0.45148566 -0.2689704 0.23150356
000160 14 14 14 bf 6f 8a 9f be da 70 0a be b6 31 05 3f
       -0.57843137 -0.31160304 -0.13519612 0.5202898
000170 54 fc 87 3e da ee 7e 3e 38 5b 17 bf 40 7b d8 3e
       0.265597 0.24895802 -0.59123564 0.42281532
000180 0c 9b 5b 3e 8a e6 bb 3d d5 08 29 be 16 3f 25 3d
       0.21445864 0.09174831 -0.16507275 0.040343367
000190 22 39 92 3e 0b 9e a1 3e ec 53 05 bc 02 48 11 3f
       0.28559214 0.3156589 -0.008137684 0.567505
0001a0 3c b8 1b bf 52 5e 8a be b8 34 22 be 39 07 ef 3e
       -0.60827994 -0.27025086 -0.15840423 0.46685198
0001b0 e7 a8 bd 3d 33 f9 dd be 32 07 f1 be df 1f b4 bd
       0.09260731 -0.43354186 -0.47075802 -0.087951414
0001c0 04 50 0c bf 7d 8b 41 be 55 f1 d2 3e 4c b4 18 bf
       -0.54809594 -0.18900867 0.41199747 -0.5965011
0001d0 12 b9 72 3e 0b a6 10 bf db 7e c1 3e 67 cd 13 bf
       0.23703411 -0.5650336 0.37792096 -0.57735294
0001e0 3b c4 21 be 70 88 70 be c1 9b 15 bf 03 96 60 be
       -0.15797512 -0.23489547 -0.58440787 -0.21932225
0001f0 cd aa 8c 3c a3 79 7b 3e 34 48 9d 3d 25 89 ee 3e
       0.017171288 0.2455812 0.07679787 0.46589008
000200 5c 53 ef 3e 41 9a 30 be ef bc c6 3d 99 78 f0 bd
       0.46743286 -0.17246343 0.09704005 -0.11741752
000210 5e 68 af be 6f c3 13 be 8b 5b cf 3e f4 a7 84 be
       -0.34259313 -0.14430021 0.4049953 -0.25909388
000220 b6 11 b3 bd 10 9a 30 3d 9a ab 9e be cf f0 b1 be
       -0.087436125 0.043115675 -0.30990297 -0.34754035
000230 f7 39 84 bd e1 f4 00 3f 1f c6 dc be a1 16 ec be
       -0.064563684 0.50373656 -0.43119904 -0.46111014
000240 a9 24 fa be 66 d7 9c 3e da 8f 9c be ff 0d 9e 3d
       -0.48856094 0.30633086 -0.305785 0.07717513
000250 4d 9b 25 3e 6b d0 be be a0 f2 b5 3e d0 51 85 be
       0.16172524 -0.37268385 0.3553667 -0.2603898
000260 41 ab b7 3c 83 9e 0d be 16 0e 73 3e 6f b7 c8 3e
       0.022420527 -0.13829999 0.23735842 0.3920245
000270 95 56 89 3e 5e 12 e7 be 71 69 18 3f 39 b7 47 3e
       0.2682387 -0.451312 0.5953589 0.19503488
000280 e6 2e 6f 3d fe 52 03 bf e8 df 4c bd 46 c2 e4 bd
       0.058394335 -0.5129851 -0.05001822 -0.11169867
000290 70 09 fe be ff b7 9f be ee e2 e3 3e 0f b0 d8 3e
       -0.49616575 -0.31195065 0.4450907 0.42321822
0002a0 24 84 c0 be ab c9 85 3e 8c 00 eb 3e 0f 20 4a 3e
       -0.37600815 0.26130423 0.45898855 0.19738792
0002b0 b9 1c de be 93 4e 09 bf 56 81 42 be 53 cb 11 bf
       -0.4338129 -0.5363552 -0.1899465 -0.56950873
0002c0 a7 89 ea 3e ba 4d 06 bf 42 96 18 3f e2 ab 65 be
       0.45808145 -0.5246235 0.59604275 -0.2242885
0002d0 94 ff a6 be 99 f2 a0 3c 87 b7 0b 3f 3e ee b6 be
       -0.32616866 0.01964693 0.54576916 -0.3572864
0002e0 36 45 09 be eb e4 b6 3e d2 97 52 3e 08 b1 09 3f
       -0.13405308 0.35721526 0.20565727 0.53785753
0002f0 ac 2d ef be 6c 06 85 bd ee e5 fb 3e 88 90 8e be
       -0.46714532 -0.064953655 0.4919886 -0.27844644
000300 ca e7 ca 3e 21 32 c0 be db 63 1a 3f 2a 34 86 be
       0.39629966 -0.37538245 0.6030862 -0.26211673
000310 33 28 48 3e a5 44 8a bc 3b 25 de be 57 2c 98 be
       0.19546585 -0.016878435 -0.4338778 -0.2972133
000320 be 34 2b 3e 60 ae 1e be 1f 23 09 3f 9e 8c 16 bd
       0.16719338 -0.15496206 0.53569216 -0.036755197
000330 27 73 ab be 32 cc 8a be 0b bb 6f bd c3 bb f9 3e
       -0.33486292 -0.27108914 -0.058527987 0.48776063
000340 5b 43 10 be 29 9e f7 bc 04 d4 05 be bd be 04 3f
       -0.14088194 -0.030226784 -0.13069159 0.51853544
000350 46 7a e6 bd 97 96 f1 be 56 b3 04 3f ff 3a 08 bf
       -0.112537906 -0.47185203 0.51836145 -0.5321502
000360 33 84 57 b9 91 f8 92 3e 7a 89 2c bd 1e 1f a5 3d
       -0.00020553246 0.28705266 -0.042123295 0.08062576
000370 79 f8 2a 3e db fc 5f be 59 4f 26 be fd dd fc 3d
       0.16696347 -0.218738 -0.16241206 0.123470284
000380 e6 37 98 be 83 72 e5 3e a7 0f 67 be 30 57 cc 3e
       -0.29730147 0.44813928 -0.22564565 0.3991027
000390 bc 5d d2 3e 45 70 54 3e d7 ed 58 3e be 76 11 bf
       0.4108714 0.20745952 0.21184479 -0.5682181
0003a0 6d 9d 03 bf b0 e2 89 3d e5 74 ce bd 61 2c 53 3e
       -0.5141209 0.0673269 -0.100808896 0.20622398
0003b0 64 e0 81 3e f6 74 f6 bd 53 14 ae be 9a 58 b9 3e
       0.2536651 -0.12034027 -0.3399988 0.3620041
0003c0 11 41 98 3e 1b c0 83 3e c6 a5 db be 5d a7 27 3d
       0.29737142 0.25732502 -0.42899913 0.040931094
0003d0 48 04 a0 3e 3c 38 fa 3e c6 76 99 3e 19 a1 aa be
       0.31253266 0.48871028 0.2997343 -0.33326033
0003e0 3b 0e cd 3d 65 ed 03 bf 17 b2 91 be 49 71 ec be
       0.1001248 -0.5153411 -0.28456184 -0.4618018
0003f0 56 c8 b4 3e 79 38 ea be 24 ce 0b 3f c2 10 0b 3f
       0.35309094 -0.4574621 0.5461142 0.54322445

encoder.layers.0.attention.w_concat.bias f4 [16]
000000 7f 8d 84 3d ad 9d 36 be 10 19 1e 3e 99 07 82 3d
       0.06472301 -0.17833586 0.15439248 0.063491054
000010 8b aa 18 be 46 4c 2b be 46 a2 3b be d3 83 51 be
       -0.14908807 -0.16728315 -0.18323621 -0.20460443
000020 8a 9d 0e 3d d3 1d 3a bb 77 e1 bf 3d eb 38 64 be
       0.03481821 -0.0028399124 0.09369176 -0.22287337
000030 4b 9d 84 bd fc 48 ae bb 2e d9 3c be c0 5e 00 be
       -0.06475314 -0.005318759 -0.18442222 -0.12536144

encoder.layers.0.norm1.gamma f4 [16]
000000 5d 47 80 3f ce 0a 7f 3f f7 7f 79 3f c8 7c 7c 3f
       1.0021778 0.9962586 0.97460884 0.986279
000010 1d ab 81 3f 59 a1 79 3f de 0d 80 3f c6 b9 77 3f
       1.0130345 0.9751182 1.0004232 0.9676784
000020 65 a6 7c 3f cf a0 7b 3f 62 17 81 3f 7b 4e 7e 3f
       0.986914 0.9829225 1.0085261 0.993385
000030 25 7b 7f 3f 0f 74 7c 3f 11 42 80 3f 09 c1 80 3f
       0.9979728 0.9861459 1.0020162 1.005891

encoder.layers.0.norm1.beta f4 [16]
000000 f4 da 93 bb d2 5e 37 bb 8f 55 38 3c fe 2f 04 3b
       -0.004512185 -0.0027980101 0.0112508675 0.0020170207
000010 19 88 aa bb be ee 59 3b d2 f3 e8 ba 73 37 b8 3b
       -0.0052042124 0.0033253874 -0.001777286 0.0056218444
000020 1b 83 dd 3a 89 5b 7d 3b a4 05 69 3a 1a f3 00 3c
       0.0016900034 0.0038659296 0.0008889085 0.00787046
000030 9a aa a0 3b bc e7 1b 3c 5a e6 b8 ba 87 30 89 3c
       0.00490315 0.009515699 -0.0014106736 0.016746772

encoder.layers.0.ffn.linear1.weight f4 [64, 16]
000000 8f 1f 28 3d 6b 3f 37 be 5e b9 e1 bd 59 c8 8d bd
       0.04104572 -0.17895286 -0.11021684 -0.06922979
000010 bd b9 a9 be e5 d0 0b 3f 88 5b 10 bf 80 b6 86 3e
       -0.3314952 0.5461562 -0.56389666 0.2631111
000020 2c 63 b1 be 63 ce 00 bd 08 e3 19 bf e8 49 c9 be
       -0.34645975 -0.031446826 -0.6011205 -0.39314198
000030 60 c4 d2 be 77 ce c9 be 95 6f eb 3e bb a9 0d 3f
       -0.41165447 -0.39415333 0.45983568 0.55337113
000040 d2 3e b1 3c ae 9d b3 bd aa 56 66 3d 92 53 1c be
       0.0216364 -0.087703094 0.056234993 -0.15266255
000050 1b fc b2 3e 6f dc 79 3e 8b 5b d4 3b 19 2a 95 be
       0.34957966 0.24400495 0.0064806393 -0.2913368
000060 99 d2 ae be c2 16 a2 3e 39 50 9a 3e 2f ba 06 3e
       -0.34145048 0.31657988 0.3013933 0.13156961
000070 7b 04 ef 3e ef ba f7 3d 82 be 37 3e b9 d6 ba 3e
       0.46683106 0.12096202 0.17943767 0.36491945
000080 a4 2a 9a 3d 43 2a b6 be 44 6e 14 3f de 34 6f be
       0.07527664 -0.35579118 0.5798075 -0.23360011
000090 46 eb 13 3f d1 7c d9 3c 41 9c 52 3d 8c c0 b7 be
       0.57780874 0.026548775 0.051418547 -0.3588909
0000a0 ca 16 70 3e 6d 5e 47 3e 3a 0f a5 be 32 10 05 3f
       0.23446193 0.19469614 -0.3223818 0.5197784
0000b0 a7 56 f6 3e d1 2d 3c be 3c ac 05 be 59 3e ec be
       0.48112985 -0.18376853 -0.13053983 -0.46141317
0000c0 3d 9b e0 be 00 97 02 bf 48 a2 65 3e 8b 47 dd be
       -0.43868437 -0.5101166 0.22425187 -0.43218645
0000d0 f0 c1 80 3e 8e 27 a7 3e 5c 09 e1 be 20 15 a7 3e
       0.25147963 0.32647365 -0.43952453 0.32633305
0000e0 aa f5 df be ac 34 12 3f e1 37 c6 be 08 ac 3d bd
       -0.43742114 0.5711162 -0.38714507 -0.04630664
0000f0 a5 84 73 bb d8 57 9a 3e 9d 90 03 bf f7 bb ab 3e
       -0.003715792 0.30145144 -0.5139254 0.33541843
000100 92 89 4e 3e 1b 2a 25 be 40 81 05 bf d2 e8 69 3e
       0.20169666 -0.16129343 -0.52150345 0.2284272
000110 bb 17 89 3c 3d 04 03 bf 8b 08 b9 be a2 80 49 3e
       0.016734948 -0.5117834 -0.3613933 0.19677976
000120 42 f7 ac 3e a2 3c 14 3f ba c1 1b be f9 66 b1 3e
       0.33782393 0.5790502 -0.1521062 0.34648874
000130 ab fc 0b 3f 8d 8b 96 3e 39 03 05 3f a8 1b 8a be
       0.54682416 0.29403344 0.5195804 -0.26974225
000140 13 13 d5 bb e0 83 e8 be be 9e fd 3e e6 60 02 bf
       -0.006502518 -0.45413113 0.49535173 -0.50929105
000150 ba bb 3c 3e 70 99 c6 bd e8 3a 3e 3e 52 80 06 3f
       0.18430987 -0.09697235 0.18577158 0.5253955
000160 23 4f 4b be b6 dc ec be 54 06 02 3f 37 fe ea 3e
       -0.19854407 -0.4626214 0.50790906 0.45897076
000170 c3 ea 0e bf 27 a6 fa be c4 4b d9 be 7b e6 22 be
       -0.5582697 -0.4895489 -0.42440617 -0.15908234
000180 dc 87 30 be c1 cb 72 bd 64 56 12 3f cc 2f 6a 3e
       -0.17239326 -0.059276346 0.5716307 0.22869796
000190 68 9b d8 3d 48 d0 07 3f 02 11 87 be 28 fd b8 3b
       0.105765164 0.53052187 -0.26380163 0.005645413
0001a0 fc a9 e8 3e 78 13 b4 be 48 b4 9a 3e 7f 02 c6 3e
       0.45442188 -0.35171103 0.3021567 0.3867378
0001b0 c1 ba 0f bf 99 0b a1 3d 73 3c 70 be dc bf ef 3e
       -0.5614434 0.0786354 -0.2346056 0.46826065
0001c0 bd 67 60 3d 22 e9 ec 3e d3 3f d4 bd 29 a3 b8 3e
       0.054786433 0.46271616 -0.10363736 0.3606198
0001d0 ac dd c8 be 97 d4 6e 3e a4 71 4c 3e 86 98 fa 3d
       -0.39231622 0.23323284 0.19965225 0.12236123
0001e0 a9 7f 4b be e9 10 ec 3e 97 ea 39 3e f3 9a eb be
       -0.19872917 0.4610665 0.18155895 -0.46016654
0001f0 5a 99 52 be 06 c2 d3 3e cc 65 81 3d 0c d2 f3 be
       -0.20566311 0.41358966 0.06318244 -0.4762119
000200 c1 0c 4f 3d fb 90 6d bc 9d 84 86 be 30 87 37 be
       0.050549272 -0.014499898 -0.2627305 -0.17922664
000210 2d 47 fd be 2e ab cd 3e 63 55 f7 3e 03 3d 02 bf
       -0.49468365 0.40169662 0.48307332 -0.50874346
000220 47 68 83 be db 3d 09 bf b0 18 cb 3e b6 26 18 3f
       -0.25665495 -0.5361001 0.39667273 0.5943407
000230 41 07 09 3f 04 06 8a 3e 31 94 12 3e 01 58 23 3e
       0.53526694 0.26957715 0.14314343 0.1595154
000240 ca 60 8d 3e 9f 3d b3 bd 10 e7 07 bf 3a 78 6d be
       0.27612907 -0.08751988 -0.5308695 -0.23190394
000250 79 2d 01 be 20 83 0f 3f 6b ce 85 3d 5f 6c a4 3d
       -0.12615003 0.56059456 0.06533512 0.08028483
000260 45 9a f7 be 35 88 b3 be 46 41 58 3e cf 67 da be
       -0.48359886 -0.35064855 0.2111865 -0.42657325
000270 9b e1 d5 be 7d 1a 02 3f 6d 28 9e bd cb 19 de 3e
       -0.41773686 0.5082167 -0.07722554 0.43379053
000280 c3 8a 0e bf 05 a1 0e be 57 20 c1 bd 3c 6b 75 3e
       -0.55680484 -0.13928612 -0.094299965 0.23966688
000290 35 c1 06 bf 4a 02 2e 3d 85 1d 7d be 66 4b a9 3e
       -0.5263856 0.04248265 -0.24718292 0.33065337
0002a0 b4 24 13 3f 29 bb bd 3e 22 62 12 3f bf ac f2 be
       0.5747788 0.37056854 0.5718099 -0.4739742
0002b0 c2 48 db be 8a de 59 bd ab ad 0b 3f 76 98 df bd
       -0.42828947 -0.053190745 0.5456187 -0.109177515
0002c0 4c 7f dc 3e 46 03 ef be c3 2e e5 3b 3b 0b 13 bf
       0.4306587 -0.46682185 0.0069941 -0.5743901
0002d0 e8 9c f9 3e 11 22 c2 3e c7 f1 fd bd b5 98 10 bf
       0.48752522 0.37916616 -0.12399631 -0.5648301
0002e0 24 b7 04 3f da 88 c5 be 4a 95 cb bd 47 17 d6 3d
       0.5184195 -0.38580972 -0.09940584 0.104536586
0002f0 28 1d 67 3e c4 3d 47 3e e6 c3 1d be e5 0f de 3e
       0.22569716 0.19457155 -0.1540676 0.43371502
000300 ce 83 ea be 5b df e6 be f1 a9 45 3e e0 99 c8 3e
       -0.45803684 -0.45092282 0.19303109 0.39179897
000310 00 d6 45 3e fc e7 c3 3e 24 d2 54 3e b7 e4 10 bf
       0.19319916 0.38262928 0.20783287 -0.5659899
000320 4b ac 87 3e f2 70 ec bd fb ac 97 3d 18 2a 0b bd
       0.26498637 -0.1154498 0.0740604 -0.03397569
000330 a0 5b c9 be 60 e1 90 be d4 bc 3a be 5b 04 a1 be
       -0.39327717 -0.28296947 -0.18236095 -0.31448635
000340 f5 56 3e be d9 88 07 bf c5 7a 65 3e 3c c9 e4 3e
       -0.18587859 -0.5294319 0.22410114 0.4468478
000350 e5 b9 74 be d9 cd 0b 3e 71 16 78 be 10 07 0f bf
       -0.23899038 0.13652743 -0.2422731 -0.5587015
000360 48 91 fb be 55 c8 d9 3e ce 16 90 be ec d7 7c 3c
       -0.49134278 0.42535654 -0.281424 0.015432339
000370 b0 32 23 3e be 35 98 be 8b 05 ab 3e 59 3d d8 be
       0.15937304 -0.29728502 0.33402666 -0.42234305
000380 c3 7b 06 bf aa 1c 81 3e e8 41 bf be e8 b8 26 3e
       -0.52532595 0.2521718 -0.3735497 0.16281474
000390 2e 03 14 bd df 62 c5 be e6 ea 73 3e 44 97 b1 3d
       -0.036135845 -0.38551995 0.23820075 0.0867143
0003a0 d5 bc 3b 3c c9 dd f1 3d 66 37 1f be fa 0b 05 bb
       0.011458595 0.1180988 -0.15548477 -0.0020301328
0003b0 a4 cd de be 24 c3 b9 be b2 11 da 3e f1 49 79 3d
       -0.43516266 -0.36281693 0.42591625 0.06086153
0003c0 cf 82 80 3e 31 69 a5 3d e6 f0 10 3d ec 8f 20 be
       0.250998 0.08076704 0.03538599 -0.15679902
0003d0 e2 f4 78 be f8 47 74 bd 7a ac b2 be 21 70 87 be
       -0.24312165 -0.059638947 -0.34897214 -0.26452735
0003e0 b5 b1 24 3e 47 75 9f 3e 0e 8a c0 3d 71 04 15 bf
       0.16083415 0.31144163 0.09401332 -0.582099
0003f0 3c 0a 09 bf cf 3d b6 be 86 63 2a be d5 f2 57 bc
       -0.5353124 -0.3559403 -0.16639528 -0.013180454

encoder.layers.0.ffn.linear1.bias f4 [64]
000000 2b 72 cb bc e5 f5 d6 3d c8 12 1f be a6 c3 38 be
       -0.024834713 0.104961194 -0.15534508 -0.18043384
000010 c5 88 3f be 1b 79 c1 bd c3 9e 2c 3e 57 8d 34 be
       -0.18704517 -0.09446927 0.16857438 -0.17632042
000020 c0 c9 01 3e 87 ee 30 3e 52 51 64 bd 4d ed 5d 3e
       0.12674618 0.17278491 -0.055741616 0.21672554
000030 98 5d 17 3e 31 be e9 3d 54 ea 16 3e 6b ae 02 be
       0.14781797 0.11413229 0.14737827 -0.12761848
000040 51 69 51 be 6a cf b5 3c b5 c7 56 3e ae 1c 67 3e
       -0.20450331 0.02219363 0.2097462 0.22569534
000050 32 b3 51 be db e3 74 3d ab 0e 07 3e af 25 28 3e
       -0.20478514 0.059787612 0.13189189 0.16420625
000060 2e e6 7a bc 73 34 22 be 6e cd c9 3d f0 f7 44 bd
       -0.015313668 -0.1584032 0.09853636 -0.048088014
000070 95 72 d9 bc 19 37 c9 3c 5c 21 ba bc 3a a3 76 3d
       -0.026543895 0.024562405 -0.022720985 0.06021426
000080 e4 7e 44 3e 6d 08 f2 bd bd 59 b0 3d 1b 19 06 be
       0.1918903 -0.11818013 0.08610866 -0.13095514
000090 9a c3 5f be 15 26 27 3c be e1 45 3e 9f c1 36 3d
       -0.2185196 0.010201951 0.19324395 0.044618245
0000a0 56 68 25 3e 42 36 02 be 4d e4 ce 3d 4c e2 19 be
       0.16153082 -0.1271601 0.10102139 -0.15027732
0000b0 55 a4 86 3c 5e 54 47 3e 66 d8 4e bb 75 e7 47 3e
       0.016435781 0.19465777 -0.003156209 0.19521888
0000c0 c7 fb 46 3e 16 be 68 3e 25 de 2b 3e 85 4a 7d 3e
       0.19431983 0.22728762 0.1678396 0.24735458
0000d0 70 cc 9e 3d 24 83 23 3d b3 2c 56 3e fe e7 0d bd
       0.07753837 0.039919987 0.20915489 -0.034645073
0000e0 2a 1b 4e 3d 72 b9 23 be 75 61 8f 3d 37 04 dd 3d
       0.050318874 -0.1598871 0.0700101 0.107918195
0000f0 2e 29 be 3d 8d e2 f7 3d cf 43 63 be 71 05 0d 3d
       0.09285198 0.12103758 -0.22193836 0.034429017

encoder.layers.0.ffn.linear2.weight f4 [16, 64]
000000 8d 21 84 3e eb 43 2e be b1 8a 7f 3d 23 0c ab 3d
       0.25806847 -0.17018096 0.062388126 0.08351924
000010 c5 06 33 bc c1 60 6c be 05 b2 9a be 58 4a 84 be
       -0.010926907 -0.23083784 -0.30213943 -0.2583797
000020 27 89 aa bd 5b a7 79 be 6e f5 83 3e ab a7 50 bd
       -0.08326941 -0.24380247 0.25773185 -0.05094115
000030 41 b8 f4 bd 15 f6 b0 bd 88 a5 5b 3e 67 af 1f be
       -0.11949206 -0.086406864 0.21449864 -0.15594254
000040 8f 2a 30 3e f7 61 dd 3d 73 7b 44 3e d3 29 0e be
       0.17203735 0.10809701 0.19187717 -0.13883142
000050 fe 5c 03 3e c9 52 38 be c5 6a e9 3d 95 df 60 be
       0.12828442 -0.1800033 0.11397318 -0.2196029
000060 66 78 96 b9 d6 85 35 3e 37 15 37 3c 0f dd 56 3e
       -0.00028699933 0.17726836 0.011174492 0.20982765
000070 70 cc 90 3e c3 47 84 3e 29 65 6e 3e 82 66 d0 3d
       0.28280973 0.25836 0.23280777 0.10175802
000080 04 97 68 3e 85 13 95 3e e5 44 6c 3e ba f2 bb bd
       0.22713858 0.29116455 0.23073156 -0.09177156
000090 85 9c 6f be 3c b0 24 3e bd 06 b3 3d 4f 83 24 be
       -0.23399551 0.16082853 0.087415196 -0.16065715
0000a0 06 95 0c be 6e 02 68 3e a6 a0 5e 3e cb d6 3e 3e
       -0.13728723 0.22657177 0.2174097 0.18636625
0000b0 80 88 33 3e e9 bf 0b be ab 52 40 3e 21 ef ff bd
       0.1753254 -0.13647427 0.18781535 -0.12496782
0000c0 8c e7 48 3d ff 9c bc bd 3a a1 87 be 86 ec 52 be
       0.049048945 -0.09209632 -0.26490194 -0.20598039
0000d0 c7 9a 29 3d 28 48 25 3d 2c e4 43 3d 42 57 d7 3d
       0.041407373 0.040352017 0.047825024 0.1051469
0000e0 6c 2b 8f 3e 70 96 83 3e ce a2 26 be f7 5c 77 3e
       0.27962816 0.25700712 -0.16273043 0.24156557
0000f0 e2 9e 85 bd 87 ca 17 3e 8e ca 86 3e 74 71 76 3e
       -0.06524445 0.14823352 0.26326412 0.24066716
000100 74 70 9a be 94 16 4a be 96 a4 84 be f2 c9 e3 3c
       -0.3016392 -0.19735175 -0.2590682 0.027806256
000110 f4 0e 40 be ee 3d 8c be 93 95 7a bd f6 95 8d 3e
       -0.18755704 -0.27391 -0.0611778 0.27653474
000120 b1 02 50 be 8b bb 97 3e e9 85 90 be 78 dc d9 bd
       -0.20313527 0.2963527 -0.28227165 -0.10637754
000130 a3 ca 8a be a3 b4 4c be ba 6c 77 be 2e ac 8d 3e
       -0.27107725 -0.19990782 -0.2416257 0.27670425
000140 4f e7 fd 3d 6a b6 87 be 68 48 f4 ba d3 b8 3c be
       0.12397634 -0.26506358 -0.0018637301 -0.1842988
000150 7b ce 6c be 35 54 fb 3d f5 01 44 3e dc 4f aa bc
       -0.23125641 0.122719206 0.19141372 -0.020790033
000160 17 ce 0d 3e 77 2c 88 bd db 9c 4f be 76 15 18 3d
       0.13848148 -0.06649106 -0.2027468 0.03712984
000170 cc d1 44 be e3 cf 63 be 19 34 bb bd 7a e9 5e 3c
       -0.19220656 -0.22247271 -0.09140796 0.01360547
000180 c1 3b c9 bc 39 ff 59 3e 80 92 ed bd c5 47 48 3e
       -0.024564626 0.21288766 -0.11600208 0.19558628
000190 9a 8e 4d be 76 3e 5b 3d 9d c2 6c be 66 2c 53 be
       -0.2007393 0.053526364 -0.23121114 -0.20622405
0001a0 f9 85 14 bd 23 e4 31 be 20 70 1b 3e 01 02 82 3e
       -0.03626058 -0.17372184 0.15179491 0.25392154
0001b0 e5 96 76 be ee 88 72 3e 40 28 78 3e f0 45 4c be
       -0.24080999 0.23685047 0.24234104 -0.19948554
0001c0 12 3e ce 3d 47 31 dd bd 09 fd 16 be dd 95 1e be
       0.10070433 -0.108004145 -0.14744963 -0.15486856
0001d0 cb f0 96 be a9 22 2f 3e bc bc 56 3e dc 70 4d 3e
       -0.29480585 0.17103066 0.20970434 0.20062584
0001e0 2c 89 4e 3e 01 da 87 3d ce 7f 88 be e7 b7 63 bc
       0.20169514 0.06633378 -0.26660007 -0.013898826
0001f0 ce 65 2e be f5 da 97 3e 7e a1 33 be 08 ca 75 be
       -0.17031023 0.29659238 -0.17542073 -0.2400285
000200 2c 42 72 be 69 14 af bd 94 a0 87 be f8 b2 8b be
       -0.23658055 -0.08548815 -0.264897 -0.2728498
000210 67 cc 84 3d 9a 18 61 be 6f f6 46 bd 44 c8 89 3e
       0.06484299 -0.21982041 -0.04857486 0.26910603
000220 9a 19 0d be 49 4c 05 bd af 08 54 be f0 1f 83 be
       -0.13779297 -0.032543454 -0.20706438 -0.25610304
000230 5f 41 9c 3d c9 17 01 3e 8f a4 85 be 68 1a f9 bd
       0.07629656 0.1260673 -0.2610211 -0.1216324
000240 63 47 ba 3c 35 82 0a bd d3 85 cd 3c 10 7b 55 3e
       0.022739118 -0.03381558 0.025088226 0.20847726
000250 11 ca 0d 3d 6c 8f 3a 3e 7e 34 05 be b6 f5 0a bd
       0.034616534 0.18218774 -0.13008305 -0.033925734
000260 5e ac 75 be 41 1a d6 bd 44 47 4d 3c 77 05 e4 3d
       -0.23991534 -0.10454226 0.012529198 0.11133855
000270 fd 98 7f 3e 1a 22 ec bd 5b 44 45 be 63 82 86 3e
       0.24960704 -0.11529942 -0.19264357 0.26271352
000280 c1 12 5d 3e e7 44 b1 3d fc a4 5a bd 70 98 14 bd
       0.21589185 0.0865572 -0.053379998 -0.03627819
000290 a9 25 8b bd 1f b4 4c be ee 7d 69 3d 0b bb 83 be
       -0.067942925 -0.19990586 0.05700486 -0.2572864
0002a0 6c a2 1d be 05 dc 67 3e 13 41 a7 3d f9 2d bf bd
       -0.1539399 0.22642525 0.08166709 -0.093349405
0002b0 c8 c5 c2 bd 4a cb 8a 3e 43 b1 9b 3e 2a 44 60 be
       -0.0951038 0.27108222 0.30408677 -0.21901003
0002c0 90 ad 13 be 59 80 11 bd 74 69 cb 3c 6d 17 04 be
       -0.14421678 -0.035522792 0.024830557 -0.12899561
0002d0 30 f9 36 be 30 ec 8c 3e 39 62 67 be 51 78 59 3e
       -0.17868495 0.27523947 -0.22596063 0.21237303
0002e0 45 8f 92 3e 13 87 62 be 54 a3 25 be f3 0d 41 3e
       0.2862493 -0.22121839 -0.16175586 0.18852977
0002f0 c7 c9 1e 3e 72 1b 93 3e 6c 67 0f be f2 2e fe bd
       0.1550666 0.28731877 -0.14004296 -0.12411298
000300 c4 47 ce 3d 18 a8 85 3e 49 36 16 bd 02 58 8f 3e
       0.10072282 0.26104808 -0.036672864 0.27996832
000310 5b 1b 93 be 8d 0d 6a 3e ba 25 2c bc 61 c9 6a be
       -0.28731808 0.22856732 -0.010507042 -0.22928382
000320 01 d1 35 3e 24 68 55 3e 1e 99 d8 bd ac 52 3b 3e
       0.1775551 0.20840508 -0.1057608 0.18293256
000330 30 df 88 3e 21 47 bb 3d e9 96 21 be 7c 2c 1d be
       0.2673278 0.09144426 -0.15780224 -0.15349
000340 51 a3 89 3d 7d af 41 3e 9a e4 98 bd fb a6 33 be
       0.06720603 0.189146 -0.07465477 -0.17544167
000350 2e 94 d2 3d 18 b1 82 be 01 63 7d 3e d1 b0 e0 3c
       0.10282169 -0.25525737 0.24744798 0.027428063
000360 7c 2c 5c be 99 13 0e bd 3c 89 7c be 68 f2 66 3e
       -0.21501344 -0.03468666 -0.24661726 0.22553408
000370 24 91 2a be 79 ab 06 3e 26 64 12 be d4 81 5f 3e
       -0.16656929 0.13151349 -0.14296016 0.21826869
000380 b0 d0 20 be c9 33 32 3e 44 7d cf bc 87 08 87 3e
       -0.15704608 0.17402567 -0.025328286 0.26373693
000390 1a f0 6f 3e ae 2a 1f 3e fd 60 ba bd 89 d0 4d bc
       0.23431435 0.15543625 -0.0910053 -0.012561926
0003a0 86 9f 99 be d5 2c 2e bd 52 2b b3 3d d9 3d dd bd
       -0.3000452 -0.042523224 0.08748497 -0.10802812
0003b0 47 e1 53 3e a8 d1 89 bd 14 f3 71 bd aa ce 4b 3e
       0.20691405 -0.06729442 -0.059069708 0.19903055
0003c0 28 67 86 be b2 4b 81 3a df 2e 39 bd 6c c2 b9 bd
       -0.26250577 0.0009864478 -0.045210715 -0.09070286
0003d0 ad 66 93 3e ce 68 89 3e 76 4c f5 bd b1 59 2b be
       0.28789273 0.26837772 -0.119774744 -0.16733433
0003e0 a7 1a 2a 3b 95 13 a0 3e 28 e3 95 3e 89 46 bb bd
       0.0025955827 0.3126494 0.2927487 -0.09144313
0003f0 42 4f e3 bd fe 54 9c bd dd 7b 91 3e f5 2d 7b bd
       -0.110991016 -0.076333985 0.28414813 -0.061323125

encoder.layers.0.ffn.linear2.bias f4 [16]
000000 ce 1b a4 3c 81 a1 e8 bc 0c b7 23 3d 09 be db bd
       0.02003279 -0.028397324 0.03996949 -0.10729606
000010 57 dd b4 3d ce 07 57 bd ec 4e 9e 3d 7c 23 d0 3d
       0.0883128 -0.052497678 0.07729897 0.10163018
000020 98 5b 1f bd 88 02 e3 bd a2 5a 68 bd de 91 4b 3d
       -0.03890571 -0.11084467 -0.05672706 0.049699657
000030 8a dc c0 bd c8 81 f2 3d 0c 16 b2 bd 06 61 3b bc
       -0.094170645 0.1184116 -0.08695611 -0.011436706

encoder.layers.0.norm2.gamma f4 [16]
000000 47 da 7f 3f e3 9f 7f 3f 48 11 79 3f 48 27 7d 3f
       0.9994244 0.9985334 0.97291994 0.98888063
000010 eb 09 7d 3f 0a 4d 80 3f c4 a1 80 3f ab 79 7d 3f
       0.9884326 1.002351 1.0049367 0.99013776
000020 7f 7c 7b 3f 35 da 7e 3f 99 4b 80 3f 09 c3 7f 3f
       0.9823684 0.9955171 1.002307 0.99906975
000030 4c 62 7d 3f 9f ec 79 3f e6 97 7e 3f 19 0c 7a 3f
       0.98978114 0.9762668 0.9945053 0.9767471

encoder.layers.0.norm2.beta f4 [16]
000000 b6 eb bd bb e1 b5 8d bb 76 01 c9 3c 19 01 e2 bb
       -0.005795921 -0.00432466 0.02453683 -0.0068971035
000010 bb 6c 04 bc ec 9c 81 39 6e 04 e5 ba 41 0f 2e 3c
       -0.008082564 0.00024721713 -0.0017472634 0.010623754
000020 a8 75 5b bb 80 f6 01 3b 40 8b ca bb db 61 30 3b
       -0.0033486877 0.0019830763 -0.0061811507 0.0026913795
000030 e2 5a 51 bc 48 87 b8 3b df 1b c3 bb c1 a2 74 3b
       -0.012778016 0.005631361 -0.00595425 0.0037328454
