Trans_Prediction/model_saved/ratioMergedPrs/TM_ratioMergedPrs_delay_size_8_delay_3.pth (torch, 385400 bytes, 337 tensors)

encoder.layers.0.attention.w_q.weight f4 [16, 16]
000000 a1 fb 95 3e 7f d5 bc be a0 6a 2b be f3 cf 10 bf
       0.2929354 -0.36881635 -0.16739893 -0.56567305
000010 19 49 0d 3f 94 d6 c4 3c 6d e6 bb 3e 38 22 0f bf
       0.55189663 0.0240281 0.36699238 -0.5591159
000020 08 f5 85 be 5b 60 ae be cb be 0a bf 62 4a d2 be
       -0.26163507 -0.34057888 -0.54197377 -0.41072375
000030 b0 90 11 bd 4b b5 a9 be e6 8a f4 3d f4 3e a3 be
       -0.035538375 -0.33146128 0.11940555 -0.31883967
000040 95 37 15 3e f5 dc f4 be f0 02 7a be fe 40 1c 3e
       0.14571984 -0.47824827 -0.24415183 0.15259168
000050 fb 76 0b 3f 24 e8 f6 3c fd f4 9c bd 27 03 2e 3e
       0.54478425 0.03013999 -0.07663915 0.1699339
000060 9d 96 08 3f 76 0f 96 be 00 3a 33 3e 8f 82 64 3e
       0.5335482 -0.2930867 0.17502594 0.22315429
000070 8f 39 69 be 4d 37 f1 be 84 e2 88 3e eb c9 6e be
       -0.22775863 -0.47112504 0.26735318 -0.23319213
000080 bf cc 91 bd c2 78 e0 3e 6f fc 83 3c 3f 43 c0 3e
       -0.0711913 0.4384213 0.01611158 0.37551305
000090 e9 86 3e 3d 96 ac 1c bf a2 5f e0 bc d5 10 af 3e
       0.04651538 -0.61200845 -0.027389351 0.3419253
0000a0 6b dc a0 be 51 2c 03 be b0 f1 59 be 38 e2 36 be
       -0.31418166 -0.12809874 -0.21283603 -0.17859733
0000b0 26 59 11 be 04 c5 0e bf d6 25 a3 3e 5d 34 81 3e
       -0.14194164 -0.5576937 0.31864804 0.25235263
0000c0 d7 c0 e2 3e d0 c9 1f 3e 41 21 5c 3e bd aa 02 3f
       0.4428775 0.15604329 0.2149706 0.51041776
0000d0 bd 5a 60 be bf 7a f3 be b2 51 e3 3e 77 7e e1 bd
       -0.21909614 -0.47554585 0.44398266 -0.110104494
0000e0 7d d6 02 bf d2 fc 70 be 52 ba 85 3e 5b bb 07 3f
       -0.51108533 -0.23533943 0.26118714 0.53020257
0000f0 ff fd 79 3d eb bb a0 3e 9f 2f 89 3e 85 f4 77 3e
       0.061033245 0.3139337 0.26794145 0.2421437
000100 9e 90 fb be 66 80 01 3d 83 d9 e1 3d 11 01 10 bf
       -0.49133772 0.03161659 0.11027815 -0.5625163
000110 9e 03 c5 be 71 7b b1 3e 47 e1 64 bd 23 4f e8 3d
       -0.38479322 0.3466449 -0.055878904 0.11343219
000120 1b e6 06 3f 4a e7 e1 be 5e 03 d6 bd 39 b4 1b bf
       0.52694863 -0.44121772 -0.10449861 -0.6082187
000130 11 c5 0d bf a8 c2 4f be 60 4a a6 3d 2a 2e dd be
       -0.55378824 -0.20289099 0.08119655 -0.43199283
000140 7e 16 f9 3d 6e f1 a5 be 48 ff ac be 29 7e ff 3e
       0.12162493 -0.3241076 -0.33788514 0.4990094
000150 5f 95 4f 3d b5 e3 48 be e9 f1 17 bf 12 8e b3 3d
       0.05067956 -0.19618113 -0.593535 0.08767332
000160 28 dd a5 3e dc d0 ad bd 82 16 ca be 4e 4b 49 bd
       0.3239529 -0.084871024 -0.39470297 -0.04914408
000170 9c b9 f8 be 9e 04 62 be 89 a8 a7 bc ee 93 a4 bd
       -0.4857911 -0.22072074 -0.020466106 -0.08036028
000180 86 18 87 be d5 17 14 bf 6b bc 93 be ea f7 4f 3e
       -0.26385897 -0.57848865 -0.2885469 0.20309415
000190 46 d0 5d bd 1b f9 bd bd c8 8a a6 be 37 ef c5 be
       -0.054153703 -0.09276029 -0.32527757 -0.3865907
0001a0 c2 72 95 3e 19 42 13 bd c2 a9 ee be 77 5e 91 3e
       0.29189116 -0.035951708 -0.4661389 0.28392383
0001b0 77 5a e9 3e a1 d4 01 3f 9f 57 67 3d 52 cf fa bd
       0.45576832 0.5071507 0.056480046 -0.122465745
0001c0 0d ac 93 3d 44 e1 f5 be 2e b4 6e be c5 30 8b 3e
       0.072105505 -0.48023427 -0.2331092 0.27185646
0001d0 69 c3 9b be 0e cd e5 bc b7 ec 17 bf b4 8e 87 3e
       -0.30422524 -0.02805188 -0.59345573 0.2647606
0001e0 81 ba 18 3e e8 93 e7 be c4 8c ee bd a1 10 07 3f
       0.14914896 -0.4523003 -0.11647943 0.5275975
0001f0 21 d7 0c 3f ba 39 1d bd 8d 36 5a bb 56 a9 52 be
       0.5501576 -0.03838513 -0.0033296675 -0.20572409
000200 22 0d 11 3f 2e de db 3e 1b a3 05 be b6 c0 34 3e
       0.56660664 0.42942947 -0.13050501 0.17651638
000210 62 a0 9c 3e e3 b4 c2 3e 84 82 fb bd 83 9d 01 be
       0.30591112 0.3802863 -0.12280753 -0.12657742
000220 39 05 14 bf c2 ff dc be 20 f6 c4 bc dd 83 81 3d
       -0.5782047 -0.43163878 -0.024043143 0.06323979
000230 11 67 02 3f af 9a 6c be 6a 05 cf be ff 6c 6e be
       0.50938517 -0.23105882 -0.40433818 -0.23283766
000240 5b bb f7 bd 52 ec 0a 3e 93 a1 92 be e2 01 ac be
       -0.12096282 0.13566712 -0.28638896 -0.33595186
000250 86 4a 41 be 46 8b 83 be 73 83 d5 bd 88 c3 b2 be
       -0.18876085 -0.25692195 -0.104254626 -0.34914804
000260 ec 2f 0b 3f 8b bd 91 be b2 3a 0b 3f d7 f4 59 3d
       0.5437 -0.28464922 0.54386437 0.053212013
000270 48 bb 63 be 9b 7c d6 be 5c 27 52 be 25 08 11 3f
       -0.22239411 -0.4189194 -0.20522827 0.5665305
000280 3c 3d e9 3e fc 43 15 be 90 ed a2 be 5b 56 f1 be
       0.4555453 -0.14576715 -0.3182187 -0.47136196
000290 06 4d 15 3e 75 be ac be 75 40 e4 3e 17 f8 f0 3e
       0.14580163 -0.33739057 0.44580427 0.47064278
0002a0 b6 e6 07 bf 8b 82 15 be 9c 04 94 3e d6 76 05 3f
       -0.5308641 -0.1460058 0.28909767 0.52134454
0002b0 43 ce 30 3e 0c 23 09 bf 71 81 11 bf 9f 5e 1a bf
       0.17266183 -0.535691 -0.56838137 -0.6030063
0002c0 0e d2 98 be 96 88 9a be d8 38 16 bf 92 66 95 be
       -0.2984776 -0.30182332 -0.58680487 -0.29179817
0002d0 70 77 0d bf 38 7c cf be ba f4 5e 3e 7a 9a f1 be
       -0.5526037 -0.4052446 0.21773043 -0.4718817
0002e0 8e d4 60 3e 2b fd e7 3e 24 bb 24 3e 88 30 11 be
       0.21956083 0.4531034 0.16087013 -0.1417867
0002f0 3e c7 60 3e 72 cf f2 be 2c c3 1d be 54 aa dc be
       0.21951005 -0.47423893 -0.15406483 -0.430987
000300 ce d0 e7 be 65 e5 32 3e 55 fa b0 3e 92 d7 c8 3e
       -0.45276493 0.1747032 0.34565988 0.39226967
000310 9f 49 d4 be 29 6d 81 be c6 20 2f 3d 61 17 77 be
       -0.41462418 -0.25278595 0.042755865 -0.24130012
000320 62 d3 0a bf ed 70 31 bd b1 48 0a bf 12 f1 0e be
       -0.54228795 -0.043320585 -0.5401717 -0.13959149
000330 41 f3 3f 3d 29 d3 ac 3d 33 94 af 3e 5f de 03 bf
       0.046862844 0.08438713 0.34292755 -0.51511186
000340 ef 66 40 3d 8a 27 ef 3e ae d2 5c be 8b 92 b2 3d
       0.046973165 0.46709853 -0.21564743 0.08719357
000350 a6 33 10 bf fe b4 d3 38 11 d3 f9 be 52 07 8b be
       -0.5632881 0.000100949765 -0.48793843 -0.27154022
000360 e6 78 e0 bc fe 51 f6 bb 8d 20 11 3d b8 3e 01 bf
       -0.027401399 -0.0075170984 0.035431433 -0.50486326
000370 e2 f8 fc 3e c3 d0 cc 3d 2d e2 fc 3d 69 41 c5 3e
       0.49408633 0.10000756 0.12347827 0.38526466
000380 d6 85 c7 be c4 b8 bc 3e 1f b8 f1 3d 5e 59 fe 3c
       -0.38969296 0.36859715 0.118026964 0.031048473
000390 e4 d8 c7 3e 7e a6 0b 3f d5 11 b6 3e bf db cb be
       0.39032662 0.5455092 0.3556048 -0.3981609
0003a0 43 ab cf 3e d6 89 5d be b9 01 a5 3b 0a 1b 19 bf
       0.4056035 -0.21634611 0.0050356057 -0.59806883
0003b0 21 1a 01 3f cd 85 00 3f 88 7d ab be b2 69 85 be
       0.50430495 0.50204164 -0.3349421 -0.26057202
0003c0 48 37 92 bd 5c 16 a2 be 42 9b 0a 3f 42 d9 7a 3e
       -0.0713945 -0.31657684 0.54143155 0.2449694
0003d0 93 a0 1a bf 24 80 e0 3e 44 41 b1 be 84 2a b6 be
       -0.60401267 0.43847764 -0.34620106 -0.35579312
0003e0 a1 f6 17 bf aa a2 82 be 9c c3 17 3f fc 1e 9f be
       -0.593607 -0.25514728 0.5928285 -0.31078327
0003f0 a4 8b 9e 3e ec ea cd 3e 15 23 8a bd 54 17 1c bf
       0.30965912 0.40218294 -0.067449726 -0.60973096

encoder.layers.0.attention.w_q.bias f4 [16]
000000 fa 1e 4f 3e 33 48 f1 bc 2b 14 6c be 8d a4 63 3d
       0.2022666 -0.029453373 -0.23054568 0.05557685
000010 0a 5b 7b be c3 0d c3 bd f8 f6 6b 3d 2a 11 64 be
       -0.24546447 -0.09524109 0.057608575 -0.22272173
000020 1e e6 23 be 2d ff 44 3e 0f 44 0f be 30 23 a5 bd
       -0.16005751 0.19237967 -0.13990806 -0.08063352
000030 62 67 69 3e 8c d5 4b 3e bc 70 91 3d c1 a4 f9 bd
       0.22793344 0.1990568 0.071015805 -0.121896274

encoder.layers.0.attention.w_k.weight f4 [16, 16]
000000 8b 2d a1 bd 1a b8 d6 be 58 57 f7 3e 95 85 36 3e
       -0.07870015 -0.41937333 0.48308825 0.17824395
000010 13 f7 7a be 93 56 fa bd 3a 43 ff 3d 11 98 5f 3e
       -0.24508314 -0.12223544 0.12463994 0.21835352
000020 10 9d 74 be 0e b6 ec be 63 58 e1 3e 99 e3 14 bf
       -0.2388804 -0.46232647 0.44012746 -0.58159786
000030 02 3f f3 3e 4b 5b bf 3e ac 92 b5 3c a4 f6 03 be
       0.4750901 0.37374339 0.022164665 -0.12887055
000040 ee 61 e3 3e ee a1 0d be 48 da 62 3e 55 37 b8 3e
       0.44410652 -0.13831303 0.2215358 0.35979715
000050 aa 41 83 be 34 7e 0b bf 9e d3 cf 3d cb 45 91 3c
       -0.25636035 -0.54489446 0.10147785 0.017733475
000060 44 4d 0e 3f 5b dc cd be 6a 05 14 3e b4 d3 ee be
       0.5558665 -0.4020718 0.1445519 -0.46645892
000070 66 45 38 3e 79 38 d6 3e ec 5b 10 be f0 bc a5 bb
       0.17995223 0.4183996 -0.14097565 -0.0050579235
000080 17 ca 12 bf 0b 4f 13 be 40 a9 50 3e 9e 52 db be
       -0.57339615 -0.14385621 0.20377064 -0.4283647
000090 43 da 01 bf 81 73 eb bd 03 95 f5 be 9e bd 4e 3e
       -0.50723666 -0.1149664 -0.4796525 0.2018952
0000a0 2d c7 cd 3e d8 67 8e 3d e2 fa b8 3e cb 6c 82 be
       0.40191022 0.069534004 0.36128908 -0.25473627
0000b0 2d e8 84 3b 7a 93 57 3e ad 28 10 bf 45 b2 b1 be
       0.004055998 0.21052352 -0.56312066 -0.3470632
0000c0 73 e4 ff be 04 36 16 bd 14 01 67 3c 38 51 89 3e
       -0.4997898 -0.036672607 0.014099378 0.26819777
0000d0 e3 fd fa be ab 74 ea bd e2 84 d0 bd 25 7c e0 be
       -0.49021825 -0.11448034 -0.101815954 -0.43844715
0000e0 f7 b0 18 3f 45 c2 05 bf fd 6a a8 3e d5 96 dc be
       0.59645027 -0.52249557 0.32894126 -0.43083826
0000f0 37 d3 55 be 9d 7f 0d 3f 61 e1 f0 3e da 77 69 be
       -0.20881353 0.5527285 0.4704695 -0.22799626
000100 f5 3c 03 bf 9e 7f 0c bf ca 37 d7 be 46 7c 1e be
       -0.5126489 -0.5488223 -0.4203475 -0.15477094
000110 8f bc 64 be 00 ba 1b 3e 4d 9a 03 3f cb 5f 69 3e
       -0.22337554 0.15207672 0.5140732 0.22790448
000120 e4 68 e5 3e 42 b2 48 be c7 56 6c 3e 2c 3b 43 be
       0.44806588 -0.1959925 0.23079978 -0.19065541
000130 7d 6a a4 3c 57 41 cd 3e fd 96 90 3e 81 b7 f6 be
       0.020070309 0.40088913 0.28240195 -0.48186877
000140 31 4c 0b bf ad ab f7 be 1f 09 87 be 66 c2 97 3d
       -0.54413134 -0.48373166 -0.26374146 0.074101254
000150 e6 aa e6 3e d2 27 0a bf 15 ec 07 bf 7d b5 79 be
       0.4505226 -0.5396701 -0.5309461 -0.24385639
000160 50 0e 02 bf 4f 66 b1 bc eb f0 3f 3e 54 49 b5 3e
       -0.5080309 -0.02165523 0.18744247 0.35407507
000170 11 c0 a8 bd 3d 9b 25 be 81 22 a0 be a8 d8 14 bf
       -0.08239759 -0.161725 -0.31276324 -0.5814309
000180 be b5 bf 3e c5 0e 6a 3c a3 5c 94 be a7 1f 05 3f
       0.37443346 0.014285748 -0.28976926 0.5200142
000190 97 85 15 bd 28 47 7a 3e 13 42 1d be 5e f7 fa 3c
       -0.036504354 0.24441206 -0.15357237 0.030635532
0001a0 81 b9 ef 3e 25 ff 09 3d 1c c0 bb be b0 0a f7 be
       0.46821216 0.03369059 -0.36670005 -0.4825034
0001b0 6f df 03 3f 50 83 9b bc 68 7f 1c bf 5f ec 00 be
       0.5151281 -0.018983513 -0.61131907 -0.12590168
0001c0 0c eb dd 3e 1e f8 05 3f 81 47 45 be 5d 99 8b be
       0.4334339 0.5233172 -0.19265558 -0.27265444
0001d0 15 ad 13 bf 43 dc 8a 3e 37 a3 da 3e 31 c2 bd be
       -0.5768598 0.2712117 0.42702648 -0.3706222
0001e0 4f 21 77 be ff 01 df 3e 39 b2 ea be f4 67 96 be
       -0.241338 0.4355621 -0.45839098 -0.29376185
0001f0 17 1d 1a 3e 93 83 e2 bd 44 99 5d 3e 85 94 5f be
       0.1505016 -0.11060252 0.21640497 -0.21834
000200 01 5a ca be 2f 37 8e be 5e 60 ca 3d 8e d6 b5 3e
       -0.39521793 -0.27776477 0.09881662 0.35515255
000210 1e 15 93 3e 27 56 91 be 86 1e 04 3f 2e da 88 be
       0.2872705 -0.28386042 0.51609075 -0.26728958
000220 bd 6a d8 be 2b 4a f0 be 61 6e c5 be 70 9a a0 bd
       -0.42268935 -0.46931586 -0.38560775 -0.078419566
000230 c6 e0 6c 3d 4e 21 56 be 5e c9 ab 3e 8f eb d9 3e
       0.05783155 -0.20911142 0.33552068 0.4256253
000240 cd d4 13 bf 55 fe 9b 3e 7f 83 e6 be 9a 2b 9e be
       -0.57746583 0.30467477 -0.450222 -0.3089264
000250 26 cf 50 3d 76 e7 92 3e b5 bb 21 bc f8 33 1d 3e
       0.050978802 0.28692216 -0.009871413 0.15351856
000260 e7 f6 01 3e 70 71 f4 3c e0 69 10 3f 12 2e f8 be
       0.12691842 0.029839247 0.5641155 -0.4847265
000270 95 81 be 3d e3 ea b4 be 4d 8f 17 3f be 06 eb 3e
       0.093020596 -0.35335454 0.59203035 0.4590358
000280 46 70 22 3e 05 82 92 3d b6 72 88 3e 91 e4 3b 3d
       0.15863141 0.071537055 0.26650017 0.045872275
000290 05 f3 cf be 79 6a 23 be e8 13 b8 3e a5 e5 0a 3e
       -0.40615097 -0.15958585 0.35952687 0.13564165
0002a0 41 92 1b 3f 03 df 80 3e 5b 97 03 3f e5 9b a4 be
       0.6077004 0.25170144 0.51402825 -0.32150188
0002b0 3e b1 4d 3b a4 31 d7 be ce 12 6e 3e de 81 95 be
       0.0031386162 -0.4203006 0.23249361 -0.29200643
0002c0 ff 34 18 bf f7 af 0d 3f bf d7 6b be 5c 4a 9f be
       -0.59455866 0.55346626 -0.2303152 -0.3111142
0002d0 a3 92 34 3d 13 c1 15 be 85 54 b2 be 1d 99 c6 3c
       0.044085156 -0.14624433 -0.34830108 0.024242932
0002e0 11 87 0d 3f 9d e1 f1 3d e0 ff d4 3e 06 fe 00 3f
       0.5528422 0.118106104 0.41601467 0.5038761
0002f0 19 58 25 be af 9c c9 be dc cc fd 3e 6f 30 4d 3e
       -0.16146888 -0.39377353 0.49570358 0.20038007
000300 33 8d 29 3e 61 12 14 3f 6a 0b 87 be 15 0d c3 3e
       0.1655777 0.57840544 -0.26375896 0.38095918
000310 c7 70 0f be e8 a2 ad 3e e9 d9 0d 3f 2a df 02 3f
       -0.14007865 0.3391335 0.5541063 0.5112177
000320 b4 3e fa 3e 56 dc 95 3e 73 15 69 be 40 48 7a be
       0.48875964 0.29269665 -0.22762088 -0.24441624
000330 71 d9 48 be 58 40 c3 be 4d 73 a6 bb b8 f9 32 bc
       -0.19614197 -0.38135028 -0.005079663 -0.010923795
000340 bf e0 a4 3e 2d 0b c3 3e ca cf f9 be c9 5c 19 bf
       0.32202718 0.38094464 -0.48791343 -0.59907204
000350 f9 bd cd be 6a 18 be 3e 50 f7 0a 3f 3a f8 ce be
       -0.40184 0.37128 0.5428362 -0.40423757
000360 0a 69 b7 be 6d b4 d2 3e 07 ba 47 3e 63 4e e4 3e
       -0.35822326 0.4115328 0.19504558 0.44591054
000370 49 ec 01 3f 6f 61 d6 be 0d 31 7c 3e 1c cc 1a bf
       0.5075117 -0.4187121 0.24628086 -0.60467696
000380 24 3a 28 3e 44 16 28 3e 7b 5d d1 3e f7 3e 5e be
       0.16428429 0.16414744 0.40891632 -0.21703707
000390 17 b9 ae be 95 cc ec 3e 52 24 96 be 5e da 0c 3f
       -0.34125587 0.46249834 -0.29324585 0.550207
0003a0 9f 52 e9 bd 72 6d 87 3e 91 01 37 3e f3 27 11 bf
       -0.11392712 0.26450688 0.17871691 -0.5670158
0003b0 fd f0 cd 3e 8f 09 09 bd 4c 29 ac 3e 16 49 3b be
       0.40222922 -0.03345638 0.33625257 -0.18289599
0003c0 f8 7f 30 3e 79 c1 0d 3e c0 3e 0e 3f d6 d9 ea 3e
       0.17236316 0.13843335 0.555645 0.4586932
0003d0 c7 63 04 bf d5 98 19 be 2c c1 88 3e 9c a3 ce 3e
       -0.5171475 -0.14999707 0.26709878 0.403592
0003e0 d7 69 99 be 02 a1 b3 3e c4 a6 fc 3e 40 eb 90 3e
       -0.29963562 0.35083777 0.49345982 0.28304482
0003f0 ce 05 d8 3e 7a 4a a3 be 04 f0 2f 3e a6 bc ee be
       0.4219193 -0.3189276 0.17181402 -0.46628302

encoder.layers.0.attention.w_k.bias f4 [16]
000000 15 9c 1b b6 a4 a1 92 b6 5b b8 8a 35 a8 53 aa 36
       -2.3187652e-06 -4.3699565e-06 1.0335456e-06 5.0761337e-06
000010 68 21 60 b6 9d 30 7f b5 b2 60 15 36 8f d7 31 b6
       -3.3398046e-06 -9.5065644e-07 2.2259014e-06 -2.6500527e-06
000020 72 a6 4b b5 f5 2c 40 35 e9 68 bd b5 5a 93 f7 33
       -7.5865603e-07 7.1590995e-07 -1.411213e-06 1.1528637e-07
000030 92 d2 9f b4 bc 62 45 35 7f 7d 45 35 c2 24 fe b3
       -2.9769268e-07 7.3531896e-07 7.357084e-07 -1.1834483e-07

encoder.layers.0.attention.w_v.weight f4 [16, 16]
000000 2e 1c 06 3f 91 22 49 be 21 3c 83 be 62 f4 0a bf
       0.5238675 -0.19642092 -0.25631812 -0.5427915
000010 1c cc 75 3e dc c2 c2 be c8 91 f9 be a7 c5 b7 3e
       0.24003643 -0.3803929 -0.48744035 0.35892984
000020 bc 22 94 bd c1 45 b0 3d 42 e3 90 3e fb d5 09 3f
       -0.072331876 0.086070545 0.28298384 0.53842133
000030 2a 17 70 3e df c0 8e 3e ce 71 83 3e fb bc 7b bd
       0.23446336 0.27881524 0.25672764 -0.061459523
000040 7f dc fc be 8e f0 65 3e 93 e3 0b bf 80 e6 b7 3e
       -0.49386975 0.22455046 -0.54644126 0.35918045
000050 d2 b6 d9 bd bf 6a 03 bf ee 6e fa 3e 5a 35 be 3e
       -0.10630573 -0.51334757 0.48912758 0.3715008
000060 0d c0 bd be 34 8a 00 3f 20 e8 28 3d 7c a7 98 be
       -0.37060586 0.5021088 0.041236997 -0.2981528
000070 c6 c0 e6 be 08 ec e9 3e 3b ff e6 3c e0 08 d0 3d
       -0.4506895 0.4568789 0.028197875 0.10157943
000080 ae 34 72 3e c9 75 2a 3e a4 55 17 bf 41 86 19 bf
       0.23652908 0.16646494 -0.5911505 -0.5997048
000090 ac 48 94 bc b9 37 4f be c0 0d 5e 3c 78 20 03 bf
       -0.018101059 -0.202361 0.013553083 -0.5122142
0000a0 fc a3 6d 3e 36 16 24 be ae 60 1c bf ed 7a 87 be
       0.23207086 -0.16024098 -0.6108502 -0.26460972
0000b0 f8 69 93 3e 5c c3 99 3e a1 41 33 3c 9d f6 11 bf
       0.28791785 0.3003186 0.01094094 -0.57016927
0000c0 2b a5 b2 3e df 94 21 3f f5 a3 68 3e c7 ee 0d bd
       0.34891638 0.63117784 0.22718795 -0.034651544
0000d0 0c c7 b0 bd 9a 3f 19 3f 6d 06 0c 3f 3d b9 23 be
       -0.08631715 0.59862673 0.54697305 -0.15988632
0000e0 fd fe 01 3f d3 a3 19 3f 67 6d ad 3e 85 af 13 be
       0.50779706 0.600156 0.3387253 -0.14422424
0000f0 ba 30 dc 3e 98 16 ad 3e dd b0 83 3d 98 9f 93 3e
       0.43005925 0.338063 0.06430218 0.28832698
000100 18 df 3f bd 85 9c a6 be c5 f1 e0 bd 81 87 5f 3e
       -0.04684362 -0.3254129 -0.10983614 0.21829034
000110 2a 33 bc be 8c a7 1e 3e 0c 16 37 be 65 a7 0f bf
       -0.36757785 0.15493602 -0.17879504 -0.561148
000120 bc e0 8d be 5f ad af 3e 26 11 0f 3f 4a 1b 46 be
       -0.2771052 0.3431196 0.5588554 -0.19346347
000130 25 8f 15 be 00 d3 a5 be 1a ab 12 bf 1f 07 8f 3e
       -0.14605387 -0.32387543 -0.5729233 0.2793512
000140 17 04 c4 be 89 32 66 3e ba 57 b2 be 4d a3 2b 3e
       -0.3828437 0.22480215 -0.34832555 0.16761513
000150 bf 80 1d 3e 03 11 05 3f 9e ee 11 bf 64 6b d7 3e
       0.15381144 0.5197908 -0.57004726 0.4207412
000160 5e 19 18 3f 38 4b 13 bf b5 b9 0c ba 1d 6c 14 bf
       0.5941371 -0.5753665 -0.00053682487 -0.5797747
000170 88 43 31 3e 1b 62 05 3f 41 39 14 3f 7e 43 87 bd
       0.17310917 0.5210282 0.5789986 -0.0660467
000180 00 67 ba 3e c2 01 20 3f 31 b7 ab be 86 0a 13 be
       0.36406708 0.6250268 -0.335382 -0.14359483
000190 c9 85 00 bf 9a 4d bf bd 77 ed 24 3e 3f 62 fb be
       -0.5020414 -0.09340973 0.1610621 -0.49098393
0001a0 42 a2 d1 be 02 20 bf bd 63 4a 0a be 8d e2 84 3e
       -0.40944105 -0.09332277 -0.13504939 0.25954095
0001b0 c2 39 ca 3e b5 f8 c9 be 9f 0b 2d 3e 03 a8 c7 3e
       0.3949719 -0.3944756 0.16898964 0.3899537
0001c0 3f 81 1d be 4c 21 cd 3e b7 dc b6 bd e5 4a d1 3e
       -0.15381335 0.40064466 -0.08928817 0.40877452
0001d0 38 21 7e be 8f ae a0 bd 11 3c 9f be 05 f6 05 bf
       -0.2481736 -0.078457944 -0.31100515 -0.5232852
0001e0 4d 34 db 3e 08 7c 16 3f 60 25 10 bf d6 f7 f9 be
       0.4281334 0.58783007 -0.5630703 -0.48821896
0001f0 05 48 9b be 56 01 96 be 66 a9 50 be 8b db 0c 3c
       -0.30328384 -0.29297894 -0.2037712 0.008597265
000200 17 5c 08 3f 7c 00 df bd 20 bc 0e bf 8d 9d b8 3e
       0.5326552 -0.10888764 -0.55755806 0.36057702
000210 ff dc 10 3f b0 f2 30 3e 26 b7 9e be 63 f4 19 3f
       0.56587213 0.17280078 -0.30999106 0.6013853
000220 d7 c2 66 3e 0b 0c d0 3e 52 e2 ed bd d3 39 de 3e
       0.22535263 0.40634188 -0.11615433 0.4340349
000230 18 20 1a bf 1f 7c 1b 3e 9c 76 d8 be 56 62 98 3e
       -0.6020522 0.15184067 -0.42277992 0.29762524
000240 f5 dc 03 bf 76 8b f3 3e 2d 1e 05 bd 01 62 92 3e
       -0.5150903 0.47567338 -0.03249948 0.28590396
000250 c0 a9 00 be bd 4c 78 3e 0b 73 59 3e cf 04 bf 3d
       -0.12564754 0.24248023 0.21235292 0.09327089
000260 3f 69 88 3d d8 03 81 be 2a 76 83 3e 79 92 87 be
       0.06660699 -0.25198245 0.2567609 -0.26478937
000270 cb 6c 1c 3f ad 86 02 bf e8 e8 b5 3e 4e df 07 be
       0.61103505 -0.5098675 0.35529256 -0.13268778
000280 f3 07 db 3e 98 b8 43 3e 9a ca 0f be 26 d1 09 3f
       0.42779502 0.19113386 -0.1404213 0.5383476
000290 32 01 3e 3d d9 e7 10 3f 11 8e 41 be 1d eb 9f bd
       0.04638786 0.5660377 -0.1890185 -0.07808516
0002a0 b9 ef 8e be 01 db 89 3e fe 85 01 3e 9f 51 e0 3e
       -0.2791727 0.269249 0.1264877 0.43812272
0002b0 24 ad ca bd c8 d4 53 be 3b 12 83 3e 7f 09 fc 3e
       -0.09896305 -0.20686638 0.25599846 0.49225995
0002c0 bc a6 39 3c 77 cc c9 be 46 a6 c9 3e 84 ce 9e be
       0.0113312565 -0.39413807 0.3938467 -0.31016934
0002d0 cc b6 fb be ce d7 d7 bd 9d c9 7c 3d ad 08 d5 3e
       -0.491629 -0.10539208 0.06171571 0.41608182
0002e0 69 d8 c5 3e de dc e5 be 94 80 33 be 75 6d c0 3e
       0.3864167 -0.4489507 -0.17529517 0.3758351
0002f0 90 58 c5 bd 0a 8f 64 bb 93 df d8 bc 5c 7b 00 bf
       -0.096360326 -0.0034875297 -0.026473796 -0.5018823
000300 69 67 c1 3d c5 95 b9 3d c2 3e c2 be a8 3a 1b 3f
       0.09443552 0.090617694 -0.37938505 0.6063638
000310 d4 10 71 be 61 89 70 3c be e5 1b 3e 8c 56 dd be
       -0.23541576 0.014681191 0.15224358 -0.43230093
000320 3d c8 0b bf 7b b2 07 3d fd 08 69 3e e2 99 64 3e
       -0.54602414 0.033129197 0.22757335 0.22324327
000330 36 e7 92 be 3f 65 77 3e 84 6c 15 3e 34 72 a1 be
       -0.28692025 0.24159716 0.14592177 -0.31532443
000340 74 57 33 be 43 ed 13 be 9c 04 11 bf 51 79 7a bd
       -0.1751383 -0.14445977 -0.5664766 -0.061150853
000350 ed 45 15 3f 78 71 0f 3f 10 0c 03 be fc 80 5e bd
       0.58309823 0.56032515 -0.1279757 -0.054322228
000360 68 f4 c8 3e 5f 4d 06 be 4a 71 55 3e f1 c5 09 bf
       0.39248967 -0.13115452 0.20843998 -0.5381766
000370 e2 65 f9 be 75 bc 8c be c8 60 ff 3e af 0d f9 be
       -0.48710543 -0.2748753 0.49878526 -0.48643252
000380 39 e2 da be 17 b2 ce be f5 15 ad 3d b0 90 0a bf
       -0.4275072 -0.40370247 0.084514536 -0.54127026
000390 cc 9e 03 3f dd 48 a1 be 03 95 e4 be a4 7a 68 bd
       0.5141418 -0.31500903 -0.44644937 -0.056757584
0003a0 c8 23 cf 3e da 56 f4 3d 57 8c 85 be d2 a3 53 be
       0.40456986 0.11930628 -0.26083633 -0.20667961
0003b0 59 15 83 3d 9f d0 4e 3e 35 2e 3e bd fb 8a a6 be
       0.06400556 0.2019677 -0.046430785 -0.3252791
0003c0 ab 06 1d be a2 d2 4c 3e 49 a1 87 3d 91 17 86 be
       -0.15334575 0.20002225 0.066225596 -0.26189855
0003d0 ff 72 09 3f bc c5 0d 3f e3 f9 0c 3f 0b c1 e8 3e
       0.53691095 0.55379844 0.55068797 0.4545978
0003e0 e6 17 db 3e 42 15 c7 3e cb 42 3e 3d 50 82 85 be
       0.4279167 0.38883406 0.046450417 -0.26075983
0003f0 23 d9 3d be e3 95 57 bd d6 24 94 bd 88 f1 87 be
       -0.18539862 -0.052633177 -0.072335884 -0.2655146

encoder.layers.0.attention.w_v.bias f4 [16]
000000 eb d1 1b be 6f 84 e0 3d 18 74 2e be ed e0 9c 3d
       -0.15216796 0.1096276 -0.17036474 0.07660089
000010 13 f1 44 3e 93 ab a7 bd a4 6b e8 3c 66 c2 c3 bd
       0.19232588 -0.08187022 0.02837164 -0.09558563
000020 b9 b3 e6 3d 2e 29 11 3e d0 08 1b 3e b5 93 ef bd
       0.11264748 0.14175865 0.1514008 -0.11698095
000030 5f c6 00 3e 08 be ed 3d f9 ed dc bc 8d 74 d1 bd
       0.12575673 0.11608511 -0.026968943 -0.102273084

encoder.layers.0.attention.w_concat.weight f4 [16, 16]
000000 da 4e ff 3e 49 0b 93 be d7 d3 a3 3d 3f b5 e1 be
       0.49864846 -0.28719547 0.079993896 -0.44083592
000010 e7 91 12 3e 44 c2 8e 3e 7f d2 c1 be a0 9c ed be
       0.1431347 0.27882588 -0.37855908 -0.46408558
000020 86 86 91 be fc 60 52 be 99 9c 6b 3e 16 3c ec 3e
       -0.28422946 -0.20544809 0.23008956 0.46139592
000030 86 56 55 be 24 7e e5 bd 46 fb ee be 75 05 05 3e
       -0.20833787 -0.112057 -0.4667608 0.12990363
000040 c1 8a 39 be 0e 29 56 be f8 37 f7 3e f5 17 0d 3f
       -0.18119337 -0.20914099 0.48284888 0.5511468
000050 0f bb e3 be 99 9c c7 3c cc 59 ee be ca 8b c1 3d
       -0.44478652 0.024366664 -0.46552885 0.09450491
000060 be 5e a6 3d c4 fb 8a 3e 0b 5d 7d be 3d 8b 85 3e
       0.081235394 0.27145207 -0.24742524 0.26082793
000070 80 44 85 be ac 48 05 3f 71 17 d8 3d e9 47 37 3e
       -0.26028824 0.52064013 0.10551346 0.17898525
000080 a8 89 64 be 16 98 11 bf b0 f2 2f 3e ad 7b 75 be
       -0.22318137 -0.5687269 0.17182422 -0.2397296
000090 ee e7 da 3e 49 75 e4 3e b1 ca c1 3e e1 cb 0e bf
       0.42755073 0.4462073 0.37849954 -0.55779845
0000a0 30 39 10 3e 08 b7 b5 3e 98 ba 0a bf 47 41 f4 3d
       0.14084315 0.35491204 -0.5419097 0.11926513
0000b0 0d 7d 87 3e 67 aa a3 3e 64 4c 0d be 86 f5 5e 3e
       0.26462594 0.31965944 -0.13798672 0.21773347
0000c0 37 09 38 be bc 4a d8 be e1 d8 b4 be a4 5e d8 be
       -0.17972265 -0.42244518 -0.35321715 -0.42259705
0000d0 31 b2 50 bd 3c 3e cd 3e d8 a3 c0 be 30 ae ef 3e
       -0.050951187 0.40086544 -0.37625003 0.46812582
0000e0 26 75 7c 3e 2b 30 19 bf 79 73 82 be ac 5e c5 3e
       0.24654064 -0.59839123 -0.25478724 0.3854879
0000f0 17 77 d7 bd 1c 20 59 be df d1 b4 be 39 1a d8 be
       -0.105207615 -0.21203655 -0.3531637 -0.42207506
000100 bc 9e d4 3e ae 72 28 be 6f 0b 0f 3d fc d1 54 be
       0.41527355 -0.16449997 0.034923013 -0.20783228
000110 92 89 28 3e c1 fd da be 13 dc b1 be 28 e9 24 bd
       0.16458729 -0.42771724 -0.34738216 -0.040261418
000120 af 7d 0b 3f ad d1 75 3e 89 11 8b 3d 75 11 a1 3e
       0.5448865 0.24005766 0.06790454 0.3145863
000130 1f 58 0e 3f fb 79 82 3c 67 25 13 3f ae 6f 7a be
       0.5560321 0.015927305 0.57478946 -0.24456665
000140 c0 44 4a be 73 78 8d be 4a 94 51 be 61 93 e8 3e
       -0.19752789 -0.27630958 -0.20466724 0.4542494
000150 04 7f 21 3d 13 f0 9d be 61 46 07 3f eb b4 28 be
       0.039427772 -0.30847225 0.52841765 -0.16475265
000160 e0 c4 e9 3e 6a 9c 03 be 2f 21 29 be aa 3b 03 be
       0.45658016 -0.12852636 -0.16516565 -0.12815729
000170 a0 50 59 3e 9e 2f d6 be bd 9a a4 3e 3e 46 01 be
       0.21222162 -0.41833204 0.32149306 -0.12624452
000180 96 a3 80 bd d4 c6 fb be 7c 7c 15 be 20 13 8d 3b
       -0.062812015 -0.4917513 -0.14598268 0.0043052584
000190 6e c6 c5 bd 7a d8 5f 3d e2 1d c3 3e d1 e5 85 3e
       -0.09656988 0.054649808 0.38108736 0.26151899
0001a0 40 88 52 3e 65 3d 8c 3e 6a f4 0e bf ac 15 ff be
       0.20559788 0.2739059 -0.55841696 -0.49821222
0001b0 96 a4 7a 3e 7e b1 b0 3d e4 ab 8c 3e 05 00 57 3e
       0.24476847 0.08627604 0.27474892 0.20996101
0001c0 8a 5c f5 3d bd f0 e0 3d 93 b6 49 3e 75 37 eb 3d
       0.11980541 0.10983417 0.19698553 0.11485187
0001d0 4c 88 b4 3e 61 63 11 bf 18 e7 62 be 04 3e d6 be
       0.35260236 -0.56792265 -0.22158468 -0.4184419
0001e0 85 78 00 bf b6 59 89 bd 9c ad b0 3e e6 80 55 3e
       -0.501839 -0.06706564 0.34507453 0.20849952
0001f0 88 9f 08 bf 26 0d 70 3d 76 2b b4 be 0d 55 ce 3e
       -0.53368425 0.05860629 -0.35189408 0.40299264
000200 78 98 0c be 6e b7 0c be 8e 9d ec 3e 5c e6 0b be
       -0.13730037 -0.13741848 0.46213955 -0.13662094
000210 e5 3c 01 3e ce de b3 3e 8c 67 e7 be 10 13 c1 3c
       0.12620886 0.35130924 -0.45196187 0.02356866
000220 8a a4 7e 3e a5 f5 1a 3f a0 54 92 3e ab de 3a be
       0.24867454 0.60531074 0.2858019 -0.18249004
000230 00 0a 8e be d4 ab 7f 3d 01 76 a5 be b9 6c 75 be
       -0.27742004 0.062419727 -0.32316592 -0.23967256
000240 da fe be bd f2 db fd 3e e2 ce ec ba 06 95 d6 be
       -0.09325953 0.49581867 -0.0018067027 -0.4191057
000250 fd 85 9d be b1 fc 99 3e ec 9d 2c 3e 78 a6 61 3e
       -0.30766287 0.300756 0.16857117 0.22036159
000260 32 d5 05 3f 16 ab 10 bf 89 f6 3c 3d 77 95 03 bf
       0.52278435 -0.56511056 0.04613355 -0.5139994
000270 2f 7c df 3e d0 3b 00 3d 2b 39 ed be f8 54 c8 be
       0.43649432 0.03130704 -0.46332678 -0.39127326
000280 88 2d f5 3b 12 24 f5 3e 59 1b e9 be a3 38 f2 3e
       0.0074822344 0.47879082 -0.45528677 0.47308835
000290 23 90 6e be 7c a1 22 3d ec e4 bb 3c 3e 19 5c be
       -0.23297171 0.039704785 0.022936307 -0.21494004
0002a0 54 67 09 bf 2b ec f0 3e c2 ce 79 be 84 d4 5a 3e
       -0.5367329 0.47055182 -0.24395278 0.21370131
0002b0 ae ad 05 bf e0 bd da 3e 4e be 0b bf 70 67 1e 3f
       -0.5221814 0.42722988 -0.54587257 0.61876583
0002c0 38 84 72 3e a2 2c 05 be ad 79 57 3d 64 16 c3 be
       0.2368325 -0.13005307 0.052606273 -0.3810302
0002d0 30 c0 ca 3e a3 53 1b bf bb de 2b be 18 ad 8a 3e
       0.39599752 -0.60674495 -0.16784184 0.27085185
0002e0 b3 45 b7 3e 17 f3 0e 3f 9e 2a 34 3e ff 31 06 bf
       0.35795364 0.55839676 0.17594382 -0.5242004
0002f0 43 c1 cd be a7 27 1a 3e 9e b5 8a bd 96 c6 b9 bd
       -0.4018651 0.15054189 -0.06772922 -0.090710804
000300 3f a1 ae 3d 21 5e 07 3e 28 7c 03 3c c0 91 0f 3f
       0.08526849 0.13219501 0.008025207 0.5608177
000310 10 14 88 be ca 81 ef 3e a2 a2 45 3c c7 7c a4 be
       -0.26577806 0.4677871 0.0120627 -0.32126448
000320 7b 81 89 bc 05 d5 8e be 70 c3 a9 be 0c 03 a4 3d
       -0.016785374 -0.27896896 -0.3315692 0.08008394
000330 da 7d 8e bd dc 24 ce 3e 37 bd 57 bc 82 8f cd 3e
       -0.06957598 0.40262496 -0.013167671 0.4014855
000340 9f ed da 3c 23 cd 09 be cd 20 b1 bc 77 f4 8a 3e
       0.026724635 -0.1345716 -0.021622086 0.27139637
000350 61 2e a3 be 0c dd 3f 3e b9 11 1d 3f 07 d2 7e 3e
       -0.31871322 0.18736666 0.6135517 0.24884807
000360 33 85 07 bf b7 7f c2 be ab b6 b8 3e ef 97 90 be
       -0.5293762 -0.37988064 0.36076865 -0.28240916
000370 ae e3 15 3e bc 2f 13 3e 71 f6 50 be 55 0a 1f bf
       0.14637634 0.14373678 -0.2040651 -0.6212514
000380 c7 a5 12 bf b1 6e ee 3e b8 2b 4d 3d 65 41 83 be
       -0.57284206 0.46568826 0.05009052 -0.2563583
000390 2c 94 34 3e 89 96 1f be c7 08 89 3c c4 51 61 bd
       0.17634648 -0.15584768 0.016727818 -0.05500962
0003a0 8d 70 07 be ee e2 38 3e 89 2d ca bd 73 2b c0 be
       -0.13226528 0.18055317 -0.098719664 -0.3753315
0003b0 40 5a 81 3e 08 ee 28 3b 3d 4b 44 3e 74 13 e9 3e
       0.25264168 0.0025776643 0.19169326 0.45522654
0003c0 80 10 ef be 6b 08 e2 3e f5 6f af bd 4c 8c 32 bd
       -0.46692276 0.44147047 -0.08566276 -0.04359083
0003d0 06 74 8b be 50 7e bc 3d 3b 31 0e 3f 84 ee ab be
       -0.27236956 0.0920378 0.5554387 -0.3358041
0003e0 1f 33 30 be b0 81 72 3e 08 f8 99 be 94 30 86 3e
       -0.17207001 0.23682284 -0.30072045 0.26208937
0003f0 f7 43 e5 bc 1b a4 aa 3e c5 db ba bd 0b 4b ea be
       -0.02798651 0.33328328 -0.09123949 -0.45760378

encoder.layers.0.attention.w_concat.bias f4 [16]
000000 62 34 c3 bd 12 28 9a 3d 90 1a 29 be ec 06 12 be
       -0.095314756 0.07527174 -0.16514039 -0.14260453
000010 42 e9 d8 bd bb fb 5b 3d d2 2a 88 3d 1f 65 80 3d
       -0.105913654 0.053706866 0.06648792 0.06269287
000020 8c 5d 63 3d fc a5 01 3e 4e 55 a5 3d 2d 62 ee 3d
       0.055509135 0.12660974 0.08072911 0.11639819
000030 54 c5 6a 3d 58 72 1e 3e f9 e9 e3 bd e9 5c e2 3d
       0.057317093 0.15473306 -0.11128611 0.110528775

encoder.layers.0.norm1.gamma f4 [16]
000000 88 61 7c 3f 00 3f 79 3f 6a 91 7c 3f ff c8 80 3f
       0.9858632 0.97361755 0.98659384 1.0061339
000010 26 8a 7b 3f d7 4c 7e 3f a6 27 80 3f 1b 64 80 3f
       0.9825767 0.99336 1.00121 1.003055
000020 4c e3 84 3f b7 96 7d 3f 72 3d 7d 3f 20 03 80 3f
       1.0381866 0.990581 0.98921883 1.0000954
000030 82 1a 80 3f ac c9 82 3f bc 00 7a 3f c1 39 81 3f
       1.000809 1.0217795 0.9765737 1.009575

encoder.layers.0.norm1.beta f4 [16]
000000 09 32 0b bc 80 8c f8 3b 23 61 2b 3c dd fc 3b bc
       -0.008495816 0.0075851083 0.010460171 -0.0114738615
000010 d2 4c 6b 3c 76 31 23 3c b8 62 6e bc 09 46 67 bb
       0.014361577 0.009960523 -0.014549904 -0.0035289547
000020 93 bd 60 bb da 6c 89 bc 22 36 30 3c 06 a3 05 bc
       -0.0034292683 -0.016775537 0.010755094 -0.008156544
000030 3d 09 ea 3a bd 15 1e 39 93 7f d7 3b 60 05 38 bc
       0.0017855536 0.00015076152 0.0065764873 -0.01123175

encoder.layers.0.ffn.linear1.weight f4 [64, 16]
000000 82 59 a8 3d 72 23 e7 bc 4d 89 20 be 88 88 0b 3f
       0.08220197 -0.028215144 -0.15677376 0.54505205
000010 3d e7 bc bd 1f 15 25 be 37 46 cd be 3d 37 74 3e
       -0.09223793 -0.16121338 -0.40092632 0.23849197
000020 bb 9d c3 bd d1 3d e0 3e 78 8f b1 3e da f5 de bd
       -0.09551569 0.43797162 0.3467977 -0.10886736
000030 a6 ed cb bd 2b a4 3d bb 3f 7d 14 3e 00 99 3c 3e
       -0.09957437 -0.0028936963 0.14500903 0.1841774
000040 c8 2a b4 3e 56 55 22 bd 70 fb 75 be 41 94 de 3e
       0.3518889 -0.039632164 -0.24021697 0.43472484
000050 eb 26 2f be 35 c5 db 3d d2 bc 0e 3f ac 1f f1 bd
       -0.1710469 0.10730974 0.55756867 -0.11773619
000060 b8 c3 04 3f ab 39 67 be c9 b4 0d bf 39 09 f2 3e
       0.51861143 -0.22580592 -0.5535398 0.4727266
000070 cc e2 92 3e 13 67 3c bb 1d ad 25 bd 9c a2 d7 3e
       0.28688657 -0.002874796 -0.040448297 0.4211625
000080 3a ff 04 bf ef 7e d7 be f0 a3 85 be 23 b5 e3 3e
       -0.51951945 -0.4208903 -0.26101637 0.44474134
000090 ae 0b e7 3e 19 dd b0 be a4 d5 00 be 20 e8 25 3e
       0.45126098 -0.34543684 -0.12581497 0.1620183
0000a0 84 84 ee 3e b7 ca 0a bf ec c5 ef be 0a e1 89 be
       0.46585476 -0.5421557 -0.4683069 -0.26929504
0000b0 67 62 cd 3e 3e e9 05 be 3c 0a 22 3e 82 3c 64 be
       0.40114138 -0.13077256 0.15824217 -0.22288707
0000c0 26 1a df 3e 57 7e 48 be 21 d3 6e 3e 2b e1 70 be
       0.43574637 -0.19579445 0.23322727 -0.23523395
0000d0 58 25 e4 bd e6 6d 19 be ee 95 dd bb 17 28 b6 bd
       -0.11139935 -0.14983329 -0.006762258 -0.08894365
0000e0 1a bf a4 3d 5c 1f 0f 3d da d3 7d 3d c2 22 8c 3e
       0.08044262 0.034942016 0.061969616 0.27370268
0000f0 51 41 0f bf 15 4a 0e 3e 79 05 f4 3e 72 c3 30 be
       -0.5595904 0.13895448 0.47660425 -0.17262056
000100 f9 71 3a bd 41 3c 31 be 69 9e 7f be 85 99 5b 3d
       -0.04551885 -0.17308141 -0.24962772 0.053613205
000110 75 cd b0 3d 38 0b f3 be 3b 79 e7 3e 38 23 06 3e
       0.08632938 -0.47469497 0.4520968 0.13099372
000120 c5 39 c9 3d 86 ae d4 3d 8f d4 74 be 79 73 91 be
       0.09825472 0.1038485 -0.2390921 -0.2840841
000130 c0 21 b3 be 15 4e 80 be b6 03 34 3e c0 1e fc bc
       -0.34986687 -0.25059572 0.1757954 -0.030776381
000140 0f 5a 5d 3e d3 a0 c8 be 6e 65 65 3e 8f c5 39 be
       0.21616386 -0.391852 0.22401974 -0.18141769
000150 da ba a2 3d 29 60 75 3e 83 f4 bc 3d 82 26 0d 3f
       0.07945795 0.23962463 0.092263244 0.55136883
000160 94 dc 08 bf 3c a1 12 3f 60 53 a6 bd a3 c2 1c 3f
       -0.53461576 0.57277274 -0.08121371 0.6123449
000170 a5 31 4a 3d cb 99 2f 3e 42 b1 4b be df 43 c9 be
       0.04936375 0.17148511 -0.19891837 -0.39309594
000180 4e 7c 13 3f f9 e9 88 3e 78 2e 04 bf 3d c6 b6 be
       0.5761155 0.26741007 -0.51633406 -0.3569812
000190 d0 12 ba 3e 8b ab 1c 3e 85 19 ee be b8 28 52 be
       0.36342478 0.15299813 -0.46503845 -0.20523345
0001a0 22 f6 b7 be 27 f4 dc be fb 17 d1 be f0 73 16 be
       -0.35929972 -0.43155023 -0.40838608 -0.14692664
0001b0 34 3a 11 bf f2 37 bc be db 95 9e 3e 5c 58 86 be
       -0.56729436 -0.36761433 0.30973706 -0.26239288
0001c0 7c fa 07 bf 0b 13 25 3b 98 da a1 bd 30 cd d2 be
       -0.53116584 0.0025188352 -0.079030216 -0.4117217
0001d0 db 15 aa 3d dc 0c 77 3e 2f bd b6 3e 01 48 ab be
       0.0830495 0.24125999 0.3569121 -0.33453372
0001e0 df 84 04 bf 67 df 13 bf fb c6 3e be e2 08 18 bf
       -0.51765245 -0.5776276 -0.18630593 -0.59388554
0001f0 f4 1a 41 3e 44 b3 39 bd 5b be 9c 3e 41 04 07 bf
       0.18857938 -0.045336977 0.3061398 -0.52740866
000200 7a 24 0a 3f 00 c7 db 3e 3e 42 61 bc f8 b0 97 3e
       0.5396191 0.42925262 -0.0137487035 0.29627204
000210 d2 cf 88 be 76 ca b1 3e 49 59 10 3e 2d ea e4 3e
       -0.26721054 0.34724778 0.1409656 0.44709912
000220 4d 8c f1 be 63 e4 69 3c d1 a4 68 be fd b4 11 3f
       -0.47177354 0.014275643 -0.22719122 0.5691679
000230 6b e1 17 3f fb 39 53 be d4 db e8 3e ab 8f 9a 3e
       0.59328336 -0.20627587 0.45480216 0.30187735
000240 da 8f 04 bf f4 1c fb bd 72 bc ad 3e 4d ff d7 3e
       -0.51782 -0.12261382 0.33932835 0.42186967
000250 15 8d b9 bd 05 73 01 3f c1 de 56 be 91 c2 9d 3d
       -0.090601124 0.5056613 -0.20983411 0.07703126
000260 dc 7f e5 bc 9e 80 c2 3c af 29 04 bf 61 db 03 bf
       -0.02801507 0.02374297 -0.51626104 -0.5150662
000270 50 68 ea 3d 5d 50 8c 3e f7 5e a8 bb 40 0b b8 bd
       0.11445677 0.27405062 -0.005138274 -0.08986521
000280 6c 9c 09 3f 14 bf fd be 2a a8 8d 3e 29 f9 fb 3e
       0.53754306 -0.49559844 0.27667361 0.49213532
000290 21 a8 c2 3e b2 fc 2d 3e 83 66 89 bd 47 7b 8c 3d
       0.38018897 0.16990927 -0.06709006 0.06859451
0002a0 0e f0 00 3f ee d4 10 3d 8c 5a 4c be 27 62 48 3e
       0.50366294 0.035359316 -0.19956416 0.19568692
0002b0 b2 fb c0 be ed 2b 00 3f 1e 03 17 3e 66 03 13 be
       -0.37692028 0.50067025 0.14747283 -0.14356765
0002c0 85 b4 b5 be 33 7d 0d bd e9 d0 a0 be 51 1a 1e 3e
       -0.35489288 -0.034543227 -0.31409386 0.15439726
0002d0 76 8e a0 bc f6 7b 93 3d c4 52 21 be 7a c2 f6 be
       -0.01959918 0.07201378 -0.15754229 -0.4819525
0002e0 c4 59 0a be 74 0e 32 be 27 2e e2 3e fc f1 18 bf
       -0.13510805 -0.17388326 0.44175836 -0.5974424
0002f0 4f 7f 59 bc da 71 0f bf d9 2e f5 be 76 f9 fe 3e
       -0.013274982 -0.560331 -0.47887304 0.497997
000300 85 3d 54 3d 24 8b 7f 3e 8b 93 d6 3e 74 8c 9f 3d
       0.051816482 0.24955422 0.4190944 0.07790461
000310 14 ac 06 3f 16 2a ba 3e 20 39 72 be 61 75 d0 3e
       0.5260632 0.36360234 -0.23654604 0.40714553
000320 d1 08 7b 3e e4 57 dc 3e 93 3b 89 be 1b 3e 87 be
       0.24515082 0.43035805 -0.26803264 -0.2641457
000330 5e a9 1e bf fe 6c bc bd f3 0e d0 bd 37 67 09 3d
       -0.61977184 -0.09200476 -0.10159101 0.0335457
000340 27 89 ae be 66 3d cf bd f4 76 96 be 50 63 23 3c
       -0.34089014 -0.10119133 -0.2938763 0.009972408
000350 f1 cc 5e be 2f 8a b5 be a6 49 50 bc c2 d4 13 3f
       -0.21757866 -0.35456988 -0.012712872 0.5774652
000360 68 60 32 3e da 16 05 bf 74 7b 06 3e 5e 09 b8 be
       0.17419589 -0.51987994 0.13133031 -0.35944647
000370 27 73 1c 3e ab 10 62 be ae 57 29 bd fd 81 69 3e
       0.15278302 -0.22076671 -0.041343383 0.22803493
000380 71 1a dd be 7d 3a a7 3e 4e f6 9e be ff 53 da 3d
       -0.43184236 0.3266181 -0.3104729 0.10660552
000390 3b 47 af 3e 63 69 c3 be 08 f3 44 be f9 d9 67 3c
       0.34234032 -0.3816634 -0.19233334 0.01415109
0003a0 cf 93 b4 3e 7d 32 18 3f 8b 5e c7 3e 0c a4 9e be
       0.3526902 0.5945204 0.38939318 -0.30984533
0003b0 e0 95 a8 3d 63 14 f9 be c1 59 24 3e e2 17 05 bd
       0.082317114 -0.48648366 0.16049863 -0.03249348
0003c0 3c 6f b7 3e 8b c8 0a 3f e0 0a 8c be 56 14 35 be
       0.35827053 0.54212254 -0.27352047 -0.17683539
0003d0 fc 54 a2 ba 0e 1f c3 be 80 dd be be 09 34 c4 3b
       -0.0012384946 -0.3810963 -0.37278366 0.0059876484
0003e0 54 67 28 3e 1a 65 8a be 17 16 8b be 50 40 f2 be
       0.16445667 -0.2703026 -0.2716529 -0.47314692
0003f0 ac e2 10 be dc 5b cc be 9c 42 1c 3e 13 77 3c 3e
       -0.14148968 -0.39913833 0.15259784 0.18404798

encoder.layers.0.ffn.linear1.bias f4 [64]
000000 5c e6 99 bb 07 17 13 be 0a e1 5c 3e 9f 9c 19 3d
       -0.0046966504 -0.14364253 0.2157022 0.03750288
000010 ff f3 c7 bd 53 09 58 be 6b ea 0a be 5e 86 b9 bc
       -0.097633354 -0.21097307 -0.13565986 -0.02264708
000020 9e 71 55 3e ab c1 05 3e e5 4b 55 be 5b 90 f2 bd
       0.20844123 0.1306216 -0.20829733 -0.1184394
000030 b1 af 80 3e 99 b0 41 3e 2b 48 70 3d 12 82 79 bc
       0.25134042 0.18915023 0.058662575 -0.015228765
000040 49 26 98 3c 2b b7 62 3e 10 8e 38 bd b5 d6 1b be
       0.018572943 0.22140186 -0.045057356 -0.15218623
000050 35 36 3c bd 46 23 9f bd 00 bc 00 be 70 7f 41 be
       -0.045950133 -0.077704 -0.12571716 -0.1889627
000060 a3 64 0e bd 23 a8 cb 3d 84 b3 df bc 60 02 1f 3e
       -0.034763943 0.09944179 -0.02730728 0.1552825
000070 82 5c df 3b 39 a8 8f 3a 64 c6 28 3e ac 10 6a 3e
       0.0068164477 0.0010960168 0.1648193 0.22857922
000080 f0 e4 5d be 7b 40 dd bd 9f 01 77 be 0e 63 0f 3e
       -0.21669364 -0.10803314 -0.24121712 0.1400263
000090 c8 46 be bd b4 4b 69 3d 30 b1 1f 3e a9 be c6 3d
       -0.09290844 0.05695696 0.15594935 0.09704334
0000a0 43 28 56 3e ba 4f 66 3c ec f5 d7 bc 5a 89 53 be
       0.20913796 0.014057094 -0.026362382 -0.20657864
0000b0 1b 60 06 3e 01 0a 94 bd e0 f7 66 be ef 7d 55 bd
       0.13122599 -0.072284706 -0.22555494 -0.052122053
0000c0 ad 13 ea bc 70 48 a5 3d 4a 2b b1 bd 00 d9 89 bd
       -0.028573835 0.08070457 -0.08650835 -0.067308426
0000d0 60 54 75 3c 50 b1 ee 3d 18 4a 18 3e 7c 3f 5e 3d
       0.01497373 0.116549134 0.14872015 0.054259762
0000e0 39 1f a1 3d 55 f0 06 3e 77 64 2f bc cd 0d 1a be
       0.078672834 0.13177617 -0.010705105 -0.15044327
0000f0 0f 5d 7c be e5 9f 28 3e f1 e6 1c 3d 7f e6 aa 3d
       -0.24644874 0.16467245 0.03830618 0.08344745

encoder.layers.0.ffn.linear2.weight f4 [16, 64]
000000 5d 6a 50 be e4 33 02 3e dd 68 34 be 8a 51 61 be
       -0.20353074 0.12715107 -0.17618127 -0.22003761
000010 59 f1 6f 3e 28 04 12 be a1 b8 24 3e 46 97 ee 3c
       0.2343191 -0.14259398 0.16086055 0.029124867
000020 3c 1b 8a 3e fb 1f 8f 3e bc b3 81 3e fb d7 80 3d
       0.26973903 0.27954087 0.2533244 0.06291195
000030 17 81 6b 3c c0 4a 01 bd 54 e6 ec bd 89 e5 3e 3e
       0.014374039 -0.031565428 -0.11567369 0.18642248
000040 25 75 36 be 8e e9 88 be d2 9a 89 be bd 39 48 be
       -0.17818125 -0.26740688 -0.2687593 -0.19553275
000050 7f cf 5c 3e 1d 14 ac bd c3 16 91 3e 46 34 32 3d
       0.21563528 -0.08402274 0.28337678 0.043506883
000060 db 3b 12 bc 1a 18 8f 3e 15 c9 5a ba 9d e8 48 3d
       -0.0089254035 0.27948076 -0.00083460036 0.049049962
000070 b7 88 ce 3d 25 fb d8 3d 20 ff 2d 3e dd 4d 23 be
       0.1008467 0.10594777 0.16991854 -0.15947671
000080 2e c5 36 be 08 98 4b 3d 3c 19 30 3e 7a 9e 34 3e
       -0.17848656 0.049705535 0.17197126 0.17638579
000090 20 88 85 3e d6 f2 97 bd 9a d4 27 3e df 18 82 be
       0.26080418 -0.07419364 0.16389695 -0.254096
0000a0 a7 bf a3 be aa ce 84 be 78 b4 e7 3d dc b5 3b 3e
       -0.31982157 -0.25938922 0.113137186 0.18331093
0000b0 34 a7 98 be 35 3e 65 3d 9b 9d 06 3e 51 31 95 3d
       -0.29815066 0.05596753 0.13146059 0.07284797
0000c0 55 0e 80 3c fe ab a9 bd 23 b6 84 3e d9 76 51 bd
       0.015631834 -0.08284758 0.2592021 -0.051138733
0000d0 f1 b1 7e be c7 db b2 bd 62 87 00 3e 14 ce 4d 3e
       -0.24872567 -0.087333255 0.12551644 0.20098144
0000e0 99 55 56 3e 47 47 30 be 15 f4 c5 bd 16 61 e3 3d
       0.2093109 -0.1721469 -0.096656956 0.11102502
0000f0 9d 03 b1 3c 2c 3a f7 3d c0 d0 47 3e b7 d2 92 bc
       0.021608168 0.12071642 0.19513226 -0.017922742
000100 01 5f 97 bd 5a a6 49 be 1d 0d 91 bd 7c da e2 3d
       -0.073911674 -0.19692364 -0.07082579 0.11076829
000110 ea 9d 1d be 17 1c 55 3e 1f dd 5a 3d 21 a0 68 be
       -0.1539227 0.20811497 0.053433534 -0.22717334
000120 e0 7a 83 be ef c6 08 3e eb 6c 62 3e 76 46 7f bd
       -0.25679684 0.13357137 0.22111861 -0.062323056
000130 35 48 25 3e 4f 54 0d bd 93 4a 24 3d ed 29 38 3e
       0.16140826 -0.03450423 0.040110182 0.17984743
000140 e0 f4 7b be 3a 48 0b 3e 1b f1 28 be 6d 3e 6d bc
       -0.24605131 0.13601771 -0.16498224 -0.0144802155
000150 bd db 54 be 20 c3 1f 3d 84 ef b6 3d ca ca 84 3e
       -0.20786949 0.039004445 0.08932403 0.25935966
000160 9b 04 08 3d bf 45 29 3c 64 c3 44 3d 2e 47 a1 3e
       0.033207517 0.01033157 0.0480379 0.31499618
000170 df 51 d1 3d e0 53 8e bd 91 f9 c9 3c dd 38 08 be
       0.10220694 -0.06949592 0.024655135 -0.13302942
000180 24 6a f8 bd 78 7f 19 be 87 f8 8b 3d 02 3b 5d 3e
       -0.1212962 -0.14990032 0.06834512 0.21604541
000190 10 c8 52 3e e4 15 8b 3e a0 51 80 bd db 96 85 be
       0.2058413 0.2716514 -0.06265569 -0.26091656
0001a0 78 b2 a1 bc 78 42 22 3e 3b b3 dc bd c6 4e 82 be
       -0.01973842 0.15845668 -0.10776373 -0.25450724
0001b0 bb 67 5a bc b8 fa 1d 3c 4c 77 0f be 86 c5 40 be
       -0.013330395 0.009642296 -0.14010352 -0.18825349
0001c0 b8 54 88 3e f3 09 95 3e a8 2c 71 be 41 94 2f 3e
       0.26627135 0.29109153 -0.23552191 0.17146398
0001d0 f1 f6 67 3d 42 bc 7b be 55 40 d3 3d 80 9b f0 bd
       0.056631986 -0.24583533 0.10315005 -0.11748409
0001e0 ce 60 58 bc 64 a5 89 3e aa cd 0b 3e b3 11 e9 bb
       -0.013206674 0.26883996 0.13652673 -0.0071127056
0001f0 55 33 9c bd 61 bc ec 3c 8f 58 35 3e b8 8d 3f be
       -0.07626978 0.02889842 0.17709564 -0.18706405
000200 8f 3b 82 3e ef a8 11 be 55 6b 8a be ec e1 94 3d
       0.25436065 -0.142246 -0.27035013 0.07269654
000210 5b 3c df 3d 4e d2 57 3e 07 2b 8f 3e 10 c8 19 be
       0.10900184 0.21076319 0.27962515 -0.15017724
000220 10 ab 90 bd 24 24 c6 3d 3d c8 bc 3d 01 43 be 3d
       -0.070638776 0.09674862 0.0921788 0.09290124
000230 b9 b8 81 3e 37 c1 65 3c da bf 84 3e 75 7d 03 be
       0.25336245 0.014023117 0.2592762 -0.12840827
000240 a2 25 62 be 78 d9 89 3e c9 7b b8 3d bc c7 14 be
       -0.22084668 0.26923728 0.09007985 -0.14529318
000250 3e b2 1a 3e d1 29 5d 3e 40 ff 6c 3e 09 7a 2c 3e
       0.15107056 0.21597983 0.23144245 0.16843428
000260 c3 c3 06 3e 49 67 56 3e 42 97 99 3c fa 2c 82 3d
       0.13160615 0.20937838 0.018748883 0.06356235
000270 9e 70 4b 3e 9d 57 6a be 4e ed 23 be d2 05 2b 3e
       0.19867179 -0.22884984 -0.16008493 0.16701439
000280 6a 4f 58 3e 00 28 9c 3d 2a 5c f5 3d 4c 29 29 be
       0.21124044 0.07624817 0.119804695 -0.1651966
000290 1f 24 fa 3d 6b 9e c5 bd 8b 32 6f 3e 7d ab 8c 3e
       0.12213921 -0.096493565 0.23359124 0.27474585
0002a0 ef 52 b7 3d bf 41 1c 3e c1 41 1a 3e 3c b1 15 3e
       0.08951365 0.15259455 0.15064146 0.14618391
0002b0 2c b8 f7 bc 37 12 aa 3c b9 33 23 3e 15 96 14 3e
       -0.030239187 0.020760639 0.159377 0.14510377
0002c0 86 f4 3f bb 0d 4f c0 3b ed 78 d7 3d 7b ad 7b 3b
       -0.0029290034 0.0058687986 0.10521112 0.0038402963
0002d0 e6 eb b1 3d f8 02 44 3e b2 f2 d2 bd da 7e 1e bd
       0.08687572 0.19141757 -0.10300197 -0.038695194
0002e0 c8 80 2b be 7b 79 82 3e 95 43 8c be 78 40 8b 3e
       -0.16748345 0.25483307 -0.2739531 0.27197623
0002f0 28 98 72 3e 50 99 19 3d 28 a5 99 3e ce ce 1a be
       0.23690856 0.037499726 0.30008817 -0.15117952
000300 7a 25 df bc 1a 5b 92 be 8e 0b d8 bd 89 38 d0 bc
       -0.02723955 -0.2858513 -0.10549079 -0.025417583
000310 1a 71 57 bd e9 cb 02 bd 91 33 88 3d ee e6 7c be
       -0.052598096 -0.031932745 0.066504605 -0.24697468
000320 17 3e f4 bd 9e be 02 be 39 3c fe 3d 2e 81 80 3e
       -0.11925905 -0.12768027 0.1241383 0.25098556
000330 51 b1 b0 bd fc fa c8 3d af 54 8c 3e 9e ce c0 3d
       -0.086275704 0.098134965 0.27408358 0.09414409
000340 24 df f7 3d 6e 2f ed 3d 6c 59 88 be 02 67 9d bd
       0.121031076 0.11581312 -0.26630723 -0.07685663
000350 fa 70 42 be 1f 8d 86 3e 79 31 59 bd e9 00 44 3e
       -0.1898841 0.26279542 -0.053025696 0.19140972
000360 f7 29 ea 3d dd cb 19 be 87 a9 89 be b7 e9 42 3e
       0.114337854 -0.15019174 -0.26887152 0.19034468
000370 0d 32 87 be ed 51 44 bd b9 1b b4 3d ff f8 ed 3a
       -0.26405373 -0.047929693 0.0879435 0.0018155872
000380 d3 4f 82 be 7d 4b 17 be 1a 30 d0 bc 96 3a a2 3c
       -0.25451526 -0.1477489 -0.025413562 0.019803327
000390 cb 54 1c 3e ce 3d 2b 3c 47 90 3f be b4 09 fc 3d
       0.15266721 0.010451747 -0.18707381 0.12306538
0003a0 d7 66 b5 3d c8 fe 3b 3e fb ca 85 be 59 42 45 3e
       0.08857506 0.1835891 -0.26131424 0.19263591
0003b0 86 fc 96 bc ea 4c 29 3e e8 a9 7b 3e a2 c7 95 3d
       -0.01843096 0.16533247 0.24576533 0.073134676
0003c0 f6 24 40 bd 9f 6a 5e 3e 76 e8 6d 3e d4 b5 7b bc
       -0.04691025 0.2172036 0.23233208 -0.015363175
0003d0 72 6a be bd 4b 81 86 be 32 03 d5 bd c6 80 69 3e
       -0.092976466 -0.26270518 -0.10401 0.2280303
0003e0 1e f0 99 3c 05 a8 0a 3e b8 1a f8 bc ca 63 fa 3d
       0.018791255 0.13540657 -0.030286178 0.122260645
0003f0 69 77 dd bd 6b 5a 29 bd 90 ae 83 be 2e 64 85 3e
       -0.10813791 -0.041345995 -0.25719118 0.26052994

encoder.layers.0.ffn.linear2.bias f4 [16]
000000 aa 63 ad 3c d8 40 7b 3c 73 af ec bd b4 a9 86 bd
       0.021165688 0.015335284 -0.11556902 -0.06575337
000010 78 30 e8 bd 14 ea df bd 0e 24 1f bd 02 9b b1 3d
       -0.1133737 -0.10933319 -0.038852744 0.086721435
000020 cf af b5 bd 84 0c a4 3c c6 34 8b 3b 5e 2e 80 3d
       -0.088714235 0.0200255 0.0042482344 0.06258844
000030 d0 02 99 3d 89 10 96 3d e4 8d 3c 3d c1 68 a0 3d
       0.074712396 0.073273726 0.046033755 0.0783248

encoder.layers.0.norm2.gamma f4 [16]
000000 10 f6 79 3f f9 52 7e 3f d2 8c 7a 3f b1 dc 7d 3f
       0.97641087 0.99345356 0.97871125 0.99164873
000010 9f 36 7d 3f 24 e6 7c 3f 2a a1 7e 3f ee 98 7f 3f
       0.9891147 0.98788667 0.99464667 0.9984273
000020 42 0a 80 3f 28 8a 7e 3f cd 01 7f 3f 71 61 7e 3f
       1.000313 0.9942956 0.9961212 0.99367434
000030 88 a9 7e 3f cc 57 81 3f d4 32 7d 3f f6 cc 7b 3f
       0.99477434 1.0104918 0.9890568 0.9835962

encoder.layers.0.norm2.beta f4 [16]
000000 4c 1d b6 bc e4 90 89 3c 8a 77 0e 38 d9 bc 92 bc
       -0.022230767 0.016792722 3.3966768e-05 -0.017912315
000010 77 28 ec 3b 83 dd a4 3a 27 74 5f bb a9 6a 71 bc
       0.007206972 0.0012578223 -0.0034096332 -0.014734902
000020 fc c9 31 bb e4 69 aa bb 9c e1 91 3b b9 d0 8b 3c
       -0.0027128449 -0.0052006114 0.0044519436 0.0170673
000030 90 52 c0 3a 6d 88 de bb d9 05 b0 3a 58 d6 86 bc
       0.0014673043 -0.0067911656 0.0013429477 -0.016459629
