Trans_Prediction/model_saved/ratioMergedPrs/TM_ratioMergedPrs_delay_size_8_delay_2.pth (torch, 385400 bytes, 337 tensors)

encoder.layers.0.attention.w_q.weight f4 [16, 16]
0	0x3ed2889b	0.41119847
1	0xbf0f8830	-0.5606718
2	0x3da0e053	0.078552864
3	0x3e01d142	0.12677482
4	0xbe98453e	-0.29740328
5	0x3f14a3b4	0.5806229
6	0x3e8cf0d3	0.27527484
7	0xbefbaa83	-0.49153528
8	0x3ec95f69	0.39330605
9	0x3e988063	0.2978545
10	0x3e8d63c1	0.2761517
11	0x3ee17a46	0.440386
12	0xbda7cce4	-0.08193377
13	0x3f004d3a	0.5011784
14	0xbefea153	-0.49732456
15	0x3ebe62a1	0.37184623
16	0x3f008ed4	0.5021794
17	0xbf024ed7	-0.5090155
18	0x3dca3737	0.09873813
19	0x3ef58009	0.47949246
20	0x3ae57373	0.001750572
21	0xbead07b4	-0.3379494
22	0xbceeb64a	-0.029139657
23	0xbedc888f	-0.43072936
24	0x3f048d73	0.51778334
25	0x3f0c6ee3	0.548567
26	0x3f03fc10	0.5155649
27	0xbd6b2723	-0.05741037
28	0xbe00a91c	-0.1256451
29	0x3d847f79	0.06469626
30	0xbe773af3	-0.24143581
31	0x3e671e0d	0.22570057
32	0xbebb48c5	-0.36578956
33	0xbef37e47	-0.4755728
34	0x3d538317	0.05163869
35	0xbdfcfcce	-0.12352906
36	0xbe802c4d	-0.250338
37	0x3ef59c73	0.47970924
38	0x3e972213	0.29518184
39	0x3c1482b0	0.009064361
40	0xbe68ecc1	-0.22746564
41	0xbecb8b3f	-0.39754674
42	0x3eadade2	0.33921725
43	0xbe68034e	-0.2265751
44	0x3f09120f	0.5354318
45	0xbf1a85b3	-0.6036026
46	0x3e66b1f4	0.22528821
47	0xbf151961	-0.5824185
48	0x3e96a272	0.2942081
49	0x3e2735f8	0.16329181
50	0xbee522c3	-0.44753084
51	0x3ebfed3f	0.37485692
52	0x3e2fbbe3	0.17161517
53	0xbefb2ec9	-0.49059132
54	0x3f1aa03c	0.6040075
55	0xbe0cf45e	-0.13765094
56	0x3f14690f	0.57972807
57	0xbebb6d6b	-0.36606917
58	0xbf175c36	-0.5912508
59	0x3eb684ba	0.35648137
60	0xbee16f50	-0.44030237
61	0x3efcf7c5	0.49407783
62	0xbe18f472	-0.14936998
63	0x3dd6cf92	0.1048881
64	0xbe2dad63	-0.16960673
65	0x3e2f2613	0.17104368
66	0x3eceaaab	0.40364584
67	0x3efac534	0.4897858
68	0x3e9b1ebd	0.3029689
69	0x3d77aa4c	0.060465142
70	0xbf04f60f	-0.51937956
71	0xbe6837e1	-0.22677566
72	0x3ea48cac	0.32138574
73	0xbc84ddc6	-0.016219031
74	0x3eee1f2c	0.46508157
75	0xbf145754	-0.5794575
76	0xbf16d414	-0.58917356
77	0x3e4a9ecd	0.1978714
78	0xbef8298d	-0.484692
79	0x3d900a54	0.0703322
80	0xbe21da96	-0.1580604
81	0x3e0074cc	0.12544554
82	0x3f092a21	0.5357991
83	0xbe929353	-0.28628024
84	0x3e19957a	0.14998427
85	0xbdf9970b	-0.12187012
86	0xbf088cc4	-0.5333979
87	0x3f0e541f	0.5559711
88	0x3ddcfb15	0.107900776
89	0xbededef4	-0.43529475
90	0x3edc0f0e	0.42980236
91	0xbf092e2f	-0.53586096
92	0x3ec21211	0.3790441
93	0x3f029e36	0.5102266
94	0x3dca3538	0.09873432
95	0x3e559cff	0.2086067
96	0xbdc7349c	-0.09726831
97	0xbf13f1ea	-0.57791007
98	0x3dd7b370	0.10532272
99	0x3d1f8b59	0.03895125
100	0x3f04c084	0.51856256
101	0xbe7323bf	-0.23744105
102	0xbefe72e0	-0.49697018
103	0x3e72d413	0.23713712
104	0x3ebd6a53	0.3699518
105	0xbe9fedca	-0.31236106
106	0x3ed56015	0.41674867
107	0x3f107d22	0.5644094
108	0x3e09552a	0.13411394
109	0xbd16a266	-0.03677597
110	0xbe9e9927	-0.3097622
111	0xbee0d332	-0.4391113
112	0xbeade59e	-0.33964247
113	0xbe170ec4	-0.14751726
114	0x3eb7a1a6	0.35865515
115	0x3d53eb8e	0.051738314
116	0xbf08bc1b	-0.53412026
117	0xbe106481	-0.14100839
118	0x3f11390b	0.56727666
119	0x3eaec0d7	0.341315
120	0xbf1aaa93	-0.60416526
121	0xbf05b450	-0.5222826
122	0x3ef946ed	0.48686925
123	0xbb4eab2b	-0.003153513
124	0xbf1a4645	-0.6026347
125	0xbe44aa5a	-0.19205609
126	0x3ed5b038	0.41736007
127	0xbec92efe	-0.39293665
128	0xbf043bfc	-0.5165403
129	0xbed64325	-0.41848102
130	0x3ed5e43c	0.41775692
131	0x3cd353e7	0.025796844
132	0x3e73373b	0.23751538
133	0xbd3102e5	-0.04321565
134	0xbe132fb6	-0.14373669
135	0xbedd6657	-0.43242142
136	0x3e843af6	0.25826234
137	0xbd2e85a7	-0.04260793
138	0x3bc9f839	0.0061636236
139	0x3e1f8dc2	0.1558142
140	0xbe170876	-0.14749321
141	0xbdf3dd96	-0.119074985
142	0xbee865c8	-0.45390153
143	0xbf01ab28	-0.5065179
144	0xbe7cab20	-0.24674654
145	0xbc14c8de	-0.009081094
146	0xbedb5941	-0.42841533
147	0xbef64653	-0.48100528
148	0x3c8da937	0.017292602
149	0xbe1a31f8	-0.15058124
150	0xbddc08e6	-0.10743885
151	0x3da5c9fc	0.08095166
152	0x3e5916dd	0.21200128
153	0xbe244949	-0.16043581
154	0xbd63b096	-0.055588327
155	0xbde4275e	-0.11140321
156	0xbea2f295	-0.318257
157	0xbcacc937	-0.02109204
158	0x3eb7f4ad	0.3592886
159	0xbe73cd23	-0.23808722
160	0x3eddb223	0.4329997
161	0x3dcb008f	0.09912216
162	0xbea69c4a	-0.32541114
163	0xbcbf9cda	-0.023390222
164	0xbc8777f4	-0.01653669
165	0xbeee94b9	-0.4659784
166	0x3e955aa3	0.29170713
167	0xbf1ced3c	-0.6129949
168	0x3f152b44	0.58269143
169	0x3ede1b58	0.43380237
170	0xbd9c1319	-0.0762083
171	0xbec1f0dc	-0.37879074
172	0x3f17ca58	0.5929313
173	0xbe7fcdfc	-0.2498092
174	0xbf1c8ec7	-0.6115536
175	0x3f18de02	0.5971376
176	0xbf067ed8	-0.525373
177	0x3d186e1c	0.037214383
178	0x3ec44f14	0.38341582
179	0xbf1b2813	-0.60608023
180	0x3f17fe7b	0.5937268
181	0x3ee4f5d2	0.44718796
182	0xbed65b29	-0.41866425
183	0xbe6a10b9	-0.22857942
184	0x3ed34016	0.4125983
185	0x3f0a787d	0.540901
186	0xbe957eb1	-0.2919822
187	0x3e2b8320	0.16749239
188	0xbf11052b	-0.5664851
189	0xbe4f6446	-0.20253095
190	0xbeeafdf2	-0.4589687
191	0x3ebcff91	0.36913732
192	0x3f0c642f	0.5484037
193	0xbea8c284	-0.32960904
194	0x3f11e64b	0.56992024
195	0xbf0537da	-0.5203835
196	0x3f11e44c	0.5698898
197	0xbf194822	-0.5987569
198	0xbea599c1	-0.32343867
199	0x3f130ea3	0.5744421
200	0x3e370125	0.1787153
201	0x3d445f06	0.047942184
202	0xbed93f5b	-0.4243115
203	0x3f06176b	0.52379483
204	0x3f029023	0.51001185
205	0x3e15c04c	0.14624137
206	0x3dde242e	0.108467445
207	0xbf0899ab	-0.5335948
208	0xbeb252c6	-0.34828776
209	0x3ed6ca74	0.41951334
210	0x3e99154b	0.29899058
211	0x3d887ae3	0.06664064
212	0x3ee89b50	0.45430994
213	0x3edce701	0.43144992
214	0x3e383007	0.17987071
215	0x3e14b371	0.14521576
216	0x3ea34e7c	0.31895816
217	0xbf1425f0	-0.5787039
218	0xbe161504	-0.14656454
219	0x3e99a74a	0.30010444
220	0xbf0dafe9	-0.5534654
221	0xbe8e4742	-0.2778874
222	0xbe69ea8c	-0.22843379
223	0x3f0e9039	0.55688816
224	0xbec39e6c	-0.38206804
225	0xbe6fe8c0	-0.23428631
226	0x3e0dc22d	0.13843603
227	0xbea4139f	-0.3204622
228	0xbe97c4d5	-0.29642358
229	0x3e538e78	0.20659816
230	0x3e2d164c	0.16903037
231	0xbeba0c6c	-0.36337602
232	0xbdd6e09c	-0.104920596
233	0x3e0e3bb8	0.13889968
234	0xbd0ddb1d	-0.03463279
235	0xbe406171	-0.18787171
236	0xbea72b68	-0.32650304
237	0xbe91110d	-0.2833332
238	0x3d933970	0.0718869
239	0x3e5a6807	0.21328746
240	0x3e890b50	0.26766443
241	0x3ef12b67	0.47103426
242	0xbe8dbcdc	-0.2768315
243	0x3e474817	0.19461094
244	0x3e663ab5	0.22483332
245	0xbe8790b5	-0.2647759
246	0xbed20d78	-0.410259
247	0x3e8c62a7	0.27419016
248	0xbdedcb5d	-0.11611054
249	0x3e19950b	0.14998262
250	0xbdce0b29	-0.100607224
251	0xbe818eb4	-0.25304186
252	0xbf133093	-0.57495993
253	0xbe178e23	-0.14800315
254	0x3df0475e	0.11732362
255	0xbe389f5c	-0.18029541

encoder.layers.0.attention.w_q.bias f4 [16]
0	0x3e124c1f	0.1428685
1	0xbe57903d	-0.21051116
2	0xbe769462	-0.24080041
3	0x3cf60a2c	0.030034147
4	0xbcc7dfa2	-0.024398629
5	0xbcd0abd8	-0.025472566
6	0xbdec5db2	-0.115413085
7	0xbe255c63	-0.16148524
8	0x3e2fbf80	0.17162895
9	0xbe22b655	-0.15889867
10	0x3ca9854a	0.02069344
11	0xbe3a6442	-0.18202308
12	0xbd9d8295	-0.07690922
13	0xbe0452bc	-0.12922186
14	0x3d827ba5	0.063712396
15	0x3e4c066a	0.19924322

encoder.layers.0.attention.w_k.weight f4 [16, 16]
0	0x3dafad49	0.085779734
1	0x3ecb351c	0.39688957
2	0x3ec8c4a8	0.39212537
3	0x3dd6c807	0.10487371
4	0xbe89a271	-0.26881745
5	0xbe12825c	-0.1430754
6	0x3ed9ac45	0.42514244
7	0x3d277a1d	0.04088794
8	0x3ebc8623	0.36821088
9	0x3e8844bc	0.2661494
10	0x3e069350	0.13142133
11	0x3f049362	0.5178739
12	0xbec17eda	-0.37792093
13	0x3e7be358	0.24598444
14	0xbf1aeeb7	-0.605205
15	0x3d19d7e1	0.037559394
16	0xbe9fefc3	-0.3123761
17	0xbed3d3ad	-0.41372433
18	0xbe5b177b	-0.21395676
19	0xbe6276bf	-0.2211561
20	0x3e2ee8f2	0.17081049
21	0xbf12a85e	-0.5728816
22	0x3e9ec828	0.31012082
23	0xbf164b55	-0.587087
24	0xbee23023	-0.4417735
25	0x3e142bf2	0.14469889
26	0x3d41d8d3	0.04732592
27	0x3e922ee7	0.2855141
28	0x3deefd36	0.1166939
29	0x3e394f86	0.18096742
30	0x3d836ebe	0.06417607
31	0xbd549ec2	-0.051909216
32	0x3f197012	0.5993663
33	0x3edecb72	0.4351459
34	0x3f1e4179	0.61818653
35	0x3ec75892	0.3893476
36	0x3e261f17	0.16222797
37	0xbf05920e	-0.52175987
38	0xbea8f74c	-0.33001173
39	0xbe9d4765	-0.30718532
40	0xbeb3e911	-0.35138753
41	0x3eb791a0	0.3585329
42	0xbedb5545	-0.42838493
43	0x3e5a1753	0.2129796
44	0x3ee34cff	0.4439468
45	0x3e109cf3	0.14122371
46	0x3e90ea93	0.28303966
47	0xbeff7b33	-0.4989868
48	0xbf1147ef	-0.56750387
49	0xbedac0d8	-0.42725253
50	0x3f13e94b	0.5777785
51	0xbe173d49	-0.14769472
52	0xbebb79fd	-0.36616507
53	0xbefc3828	-0.49261594
54	0xbe8495e0	-0.25895596
55	0xbe057b4c	-0.13035315
56	0xbdc9fa1a	-0.09862156
57	0x3ec33eda	0.3813389
58	0xbecfe12a	-0.40601474
59	0xbcc56e6a	-0.024100501
60	0xbea6d091	-0.32581
61	0xbd3c963d	-0.046041716
62	0xbe16f773	-0.14742832
63	0x3e3ceb08	0.18449032
64	0xbe7712d1	-0.24128272
65	0xbe8477e5	-0.25872722
66	0x3e6501fb	0.22364037
67	0x3f0169d2	0.50552094
68	0x3cfb68bf	0.030689595
69	0xbdad7fbc	-0.08471629
70	0xbf000d09	-0.5001989
71	0x3d39b569	0.04533902
72	0x3ec51809	0.384949
73	0x3f12c5e3	0.573332
74	0x3e663f46	0.22485074
75	0x3d71ab88	0.059001476
76	0x3e8c7dd9	0.27439764
77	0x3e982145	0.29712883
78	0xbf0ef6ee	-0.55845535
79	0x3d1385a2	0.036016114
80	0x3f057a7f	0.5214004
81	0xbf1b0470	-0.60553646
82	0x3eb6099e	0.35554212
83	0x3e40f630	0.18843913
84	0xbed774ef	-0.420814
85	0x3ec14be6	0.37753218
86	0xbf123947	-0.5711865
87	0xbe7cd270	-0.2468965
88	0x3dba4ec4	0.090970546
89	0xbbdf420b	-0.006813293
90	0x3ee42b4b	0.4456428
91	0x3e63073b	0.22170727
92	0x3eae8316	0.34084386
93	0xbe09b1af	-0.13446687
94	0x3f00dd58	0.50337744
95	0x3f19b873	0.6004707
96	0x3eb5c9ce	0.35505527
97	0x3ea4423c	0.32081783
98	0x3ee03774	0.43792307
99	0x3d7a3591	0.06108624
100	0x3c70cee6	0.014697766
101	0x3eaa34f1	0.33243516
102	0xbecc558f	-0.39909026
103	0xbea75ac2	-0.3268643
104	0x3ee6d142	0.45081526
105	0x3d437f75	0.047728974
106	0x3df38c2d	0.11891971
107	0xbf1122ae	-0.5669354
108	0x3e35f7ca	0.17770305
109	0x3e341a17	0.17588077
110	0x3f0f6e90	0.5602808
111	0x3f04c96b	0.5186984
112	0x3f0b1b20	0.54338264
113	0xbecefd21	-0.40427497
114	0x3e467314	0.19379836
115	0xbda2aa92	-0.0794269
116	0xbeafa2d6	-0.3430392
117	0x3f1984ac	0.59968066
118	0xbd5cabdc	-0.053874835
119	0x3e3cc7b5	0.18435557
120	0x3e7f957e	0.2495937
121	0x3e764d40	0.24052906
122	0xbed46454	-0.41482794
123	0xbe1d997d	-0.15390582
124	0x3f0b109d	0.54322225
125	0xbebd69c3	-0.36994752
126	0xbeeda29f	-0.46413133
127	0x3df0eea7	0.11764269
128	0xbe11a251	-0.14222075
129	0xbedf957c	-0.43668735
130	0xbeb635fb	-0.3558806
131	0xbeb34ad4	-0.35018027
132	0x3e69e58d	0.22841473
133	0x3d908fbb	0.070586644
134	0xbdcfdf06	-0.1014996
135	0x3eae225c	0.3401059
136	0xbf033802	-0.51257336
137	0x3f0009c1	0.50014883
138	0x3f1559b8	0.58340025
139	0x3dcb152a	0.09916146
140	0x3d356664	0.0442871
141	0xbd794809	-0.060859714
142	0xbef2e260	-0.47438335
143	0x3e9c3410	0.3050847
144	0x3e5ee2ff	0.2176628
145	0x3ea9295f	0.33039376
146	0x3e9a0093	0.30078563
147	0xbef87a43	-0.48530778
148	0x3e3a2d41	0.18181325
149	0x3e4d0888	0.20022786
150	0x3ed91ce1	0.42404845
151	0x3efb96c1	0.49138454
152	0x3c5b82d1	0.013397888
153	0xbe4f0bb7	-0.20219313
154	0xbec98a38	-0.39363265
155	0x3f128a21	0.5724202
156	0x3ebf7419	0.37393263
157	0xbf0d07f0	-0.55090237
158	0x3e95177b	0.29119477
159	0xbee1f86d	-0.44134846
160	0x3e0fbdcd	0.14037247
161	0x3f0b3521	0.54377943
162	0x3edc070a	0.4297412
163	0xbecbe73c	-0.39824855
164	0xbe17594d	-0.1478016
165	0x3eddd60c	0.43327367
166	0xbf14bc36	-0.5809969
167	0xbf055f86	-0.5209888
168	0xbf1e2c32	-0.61786187
169	0x3e74163f	0.23836611
170	0x3e818905	0.2529985
171	0x3ea6bc68	0.32565618
172	0x3d8be554	0.0683085
173	0xbe8d7bb6	-0.27633446
174	0xbd0a3c2b	-0.033748787
175	0xbe940f62	-0.28917986
176	0x3ed39566	0.4132492
177	0xbea2e41a	-0.31814653
178	0x3eb89237	0.36049053
179	0x3e228337	0.15870367
180	0x3efbeafb	0.49202713
181	0x3e375e41	0.17907049
182	0xbd9287bc	-0.071547955
183	0x3f073b34	0.5282471
184	0xbe203102	-0.15643695
185	0xb956d0ce	-0.00020486416
186	0xbe6f2753	-0.23354845
187	0x3e95a426	0.29226798
188	0x3eaf158f	0.34196135
189	0x3f01b701	0.50669867
190	0x3f0682bc	0.52543235
191	0xbe94af22	-0.29039866
192	0xbe117976	-0.1420649
193	0xbf15d76d	-0.5853184
194	0xbd6db487	-0.058033492
195	0xbe96fe1e	-0.2949075
196	0x3f066b5e	0.5250758
197	0xbf1bd661	-0.6087399
198	0xbf09cc36	-0.53827226
199	0x3e66949b	0.22517626
200	0xbf11837e	-0.56841266
201	0x3edd3947	0.43207762
202	0x3dc7c1c8	0.09753758
203	0xbdb788be	-0.089616284
204	0x3efa6cb2	0.48911053
205	0x3e80f5d2	0.25187546
206	0x3e319063	0.17340235
207	0x3df8dc7b	0.12151428
208	0x3f168a3d	0.58804685
209	0x3f13cdab	0.577357
210	0xbf04296f	-0.5162572
211	0xbe289c64	-0.16465908
212	0x3e23b980	0.15988731
213	0xbf15b6ff	-0.58482355
214	0xbe9d1da5	-0.3068668
215	0xbe49eec8	-0.19719994
216	0x3edb3746	0.42815608
217	0x3e70c3fb	0.2351226
218	0xbe2129b7	-0.15738569
219	0x3eb701f0	0.35743666
220	0xbd80c2b9	-0.062871404
221	0x3eafdbd3	0.343474
222	0xbf0dc27e	-0.55374897
223	0xbec788ad	-0.38971463
224	0x3e885123	0.26624402
225	0x3ead6d3e	0.33872408
226	0x3ea5e6d2	0.32402664
227	0xbe3a2147	-0.18176757
228	0x3e77592a	0.24155107
229	0xbeb5dc6d	-0.35519734
230	0xbef78f8d	-0.48351708
231	0x3e561b9e	0.20908973
232	0x3e6c4338	0.23072517
233	0x3edf61b3	0.43629226
234	0x3ea4d082	0.3219033
235	0xbef8c057	-0.48584244
236	0xbd386460	-0.0450176
237	0xbd04a8d6	-0.032387577
238	0xbeaab1f1	-0.33338884
239	0xbf01a457	-0.5064139
240	0x3e846e06	0.2586519
241	0x3f0bffbf	0.5468711
242	0xbd810ca0	-0.06301236
243	0x3e2d6e49	0.16936602
244	0x3e91ee84	0.28502285
245	0xbdf20ce6	-0.118188664
246	0x3e9fd875	0.3121983
247	0x3ecd7f4f	0.4013619
248	0xbe880835	-0.2656876
249	0xbeebbb0d	-0.46041146
250	0x3efb0068	0.49023747
251	0x3bbf9baa	0.005847414
252	0xbeb7825c	-0.35841644
253	0x3e9fe702	0.31230932
254	0xbee3f596	-0.44523305
255	0x3e05c9a2	0.13065198

encoder.layers.0.attention.w_k.bias f4 [16]
0	0x36100dbf	2.1465673e-06
1	0x35270f19	6.223432e-07
2	0xb653fadd	-3.1587472e-06
3	0xb62c1e88	-2.5647769e-06
4	0xb3781c79	-5.7767895e-08
5	0xb69b5b66	-4.63e-06
6	0xb29007d9	-1.6767375e-08
7	0xb69406b4	-4.411524e-06
8	0xb77501dc	-1.4603571e-05
9	0xb76baa84	-1.4046793e-05
10	0x371775b7	9.027709e-06
11	0xb70f2018	-8.530937e-06
12	0xb55032ca	-7.7559946e-07
13	0xb4ca3591	-3.7664407e-07
14	0xb69a63fe	-4.6011983e-06
15	0x35c345e3	1.4548972e-06

encoder.layers.0.attention.w_v.weight f4 [16, 16]
0	0xbeb2c734	-0.34917605
1	0x3ec77d92	0.3896299
2	0xbeccd44a	-0.40005714
3	0x3ee54af6	0.44783753
4	0x3f0b99d7	0.54531616
5	0x3ead5acd	0.33858338
6	0xbdc58b64	-0.09645727
7	0x3f1d4f4d	0.6144913
8	0xbee163e0	-0.4402151
9	0x3f144fc3	0.57934207
10	0x3e865f26	0.26244467
11	0xbee2e43c	-0.44314754
12	0x3ea00c83	0.31259546
13	0xbe46abd5	-0.19401486
14	0x3e46fba3	0.1943193
15	0x3eabd5e8	0.33561635
16	0x3f071810	0.5277109
17	0xbead9930	-0.33905935
18	0xbe504985	-0.20340545
19	0x3c803bda	0.01565354
20	0x3e60b08c	0.21942347
21	0x3eb88006	0.36035174
22	0x3daf314a	0.08554323
23	0x3e41827b	0.1889743
24	0x3ed229bf	0.41047475
25	0xbe8ab8aa	-0.27094012
26	0x3daa2a11	0.08308805
27	0x3eb29cc2	0.34885222
28	0xbeed4c72	-0.46347386
29	0x3ed7c154	0.42139685
30	0xbd8b89c6	-0.068133876
31	0xbdc7ad9d	-0.09749911
32	0x3f0b0cc9	0.54316384
33	0xbb945f9a	-0.004527998
34	0xbecfece1	-0.40610412
35	0x3e2ed807	0.17074595
36	0x3f109a0b	0.5648505
37	0x3ea8f07a	0.3299597
38	0xbef93ca8	-0.4867909
39	0xbdb5c05b	-0.088745795
40	0xbe074a7a	-0.13212004
41	0x3efd4682	0.49467856
42	0xbf024896	-0.5089201
43	0x3d1c8783	0.03821517
44	0x3d89ea59	0.067341514
45	0x3ed9270c	0.42412603
46	0x3f1424e7	0.5786881
47	0x3f0e2a3b	0.5553319
48	0xbeb570fc	-0.35437763
49	0xbedcb54f	-0.43107077
50	0x3f0eb212	0.55740464
51	0xbecbc1f7	-0.3979642
52	0xbedf702f	-0.43640277
53	0xbe9408ec	-0.28913057
54	0x3ecbfdcb	0.39842066
55	0x3f12fd92	0.5741817
56	0xbe3969fb	-0.18106835
57	0xbf03260f	-0.5122995
58	0xbef951f7	-0.48695347
59	0x3f01dd23	0.5072805
60	0xbeb3a7df	-0.35089013
61	0xbf0dbb4a	-0.55363905
62	0xbe8ec9e3	-0.27888402
63	0x3e2a996d	0.1666009
64	0xbdbcadce	-0.09212838
65	0x3e98a2dd	0.29811755
66	0x3e6811e7	0.22663079
67	0x3d5389e9	0.051645193
68	0x3d314d1d	0.04328643
69	0xbe7f6636	-0.24941334
70	0xbec0a687	-0.3762705
71	0x3e1ee7e7	0.15518151
72	0x3f047ca8	0.5175271
73	0x3d9a6e26	0.075405404
74	0x3ea05bd2	0.31320053
75	0xbdb1bbfa	-0.08678432
76	0x3ebb6c84	0.36606228
77	0x3e5bd119	0.21466483
78	0x3e2a9ccb	0.16661374
79	0x3da9940c	0.08280191
80	0xbf0c491a	-0.54799044
81	0xbd8a94e4	-0.0676668
82	0x3daa65ff	0.083202355
83	0x3ea1618f	0.31519744
84	0xbe91661c	-0.28398216
85	0x3f0e732f	0.55644506
86	0xbda51f71	-0.080626376
87	0xbe3d48bc	-0.18484777
88	0xbf01cf19	-0.5070663
89	0x3f141985	0.5785144
90	0xbf0ef118	-0.5583663
91	0x3ec9b78b	0.39397845
92	0x3e29773b	0.16549389
93	0x3e81647d	0.2527198
94	0xbc06fbbf	-0.008238732
95	0xbf150dd1	-0.5822421
96	0xbede9b75	-0.4347798
97	0x3e8b93bd	0.27261153
98	0x3d13dcf9	0.036099408
99	0x3e9b7417	0.30362007
100	0xbe9aefed	-0.30261174
101	0xbdfb6462	-0.12275006
102	0x3d897049	0.0671087
103	0x3f1de613	0.6167919
104	0x3e211ac9	0.15732874
105	0x3e82268c	0.25420034
106	0x3f0a55b3	0.54037017
107	0xbef43711	-0.47698262
108	0xbe400e42	-0.18755439
109	0x3ea1b8a0	0.3158617
110	0xbda1f4fc	-0.07908055
111	0x3e6303dd	0.22169442
112	0x3f05f326	0.5232414
113	0x3ea6c8ac	0.32574975
114	0xbeb20abf	-0.34773824
115	0x3ebd3bd9	0.36959723
116	0x3d2905ed	0.041265417
117	0x3d4d164f	0.050070103
118	0xbdea89db	-0.11452075
119	0x3ee7f841	0.4530659
120	0xbe1367ad	-0.14395018
121	0xbf0dfb17	-0.5546126
122	0x3e458ff5	0.19293196
123	0x3e9fee36	0.31236428
124	0x3ee5060a	0.4473117
125	0xbe1a5de7	-0.15074883
126	0x3efea4c3	0.49735078
127	0xbdd0fdd7	-0.10204666
128	0x3db8542a	0.09000428
129	0x3ebad607	0.36491415
130	0xbde2ee24	-0.11080578
131	0x3e552aec	0.20817155
132	0x3d6bd189	0.057572875
133	0x3e92fd65	0.2870895
134	0x3ea76b09	0.3269885
135	0x3e51fe15	0.20507081
136	0x3e33d015	0.17559846
137	0xbf0524f0	-0.5200949
138	0x3ea8ffc6	0.3300764
139	0xbf1e2eff	-0.6179046
140	0x3eaee7b6	0.34161156
141	0x3d657699	0.056021307
142	0x3e84345c	0.25821197
143	0x3e8a65e4	0.2703086
144	0xbf172c2d	-0.5905178
145	0xbeb10557	-0.34574386
146	0xbe99db69	-0.3005021
147	0xbec0a368	-0.3762467
148	0x3eb87534	0.3602692
149	0x3e75256c	0.23940057
150	0x3f0172d5	0.50565845
151	0x3e9bd29b	0.30434117
152	0xbde59591	-0.11210168
153	0xbb4b91f7	-0.0031062344
154	0x3eac0f37	0.33605358
155	0xbedbfafe	-0.4296493
156	0x3e94e831	0.29083398
157	0xbd12b337	-0.035815444
158	0x3eda09ec	0.42585695
159	0x3f1b47ab	0.6065623
160	0xbe73c112	-0.23804119
161	0x3dbd71a1	0.092501886
162	0x3e5d1d19	0.21593131
163	0xbf1debd3	-0.61687964
164	0x3da9dbfa	0.0829391
165	0x3d1bd2b6	0.038042746
166	0x3de59da7	0.112117104
167	0xbdeb44ab	-0.11487707
168	0x3ddf9044	0.10916188
169	0xbf0589d4	-0.52163434
170	0x3eba0f6a	0.36339885
171	0x3e97e1ba	0.29664403
172	0xbe0ac09c	-0.13550037
173	0xbecdde80	-0.40208817
174	0xbed5b945	-0.41742912
175	0xbd0e6781	-0.034766678
176	0x3e7b2cd0	0.24528813
177	0x3e1e5867	0.1546341
178	0xbe7fd962	-0.24985269
179	0x3f0926ac	0.53574634
180	0xbef88003	-0.48535165
181	0x3eb461f8	0.35230994
182	0xbc2dc004	-0.010604862
183	0x3ea63252	0.32460266
184	0x3db57750	0.08860648
185	0x3d2ff3a8	0.042956978
186	0x3c68e3ac	0.014214437
187	0x3f0f9973	0.5609352
188	0xbf07d1f5	-0.53054744
189	0xbe567c0d	-0.20945759
190	0xbe455bdd	-0.19273324
191	0xbdfcbbc6	-0.123405024
192	0x3e0ec4a6	0.13942203
193	0xbeac7abd	-0.33687392
194	0xbe28be0d	-0.16478749
195	0x3ea082f9	0.31349924
196	0xbc5f3ba4	-0.013625059
197	0xbee10a37	-0.43953106
198	0xbced36f7	-0.028956873
199	0xbec20072	-0.37890965
200	0xbeaa56af	-0.3326926
201	0xbdb0258a	-0.0860091
202	0x3ed1b76d	0.40960255
203	0xbebc6933	-0.3679901
204	0x3e6d0f84	0.2315045
205	0xbebf5d0f	-0.37375686
206	0xbe5dadf2	-0.21648386
207	0xbe4ceac4	-0.20011431
208	0xbf197c60	-0.59955406
209	0x3e1cea5e	0.15323779
210	0xbeb67a38	-0.3564012
211	0x3f084793	0.53234214
212	0x3d32b656	0.04363092
213	0x3e5eede2	0.21770433
214	0x3e3f96ca	0.18709865
215	0xbeacec13	-0.3377386
216	0xbef81f12	-0.48461205
217	0x3bbfc0df	0.0058518494
218	0x3f146dcd	0.5798004
219	0x3c9f4369	0.019441323
220	0xbdae2b2a	-0.08504327
221	0x3e0c7be7	0.1371914
222	0x3ee49935	0.44648138
223	0xbe4417f0	-0.19149756
224	0x3dee32fc	0.11630818
225	0xbd324bbc	-0.043529257
226	0x3da6706e	0.08126913
227	0xbe803e9d	-0.2504777
228	0x3ef3ed6c	0.47642076
229	0xbf0b4c5a	-0.5441338
230	0xbde470d5	-0.111543335
231	0xbf05ff1b	-0.52342385
232	0xbeefa39b	-0.4680451
233	0x3eaccab4	0.337484
234	0x3c0bf863	0.008543107
235	0xbe641d57	-0.22276817
236	0xbd5837db	-0.052787643
237	0xbe16675a	-0.14687863
238	0x3e3988b5	0.18118556
239	0xbf090281	-0.53519446
240	0x3f02a296	0.51029336
241	0x3eeb5cb0	0.45969152
242	0xbde3f3a5	-0.11130456
243	0x3d9945cf	0.07484018
244	0xbed32038	-0.41235518
245	0xbe158678	-0.14602077
246	0x3d97ccee	0.07412134
247	0x3e6ae38e	0.22938368
248	0x3edaab1d	0.42708674
249	0xbef244ef	-0.47318217
250	0xbdac5982	-0.0841551
251	0xbe5c64f3	-0.21522884
252	0x3ec22835	0.379213
253	0x3e865f45	0.2624456
254	0x3ec0b95e	0.37641424
255	0xbe8595a8	-0.2609074

encoder.layers.0.attention.w_v.bias f4 [16]
0	0xbe0f923f	-0.14020632
1	0xbd706a96	-0.0586954
2	0xbd4b4cb5	-0.0496337
3	0x3dfcc692	0.12342562
4	0xbe33b61a	-0.17549935
5	0x3dc6e557	0.09711712
6	0x3dd19121	0.10232759
7	0xbd70f599	-0.05882797
8	0xbe40212a	-0.18762651
9	0x3e25fee2	0.16210511
10	0xbdbb2fc5	-0.09139971
11	0x3cbb97ab	0.02289947
12	0xbe6b3614	-0.22969848
13	0xbbe16f71	-0.00687974
14	0xbe42f97c	-0.19040483
15	0xbd09aba5	-0.03361096

encoder.layers.0.attention.w_concat.weight f4 [16, 16]
0	0x3df10e5d	0.11770318
1	0x3f16129d	0.5862215
2	0xbee81d82	-0.45335013
3	0xbefa307a	-0.4886511
4	0x3d9e0e69	0.07717592
5	0xbd4ab4b1	-0.049488727
6	0xbeeea89a	-0.46613008
7	0x3e4c91e7	0.19977532
8	0x3f04a7ec	0.5181873
9	0xbf05f303	-0.5232393
10	0xbdc70107	-0.09716993
11	0x3e0e67ec	0.1390683
12	0xbe2f2274	-0.17102987
13	0x3f0d6415	0.5523084
14	0xbefe3f11	-0.4965749
15	0xbe57ed4a	-0.21086612
16	0xbecef266	-0.4041931
17	0x3e29557e	0.16536519
18	0xbd42c173	-0.04754777
19	0x3f0e4aaf	0.5558271
20	0x3f0d2e36	0.5514864
21	0xbec7be10	-0.39012194
22	0xbf164364	-0.5869658
23	0xbbd9ef9c	-0.006650878
24	0x3cbb6daa	0.02287944
25	0xbe05ae39	-0.13054742
26	0x3e2c1b73	0.16807346
27	0xbd9ccf91	-0.07656778
28	0x3e2e8b41	0.17045309
29	0x3d7fcf79	0.06245372
30	0x3d46801c	0.04846202
31	0x3e6df49d	0.23237844
32	0xbf11ba2a	-0.5692469
33	0xbd033cc9	-0.03204039
34	0xbe004f36	-0.12530217
35	0x3e2573e6	0.16157493
36	0x3e697b68	0.22800982
37	0xbdca5cd7	-0.09880989
38	0xbe996322	-0.29958445
39	0x3f0ca299	0.54935604
40	0xbef34807	-0.4751589
41	0xbd1a2c7d	-0.037640084
42	0xbe22dd3e	-0.1590471
43	0x3eefc0f8	0.4682691
44	0xbef3725b	-0.47548184
45	0x3df01ab1	0.11723841
46	0xbd1f2aeb	-0.03885929
47	0x3e09ec88	0.13469136
48	0xbe097fa5	-0.13427599
49	0x3f024fac	0.5090282
50	0xbd340d6e	-0.04395812
51	0x3e1a700e	0.15081808
52	0xbec72e59	-0.38902548
53	0x3e897edd	0.26854602
54	0xbe53c643	-0.206811
55	0xbf17ae73	-0.59250563
56	0x3f0d4f04	0.55198693
57	0x3f0ea8f2	0.5572654
58	0x3d008b82	0.031383045
59	0xbd783106	-0.060593627
60	0xbf015ec9	-0.50535256
61	0x3f088217	0.533235
62	0xbdc0887b	-0.094010316
63	0x3de78eaf	0.113065116
64	0xbf1bffb8	-0.6093707
65	0xbed918d7	-0.42401764
66	0xbeccccab	-0.399999
67	0xbebc4f5e	-0.36779302
68	0x3ee48546	0.4463293
69	0x3efec38f	0.49758574
70	0x3e58b289	0.21161856
71	0x3e3061ab	0.17224757
72	0x3ecff953	0.40619907
73	0xbc192c78	-0.009348981
74	0xbed3641e	-0.4128732
75	0x3cff0221	0.031128945
76	0x3e16b13d	0.14716049
77	0x3eb982b4	0.3623253
78	0x3de8a6ec	0.11359963
79	0xbf10f07d	-0.56616956
80	0xbeeaca87	-0.4585764
81	0xbecc68a5	-0.39923587
82	0xbdba7e11	-0.091060765
83	0x3e86e0ae	0.26343292
84	0xbef451e1	-0.4771872
85	0xbe7ccb22	-0.24686864
86	0xbd3ac318	-0.045596212
87	0x3e5ff1de	0.21869609
88	0x3d6095b5	0.05483027
89	0x3e2c5bf2	0.1683195
90	0xbeed45ca	-0.46342307
91	0x3cce1906	0.025158416
92	0xbecb7f86	-0.3974573
93	0x3e978be3	0.29598913
94	0x3e54c79c	0.2077927
95	0xbf00a95e	-0.50258434
96	0xbef11ea8	-0.470937
97	0x3d3567a7	0.044288304
98	0xbe900eb5	-0.2813622
99	0x3e9df28b	0.30849108
100	0xbc3bb2cd	-0.011456204
101	0xbe0741a5	-0.13208635
102	0xbc02fe21	-0.007995159
103	0x3dafa4b3	0.08576336
104	0x3e93e27a	0.28883725
105	0xbe14b9a6	-0.14523944
106	0xbeacc1ad	-0.33741513
107	0x3e2b8e5e	0.16753528
108	0xbe3172be	-0.17328927
109	0x3d4e17e8	0.050315768
110	0x3e8ed4e8	0.2789681
111	0xbf04337e	-0.5164107
112	0xbedac518	-0.42728496
113	0x3f060ba9	0.5236154
114	0xbf0e6d29	-0.55635315
115	0xbe8e4a43	-0.27791032
116	0xbee9b069	-0.45642403
117	0x3f19e472	0.60114205
118	0x3e9f7a14	0.31147826
119	0xbeae9d67	-0.34104463
120	0x3f02f888	0.5116048
121	0xbeb67e3b	-0.3564318
122	0x3ec8a2b6	0.3918664
123	0xbea89c4f	-0.32931754
124	0x3eb003c1	0.34377864
125	0x3f0a6c2b	0.540713
126	0xbe7cb5b4	-0.24678689
127	0x3ea25fd2	0.3171373
128	0x3ece3e48	0.40281892
129	0xbd4e54f4	-0.050373986
130	0x3ea820a0	0.3283739
131	0xbe0c1dc0	-0.13683224
132	0x3f04891d	0.5177172
133	0xbe5b2eb3	-0.21404533
134	0x3efd5fc1	0.49487117
135	0x3f058224	0.52151704
136	0x3efb87a3	0.4912692
137	0x3f002965	0.50063163
138	0xbf1b0d81	-0.6056748
139	0xbf0d3d53	-0.551717
140	0xbe8cd11d	-0.2750329
141	0x3e5db28e	0.21650144
142	0xbeff64e5	-0.49881664
143	0x3dd5518f	0.10415947
144	0xbecad1bb	-0.39613137
145	0x3e6f4779	0.23367108
146	0x3f06d796	0.5267271
147	0x3e6b50a6	0.22979984
148	0xbe8b7b9b	-0.2724274
149	0xbeac6d01	-0.33676913
150	0xbeecb56d	-0.46232167
151	0x3f0225a0	0.5083866
152	0xbeb21ba6	-0.3478672
153	0x3ed1167e	0.40837473
154	0xbee24695	-0.44194475
155	0xbf1046e6	-0.5635818
156	0x3eb1ac30	0.3470168
157	0x3c7121dc	0.014717545
158	0xbee6aad6	-0.45052212
159	0xbec0e5cc	-0.3767532
160	0x3f1321c6	0.5747341
161	0x3edad48c	0.42740285
162	0xbd88c8bc	-0.06678912
163	0xbeddb460	-0.43301678
164	0x3dbc6d09	0.09200484
165	0x3dc4da77	0.09611981
166	0xbf121273	-0.570594
167	0xbd141ff9	-0.036163304
168	0x3ef45f32	0.47728878
169	0xbe9bd3c0	-0.3043499
170	0xbedd63a0	-0.4324007
171	0x3e129f00	0.14318466
172	0xbb8bdc22	-0.0042681852
173	0xbf06ac41	-0.5260659
174	0x3db3202b	0.0874637
175	0x3e0bea42	0.13663581
176	0xbddf4ad9	-0.10902948
177	0x3d868686	0.06568627
178	0x3e70679a	0.23477021
179	0xbd438a81	-0.04773951
180	0x3e941617	0.28923103
181	0x3ed106d2	0.40825516
182	0xbe42a711	-0.19009043
183	0x3eb126ce	0.34599918
184	0x3de6531d	0.11246321
185	0x3de587b5	0.11207525
186	0x3e171b2a	0.14756456
187	0xbebe6b88	-0.37191415
188	0x3ea2e21f	0.31813142
189	0xbf1d7532	-0.6150695
190	0xbc751d29	-0.014960566
191	0xbe4f2afe	-0.20231244
192	0xbed682cf	-0.41896674
193	0xbf0d1dd9	-0.5512367
194	0x3ea68075	0.3251988
195	0xbe5a9529	-0.21345963
196	0x3eb6c3b6	0.3569619
197	0xbee47059	-0.44616964
198	0x3d4a9552	0.04945881
199	0x3dd492b1	0.10379542
200	0x3e2d1693	0.16903143
201	0xbea52fdf	-0.32263085
202	0x3e99f414	0.3006903
203	0xbee251f3	-0.44203147
204	0x3ef37152	0.47547394
205	0x3dceeac8	0.10103375
206	0xbf12524f	-0.5715684
207	0xbe8ee07a	-0.27905637
208	0x3ef0af62	0.47008806
209	0x3df079a9	0.11741955
210	0x3e7f8fc6	0.24957189
211	0x3e5f0c45	0.21782024
212	0xbe95f000	-0.29284668
213	0xbdd2cf70	-0.10293472
214	0x3e4c5373	0.19953708
215	0x3e5749a3	0.21024184
216	0x3ea168e4	0.31525338
217	0xbef83d0e	-0.4848408
218	0x3f177a66	0.5917114
219	0x3ea94b14	0.33065093
220	0x3ee4fce6	0.44724196
221	0x3f0626ea	0.5240313
222	0x3b06548e	0.0020497176
223	0xbc58e00d	-0.013237012
224	0x3f0b242e	0.5435208
225	0xbe8ba2d8	-0.27272677
226	0x3dca1caa	0.098687485
227	0x3d2d72a4	0.042345658
228	0xbf1cfed4	-0.61326337
229	0xbf124d98	-0.5714965
230	0x3ee1d44e	0.44107288
231	0xbcbe967f	-0.023265122
232	0xbe4f373d	-0.20235915
233	0x3e980ea5	0.29698673
234	0xbf018446	-0.5059246
235	0x3f1d6a03	0.61489886
236	0xbe7ce7e1	-0.2469783
237	0x3efff389	0.4999049
238	0xbe1e9b58	-0.15488946
239	0xbe91f38e	-0.2850613
240	0x3f1b2a5f	0.6061153
241	0x3effc4b3	0.49954757
242	0x3e94d608	0.29069543
243	0xbdf62a30	-0.120197654
244	0xbdf3b87b	-0.11900421
245	0x3eddd8c7	0.4332945
246	0x3e6a257c	0.22865862
247	0xbf0367a9	-0.5133005
248	0xbf18df2a	-0.5971552
249	0xbe8d072e	-0.2754454
250	0x3ef8e09a	0.48608857
251	0xbf07496f	-0.52846426
252	0x3f07a1da	0.5298134
253	0x3decc312	0.11560644
254	0x3ddce2e7	0.10785466
255	0x3da996dc	0.08280727

encoder.layers.0.attention.w_concat.bias f4 [16]
0	0xbdb76af2	-0.08955945
1	0xbd2d45b1	-0.04230279
2	0xbda5a1a6	-0.080874726
3	0x3d29d476	0.041462384
4	0x3e648758	0.22317255
5	0x3e0d6d63	0.13811259
6	0xbe1aab7e	-0.15104482
7	0x3d5277e6	0.051383875
8	0x3e09c3f5	0.13453658
9	0x3d9dd488	0.07706553
10	0xbca4fec7	-0.020141019
11	0x3e52330b	0.20527284
12	0xbdc313d2	-0.09525265
13	0xbe865c23	-0.2624217
14	0xbdff9ca0	-0.12481046
15	0xbd91c02c	-0.07116732

encoder.layers.0.norm1.gamma f4 [16]
0	0x3f8248dc	1.0178485
1	0x3f7dfd2c	0.99214435
2	0x3f7d5b2d	0.9896725
3	0x3f807ff2	1.0039046
4	0x3f7cb74b	0.9871718
5	0x3f7eec18	0.99579
6	0x3f7ebd3b	0.9950749
7	0x3f7ddf90	0.99169254
8	0x3f7c80a2	0.9863378
9	0x3f77614b	0.9663283
10	0x3f808091	1.0039235
11	0x3f8039c1	1.0017625
12	0x3f781466	0.96906126
13	0x3f7f7732	0.9979125
14	0x3f829620	1.0202065
15	0x3f7d174e	0.98863685

encoder.layers.0.norm1.beta f4 [16]
0	0x3c6504e2	0.013978215
1	0xba8d9898	-0.0010802923
2	0xbbf4303b	-0.0074520386
3	0x3bcbba8f	0.006217308
4	0xbc7713d0	-0.015080407
5	0x3c7a8d8b	0.015292536
6	0xbc041696	-0.0080620255
7	0xbb10dc8d	-0.0022104115
8	0x3c7a7ec8	0.015289016
9	0x3b29a875	0.0025887762
10	0x3c650046	0.013977116
11	0xbc233741	-0.009961904
12	0x3c9a0dd3	0.01880542
13	0xbc4ed654	-0.012624342
14	0x3c923b71	0.01785061
15	0xbc908747	-0.01764263

encoder.layers.0.ffn.linear1.weight f4 [64, 16]
0	0x3f0e26ee	0.5552815
1	0x3e4d672a	0.20058885
2	0x3e994725	0.2993709
3	0x3da80dfe	0.08205794
4	0xbe3a2079	-0.1817645
5	0x3eef892d	0.46784344
6	0x3eda84f2	0.42679554
7	0xbed4f1ff	-0.41590878
8	0x3e5010e7	0.20318948
9	0x3ec999aa	0.3937505
10	0x3eaf7074	0.34265482
11	0xbe359821	-0.17733814
12	0x3e12b21e	0.14325759
13	0xbe043e30	-0.12914348
14	0x3e93a8d3	0.2883974
15	0x3ee271ec	0.4422754
16	0x3ce0f4d4	0.027460493
17	0x3e1b8a6b	0.15189521
18	0x3eb8ad25	0.360696
19	0x3f0aff05	0.5429538
20	0xbebc60b9	-0.36792544
21	0xbe9e0f11	-0.3087087
22	0x3e90fc06	0.2831728
23	0xbf03942c	-0.5139797
24	0xbed2fd35	-0.41208807
25	0xbeefd32d	-0.46840802
26	0x3e1393f9	0.14411916
27	0xbde13e84	-0.10998252
28	0xbe65f233	-0.22455673
29	0xbed64028	-0.41845822
30	0x3d069886	0.0328603
31	0xbe07cf65	-0.13262708
32	0x3e069edb	0.13146536
33	0xbebbe0dc	-0.36694992
34	0x3e648e0e	0.22319815
35	0xbe9b337c	-0.30312717
36	0x3c861e9d	0.01637202
37	0xbf06da22	-0.52676594
38	0x3de9962f	0.11405598
39	0xbe4f42ac	-0.20240277
40	0xbed986b7	-0.42485592
41	0x3e604300	0.21900558
42	0x3ec9cf00	0.3941574
43	0xbeadbd5d	-0.33933535
44	0xbbc64060	-0.0060501546
45	0x3ed54881	0.4165688
46	0xbef80544	-0.48441517
47	0xbe943791	-0.28948644
48	0x3ec7a2db	0.38991436
49	0x3efcb392	0.4935575
50	0x3eb740f6	0.3579175
51	0x3db83e7b	0.08996292
52	0x3d0be483	0.034153473
53	0xbec60a91	-0.38679937
54	0x3ecb03f4	0.39651453
55	0xbf162ef3	-0.5866539
56	0xbe98600e	-0.29760784
57	0xbed3bd9d	-0.413556
58	0x3e2d696d	0.16934748
59	0x3e78d78e	0.24300978
60	0x3c24e5c6	0.010064548
61	0xbea3b912	-0.31977135
62	0xbe0d9d50	-0.13829541
63	0x3e00c494	0.12574989
64	0x3ea07c84	0.31344998
65	0x3ef0d714	0.47039092
66	0xbe43d667	-0.19124757
67	0xbf1ae598	-0.6050658
68	0xbf17ae7e	-0.5925063
69	0xbe4974e3	-0.19673495
70	0xbefd9726	-0.4952938
71	0x3eb5961d	0.3546609
72	0xbd84b581	-0.064799316
73	0xbf14c336	-0.5811037
74	0x3ea1ed62	0.3162642
75	0xbe53f4ca	-0.20698848
76	0x3efe7cce	0.49704593
77	0x3e43c27f	0.19117163
78	0x3e57e688	0.21084034
79	0x3ee6d96d	0.45087758
80	0x3f139218	0.57644796
81	0xbe4df1ba	-0.20111743
82	0xbd52d44b	-0.05147199
83	0xbe3c1328	-0.18366683
84	0x3d360340	0.044436693
85	0x3ed41b21	0.41426948
86	0x3e41d59b	0.1892914
87	0xbe85d590	-0.26139498
88	0x3d75b9bc	0.059991583
89	0x3eb12622	0.34599406
90	0x3e9a4e47	0.30137846
91	0xbedc9177	-0.4307973
92	0xbecca514	-0.39969695
93	0x3d835818	0.06413287
94	0xbf11b574	-0.569175
95	0x3d3cf5ac	0.04613273
96	0x3f093f32	0.53612053
97	0xbeb89fc4	-0.36059391
98	0xbf0e3ee7	-0.5556473
99	0xbf02df16	-0.5112165
100	0xbeb123d6	-0.34597653
101	0x3dce0773	0.100600146
102	0xbee040fe	-0.43799585
103	0x3ec7a647	0.38994047
104	0xbf15e18c	-0.5854728
105	0xbf078291	-0.52933604
106	0x3eff62f5	0.49880186
107	0x3e46ef8a	0.19427314
108	0xbf0bccc7	-0.5460934
109	0x3ecff716	0.406182
110	0xbe0b9607	-0.1363145
111	0x3b936440	0.0044980347
112	0x3e89db03	0.26924905
113	0xbe222463	-0.15834193
114	0x3ed0a1a4	0.40748322
115	0x3e5494d0	0.20759892
116	0xbec33323	-0.38124952
117	0x3c964d37	0.018347366
118	0xbdf6e45a	-0.12055273
119	0xbeea35dc	-0.45744216
120	0x3e86513b	0.2623385
121	0xbe9da251	-0.307879
122	0xbe424b2e	-0.18973991
123	0x3ea27071	0.3172641
124	0xbda77437	-0.08176463
125	0x3df3d4a7	0.119057946
126	0xbe94e55e	-0.29081243
127	0x3ef4cbdc	0.47811782
128	0x3eddc3df	0.433135
129	0xbf0b3c87	-0.5438923
130	0x3dd5ecf2	0.10445584
131	0xbd64e064	-0.055878058
132	0xbf0ad0d5	-0.542249
133	0xbf05af54	-0.52220654
134	0xbe44885d	-0.19192643
135	0x3e617db7	0.22020613
136	0x3e8e37c8	0.27776933
137	0xbf0498ae	-0.5179547
138	0x3e5de55f	0.2166953
139	0x3db89025	0.090118684
140	0x3e9fa2d9	0.3117893
141	0x3ec0e7fb	0.37676987
142	0xbf13f519	-0.57795864
143	0xbe8a6a1e	-0.27034086
144	0xbe7a7f2b	-0.24462573
145	0xbdeeb2d3	-0.11655202
146	0xbecd0619	-0.40043715
147	0xbf0a588c	-0.5404136
148	0xbef61a2f	-0.48066851
149	0x3e9bdaec	0.30440462
150	0x3debc8bd	0.11512897
151	0x3ea7174e	0.32634968
152	0x3f12c76d	0.5733555
153	0xbf063df5	-0.5243829
154	0xbece7381	-0.40322497
155	0xbe35f13a	-0.17767802
156	0x3eedee37	0.46470806
157	0x3d7df9c3	0.06200577
158	0xbe02e912	-0.12784222
159	0xbe65e3d0	-0.22450185
160	0xbeb69eaf	-0.3566794
161	0x3e109682	0.14119914
162	0x3e60b476	0.2194384
163	0xbd9f23d3	-0.07770505
164	0x3e74c7e5	0.23904379
165	0xbe7cac12	-0.24675015
166	0x3dca7f44	0.09887555
167	0x3f0f8c0b	0.56073064
168	0xbdc932f5	-0.098241724
169	0x3ead8471	0.33890107
170	0x3dc40cd4	0.09572759
171	0x3ec5887a	0.38580686
172	0xbdb8cc14	-0.090233
173	0xbeea9960	-0.4582014
174	0xbe7375f7	-0.23775469
175	0x3f041b38	0.5160403
176	0x3f139d06	0.57661474
177	0x3d83f7d7	0.06443756
178	0x3eaee9ac	0.34162652
179	0xbeb84612	-0.3599096
180	0xbe32e146	-0.17468747
181	0x3f142cb4	0.5788071
182	0xbe9cd915	-0.3063437
183	0xbd51af1a	-0.05119238
184	0xbf09b5e6	-0.5379318
185	0x3f09c42b	0.53814954
186	0xbee9a593	-0.45634136
187	0x3ebedbe7	0.37277147
188	0xbe676d9f	-0.22600411
189	0x3f119493	0.5686733
190	0xbee6a8ef	-0.4505076
191	0x3c1d36cc	0.009595584
192	0x3f1214d8	0.57063055
193	0x3ed13268	0.4085877
194	0xbee50e3a	-0.44737417
195	0x3eee3d01	0.46530917
196	0x3e9eacf7	0.30991337
197	0x3dd93724	0.1060622
198	0xbe5cb790	-0.21554399
199	0x3e9f6089	0.31128338
200	0x3f0abd2d	0.5419491
201	0xbf16693e	-0.58754337
202	0x3dfa8487	0.12232309
203	0xbe8cb8e5	-0.27484813
204	0xbeae8591	-0.34086278
205	0x3edbf2a9	0.42958573
206	0x3eeb6f7c	0.45983493
207	0xbeecad7b	-0.46226105
208	0x3ebcf31c	0.36904228
209	0xbf09fb95	-0.5389951
210	0x3efe9564	0.4972335
211	0xbea28e32	-0.3174911
212	0xbef486ce	-0.47759098
213	0xbf041037	-0.5158724
214	0x3f0b949c	0.54523635
215	0x3e3e7447	0.18599044
216	0x3e1ee239	0.15515985
217	0x3ec6fa3b	0.38862786
218	0xbed69ae0	-0.41915035
219	0x3f03b009	0.51440483
220	0xbf050239	-0.51956517
221	0x3ec51fce	0.38500828
222	0xbf0cd1d8	-0.55007696
223	0xbee5c663	-0.4487792
224	0x3f07f5c0	0.5310936
225	0x3f064985	0.5245593
226	0xbd7a0324	-0.06103815
227	0x3e4c0a4a	0.199258
228	0xbe90c9fb	-0.282791
229	0x3d80cfb4	0.06289616
230	0x3ea27ef6	0.31737489
231	0xbcb1d578	-0.021708235
232	0xbda9c04c	-0.08288631
233	0x3e245c58	0.16050851
234	0x3f1cf508	0.6131139
235	0xbf19970c	-0.59996104
236	0x3e387e64	0.18016964
237	0xbed8df81	-0.4235802
238	0xbeaaa47a	-0.3332861
239	0x3eb594c4	0.35465062
240	0xbd3b14f9	-0.045674298
241	0xbdb9eef2	-0.09078778
242	0xbe680762	-0.22659066
243	0xbeace822	-0.33770853
244	0xbeb37fe3	-0.35058507
245	0x3e9eba89	0.3100169
246	0x3efdd488	0.4957621
247	0x3eae5e43	0.3405629
248	0x3cfcbd16	0.030851882
249	0x3e88d282	0.26723105
250	0x3def925d	0.116978385
251	0x3c9bccae	0.019018497
252	0xbe447760	-0.19186163
253	0x3e55e6d1	0.2088883
254	0x3dae1d26	0.085016534
255	0xbf1254b6	-0.5716051

encoder.layers.0.ffn.linear1.bias f4 [64]
0	0x3e2d46c3	0.16921525
1	0x3db123ae	0.086493835
2	0x3e5b061e	0.21389052
3	0xbe259683	-0.16170697
4	0x3ccf0096	0.025268834
5	0xbd5c0944	-0.053719774
6	0x3e1ab346	0.1510745
7	0xbd018619	-0.031622026
8	0x3d309cd1	0.0431183
9	0x3e23d85e	0.16000506
10	0xbc49dfdb	-0.012321438
11	0x3da7e224	0.0819743
12	0x3de65f0d	0.11248598
13	0xbcd23f37	-0.025664909
14	0x3d9e57a2	0.077315584
15	0x3b4a15b5	0.0030835692
16	0xbdacf789	-0.08445651
17	0x3e6a00cf	0.22851871
18	0x3e476382	0.19471553
19	0x3e00c432	0.12574843
20	0x3e8042a3	0.2505084
21	0xbe7450f3	-0.23859005
22	0x3d3d5783	0.046226036
23	0x3c6e2618	0.014535449
24	0xbdeeb03a	-0.11654706
25	0xbdf68983	-0.12037947
26	0xbe448474	-0.19191152
27	0x3e140bfa	0.14457694
28	0x3e147ff0	0.1450193
29	0x3d4f82ca	0.05066184
30	0xbe1bc11a	-0.15210381
31	0xbe6d41c8	-0.23169625
32	0x3e563fcc	0.20922774
33	0xbcf71704	-0.030162342
34	0xba5bf71b	-0.00083910086
35	0xbe4e30cf	-0.20135807
36	0xbda2d670	-0.07951057
37	0xbddbca7b	-0.107319795
38	0x3e66dd05	0.2254525
39	0x3e2d2ced	0.16911669
40	0x3df560f5	0.11981384
41	0xbe345208	-0.17609417
42	0xbc36a2c9	-0.011147209
43	0xbde8a738	-0.113600194
44	0x3e39b466	0.18135223
45	0x3e3a7993	0.1821044
46	0x3c86ee27	0.016470982
47	0x3e653bf2	0.22386149
48	0xbe34ffc6	-0.17675695
49	0x3e75f9d3	0.24021082
50	0xbe26967e	-0.16268346
51	0x3e57f75c	0.21090454
52	0x3e66aa2b	0.22525851
53	0xbe6f77fc	-0.23385614
54	0x3dba434f	0.09094869
55	0x3d0af1d7	0.033922043
56	0xbe013831	-0.12619092
57	0xbe5793b2	-0.21052435
58	0x3e08ade2	0.13347581
59	0xbd3fe8ed	-0.046852995
60	0xbdb98055	-0.090576805
61	0x3d0950f1	0.033524457
62	0xbe69c083	-0.22827344
63	0xbdfd879a	-0.123793796

encoder.layers.0.ffn.linear2.weight f4 [16, 64]
0	0xbe6b8ac6	-0.23002157
1	0x3e81bac7	0.25337812
2	0x3ddada1b	0.106861316
3	0xb88ff4e3	-6.864385e-05
4	0x3e770223	0.24121909
5	0xbd732f2c	-0.05937116
6	0x3e0bfae0	0.1366992
7	0x3c322327	0.010872639
8	0x3b7b86f0	0.003837999
9	0x3dfcbf63	0.123411916
10	0xbe7d4c6f	-0.24736188
11	0xbe08dd32	-0.1336563
12	0x3dbce56b	0.092234455
13	0xbe73ff94	-0.23827964
14	0xbe6685d7	-0.22511993
15	0x3e94046f	0.28909633
16	0xbe8b70b7	-0.27234432
17	0x3e48de5f	0.19616078
18	0xbc73281d	-0.014841107
19	0x3e18bea5	0.14916475
20	0xbe99f61b	-0.30070576
21	0x3e740622	0.23830464
22	0x3dc63586	0.096781775
23	0x3e677958	0.22604883
24	0xbcde658c	-0.02714803
25	0x3e02e4ea	0.12782636
26	0x3e26752a	0.16255632
27	0x3d9d99a9	0.07695324
28	0x3e64b5dd	0.22335
29	0x3bd57806	0.006514552
30	0x3d811d99	0.063044734
31	0xbe5370fd	-0.2064857
32	0xbd347ca5	-0.044064183
33	0xbe32ae91	-0.17449404
34	0x3e7091d7	0.23493133
35	0x3e5c5dfb	0.21520226
36	0xbdbfb210	-0.093601346
37	0x3e8e4735	0.27788702
38	0xbd2decb5	-0.04246207
39	0xbdc2077b	-0.09474083
40	0x3d9d4add	0.07680295
41	0xbdb80ee9	-0.08987219
42	0xbe833001	-0.25622562
43	0xbdba71fe	-0.091037735
44	0x3cd20ce7	0.025640918
45	0x3e805f25	0.2507259
46	0x3e8d6ff2	0.2762447
47	0xbe0a5811	-0.13510157
48	0x3e0a95d3	0.13533716
49	0xbe8c73db	-0.2743214
50	0xbd0cb54a	-0.03435258
51	0x3ded7b6a	0.11595805
52	0xbe8c49f2	-0.27400166
53	0xbdf71af1	-0.120656855
54	0xbe088894	-0.1333335
55	0xbdad1688	-0.08451563
56	0x3e86898a	0.2627681
57	0xbe81a181	-0.2531853
58	0x3d3672cb	0.04454307
59	0xbdf4fec7	-0.119626574
60	0xbb73f219	-0.003722316
61	0x3d91572c	0.07096705
62	0xbe3fb796	-0.18722376
63	0xbe1db65e	-0.15401599
64	0x3e01d0a6	0.1267725
65	0xbcc49d62	-0.024000827
66	0xbd116af8	-0.035502404
67	0x3d1d044f	0.038334187
68	0xbe99fa34	-0.30073702
69	0x3e92fce9	0.2870858
70	0x3d5b60dc	0.05355917
71	0xbe460d38	-0.1934098
72	0xbac03ce3	-0.0014666583
73	0x3e96d362	0.29458147
74	0x3e8ddbcb	0.2770675
75	0x3e336c98	0.17521894
76	0x3e5d8741	0.21633627
77	0x3c908e18	0.01764588
78	0xbd8d5c97	-0.06902426
79	0x3d90a8f4	0.07063475
80	0xbdbe1171	-0.092806704
81	0xbce95177	-0.028481228
82	0xbe084e72	-0.13311175
83	0xbe375596	-0.17903742
84	0xbded06d8	-0.11573571
85	0xbe881f00	-0.2658615
86	0x3e83ef73	0.25768623
87	0x3ce3d4d1	0.02781144
88	0x3e2deace	0.16984102
89	0x3e91b975	0.28461805
90	0xbe032a73	-0.12809162
91	0x3d43f735	0.047843177
92	0xbd46f3f5	-0.0485725
93	0x3e90edf3	0.2830654
94	0xbe9623e2	-0.2932425
95	0x3e6a02c8	0.22852623
96	0x3e6506ec	0.22365922
97	0x3e8dd302	0.2770005
98	0xbda8325f	-0.082127325
99	0xbe1faf9e	-0.15594336
100	0x3e35798d	0.17722149
101	0x3df411e9	0.119174786
102	0xbe506989	-0.20352758
103	0x3e558fc8	0.2085563
104	0xbe6c622d	-0.23084326
105	0xbe4c5213	-0.19953184
106	0x3d5239ff	0.05132484
107	0xbdc1e55d	-0.09467576
108	0x3e6feb4b	0.23429601
109	0xbe30aabf	-0.17252634
110	0x3e87314b	0.26404795
111	0x3b9e9205	0.004839184
112	0x3e7440fe	0.23852918
113	0x3dfa2494	0.12214008
114	0x3dceb9d1	0.100940354
115	0x3e327cbd	0.17430396
116	0xbdca433c	-0.09876105
117	0x3dfc76cc	0.12327346
118	0x3da9f00e	0.0829774
119	0x3853e186	5.0516355e-05
120	0xbdbbacd8	-0.09163827
121	0xbd7d908e	-0.061905436
122	0x3e6b5e68	0.22985232
123	0x3d1ab0c3	0.03776623
124	0x3d07710b	0.03306679
125	0x3e2ce3dd	0.16883798
126	0x3e3f26a8	0.1866709
127	0x3e88d0be	0.26721758
128	0x3e8adca1	0.27121451
129	0x3e8c8e3f	0.27452275
130	0x3b21fe11	0.0024718086
131	0x3e529c66	0.20567474
132	0x3df10097	0.11767691
133	0xbc82ded0	-0.015975386
134	0x3dd3ca06	0.10341267
135	0xbe4dfd07	-0.20116054
136	0x3e784f65	0.24249037
137	0xbd9a5091	-0.07534898
138	0x3d72a6d8	0.059241146
139	0xbddf4cad	-0.109032966
140	0xbe407ee6	-0.18798408
141	0xbdb68210	-0.08911526
142	0x3d6d937f	0.05800199
143	0xbd19d58d	-0.037557174
144	0xbc5fe894	-0.013666291
145	0xbe80c1e7	-0.25147936
146	0x3e0ccdf6	0.13750443
147	0xbd34d1ed	-0.044145513
148	0xbe6fcb29	-0.23417343
149	0x3e2fb628	0.17159331
150	0x3e6ad41c	0.22932476
151	0xbe97e898	-0.29669642
152	0xbd071089	-0.032974754
153	0x3cb67b06	0.022275459
154	0x3e94d884	0.29071438
155	0xbe98cb79	-0.29842737
156	0xbe4b70b2	-0.19867209
157	0xbde3e46e	-0.11127554
158	0x3d8acebf	0.06777715
159	0x3e4505c2	0.19240478
160	0x3d83d17f	0.064364426
161	0x3def0bf6	0.11672203
162	0x3e141793	0.14462118
163	0xbe641cb2	-0.22276571
164	0x3e9080ad	0.28223172
165	0x3e3111df	0.17291974
166	0x3de42592	0.111399785
167	0x3e67457d	0.22585101
168	0x3e8c9e1f	0.27464387
169	0xbe3f986d	-0.1871049
170	0x3e90e916	0.2830283
171	0xbe3c0088	-0.18359578
172	0x3e228be2	0.15873674
173	0xbe0bf4f8	-0.13667667
174	0xbd4d7d32	-0.050168224
175	0xbd047e44	-0.03234698
176	0xbc825929	-0.015911656
177	0x3e05b528	0.13057387
178	0xbd96fb91	-0.07372201
179	0x3d1b59e0	0.03792751
180	0xbe24d768	-0.16097796
181	0xbd50f7ee	-0.051017694
182	0xbe62bc95	-0.22142251
183	0x3b61f8f2	0.0034480658
184	0xbe8a19f0	-0.26972914
185	0xbdfe4fcb	-0.12417563
186	0x3e1eef61	0.15521003
187	0xbd5f5fb8	-0.054534644
188	0xbe99c314	-0.30031645
189	0xbe792925	-0.24332102
190	0xbdbe8c3b	-0.093040906
191	0xbe953dcf	-0.2914872
192	0xbb9618fc	-0.004580615
193	0xbd2641f4	-0.04059024
194	0x3e63810a	0.22217193
195	0x3d50ff6b	0.051024836
196	0xbe89df0d	-0.26927987
197	0x3dc81f54	0.097716
198	0xbe208ba5	-0.1567827
199	0x3e517309	0.20454039
200	0x3e230bd2	0.15922478
201	0x3dd4715c	0.10373184
202	0xbe731d03	-0.23741536
203	0xbe2f95da	-0.17147008
204	0x3e0d7fef	0.13818334
205	0x3e92fd3c	0.28708827
206	0xbd6e587f	-0.058189865
207	0xbe82da7d	-0.25557318
208	0xbe86183c	-0.26190364
209	0x3ddafe1e	0.10693
210	0xbd98a5fc	-0.07453534
211	0xbe753549	-0.23946108
212	0x3de89be0	0.11357856
213	0x3e57399e	0.21018073
214	0xbe82b9f8	-0.25532508
215	0x3e1d14f1	0.1534002
216	0xbe1f5ed7	-0.15563522
217	0xbdc9b5ed	-0.09849153
218	0x3d36691e	0.04453384
219	0x3dff4465	0.12464217
220	0xbdce3ae0	-0.10069823
221	0xbe79a843	-0.24380593
222	0xbc2c2b9b	-0.010508443
223	0xbd094b34	-0.033518985
224	0xbd5b246f	-0.053501543
225	0xbe2fa363	-0.17152171
226	0x3e6fac1f	0.23405503
227	0xbe90802f	-0.28222796
228	0xbd1db3cc	-0.038501546
229	0x3c846be6	0.016164731
230	0xbde77e7d	-0.113034226
231	0xbddea5b8	-0.10871452
232	0x3e494dd8	0.19658601
233	0x3e7cec52	0.24699524
234	0x3e44fa43	0.19236092
235	0xbe287a7a	-0.16452971
236	0x3ca31e27	0.019911839
237	0x3e1ef597	0.15523373
238	0x3d52493f	0.051339384
239	0xbdfea5ad	-0.12433944
240	0xbe91d7ab	-0.28484854
241	0xbe119c14	-0.14219695
242	0xbd84b2d6	-0.06479423
243	0xbe818814	-0.25299132
244	0xbe087d3d	-0.13329025
245	0x3e93b7de	0.28851217
246	0xbe7e8b77	-0.24857889
247	0xbd46cf70	-0.04853767
248	0x3d9b12c5	0.075719394
249	0x3dc4b642	0.096050754
250	0x3e5f75ac	0.21822232
251	0xbe8d7bcf	-0.2763352
252	0xbe8e0d22	-0.27744395
253	0xbd321950	-0.04348117
254	0x3d9a59b3	0.0753664
255	0x3e2c174c	0.16805762

encoder.layers.0.ffn.linear2.bias f4 [16]
0	0xbd96b594	-0.07358852
1	0x3d75992d	0.059960533
2	0xbda97688	-0.08274561
3	0xbc631f88	-0.013862498
4	0x3de6344a	0.11240442
5	0x3bd47c08	0.0064845122
6	0x3d6bc608	0.057561904
7	0xbdb465e8	-0.088084996
8	0x3d2d2158	0.042268127
9	0xbda27968	-0.07933313
10	0x3d2e98ed	0.04262631
11	0x3d6f6949	0.058450017
12	0xbdc6f0b8	-0.09713882
13	0x3d93d286	0.072178885
14	0x3d79c9c3	0.06098343
15	0x3d8f8a3e	0.070087895

encoder.layers.0.norm2.gamma f4 [16]
0	0x3f7d67b5	0.9898637
1	0x3f7f4638	0.9971652
2	0x3f7cabb8	0.9869952
3	0x3f7fef9a	0.9997498
4	0x3f819cd9	1.0125991
5	0x3f7e41b3	0.99319
6	0x3f7f4fdd	0.99731237
7	0x3f80dc93	1.0067314
8	0x3f7f5f6e	0.9975499
9	0x3f7a0fb2	0.976802
10	0x3f820489	1.0157634
11	0x3f8109cd	1.0081116
12	0x3f7d2185	0.9887927
13	0x3f7c2cbd	0.98505765
14	0x3f813740	1.0094986
15	0x3f790f9c	0.97289443

encoder.layers.0.norm2.beta f4 [16]
0	0xbb9416e6	-0.0045193313
1	0xbb1c573c	-0.0023855707
2	0xbc111de5	-0.008857225
3	0xbc16db82	-0.009207608
4	0xbaecc175	-0.0018063026
5	0x3c3bd67e	0.011464713
6	0xbbaa87b1	-0.005204164
7	0x3ab5c20a	0.0013867032
8	0x3b88406e	0.0041580712
9	0x3c96c291	0.018403323
10	0xbb580f79	-0.0032968207
11	0x3ac0c227	0.0014706299
12	0x3b78f675	0.0037988697
13	0xbc4d1a23	-0.0125184385
14	0xbb13db0b	-0.002256098
15	0xbba9c73b	-0.005181221
