Trans_Prediction/model_saved/ratioMergedPrs/TM_ratioMergedPrs_delay_size_7_delay_6.pth (torch, 385400 bytes, 337 tensors)

encoder.layers.0.attention.w_q.weight f4 [16, 16]
0	0x3df4f83f	0.11961412
1	0xbe41be17	-0.1892017
2	0x3e9a0f41	0.30089763
3	0xbe6f903b	-0.23394863
4	0xbf1214ac	-0.5706279
5	0xbebc31e8	-0.36756825
6	0x3f10b5e4	0.56527543
7	0x3ec49f60	0.38402843
8	0xbecf0813	-0.40435848
9	0x3e5a7fcc	0.21337813
10	0x3db67342	0.089087024
11	0xbf1c86fc	-0.6114347
12	0x3ea92a1d	0.33039942
13	0x3e9d7443	0.30752763
14	0x3e3bd3af	0.1834247
15	0x3e6d380a	0.23165908
16	0x3e5b2498	0.21400678
17	0x3e3b5041	0.18292333
18	0x3e9a648f	0.30154845
19	0xbf1c71df	-0.61111253
20	0xbe9fab9a	-0.3118561
21	0x3ef437b4	0.47698748
22	0x3e999de2	0.30003268
23	0xbd9f4d38	-0.077784
24	0xbde3880f	-0.111099355
25	0xbf18163f	-0.59408945
26	0xbeafb8e5	-0.3432075
27	0xbe97cf5d	-0.29650393
28	0xbf0e4841	-0.55579
29	0x3e7a1e83	0.24425702
30	0xbbe578f6	-0.007002945
31	0x3e5caf7f	0.21551321
32	0xbed9f20e	-0.42567486
33	0x3e056804	0.1302796
34	0x3e6d52a4	0.23176056
35	0x3f1adfd5	0.6049779
36	0xbbc69886	-0.0060606627
37	0xbee5a648	-0.44853425
38	0x3daada11	0.08342374
39	0x3f16b0cc	0.5886352
40	0x3e89e1c2	0.26930052
41	0xbeb402b9	-0.35158327
42	0x3e0657f0	0.13119483
43	0xbe95ab4d	-0.29232255
44	0xbe4ce0af	-0.20007585
45	0x3eca4545	0.39505973
46	0xbe3f87f8	-0.18704212
47	0xbf016a8f	-0.5055322
48	0x3e9b274b	0.30303416
49	0xbf0d9615	-0.5530713
50	0x3dbde7eb	0.092727505
51	0x3c82d4bd	0.015970582
52	0xbe180a0d	-0.14847584
53	0x3e0b0464	0.13575894
54	0xbf09508e	-0.5363854
55	0xbf197e18	-0.5995803
56	0x3da9e16b	0.08294948
57	0x3d6e2ff7	0.05815121
58	0xbea10a1a	-0.3145302
59	0xbd5bb72c	-0.053641483
60	0xbf0252b8	-0.5090747
61	0x3e58ab20	0.21159029
62	0x3e1bf42d	0.15229864
63	0x3e268ad5	0.16263898
64	0x3e940b9e	0.28915113
65	0xbf12a89a	-0.57288516
66	0x3ed52cb9	0.41635683
67	0xbe8fffe6	-0.28124923
68	0xbf0f9586	-0.5608753
69	0xbed62608	-0.4182589
70	0x3dcefc8d	0.10106764
71	0x3d05e8d7	0.032692757
72	0xbcd52da9	-0.026022749
73	0x3f18364a	0.5945784
74	0xbcdad40b	-0.026712438
75	0xbf1c9c8c	-0.6117637
76	0x3e35e517	0.17763172
77	0xbecf2d96	-0.40464467
78	0xbd3af8ed	-0.04564755
79	0xbec12908	-0.37726617
80	0x3f13fcd7	0.5780768
81	0x3f18eb60	0.59734154
82	0xbe973a42	-0.29536635
83	0xbe296472	-0.16542223
84	0x3e7db105	0.24774559
85	0xbd80c330	-0.06287229
86	0x3f0bd8c1	0.54627615
87	0xbf057333	-0.52128905
88	0xbec44328	-0.38332486
89	0xbf149545	-0.5804027
90	0xbf140a3c	-0.57828116
91	0x3e71b6f8	0.23604953
92	0xbc106de5	-0.008815263
93	0x3ee2841b	0.44241413
94	0xbebee4c2	-0.37283903
95	0x3c168e2c	0.00918917
96	0x3df331f9	0.11874766
97	0x3e3caea3	0.18425994
98	0x3e623d0e	0.22093603
99	0x3e319a20	0.1734395
100	0x3e048cdc	0.12944359
101	0x3e8b1b5e	0.27169317
102	0xbe8865a4	-0.26640046
103	0xbf12cf5c	-0.57347655
104	0x3e0b6dba	0.13616076
105	0x3ebc9e53	0.36839542
106	0xbe060206	-0.1308671
107	0xbde50886	-0.11183266
108	0x3f0eded7	0.55808777
109	0x3e57f9bc	0.2109136
110	0x3ed3cad8	0.41365695
111	0x3e9096b0	0.28239965
112	0x3f137319	0.575975
113	0xbea5685f	-0.3230619
114	0xbed232e4	-0.4105445
115	0x3dd0b5f7	0.10190957
116	0x3ecdc675	0.40190473
117	0x3e40dfbd	0.1883535
118	0xbf0b5c70	-0.54437923
119	0xbef85c0d	-0.4850773
120	0xbea8e6c6	-0.32988566
121	0x3e3372fd	0.17524333
122	0x3cdf8832	0.027286623
123	0x3ec6a79c	0.3879975
124	0x3df953d8	0.12174195
125	0x3f0eff0c	0.5585792
126	0x3ee32614	0.4436499
127	0x3ebcf4d6	0.36905545
128	0xbeb0ce82	-0.34532553
129	0x3f1afa52	0.6053821
130	0xbe0a8b0d	-0.13529606
131	0x3e198ef6	0.14995942
132	0x3ecd0c16	0.40048283
133	0x3f19ba1f	0.60049623
134	0xbd0477cb	-0.032340806
135	0xbebd2c83	-0.36948022
136	0x3ec97224	0.39344895
137	0x3d6b689f	0.05747282
138	0x3ed541f2	0.41651875
139	0xbee21bbd	-0.44161788
140	0xbec34459	-0.38138083
141	0x3eefedd1	0.46861127
142	0xbe0590d7	-0.13043533
143	0x3eca2313	0.39479885
144	0x3eeeb486	0.46622103
145	0x3e4de266	0.20105895
146	0x3cd3e355	0.025865236
147	0xbf02cf75	-0.51097804
148	0xbe3be77a	-0.1835002
149	0xbdde0af5	-0.10841934
150	0x3e71a946	0.23599729
151	0xbf0d6094	-0.5522549
152	0xbe5ede72	-0.21764544
153	0x3eedbfbd	0.46435347
154	0x3f18a156	0.5962118
155	0x3e321839	0.17392053
156	0xbf0e49e3	-0.5558149
157	0xbe66a569	-0.22524036
158	0xbed67524	-0.41886246
159	0x3e51daf9	0.20493688
160	0xbd1968e0	-0.037453532
161	0xbf1cc18b	-0.61232823
162	0xbe143774	-0.14474279
163	0xbe84b5b2	-0.25919873
164	0xbcb34734	-0.021884538
165	0xbea8b73c	-0.32952297
166	0x3e854919	0.26032332
167	0xbe6552b7	-0.22394834
168	0xbebffaad	-0.37495938
169	0xbeb02e8e	-0.34410518
170	0xbf0e9d54	-0.55708814
171	0xbe6f8693	-0.2339118
172	0xbed97626	-0.42472953
173	0xbecad5a3	-0.39616117
174	0xbf1cb26a	-0.6120974
175	0xbdc33ad0	-0.09532702
176	0x3ed47f99	0.415036
177	0xbf18b919	-0.59657437
178	0x3f1b8358	0.6074729
179	0x3db92e2f	0.09042012
180	0xbec51119	-0.38489607
181	0x3e141bb9	0.144637
182	0xbed46060	-0.41479778
183	0xbd75e0f6	-0.060028993
184	0xbe318049	-0.17334093
185	0xbd9a5ddb	-0.07537433
186	0x3e85af20	0.26110172
187	0xbe548295	-0.20752938
188	0xbeff2372	-0.4983173
189	0xbe8cd1c8	-0.275038
190	0x3ee950f2	0.4556957
191	0xbc273bec	-0.010207158
192	0xbd90cdc6	-0.07070498
193	0x3df17ec6	0.11791758
194	0xbf1350fd	-0.57545453
195	0x3f14d4c3	0.5813715
196	0xbb400c59	-0.0029304235
197	0xbe0542a7	-0.13013707
198	0x3ee1b810	0.4408574
199	0xbda0cbba	-0.07851358
200	0x3eb7053b	0.35746178
201	0xbf1a5117	-0.60279983
202	0x3c61a598	0.013772391
203	0xbeee1e4f	-0.465075
204	0xbef9c592	-0.48783547
205	0x3ebaec36	0.3650834
206	0x3d78ddad	0.06075828
207	0xbf06e027	-0.5268578
208	0x3df06b3f	0.117392056
209	0xbea9122b	-0.33021674
210	0xbe75309b	-0.23944323
211	0x3d902c7b	0.07039734
212	0xbf005d0d	-0.50141984
213	0x3f0c3f58	0.54784155
214	0xbf10a806	-0.56506383
215	0xbebf3b45	-0.37349907
216	0xbddb54f3	-0.10709562
217	0x3eb57e3d	0.35447875
218	0xbe7c2b51	-0.24625899
219	0xbec7eec5	-0.39049354
220	0x3e876fc4	0.26452458
221	0x3ddedd2c	0.10882029
222	0x3e65509f	0.22394036
223	0xbe89a2b4	-0.26881945
224	0xbf12590c	-0.57167125
225	0x3ecfaa7a	0.4055975
226	0xbf18d223	-0.59695643
227	0x3b95caad	0.00457128
228	0xbf06c068	-0.5263734
229	0x3ed9f7b9	0.4257181
230	0x3f0849bb	0.53237504
231	0x3cc9f424	0.024652548
232	0xbed8d34d	-0.4234871
233	0xbee4c47e	-0.44681162
234	0xbe273742	-0.16329673
235	0xbeb392bf	-0.35072896
236	0x3cc9a0c9	0.024612801
237	0x3f1ba7a9	0.60802704
238	0x3f1b3e78	0.60642195
239	0xbd3306b5	-0.04370757
240	0x3e6cb1ba	0.23114672
241	0xbf1dae31	-0.6159392
242	0x3e3ebbb4	0.1862629
243	0x3e7ab4bf	0.24483012
244	0xbc597926	-0.013273513
245	0x3f16daaf	0.58927435
246	0xbef1b405	-0.47207657
247	0x3e8069e7	0.25080797
248	0x3ee63771	0.44964173
249	0x3f1299af	0.5726575
250	0x3e0b0f00	0.13579941
251	0xbf085ec4	-0.532696
252	0x3e23c3b7	0.15992628
253	0x3ec8b02a	0.39196903
254	0xbe21cc35	-0.15800555
255	0x3eae4669	0.34038094

encoder.layers.0.attention.w_q.bias f4 [16]
0	0xbc7c7c79	-0.015410536
1	0x3e622d02	0.22087482
2	0x3e4b1220	0.19831133
3	0x3c07d4a9	0.008290448
4	0xbe65d609	-0.22444929
5	0xbd887044	-0.06662038
6	0xbbb19f5c	-0.0054206084
7	0x3cfb1d38	0.030653581
8	0x3e1fcb44	0.15604883
9	0xbd2ba6b3	-0.041907024
10	0xbe42cf32	-0.19024351
11	0x3e6ced4e	0.231374
12	0xbdd62afd	-0.10457418
13	0x3e39a3a1	0.18128826
14	0x3d5da3a7	0.05411115
15	0x3d03e933	0.032204818

encoder.layers.0.attention.w_k.weight f4 [16, 16]
0	0xbeefbe25	-0.46824756
1	0xbeda35a8	-0.4261906
2	0x3f00a77f	0.5025558
3	0x3ef0a42c	0.47000253
4	0x3ef4cfbb	0.47814736
5	0x3ef74fbf	0.4830303
6	0xbef09520	-0.46988773
7	0xbe67c9f0	-0.22635627
8	0x3ea96398	0.33083797
9	0x3e649433	0.22322159
10	0xbee08ad7	-0.43855926
11	0x3e31d44b	0.1736614
12	0xbe1a9b71	-0.15098359
13	0xbe32329a	-0.17402115
14	0x3e13bcf5	0.1442755
15	0x3ec54f2e	0.38536972
16	0x3e42a1f9	0.190071
17	0x3f006ca0	0.5016575
18	0xbe86afe9	-0.26306084
19	0x3f122cf1	0.57099825
20	0xbe5e7edf	-0.21728085
21	0xbeebd267	-0.46058962
22	0xbc20848f	-0.009797229
23	0x3ecb9633	0.3976303
24	0xbf0a87be	-0.54113376
25	0x3e0ac214	0.13550597
26	0x3e02cecf	0.12774204
27	0x3f042c47	0.5163006
28	0xbf1124b5	-0.56696635
29	0x3f0fbb77	0.56145424
30	0x3d03ab6f	0.032145914
31	0x3e798081	0.24365427
32	0xbeb91f4d	-0.36156693
33	0xbf0f14af	-0.55890936
34	0x3f0b516f	0.5442113
35	0xbe93188f	-0.28729674
36	0xbeb5c5c3	-0.35502443
37	0x3e254267	0.16138612
38	0x3e9c70ac	0.30554712
39	0xbf0716a9	-0.5276895
40	0xbf0b479a	-0.5440613
41	0xbe847e57	-0.2587764
42	0xbed9848b	-0.42483935
43	0x3ea8b84b	0.32953104
44	0x3e862e39	0.2620714
45	0xbec1ee6c	-0.37877214
46	0xbee38aa1	-0.44441703
47	0x3d585db7	0.05282375
48	0x3e649c5b	0.2232527
49	0xbede086b	-0.43365797
50	0x3f102db9	0.5631977
51	0xbe409523	-0.18806891
52	0x3f142c0e	0.5787972
53	0x3eae7da8	0.34080243
54	0xbe0a3d46	-0.13499936
55	0x3ecd601c	0.40112388
56	0xbf0e784f	-0.55652326
57	0xbea9596f	-0.33076045
58	0xbe787600	-0.24263763
59	0x3e1861f0	0.1488111
60	0x3d8ea7da	0.06965609
61	0xbd12ead1	-0.03586847
62	0xbdf01826	-0.11723356
63	0x3d840353	0.064459465
64	0x3d2f7aa1	0.042841557
65	0x3ee31a44	0.44355977
66	0xbaa24ec8	-0.0012383098
67	0x3eae14c6	0.34000224
68	0x3ef9c375	0.48781934
69	0x3e8dd606	0.2770235
70	0x3eea959e	0.45817274
71	0x3de1c283	0.11023428
72	0xbd1d654e	-0.03842669
73	0xbe29ac5e	-0.16569659
74	0xbe424dbd	-0.18974967
75	0xbc8fdcd3	-0.017561352
76	0xbf18efd0	-0.59740925
77	0xbc2a9442	-0.010411324
78	0x3e8ceba6	0.27523535
79	0x3eb2de3d	0.3493518
80	0xbf19bfed	-0.6005848
81	0x3f0a7a4a	0.5409285
82	0x3e3e33a9	0.18574394
83	0x3ed4eb19	0.41585615
84	0x3e226399	0.15858306
85	0xbc0626fe	-0.008188007
86	0x3edcf6e6	0.4315712
87	0x3d1b1437	0.037861075
88	0x3ecbff6f	0.39843318
89	0x3ed997d4	0.42498648
90	0x3e1981f3	0.14990978
91	0xbe205d7f	-0.15660666
92	0x3eb578f5	0.35443845
93	0xbe255587	-0.16145907
94	0x3ef1796c	0.4716295
95	0x3ee638ce	0.44965214
96	0x3e596359	0.21229304
97	0xbdbf1496	-0.09330098
98	0xbeb2e3ee	-0.34939522
99	0x3f08f10e	0.5349282
100	0x3f11dba2	0.5697576
101	0xbcd3efb6	-0.025871139
102	0x3eb26043	0.34839067
103	0xbe4f5272	-0.20246294
104	0x3f197ccd	0.59956056
105	0xbd1572f6	-0.03648659
106	0x3e5cda41	0.21567632
107	0xbecd5df3	-0.4011074
108	0xbe8fc5ba	-0.2808054
109	0xbe70013f	-0.23437975
110	0x3e17e746	0.14834318
111	0x3f103760	0.56334496
112	0xbf07f6da	-0.5311104
113	0x3dc56a57	0.09639423
114	0x3d841420	0.06449151
115	0x3e692e67	0.22771607
116	0x3ec5d912	0.38642174
117	0xbf132d3c	-0.574909
118	0xbf0d8cc5	-0.5529292
119	0xbefa8dec	-0.48936403
120	0x3eb1aa7b	0.3470038
121	0x3ea21434	0.3165604
122	0xbeb97481	-0.36221698
123	0x3de93f83	0.11389067
124	0x3f0188c6	0.50599325
125	0xbef64649	-0.48100498
126	0x3ed37b73	0.41305122
127	0x3db6cf96	0.089263126
128	0xbe7b46be	-0.24538705
129	0x3e9c3c70	0.3051486
130	0xbeb01074	-0.34387553
131	0xbec062ae	-0.37575287
132	0xbed2e4ad	-0.4119009
133	0xbeced01f	-0.4039316
134	0x3e3e776a	0.1860024
135	0x3f00de3a	0.5033909
136	0x3f06381d	0.5242937
137	0x3ea0aa34	0.31379855
138	0x3f0a7515	0.54084903
139	0xbee3d878	-0.4450109
140	0x3f013f90	0.50487614
141	0x3e85f7b5	0.26165548
142	0xbe2c805e	-0.16845843
143	0xba4357ab	-0.0007451723
144	0xbd3c6a5b	-0.045999866
145	0x3e47dfde	0.19518992
146	0x3db65ceb	0.089044414
147	0xbe7c3540	-0.24629688
148	0xbb97b68b	-0.004629915
149	0xbe0856db	-0.13314383
150	0x3ec5cd91	0.38633397
151	0x3ebc6333	0.36794433
152	0xbe548244	-0.20752817
153	0xbecd22e3	-0.4006568
154	0xbcfe5bd0	-0.031049639
155	0xbf018d28	-0.5060601
156	0xbdd29587	-0.10282426
157	0x3bc19f55	0.0059088864
158	0xbe7495cc	-0.23885268
159	0x3e096e02	0.13420871
160	0xbea7cf80	-0.32775497
161	0x3f0ed6f2	0.5579673
162	0x3f1d56be	0.61460483
163	0x3ef9eaa0	0.48811817
164	0x3eeb1671	0.4591556
165	0x3e11b4b3	0.14229088
166	0xbecdbcaf	-0.40183017
167	0x3ef7bcf1	0.48386338
168	0x3e1d98e1	0.1539035
169	0xbe367eaa	-0.17821756
170	0x3ed1d2f2	0.4098125
171	0x3ca1ff41	0.019775035
172	0x3e0bc501	0.1364937
173	0x3e553696	0.20821604
174	0xbecf90cb	-0.40540156
175	0x3e8ce708	0.27520013
176	0x3ef460c9	0.4773009
177	0xbe813896	-0.25238484
178	0x3c98fbcd	0.018674755
179	0x3f194fc8	0.5988736
180	0x3f024e2d	0.50900537
181	0xbec69d63	-0.38791952
182	0xbed0ac42	-0.40756422
183	0x3e84e286	0.25954074
184	0x3e9d506e	0.30725425
185	0xbefad239	-0.48988512
186	0x3ea34ba2	0.3189364
187	0xbef6beba	-0.48192388
188	0xbf115b82	-0.56780255
189	0xbe9c627a	-0.30543882
190	0x3efcad0e	0.4935078
191	0x3f05f079	0.5232006
192	0xbf0a57f3	-0.5404045
193	0xbec26e68	-0.37974858
194	0x3e62963c	0.22127622
195	0xbf0f195d	-0.55898076
196	0x3f184519	0.59480435
197	0x3f071411	0.52764994
198	0x3ef85930	0.48505545
199	0xbe3bd234	-0.18341905
200	0xbebf09d5	-0.3731219
201	0xbea5a1ef	-0.32350108
202	0xbe058569	-0.13039173
203	0x3e9a5c20	0.3014841
204	0x3f11100e	0.5666512
205	0xbe67955b	-0.22615568
206	0xbe5d2370	-0.2159555
207	0x3debd25e	0.11514734
208	0xbe40ea1e	-0.18839309
209	0xbea8f7b9	-0.33001497
210	0x3edc46cf	0.43022773
211	0xbeac9f2b	-0.33715186
212	0xbecddaa0	-0.4020586
213	0x3e479357	0.194898
214	0x3d9989ce	0.07496987
215	0x3d31646f	0.04330867
216	0xbdbdd740	-0.09269571
217	0xbebf5e3e	-0.3737659
218	0x3e3239b5	0.17404826
219	0x3eb36608	0.3503878
220	0x3ef2fd9b	0.4745911
221	0x3d3d955e	0.046285026
222	0x3e41478d	0.1887495
223	0xba865195	-0.0010247702
224	0xbf1a6edc	-0.6032541
225	0x3eae87df	0.34088036
226	0xbec66268	-0.38746953
227	0x3e020424	0.12696892
228	0xbe28f9e6	-0.16501579
229	0x3ac8ae42	0.0015310722
230	0xbecc5905	-0.39911667
231	0x3f1bea0b	0.60903996
232	0x3f034650	0.51279163
233	0x3f19bfab	0.6005809
234	0xbddd44cc	-0.108041376
235	0xbf11bf12	-0.56932175
236	0x3ee923dc	0.4553517
237	0xbea371c2	-0.31922728
238	0xbed2eb86	-0.41195315
239	0x3edee799	0.4353607
240	0x3df9d372	0.12198533
241	0xbde0fc05	-0.10985569
242	0xbf0b2c9b	-0.5436494
243	0x3df17cd7	0.117913894
244	0x3eb000a6	0.34375495
245	0x3eb04233	0.34425506
246	0xbd90ae75	-0.07064525
247	0x3c5480a9	0.012970128
248	0x3f1320e0	0.5747204
249	0xbd4db500	-0.050221443
250	0x3d78a551	0.060704533
251	0x3ebc281d	0.36749354
252	0xbe9a9a82	-0.30196005
253	0xbec155e4	-0.37760842
254	0xbdafd42a	-0.08585389
255	0x3e755bf5	0.2396086

encoder.layers.0.attention.w_k.bias f4 [16]
0	0x35719e12	9.000952e-07
1	0x36898c03	4.0992177e-06
2	0xb5bfe5cf	-1.4297492e-06
3	0xb67e22c4	-3.7869186e-06
4	0xb7112407	-8.651062e-06
5	0x35f1d38e	1.801747e-06
6	0xb6dc657c	-6.5683253e-06
7	0xb6eb8f60	-7.020237e-06
8	0x3651e7f1	3.1278435e-06
9	0xb5ddb2f8	-1.651787e-06
10	0x3796b3e7	1.7965167e-05
11	0xb604b6a9	-1.9775855e-06
12	0xb6b64656	-5.432211e-06
13	0xb66a23de	-3.4889595e-06
14	0xb7036b91	-7.833253e-06
15	0x36d08a9e	6.21502e-06

encoder.layers.0.attention.w_v.weight f4 [16, 16]
0	0x3e6ec2a7	0.23316441
1	0x3e6e917b	0.23297684
2	0xbefd8ce9	-0.49521568
3	0xbf152152	-0.5825397
4	0x3eb455c6	0.3522169
5	0xbe066646	-0.13124952
6	0xbef3a9cb	-0.4759048
7	0x3efa6ebb	0.48912606
8	0x3f144b7c	0.5792768
9	0xbe0bceed	-0.13653155
10	0xbd46c4e8	-0.04852763
11	0x3d66c84e	0.05634337
12	0xbeb3b170	-0.35096312
13	0x3d94b8cd	0.072618105
14	0x3ddb6b5f	0.10713839
15	0xbe71ba1b	-0.2360615
16	0x3ee9b4c0	0.45645714
17	0xbddeacc4	-0.10872796
18	0xbef6336a	-0.480861
19	0xbe98f6af	-0.29875705
20	0xbef36345	-0.47536674
21	0xbeb62b3b	-0.35579857
22	0x3d85aae7	0.06526738
23	0x3ec492ab	0.3839315
24	0x3f1b4d30	0.60664654
25	0x3ee751b2	0.45179516
26	0x3f15bfd5	0.5849584
27	0xbee1325a	-0.43983728
28	0xbe9c4bb5	-0.3052651
29	0x3e93d8bc	0.28876293
30	0x3f12edbf	0.5739402
31	0xbe714ced	-0.23564501
32	0xbe9b512f	-0.30335376
33	0xbecf5c6f	-0.4050021
34	0xbf193cda	-0.5985848
35	0xbf0baf93	-0.5456478
36	0x3e7428e6	0.23843727
37	0xbf06f959	-0.52724224
38	0xbeff3ad5	-0.49849573
39	0x3ec0f665	0.37687984
40	0xbda36886	-0.07978921
41	0x3f07a967	0.5299286
42	0xbe299ced	-0.16563769
43	0xbe454126	-0.19263133
44	0x3edf3537	0.43595287
45	0x3e235942	0.15952018
46	0x3df926c0	0.12165594
47	0xbca6de6b	-0.020369729
48	0x3edac789	0.42730358
49	0x3e00a89f	0.12564324
50	0x3eb1c1df	0.34718224
51	0xbeb960f1	-0.36206773
52	0xbe4a068e	-0.19729063
53	0x3e655e62	0.22399285
54	0x3e8b2c6e	0.27182335
55	0xbe4c43eb	-0.19947784
56	0x3ead787e	0.3388099
57	0x3e4adc02	0.19810489
58	0xbe319a18	-0.17343938
59	0x3efd50b5	0.49475637
60	0x3e4729b4	0.19449502
61	0xbea13ea7	-0.31493112
62	0xbea2966e	-0.31755394
63	0x3e88cad3	0.26717243
64	0xbe8022bc	-0.250265
65	0x3e568c21	0.20951892
66	0xbd53fde5	-0.051755805
67	0xbdf76696	-0.120801136
68	0xbeed4bbb	-0.4634684
69	0x3e4bcab9	0.19901551
70	0xbe93153b	-0.28727135
71	0x3f0f3024	0.5593283
72	0x3ebc8dd2	0.3682695
73	0x3e4d437f	0.20045279
74	0x3d26b9c8	0.04070452
75	0xbed35aae	-0.4128012
76	0x3eb63bb5	0.35592428
77	0xbe04b660	-0.12960196
78	0x3edaae2d	0.4271101
79	0x3eccde8b	0.40013537
80	0xbf08cb84	-0.5343554
81	0x3ef52952	0.47883087
82	0x3e5e68a1	0.217196
83	0x3df3e89a	0.119095996
84	0xbe58f5d2	-0.21187523
85	0xbe7aace5	-0.24480017
86	0xbf0001c9	-0.50002724
87	0x3e423894	0.18966895
88	0xbe9248fb	-0.28571305
89	0x3ef7d7de	0.4840688
90	0x3f0a1304	0.53935266
91	0x3e89a68c	0.26884878
92	0x3f17a60f	0.5923776
93	0xbe302ac0	-0.17203808
94	0x3dd62365	0.1045597
95	0xbe8b8889	-0.27252606
96	0x3eea8049	0.45801
97	0x3e3362fe	0.17518231
98	0x3eb4383e	0.3519916
99	0xbe437985	-0.19089325
100	0xbf06c0f6	-0.52638185
101	0xbf0ea55c	-0.5572107
102	0x3e5131af	0.20429109
103	0x3dd4a615	0.1038324
104	0x3e74be7c	0.23900789
105	0xbe6bd0b3	-0.23028831
106	0xbe638f9d	-0.22222753
107	0xbeb244bf	-0.34818074
108	0x3e063588	0.13106358
109	0xbdf8f995	-0.12156979
110	0x3f1219de	0.5707072
111	0xbec532b3	-0.38515243
112	0xbdadc1c3	-0.08484223
113	0x3eb4581d	0.35223475
114	0x3d3d8727	0.04627147
115	0x3ef80efb	0.4844893
116	0xbe75ad3b	-0.23991863
117	0xbcd00edd	-0.025397712
118	0xbeffc551	-0.49955228
119	0x3ec0f0ea	0.37683803
120	0xbef1b0c6	-0.4720518
121	0xbe9b2769	-0.30303505
122	0xbe4f7497	-0.20259319
123	0x3edad0d2	0.42737442
124	0x3f13c4f9	0.5772243
125	0x3f03a6cb	0.5142638
126	0x3f04210c	0.51612926
127	0x3f0d153f	0.55110544
128	0x3e971783	0.29510126
129	0xbece89e3	-0.40339574
130	0xbe11bba6	-0.14231738
131	0x3ddfcf40	0.10928202
132	0xbdc7c707	-0.09754758
133	0xbe60b218	-0.21942937
134	0xbc37985f	-0.011205762
135	0xbe845fb2	-0.2585426
136	0xbf1b5393	-0.606744
137	0xbea6c339	-0.32570818
138	0xbefe097c	-0.4961661
139	0xbe79c54f	-0.24391674
140	0xbbda6726	-0.0066651283
141	0xbe1a1123	-0.150456
142	0xbdfb0b46	-0.122580096
143	0xbd212e54	-0.039350823
144	0x3ef0d0d3	0.4703432
145	0xbead4aa7	-0.33846018
146	0xbd2c422d	-0.042055298
147	0xbacf0af3	-0.001579611
148	0xbec35fb7	-0.38158962
149	0x3e13a02a	0.14416566
150	0x3ed78eba	0.4210108
151	0xbe24976d	-0.1607339
152	0xbdcb0d40	-0.099146366
153	0xbe09f70a	-0.13473144
154	0xbe593bd2	-0.21214226
155	0x3e600cb6	0.21879849
156	0x3f0a46f8	0.5401454
157	0x3f00f739	0.5037723
158	0xbe4d853b	-0.20070355
159	0x3e296e9f	0.16546105
160	0xbef621d0	-0.48072672
161	0xbf12ddfa	-0.5736996
162	0x3f12de4c	0.5737045
163	0x3e027c7a	0.12742797
164	0xbebbc7dd	-0.3667592
165	0xbe8a7812	-0.2704473
166	0x3e84e0d4	0.2595278
167	0xbd3a89c8	-0.045541555
168	0x3db576d5	0.08860556
169	0x3ea2b473	0.31778297
170	0xbedb1286	-0.4278757
171	0x3bc5cea7	0.006036598
172	0x3db17ad6	0.08666007
173	0x3f1107c9	0.56652504
174	0x3ec198eb	0.3781198
175	0x3e392eac	0.1808421
176	0xbe681f09	-0.22668089
177	0x3e20be76	0.15697655
178	0x3e0b66e0	0.13613462
179	0x3e893670	0.26799345
180	0x3c0876f3	0.008329141
181	0x3dcf2281	0.10114003
182	0x3ed5a664	0.41728508
183	0xbef9fb60	-0.48824596
184	0xbe8556ee	-0.26042885
185	0x3e9d4f3d	0.30724517
186	0x3ed793c9	0.4210494
187	0xbf004705	-0.5010837
188	0xbef5237a	-0.4787863
189	0xbe4c9069	-0.19976963
190	0x3ed02761	0.40655044
191	0x3ef1ccf7	0.47226688
192	0x3e085b8c	0.13316172
193	0x3d96c7f6	0.07362358
194	0x3cd86623	0.02641589
195	0xbd2e2045	-0.042511243
196	0x3e2e63ac	0.1703021
197	0x3dfb6277	0.1227464
198	0xbe6de58b	-0.23232095
199	0x3e4f8c24	0.20268303
200	0xb8d94c3d	-0.00010361567
201	0x3e9adb25	0.3024532
202	0x3d19c105	0.037537593
203	0xbf02a13f	-0.5102729
204	0xbde1a100	-0.110170364
205	0x3e0e9f0f	0.13927864
206	0x3e6bcc22	0.23027089
207	0x3ea513b7	0.32241604
208	0xbf103a45	-0.5633891
209	0x3efa9fbd	0.48949996
210	0x3b534524	0.0032237256
211	0xbe7f45d4	-0.24928981
212	0xbece749b	-0.40323338
213	0x3ebf153a	0.37320882
214	0xbd2463b2	-0.04013414
215	0x3f0363a3	0.5132391
216	0x3f1c184e	0.60974586
217	0x3d53be13	0.05169494
218	0x3dcfb83d	0.101425625
219	0x3e66c107	0.22534572
220	0x3e491d19	0.19640006
221	0x3ec0dd17	0.37668678
222	0x3aba9a38	0.0014236635
223	0x3e342802	0.17593387
224	0xbda27b4f	-0.079336755
225	0x3ea930a8	0.33044934
226	0x3eaa251d	0.3323144
227	0x3e792662	0.24331048
228	0xbe3e85ba	-0.186057
229	0xbee1da38	-0.441118
230	0xbe717d60	-0.23582983
231	0x3ea2a621	0.3176737
232	0x3c8446a6	0.016146969
233	0xbf06f7a5	-0.52721626
234	0x3ea20d8c	0.3165096
235	0x3f116b5a	0.5680443
236	0x3f099463	0.53742045
237	0xbee1e89a	-0.44122773
238	0xbe24756a	-0.16060415
239	0x3e1ba7a6	0.15200672
240	0xbe47dca1	-0.19517757
241	0xbe9e0357	-0.30861923
242	0x3ea02a4e	0.31282276
243	0x3f0db39a	0.55352175
244	0xbf1c1ea1	-0.60984236
245	0xbde3fec3	-0.11132576
246	0xbedbb6fd	-0.42913046
247	0xbe7a3bb2	-0.24436834
248	0x3f152830	0.58264446
249	0xbf1aeaeb	-0.60514706
250	0x3e6b6acd	0.2298996
251	0x3f0f4cad	0.5597637
252	0x3ede52d1	0.4342256
253	0xbeb30b36	-0.3496949
254	0x3e77a322	0.24183324
255	0xbe936343	-0.28786668

encoder.layers.0.attention.w_v.bias f4 [16]
0	0xbe729f27	-0.23693524
1	0x3e617ffb	0.22021477
2	0x3df2dd5e	0.11858629
3	0x3e6e9fee	0.23303196
4	0xbb76f2f0	-0.0037681423
5	0x3e044d87	0.129202
6	0xbcd5853e	-0.026064511
7	0xbe23d1ad	-0.15997954
8	0x3d2a7ca0	0.041622758
9	0xbd1065f4	-0.03525348
10	0x3cf58d21	0.029974522
11	0xbd8c1dfa	-0.06841655
12	0xbd060e02	-0.032728203
13	0x3e70e341	0.2352419
14	0x3e4408f2	0.19144037
15	0xbe491bff	-0.19639586

encoder.layers.0.attention.w_concat.weight f4 [16, 16]
0	0xbe9d9a96	-0.30782002
1	0xbea680f5	-0.3252026
2	0x3e9c438b	0.3052028
3	0xbf206068	-0.62647104
4	0xbd1f9b3f	-0.038966414
5	0x3ef49ba0	0.47774982
6	0xbe8f50b9	-0.27991274
7	0xbef7ff0e	-0.4843678
8	0x3ee97069	0.45593575
9	0x3d545385	0.051837463
10	0x3f0efef1	0.5585776
11	0x3d9e6b27	0.077352814
12	0x3f052342	0.52006924
13	0x3ede76a1	0.43449882
14	0x3b979fa6	0.004627186
15	0x3ead7d75	0.3388478
16	0xbe4dd7ce	-0.20101854
17	0x3f197826	0.59948957
18	0x3ee130ef	0.43982646
19	0xbf197cec	-0.5995624
20	0xbdc7e3cc	-0.09760246
21	0xbec10acc	-0.3770355
22	0xbecac05d	-0.39599887
23	0xbed6e8fd	-0.4197463
24	0x3eb82990	0.3596921
25	0x3efa60c2	0.48901945
26	0xbd444425	-0.04791655
27	0xbdcf5cfa	-0.10125156
28	0xbf11bc1a	-0.56927645
29	0x3e6af3cf	0.22944568
30	0xbef84df0	-0.48496962
31	0xbe479bdd	-0.19493051
32	0xbc3b6e6f	-0.011439904
33	0xbe910e02	-0.28331
34	0x3f0c30cb	0.5476195
35	0xbeeb1735	-0.45916143
36	0xbee82f38	-0.45348525
37	0xbeff84ff	-0.49906155
38	0xbe469cf4	-0.1939581
39	0xbe3d9154	-0.1851247
40	0xbed4c5f8	-0.41557288
41	0xbf0edd3d	-0.5580633
42	0xbe13647b	-0.14393799
43	0x3e9aac52	0.30209595
44	0xbebbff69	-0.367183
45	0x3e125a93	0.14292364
46	0x3ee3cb40	0.44491005
47	0xbf0fabbb	-0.56121415
48	0xbf031766	-0.5120758
49	0xbf0fd766	-0.56188047
50	0xbee1989e	-0.4406175
51	0xbed7b7b3	-0.4213234
52	0xbb0cbd95	-0.0021475304
53	0x3f0259dc	0.50918365
54	0xbd7924e0	-0.060826182
55	0xbe07fb55	-0.1327947
56	0xbf0b8473	-0.54498976
57	0x3e1cba64	0.15305477
58	0x3caebdd7	0.021330757
59	0xbe6b7df9	-0.22997274
60	0x3d16f5b7	0.036855426
61	0x3f093c8c	0.5360801
62	0x3d590428	0.05298248
63	0x3ed9a02c	0.42505014
64	0x3ed0e545	0.4079992
65	0xbe27dc74	-0.1639269
66	0xbe0b7b65	-0.1362129
67	0x3efe9a70	0.497272
68	0xbeb7266e	-0.35771507
69	0xbe8d188f	-0.275578
70	0x3de13e17	0.10998171
71	0xbde7d265	-0.113194264
72	0xbe488486	-0.19581804
73	0xbe8d06b2	-0.2754417
74	0xbe11c7a1	-0.14236309
75	0x3e8da4f4	0.27664912
76	0xbd4edb0f	-0.05050188
77	0x3ec7cf3b	0.39025292
78	0xbf02481e	-0.5089129
79	0xbd544dfc	-0.051832184
80	0xbecd0e8f	-0.4005017
81	0xbeae79b4	-0.34077227
82	0x3e5d5365	0.21613844
83	0xbe0b26f6	-0.13589081
84	0x3f00d464	0.5032408
85	0x3d6ffb04	0.058588997
86	0xbf1eb09e	-0.61988246
87	0xbeb17774	-0.34661448
88	0xbee9d3d9	-0.4566944
89	0x3db0ffcd	0.0864254
90	0xbebbe218	-0.36695933
91	0x3dae41b2	0.08508624
92	0x3ee40092	0.44531685
93	0xbed2621a	-0.4109047
94	0xbc3b6319	-0.011437201
95	0xbf0e2572	-0.55525887
96	0x3c61ed8b	0.013789545
97	0xbf0da678	-0.55332136
98	0x3f069391	0.5256892
99	0x3ecddc79	0.4020727
100	0x3f101571	0.56282717
101	0x3ea4ce11	0.32188466
102	0xbd2815f8	-0.041036576
103	0x3e7185a1	0.23586132
104	0x3e0bc60b	0.13649766
105	0x3ed4a5c4	0.4153272
106	0xbd776eff	-0.06040859
107	0x3db13c11	0.08654035
108	0x3e1ead3a	0.15495768
109	0x3e6400be	0.22265908
110	0xbe37af4a	-0.17937961
111	0xbee6fc2f	-0.45114276
112	0xbed94406	-0.4243471
113	0x3e334ddc	0.1751017
114	0xbed26fe1	-0.41100982
115	0xbe077589	-0.1322843
116	0xbea3b7bd	-0.3197612
117	0xbea7b0c9	-0.32752064
118	0x3eb23aaf	0.34810397
119	0x3dad9b56	0.084768936
120	0xbdfce5a9	-0.12348492
121	0x3e713b3c	0.23557752
122	0x3c0af57b	0.008481379
123	0xbe2423db	-0.16029303
124	0xbdd11be7	-0.102104
125	0xbf15463d	-0.583103
126	0xbf084a70	-0.5323858
127	0xbf13fa29	-0.5780359
128	0xbf1a50da	-0.6027962
129	0x3ed98fb3	0.42492446
130	0x3e242e20	0.1603322
131	0x3f1b789f	0.6073093
132	0xbcf97913	-0.03045324
133	0xbe0442bd	-0.12916084
134	0xbdc930e2	-0.09823777
135	0x3e0af107	0.13568507
136	0xbd71ec90	-0.059063494
137	0x3eda0891	0.4258466
138	0xbed0c457	-0.40774795
139	0x3e84e1f7	0.25953647
140	0xbef7e16d	-0.48414174
141	0xbecf41f0	-0.40479994
142	0x3e2a84cc	0.1665222
143	0xbe744c6f	-0.23857282
144	0xbe82b178	-0.25526023
145	0x3efc2758	0.49248767
146	0x3e5b100a	0.21392837
147	0xbef350b8	-0.4752252
148	0xbd10d621	-0.03536046
149	0xbedd6446	-0.43240565
150	0x3f0a2d53	0.5397541
151	0x3ee84f03	0.4537278
152	0x3f11234e	0.56694496
153	0x3d17c3de	0.037052028
154	0x3ea8142c	0.3282789
155	0x3d13f83c	0.036125407
156	0x3f03ef08	0.5153661
157	0x3e379b3a	0.17930308
158	0x3e55f270	0.20893264
159	0x3f07b0f3	0.5300438
160	0xbe7a379a	-0.24435273
161	0xbdb03084	-0.086030036
162	0x3e9023f6	0.28152436
163	0xbeb56c9d	-0.35434428
164	0x3e4902be	0.19629952
165	0xbee146d7	-0.4399936
166	0x3c8cebe7	0.01720233
167	0xbe38caff	-0.18046187
168	0x3ea7f827	0.32806513
169	0xbe847709	-0.25872067
170	0xbea2da93	-0.31807384
171	0xbe530ff3	-0.20611553
172	0x3dc11731	0.094282515
173	0x3e2fe8d7	0.17178665
174	0xbeb4ab5e	-0.35286993
175	0xbe6bec5c	-0.23039383
176	0x3ea06ddf	0.31333825
177	0x3eb0fc55	0.34567514
178	0xbf1d3798	-0.61412954
179	0x3e38e831	0.18057324
180	0xbe619ade	-0.22031733
181	0x3eafd86d	0.34344807
182	0xbee45442	-0.44595534
183	0xbce3c959	-0.027805971
184	0x3ec7cfc6	0.39025706
185	0xbf0f59ae	-0.55996215
186	0xbe128743	-0.14309411
187	0xbee0fb67	-0.43941805
188	0xbe030d1f	-0.12797974
189	0x3d995d1b	0.074884616
190	0x3e223e6f	0.15844129
191	0x3ed395bf	0.41325185
192	0x3e1e3b21	0.15452243
193	0x3e86c3fd	0.26321402
194	0x3e83304f	0.25622794
195	0xbe8ca877	-0.27472278
196	0xbde67f64	-0.112547666
197	0xbe689a81	-0.22715189
198	0x3e8894c7	0.26676008
199	0xbf089a91	-0.5336085
200	0xbe27d1ac	-0.16388577
201	0xbec2c141	-0.38038066
202	0x3efb598d	0.4909176
203	0x3a466e6d	0.00075695553
204	0x3f0d7e35	0.552707
205	0x3e4e5db7	0.20152937
206	0xbeaee069	-0.34155586
207	0xbeaa5e7a	-0.33275205
208	0xbe1f2e2b	-0.15544955
209	0xbe1a2d8b	-0.15056436
210	0x3ebed957	0.37275192
211	0xbe40fff5	-0.1884764
212	0xbeb9b51f	-0.36270997
213	0x3eca5772	0.3951984
214	0xbd6c060f	-0.057622965
215	0x3eef4cd2	0.46738297
216	0x3e14e2ab	0.14539592
217	0xbd190bba	-0.0373647
218	0x3f0fa7db	0.561155
219	0xbf03de7b	-0.51511353
220	0x3cf62330	0.030046076
221	0xbdec283b	-0.11531111
222	0xbf12ca91	-0.5734034
223	0xbee2fcaf	-0.44333407
224	0x3eda81da	0.42677194
225	0x3f0c7284	0.54862237
226	0xbe9a1a9f	-0.30098435
227	0x3e126827	0.14297543
228	0x3e3a1b53	0.18174486
229	0x3ee40802	0.4453736
230	0xbee9dd2c	-0.45676553
231	0xbdf33a54	-0.118763596
232	0xbf0428c6	-0.51624715
233	0xbedbd7d1	-0.42938092
234	0x3d8aa6a2	0.06770064
235	0xbdf390a9	-0.11892826
236	0xbe264730	-0.16238093
237	0x3e6607b3	0.22463875
238	0xbed60228	-0.4179852
239	0xbeee0388	-0.4648707
240	0x3ed0f2ea	0.4081033
241	0x3e930f87	0.28722784
242	0x3ee20c83	0.4415017
243	0x3e8f1b8c	0.27950704
244	0xbdea9d54	-0.11455789
245	0xbf02c4d4	-0.51081586
246	0xbf05a93f	-0.52211374
247	0xbd069ecd	-0.032866288
248	0xbc696ad0	-0.0142466575
249	0xbe25f7a9	-0.16207756
250	0xbdb60926	-0.08888464
251	0xbed155c1	-0.40885738
252	0x3f177910	0.591691
253	0x3d4f7152	0.05064518
254	0x3e67ce7e	0.22637364
255	0xbf074c60	-0.52850914

encoder.layers.0.attention.w_concat.bias f4 [16]
0	0xbdcbfafc	-0.09959981
1	0xbb160dc2	-0.0022896384
2	0xbd891be6	-0.06694774
3	0xbd5382bb	-0.051638346
4	0x3d624109	0.055237804
5	0x3dc8fce9	0.09813864
6	0xbda07a05	-0.078357734
7	0x3db0ad1f	0.0862677
8	0x3d11d43b	0.03560279
9	0x3e3793b7	0.17927442
10	0xbdc54c37	-0.096336775
11	0x3e38fc63	0.18065028
12	0xbe023810	-0.12716699
13	0xbd53ef13	-0.05174167
14	0xbe1a8991	-0.1509154
15	0xbd995247	-0.07486396

encoder.layers.0.norm1.gamma f4 [16]
0	0x3f82c12c	1.0215201
1	0x3f7f3fb1	0.9970656
2	0x3f7b12d4	0.98075604
3	0x3f805008	1.0024424
4	0x3f7b26b7	0.9810595
5	0x3f7efac2	0.99601376
6	0x3f7aa127	0.9790215
7	0x3f815fab	1.010732
8	0x3f7ad77e	0.97985065
9	0x3f7a6176	0.97804964
10	0x3f801e0f	1.0009173
11	0x3f81836d	1.0118233
12	0x3f80e521	1.0069925
13	0x3f80fa58	1.0076399
14	0x3f814d50	1.0101719
15	0x3f7da620	0.9908161

encoder.layers.0.norm1.beta f4 [16]
0	0x3a179f5c	0.0005783939
1	0xbc55ba0a	-0.013044843
2	0x3bb55a67	0.0055344584
3	0x3c43bf8e	0.011947526
4	0x3c355139	0.011066728
5	0x38e46041	0.00010889816
6	0xbc147305	-0.009060626
7	0x3b2641a5	0.0025368717
8	0x3b643f2b	0.003482769
9	0x3cdf23d6	0.027238768
10	0xbca10741	-0.01965678
11	0x3c21a446	0.009865826
12	0xbb00f653	-0.001967807
13	0x3b995248	0.004678998
14	0x3c6bf24b	0.014401029
15	0xbbfafc0b	-0.0076594404

encoder.layers.0.ffn.linear1.weight f4 [64, 16]
0	0x3ef1818b	0.47169146
1	0x3ed20fc3	0.4102765
2	0xbf008efa	-0.50218165
3	0x3d820f3b	0.06350561
4	0x3c225a07	0.0099091595
5	0x3e031777	0.1280192
6	0x3ed4faef	0.41597697
7	0x3e9467f5	0.28985563
8	0xbe83eea8	-0.25768018
9	0x3ed36bf6	0.41293305
10	0xbec2f3ec	-0.38076723
11	0x3ef3cf65	0.47619167
12	0x3e3aa501	0.18227006
13	0xbdd4c367	-0.103888325
14	0x3df5598d	0.11979971
15	0xbea9cea0	-0.33165455
16	0xbc90e76e	-0.01768848
17	0x3f141148	0.5783887
18	0xbde8a414	-0.113594204
19	0xbe393757	-0.18087517
20	0x3f1930e6	0.5984024
21	0x3eed7f81	0.4638634
22	0xbf015a3d	-0.5052832
23	0x3e0ffc12	0.14061001
24	0xbeda7570	-0.42667723
25	0xbe1f33bf	-0.15547083
26	0x3e8eb853	0.27875003
27	0xbefab218	-0.48964
28	0x3eb31a53	0.3498102
29	0x3e10555b	0.1409506
30	0xbe80f891	-0.2518964
31	0x3eeb1bad	0.45919552
32	0xbf0d5a57	-0.5521597
33	0xbdd59627	-0.1042903
34	0x3ec0a08c	0.37622488
35	0xbe9e67bd	-0.3093852
36	0xbea30644	-0.31840718
37	0xbef8f8ea	-0.48627406
38	0xbd93d930	-0.072191596
39	0xbea457c6	-0.32098216
40	0x3e46626f	0.19373487
41	0x3e34bfb5	0.17651255
42	0xbf04fedf	-0.519514
43	0x3e4aaa39	0.19791497
44	0xbe61601c	-0.22009319
45	0x3ee08349	0.43850163
46	0x3e6600bd	0.22461219
47	0x3ecd3e1b	0.40086445
48	0x3f00ffb5	0.5039018
49	0x3ee2cde2	0.442977
50	0x3e8b8cc9	0.27255848
51	0x3ec8c110	0.39209795
52	0x3e56b250	0.20966458
53	0xbe9d211a	-0.30689317
54	0x3e9c4c92	0.3052717
55	0x3eac6d03	0.3367692
56	0xbea8e81f	-0.32989594
57	0xbee8d152	-0.454722
58	0x3e43effc	0.19134516
59	0xbeae64c0	-0.3406124
60	0x3e5deb6b	0.21671836
61	0xbe612d19	-0.2198986
62	0xbea0e0c7	-0.31421492
63	0x3e1321c0	0.14368343
64	0xbeb05e47	-0.34446928
65	0x3f1e352f	0.617999
66	0xbf00237a	-0.5005413
67	0x3f106c4a	0.56415236
68	0x3e6684fb	0.22511666
69	0x3eb54b28	0.35408902
70	0xbea9ba21	-0.33149818
71	0x3e02686a	0.12735143
72	0x3f075d13	0.52876395
73	0xbef3a773	-0.4758869
74	0x3e9b07d6	0.30279416
75	0xbee0aa10	-0.43879747
76	0x3ed38d92	0.41318947
77	0x3cf4ac42	0.029867295
78	0xbec37c5f	-0.38180825
79	0xbd8ed127	-0.069734864
80	0xbeffa0fd	-0.49927512
81	0xbe65c272	-0.22437456
82	0xbe83778e	-0.2567715
83	0xbecb1b5e	-0.39669317
84	0x3ec61c49	0.38693455
85	0x3ec0ea23	0.37678632
86	0xbea77ca9	-0.32712296
87	0xbec9731f	-0.39345643
88	0xbe6655f1	-0.22493722
89	0xbea97fea	-0.33105403
90	0xbda39621	-0.07987619
91	0xbeb66b09	-0.35628536
92	0x3e957edf	0.29198357
93	0xbf006f9c	-0.501703
94	0xbf0daa37	-0.5533785
95	0x3eab1b40	0.33419228
96	0xbe4390ba	-0.19098178
97	0x3e061c08	0.1309663
98	0xbd807c01	-0.06273652
99	0x3db9bf65	0.09069709
100	0xbdb11512	-0.08646597
101	0x3e1decd2	0.15422371
102	0xbc6ebe81	-0.014571787
103	0xbee2b059	-0.44275168
104	0xbefb0ca6	-0.49033087
105	0x3e4423ee	0.19154331
106	0xbef60295	-0.48048845
107	0xbd8d244b	-0.06891688
108	0xbe6beb4b	-0.23038976
109	0x3ebf5149	0.37366703
110	0x3eea97f7	0.45819065
111	0xbc5afbf1	-0.013365732
112	0xbe7e770a	-0.24850097
113	0x3e545197	0.20734249
114	0xbebbea4c	-0.36702192
115	0x3d6565dd	0.056005348
116	0x3e53bb6c	0.20676965
117	0x3e814ae5	0.25252452
118	0xbf02a65a	-0.5103508
119	0xbf0442e1	-0.5166455
120	0xbf0499ef	-0.51797384
121	0xbf0b7d7a	-0.5448834
122	0x3b5ad017	0.0033388191
123	0xbe368648	-0.17824662
124	0xbe80e2e3	-0.251731
125	0x3df7edfa	0.12105937
126	0xbf15a8dc	-0.58460784
127	0xbecaaa6f	-0.39583156
128	0xbe520966	-0.20511398
129	0xbef37c64	-0.4755584
130	0xbe493c2f	-0.19651864
131	0xba908a17	-0.0011027482
132	0xbec7deb2	-0.3903709
133	0x3e885ae6	0.2663185
134	0x3f11dab6	0.5697435
135	0x3e856e4c	0.26060712
136	0x3dd8155a	0.105509475
137	0x3ec0e642	0.37675673
138	0x3e00fa1b	0.12595408
139	0x3f015d17	0.5053267
140	0x3e0aac62	0.13542321
141	0xbeec2045	-0.4611837
142	0x3e06f32a	0.13178697
143	0x3e700f26	0.23443279
144	0xbec82017	-0.39086983
145	0xbe8cd84a	-0.27508765
146	0xbb71ce36	-0.0036896593
147	0xbdc478f6	-0.09593384
148	0x3dbf54d4	0.093423516
149	0x3e0b4d1d	0.13603635
150	0x3ec3f9e4	0.3827659
151	0xbd1ded08	-0.03855613
152	0xbec093c8	-0.37612748
153	0x3e9e59b9	0.30927828
154	0xbe9b2dbd	-0.30308333
155	0x3ef93bfe	0.48678583
156	0xbe6f76b2	-0.23385122
157	0x3e6cb53b	0.23116009
158	0x3bf674f7	0.0075212675
159	0xbf11d1a5	-0.5696052
160	0x3c84520e	0.016152408
161	0x3c10d302	0.008839371
162	0x3e6fc494	0.23414832
163	0xbe443f88	-0.1916486
164	0x3ec6ed95	0.38853136
165	0xbee5fc8d	-0.44919243
166	0x3eb086c0	0.34477806
167	0xbe4f679e	-0.2025437
168	0x3ea01c47	0.31271574
169	0xbeec3e2b	-0.4614118
170	0xbebc3509	-0.36759213
171	0xbe17f3f4	-0.14839154
172	0x3f149c29	0.5805078
173	0xbec8e24b	-0.39235148
174	0xbeff142c	-0.49820077
175	0xbecf9618	-0.405442
176	0x3ddaae50	0.10677779
177	0xbecb31a8	-0.39686322
178	0xbea2915f	-0.31751534
179	0xbe862ba2	-0.26205164
180	0xbe486737	-0.19570623
181	0x3f055d1f	0.52095217
182	0xbdd0b480	-0.10190678
183	0x3b12a9b8	0.0022378992
184	0xbec14854	-0.37750494
185	0x3f0abae3	0.54191417
186	0x3e611d67	0.21983872
187	0xbf04fd94	-0.5194943
188	0xbecec678	-0.40385795
189	0xbdbfd016	-0.09365861
190	0xbf17659b	-0.5913941
191	0x3ebea2b3	0.37233505
192	0x3e4d1359	0.20026912
193	0xbf11c755	-0.5694478
194	0xbede90f8	-0.43469977
195	0xbed1fccb	-0.41013178
196	0x3e8fdd8d	0.28098717
197	0x3f146b39	0.5797611
198	0x3e5fa9ff	0.21842192
199	0xbe6c856b	-0.2309777
200	0x3e9fa4f4	0.31180537
201	0x3dbeab9e	0.09310077
202	0xbf15bf64	-0.58495164
203	0xbda54785	-0.08070282
204	0xbd7504de	-0.059819095
205	0x3ead7070	0.33874846
206	0x3e1878af	0.14889787
207	0x3f16cc71	0.589057
208	0xbf16c4f0	-0.5889425
209	0xbf03aa8b	-0.514321
210	0xbd99ec90	-0.07515824
211	0x3f108253	0.5644886
212	0xbe317379	-0.17329206
213	0xbe9a1afc	-0.30098712
214	0xbf0c532f	-0.5481443
215	0xbc1e169f	-0.009648948
216	0x3e51ad57	0.2047628
217	0x3f0e910b	0.5569007
218	0x3e22c8e4	0.15896946
219	0xbea9bb3c	-0.3315066
220	0xbe1d2e53	-0.15349703
221	0xbefb489a	-0.49078828
222	0xbe4d369d	-0.20040365
223	0x3ecd1bf7	0.40060398
224	0x3efc102b	0.49231085
225	0x3ebf89ff	0.3740997
226	0xbee2959e	-0.44254774
227	0xbcd1411b	-0.02554374
228	0xbeb47f1f	-0.35253236
229	0x3d65396d	0.05596297
230	0x3ee903b3	0.45510635
231	0xbd5c0935	-0.053719718
232	0xbe0e9747	-0.13924895
233	0xbd0816a5	-0.03322472
234	0x3de8ed88	0.113734305
235	0x3dfe3e19	0.12414188
236	0x3ef5f5e4	0.48039162
237	0x3e5aa2f1	0.2135122
238	0xbe8fb5fc	-0.2806853
239	0x3e7466ed	0.23867388
240	0x3eb86c1b	0.36019978
241	0xbe096e55	-0.13420995
242	0xbea20b75	-0.31649366
243	0x3e959da7	0.29221842
244	0xbefbd8df	-0.49188897
245	0xbd8b924e	-0.06815015
246	0xbe661e81	-0.22472574
247	0x3e635fbf	0.22204493
248	0x3f04dd00	0.5189972
249	0xbe039a73	-0.12851886
250	0x3ec5dfa2	0.3864718
251	0xbf0ecf1e	-0.55784786
252	0x3e4d364f	0.20040248
253	0xbebe1f90	-0.37133455
254	0x3f1279e3	0.57217234
255	0x3e763a2c	0.24045628

encoder.layers.0.ffn.linear1.bias f4 [64]
0	0xbda2738a	-0.079321936
1	0xbe14a79f	-0.14517067
2	0x3e2835f3	0.1642683
3	0x3e246cb3	0.1605709
4	0x3e6b0be8	0.2295376
5	0x3e5381a2	0.2065492
6	0x3dae4fc9	0.085113116
7	0x3e5ded05	0.21672447
8	0x3e44feff	0.19237898
9	0x3dd42cd1	0.103601106
10	0xbdf31554	-0.118693024
11	0x3e087e05	0.13329323
12	0x3e0c8a4e	0.13724634
13	0xbde92d00	-0.11385536
14	0xbc92a11f	-0.017899094
15	0xbe2ebe02	-0.1706467
16	0x3e4e8373	0.20167331
17	0x3e2a8513	0.16652326
18	0xbdf963c4	-0.12177232
19	0x3c555bde	0.013022391
20	0xbdb7c395	-0.08972851
21	0x3e300f2f	0.17193292
22	0x3e7132aa	0.23554483
23	0x3e6043b5	0.21900828
24	0x3e1c319c	0.152533
25	0xbe4e38a8	-0.201388
26	0xbe55bce9	-0.20872845
27	0xbd59dd19	-0.05318937
28	0xbd13ea10	-0.03611189
29	0x3e042271	0.12903763
30	0x3e2866fc	0.16445535
31	0xbe4809f2	-0.19535044
32	0xbd59ff64	-0.053222075
33	0xbd3cddd7	-0.04611
34	0xbe3a132c	-0.18171376
35	0x3e118402	0.14210513
36	0x3e585124	0.21124703
37	0xbe3a5796	-0.18197474
38	0xbd3e07d2	-0.046394177
39	0x3e0deef3	0.13860683
40	0x3e4efe29	0.20214142
41	0x3e341b45	0.17588528
42	0xbe6579a3	-0.22409682
43	0xbe3a031e	-0.18165252
44	0x3e1c9f14	0.15295058
45	0xbc443f9b	-0.011978055
46	0x3c052f9c	0.008129027
47	0x3dbcb9d5	0.09215132
48	0xbe143caa	-0.14476267
49	0xbe05e40f	-0.13075279
50	0xbdd5c708	-0.10438353
51	0x3df0ad21	0.11751772
52	0x3e14a296	0.14515147
53	0x3dedb283	0.11606314
54	0x3d1b8bd2	0.03797514
55	0x3d3891d6	0.045060955
56	0xbe08dd05	-0.13365562
57	0xbd6acf4b	-0.057326596
58	0xbdb87a92	-0.090077534
59	0xbe50bead	-0.20385237
60	0x3d2c06db	0.041998725
61	0xbd67cd74	-0.05659242
62	0x3e42aebb	0.19011967
63	0xbc27793b	-0.010221775

encoder.layers.0.ffn.linear2.weight f4 [16, 64]
0	0xbd87a232	-0.06622733
1	0xbcb953a7	-0.022622896
2	0x3d4f356d	0.05058806
3	0xbd1b1b6a	-0.03786794
4	0x3e47f9c0	0.19528866
5	0xbd2f0db8	-0.042737693
6	0x3dfead51	0.12435401
7	0x3e5c33d9	0.21504153
8	0xbe8652e7	-0.26235124
9	0xbdb3c958	-0.08778638
10	0xbe76e848	-0.24112046
11	0x3e24b067	0.16082917
12	0x3e3bfa20	0.18357134
13	0x3e9a7878	0.30170035
14	0x3dbe5605	0.09293751
15	0xbdcd504d	-0.10025082
16	0xbe8595d6	-0.26090878
17	0xbda58bd1	-0.080833085
18	0xbe900ce6	-0.2813484
19	0x3e242196	0.16028437
20	0xbcdf2f5a	-0.027244259
21	0xbc945335	-0.018106082
22	0xbe80b553	-0.2513834
23	0xbe0ac0f7	-0.13550173
24	0x3e17ee8b	0.1483709
25	0x3e39e1dc	0.18152565
26	0xbda75c6a	-0.081719235
27	0x3e5771c3	0.2103949
28	0x3d8d0e8d	0.06887541
29	0xbd9291b7	-0.07156699
30	0xbe1846cb	-0.14870755
31	0x3e974f2a	0.29552585
32	0x3c1b5af4	0.009482134
33	0x3e740140	0.23828602
34	0xbd922a6b	-0.07136997
35	0x3e5eb6e9	0.21749462
36	0x3d005212	0.03132827
37	0x3e984da1	0.29746726
38	0xbd87886f	-0.066178195
39	0x3e84c7ca	0.25933677
40	0xbd612541	-0.05496717
41	0x3e872bb2	0.26400524
42	0x3e6cc11e	0.23120543
43	0xbe87bc34	-0.26510775
44	0xbd07ec5c	-0.033184394
45	0xbe91e0c2	-0.2849179
46	0xbc6cdd73	-0.0144570945
47	0xbe2beca9	-0.16789497
48	0x3db17fee	0.08666979
49	0xbe250203	-0.16114049
50	0xbe36ec90	-0.17863679
51	0xbe242246	-0.160287
52	0x3e15367c	0.14571565
53	0xbe71d6ee	-0.23617145
54	0xbe13ebad	-0.14445372
55	0x3df1e2a6	0.11810808
56	0xbdd58438	-0.10425609
57	0x3e3d42a0	0.18482447
58	0x3e1c99d8	0.15293062
59	0xbe7eda51	-0.24887969
60	0x3d368483	0.044559967
61	0x3bbcab2a	0.005757709
62	0x3e02dcb1	0.127795
63	0x3da84d59	0.08217878
64	0x3d3c4a53	0.04596932
65	0x3e221733	0.15829162
66	0xbdd12c55	-0.10213534
67	0xbe8b8f70	-0.27257872
68	0xbe3889ac	-0.18021268
69	0xbe9925d9	-0.29911688
70	0x3b80da6d	0.0039322884
71	0x3e582e49	0.21111406
72	0xbe527bd2	-0.20555046
73	0xbe708d71	-0.23491456
74	0x3e34e303	0.17664723
75	0xbe60ccdb	-0.21953146
76	0xbe461ca2	-0.1934686
77	0x3e2d7930	0.1694076
78	0xbdd6dea1	-0.10491682
79	0xbe6bb237	-0.23017202
80	0xbcf1ca81	-0.029515507
81	0x3e31d22f	0.17365335
82	0x3e099f8b	0.13439767
83	0x3e33a152	0.17542008
84	0xbdab7529	-0.08371956
85	0x3dc71216	0.097202465
86	0xbe3028c4	-0.17203051
87	0x3dd1756c	0.102274746
88	0x3d595a4b	0.053064626
89	0xbe92a670	-0.28642607
90	0x3d0269d4	0.031839207
91	0xbb9079c3	-0.0044090464
92	0xbe6e82c9	-0.23292078
93	0xbd29480c	-0.041328475
94	0xbe61016a	-0.21973196
95	0x3e533ae3	0.20627932
96	0x3dbdd6e6	0.09269504
97	0xbe8c18e1	-0.2736273
98	0x3e5bbad7	0.21457992
99	0xbd94bf60	-0.072630644
100	0xbe898956	-0.26862592
101	0x3e0b0ad4	0.1357835
102	0x3d9f9c76	0.077935144
103	0xbccf7dac	-0.02532848
104	0xbe901a2d	-0.2814497
105	0xbe424f1e	-0.18975493
106	0xbe665f7c	-0.22497362
107	0xbd0bedf4	-0.034162477
108	0x3e569d23	0.2095838
109	0x3c0ac746	0.008470362
110	0xb85fb73f	-5.3338004e-05
111	0xbe98fc7a	-0.29880124
112	0x3e723747	0.23653899
113	0x3d11fb05	0.03563978
114	0x3e102372	0.14076021
115	0xbd36b054	-0.044601753
116	0x3dc1ebbd	0.09468792
117	0xbbafb10b	-0.0053616813
118	0x3be0d210	0.006860979
119	0xbe83393e	-0.2562961
120	0x3be081d3	0.0068514138
121	0xbc0254d2	-0.007954793
122	0x3ce83b75	0.028348664
123	0x3e8b38d6	0.271918
124	0x3e21b1b9	0.15790452
125	0xbddf851b	-0.1091406
126	0xbe126d61	-0.14299537
127	0x3e69cf4b	0.22832982
128	0x3d858487	0.06519418
129	0xbe796572	-0.24355105
130	0x3d98bc62	0.07457806
131	0x3e9ba425	0.3039867
132	0x3e842b19	0.2581413
133	0x3e614e60	0.22002554
134	0x3db736ad	0.089459755
135	0xbd61e88b	-0.05515341
136	0xbe127745	-0.1430331
137	0xbe4aab29	-0.19791855
138	0xbe8b7d5c	-0.2724408
139	0xbe0e3855	-0.13888676
140	0xbe3ce499	-0.18446578
141	0x3e3f09b6	0.18656048
142	0xbe2ee5c7	-0.1707984
143	0xbe356020	-0.1771245
144	0xbe88bcaa	-0.2670644
145	0xbe97a258	-0.29616046
146	0xbe1daecf	-0.15398715
147	0x3dbb7416	0.09153001
148	0x3e7235ce	0.23653337
149	0xbd8b0f8d	-0.067900755
150	0x3de8b85f	0.11363291
151	0x3d48822f	0.048952278
152	0x3e71b497	0.23604046
153	0x3d76560d	0.06014066
154	0xbe89a362	-0.26882464
155	0x3e8bb166	0.27283782
156	0xbe1b8e0c	-0.15190905
157	0x3b583cf7	0.0032995322
158	0xbe77955c	-0.2417807
159	0x3e4dacfa	0.20085517
160	0xbdffbe0e	-0.12487422
161	0xbe16a90b	-0.14712922
162	0x3e99bb61	0.3002577
163	0x3d8f5246	0.06998114
164	0xbe638409	-0.22218336
165	0xbe21d882	-0.15805247
166	0x3e96b380	0.29433823
167	0xbe2edd10	-0.17076516
168	0x3e743fd1	0.23852469
169	0x3dccbb19	0.099966235
170	0xbea008c5	-0.3125669
171	0x3d32e7f5	0.043678243
172	0x3e8adb86	0.27120608
173	0xbe478faf	-0.19488405
174	0xbdbe96de	-0.093061194
175	0x3dba0a2e	0.09083973
176	0x3e70c26c	0.23511666
177	0x3db8f160	0.09030414
178	0xbe9e0f60	-0.30871105
179	0x3e846e04	0.25865185
180	0xbd58f0b4	-0.052963927
181	0x3e45d59b	0.19319765
182	0x3d99f30d	0.075170614
183	0xbe6984f7	-0.22804628
184	0x3e10c2d6	0.14136824
185	0xbe863b1b	-0.2621697
186	0x3c2e75b8	0.0106481835
187	0xbd3c5b82	-0.045985706
188	0xbc39a2d0	-0.011330321
189	0x3e4742e9	0.19459118
190	0xbe29fe09	-0.16600813
191	0xbe2d97f5	-0.16952498
192	0x3e83f575	0.25773206
193	0x3d6ccc38	0.057811946
194	0x3d81b4b1	0.06333292
195	0x3c9f7807	0.019466413
196	0x3a007050	0.00048995484
197	0xbda8cdb1	-0.082423575
198	0x3e6409aa	0.22269312
199	0xbe0054dd	-0.12532373
200	0x3ea00126	0.31250876
201	0x3e987cfe	0.2978286
202	0x3e525143	0.20538811
203	0x3da540d7	0.08069008
204	0x3e7aed6f	0.24504636
205	0x3d8db24f	0.06918775
206	0xbe28a14a	-0.16467777
207	0x38e90c22	0.00011112566
208	0xbe7bddb5	-0.24596293
209	0x3e3095d2	0.17244652
210	0xbd85ec6d	-0.06539235
211	0xbe69e1d0	-0.22840047
212	0x3d8147a8	0.063124955
213	0x3db3e207	0.08783346
214	0xbde275af	-0.110576026
215	0xbe73bf20	-0.23803377
216	0x3e76003f	0.24023531
217	0x3e5f00dc	0.21777672
218	0x3ea38efe	0.31945032
219	0x3cd7f0aa	0.026359875
220	0x3dd25f7f	0.10272121
221	0xbc1f6874	-0.009729493
222	0xbe6b1c9d	-0.22960134
223	0x3d93b38b	0.072119795
224	0x3dc5fba0	0.09667134
225	0xbe1003ea	-0.14063993
226	0x3e7844db	0.24245016
227	0x3d6a3b32	0.05718536
228	0x3d5c8161	0.053834323
229	0x3d2338d6	0.039849125
230	0x3d5dec31	0.054180328
231	0x3e991234	0.298967
232	0x3dc9b278	0.09848493
233	0xbe55043a	-0.20802394
234	0x3c81da74	0.015851237
235	0xbd1f9c79	-0.038967583
236	0xbdde6aa2	-0.10860182
237	0x3e446614	0.19179565
238	0x3e9e515c	0.30921447
239	0x3e9b33e5	0.3031303
240	0x3e83756a	0.25675517
241	0xbe8ab7a6	-0.27093238
242	0x3d5e0251	0.054201428
243	0xbdd5b055	-0.10434023
244	0x3e5adf3e	0.21374223
245	0xbd830a07	-0.06398397
246	0x3e880fc3	0.26574525
247	0xbe84c392	-0.25930458
248	0xbdf63ffd	-0.120239235
249	0xbe7f372b	-0.24923389
250	0x3e8dc7b1	0.27691415
251	0x3e0da78e	0.13833448
252	0xbe87e105	-0.26538864
253	0x3e4b7eac	0.1987254
254	0x3da3fea5	0.08007554
255	0x3e48a56e	0.19594356

encoder.layers.0.ffn.linear2.bias f4 [16]
0	0xbdd66e03	-0.10470202
1	0x3d95ccd0	0.073144555
2	0x3c6fb3bf	0.014630257
3	0x3d3bd455	0.045856792
4	0x3ca95e2f	0.020674793
5	0xbdecd216	-0.11563508
6	0xbbc82d80	-0.0061089396
7	0x3da49a0b	0.08037194
8	0xbd5c7b0b	-0.05382828
9	0x3e00c067	0.12573396
10	0x3c18b7bf	0.009321152
11	0x3d3b900e	0.045791678
12	0x3c1318ce	0.008978082
13	0xbd40f4ef	-0.047108587
14	0x3d9a9d54	0.07549539
15	0x3b7e9b65	0.0038849947

encoder.layers.0.norm2.gamma f4 [16]
0	0x3f7c4786	0.98546636
1	0x3f82338f	1.0171984
2	0x3f7a86f2	0.9786216
3	0x3f82a918	1.0207853
4	0x3f7aab72	0.97917855
5	0x3f7e3a24	0.99307466
6	0x3f800b4e	1.000345
7	0x3f8163e7	1.0108613
8	0x3f7b9055	0.9826711
9	0x3f77a162	0.96730626
10	0x3f7e3f43	0.9931528
11	0x3f7baad9	0.9830757
12	0x3f80e7c2	1.0070727
13	0x3f7e66ac	0.99375415
14	0x3f796c9b	0.97431344
15	0x3f7d9c20	0.9906635

encoder.layers.0.norm2.beta f4 [16]
0	0xbba4c1b2	-0.005027973
1	0x3ab406f9	0.0013734988
2	0xbaf90ae8	-0.0019000443
3	0x3b570df7	0.003281472
4	0xbc11cc65	-0.008898829
5	0xbae797e7	-0.0017669172
6	0xbc74af8c	-0.014934432
7	0xbb681772	-0.0035414365
8	0x3afb022d	0.0019150429
9	0x3c7f2722	0.015573295
10	0xbc17bef9	-0.00926184
11	0x3b2ee600	0.0026687384
12	0xbbcd793c	-0.006270556
13	0xbb78d9ea	-0.0037971684
14	0xbbd852bd	-0.00660166
15	0x3b1f364f	0.0024293845
