Trans_Prediction/model_saved/ratioMergedPrs/TM_ratioMergedPrs_delay_size_8_delay_7.pth (torch, 385400 bytes, 337 tensors)

encoder.layers.0.attention.w_q.weight f4 [16, 16]
0	0x3f0f3281	0.5593644
1	0x3e7a88ba	0.2446622
2	0x3ee5fe8f	0.44920775
3	0xbf14e217	-0.58157486
4	0x3d2f0500	0.042729378
5	0x3dc27f6e	0.094969615
6	0xbd7806db	-0.060553413
7	0xbe3370b1	-0.17523457
8	0xbeca2a29	-0.3948529
9	0xbe9ac1cd	-0.30225983
10	0x3e77a406	0.24183664
11	0x3d255757	0.040366497
12	0xbcc017b4	-0.023448803
13	0x3d403f78	0.04693553
14	0x3f0da387	0.5532765
15	0xbd048fe5	-0.03236379
16	0xbddbb9cc	-0.10728797
17	0x3f1746da	0.59092486
18	0x3ecf9f2e	0.40551132
19	0x3f17eb12	0.59343064
20	0xbed80051	-0.4218774
21	0x3e358f4e	0.17730448
22	0xbf1c776a	-0.6111971
23	0xbedd894a	-0.43268806
24	0x3e9fc6d5	0.31206384
25	0x3e3a79ba	0.18210497
26	0xbf1b666d	-0.60703164
27	0xbe73e459	-0.23817576
28	0x3d3528b5	0.044228274
29	0xbe5cdbf9	-0.21568288
30	0x3d6edd11	0.058316294
31	0x3e5c5949	0.21518435
32	0x3f0f0f3e	0.5588263
33	0xbd9862d7	-0.07440727
34	0xbe532964	-0.20621258
35	0x3ebf4837	0.37359783
36	0x3e96ffc7	0.29492018
37	0x3f0a42fe	0.5400847
38	0x3e57879b	0.21047823
39	0x3ea69866	0.32538146
40	0x3ec79d66	0.38987273
41	0xbed1eca0	-0.41000843
42	0xbe47b076	-0.19500908
43	0x3e262479	0.1622485
44	0x3d390051	0.045166317
45	0xbf09c48c	-0.5381553
46	0x3d44ea9b	0.0480753
47	0xbe8bfe9a	-0.27342683
48	0x3ef034e1	0.46915343
49	0x3eb03bb6	0.34420556
50	0xbc9410b4	-0.01807437
51	0x3e735275	0.23761924
52	0xbdd75593	-0.10514369
53	0xbe441a84	-0.1915074
54	0x3e0b674b	0.13613622
55	0xbebdd796	-0.37078542
56	0xbd4c82fd	-0.049929608
57	0x3f0b4381	0.5439988
58	0x3e481152	0.19537857
59	0x3dd282b4	0.10278836
60	0x3edba167	0.42896578
61	0x3ee04b0d	0.4380726
62	0x3ebb3a1b	0.36567768
63	0x3e9e26fb	0.30889115
64	0xbe67067d	-0.22561069
65	0x3ecacc57	0.39609024
66	0xbec73430	-0.38907003
67	0x3efd107f	0.49426648
68	0x3eb0c0b8	0.34522033
69	0xbedd2a6d	-0.4319643
70	0x3ed4d9a0	0.41572285
71	0xbe7f4f9a	-0.2493271
72	0xbf0ffe71	-0.5624762
73	0xbd41690a	-0.047219314
74	0xbee859ab	-0.4538091
75	0x3f153379	0.58281666
76	0x3f0dbd6a	0.5536715
77	0x3e3dfced	0.18553515
78	0x3f0e916a	0.55690634
79	0x3dcffe7e	0.101559624
80	0x3f0d5ddc	0.55221343
81	0xbdc70292	-0.09717287
82	0xbe04ab90	-0.12956071
83	0x3e93a948	0.2884009
84	0xbe8831e8	-0.26600575
85	0x3ec2e5c9	0.38065937
86	0x3ddddce5	0.10833148
87	0xbf070702	-0.5274507
88	0xbe29f14f	-0.16595958
89	0x3dc15b87	0.094412856
90	0xbeb4dc7b	-0.35324463
91	0xbf15f0ee	-0.58570755
92	0x3e35159c	0.17684025
93	0xbe4dab87	-0.20084964
94	0xbe802178	-0.25025535
95	0xbdd3e088	-0.1034556
96	0xbdf48a16	-0.119404
97	0xbe24efad	-0.16107054
98	0x3f18254d	0.59431916
99	0x3db7b524	0.08970097
100	0xbf0a74d3	-0.5408451
101	0xbe6ed01c	-0.23321575
102	0x3e19970c	0.14999026
103	0xbe93ea3b	-0.2888964
104	0xbe77021d	-0.241219
105	0x3d7cf16c	0.061753675
106	0xbd151180	-0.036393642
107	0xbe22d250	-0.1590054
108	0x3e5826e8	0.21108592
109	0x3d078122	0.033082135
110	0x3f088f78	0.53343916
111	0xbe8aab93	-0.27084026
112	0x3ef71744	0.48259938
113	0xbeb1d9a2	-0.34736353
114	0x3e5b12d2	0.21393898
115	0xbe8cdf1f	-0.27513978
116	0xbedfdc09	-0.4372256
117	0xba41a0f2	-0.00073863484
118	0xbdba0e3a	-0.09084745
119	0xbf0d1984	-0.5511706
120	0xbea493ea	-0.321441
121	0x3eb2b1dd	0.34901324
122	0x3d8a4045	0.0675054
123	0x3dfea3af	0.12433564
124	0x3d800d9d	0.062525965
125	0x3f06c0cd	0.5263794
126	0x3e47110a	0.19440094
127	0x3f0d84e9	0.5528093
128	0xbea4d39a	-0.3219269
129	0x3ebdd857	0.37079117
130	0x3efab59f	0.4896669
131	0x3f0c6930	0.54848003
132	0x3e070404	0.13185126
133	0xbf0d2d4c	-0.5514724
134	0x3ef6ecb1	0.48227456
135	0xbecdae20	-0.4017191
136	0x3ded50ca	0.11587675
137	0xbf155d68	-0.5834565
138	0xbd1801b9	-0.037111018
139	0xbcebfb67	-0.028806401
140	0xbe924a32	-0.28572232
141	0x3e9efc41	0.3105183
142	0xbea6c1cb	-0.32569727
143	0xbe1eb667	-0.15499268
144	0xbee33cad	-0.4438223
145	0xbee741ae	-0.45167297
146	0x3f102717	0.56309646
147	0xbd8a92bb	-0.06766268
148	0x3ece80af	0.40332553
149	0xbf16fb9f	-0.58977693
150	0xbeb924f9	-0.3616102
151	0xbefb3cc9	-0.49069813
152	0x3eb3b90f	0.35102126
153	0x3e0d888d	0.13821621
154	0x3d15b666	0.0365509
155	0xbe379098	-0.17926252
156	0x3d6cadc1	0.057782892
157	0x3f080a1d	0.5314043
158	0xbe0c3643	-0.13692574
159	0xbebeb02e	-0.3724379
160	0xbe06b18e	-0.13153669
161	0x3ee95733	0.4557434
162	0x3edc7c68	0.43063664
163	0xbefac5a6	-0.4897892
164	0xbe8f8ad5	-0.28035608
165	0xbcd06c1d	-0.025442177
166	0xbea23d85	-0.3168756
167	0xbf15775e	-0.58385265
168	0xbef67fa0	-0.48144245
169	0xbf05f697	-0.5232939
170	0x3ddc4c75	0.107567705
171	0x3c0afbc9	0.008482882
172	0x3d7b088c	0.061287448
173	0x3e8c0bc6	0.27352732
174	0xbea1b98c	-0.31586874
175	0xbf1b9e14	-0.60788083
176	0xbebf1863	-0.37323293
177	0x3e748a13	0.23880796
178	0x3ec77a33	0.38960418
179	0x3ed64328	0.4184811
180	0x3f16d3c8	0.589169
181	0x3e89ad8b	0.26890215
182	0x3f0897da	0.5335671
183	0xbbdf3066	-0.0068111895
184	0xbf0850f3	-0.5324852
185	0x3dd9b228	0.10629684
186	0x3ccc0d41	0.024908664
187	0xbe812c0e	-0.25228924
188	0xbeef543c	-0.46743953
189	0x3f15d1a3	0.58523005
190	0x3ec43d53	0.38328037
191	0xbe7eaed9	-0.24871387
192	0x3e0e31ec	0.13886231
193	0xbf1a268f	-0.60215086
194	0x3de395d5	0.111125626
195	0xbcdf5db8	-0.027266368
196	0xbeb87c1a	-0.36032182
197	0x3db7669d	0.08955119
198	0x3ed63b7f	0.41842267
199	0x3ee0e50b	0.43924746
200	0x3dc3b84c	0.09556636
201	0xbe806ae9	-0.25081566
202	0x3e4c0d09	0.19926848
203	0xbc4461b9	-0.0119861895
204	0xbebc638b	-0.36794695
205	0xbebfb891	-0.374455
206	0xbd81b4e6	-0.06333332
207	0x3e278314	0.16358596
208	0xbe7ed6e1	-0.24886657
209	0xbe117c92	-0.14207676
210	0xbee6f4d7	-0.45108673
211	0x3f1d2633	0.6138641
212	0xbf1a1245	-0.6018413
213	0xbd79bb5d	-0.0609697
214	0x3e3c5749	0.18392672
215	0xbe8ab343	-0.2708989
216	0xbee9bafc	-0.4565047
217	0x3ec5a331	0.38601068
218	0x3ebeab93	0.37240276
219	0x3d51c82a	0.051216282
220	0x3de78aca	0.11305769
221	0x3eaffbfd	0.3437194
222	0x3ec2df77	0.38061115
223	0x3ebb4da8	0.36582685
224	0x3f0f9db6	0.5610002
225	0xbd6bebb9	-0.05759785
226	0x3dd60a8b	0.1045123
227	0x3f015d56	0.50533044
228	0x3e9df9ec	0.30854738
229	0xbf062043	-0.5239298
230	0xbea79320	-0.32729435
231	0x3e96311e	0.29334348
232	0xbe01cd12	-0.12675884
233	0x3eba637d	0.3640403
234	0xbebe00a6	-0.3710987
235	0x3ed8cf13	0.42345485
236	0xbe2fe827	-0.17178403
237	0x3ef1ee0c	0.47251928
238	0xbeadaae1	-0.33919433
239	0xbd8c08a1	-0.06837583
240	0xbe2f153b	-0.17097943
241	0x3ea51790	0.3224454
242	0xbeb6b0e8	-0.35681844
243	0xbf192c9d	-0.598337
244	0xbe9abbc0	-0.30221367
245	0xbec8add5	-0.39195123
246	0xbe58f0a9	-0.21185555
247	0x3ef23512	0.47306114
248	0xbf04cb6e	-0.5187291
249	0x3db8f209	0.090305395
250	0x3d937ec9	0.07201917
251	0xbe028df2	-0.1274946
252	0xbef89688	-0.48552346
253	0x3edc601b	0.43042073
254	0x3eb10c4b	0.3457969
255	0xbe10c97b	-0.14139359

encoder.layers.0.attention.w_q.bias f4 [16]
0	0xbd80b3c6	-0.06284289
1	0xbe42bab2	-0.19016531
2	0x3e7bd695	0.24593575
3	0x3e4004a4	0.1875177
4	0x3dd98083	0.10620215
5	0xbe53c517	-0.20680653
6	0xbe2eefd1	-0.1708367
7	0xbc867441	-0.016412856
8	0x3db19f2c	0.08672938
9	0x3d8696eb	0.06571754
10	0x3d4423f1	0.04788584
11	0x3cf6f0dc	0.030144148
12	0x3e005fc6	0.12536535
13	0x3e060966	0.13089523
14	0xbe5c7207	-0.21527873
15	0x3e6ea785	0.23306091

encoder.layers.0.attention.w_k.weight f4 [16, 16]
0	0x3e921adc	0.28536117
1	0x3e87d351	0.2652841
2	0x3ef7e3ea	0.48416072
3	0xbe3eccdb	-0.18632834
4	0xbeee12a8	-0.4649861
5	0x3e844a16	0.25837773
6	0xbef0478f	-0.46929595
7	0x3e87eac3	0.26546296
8	0x3dcbf4da	0.09958811
9	0x3ee5ef55	0.44909158
10	0xbef5c04d	-0.47998276
11	0x3e1a63de	0.15077159
12	0xbef21b40	-0.47286415
13	0x3db88ebc	0.090115994
14	0xbdf3dac6	-0.11906962
15	0xbd9b21b3	-0.07574787
16	0x3e263778	0.16232097
17	0x3f1a4cdb	0.6027352
18	0xbec56700	-0.38555145
19	0x3e9a1b38	0.3009889
20	0xbf0c6a9b	-0.5485017
21	0x3d6b3b6f	0.057429727
22	0x3ef03d67	0.46921846
23	0x3ec36a67	0.38167116
24	0x3e70d8e5	0.23520239
25	0xbe8e8578	-0.27836204
26	0x3f0d3f19	0.55174404
27	0xbe6c514a	-0.23077884
28	0x3e105769	0.14095844
29	0xbec279b7	-0.37983486
30	0x3d88d118	0.066805065
31	0x3ea8f6f2	0.33000904
32	0xbe840812	-0.25787407
33	0x3de2a048	0.110657275
34	0xbebee8db	-0.3728703
35	0xbf0de59c	-0.5542848
36	0x3ee58cdd	0.44834033
37	0x3cf216ee	0.02955195
38	0x3ead84c7	0.33890364
39	0xbe9a8d7d	-0.30186072
40	0x3eaf7795	0.3427092
41	0x3e80ae05	0.25132766
42	0x3e999ca6	0.30002326
43	0xbe8c2905	-0.27375045
44	0xbd7e722f	-0.062120613
45	0x3edb93ab	0.428861
46	0xbbd4a99e	-0.0064899465
47	0x3ef06d06	0.46958178
48	0xbd92895d	-0.07155106
49	0x3e83ba4a	0.25728065
50	0x3e98a75a	0.2981518
51	0x3ef3499a	0.4751709
52	0x3f027e32	0.5097381
53	0xbe3abcb5	-0.18236049
54	0x3e0d730d	0.1381342
55	0x3eec39e2	0.4613791
56	0x3ee7004c	0.45117414
57	0x3e099cac	0.13438672
58	0x3e8def69	0.27721718
59	0x3e0c4a2a	0.13700166
60	0xbd1f2b67	-0.03885975
61	0x3dcdd1ba	0.10049768
62	0xbdc88e4a	-0.097927645
63	0xbe5a4dcc	-0.2131874
64	0x3ea349d1	0.31892255
65	0x3eaf8616	0.34281987
66	0x3ecfdc3b	0.4059771
67	0xbf03c4bc	-0.5147207
68	0xbead7d2f	-0.3388457
69	0x3e96257d	0.29325476
70	0xbed48146	-0.41504878
71	0x3effa859	0.49933127
72	0x3e004748	0.12527192
73	0xbe24c549	-0.16090883
74	0x3eac8e45	0.33702293
75	0x3e9c9b69	0.3058732
76	0xbd5aaede	-0.053389423
77	0xbe1f87f6	-0.15579209
78	0xbe239779	-0.15975751
79	0x3eb3ea4f	0.351397
80	0xbe341d4f	-0.17589305
81	0xbea4148a	-0.3204692
82	0x3e7a8b9d	0.2446732
83	0xbf0e4bc6	-0.5558437
84	0x3eb45eae	0.35228485
85	0x3ed4b339	0.41542986
86	0x3dc4a0ab	0.096009575
87	0x3e99886c	0.29986894
88	0x3e940dad	0.28916684
89	0xbecd55db	-0.40104565
90	0xbe025557	-0.12727867
91	0xbec8273a	-0.39092427
92	0xbebbef20	-0.36705875
93	0xbee8f1fa	-0.45497113
94	0xbe7f6540	-0.24940968
95	0xbeb50907	-0.3535845
96	0xbeaf7c97	-0.34274742
97	0x3f0f5ade	0.5599803
98	0x3f06beda	0.52634966
99	0xbf066f17	-0.5251326
100	0xbf082979	-0.5318828
101	0x3f0963b2	0.5366775
102	0x3e197829	0.14987244
103	0x3ef527e0	0.47881985
104	0xbee4c719	-0.4468315
105	0xbe85a434	-0.2610184
106	0x3ec2477a	0.37945157
107	0x3edfff43	0.43749437
108	0xbf00264a	-0.50058424
109	0xbe19ac0a	-0.15007034
110	0x3edc65c4	0.4304639
111	0xbf064745	-0.524525
112	0xbef0814e	-0.46973652
113	0x3e8062f5	0.25075498
114	0x3d06fed9	0.032957885
115	0xb90f0390	-0.0001363887
116	0x3df48134	0.11938706
117	0xbebb231b	-0.3655022
118	0xbd976fd5	-0.07394377
119	0xbcdfe271	-0.027329655
120	0xbf1b4527	-0.60652393
121	0x3eefae90	0.46812868
122	0xbdecd946	-0.11564879
123	0x3de3e3ca	0.11127432
124	0x3e80e47c	0.2517432
125	0xbee20a81	-0.4414864
126	0xbe92b679	-0.2865484
127	0x3f0a6177	0.5405497
128	0x3e293854	0.16525394
129	0x3e92d048	0.2867453
130	0xbed2a96f	-0.41144893
131	0x3e87c66b	0.26518568
132	0x3f134146	0.57521474
133	0xbe9be805	-0.30450454
134	0x3e333f9d	0.17504735
135	0x3e5abe52	0.21361664
136	0x3ed08e8e	0.4073376
137	0xbeb42ce5	-0.35190502
138	0xbf0ee15a	-0.5581261
139	0x3ec95778	0.39324546
140	0xbecc9bf2	-0.39962727
141	0xbf0d36ca	-0.55161726
142	0xbf0652a4	-0.5246985
143	0xbd157c56	-0.03649553
144	0xbe80f453	-0.25186405
145	0x3e45021f	0.1923909
146	0x3ee12775	0.43975416
147	0x3da27d11	0.07934011
148	0x3dfff3f9	0.12497706
149	0xbd316cee	-0.043316774
150	0x3bbe2cc6	0.0058036773
151	0x3e379c1d	0.17930646
152	0x3e27350b	0.16328828
153	0xbe50f5e1	-0.20406295
154	0x3dfbc3a2	0.122931734
155	0xbed6fee4	-0.4199134
156	0x3f1b4aa9	0.606608
157	0x3eb7f1d8	0.359267
158	0x3cfc39b8	0.030789241
159	0xbecce493	-0.40018138
160	0x3e6abfea	0.22924772
161	0x3f100a83	0.5626604
162	0xbec97020	-0.39343357
163	0x3ec0fc26	0.37692374
164	0x3ec3e90e	0.38263744
165	0x3d5214b4	0.051289275
166	0xbcb83f47	-0.02249111
167	0xbe285cf7	-0.16441713
168	0xbd9b8b0e	-0.07594882
169	0x3e8c30ff	0.2738113
170	0x3e26582a	0.1624457
171	0x3e0ddfd3	0.13854913
172	0xbea3b8dd	-0.31976977
173	0xbebe0973	-0.37116584
174	0xbdd299b0	-0.1028322
175	0xbf0dd3bf	-0.55401224
176	0x3d06f741	0.032950643
177	0xbf19deb4	-0.60105443
178	0xbe92080e	-0.2852177
179	0x3ec2a709	0.38018063
180	0xbf0cb5fa	-0.54965174
181	0x3ec6379b	0.387143
182	0x3ec9b6c6	0.39397258
183	0xbf15753e	-0.5838202
184	0x3ec3c489	0.38235882
185	0x3f04113b	0.5158879
186	0xbd900540	-0.07032251
187	0x3e155b98	0.14585721
188	0x3ec02579	0.3752859
189	0xbec8ba0e	-0.39204448
190	0x3f06f609	0.5271917
191	0x3dba771c	0.091047496
192	0xbe81e691	-0.2537122
193	0xbe1a6ed8	-0.15081346
194	0x3c32fc99	0.010924482
195	0x3e7e3cef	0.24827932
196	0x3e245b66	0.1605049
197	0xbea8e5c0	-0.32987785
198	0x3ebd7019	0.36999586
199	0x3c99fe57	0.018798037
200	0xbe472f1a	-0.19451562
201	0xbe2d6c20	-0.16935778
202	0x3e3f72bd	0.18696113
203	0x3e2c5e61	0.16832878
204	0xbf1aa78c	-0.60411906
205	0x3dc3aa7e	0.09554003
206	0xbe7c61a3	-0.2464662
207	0x3f1ce54d	0.61287385
208	0x3f1ba76f	0.6080236
209	0x3eedd484	0.464512
210	0xbde585a7	-0.11207133
211	0xbea870be	-0.32898515
212	0xbe664c00	-0.22489929
213	0x3e2e60e0	0.17029142
214	0x3e35b451	0.17744567
215	0x3f162374	0.5864785
216	0x3d16cf3a	0.03681872
217	0x3f1505c0	0.582119
218	0xbe891b42	-0.2677861
219	0x3f1937c0	0.5985069
220	0x3f0acdb7	0.54220146
221	0xbed45b87	-0.4147608
222	0xbe921155	-0.28528848
223	0xbf0f96f8	-0.56089735
224	0xbd0f8a5c	-0.03504406
225	0xbec290c5	-0.38001075
226	0x3dbe8ed4	0.09304586
227	0xbe9533cf	-0.2914109
228	0x3eaf7a63	0.3427306
229	0xbec97b7b	-0.3935202
230	0xbdfd548b	-0.12369641
231	0xbc6242fd	-0.013809917
232	0xbe442d6e	-0.19157955
233	0x3e6b790e	0.22995397
234	0xbecf332a	-0.40468723
235	0x3e17b6f9	0.14815892
236	0xbdb28df0	-0.08718479
237	0x3d8ed2c0	0.06973791
238	0xbc96f74b	-0.018428465
239	0xbeb7d621	-0.35905555
240	0xbed77ad8	-0.4208591
241	0xbef546c0	-0.4790554
242	0x3ef6da98	0.4821365
243	0x3e45603d	0.19274993
244	0x3eaefa29	0.34175232
245	0x3f1857ff	0.5950927
246	0x3dda190e	0.1064931
247	0xbf0af0e2	-0.5427381
248	0x3f13b688	0.57700396
249	0x3e8198b2	0.2531181
250	0x3ed0c1e7	0.40772936
251	0xbbaf7d59	-0.005355519
252	0x3d11ac4a	0.0355647
253	0xbe9c0a88	-0.30476785
254	0xbeaad7e4	-0.33367836
255	0x3bd1c872	0.006402069

encoder.layers.0.attention.w_k.bias f4 [16]
0	0xb48c8617	-2.6174595e-07
1	0x34818dee	2.413139e-07
2	0xb42e23d1	-1.6218043e-07
3	0x359e67fa	1.1802179e-06
4	0x35966e72	1.1208015e-06
5	0xb493e399	-2.7546483e-07
6	0x33b71833	8.5260034e-08
7	0x35510612	7.78674e-07
8	0xb47175fb	-2.2487795e-07
9	0x347a74bc	2.3325532e-07
10	0x357d5cc2	9.4384825e-07
11	0xb5098e24	-5.124332e-07
12	0x34833086	2.4435957e-07
13	0xb4759f48	-2.2875349e-07
14	0xb4d4eb98	-3.9659494e-07
15	0x32048eeb	7.715907e-09

encoder.layers.0.attention.w_v.weight f4 [16, 16]
0	0x3ed128f5	0.4085156
1	0x3de68026	0.11254911
2	0x3eb29828	0.3488171
3	0x3eebbc72	0.4604221
4	0x3ebfc38b	0.37453875
5	0x3ebb105d	0.36535922
6	0x3daa48c8	0.08314663
7	0x3f15c695	0.5850614
8	0x3d73afe9	0.059493933
9	0x3e9cf7fa	0.3065794
10	0xbb1d9671	-0.002404597
11	0xbee03cb9	-0.43796328
12	0x3eba37c4	0.3637067
13	0x3e85e810	0.26153612
14	0xbec9af27	-0.39391443
15	0xbe31c670	-0.17360854
16	0xbeece28f	-0.462666
17	0xbf18518a	-0.5949942
18	0x3f1522c3	0.5825617
19	0x3ef307ff	0.47467038
20	0x3ebb5934	0.36591494
21	0xbf081da3	-0.5317022
22	0x3e97de6c	0.29661882
23	0xbf163560	-0.58675194
24	0x3d0b5ea1	0.034025792
25	0xbea659fd	-0.3249053
26	0xbef1f375	-0.47256055
27	0x39b45a8b	0.00034399735
28	0x3e9dda96	0.3083083
29	0x3eb5f5aa	0.3553899
30	0x3ed5d2a8	0.4176228
31	0xbd8777e7	-0.066146664
32	0x3e791318	0.2432369
33	0x3ef7cafa	0.48397046
34	0xbede4a69	-0.43416145
35	0xbebcfe30	-0.3691268
36	0xbe9a1984	-0.30097592
37	0x3e39ad5e	0.1813254
38	0x3e5969ba	0.21231738
39	0xbf0997d0	-0.5374727
40	0x3e60c879	0.21951474
41	0x3ecbc217	0.39796516
42	0xbd865729	-0.06559593
43	0xbf016fa8	-0.50561
44	0x3d951a2e	0.07280384
45	0xbd7c5b1a	-0.06161032
46	0x3edbf705	0.42961898
47	0xbe660851	-0.2246411
48	0xbde388d4	-0.11110082
49	0x3d9dc626	0.077038094
50	0x3eff5eff	0.49877164
51	0xbe996a88	-0.2996409
52	0x3f0da954	0.553365
53	0x3c9a3343	0.018823272
54	0x3ea77653	0.32707462
55	0x3ea2e9a5	0.31818882
56	0x3f0174af	0.5056867
57	0xbe1b34e9	-0.15156902
58	0xbef8997a	-0.48554593
59	0x3f167892	0.58777726
60	0xbe6f27d9	-0.23355044
61	0xbed104a6	-0.4082386
62	0xbe375855	-0.1790479
63	0xbf166ae0	-0.5875683
64	0x3eed8743	0.4639226
65	0x3dfe35ac	0.12412581
66	0x3e023b53	0.12717943
67	0xbe88030a	-0.2656482
68	0x3edbc23c	0.42921627
69	0xbefc10ad	-0.49231473
70	0x3f165a03	0.58731097
71	0xbe1bbab7	-0.15207945
72	0xbf0d88ef	-0.5528707
73	0xbf02245e	-0.5083674
74	0x3f0f15d9	0.5589271
75	0x3e86e559	0.26346853
76	0x3ec22383	0.37917718
77	0xbe12dd84	-0.14342314
78	0x3ec2be2f	0.38035724
79	0x3d67e10e	0.056611113
80	0x3dfb2b34	0.122641
81	0xbe3595be	-0.17732903
82	0xbf1d3250	-0.61404896
83	0xbf0e3a43	-0.5555765
84	0x3ecaa47d	0.3957862
85	0x3e967887	0.2938883
86	0xbeb3e6c2	-0.35136992
87	0xbeb73667	-0.35783693
88	0xbf1c05e7	-0.60946506
89	0xbe38bbba	-0.18040362
90	0xbd872e91	-0.06600679
91	0x3f0becc7	0.5465817
92	0xbeccd83f	-0.40008733
93	0xbdec5ec1	-0.115415104
94	0xbe415600	-0.18880463
95	0xbd83adbc	-0.064296216
96	0x3d0cd4ad	0.03438251
97	0x3e185e7b	0.14879791
98	0x3e33350e	0.17500708
99	0x3e920566	0.28519744
100	0xbeb650a4	-0.356084
101	0x3e99865e	0.29985327
102	0x3eb25508	0.348305
103	0x3f131a9d	0.57462484
104	0xbee94011	-0.4555669
105	0x3ed60aa4	0.41804993
106	0x3f0fed22	0.5622121
107	0xbe6ca809	-0.23110975
108	0x3f170697	0.5899443
109	0xbe99e6c7	-0.30058882
110	0xbe8014a9	-0.25015762
111	0xbe998b77	-0.29989216
112	0xbe359a93	-0.17734747
113	0xbce97f2f	-0.028503029
114	0xbf1ea7dc	-0.61974883
115	0xbf186c22	-0.5954
116	0xbec07fe1	-0.37597564
117	0xbd498d18	-0.049206823
118	0xbe638c99	-0.22221602
119	0x3e76dae6	0.2410694
120	0xbefa9dbb	-0.48948464
121	0xbdf62a1f	-0.12019753
122	0x3c1e6d5e	0.00966963
123	0x3f0dcf3f	0.5539436
124	0xbece037f	-0.40237042
125	0x3e9493de	0.29019064
126	0x3de0a00a	0.10968025
127	0x3e8f774f	0.28020713
128	0x3e956999	0.29182127
129	0xbec32c1b	-0.38119587
130	0x3f17b638	0.5926242
131	0xbebea4de	-0.3723516
132	0x3e623dc8	0.2209388
133	0xbf0e8348	-0.5566907
134	0xbcfa5f1e	-0.030562934
135	0xbe2a176f	-0.16610502
136	0xbe206111	-0.15662028
137	0x3ef5f2d2	0.4803682
138	0xbe32e10c	-0.17468661
139	0x3e858cd4	0.26084006
140	0x3ee05524	0.43814957
141	0xbe0d36b5	-0.137904
142	0x3e792f02	0.24334338
143	0x3e875137	0.2642915
144	0xbf111453	-0.5667164
145	0xbf0e2b85	-0.55535156
146	0xbe540a93	-0.20707159
147	0x3ec94052	0.39306885
148	0x3e1e8c73	0.15483265
149	0x3f181898	0.5941253
150	0xbe8d012e	-0.27539963
151	0xbeef587c	-0.46747196
152	0x3ed8af6e	0.42321342
153	0xbe4336f8	-0.19063938
154	0x3d1d8b52	0.038462944
155	0xbee1897b	-0.44050202
156	0xbc247b6a	-0.01003919
157	0xbf141df0	-0.5785818
158	0xbe1694da	-0.1470522
159	0xbee14f65	-0.44005886
160	0xbe7ad62a	-0.2449576
161	0x3ef3909c	0.47571266
162	0x3ea7e29d	0.3279008
163	0xbe7fbbb3	-0.24973945
164	0x3e0e72df	0.13911007
165	0xbe4e22b6	-0.20130429
166	0x3eec3f19	0.4614189
167	0x3e46adb8	0.19402206
168	0xbf199c9b	-0.60004586
169	0x3e5a4df5	0.21318801
170	0xbe0e52c8	-0.13898766
171	0xbe495adc	-0.19663566
172	0xbecfbeb9	-0.40575197
173	0x3e638b52	0.22221115
174	0x3e8496cd	0.25896302
175	0xbee8f010	-0.45495653
176	0xbf052a40	-0.52017593
177	0xbe16eaa3	-0.14737944
178	0xbeb297ba	-0.34881383
179	0xbefe938c	-0.49721944
180	0xbdf90506	-0.12159161
181	0x3d473bce	0.04864102
182	0xbe550969	-0.20804371
183	0xbd03fba2	-0.032222398
184	0xbedf9ac7	-0.43672773
185	0x3e239d9f	0.15978096
186	0x3ec7a352	0.3899179
187	0xbf0d07d5	-0.55090076
188	0x3e295fac	0.16540402
189	0x3eb13c61	0.34616378
190	0xbecbf502	-0.39835364
191	0x3eef8c54	0.4678675
192	0xbf1937a8	-0.5985055
193	0x3eaa6f9f	0.33288285
194	0xbc62510e	-0.01381327
195	0xbef1d042	-0.472292
196	0xbef871d7	-0.48524353
197	0xbeb5debc	-0.35521495
198	0xbed28073	-0.41113624
199	0x3e49d51b	0.197102
200	0xbc49492a	-0.01228551
201	0xbed951ac	-0.42445123
202	0x3e9801d5	0.29688898
203	0xbc8e6e84	-0.017386682
204	0x3e537aac	0.20652264
205	0xbe02b65a	-0.12764874
206	0x3e65d85c	0.22445816
207	0x3dc7d589	0.097575255
208	0x3caa5d18	0.020796344
209	0xbec7e138	-0.39039016
210	0x3ef077d2	0.46966416
211	0x3f00e66d	0.503516
212	0xbb4aa3c5	-0.0030920368
213	0x3ee8e4c5	0.45487037
214	0x3f044242	0.516636
215	0x3c1c6b80	0.009547114
216	0x3e30b181	0.17255212
217	0x3cecf3d3	0.028924858
218	0x3e5b2e9b	0.21404497
219	0xbe3a8df6	-0.18218216
220	0xbe029b4c	-0.12754554
221	0xbf002433	-0.50055236
222	0xbeda92ee	-0.42690223
223	0x3e866c6e	0.262546
224	0xbf05a1d1	-0.5220004
225	0xbe8216cf	-0.25408027
226	0xbf086056	-0.53271997
227	0xbe336458	-0.17518747
228	0x3ea614d6	0.32437772
229	0xbca3852a	-0.019960959
230	0xbe63c011	-0.22241236
231	0x3c9f4439	0.01944171
232	0x3f14759d	0.57991964
233	0xbcf526b9	-0.029925691
234	0xbdbb89f6	-0.09157173
235	0x3daabaa0	0.08336377
236	0xbe70ea30	-0.23526835
237	0x3edf7309	0.43642452
238	0xbef5eef8	-0.4803388
239	0x3e599f46	0.21252164
240	0x3daac093	0.08337512
241	0x3f0e16b6	0.55503404
242	0xbe518495	-0.20460732
243	0x3f0dc18d	0.5537346
244	0x3e87bc97	0.2651107
245	0xbeceb757	-0.40374252
246	0x3d9122df	0.07086729
247	0x3e1e803c	0.15478605
248	0xbe893558	-0.2679851
249	0x3e6d7d53	0.23192339
250	0x3ea9984c	0.33124006
251	0x3e75714e	0.23969004
252	0x3d6a2fdc	0.05717455
253	0xbecfa419	-0.40554884
254	0x3efa0524	0.48832047
255	0x3ed1de7d	0.40990058

encoder.layers.0.attention.w_v.bias f4 [16]
0	0xbe3d25a3	-0.18471389
1	0xbdc0519d	-0.093905665
2	0xbd1a1b06	-0.037623428
3	0xbbd9ad20	-0.0066429526
4	0xbc604acf	-0.013689711
5	0x3d10f6fa	0.035391785
6	0xbd9295e4	-0.071574956
7	0xbe3964e0	-0.18104887
8	0x3defea43	0.11714604
9	0x3c18d8da	0.009329045
10	0xbd15c46d	-0.03656428
11	0x3d989ba7	0.07451563
12	0xbd002a08	-0.031290084
13	0x3e0a193a	0.13486186
14	0x3dec832a	0.11548455
15	0xbde8e774	-0.11372271

encoder.layers.0.attention.w_concat.weight f4 [16, 16]
0	0xbe256060	-0.16150045
1	0x3ddaacd6	0.10677497
2	0xbe15e6a6	-0.14638767
3	0xbe5960dd	-0.21228357
4	0xbeb70e79	-0.3575323
5	0xbe3a9a58	-0.1822294
6	0x3e97ffa6	0.29687232
7	0x3e3f0c24	0.18656975
8	0x3ef1251f	0.47098634
9	0xbed9035f	-0.42385384
10	0xbafb1d6c	-0.0019158549
11	0x3e31d75b	0.17367308
12	0xbe64e782	-0.22353938
13	0x3f13e6b3	0.57773894
14	0x3f0bf565	0.5467132
15	0xbeb7d4fc	-0.35904682
16	0xbefaf10f	-0.49012038
17	0xbef829bb	-0.48469338
18	0x3e183992	0.14865711
19	0xbe77852b	-0.24171893
20	0x3e2cc2b3	0.16871147
21	0x3e1ba4ec	0.15199631
22	0x3e0d5ef0	0.13805747
23	0xbe967961	-0.2938948
24	0x3e1a025d	0.15039964
25	0xbf069611	-0.52572733
26	0x3f15d430	0.585269
27	0x3e167b70	0.14695525
28	0xbe57be37	-0.21068655
29	0x3ead3697	0.3383071
30	0x3eef2ccf	0.46713874
31	0xbc13d9f2	-0.00902413
32	0x3f012ea9	0.5046182
33	0xbde68e03	-0.11257555
34	0x3ee1acac	0.4407705
35	0x3ee60964	0.4492904
36	0x3d96c2ae	0.07361351
37	0x3e6bdc6b	0.23033302
38	0x3f0bfc20	0.5468159
39	0xbe8a549c	-0.27017677
40	0x3e3f042e	0.18653938
41	0x3ec32e6b	0.38121352
42	0x3e13acfb	0.14421456
43	0x3da976a4	0.08274582
44	0x3eb84bc1	0.35995296
45	0xbdc762ba	-0.097356275
46	0xbebfcc18	-0.374604
47	0xbecafc5b	-0.39645657
48	0x3d5b36ed	0.05351918
49	0x3e0a8b0e	0.13529608
50	0x3e90775b	0.2821606
51	0x3de789bc	0.113055676
52	0xbeb423cc	-0.3518356
53	0xbe9f6196	-0.3112914
54	0x3e52783d	0.2055368
55	0xbef8ff51	-0.4863229
56	0xbe6c6c9f	-0.2308831
57	0xbda19698	-0.078900516
58	0xbf0a90d3	-0.54127234
59	0xbd67e55b	-0.056615215
60	0xbe3159e0	-0.17319441
61	0x3f0d1cf9	0.55122334
62	0x3b6dd7ef	0.0036292037
63	0xbf0d15e8	-0.5511155
64	0x3ed620bb	0.41821846
65	0xbee091b4	-0.43861163
66	0x3d13646a	0.035984434
67	0x3f1555c0	0.5833397
68	0xbe6a35a0	-0.22872019
69	0x3e6c6259	0.23084392
70	0xbecf5b6a	-0.4049943
71	0x3ee3ce93	0.4449354
72	0xbdc80b2b	-0.09767755
73	0xbda2385e	-0.079209074
74	0x3ed285b3	0.4111763
75	0xbedf5e4d	-0.43626633
76	0x3cd511bc	0.026009433
77	0x3eb1597b	0.3463858
78	0x3eca251b	0.39481434
79	0x3d780726	0.060553692
80	0x3dd32caf	0.10311257
81	0x3ef38245	0.47560325
82	0x3f0f9253	0.5608265
83	0xbc1adf80	-0.009452701
84	0xbcc23676	-0.02370761
85	0x3e60820e	0.21924612
86	0xbea07b16	-0.31343907
87	0xbe275348	-0.16340363
88	0xbe830f27	-0.25597498
89	0x3e2481a4	0.16065079
90	0xbe5471ae	-0.2074649
91	0xbecd33fb	-0.4007872
92	0xbdd11444	-0.102089435
93	0x3eecefa6	0.46276587
94	0x3ea7511d	0.32679072
95	0xbea09817	-0.31366035
96	0xbda1c330	-0.07898557
97	0xbec2d1d7	-0.3805072
98	0x3f1d496d	0.61440164
99	0x3ef5fa50	0.48042536
100	0xbeaf3d21	-0.34226325
101	0x3e983d6f	0.2973437
102	0xbe2718c4	-0.16318041
103	0x3e5501f5	0.20801528
104	0x3e761ed8	0.24035203
105	0x3f1b7c05	0.60736114
106	0xbf041e14	-0.51608396
107	0xbea44220	-0.320817
108	0x3df6f89c	0.12059137
109	0xbedcb8a5	-0.43109623
110	0x3e352b14	0.17692214
111	0x3f041145	0.5158885
112	0x3e931850	0.28729486
113	0x3ec09e6c	0.37620866
114	0x3e35024d	0.17676659
115	0xbd5e5c40	-0.054287195
116	0xbd856fbd	-0.06515453
117	0xbf0592b3	-0.5217697
118	0xbead1223	-0.338029
119	0x3ebd9f0f	0.37035415
120	0xbed952bb	-0.4244593
121	0x3d9697c8	0.07353169
122	0xbee1f8c1	-0.44135097
123	0x3e0a73f3	0.13520794
124	0xbf0df1a6	-0.5544685
125	0x3d308907	0.04309943
126	0x3e1c0dda	0.15239659
127	0xbeceda5d	-0.40400973
128	0x3d78a973	0.060708474
129	0x3c5931e3	0.013256523
130	0x3d110887	0.035408523
131	0xbe15baef	-0.14622091
132	0xbd8a2931	-0.06746138
133	0xbdb14fb6	-0.08657782
134	0x3d981e48	0.07427651
135	0xbea88733	-0.3291565
136	0x3e9f40ae	0.31104034
137	0x3d2aac90	0.041668475
138	0xbf0647ae	-0.52453125
139	0x3e5563a6	0.20838794
140	0x3f06204a	0.5239302
141	0x3e949703	0.29021463
142	0x3f0a3923	0.53993434
143	0x3f0e9647	0.55698055
144	0xbf0739bf	-0.5282249
145	0x3dacb7d9	0.08433504
146	0xbeb3159d	-0.34977427
147	0x3eeef982	0.46674734
148	0xbdef700f	-0.11691295
149	0x3dca4b81	0.098776825
150	0xbe8b9643	-0.27263078
151	0xbec9ddc5	-0.3942701
152	0xbcb46aca	-0.022023577
153	0xbdcb9ed1	-0.09942401
154	0xbe83dfff	-0.25756833
155	0xbe7e041a	-0.24806252
156	0x3e9ace5e	0.3023557
157	0xbe17c392	-0.14820698
158	0x3ec8f62c	0.39250314
159	0xbeb32c8e	-0.3499493
160	0x3e57a53c	0.21059126
161	0xbec83b4a	-0.39107734
162	0xbed2f7e7	-0.4120476
163	0xbea62f3f	-0.3245792
164	0x3e55deb5	0.20885737
165	0x3ef979cf	0.48725745
166	0xbf0a5562	-0.54036534
167	0x3ef11ce4	0.47092354
168	0xbe9950c2	-0.29944426
169	0xbe30a527	-0.172505
170	0xbea0803d	-0.31347838
171	0x3f134b32	0.57536614
172	0xbe0d3ce4	-0.13792759
173	0xbef4104f	-0.47668692
174	0x3edbb668	0.42912602
175	0x3e1cff67	0.15331803
176	0xbe89e8fe	-0.2693557
177	0x3f076189	0.528832
178	0xbebcb6c1	-0.3685818
179	0xbf128f8a	-0.57250273
180	0xbeaeed38	-0.3416536
181	0x3f02e7ef	0.5113515
182	0x3f0381fe	0.5137023
183	0x3eea933b	0.45815453
184	0xbde5fce5	-0.112298764
185	0x3ce43d80	0.027861357
186	0x3e5e15e7	0.21688043
187	0x3ea11074	0.31457865
188	0xbe803712	-0.25042015
189	0xbef6a823	-0.48175153
190	0xbe9addb1	-0.30247262
191	0xbf13a9f1	-0.57681185
192	0x3e684030	0.22680736
193	0xbefcfcaf	-0.49411532
194	0x3eba3b4b	0.36373362
195	0xbd0fce36	-0.035108767
196	0x3e95bb3e	0.29244417
197	0x3f05ea82	0.52310956
198	0xbe193c3b	-0.14964382
199	0xbf0cfb44	-0.550709
200	0xbb1f0e3d	-0.0024269961
201	0x3e040eb1	0.1289623
202	0xbf009686	-0.5022968
203	0x3d46ba01	0.04851723
204	0x3ece80a4	0.4033252
205	0xbf115e5c	-0.56784606
206	0xbe5f0468	-0.21779025
207	0x3e98e61e	0.29863065
208	0xbea8e593	-0.3298765
209	0xbed963cf	-0.4245896
210	0xbeddea85	-0.43342987
211	0x3e0b9842	0.136323
212	0x3d388b34	0.04505463
213	0x3ea94ba1	0.33065513
214	0xbd8f7d92	-0.070063725
215	0x3eb4dd64	0.35325158
216	0x3c2e446b	0.010636429
217	0x3e7cf773	0.2470377
218	0xbec43352	-0.38320404
219	0x3e0fc294	0.1403907
220	0x3e588a00	0.21146393
221	0x3f0aa155	0.54152423
222	0xbe371fa0	-0.17883158
223	0xbec001db	-0.37501416
224	0x3ed0bfb7	0.40771267
225	0xbe94e662	-0.29082018
226	0xbedc7cc1	-0.4306393
227	0xbd14ac93	-0.036297392
228	0x3dc49368	0.09598428
229	0xbec00840	-0.37506294
230	0xbe95280d	-0.2913212
231	0x3ea91849	0.3302634
232	0x3f119a7f	0.5687637
233	0x3e3e9759	0.18612422
234	0x3de66f17	0.112516575
235	0x3dfd3b63	0.12364843
236	0x3ed8c64e	0.42338794
237	0xbe69b7a7	-0.22823964
238	0xbca3ce9c	-0.01999598
239	0x3f080bde	0.5314311
240	0xbe607342	-0.21918967
241	0x3ddf78ba	0.10911699
242	0xbd84ee2b	-0.064907394
243	0xbe921bd7	-0.28536865
244	0x3f15ffca	0.5859343
245	0xbeafb2b7	-0.34316036
246	0xbe29f954	-0.16599017
247	0xbd0b088f	-0.03394371
248	0x3c402364	0.011727188
249	0x3c892ac9	0.016744034
250	0xbdf6eb4d	-0.12056599
251	0xbd1945f7	-0.03742024
252	0x3e844ac3	0.2583829
253	0xbe82f9f8	-0.25581336
254	0x3c893e3c	0.016753308
255	0x3f04d3b2	0.5188552

encoder.layers.0.attention.w_concat.bias f4 [16]
0	0x3dbab214	0.09115997
1	0xbd18f3c0	-0.037341833
2	0x3cd7aacd	0.026326561
3	0x3ddbdede	0.10735868
4	0xbb217f72	-0.0024642614
5	0xbe0cc565	-0.13747175
6	0x3d0595be	0.03261351
7	0xbdc8dde7	-0.098079495
8	0xbe06899c	-0.13138431
9	0xbe1ad640	-0.15120792
10	0xbd89c27c	-0.06726548
11	0xbcd00c35	-0.025396446
12	0xbd77598f	-0.060388144
13	0x3e282e25	0.16423853
14	0xbdbe74ea	-0.09299643
15	0x3d9927ea	0.07478316

encoder.layers.0.norm1.gamma f4 [16]
0	0x3f7dabb7	0.9909014
1	0x3f7c6158	0.98586035
2	0x3f843464	1.0328488
3	0x3f81812e	1.0117548
4	0x3f7c1288	0.98465776
5	0x3f7e6020	0.99365425
6	0x3f801c26	1.000859
7	0x3f806ddd	1.0033528
8	0x3f791f84	0.97313714
9	0x3f7c43a7	0.9854073
10	0x3f7999c8	0.97500277
11	0x3f7c7016	0.9860853
12	0x3f7d75e9	0.9900804
13	0x3f7ee2be	0.9956473
14	0x3f81440e	1.0098894
15	0x3f8012a3	1.0005687

encoder.layers.0.norm1.beta f4 [16]
0	0x3c43ea0b	0.011957656
1	0xbc5b546e	-0.013386829
2	0x3c34d505	0.011037116
3	0x3ba582d2	0.0050509954
4	0x3c1e310f	0.009655251
5	0xbbc77d91	-0.0060879667
6	0xbc5efe3b	-0.013610418
7	0x3b918789	0.004441206
8	0xbc6ba783	-0.0143832
9	0xbab0cd06	-0.0013488836
10	0xbb8a98b6	-0.0042296303
11	0x3bfac730	0.0076531395
12	0x3bcd5ef8	0.0062674247
13	0xbb0698b6	-0.00205378
14	0x3b6de72e	0.0036301124
15	0x3c218b6a	0.009859899

encoder.layers.0.ffn.linear1.weight f4 [64, 16]
0	0x3f12c9a2	0.5733892
1	0x3be8eea0	0.0071085244
2	0x3efdb923	0.4955531
3	0x3eb813bc	0.35952556
4	0xbee8c6b9	-0.45464113
5	0x3e81826c	0.25294816
6	0x3e8eec0d	0.27914467
7	0x3e83b5ac	0.25724542
8	0xbe7a424c	-0.24439353
9	0xbee8cd2c	-0.45469034
10	0xbf13d47b	-0.57746094
11	0x3edbff4a	0.42968208
12	0x3d9c5cd0	0.0763489
13	0xbed408a3	-0.4141284
14	0x3e4dc67c	0.20095247
15	0xbde3101b	-0.11087056
16	0x3e326742	0.17422202
17	0x3f004025	0.50097877
18	0x3e50de8c	0.20397395
19	0x3ec37d28	0.38181424
20	0x3e9d334d	0.30703202
21	0xbe277718	-0.16354024
22	0x3f145a19	0.5794998
23	0xbdc723b2	-0.09723605
24	0xbe73a235	-0.23792346
25	0x3e5dd85d	0.21664567
26	0xbe797c7e	-0.24363896
27	0x3ef85b23	0.48507032
28	0xbedbd8fa	-0.42938977
29	0x3edcea4f	0.43147513
30	0x3ea2f83d	0.31830016
31	0xbef9807a	-0.48730832
32	0x3e6efcfd	0.23338695
33	0x3ecb00a7	0.39648935
34	0x3eb5417f	0.35401532
35	0xbef97370	-0.48720884
36	0x3f058067	0.5214905
37	0x3ed26876	0.41095322
38	0x3ed5bcc9	0.41745594
39	0xbe287d8b	-0.16454141
40	0x3e97ed22	0.29673105
41	0x3f093ff8	0.53613234
42	0x3d3dbfed	0.046325613
43	0x3e9841e3	0.29737768
44	0xbe87e374	-0.2654072
45	0x3ee21e57	0.44163772
46	0xbdd13463	-0.1021507
47	0x3e6380e4	0.22217137
48	0x3e2a9b2b	0.16660754
49	0xbe18801e	-0.14892623
50	0xbe180c84	-0.14848524
51	0x3ed511ab	0.41615042
52	0x3f033fc0	0.5126915
53	0x3e06c02e	0.13159248
54	0xbec97563	-0.3934737
55	0x3ec70d1f	0.38877198
56	0x3cfdf67a	0.031001318
57	0xbe4fbc6b	-0.2028672
58	0x3ec3981b	0.38201985
59	0xbe1a9bc5	-0.15098484
60	0xbe86d05a	-0.26330835
61	0xbd283d98	-0.041074365
62	0xbdc518e4	-0.09623888
63	0x3f036bc9	0.5133634
64	0x3bc6cdd0	0.006067015
65	0x3e11face	0.1425583
66	0x3e00ffcc	0.12597579
67	0x3c63ce88	0.013904221
68	0xbebb6fe6	-0.3660881
69	0xbbfbf1d6	-0.007688741
70	0xbe4fff5a	-0.20312253
71	0xbea9cba2	-0.33163172
72	0xbedc5fdc	-0.43041885
73	0x3eb7b6ca	0.35881644
74	0xbcada9ec	-0.02119919
75	0x3e8127c7	0.2522566
76	0xbe3b20d0	-0.18274236
77	0x3eda2261	0.42604354
78	0x3edd7812	0.4325567
79	0x3ea7f129	0.32801178
80	0xbf127a6f	-0.5721807
81	0x3efba16f	0.49146602
82	0xbe5cd6a3	-0.21566252
83	0x3f01b356	0.5066427
84	0xbe53fb48	-0.20701325
85	0x3dde39a7	0.1085084
86	0x3db6e661	0.0893066
87	0xbef80540	-0.48441505
88	0xbeaafa45	-0.33394065
89	0xbf0bcfb4	-0.54613805
90	0x3d8b5eab	0.06805166
91	0x3e4c94b9	0.19978608
92	0x3efdfda7	0.49607584
93	0x3ed1b3d1	0.40957502
94	0x3d6b0132	0.057374187
95	0xbeb89a6a	-0.3605531
96	0x3eb51f98	0.35375667
97	0xbe9df3da	-0.30850106
98	0x3e77ba52	0.2419217
99	0xbeb9ee31	-0.36314538
100	0xbe0a6144	-0.13513666
101	0xbb81492b	-0.00394549
102	0x3e9a6574	0.30155528
103	0x3eabb66a	0.33537608
104	0x3f1b028b	0.60550755
105	0x3e4c5f2e	0.19958183
106	0x3d89e315	0.067327656
107	0xbe4ae242	-0.19812873
108	0x3f09e0d2	0.53858674
109	0xbed31b3d	-0.4123172
110	0xbd9db1e0	-0.076999426
111	0x3e95a0c5	0.2922422
112	0x3c2ee81f	0.010675459
113	0xbe9854b5	-0.29752126
114	0xbe655240	-0.22394657
115	0xbdbb52eb	-0.09146675
116	0x3ed9f3e5	0.4256889
117	0x3e877233	0.26454315
118	0xbeb144fd	-0.34622946
119	0x3ebbf6dc	0.36711776
120	0xbd8814ad	-0.066445686
121	0xbec23f69	-0.37939003
122	0xbcbbaf73	-0.02291081
123	0xbde9ea30	-0.11421621
124	0x3efec801	0.49761966
125	0x3e9f36b6	0.3109643
126	0xbe4d739c	-0.20063633
127	0x3db033cd	0.0860363
128	0xbbde3c24	-0.0067820717
129	0xbe2e4931	-0.17020108
130	0x3ecfe7ef	0.4060664
131	0x3dc01db2	0.09380664
132	0x3efce453	0.49392948
133	0xbe29a003	-0.16564946
134	0xbe9526fb	-0.29131302
135	0xbdb19b22	-0.08672167
136	0xbeaec695	-0.3413588
137	0xbe151e2c	-0.14562291
138	0xbe72927b	-0.2368869
139	0xbeb92119	-0.36158064
140	0x3e73d33e	0.23811051
141	0x3ed615a0	0.41813374
142	0xbe956886	-0.29181308
143	0xbf148cc0	-0.5802727
144	0x3f0a46b7	0.5401415
145	0x3e939903	0.28827676
146	0xbf04cff5	-0.5187982
147	0xbec3f780	-0.38274765
148	0x3eb62478	0.35574698
149	0xbf0d834d	-0.55278474
150	0x3d9a0c99	0.07521934
151	0x3dcc0a5e	0.09962915
152	0x3f001764	0.5003569
153	0xbf0e8936	-0.5567812
154	0xbe4f8b69	-0.20268025
155	0x3eb1cc21	0.3472605
156	0x3ebf7a27	0.37397882
157	0x3e81ce4f	0.25352713
158	0x3e9021b2	0.28150707
159	0x3e4599b2	0.19296911
160	0x3f0998d9	0.5374885
161	0xbf08d437	-0.53448814
162	0x3d470b59	0.048594806
163	0xbe80e9fa	-0.2517851
164	0xbe6d4cd9	-0.23173846
165	0x3dcd28c2	0.100175396
166	0x3d3f0566	0.046636008
167	0x3eec324e	0.4613213
168	0x3ec3acaf	0.38217685
169	0xbf090737	-0.53526634
170	0x3d90572d	0.070478775
171	0x3e153fb5	0.14575084
172	0x3f05e75a	0.5230614
173	0xbe6ab8c4	-0.22922045
174	0x3e7dc5cf	0.24782489
175	0xbeffe9a2	-0.49982935
176	0xbea6ff4a	-0.32616645
177	0xbe7fb73d	-0.24972244
178	0x3e089362	0.13337472
179	0xbd9b99a6	-0.075976655
180	0x3edb410f	0.42823073
181	0xbeb656ff	-0.35613248
182	0xbe6d240d	-0.23158284
183	0x3f140ecc	0.5783508
184	0xbed0fdd9	-0.4081867
185	0xbe0368d5	-0.12832959
186	0x3e0864ad	0.13319655
187	0xbcb3689b	-0.021900466
188	0x3e4c2ec6	0.19939718
189	0xbf159774	-0.58434224
190	0x3ebd3318	0.36953044
191	0xbea4658f	-0.32108733
192	0x3ca04f98	0.019569203
193	0xbeed05d1	-0.462935
194	0xbe86185b	-0.26190457
195	0xbea3a443	-0.3196126
196	0x3f05abda	0.5221535
197	0x3e26aabc	0.16276067
198	0xbcf4b31c	-0.029870562
199	0x3e91c45c	0.28470123
200	0xbf0a30da	-0.5398079
201	0x3e2e74c6	0.17036733
202	0xbe7c374a	-0.24630466
203	0x3e050e2f	0.12993692
204	0x3e059e1c	0.13048595
205	0xbf1d1be2	-0.6137067
206	0xbe4685da	-0.19386998
207	0xbe73ff55	-0.2382787
208	0x3d0733c0	0.033008337
209	0x3ef92fa9	0.48669174
210	0xbe21e725	-0.15810831
211	0x3e63ce4d	0.22246666
212	0x3f0330bc	0.5124624
213	0xbea9085a	-0.33014184
214	0xbf1ac3d4	-0.6045506
215	0x3f085395	0.53252536
216	0xbea5c22f	-0.32374713
217	0xbe1ef7bc	-0.1552419
218	0xbe8fdade	-0.2809667
219	0x3eeecfb2	0.46642834
220	0x3ec910e6	0.39270705
221	0xbe50df9e	-0.20397803
222	0x3ec1a511	0.37821248
223	0x3eefc340	0.4682865
224	0xbd0b4464	-0.03400077
225	0x3e49ee4d	0.19719811
226	0x3e0481a0	0.12940073
227	0xbe0fbefb	-0.14037697
228	0x3f18479c	0.5948427
229	0xbd48b6ca	-0.049002446
230	0x3f061ab6	0.5238451
231	0xbf12346f	-0.5711126
232	0x3ea02414	0.31277525
233	0xbea4d7c4	-0.32195866
234	0x3edcf0e0	0.43152523
235	0x3eaed7b2	0.34148937
236	0x3d8ee656	0.06977527
237	0x3e80a687	0.2512705
238	0xbef0f1ec	-0.47059572
239	0x3ee967bb	0.45586953
240	0xbea47fe6	-0.3212883
241	0x3e07c8bc	0.13260168
242	0x3ede407b	0.4340857
243	0xbef6a448	-0.48172212
244	0x3eb376e6	0.3505165
245	0xbf115fd6	-0.5678686
246	0x3ef2ccc5	0.47421852
247	0x3ebc7da8	0.36814618
248	0xbe94f189	-0.29090527
249	0xbed99085	-0.42493072
250	0x3dd8254d	0.105539896
251	0x3ef420c3	0.47681245
252	0xbee73b24	-0.45162308
253	0xbe623bd8	-0.22093141
254	0x3e9c232f	0.30495593
255	0x3e24cecd	0.16094513

encoder.layers.0.ffn.linear1.bias f4 [64]
0	0xb9902726	-0.00027494988
1	0x3de903d2	0.11377682
2	0x3ddbd247	0.107334666
3	0x3d051868	0.03249398
4	0xbdac6c90	-0.08419144
5	0x3da38fe5	0.0798643
6	0xbd520038	-0.05126974
7	0xbe45306d	-0.19256754
8	0xbdcaf161	-0.099093206
9	0xbc1c6288	-0.009544976
10	0x3e4ca0d1	0.19983222
11	0xbda91cbf	-0.08257436
12	0x3e0eeb2b	0.13956897
13	0xbdad30c6	-0.084565684
14	0x3cf6131c	0.030038409
15	0xbceaf48d	-0.028681064
16	0xbd8f1621	-0.06986643
17	0x3dcadaba	0.09905
18	0x3d1b3339	0.037890647
19	0x3e21540b	0.15754716
20	0xbe459951	-0.19296767
21	0xbe10a0e1	-0.1412387
22	0xbde4138c	-0.11136541
23	0xbe7152e1	-0.23566772
24	0xbcc78fe2	-0.0243606
25	0xbdc405b0	-0.09571397
26	0x3bf9730c	0.0076125916
27	0xbe5449ea	-0.20731321
28	0xbe140430	-0.14454722
29	0x3c65e337	0.014031223
30	0x3e558e5f	0.20855092
31	0xbe3495b4	-0.17635232
32	0xbdec7a51	-0.115467675
33	0xbd446573	-0.047948312
34	0x3e6ee025	0.23327692
35	0x3e0624a4	0.13099915
36	0xbe09aa6d	-0.13443919
37	0x3e5896d9	0.21151294
38	0x3dbafdf6	0.091304705
39	0xbdaca143	-0.08429196
40	0xbd997d50	-0.074946046
41	0xbe2c33bc	-0.1681661
42	0x3e060b0a	0.13090149
43	0xbe21471a	-0.1574978
44	0x3e06282f	0.13101266
45	0x3e110bd5	0.1416467
46	0x3e0f05d7	0.13967071
47	0x3e2e6a7d	0.1703281
48	0x3d868f76	0.06570332
49	0x3e3f3d37	0.18675695
50	0xbe0de830	-0.13858104
51	0xbb9bc032	-0.004753136
52	0xbe2c8b84	-0.16850096
53	0xbe58c30c	-0.21168154
54	0x3e491088	0.19635212
55	0x3e08bca7	0.13353215
56	0xbe172ea6	-0.14763889
57	0x3e61581c	0.22006267
58	0x3e4c12c3	0.19929032
59	0x3e3bf8a6	0.1835657
60	0x3d454dae	0.048169784
61	0xbe36417c	-0.17798418
62	0x3e468b07	0.19388972
63	0x3e4645f8	0.19362628

encoder.layers.0.ffn.linear2.weight f4 [16, 64]
0	0x3cdc0de4	0.026862092
1	0x3e22da21	0.15903522
2	0xbd1d66a3	-0.03842796
3	0xbc4cabb0	-0.012492105
4	0xbba42e2d	-0.0050103874
5	0xbe35e748	-0.17764008
6	0x3dc8a70d	0.097974874
7	0x3d756ff0	0.059921205
8	0xbe8a5e71	-0.27025178
9	0xbdaa4fba	-0.08315988
10	0xbe4512b5	-0.19245417
11	0x3e754af8	0.2395438
12	0x3d7b8c6d	0.061413217
13	0xbe8348fe	-0.25641626
14	0xbdac3892	-0.084092274
15	0xbe80028c	-0.25001943
16	0xbb40e995	-0.00294361
17	0xbe75e9b6	-0.24014935
18	0xbd191866	-0.037376784
19	0xbe7c755b	-0.24654143
20	0x3cd4e6dd	0.02598899
21	0x3e042b46	0.12907133
22	0x3e0d43a3	0.13795333
23	0xbd425859	-0.047447536
24	0x3e66ee1a	0.22551766
25	0x3d29f145	0.04148986
26	0x3e99c05a	0.30029565
27	0xbe3b1d0e	-0.18272802
28	0xbe864ee1	-0.26232055
29	0xbdd8966c	-0.10575566
30	0x3e1a6cf8	0.15080631
31	0x3e7baba1	0.2457719
32	0xbd58bb1a	-0.05291281
33	0xbdee9633	-0.11649742
34	0xbe40994d	-0.1880848
35	0x3e611686	0.21981248
36	0x3e909304	0.28237164
37	0x3e4ca866	0.19986114
38	0x3ccc34db	0.024927547
39	0xbc2f7b06	-0.010710483
40	0x3e067e4b	0.13134114
41	0x3e331cad	0.17491408
42	0xbda3deff	-0.080015175
43	0x3dc2c6bd	0.095105626
44	0xbdddcc47	-0.108299784
45	0x3daa425e	0.0831344
46	0xbe679777	-0.22616373
47	0xbe64a061	-0.22326805
48	0x3da31d09	0.079645224
49	0x3e0d99f4	0.1382826
50	0xbe54682b	-0.20742862
51	0xbe6fd75d	-0.23421998
52	0x3c8f4002	0.017486576
53	0x3e9d7bd4	0.30758536
54	0xbe57d99e	-0.21079108
55	0x3dab567d	0.08366106
56	0x3d67cd23	0.056592118
57	0xbcc4e202	-0.02403355
58	0x3d166881	0.036720756
59	0x3df42277	0.11920636
60	0xbe81e73c	-0.2537173
61	0xbd958174	-0.07300082
62	0xbe6aadd2	-0.2291787
63	0xbe1dedbd	-0.15422721
64	0xbe19a194	-0.15003043
65	0x3e83d96d	0.2575182
66	0xbc23e684	-0.01000369
67	0xbda9c590	-0.08289635
68	0x3d9dcd8a	0.07705219
69	0xbd87058e	-0.06592856
70	0x3e76e9be	0.24112603
71	0xbd57af05	-0.052657146
72	0xbde18497	-0.11011618
73	0x3e3a0fae	0.18170044
74	0x3e5d9a30	0.21640849
75	0x3dc93a45	0.09825567
76	0x3d70e867	0.058815386
77	0x3d4dc5a4	0.050237313
78	0xbd0bb9eb	-0.034112852
79	0xbc3bdbb4	-0.0114659555
80	0xbd820523	-0.06348636
81	0x3d90ae67	0.070645146
82	0xbde1e14b	-0.11029299
83	0xbe40ef9c	-0.18841404
84	0xbe906bda	-0.28207284
85	0xbdfdaea2	-0.12386824
86	0xbd130042	-0.035888918
87	0xbd280520	-0.041020513
88	0xbe7f9b3d	-0.24961562
89	0x3dd7ca0d	0.10536585
90	0x3e0968f1	0.13418938
91	0xbe8fe67b	-0.2810553
92	0xbe76dcc2	-0.2410765
93	0xbe5182f8	-0.20460117
94	0xbd7764a6	-0.06039872
95	0x3e8e609e	0.27808088
96	0xbdfccd5e	-0.12343858
97	0x3ea289b2	0.31745678
98	0xbe40923f	-0.18805788
99	0x3d8c7535	0.06858293
100	0x3db1ef67	0.086882405
101	0xbe68b497	-0.2272514
102	0x3e7a6c54	0.24455386
103	0x3e46e5b3	0.19423561
104	0xbc9d7d01	-0.019224646
105	0x3bad0ea6	0.0052812872
106	0x3e0e1d01	0.13878252
107	0xbe27b384	-0.16377074
108	0xbe714891	-0.23562838
109	0x3e9064b1	0.2820182
110	0x3e265679	0.16243924
111	0x3e12118d	0.14264508
112	0x3e1a0683	0.15041547
113	0xbe146435	-0.14491351
114	0x3e2be297	0.16785656
115	0x3e9aed60	0.30259228
116	0x3de3e08a	0.11126812
117	0xbe823a52	-0.2543512
118	0xbe3312cc	-0.17487639
119	0xbbee5b23	-0.007274048
120	0x3d70617f	0.05868673
121	0x3dfd187c	0.12358186
122	0x3e7ee295	0.24891122
123	0x3e15a149	0.14612307
124	0xbd8b02d8	-0.06787652
125	0xbe5cd32e	-0.21564934
126	0x3e27c767	0.1638466
127	0x3e3346c0	0.17507458
128	0xbbc322a1	-0.005955056
129	0x3e36bda7	0.17845784
130	0x3ddca08b	0.10772809
131	0xbe70b366	-0.23505935
132	0x3e2650a4	0.162417
133	0xbe8ae65a	-0.2712887
134	0x3dcef678	0.10105604
135	0x3e80bb73	0.25143012
136	0x3db7be0a	0.08971794
137	0x3b74c1cf	0.0037346964
138	0x3e9a7db0	0.30174017
139	0xbe143014	-0.14471465
140	0x3e06df0f	0.13171028
141	0x3db74b7e	0.08949946
142	0xbd566ff6	-0.052352868
143	0x3dc0f56c	0.094218105
144	0xbcd16895	-0.025562564
145	0xbcdd183e	-0.026989099
146	0x3d98d01e	0.0746157
147	0xbe54bb2a	-0.20774522
148	0x3e99b2ae	0.30019134
149	0xbe3dc9ae	-0.18533966
150	0xbe03a281	-0.12854959
151	0x3db94bff	0.09047698
152	0xbc4b7bc9	-0.012419649
153	0x3e77cd46	0.241994
154	0x3e53200c	0.20617694
155	0xbdaa5f30	-0.08318937
156	0x3d8ca968	0.06868249
157	0xbe0de668	-0.13857424
158	0xbd91f27d	-0.07126329
159	0x3e85a553	0.26102695
160	0x3de304c5	0.11084894
161	0x3df73f8c	0.120726675
162	0x3e67b43f	0.22627352
163	0x3e8b020b	0.27149996
164	0x3d15fa94	0.036615923
165	0x3e3af64b	0.18258016
166	0x3e671757	0.22567497
167	0xbd2dcba0	-0.04243052
168	0x3e5597bf	0.20858668
169	0xbca3ecc7	-0.020010365
170	0x3e98b71a	0.29827195
171	0x3de71a37	0.11284297
172	0x3e35282e	0.17691109
173	0xbdc6def6	-0.09710495
174	0x3e96c408	0.29446435
175	0xbdec85d2	-0.11548962
176	0xbe679c1f	-0.22618149
177	0xbe54ac09	-0.20768751
178	0xbe360d3f	-0.1777849
179	0x3e743f25	0.23852213
180	0xbe0702e6	-0.131847
181	0xbe98e4d1	-0.29862073
182	0x3e55f0c9	0.20892633
183	0xbe051335	-0.12995608
184	0xbdb377eb	-0.08763107
185	0xbe7de48a	-0.24794212
186	0x3e951efa	0.29125196
187	0xbd79d1cb	-0.06099109
188	0x3e3a536b	0.18195884
189	0xbd16f364	-0.03685321
190	0x3cb998ed	0.022655929
191	0x3df7c140	0.120974064
192	0x3e833953	0.25629672
193	0xbd8f43d6	-0.069953606
194	0x3d22a9c7	0.039712694
195	0xbe30ec16	-0.1727756
196	0x3e1cd325	0.1531492
197	0x3cd72abd	0.026265496
198	0xbb85379b	-0.0040654666
199	0x3e681c58	0.22667062
200	0xbe22ee56	-0.1591123
201	0xbd3319cf	-0.043725785
202	0xbe67ee10	-0.22649407
203	0xbe9b38ba	-0.30316716
204	0x3dd87822	0.105697885
205	0x3e9b4f00	0.3033371
206	0x3e763b33	0.2404602
207	0xbd3e9edd	-0.046538223
208	0x3d15681a	0.036476232
209	0x3e5fb1e2	0.218452
210	0x3c9c77a2	0.019100014
211	0x3cc7e4bf	0.024401067
212	0xbd0de507	-0.034642246
213	0xbe5e8eab	-0.21734111
214	0xbdb092d6	-0.08621757
215	0x3d85de12	0.06536497
216	0x3e0d3cad	0.13792677
217	0x3df874c6	0.12131648
218	0x3e94c2fa	0.29055005
219	0xbe6e0ea6	-0.23247775
220	0xbdcbccb6	-0.09951155
221	0xbe82e874	-0.25567973
222	0x3da4840e	0.08033
223	0x3d15a077	0.036529984
224	0xbcaeff5c	-0.021362
225	0x3e1ecf0d	0.15508671
226	0x3db1a714	0.08674446
227	0x3e3d2aec	0.18473405
228	0x3dd1259b	0.10212251
229	0x3df1bbb0	0.11803377
230	0xbe7905e0	-0.24318647
231	0x3e9c9ce7	0.30588457
232	0x3e0e15e0	0.13875532
233	0xbe3fcc40	-0.18730259
234	0x3e94198f	0.2892575
235	0x3cdf461b	0.027255109
236	0xbddcefb1	-0.10787905
237	0x3e90b228	0.28260922
238	0x3e46bc17	0.19407688
239	0xbdaf8e11	-0.08572019
240	0xbe089435	-0.13337786
241	0xbd06d3cb	-0.032916825
242	0x3db684f3	0.08912077
243	0x3d5b197f	0.05349111
244	0xbe1d5885	-0.15365799
245	0xbcd818d1	-0.02637902
246	0x3cb63428	0.022241667
247	0xbe894c64	-0.26816094
248	0x3e796e16	0.243584
249	0xbe81e6e7	-0.25371477
250	0x3d5009df	0.050790664
251	0x3d6150a4	0.055008546
252	0xbdba56de	-0.090986
253	0xbe121ae7	-0.14268075
254	0x3e80c238	0.25148177
255	0x3e8c0b12	0.27352196

encoder.layers.0.ffn.linear2.bias f4 [16]
0	0xbd3aa199	-0.045564268
1	0x3da2ec3d	0.07955215
2	0x3dbb23bb	0.091376744
3	0x3d0e8327	0.034793045
4	0xbceedaaf	-0.02915701
5	0x3a77e479	0.00094563473
6	0x3dd9cb29	0.10634453
7	0x3ddd0460	0.1079185
8	0xbd22cb49	-0.03974465
9	0x3d3889be	0.045053236
10	0x3da6f062	0.08151318
11	0xbc2313f3	-0.009953487
12	0x3d07e14a	0.033173837
13	0xbd923503	-0.071390174
14	0x3d9eb15f	0.077486746
15	0xbdfa8e9d	-0.122342326

encoder.layers.0.norm2.gamma f4 [16]
0	0x3f75335f	0.9578151
1	0x3f7f6222	0.99759114
2	0x3f7ffbed	0.99993783
3	0x3f7e20b0	0.9926863
4	0x3f7e6b4d	0.9938248
5	0x3f80266a	1.0011723
6	0x3f804841	1.002205
7	0x3f80578e	1.002672
8	0x3f826a40	1.0188675
9	0x3f7e6b49	0.99382454
10	0x3f77991d	0.9671801
11	0x3f7c4d07	0.98555034
12	0x3f7a1b79	0.9769817
13	0x3f7ea759	0.994741
14	0x3f778b9b	0.96697396
15	0x3f80ac4b	1.005258

encoder.layers.0.norm2.beta f4 [16]
0	0xbab70967	-0.0013964594
1	0x3b049f47	0.0020236538
2	0x3b7f3c69	0.003894592
3	0xb8eb9e5f	-0.00011235172
4	0xbbc07440	-0.005873233
5	0x3b9e4660	0.0048301667
6	0x3a6cc694	0.0009032276
7	0x3bd47a48	0.0064843036
8	0x39282cb4	0.00016038382
9	0x3af23060	0.0018477552
10	0x3c78274e	0.01514609
11	0x3c4082b7	0.011749915
12	0xbbab08fb	-0.0052195764
13	0xb9d13478	-0.0003990268
14	0xba688fd3	-0.0008871529
15	0x3b461b17	0.003022855
