Trans_Prediction/model_saved/ratioMergedPrs/TM_ratioMergedPrs_delay_size_8_delay_5.pth (torch, 385400 bytes, 337 tensors)

encoder.layers.0.attention.w_q.weight f4 [16, 16]
0	0x3edf2d87	0.43589422
1	0xbe2800e4	-0.1640659
2	0x3e38aa4b	0.18033712
3	0xbef25888	-0.4733317
4	0xbedc7532	-0.43058163
5	0x3eeb3948	0.4594214
6	0xbee831a7	-0.45350382
7	0x3e0ccf75	0.13751014
8	0x3eb31132	0.34974056
9	0xbee380d9	-0.4443424
10	0xbeb111f9	-0.34584025
11	0xbed58724	-0.41704667
12	0x3ef636f5	0.48088804
13	0x3db55d7d	0.08855722
14	0x3d3fca9a	0.046824075
15	0xbf170f15	-0.5900739
16	0xbd73d8d9	-0.059532974
17	0xbd70ccd8	-0.058789104
18	0xbe9f9a7c	-0.3117255
19	0x3ed3f103	0.41394815
20	0xbd929709	-0.07157714
21	0x3ee3e835	0.44513097
22	0xbe015ff8	-0.12634265
23	0x3e66eb02	0.22550586
24	0xbea74912	-0.32672936
25	0xbec140e9	-0.37744835
26	0x3ed23c27	0.41061518
27	0x3e9944aa	0.299352
28	0xbf06ff3b	-0.527332
29	0xbec8df2c	-0.39232767
30	0xbea5b79f	-0.32366654
31	0x3f171ddc	0.59029937
32	0xbe6a37b8	-0.22872818
33	0x3ebc1093	0.36731395
34	0x3e0dc90d	0.13846226
35	0x3ee45f0c	0.44603765
36	0x3ead4959	0.33845022
37	0xbe92c06c	-0.2866243
38	0x3f088f3d	0.53343564
39	0xbe91e861	-0.28497604
40	0x3f1c1849	0.60974556
41	0x3d6c9319	0.05775747
42	0xbeca339e	-0.39492506
43	0xbef49a90	-0.47774172
44	0xbeeb48e5	-0.45954052
45	0xbf179f8e	-0.59227836
46	0xbea7b904	-0.32758343
47	0x3d706d53	0.05869801
48	0xbe0e556c	-0.13899773
49	0xbe9503ce	-0.29104465
50	0x3e40cd9b	0.18828432
51	0xbe0dcc0f	-0.13847373
52	0x3f0c6c46	0.5485271
53	0x3f17d837	0.5931429
54	0xbe7b30f3	-0.24530391
55	0x3f0aa0ff	0.5415191
56	0x3ee418ff	0.4455032
57	0xbf06d6ce	-0.52671516
58	0xbe80fcba	-0.25192815
59	0xbcb8943c	-0.022531621
60	0x3d30b753	0.04314358
61	0xbec91a8b	-0.39278063
62	0x3f18cbea	0.5968615
63	0x3e2be26d	0.16785593
64	0xbf14cb6c	-0.581229
65	0xbe3f786b	-0.1869828
66	0x3c9eb68f	0.01937416
67	0xbed522c7	-0.41628096
68	0xbecc2cca	-0.3987792
69	0xbe1e353a	-0.15449992
70	0xbeae7be6	-0.34078902
71	0x3eb80d48	0.35947633
72	0x3e2c9e1f	0.16857193
73	0x3ee30858	0.44342303
74	0x3d8dc8f9	0.06923098
75	0x3ee34f92	0.44396645
76	0x3e590acc	0.21195525
77	0x3ef08b0d	0.46981087
78	0x3ecf9650	0.40544367
79	0xbe1597aa	-0.14608636
80	0xbc900d76	-0.017584544
81	0x3ec99984	0.39374936
82	0x3ec441aa	0.38331348
83	0x3e6d7c30	0.23191905
84	0xbf16fabb	-0.58976334
85	0xbcb2db09	-0.02183296
86	0xbe7c2464	-0.24623257
87	0xbe829487	-0.25503942
88	0x3e964017	0.29345772
89	0x3f19abfa	0.6002804
90	0x3eebe987	0.46076605
91	0x3e8ff7aa	0.2811864
92	0x3e8482a1	0.25880912
93	0x3f12f7ea	0.57409537
94	0xbd3b014e	-0.04565554
95	0xbe1a5c33	-0.15074234
96	0xbe17931e	-0.14802215
97	0xbee01123	-0.43763074
98	0xbe8a4726	-0.27007407
99	0x3ee60993	0.4492918
100	0x3cef20ac	0.029190384
101	0x3f17e00b	0.5932624
102	0x3e46c316	0.19410357
103	0x3c1afbf9	0.009459489
104	0xbe0506c8	-0.12990868
105	0xbe5c13a4	-0.21491867
106	0xbec024bf	-0.37528035
107	0x3ef6d8b4	0.48212206
108	0x3e80b100	0.2513504
109	0xbe3eb910	-0.18625283
110	0x3ea6257d	0.32450476
111	0xbe989267	-0.29799196
112	0xbe4742e2	-0.19459108
113	0xbef699fa	-0.4816435
114	0xbdab7443	-0.083717845
115	0x3c8ff540	0.017572999
116	0xbccb984e	-0.024852898
117	0xbedc56ac	-0.43034875
118	0x3f06d609	0.5267034
119	0x3ef02a15	0.46907106
120	0x3e077ff7	0.13232408
121	0x3ea23880	0.3168373
122	0x3ea60a18	0.32429576
123	0x3edede24	0.43528855
124	0xbe4bc72c	-0.19900197
125	0x3dcfb9b8	0.10142845
126	0x3ee23cf3	0.44187126
127	0xbd60c526	-0.054875515
128	0xbe79a5a0	-0.24379587
129	0xbeed45e5	-0.46342388
130	0x3ec79e97	0.38988182
131	0x3e789fb4	0.24279672
132	0x3eae3a9f	0.340291
133	0x3ee940f2	0.45557362
134	0xbf0f1f6d	-0.55907327
135	0x3de294e3	0.11063554
136	0x3f0dc81e	0.5538348
137	0x3e2d6fc6	0.1693717
138	0xbf036595	-0.51326877
139	0xbf066d17	-0.5251021
140	0x3ee705bd	0.45121565
141	0x3e38e762	0.18057016
142	0xbe98e038	-0.29858565
143	0xbea32a6e	-0.3186831
144	0x3e550ec7	0.20806418
145	0x3f048c6f	0.51776785
146	0xbf07fcec	-0.53120303
147	0x3c492b7c	0.012278434
148	0xbe9f7641	-0.31144908
149	0x3ebd645d	0.36990634
150	0x3e5b1c5b	0.21397536
151	0xbe9be0e5	-0.30445018
152	0xbec5d4cf	-0.38638923
153	0xbe92b4f9	-0.28653696
154	0xbe494ce9	-0.19658245
155	0x3ddd1ea5	0.107968606
156	0xbba82807	-0.0051317248
157	0x3e85a2da	0.26100808
158	0x3e05b45d	0.13057084
159	0x3e17c70d	0.14822026
160	0x3f05b34d	0.52226716
161	0x3e76f93e	0.24118516
162	0xbf0e574e	-0.55601966
163	0xbf1c66bb	-0.61094254
164	0xbe7a0767	-0.24416886
165	0xbf0d9638	-0.5530734
166	0x3ea42168	0.32056737
167	0x3e0d4b75	0.13798316
168	0x3ec6b5a3	0.38810453
169	0x3e31885d	0.17337175
170	0x3e8244de	0.25443166
171	0x3e7ce17b	0.24695389
172	0xbed86f98	-0.4227264
173	0x3f01eb14	0.50749326
174	0xbd0037e2	-0.031303294
175	0x3eb85ea3	0.36009702
176	0xbe9314d7	-0.28726837
177	0xbd4a6178	-0.04940936
178	0xbe2ff05f	-0.17181538
179	0x3ed2038d	0.41018334
180	0x3f1389c4	0.5763209
181	0x3ebcf129	0.3690274
182	0x3e95767e	0.29191965
183	0xbf0b7ee8	-0.5449052
184	0xbf120fc9	-0.57055336
185	0xbe8f788f	-0.28021666
186	0xbebaf3be	-0.36514086
187	0xbe810cdc	-0.25205123
188	0x3efb6d35	0.49106756
189	0xbdda086d	-0.10646138
190	0xbd72aa98	-0.059244722
191	0xbe7a1b25	-0.24424417
192	0x3ec3c277	0.38234302
193	0xbeca9884	-0.39569485
194	0xbdf7115a	-0.120638564
195	0x3db3a0d2	0.087709084
196	0xbec08c13	-0.37606868
197	0x3e9fad64	0.31186974
198	0xbe11b5fb	-0.14229576
199	0xbeaf8ed0	-0.34288645
200	0xbf120142	-0.5703317
201	0x3f17ff34	0.59373784
202	0xbe195c54	-0.14976627
203	0xbecf2e5c	-0.40465057
204	0x3e8ca2ab	0.27467856
205	0xbf18a155	-0.59621173
206	0x3ecdc598	0.40189815
207	0xbf0ad096	-0.54224527
208	0xbe6f3a99	-0.23362197
209	0x3eb60530	0.35550833
210	0xbf1be0ba	-0.6088978
211	0x3ecdd3f2	0.40200764
212	0xbeb03c88	-0.34421182
213	0xbecedbf9	-0.404022
214	0x3e1bbc3c	0.15208524
215	0xbd951119	-0.07278652
216	0xbe3e1b33	-0.18565063
217	0x3e913186	0.28358096
218	0xbe495fbe	-0.19665429
219	0x3e6d3dea	0.2316815
220	0x3e9fe8a2	0.31232172
221	0x3e65fbbb	0.22459309
222	0x3e88fffe	0.26757807
223	0xbd11189a	-0.035423853
224	0x3dd2e0a1	0.10296751
225	0x3ee8bdad	0.4545721
226	0x3f0739ba	0.5282246
227	0xbd5802d6	-0.05273708
228	0xbeae9c28	-0.34103513
229	0x3e978a98	0.29597926
230	0x3eba218e	0.36353725
231	0x3ed28339	0.4111574
232	0x3ceab065	0.028648565
233	0x3ed993ce	0.4249558
234	0xbeeda6d5	-0.46416345
235	0xbdd81b85	-0.10552124
236	0x3e9704ce	0.29495853
237	0x3f0b7b32	0.54484856
238	0x3f0a3c83	0.53998584
239	0xbf08dfc5	-0.53466445
240	0x3c5d269e	0.013497977
241	0x3d511c4b	0.051052373
242	0xbf09b3c0	-0.537899
243	0xbed0b7fa	-0.40765363
244	0xbed563ec	-0.41677797
245	0xbe8e6884	-0.27814114
246	0x3d7c7c3a	0.06164191
247	0xbf1baf3d	-0.6081427
248	0x3e24db48	0.16099274
249	0x3e1ab856	0.15109381
250	0x3e4ff231	0.20307232
251	0xbeb4b1ef	-0.35292003
252	0x3f1abe1b	0.6044633
253	0xbf1a8912	-0.603654
254	0xbefff666	-0.49992675
255	0xbe784aef	-0.24247335

encoder.layers.0.attention.w_q.bias f4 [16]
0	0x3e64331c	0.22285122
1	0xbe69d17b	-0.22833817
2	0xbe496f90	-0.19671464
3	0xbe15c918	-0.14627492
4	0x3e36eac7	0.17862998
5	0x3c7e5855	0.01552399
6	0xbde67d5e	-0.11254381
7	0xbe2b558f	-0.16731857
8	0x3cb3bd31	0.0219408
9	0xbd9259ed	-0.07146058
10	0x3d81dd01	0.06340981
11	0x3e53a2ff	0.20667647
12	0xbda5f04f	-0.08102476
13	0x3d4920f1	0.04910368
14	0x3d80b44f	0.06284391
15	0x3e29d2e2	0.16584352

encoder.layers.0.attention.w_k.weight f4 [16, 16]
0	0x3d2c5a72	0.042078443
1	0xbef40f2e	-0.4766783
2	0x3e9b84a3	0.3037463
3	0x3ee53086	0.44763583
4	0x3e7db675	0.24776633
5	0xbf1a5ae3	-0.6029493
6	0x3f18b43f	0.59650034
7	0xbe65afd9	-0.22430362
8	0xbf0ede2f	-0.55807775
9	0x3e4293a9	0.1900164
10	0xbeeba9e6	-0.4602806
11	0x3f0490ef	0.5178365
12	0xbf1087f1	-0.5645743
13	0x3eb18523	0.34671888
14	0x3ed8d7a3	0.42352018
15	0x3c21ee8e	0.009883536
16	0x3ebe55ae	0.37174743
17	0xbe7623db	-0.24037115
18	0xbd92832e	-0.07153927
19	0xbec937ef	-0.39300486
20	0xbc22a18e	-0.009926213
21	0x3f03422f	0.51272863
22	0xbe1685c5	-0.14699467
23	0x3e092eb5	0.13396724
24	0x3ce37af3	0.027768588
25	0x3ed80cef	0.42197368
26	0xbe772075	-0.24133475
27	0x3e9126fc	0.28350055
28	0xbd582379	-0.052768204
29	0xbee0fe1d	-0.43943873
30	0xbef67c48	-0.48141694
31	0x3c843f8b	0.01614358
32	0xbe8870bb	-0.26648507
33	0xbf0ba778	-0.5455241
34	0x3e4367f8	0.1908263
35	0xbe245a71	-0.16050126
36	0x3e233b61	0.1594062
37	0x3d8468ec	0.06465325
38	0x3dca40eb	0.09875663
39	0x3ee3793f	0.4442844
40	0x3eea1c5d	0.45724764
41	0xbe022147	-0.12708007
42	0xbe878553	-0.26468906
43	0x3da65a72	0.0812272
44	0x3e9bc0b1	0.3042045
45	0xbefb698a	-0.49103957
46	0x3ccfff8f	0.025390415
47	0xbedf0845	-0.43560997
48	0x3ec73156	0.38904828
49	0xbf1605a1	-0.5860234
50	0x3deda792	0.11604227
51	0xbdffc51b	-0.12488767
52	0x3e6de585	0.23232086
53	0x3f0a6a05	0.5406802
54	0xbed3da0b	-0.4137729
55	0x3dba9199	0.09109802
56	0x3ea44e9e	0.3209123
57	0x3ebceafd	0.36898032
58	0xbf038fe3	-0.5139143
59	0xbf13b5ba	-0.5769917
60	0xbe2a8d6b	-0.16655509
61	0xbeda006f	-0.42578456
62	0xbef864ed	-0.485145
63	0xbcd74b6a	-0.026281077
64	0x3e011cb0	0.126086
65	0xbefb1a47	-0.49043486
66	0x3e3a710a	0.18207183
67	0x3e534a58	0.20633829
68	0x3ec78da4	0.3897525
69	0x3f1a1ed2	0.6020328
70	0xbef5a2ea	-0.47975856
71	0xbdaeb54b	-0.08530673
72	0x3ee6a005	0.4504396
73	0x3eaa8784	0.33306515
74	0xbe9e6865	-0.30939022
75	0x3f0e83b6	0.55669725
76	0xbe1952f0	-0.14973044
77	0xbdff8cae	-0.124780044
78	0xbefa624e	-0.48903126
79	0x3e886f9f	0.2664766
80	0x3da64c7c	0.08120057
81	0xbee10d2d	-0.43955365
82	0x3e9c23ae	0.3049597
83	0xbe812516	-0.25223607
84	0xbee0e9c6	-0.43928355
85	0x3eae137b	0.33999237
86	0xbebddb34	-0.370813
87	0x3ed1463a	0.4087389
88	0xbc461709	-0.012090453
89	0xbe8f559a	-0.27994996
90	0xbd47bd44	-0.048764482
91	0xbe3a6c40	-0.18205357
92	0xbe2da65c	-0.16957992
93	0x3efc7ad6	0.49312466
94	0xbdc2ec9f	-0.09517788
95	0x3ee8e50c	0.4548725
96	0x3e31c682	0.17360881
97	0x3ece7f8c	0.40331686
98	0xbe47af65	-0.19500501
99	0x3f0b3ed9	0.5439277
100	0x3ea6be5b	0.32567105
101	0xbe864e4a	-0.26231605
102	0xbf012296	-0.504434
103	0x3f093b96	0.53606546
104	0x3f017a16	0.50576913
105	0x3c231027	0.0099525815
106	0xbec42d43	-0.38315782
107	0x3ed5ebe2	0.41781527
108	0x3e2afa50	0.16697049
109	0x3c65d98b	0.014028917
110	0xbecf0a10	-0.40437365
111	0x3f03510d	0.5129555
112	0xbf0c15bd	-0.5472067
113	0x3d948b32	0.07253112
114	0xbd5cdbff	-0.053920742
115	0xbe8d45c1	-0.2759228
116	0xbd17d3a4	-0.03706707
117	0x3ed90a11	0.42390493
118	0xbd919cb3	-0.07109966
119	0xbf133f47	-0.5751843
120	0x3f1718b3	0.59022063
121	0x3ed44384	0.4145776
122	0xbe802e8d	-0.25035515
123	0xbec5d588	-0.38639474
124	0xbe5a66b8	-0.21328247
125	0x3edbcc59	0.42929342
126	0x3d19f207	0.03758433
127	0xbdab384d	-0.08360348
128	0xbefe3fc8	-0.49658036
129	0xbb939338	-0.004503634
130	0xbccd518d	-0.0250633
131	0xbec337a9	-0.38128403
132	0xbe16f46c	-0.14741677
133	0x3e912cfb	0.2835463
134	0xbe41338d	-0.18867321
135	0xbf0ecaf8	-0.55778456
136	0x3f15d44f	0.5852708
137	0xbf00ffd8	-0.50390387
138	0x3d7a5320	0.06111443
139	0xbe707279	-0.23481168
140	0xbebd5a48	-0.36982942
141	0xbeb181e8	-0.34669423
142	0x3eaa93b8	0.33315825
143	0x3edb993d	0.4289035
144	0x3cb0ca36	0.021580797
145	0x3e8faacc	0.28059995
146	0xbef87ae6	-0.48531264
147	0x3ed79ef6	0.42113465
148	0x3ecc0da6	0.39854163
149	0x3eb4ab8b	0.35287127
150	0xbe8dd063	-0.2769805
151	0x3e3e9439	0.1861123
152	0x3ed350d5	0.41272607
153	0x3f08532f	0.5325193
154	0xbb961d4d	-0.0045811296
155	0x3eff2c2c	0.49838388
156	0xbedfb58a	-0.4369319
157	0x3ead7330	0.33876944
158	0x3d27e12c	0.040986225
159	0x3ee435ce	0.445723
160	0xbe5a89f2	-0.21341684
161	0x3e255391	0.1614516
162	0xbecb9e80	-0.39769363
163	0x3f07792d	0.52919275
164	0x3e8073c2	0.25088316
165	0xbe6be751	-0.23037459
166	0xbd2346e3	-0.039862525
167	0xbe3ef381	-0.18647577
168	0xbd378647	-0.04480579
169	0x3e810583	0.25199518
170	0x3eafb32a	0.3431638
171	0x3ebe2f1d	0.3714532
172	0xbe72e839	-0.23721398
173	0xbeae7063	-0.3407012
174	0xbed8eb77	-0.42367145
175	0x3ec6ff67	0.38866732
176	0x3de723b2	0.11286105
177	0xbeade61f	-0.3396463
178	0x3db19f1f	0.08672928
179	0x3e4cd774	0.20004064
180	0x3c56d54b	0.013112376
181	0x3ea80982	0.32819754
182	0xbe9b73f5	-0.30361906
183	0x3c813d85	0.015776405
184	0x3eb36666	0.3503906
185	0xbe1d7685	-0.15377243
186	0x3f17f218	0.5935378
187	0xbe77d760	-0.24203253
188	0xbe2d31fc	-0.16913599
189	0x3e33f210	0.17572808
190	0x3ea4b93e	0.3217258
191	0x3e690694	0.22756416
192	0xbe4bc13e	-0.19897935
193	0xbe8dc3d6	-0.27688473
194	0x3f1b5f68	0.60692453
195	0xbeaa4bb3	-0.3326088
196	0x3f06d097	0.5266203
197	0xbebcd25d	-0.36879244
198	0xbe3b17e4	-0.18270832
199	0xbed055b7	-0.40690395
200	0xbd778d28	-0.06043735
201	0x3bf329ef	0.0074207704
202	0xbe4868eb	-0.19571273
203	0x3e696a10	0.22794366
204	0xbd8327ad	-0.06404052
205	0xbd9040aa	-0.07043584
206	0xbecc931e	-0.39955992
207	0xbe6bb633	-0.23018722
208	0x3decfc3e	0.11571549
209	0x3dcb0456	0.099129364
210	0xbeb15daf	-0.34641787
211	0xbd9d537c	-0.07681939
212	0x3e6acee3	0.22930484
213	0x3ece3ae5	0.40279308
214	0x3e954e40	0.29161263
215	0x3f17dbfc	0.59320045
216	0x3d7c0119	0.061524484
217	0xbdc1006d	-0.09423909
218	0x3eff8558	0.4990642
219	0xbe262cc4	-0.16228014
220	0xbed2686f	-0.41095302
221	0xbeaf8155	-0.3427836
222	0x3ed02009	0.4064944
223	0x3ec3fc1a	0.38278276
224	0xbeb8c18e	-0.3608517
225	0x3db10c21	0.086448915
226	0xbd099529	-0.033589516
227	0x3d4da0fd	0.05020236
228	0xbe3feb88	-0.18742192
229	0xbecf22ad	-0.40456143
230	0xbec1179a	-0.3771332
231	0xbc7f553a	-0.015584284
232	0xbd929b14	-0.07158485
233	0x3efad7ec	0.4899286
234	0xbee3a584	-0.44462216
235	0xbedb32fc	-0.42812335
236	0x3e633b3b	0.22190563
237	0x3dc83fe9	0.09777815
238	0x3e6b3d54	0.22972614
239	0x3d5e721d	0.054308046
240	0x3ee784f6	0.4521863
241	0xbf054e76	-0.52072847
242	0x3c1ff81f	0.0097637465
243	0x3f13a669	0.57675797
244	0xbd4e5e9d	-0.0503832
245	0x3ea1d5c9	0.31608418
246	0x3e1ecf8b	0.15508859
247	0x3e6c7b39	0.2309388
248	0x3eaaab28	0.33333707
249	0xbe9959a3	-0.299512
250	0x3ed0615a	0.40699273
251	0x3d4c11bb	0.049821597
252	0xbda0ede7	-0.07857876
253	0x3ed151f4	0.40882838
254	0xbe8da2e9	-0.27663353
255	0xbf0f1f4e	-0.5590714

encoder.layers.0.attention.w_k.bias f4 [16]
0	0xb5beff45	-1.4230396e-06
1	0xb5749126	-9.11083e-07
2	0xb4dabcf1	-4.0743137e-07
3	0x361b886d	2.317621e-06
4	0x34baf9ae	3.4826866e-07
5	0x35d3846f	1.5759268e-06
6	0xb6357740	-2.7040514e-06
7	0x3611f945	2.1751778e-06
8	0xb4a683bf	-3.1015767e-07
9	0xb55ad428	-8.1520056e-07
10	0x34b0860c	3.2880087e-07
11	0xb5281909	-6.262131e-07
12	0x358efc70	1.0653293e-06
13	0xb504b4d0	-4.943695e-07
14	0xb60dd2ef	-2.1133417e-06
15	0x35fea0cc	1.8971273e-06

encoder.layers.0.attention.w_v.weight f4 [16, 16]
0	0x3eb4af87	0.35290167
1	0x3e13b2cd	0.14423676
2	0x3e517349	0.20454134
3	0x3c6af6df	0.014341085
4	0xbef356f4	-0.47527277
5	0xbe05dc1f	-0.13072251
6	0x3ecefa4c	0.40425336
7	0xbe3d5e9a	-0.18493119
8	0x3df8195b	0.12114211
9	0xbe093506	-0.13399133
10	0x3e23e5ec	0.16005677
11	0x3e5cf218	0.21576726
12	0xba1df6e7	-0.0006025866
13	0xbdaa4caa	-0.08315404
14	0x3ef56579	0.4792898
15	0xbf0ae3b3	-0.5425369
16	0xbe23ca5b	-0.15995161
17	0x3d50dc51	0.05099136
18	0xbeffab00	-0.4993515
19	0x3e3ef0d9	0.18646564
20	0x3debc413	0.115120076
21	0x3ef05090	0.46936464
22	0xbef5ecba	-0.4803217
23	0xbeaaa73e	-0.3333072
24	0x3de49ee8	0.111631215
25	0x3ed4f55f	0.41593453
26	0x3ed16525	0.4089748
27	0xbd5bc8d4	-0.05365832
28	0xbee795d9	-0.45231512
29	0xbd1f4ae2	-0.038889773
30	0xbee264c2	-0.44217497
31	0xbd8ce5f3	-0.06879797
32	0x3ccab809	0.024745958
33	0x3eb6096e	0.3555407
34	0x3f089861	0.5335751
35	0x3ca961fb	0.020676604
36	0xbf01e939	-0.50746495
37	0xbf12e196	-0.57375467
38	0xbeddd4dd	-0.43326464
39	0xbecc8f46	-0.3995306
40	0x3ec285bd	0.3799266
41	0x3de85435	0.11344186
42	0x3dd6b540	0.104837894
43	0x3d2d1c25	0.04226317
44	0x3e09a398	0.13441312
45	0x3d5bbcbf	0.0536468
46	0xbe1579fe	-0.14597318
47	0xbec9c11a	-0.39405137
48	0xbf056612	-0.5210887
49	0xbebccf37	-0.36876842
50	0xbea0b087	-0.3138468
51	0x3df6b79d	0.1204674
52	0x3f129bde	0.57269084
53	0xbecf7b59	-0.40523794
54	0x3e00be6b	0.12572639
55	0xbe4c124d	-0.19928856
56	0x3f05bd12	0.52241623
57	0xbea6cf2c	-0.32579935
58	0xbe8a3a66	-0.2699768
59	0xbcfe9aa8	-0.031079605
60	0xbf0abafe	-0.5419158
61	0x3f0f6670	0.5601568
62	0xbeabf47c	-0.33584964
63	0x3ee83480	0.45352554
64	0x3e8d4e2e	0.2759871
65	0x3f12c2f0	0.573287
66	0x3e2e252f	0.17006372
67	0xbec5f242	-0.3866139
68	0xbda3857b	-0.07984444
69	0xbc4d2046	-0.012519902
70	0x3e9e0ea8	0.30870557
71	0x3dbb01e6	0.091312215
72	0xbecac57e	-0.396038
73	0x3eb4d982	0.35322195
74	0x3d4bcba5	0.049754757
75	0x3f074443	0.52838534
76	0x3e9b140d	0.30288735
77	0x3e3f8d22	0.18706182
78	0xbe51c611	-0.20485713
79	0xbdb2c457	-0.08728855
80	0x3e9cb80e	0.30609173
81	0x3e053cc9	0.13011469
82	0x3dde4723	0.10853412
83	0xbeaa8e3f	-0.3331165
84	0x3d94b7bb	0.07261606
85	0x3f159b1c	0.58439803
86	0xbe4baa09	-0.19889082
87	0x3f0e6e50	0.55637074
88	0xbec32c12	-0.3811956
89	0x3c0fd5b9	0.008778983
90	0x3e861d3d	0.26194182
91	0x3dc06f66	0.093962476
92	0xbe4e69ab	-0.20157497
93	0xbf0aafe9	-0.5417467
94	0x3eb1003e	0.34570497
95	0xbd3f6bed	-0.046733785
96	0xbedcd04a	-0.43127662
97	0xbec41fed	-0.38305607
98	0xbea754d5	-0.3268191
99	0xbd9ae348	-0.07562882
100	0xbf12d336	-0.5735353
101	0x3d5fef34	0.05467148
102	0xbe9d7528	-0.30753446
103	0xbc6b3720	-0.014356405
104	0x3ea8a725	0.3294002
105	0xbf083937	-0.532123
106	0xbdcaab78	-0.09895986
107	0x3deb0343	0.114752315
108	0x3e566679	0.20937528
109	0xbe478ef8	-0.19488132
110	0x3ee29152	0.44251496
111	0xbe39adba	-0.18132678
112	0xbecb8f54	-0.39757788
113	0x3e844f88	0.25841928
114	0x3e4124bb	0.18861668
115	0x3e1b1e0b	0.15148179
116	0xbe1287ca	-0.14309612
117	0x3e3cbc9d	0.18431325
118	0xbeb10756	-0.3457591
119	0xbeade48f	-0.3396344
120	0xbf003b03	-0.50090045
121	0xbece7f8b	-0.40331683
122	0xbd4bd59c	-0.04976426
123	0x3e350237	0.17676626
124	0x3ed52808	0.41632104
125	0xbf0dde08	-0.5541692
126	0x3e2bb342	0.167676
127	0x3e925fd6	0.28588742
128	0xbef1a976	-0.471996
129	0xbf09679e	-0.5367373
130	0xbd6cf1f2	-0.057847925
131	0xbeb84c61	-0.35995772
132	0x3d9bc610	0.07606137
133	0xbe438145	-0.19092281
134	0xbeac8479	-0.3369482
135	0x3ec4ba04	0.3842317
136	0xbeb2fe76	-0.34959763
137	0xbe9206c5	-0.2852079
138	0x3eb01a92	0.34395272
139	0xbe9cdb37	-0.30635998
140	0x3e6bd9a6	0.23032245
141	0x3e2c0c66	0.16801605
142	0x3cda4405	0.026643762
143	0xbebec666	-0.3726074
144	0xbef6c07a	-0.48193723
145	0xbf0371b5	-0.5134538
146	0xbf0a45eb	-0.54012936
147	0x3e876cd7	0.26450226
148	0x3e128eb5	0.14312251
149	0x3f0b87f2	0.5450431
150	0x3e67253f	0.22572802
151	0x3e6a588b	0.22885339
152	0x3e8747a3	0.26421842
153	0xbd69256f	-0.056920465
154	0x3f06c666	0.5264648
155	0x3dfa1589	0.12211139
156	0x3df045b4	0.11732045
157	0xbefe389c	-0.49652565
158	0xbf0a702b	-0.54077405
159	0xbefc0072	-0.4921909
160	0x3f01985d	0.5062311
161	0x3ee72e01	0.45152286
162	0x3ec66be4	0.3875419
163	0xbedbd8a0	-0.4293871
164	0xbec86164	-0.39136803
165	0xbe8d1c5b	-0.27560696
166	0xbee7d37d	-0.4527854
167	0x3e0bda09	0.13657393
168	0xbe783aa2	-0.24241117
169	0xbf0be060	-0.54639244
170	0x3e2fcaf1	0.1716726
171	0x3efe542a	0.49673587
172	0xbf04931c	-0.5178697
173	0xbf192ecb	-0.59837025
174	0x3df381a8	0.11889964
175	0xbe01e779	-0.12685956
176	0xbea22327	-0.31667444
177	0x3e43f93e	0.19138047
178	0xbed5e2d4	-0.4177462
179	0x3eb5938c	0.35464132
180	0xbec82df2	-0.39097553
181	0x3f0e129d	0.5549715
182	0xbe39cfd4	-0.18145686
183	0xbedd14e8	-0.43180013
184	0x3cceeddd	0.025259906
185	0x3ec95bf6	0.39327973
186	0xbe3645e0	-0.17800093
187	0x3e8e52af	0.27797458
188	0xbdfb7afa	-0.12279315
189	0xbd9a66b2	-0.07539119
190	0x3f0c21e6	0.54739225
191	0x3d6cd399	0.057818983
192	0x3f0cfc2d	0.5507229
193	0x3e3369a9	0.17520775
194	0xbed35227	-0.41273615
195	0x3eb90169	0.36133888
196	0xbdda1aed	-0.10649667
197	0xbe0e6006	-0.13903818
198	0xbed5373b	-0.416437
199	0xbe3f700b	-0.18695085
200	0x3e883c08	0.266083
201	0xbea4a826	-0.32159537
202	0x3e10e21f	0.14148758
203	0xbeb95404	-0.3619691
204	0xbf004d43	-0.5011789
205	0xbef90bfc	-0.48641956
206	0x3d97c1fa	0.07410045
207	0x3d67be20	0.0565778
208	0xbedd6f2c	-0.4324888
209	0xbee97336	-0.4559571
210	0xbe77f3cf	-0.242141
211	0x3edd1962	0.43183428
212	0xbf037822	-0.51355183
213	0xbeee45f1	-0.46537736
214	0xbf133205	-0.574982
215	0xbec9902b	-0.39367804
216	0xbe62e3f3	-0.22157268
217	0xbe92360d	-0.28556862
218	0xbe2574d4	-0.16157848
219	0x3dbe5dc4	0.09295228
220	0xbf00b41e	-0.50274837
221	0x3f067ee1	0.5253735
222	0xbf1172e3	-0.5681593
223	0x3e8d3826	0.275819
224	0x3ec13737	0.37737438
225	0xbe04fe4b	-0.1298763
226	0x3dadd32e	0.08487545
227	0x3cfb682d	0.030689323
228	0x3f01967a	0.50620234
229	0x3f0dab20	0.5533924
230	0xbeb98dd7	-0.36241028
231	0x3ecdaedc	0.4017247
232	0x3ef5740c	0.479401
233	0xbeb60253	-0.35548648
234	0x3c8753ae	0.016519394
235	0xbdb03912	-0.08604635
236	0x3da83daf	0.0821489
237	0x3eba0eaf	0.36339328
238	0x3ecb6d65	0.397319
239	0x3f02f48c	0.511544
240	0x3c55e6e5	0.013055538
241	0x3eb37e7f	0.35057446
242	0xbec44430	-0.38333273
243	0xbea6d1d7	-0.3258197
244	0x3db87ad0	0.090077996
245	0xbd428069	-0.047485743
246	0xbdd1a6bc	-0.1023688
247	0xbed18446	-0.4092123
248	0xbdd2b513	-0.102884434
249	0xbdfb6f8b	-0.122771345
250	0x3dc3668a	0.09541042
251	0xbcf2c74b	-0.029636046
252	0x3d9ac998	0.07557982
253	0x3f10a7ed	0.56506234
254	0x3e970f78	0.2950399
255	0xbe36e380	-0.17860222

encoder.layers.0.attention.w_v.bias f4 [16]
0	0xbd05db91	-0.032680098
1	0xbdb5e2df	-0.08881163
2	0xbd3b9d7e	-0.045804493
3	0x3df6bc4c	0.120476335
4	0xbe2c91ec	-0.1685254
5	0xbc70ad43	-0.014689746
6	0xbdf2836c	-0.11841473
7	0x3e323a0f	0.1740496
8	0x3cf3cdda	0.029761244
9	0xbe1ac741	-0.15115072
10	0x3df14b05	0.11781887
11	0x3e2e6cd0	0.17033696
12	0xbdfd57f4	-0.12370291
13	0xbe1c20d8	-0.15246904
14	0x3dbfcbde	0.093650565
15	0xbd4c31d3	-0.049852204

encoder.layers.0.attention.w_concat.weight f4 [16, 16]
0	0xbef39b52	-0.47579437
1	0xbdd7e740	-0.10542154
2	0x3eb313ac	0.34975946
3	0xbeaae275	-0.33375898
4	0xbf0000b2	-0.5000106
5	0x3e3f4312	0.18677929
6	0xbea6af48	-0.32555604
7	0x3e868b14	0.26277983
8	0xbed92a91	-0.42415288
9	0x3f10f7de	0.56628215
10	0x3e4567e9	0.1927792
11	0xbef555b8	-0.4791696
12	0xbefad758	-0.4899242
13	0x3e279d83	0.1636868
14	0x3f08d675	0.53452235
15	0xbe2eeddc	-0.17082924
16	0xbf0dfd70	-0.5546484
17	0x3efb63ad	0.49099484
18	0x3f0448e3	0.51673716
19	0x3f037865	0.5135558
20	0x3e26b871	0.16281296
21	0x3e3ff5fc	0.1874618
22	0xbac1045b	-0.001472603
23	0xbe9f04e7	-0.31058428
24	0x3e1146a2	0.141871
25	0xbee39007	-0.44445822
26	0xbe4117e4	-0.1885677
27	0xbe9c2068	-0.30493474
28	0xbebc43eb	-0.36770567
29	0xbf152aaf	-0.58268255
30	0xbee68234	-0.45021212
31	0xbd926593	-0.0714828
32	0x3deda2ee	0.11603342
33	0xbe038963	-0.12845378
34	0xbd4a2633	-0.049352836
35	0x3e308a91	0.17240359
36	0x3f0e1836	0.5550569
37	0xbe202277	-0.15638147
38	0x3ed5b02d	0.41735974
39	0x3e15c713	0.14626722
40	0x3db4320e	0.0879861
41	0xbed2b9a0	-0.41157246
42	0xbeb810c8	-0.35950303
43	0x3ea400c1	0.32031825
44	0x3e08af93	0.13348226
45	0x3f1d50bb	0.6145131
46	0x3ecb4f74	0.39709055
47	0x3d865190	0.065585256
48	0xbecef2ba	-0.4041956
49	0x3f020b65	0.50798637
50	0x3e3ddc37	0.18541037
51	0xbeb9b842	-0.3627339
52	0x3eb9c5c4	0.36283696
53	0xbc843f7f	-0.016143559
54	0xbf0afc2a	-0.5429102
55	0x3ed99401	0.4249573
56	0x3ecb3b01	0.39693454
57	0xbea5c9da	-0.32380563
58	0x3e6043da	0.21900883
59	0xbe66b049	-0.22528185
60	0xbe6e1a4e	-0.23252222
61	0x3e7bfcbc	0.2460813
62	0xbea13bad	-0.31490842
63	0xbdc9b543	-0.09849026
64	0x3a911e1c	0.0011071595
65	0xbd2b1092	-0.04176385
66	0xbf0e7acd	-0.5565613
67	0x3f023ab3	0.5087082
68	0x3e640a6a	0.22269598
69	0x3edbe4eb	0.42948088
70	0xbe651a33	-0.22373275
71	0xbed72388	-0.42019296
72	0x3e42e66a	0.19033208
73	0x3f0f431a	0.55961764
74	0xbce500e9	-0.027954536
75	0xbd317d3d	-0.043332327
76	0xbea4389c	-0.3207444
77	0xbf13286c	-0.57483554
78	0xbf081da0	-0.53170204
79	0xbcd008c0	-0.025394797
80	0x3e1e84b1	0.15480305
81	0xbe829cab	-0.25510153
82	0xbef7fce5	-0.4843513
83	0xbd647a1d	-0.05578052
84	0xbd200aea	-0.03907291
85	0x3ee589f9	0.44831827
86	0x3ee1bc95	0.4408919
87	0x3e60be0b	0.21947496
88	0x3e2d1083	0.1690083
89	0x3cea4bb0	0.028600544
90	0xbe25b384	-0.16181761
91	0xbe67737b	-0.22602646
92	0xbdfbf9f3	-0.123035334
93	0x3edb4dc9	0.42832783
94	0x3f105b57	0.56389374
95	0xbe587e73	-0.21141987
96	0x3ec997e6	0.39373702
97	0x3ef21f0d	0.47289315
98	0x3ea28972	0.31745487
99	0xbeea69ca	-0.45783836
100	0xbeb90ae7	-0.3614113
101	0xbeddfd47	-0.43357298
102	0xbf05c1df	-0.5224895
103	0xbc3e8b17	-0.011629841
104	0xbe748d21	-0.23881961
105	0x3de727e4	0.112869054
106	0xbe8c2bb5	-0.27377096
107	0x3efe123f	0.49623296
108	0x3ecd29b2	0.40070873
109	0xbec00391	-0.3750272
110	0x3d03ff39	0.03222582
111	0x3e2bfff9	0.16796865
112	0xbdcb0912	-0.099138394
113	0xbe54fd03	-0.20799641
114	0xbf0cb2e5	-0.5496047
115	0x3e2e65cc	0.1703102
116	0xbe552bb2	-0.2081745
117	0xbe2ecf32	-0.17071226
118	0x3f111726	0.56675947
119	0x3e71730c	0.23579043
120	0x3dae6573	0.08515444
121	0xbe30c4b3	-0.17262535
122	0x3ed0f1d3	0.40809497
123	0x3e733535	0.23750766
124	0x3dbc84af	0.09204995
125	0x3f0d721c	0.5525224
126	0x3c860202	0.01635838
127	0xbe653ba6	-0.22386035
128	0x3d7a5adb	0.061121803
129	0xbd08ca29	-0.03339592
130	0x3ec4ac54	0.38412726
131	0xbe3a5a8d	-0.18198605
132	0x3dd0b09a	0.10189934
133	0x3e34e3bd	0.17665
134	0x3de3c9ef	0.111225
135	0xbefb9c70	-0.4914279
136	0x3d5a1d75	0.05325075
137	0xbecba4c7	-0.39774153
138	0x3f0c8c04	0.54901147
139	0x3eed28e3	0.46320257
140	0xbee81151	-0.4532571
141	0xbe1204b8	-0.14259613
142	0xbed3a6dd	-0.41338244
143	0xbf05839b	-0.5215394
144	0x3eee2704	0.46514142
145	0xbeac2ac1	-0.3362637
146	0x3e847955	0.2587382
147	0xbe09ae02	-0.13445285
148	0xbdb65428	-0.0890277
149	0x3e5695a3	0.2095552
150	0x3e93d919	0.2887657
151	0xbc5366c7	-0.012902922
152	0x3e540a9b	0.2070717
153	0xbdbfcb90	-0.09364998
154	0xbbe05663	-0.0068462356
155	0x3eebe348	0.4607184
156	0xbe85f29e	-0.26161665
157	0x3c3df9cf	0.011595204
158	0xbe2bc5e4	-0.16774708
159	0xbe969230	-0.29408407
160	0x3e85c70a	0.26128417
161	0x3efb4613	0.490769
162	0xbe338779	-0.17532147
163	0xbd24d1e3	-0.040239226
164	0x3f111505	0.566727
165	0xbf01947e	-0.50617206
166	0xbde20792	-0.110366
167	0xbf09715d	-0.53688604
168	0xbd2efa14	-0.04271896
169	0x3e08f775	0.13375647
170	0x3ec7c81f	0.39019868
171	0x3c39429e	0.011307387
172	0xbea4cb3f	-0.32186314
173	0xbd78b68e	-0.060720973
174	0x3e30fbb6	0.1728352
175	0x3ef72afd	0.48274985
176	0xbe9bfccc	-0.30466306
177	0x3e671abf	0.22568797
178	0x3cd1ad81	0.025595428
179	0x3efb0b84	0.49032223
180	0xbeec994f	-0.46210715
181	0xbdcc81ea	-0.09985717
182	0xbee454f4	-0.44596064
183	0xbe1bbc37	-0.15208517
184	0xbe81ec0d	-0.25375405
185	0x3eb92b9f	0.36166093
186	0x3f01eaf7	0.5074915
187	0xbd26b47b	-0.040699463
188	0xbd778bea	-0.060436167
189	0xbefa3567	-0.48868868
190	0x3db99a5b	0.09062644
191	0xbca751db	-0.020424774
192	0x3ee76f7b	0.4520224
193	0x3d84d140	0.06485224
194	0xbedfe2e5	-0.43727794
195	0xbf1271cb	-0.57204884
196	0x3e15475b	0.14578001
197	0x3e75202a	0.23938051
198	0x3dbfd9b5	0.09367696
199	0xbe7d4d3a	-0.24736491
200	0x3ea6380b	0.32464632
201	0xbe53dc0b	-0.20689408
202	0xbe81f326	-0.2538082
203	0xbf0b7081	-0.5446854
204	0xbee18b35	-0.4405152
205	0xbecaead8	-0.39632297
206	0x3ed98c98	0.42490077
207	0xbec3a274	-0.3820988
208	0x3f03ad89	0.5143667
209	0x3dda34e5	0.1065462
210	0x3e9ee202	0.31031805
211	0x3df5df0d	0.12005434
212	0xbe32997f	-0.17441367
213	0xbeae54a2	-0.34048945
214	0xbf11b2e9	-0.5691362
215	0xbef121c6	-0.4709608
216	0x3ebd667c	0.36992252
217	0xbe1ee308	-0.15516293
218	0x3e9f8bb2	0.31161267
219	0xbee58107	-0.44825003
220	0xbdd79cdb	-0.10527965
221	0xbea327aa	-0.318662
222	0xbeec34ec	-0.46134126
223	0xbe64a733	-0.22329406
224	0xbd9dc885	-0.07704262
225	0xbe6907df	-0.22756909
226	0x3dc95971	0.09831513
227	0x3ebd1dfd	0.36936942
228	0xbebed945	-0.37275138
229	0xbef06b74	-0.4695698
230	0x3e1692f8	0.14704502
231	0xbe5fbce4	-0.218494
232	0xbe38e0c8	-0.18054497
233	0xbe81cd10	-0.25351763
234	0xbe814f18	-0.25255656
235	0xbe8f5eb6	-0.28001946
236	0xbeffa8a6	-0.49933356
237	0x3eaa4a5f	0.33259866
238	0x3ed938cc	0.42426145
239	0x3eebfd89	0.4609187
240	0x3e4257be	0.18978783
241	0xbd9d2836	-0.07673685
242	0xbea8e80c	-0.32989538
243	0x3e0f39ef	0.13986944
244	0xbb25ffa3	-0.0025329373
245	0x3d943a6b	0.07237705
246	0x3f0f340c	0.5593879
247	0xbde687ef	-0.11256396
248	0x3f189f2c	0.59617877
249	0xbdfe7428	-0.12424499
250	0x3de22138	0.11041492
251	0x3d8caad9	0.06868524
252	0x3f14ba74	0.58097005
253	0x3e58f5f9	0.21187581
254	0xbf054837	-0.52063316
255	0xbe1186db	-0.142116

encoder.layers.0.attention.w_concat.bias f4 [16]
0	0xbcf65b4e	-0.030072834
1	0xbe0737a8	-0.13204825
2	0xbe2435fd	-0.1603622
3	0xbd53736e	-0.051623754
4	0x3bb2b6a2	0.0054539004
5	0xbe3f2295	-0.18665536
6	0x3e11b3d9	0.14228763
7	0x3cf4a71a	0.029864836
8	0xbccb2ab0	-0.024800628
9	0xbdf400e5	-0.11914233
10	0x3cda66a0	0.026660264
11	0x3d742560	0.059605956
12	0xbd7090b8	-0.058731765
13	0xbdb1fb28	-0.086904824
14	0xbc8918c4	-0.016735442
15	0x3e0148ff	0.12625502

encoder.layers.0.norm1.gamma f4 [16]
0	0x3f7bd444	0.98370767
1	0x3f77518c	0.96608806
2	0x3f7376eb	0.9510333
3	0x3f78dc83	0.97211474
4	0x3f7a09f0	0.97671413
5	0x3f796720	0.9742298
6	0x3f78143f	0.96905893
7	0x3f7fff12	0.9999858
8	0x3f75e736	0.96055925
9	0x3f746676	0.95468843
10	0x3f7b19c0	0.98086166
11	0x3f765894	0.9622891
12	0x3f806e9c	1.0033755
13	0x3f7493aa	0.9553782
14	0x3f7851af	0.9699964
15	0x3f803f57	1.001933

encoder.layers.0.norm1.beta f4 [16]
0	0xbb44c203	-0.0030022867
1	0x3c23e2e0	0.010002822
2	0x3c16d4ca	0.009206006
3	0x3b56b5df	0.0032762212
4	0x3ba173e3	0.004927145
5	0xbb146d1c	-0.0022648042
6	0x3c337ec2	0.010955514
7	0xb9ebea08	-0.0004499706
8	0xbb97eba5	-0.0046362453
9	0xbbd2ebfb	-0.0064368225
10	0x3b461775	0.0030226384
11	0x3c00eb03	0.007868531
12	0x3bc56767	0.0060242894
13	0xbc8906e2	-0.016726915
14	0xbc1f222f	-0.00971274
15	0xbbacc4d8	-0.005272489

encoder.layers.0.ffn.linear1.weight f4 [64, 16]
0	0xbea45041	-0.3209248
1	0x3eb21b2a	0.3478635
2	0xbd2e5f5e	-0.042571418
3	0x3e807859	0.25091818
4	0xbba9191f	-0.0051604654
5	0xbe9a6970	-0.30158567
6	0x3eb5f08c	0.35535085
7	0x3e2d00b8	0.16894805
8	0x3d2e64ef	0.042576727
9	0xbedc5839	-0.4303606
10	0xbee3c2e3	-0.44484624
11	0xbcc1a642	-0.023638848
12	0xbeb8fccb	-0.36130366
13	0x3ea723f8	0.3264463
14	0xbec43190	-0.38319063
15	0xbedcb32f	-0.43105456
16	0xbdfb119a	-0.122592166
17	0xbd930b1d	-0.07179854
18	0xbee863be	-0.45388597
19	0xbf067132	-0.5251647
20	0xbed030ef	-0.40662333
21	0xbdef7944	-0.116930515
22	0x3c037cf2	0.008025395
23	0xbca2e395	-0.01988391
24	0xbda417f6	-0.08012383
25	0xbeb7847f	-0.35843274
26	0xbed3644e	-0.41287464
27	0xbdf92921	-0.12166048
28	0x3c300de9	0.010745504
29	0x3e5bb9de	0.21457621
30	0x3ea8d06a	0.32971507
31	0xbe073e14	-0.13207275
32	0xbf02bf04	-0.51072717
33	0x3f09a776	0.5377115
34	0x3e3d7986	0.18503389
35	0x3ec4dc1d	0.38449183
36	0xbe911693	-0.28337535
37	0x3d9dc0d8	0.07702798
38	0x3e6acb41	0.22929098
39	0x3ee6ea28	0.45100522
40	0x3f01c396	0.50689065
41	0xbf089654	-0.5335438
42	0xbb8712ac	-0.004122099
43	0x3d950b0a	0.07277496
44	0x3ecf6269	0.40504768
45	0xbeed04ae	-0.46292633
46	0xbeae0b14	-0.33992827
47	0xbea87e2c	-0.32908762
48	0xbe18ce72	-0.14922503
49	0xbd15fb2c	-0.03661649
50	0x3ecb2049	0.3967307
51	0xbedb6c24	-0.42855942
52	0x3e5ab19a	0.21356812
53	0xbec059e8	-0.37568593
54	0x3d3d31b4	0.04618998
55	0xbddc6aaf	-0.10762536
56	0x3ed1c2e0	0.4096899
57	0xbeffa848	-0.49933076
58	0xbdff1c4f	-0.12456571
59	0xbda7a37e	-0.081854805
60	0xbe9022e5	-0.28151622
61	0x3eba0547	0.3633215
62	0xbed898d9	-0.42304114
63	0x3e8e5330	0.27797842
64	0x3eea3d0b	0.45749697
65	0x3c8a7ce3	0.016905254
66	0x3e5c1b3a	0.21494761
67	0x3da0219f	0.07818913
68	0x3e101b8e	0.14073011
69	0x3cdad7f6	0.026714306
70	0xbd858823	-0.06520107
71	0x3e3979a7	0.18112813
72	0x3e35c23b	0.17749874
73	0xb953d5ee	-0.00020202223
74	0xbe706947	-0.2347766
75	0x3e4fc557	0.20290123
76	0x3e53d332	0.20686033
77	0x3e2ca401	0.16859438
78	0x3e6fae53	0.23406343
79	0x3eb67151	0.3563333
80	0xbf0cff3f	-0.55076975
81	0xbeb96dff	-0.36216733
82	0x3d2feac9	0.042948518
83	0xbe84a46a	-0.25906688
84	0x3d79fe28	0.061033398
85	0x3c47fca2	0.012206228
86	0xbe0075d0	-0.12544942
87	0x3f0754a5	0.5286353
88	0xbd169abd	-0.036768664
89	0x3f01e17a	0.50734675
90	0x3efe6cc0	0.49692345
91	0x3e82793e	0.25483125
92	0x3e433a4d	0.19065209
93	0x3eb02d34	0.34409487
94	0x3ecb7436	0.397371
95	0xbef34e5e	-0.47520727
96	0x3ecd80f6	0.40137452
97	0xbe1c9d3a	-0.15294352
98	0xbd871598	-0.065959156
99	0xbf0d6c32	-0.5524322
100	0xbe81d6f7	-0.25359318
101	0xbeed2ad5	-0.4632174
102	0x3ed65fb4	0.4186989
103	0x3ec4f2e4	0.3846656
104	0xbd853ad4	-0.06505361
105	0x3e98f3d5	0.2987353
106	0x3e297732	0.16549376
107	0xbea2db63	-0.31808004
108	0x3e80f04b	0.2518333
109	0x3e02381d	0.12716718
110	0x3e8dc5e8	0.27690053
111	0x3e9a3fc1	0.30126765
112	0xbf01dc03	-0.50726336
113	0x3f054af3	0.5206749
114	0x3ea34c73	0.31894264
115	0x3ef40cc0	0.47665977
116	0xbed53b77	-0.4164693
117	0x3ef6bd80	0.48191452
118	0xbea438f2	-0.32074696
119	0xbe687e13	-0.22704343
120	0x3e8b5c7e	0.27219003
121	0xbed07f16	-0.4072196
122	0x3e56a9f5	0.20963271
123	0xbddf74e6	-0.109109685
124	0xbee1f327	-0.44130823
125	0xbf059725	-0.52183753
126	0xbeca7efb	-0.39550003
127	0xbf124202	-0.5713197
128	0x3e4a8cf6	0.19780335
129	0x39e4d363	0.00043645044
130	0xbeec4080	-0.4614296
131	0x3e40483d	0.18777557
132	0xbed81914	-0.42206633
133	0xbe82524e	-0.25453418
134	0xbea6f13e	-0.32605928
135	0x3e285752	0.1643956
136	0xbe5167dc	-0.20449775
137	0xbf0056aa	-0.5013224
138	0x3e5181e0	0.204597
139	0x3eb754ba	0.3580683
140	0x3ee987db	0.45611462
141	0x3e899c8b	0.26877245
142	0x3ecf581d	0.40496913
143	0x3e9863e2	0.29763705
144	0xbe2ecf47	-0.17071258
145	0xbe86a6e9	-0.26299217
146	0xbe9fa97a	-0.31183988
147	0xbe747f0f	-0.23876594
148	0x3e27760b	0.16353624
149	0x3e317822	0.17330983
150	0x3d7acf50	0.061232865
151	0x3ddd7b4f	0.10814535
152	0xbd009c21	-0.031398896
153	0x3e4334c2	0.19063094
154	0x3dd8c70d	0.10584841
155	0x3ed95ce2	0.42453676
156	0xbe8dc635	-0.27690282
157	0x3de7e15a	0.11322279
158	0x3e11fcec	0.14256638
159	0x3ea216f2	0.3165813
160	0x3ea33129	0.31873444
161	0x3e9a012c	0.3007902
162	0x3e842129	0.2580655
163	0xbf0289bb	-0.5099141
164	0xbde7a3b3	-0.1131052
165	0xbe044b61	-0.1291938
166	0x3eb4bd09	0.35300472
167	0xbedbbe29	-0.42918518
168	0xbd8809f4	-0.066425234
169	0x3e9f03ab	0.31057486
170	0x3e294537	0.1653031
171	0x3dce677a	0.1007833
172	0xbe0b6cc6	-0.13615713
173	0xbf093090	-0.53589725
174	0x3d57b290	0.052660525
175	0x3ee88fd1	0.45422223
176	0xbe91d76b	-0.28484663
177	0xbe21db2c	-0.15806264
178	0xbd9e6870	-0.077347636
179	0x3e7dc21f	0.24781083
180	0x3c896331	0.016770931
181	0x3e54341e	0.20723006
182	0x3eda85c5	0.42680183
183	0xbeacf0bb	-0.33777413
184	0x3e3cc0bc	0.18432897
185	0x3ee41e66	0.44554442
186	0xbe2ea4ee	-0.17055103
187	0x3d84d29c	0.06485483
188	0xbeb3b77f	-0.35100934
189	0x3d441cfc	0.047879204
190	0x3d35a952	0.04435093
191	0x3eb0e832	0.3455215
192	0x3ea2c03f	0.31787297
193	0x3e1779e2	0.14792588
194	0x3d6bb109	0.05754188
195	0xbedf4667	-0.436084
196	0x3ea987c5	0.33111396
197	0xbe93e036	-0.28881997
198	0x3e8c28dc	0.27374923
199	0x3ef05bcd	0.46945038
200	0x3e7750e4	0.24151951
201	0x3d821f63	0.06353643
202	0xbd15e137	-0.036591735
203	0xbdbbd50a	-0.09171493
204	0x3e929c0b	0.28634676
205	0x3ec1ecea	0.37876064
206	0x3e8a7c43	0.2704793
207	0x3ea3a9b9	0.31965426
208	0xbee864b8	-0.45389342
209	0xbef1f007	-0.4725344
210	0xbd846e81	-0.064663894
211	0x3e2ae773	0.16689853
212	0x3f036319	0.51323086
213	0x3e36b472	0.17842272
214	0xbed475eb	-0.41496214
215	0x3f051d88	0.51998186
216	0x3ea3a918	0.31964946
217	0xbdc2c4fd	-0.09510229
218	0xbf007b5f	-0.5018825
219	0xbd00ae2e	-0.03141611
220	0x3be7db95	0.0070757368
221	0x3c873357	0.016503973
222	0x3e7df1fe	0.24799344
223	0xbe10386d	-0.14084025
224	0xbde50018	-0.111816585
225	0xbe68dcb5	-0.22740443
226	0xbc107b38	-0.00881844
227	0xbdf5fa40	-0.12010622
228	0xbdccf6f3	-0.10008039
229	0x3ecf3ad6	0.40474576
230	0xbeded3fe	-0.43521112
231	0xbeb98561	-0.36234573
232	0x3e561456	0.20906195
233	0x3acad0c5	0.0015473595
234	0xbeacd021	-0.3375254
235	0xbefd799f	-0.49506852
236	0xbe5ad407	-0.21369945
237	0xbd53c5af	-0.051702198
238	0xbda2b0ea	-0.079439
239	0xbf12deac	-0.5737102
240	0x3db54ba5	0.08852319
241	0x3e2ded07	0.1698495
242	0x3e668454	0.22511417
243	0xbe090748	-0.13381684
244	0x3d121c54	0.035671547
245	0x3d78bcd6	0.060726963
246	0xbddc4326	-0.10754995
247	0xbe8b06a3	-0.271535
248	0x3ddb3f8e	0.107054815
249	0xbe52a345	-0.20570095
250	0x3e4fd5a2	0.20296338
251	0x3ee4ee0a	0.4471286
252	0x3ec65d60	0.38743114
253	0xbeb1565d	-0.34636202
254	0xbf12d76d	-0.57359964
255	0xbe63e4f0	-0.22255301

encoder.layers.0.ffn.linear1.bias f4 [64]
0	0xbe21b730	-0.15792537
1	0xbde6d4e6	-0.11271076
2	0xbe53c896	-0.20681986
3	0x3e716124	0.23572212
4	0x3c1263dd	0.008934942
5	0x3e027d79	0.12743177
6	0x3da5282d	0.080643035
7	0x3db45779	0.088057466
8	0xbc69044e	-0.014222218
9	0x3e29b7d5	0.16574033
10	0xbda317e0	-0.07963538
11	0xbd20a44e	-0.039219193
12	0x3d62ef1a	0.055403806
13	0xbe143745	-0.14474209
14	0x3d8868cc	0.066606134
15	0xbe71e78b	-0.23623483
16	0xbdbdeae7	-0.0927332
17	0x3dde5259	0.1085555
18	0x3e32eacd	0.17472382
19	0xbd8a16cd	-0.0674263
20	0xbe3ca17b	-0.18420975
21	0x3e223746	0.15841398
22	0x3ddbff24	0.107420236
23	0xbdbf3b6f	-0.09337508
24	0x3cd2c2bf	0.025727628
25	0xbd9a7273	-0.07541361
26	0x3e012177	0.12610422
27	0x3e4d1a48	0.20029557
28	0x3e0973e3	0.13423114
29	0x3e44ac35	0.19206317
30	0xbda2d452	-0.07950653
31	0xbe2cd700	-0.16878891
32	0xbe098679	-0.13430203
33	0xbe52b3fa	-0.20576468
34	0xbe58181f	-0.21102951
35	0x3d2829a6	0.041055344
36	0xbdcf0f11	-0.101102956
37	0x3e552d31	0.2081802
38	0xbe36eaf6	-0.17863068
39	0xbe390772	-0.18069246
40	0x3e5e2a19	0.21695746
41	0xbd8c5161	-0.06851459
42	0x3e44b5bb	0.1920995
43	0xbe37051d	-0.17873044
44	0x3e11de8a	0.14245048
45	0xbac6243c	-0.0015117
46	0x3e760ca5	0.24028261
47	0x3db43b4f	0.08800375
48	0x3def9ead	0.11700187
49	0x3d2d7918	0.042351812
50	0x3e507ef7	0.20360933
51	0x3e5937f4	0.2121275
52	0x3e4fc81a	0.20291176
53	0xbde678e6	-0.11253528
54	0x3d5ca85d	0.0538715
55	0xbd134ef7	-0.03596398
56	0x3b81e89b	0.0039644963
57	0xbe6b69d5	-0.2298959
58	0x3d2a20c3	0.04153515
59	0xbe0392a8	-0.12848914
60	0xbe24f7ff	-0.16110228
61	0xbd5a2b6d	-0.05326407
62	0xbdc142b3	-0.0943655
63	0xbdd7f16f	-0.10544097

encoder.layers.0.ffn.linear2.weight f4 [16, 64]
0	0xbe8bd91e	-0.27314085
1	0x3ba3c5d4	0.004997948
2	0xbe7c8316	-0.2465938
3	0x3d07a81e	0.033119313
4	0x3d973f0b	0.07385071
5	0xbe1f79e1	-0.15573837
6	0xbe8a1f06	-0.26976794
7	0xbe746709	-0.2386743
8	0xbe699240	-0.22809696
9	0xbe4b0414	-0.19825774
10	0x3cf2ddc8	0.02964677
11	0x3d8f69dc	0.07002613
12	0x3e814cb9	0.25253847
13	0xbe775bfa	-0.2415618
14	0xbe464797	-0.19363247
15	0xbccf7e6c	-0.025328837
16	0x3df1c0aa	0.11804326
17	0xbe93d6e9	-0.288749
18	0x3e540677	0.20705591
19	0xbdefa949	-0.117022105
20	0xbd8572e9	-0.06516058
21	0xbe67f054	-0.22650272
22	0xbe80a67f	-0.25127026
23	0x3e807ae2	0.25093752
24	0x3e5a1d04	0.21300131
25	0xbc8fbbde	-0.017545637
26	0x3a2c33ad	0.00065689796
27	0xbe8518d3	-0.25995502
28	0xbe843e3c	-0.2582873
29	0xbd97be53	-0.07409348
30	0xbe6b6d61	-0.22990943
31	0x3e6471db	0.22309057
32	0xbe1a79cc	-0.15085524
33	0x3e0e46ed	0.13894244
34	0xbd3cdee6	-0.04611101
35	0xbd704d4e	-0.058667473
36	0x3ddac911	0.106828816
37	0x3dce8f24	0.10085896
38	0x3d9671ec	0.073459476
39	0xbe33908e	-0.17535612
40	0x3e813d87	0.25242254
41	0x3e59a965	0.21256025
42	0xbd5dbd0a	-0.05413536
43	0xbe47060d	-0.19435902
44	0x3dbd5ecc	0.09246597
45	0xbdb0f67b	-0.086407624
46	0xbc479f4a	-0.012183974
47	0x3e99a2ce	0.30007023
48	0x3e083be3	0.13304095
49	0xbccb707f	-0.024833916
50	0x3e42ad8e	0.19011518
51	0x3d379616	0.044820867
52	0xbe405c5d	-0.18785234
53	0xbe2a6794	-0.16641074
54	0xbd463847	-0.048393514
55	0xbe28c79d	-0.16482396
56	0x3e1d77ae	0.15377685
57	0x3c86f745	0.01647533
58	0x3de28be4	0.11061838
59	0x3dc1b003	0.094574
60	0xbdec06fa	-0.11524768
61	0x3c9d6ef8	0.019217953
62	0x3e6d67e0	0.23184156
63	0xbdd768ec	-0.10518059
64	0xbe5292e2	-0.20563844
65	0x3e6d2a87	0.23160754
66	0x3e1e39e6	0.15451774
67	0xbdf0f9f3	-0.11766424
68	0xbe4a178e	-0.19735548
69	0x3d5129c1	0.05106521
70	0x3e456ff7	0.19280992
71	0x3e546c88	0.20744526
72	0xbe82f5f5	-0.25578275
73	0x3e61cc50	0.22050595
74	0xbe49fb8b	-0.19724862
75	0xbc898063	-0.016784852
76	0x3e344937	0.17606054
77	0xbe55456d	-0.20827265
78	0x3dd16fac	0.10226378
79	0x3e91e451	0.28494504
80	0x3e7e4433	0.24830703
81	0xbe730403	-0.23731999
82	0xbe0ae330	-0.13563228
83	0xbe95138f	-0.29116485
84	0xbe3a19d9	-0.18173923
85	0x3e62a5ff	0.22133635
86	0xbd5ee0d4	-0.05441363
87	0x3e7dcc81	0.24785043
88	0xbb861cc4	-0.0040927846
89	0xbd8c2a0b	-0.068439566
90	0xbdb8641e	-0.09003471
91	0xbe81950e	-0.25309032
92	0xbe83d83d	-0.25750914
93	0x3e8d7462	0.27627856
94	0x3e8ec23a	0.27882558
95	0x3d4fc43e	0.05072426
96	0x3e1a7ca4	0.15086609
97	0xbe8aa017	-0.27075264
98	0xbe5758d1	-0.21029975
99	0x3e192462	0.14955285
100	0x3d99bd27	0.07506781
101	0x3e78a1ae	0.24280426
102	0xbdbfc271	-0.09363259
103	0xbe5e1b53	-0.21690111
104	0x3e4e081c	0.20120281
105	0xbe8ec207	-0.27882406
106	0xbe0925aa	-0.13393274
107	0x3e29c00f	0.16577171
108	0xbe920bce	-0.2852463
109	0xbd99a34d	-0.0750185
110	0x3e48b2c6	0.19599447
111	0xbd900d7c	-0.07033822
112	0x3e8d741c	0.27627647
113	0xbd9ba5c4	-0.07599977
114	0x3db5d902	0.088792816
115	0x3e05fefc	0.1308555
116	0x3e929733	0.2863098
117	0x3e863dfc	0.26219165
118	0x3e2add64	0.16686016
119	0x3e532a3b	0.20621578
120	0x3e4e4729	0.20144333
121	0x3e783713	0.24239759
122	0xbdaa6c25	-0.08321408
123	0x3d806be0	0.062705755
124	0x3bfd0af0	0.007722251
125	0xbe8d8a75	-0.27644697
126	0x3dd0191f	0.101610415
127	0xbe1f47fd	-0.15554805
128	0xbe5c47a3	-0.21511702
129	0xbd4da6f4	-0.050208047
130	0xbe6bcd36	-0.230275
131	0x3e1fd1a5	0.15607317
132	0xbe02417c	-0.12720293
133	0xbe352ec2	-0.17693618
134	0x3c344099	0.011001729
135	0xbe4a07c5	-0.19729526
136	0x3e7082d4	0.23487407
137	0xbe0277f1	-0.12741067
138	0xbe12c646	-0.14333448
139	0xbe3c3439	-0.18379296
140	0xbda50062	-0.08056714
141	0xbd8dc38b	-0.069220625
142	0x3d8b4909	0.0680104
143	0xbc987962	-0.018612567
144	0x3e214f5c	0.1575293
145	0x3db523db	0.088447295
146	0x3d6eab05	0.058268566
147	0xbd638d57	-0.055554714
148	0xbe80293d	-0.25031462
149	0x3e2e3c66	0.17015228
150	0x3e0f24ae	0.13978836
151	0x3d2ba0b1	0.041901294
152	0xbd73e7d9	-0.05954728
153	0xbce3ea8b	-0.0278218
154	0xbe92426a	-0.28566295
155	0xbe13dccb	-0.14439695
156	0xbe069f4f	-0.13146709
157	0xbe9aff11	-0.30272725
158	0x3de8b04f	0.11361753
159	0xbd786824	-0.06064619
160	0x3bb1e78f	0.0054292153
161	0xbe0ba7e2	-0.13638261
162	0x3e5dcd49	0.21660341
163	0x3e4f83f0	0.20265174
164	0xbe4a6bf0	-0.19767737
165	0x3e026fdf	0.12737988
166	0xbcc0de18	-0.023543403
167	0x3df58e75	0.11990062
168	0xbd4301d8	-0.04760918
169	0xbe6e4149	-0.23267092
170	0x3e669993	0.22519521
171	0x3c61f70d	0.013791812
172	0x3e4bf215	0.19916566
173	0x3d5ed8a3	0.05440582
174	0x3e97de56	0.29661816
175	0x3e16cd8a	0.14726844
176	0xbd950df5	-0.07278053
177	0xbe26aa20	-0.16275835
178	0x3db5d6f1	0.088788874
179	0x3d828d7b	0.063746415
180	0xbdad44b5	-0.084603705
181	0x3dfccf66	0.123442456
182	0x3e0ec25f	0.13941334
183	0xbe4e217f	-0.20129965
184	0xbdbc9b54	-0.09209314
185	0xbd9c65a6	-0.076365754
186	0x3d8b5475	0.06803218
187	0x3ded5096	0.11587636
188	0xbe777aa5	-0.24167879
189	0xbe52f417	-0.20600925
190	0x3e8e5a20	0.27803135
191	0x3e8ebe69	0.27879646
192	0xbd91099d	-0.07081912
193	0xbe46ded5	-0.19420941
194	0x3ae06f85	0.0017123079
195	0x3e84bc5a	0.2592495
196	0x3e64766d	0.22310801
197	0x3db92bed	0.09041581
198	0x3e3c9b20	0.1841855
199	0x3cad6ac7	0.02116908
200	0x3e46bf37	0.1940888
201	0xbd2dab73	-0.042399835
202	0xbd9e670e	-0.077345
203	0x3dbe11e5	0.09280757
204	0x3e8e9064	0.27844536
205	0xbe85abb4	-0.26107562
206	0xbe264424	-0.16236931
207	0x3e264c9c	0.16240162
208	0xbd4e266d	-0.050329614
209	0xbd0c1a7b	-0.03420494
210	0xbe7afe28	-0.24511015
211	0xbdcd30cc	-0.10019073
212	0x3de50bea	0.11183913
213	0xbe3d6e7b	-0.18499176
214	0xbe735d05	-0.23765953
215	0xbe76888f	-0.2407553
216	0xbbfc834f	-0.007706083
217	0x3e88f2ba	0.26747686
218	0xbe91584b	-0.28387675
219	0xbd8e0f4b	-0.06936511
220	0x3dd6656c	0.104685634
221	0x3e93fa5d	0.2890195
222	0xbda0a89d	-0.078446604
223	0x3e111cc2	0.14171126
224	0xbad14b9d	-0.0015967969
225	0xbe53a2be	-0.2066755
226	0x3d8f17a7	0.06986933
227	0x3d8cb28b	0.06869992
228	0xbe5b0299	-0.2138771
229	0xbe87b517	-0.26505348
230	0x3e8600f9	0.26172617
231	0xbe80458e	-0.25053066
232	0xbe4d8da1	-0.20073558
233	0x3e7df8e2	0.24801973
234	0xbe424b60	-0.18974066
235	0xbdb300bf	-0.08740377
236	0xbe5ae86a	-0.21377721
237	0x3e3fdad9	0.18735828
238	0xbe8c6fd0	-0.27429056
239	0xbe79a0c5	-0.24377735
240	0x3e8b8f08	0.27257562
241	0x3d9f821b	0.077884875
242	0xbc3f0ce8	-0.011660792
243	0x3e88667d	0.26640692
244	0xbe223a92	-0.15842655
245	0x3e86711b	0.26258168
246	0x3dd92222	0.106022134
247	0x3e663e66	0.2248474
248	0xbd91c26e	-0.07117163
249	0x3d613f75	0.054992158
250	0xbe00b633	-0.12569503
251	0x3e0e2d20	0.13884401
252	0x3dd3d37a	0.1034307
253	0x3dbf841f	0.09351372
254	0xbe7fbdef	-0.24974798
255	0xbe34252e	-0.17592308

encoder.layers.0.ffn.linear2.bias f4 [16]
0	0x3c8c58cb	0.017132184
1	0x3d5b34b2	0.05351705
2	0x3dbdce83	0.092679046
3	0xbda9eca9	-0.082970925
4	0xbd8de87c	-0.069291085
5	0xbdb9ff25	-0.09081868
6	0x3ddd689e	0.1081097
7	0x3cb973c8	0.022638217
8	0x3d11c66e	0.035589628
9	0xbc4d1663	-0.012517544
10	0x39dc8df3	0.0004206743
11	0x3d8ca070	0.068665385
12	0xbc91401b	-0.017730763
13	0x3cdcf91f	0.026974259
14	0x3d9270d9	0.0715043
15	0xbbbd4295	-0.0057757595

encoder.layers.0.norm2.gamma f4 [16]
0	0x3f7c4449	0.98541695
1	0x3f80cebe	1.0063093
2	0x3f7a566e	0.9778813
3	0x3f8044e8	1.0021029
4	0x3f79cbdd	0.97576696
5	0x3f7d7586	0.9900745
6	0x3f803891	1.0017263
7	0x3f80df63	1.0068172
8	0x3f7a2e81	0.9772721
9	0x3f7b6c62	0.98212254
10	0x3f7ca2e7	0.9868607
11	0x3f6fb0f0	0.9362936
12	0x3f7c7072	0.9860908
13	0x3f71d274	0.9446175
14	0x3f7c5e59	0.98581463
15	0x3f7f2c94	0.99677396

encoder.layers.0.norm2.beta f4 [16]
0	0x3aa9e6f5	0.0012962507
1	0x3a280847	0.0006409925
2	0xbc28b7c9	-0.010297724
3	0xbba57a04	-0.005049946
4	0x3a91721a	0.0011096627
5	0x38262729	3.9613955e-05
6	0x3b43dbe6	0.0029885708
7	0xbc7d2f32	-0.015453147
8	0xbb3aa6f3	-0.0028480857
9	0x3a545a43	0.0008100608
10	0xb934f013	-0.00017255572
11	0x3abfa299	0.0014620601
12	0x3b9acbcc	0.0047240015
13	0xbb8b2f53	-0.004247585
14	0xbb6d9f64	-0.0036258334
15	0xba0aea97	-0.0005299239
