Trans_Prediction/model_saved/ratioMergedPrs/TM_ratioMergedPrs_delay_size_8_delay_9.pth (torch, 385400 bytes, 337 tensors)

encoder.layers.0.attention.w_q.weight f4 [16, 16]
000000 d5 a9 2c 3e 65 7b d5 3e be 0a a3 3e 91 c1 c3 be
       0.16861661 0.41695705 0.31844133 -0.38233617
000010 26 cc b8 be d6 af 9f 3e b6 9c f1 be 63 7c 16 bf
       -0.36093253 0.3118884 -0.47189873 -0.5878355
000020 a3 e4 d1 3e c6 17 75 bd e1 39 49 3e 58 10 f3 be
       0.40994748 -0.059837125 0.19650985 -0.47473407
000030 38 e2 95 3e 56 33 75 be e5 e2 1f 3d 1c 28 d4 3e
       0.29274154 -0.23945364 0.039034743 0.4143685
000040 24 62 ea 3d 50 0c 9d be 7c bc 1f be 77 bd ed 3d
       0.114445 -0.30673456 -0.15599245 0.11608403
000050 cd 32 14 bf 7c f4 00 bf 17 fa 98 be b5 ce 9b be
       -0.57890016 -0.50373054 -0.29878303 -0.30431142
000060 3c 28 f3 3e ed f8 23 3e 24 6d 3b be aa 47 1a 3f
       0.47491634 0.16012926 -0.18303353 0.602656
000070 66 10 05 bd 8d 9e d9 3e c0 4a 8c be 07 fd 97 be
       -0.032486342 0.42503777 -0.2740078 -0.29685232
000080 53 83 e1 bd d6 fd b5 bd fb 8d d6 3d 36 76 af be
       -0.11011376 -0.08886306 0.104762994 -0.34269875
000090 0a 23 69 be 46 3d 0a 3f 92 d5 93 be e0 a0 b1 be
       -0.22767273 0.53999746 -0.2887388 -0.3469305
0000a0 ce 3d fe be 30 2e dd bd ae 18 89 be e2 47 15 3f
       -0.49656528 -0.10799825 -0.26776642 0.5831281
0000b0 25 7f f5 3e e6 b1 88 3b 21 07 11 3e ce a7 01 bd
       0.47948566 0.004171598 0.14162876 -0.03165417
0000c0 73 23 df 3d 14 67 3e be 22 b6 ef 3e 7e 18 16 3f
       0.10895433 -0.18594009 0.46818644 0.5863112
0000d0 2a 4f 09 bd 43 69 93 3d 1d ec de be a0 22 10 be
       -0.033522762 0.071978115 -0.43539515 -0.14075708
0000e0 e9 28 40 bc 4c 25 11 bf b0 ff f5 3e 4d b5 68 3e
       -0.011728504 -0.56697536 0.48046637 0.22725411
0000f0 30 18 1a bf e0 d9 dc be a1 bc 17 bc 01 5f d7 be
       -0.6019316 -0.43134975 -0.009261281 -0.4206467
000100 2e 5b 59 be fb 57 ba 3e 64 d8 b0 3e e6 66 8b be
       -0.21226189 0.3639525 0.34540093 -0.27226943
000110 26 dd e3 bd 47 f4 16 3f c2 a4 b4 bc 25 98 d4 3e
       -0.11126165 0.5896649 -0.022051219 0.41522327
000120 a7 cc ee 3e 16 e2 f0 3e b2 b2 1a 3f 0f ed fd be
       0.46640512 0.4704749 0.6042892 -0.49594924
000130 01 31 fd bd f0 ef b0 be 3c 0d 0c bf 89 f3 55 3e
       -0.123628624 -0.34558058 -0.54707694 0.20893683
000140 fa 3d d9 3e 0f 06 01 bf 4b 78 0f 3f ad bc 33 3d
       0.42430097 -0.5039987 0.5604293 0.043881107
000150 5b d7 04 be 24 86 00 3f d1 7a fb be 93 39 a3 bc
       -0.12972777 0.5020468 -0.4911714 -0.019924914
000160 55 5a 72 be 6e 4a fa 3e b1 e4 53 3e ae 32 46 be
       -0.23667271 0.4888491 0.20692708 -0.1935527
000170 62 dc b8 3e 12 0f 0b 3f a2 bd f7 be 59 55 1b 3f
       0.3610564 0.5431987 -0.48386866 0.60677105
000180 ce d7 7b 3e 32 78 9e 3d 66 96 a2 3e d6 71 32 be
       0.24594042 0.07737769 0.3175537 -0.17426237
000190 67 6b 61 be 66 89 d0 be 10 79 e7 3e dc be bc be
       -0.22013627 -0.40729827 0.4520955 -0.36864364
0001a0 f2 3e db be 10 31 12 3f a7 d3 3a be cf fe 40 be
       -0.4282146 0.57106113 -0.18244801 -0.18847202
0001b0 4e dc b5 3e d5 98 ca bd 3c 01 47 bd 5b a9 61 be
       0.35519642 -0.09892432 -0.04858516 -0.2203726
0001c0 56 f1 95 3e 96 b1 f9 bb 8a 47 ce be 16 19 07 bf
       0.29285687 -0.007620047 -0.40288955 -0.52772653
0001d0 45 9b 5c be d0 d2 27 bc 51 10 ec 3d 57 de 0d bf
       -0.21543606 -0.010243133 0.115265496 -0.5541739
0001e0 2d 7d cd 3e 58 1f 00 bf 69 ef f3 3e e7 29 54 be
       0.40134564 -0.50047827 0.47643593 -0.2071911
0001f0 31 f7 75 be df 6c 97 be 55 13 9a be 9f c3 e8 be
       -0.24020077 -0.2957525 -0.30092874 -0.45461747
000200 4a 18 4c 3d 8b fe d5 be 1f 00 8a be ae 86 f0 3e
       0.04982785 -0.41795763 -0.26953217 0.46977752
000210 28 c1 dc bb 92 6c e3 be ea d5 6b 3e 4f d8 3b be
       -0.006736893 -0.4441877 0.2303082 -0.18344234
000220 fd ba 48 3e fd a0 1e be 00 c4 f3 3d 6a 15 1a 3f
       0.1960258 -0.154911 0.119026184 0.60188925
000230 44 de c7 bb a5 77 02 3d f5 06 a1 3c c3 84 4f 3e
       -0.006099494 0.031852383 0.019656638 0.20265488
000240 72 d8 04 bf d3 ac f9 3e 54 f8 f0 3c ed 4f 04 3f
       -0.5189277 0.48764667 0.029415287 0.5168446
000250 10 c1 de bc e3 e2 7d 3e 31 13 f5 be 15 ff f6 be
       -0.027191669 0.24793582 -0.47866204 -0.48241487
000260 96 08 a4 be 3f 85 0e 3f 31 a1 fb 3e 88 78 0d 3f
       -0.320378 0.5567207 0.49146417 0.5526204
000270 44 7e ae 3d ea c6 88 3c d4 66 b4 3e df 23 c2 3e
       0.08520177 0.016696412 0.35234702 0.37917992
000280 fb a1 6d be 59 72 1e 3f 81 70 9c 3e e9 62 06 bf
       -0.23206322 0.6189323 0.30554584 -0.52494675
000290 40 8d 1e 3f ed c5 11 3f 77 65 2e 3e bf ab 32 bc
       0.6193428 0.56942636 0.17030893 -0.010905205
0002a0 6a 3b 12 be de 35 e9 3e 72 cd af 3d de 5c 2d be
       -0.14280477 0.4554891 0.085841075 -0.16929957
0002b0 5b 19 18 3f c1 50 ce 3d 82 3a 38 be 6e ff b2 3e
       0.5941369 0.10073996 -0.17991069 0.34960502
0002c0 9c 83 cc 3e 0d a5 f2 be 85 cd b9 3e d2 df 98 be
       0.3994416 -0.4739155 0.3628961 -0.2985826
0002d0 0b 8f 90 be 4c 9f 94 3e 5d e1 c3 be 1d a6 ed be
       -0.28234133 0.29027784 -0.38257876 -0.46415797
0002e0 a0 5d d2 3e fb 79 b6 be f9 05 89 be 2f 85 0c be
       0.41087055 -0.3563994 -0.2676237 -0.1372268
0002f0 74 91 ed be 9d 72 3f bc ab 49 70 bc f2 bf b0 be
       -0.46400034 -0.011685041 -0.014666001 -0.34521443
000300 93 96 3b 3e b9 74 f6 3e 22 15 17 3e 07 c0 a9 be
       0.18319158 0.48135927 0.14754155 -0.33154318
000310 14 e4 82 be ed 35 94 be 18 df cc be 1b db 24 be
       -0.25564635 -0.28947392 -0.40013957 -0.16099207
000320 04 27 03 bf a0 1f cd be c1 bf 1a bf b4 5c 8a be
       -0.5123141 -0.4006319 -0.60448843 -0.27023852
000330 af e1 f2 bb e6 14 86 be 7f 44 c3 be 42 4e ba be
       -0.0074121575 -0.2618782 -0.38138196 -0.3638783
000340 ff 23 5b be a4 ba a2 be 7e a8 5a be 26 39 0d 3d
       -0.2140045 -0.3178302 -0.21353337 0.03447833
000350 6a a0 cb be b6 47 bc be 35 4c ba be 18 a4 34 3b
       -0.39770824 -0.3677346 -0.36386266 0.0027563628
000360 e1 74 0e bf 9f 60 0d bf 7b 7e 54 be 62 2f d9 3e
       -0.55647093 -0.5522556 -0.20751373 0.42418963
000370 ef 9c 15 3e 0b 8f 63 3e 90 ca c5 be 10 7d 79 3e
       0.14610647 0.22222535 -0.38631105 0.24364114
000380 b1 0a eb 3e 46 b4 0e 3f c1 48 e8 be 25 a8 9b be
       0.45906594 0.55743825 -0.45368007 -0.30401722
000390 41 44 02 3f d5 e1 87 3e 02 af d4 be 26 ad 9b be
       0.508854 0.26539484 -0.4153977 -0.3040554
0003a0 8c fd 77 bd 25 dd c5 3c ce f8 cd bd a1 8b 13 bf
       -0.060544536 0.024153301 -0.10057221 -0.5763493
0003b0 a5 d0 5b be 0e 13 08 be b5 7f 98 bd 68 31 96 be
       -0.2146631 -0.13288519 -0.07446233 -0.2933457
0003c0 66 4e 42 be fa 7c df be 5b 56 d5 be b0 ad 04 bf
       -0.18975219 -0.43650037 -0.41667446 -0.51827526
0003d0 d9 56 fd 3e 5e 1a dd 3e 65 be f4 be 77 12 a5 3e
       0.49480322 0.4318418 -0.4780151 0.3224065
0003e0 42 f8 14 3f d5 02 34 be 34 e3 2a 3e 15 a5 e0 3e
       0.5819131 -0.17579205 0.16688234 0.43875948
0003f0 d6 c3 5b 3e f7 54 2c be da f5 4a 3e 1a d8 00 3f
       0.21461424 -0.16829287 0.19820347 0.50329745

encoder.layers.0.attention.w_q.bias f4 [16]
000000 24 b5 44 3d c7 74 d0 3d be d7 59 be 64 b8 26 3e
       0.04802431 0.101785235 -0.21273705 0.16281277
000010 66 f7 28 be 28 49 24 be 28 76 ef 3d fd dd 44 3e
       -0.16500625 -0.16043532 0.116924584 0.19225307
000020 17 bf a9 bc 14 67 6d bd 9b 34 1c 3b 02 8c f6 bd
       -0.020721002 -0.05795963 0.0023835066 -0.12038423
000030 2a f7 46 be 66 d7 ea bd 46 55 82 bd d9 2a d1 bd
       -0.19430223 -0.11466865 -0.06363921 -0.10213251

encoder.layers.0.attention.w_k.weight f4 [16, 16]
000000 53 b7 04 3f bf 68 04 bf 48 61 06 be c6 36 a9 3e
       0.5184223 -0.5172233 -0.13123047 0.330496
000010 bd 67 eb 3e 37 a1 f9 3e 10 90 eb be e7 f0 04 3e
       0.45977584 0.4875581 -0.46008348 0.12982522
000020 af 3f 3a 3e 70 62 86 be 42 6f 6a be 75 af b1 be
       0.18188356 -0.26246977 -0.22894004 -0.34704176
000030 d2 8f 13 3f 71 e2 ab 3e 5a e9 48 3e fc ea e1 be
       0.5764133 0.335712 0.19620267 -0.4412459
000040 4f b7 92 be 29 6b 06 bf af 89 16 3f 28 22 b2 3d
       -0.28655478 -0.52507263 0.5880384 0.08697921
000050 d3 ad 80 bd 79 0a 14 bc bf e2 07 3b 0e 29 dd be
       -0.06283154 -0.0090357 0.0020734516 -0.43195385
000060 7c 11 05 bf 77 64 03 3f 63 1c 16 be 31 a8 bc bd
       -0.51979804 0.5132517 -0.14659266 -0.092117675
000070 5b bb fe be 92 c5 d2 3e bc 44 e8 be 93 c7 7c 3e
       -0.49752316 0.4116636 -0.4536494 0.24685507
000080 f8 64 08 bf 9b c5 7f be 52 b6 29 3e 03 a4 04 bf
       -0.53279066 -0.24977724 0.16573456 -0.5181276
000090 f4 fb bd 3e 35 16 f8 3c a5 77 cb be e1 9d f8 3e
       0.37106287 0.030284027 -0.3973972 0.48557952
0000a0 e3 21 7b 3e 29 9f b7 be 0c f7 7c 3e 2c 12 0f 3f
       0.24524646 -0.35863617 0.24703616 0.55887103
0000b0 c9 d2 d6 3e 67 83 35 3d dd 53 c8 3e e8 48 0e 3f
       0.4195769 0.04431477 0.39126483 0.55579996
0000c0 c4 e6 71 3e d1 ba c1 bd 85 95 73 3e 58 51 d7 3e
       0.23623186 -0.094594605 0.23787506 0.42054248
0000d0 87 36 fc 3e 46 91 11 be 8d 55 86 3e 47 cc 6b 3e
       0.4926035 -0.14215574 0.26237145 0.23027144
0000e0 87 81 f1 bd 48 be b8 be b1 3a 1a bc f8 15 ec 3e
       -0.117922835 -0.36082673 -0.009413407 0.4611051
0000f0 52 a6 62 be f1 48 0b bf 2c cd e6 3e a3 03 e5 be
       -0.22133759 -0.54408175 0.4507841 -0.44729337
000100 3a 69 06 be fb 29 fa be 5d e7 ce 3e 11 e5 35 3d
       -0.13126078 -0.48860154 0.4041089 0.044407908
000110 51 bc 44 3e 3e 42 83 be 29 b1 a9 3e 27 ab 0a bf
       0.19212462 -0.25636476 0.33142975 -0.5416741
000120 0e b2 15 bf 8b cf a0 be 99 22 0e bf 82 fe 3b 3e
       -0.58474815 -0.31408343 -0.5552154 0.18358806
000130 31 7c 26 be 82 92 d6 bd 9e b5 f7 be 72 1b 8d be
       -0.16258313 -0.10477163 -0.4838075 -0.27560002
000140 5a ee 6f 3d dc 46 2a 3e 2d e5 ec be 51 b8 c2 be
       0.05857692 0.16628593 -0.46268597 -0.38031247
000150 e6 18 f6 be 12 01 14 bd d2 b7 0f 3f e5 7b 15 bf
       -0.4806587 -0.036133833 0.5613986 -0.58392173
000160 91 d2 d5 bd 3b fe 7c be bc 87 58 bd ae 1b 1e bf
       -0.10440553 -0.24706356 -0.05286382 -0.61760986
000170 77 8a b6 be a7 60 14 be 99 99 a7 be c5 51 4a 3d
       -0.35652515 -0.14489995 -0.32734373 0.049394388
000180 85 7e 95 be ac 1a e0 be e2 1c a4 bd 7e 53 6e 3e
       -0.2919809 -0.4377035 -0.080133215 0.23274037
000190 31 41 0a bf fe 23 b3 3e 81 d9 55 3e b2 95 b0 be
       -0.54005724 0.34988397 0.20883752 -0.34489208
0001a0 aa d0 22 3e c7 c9 00 3e 36 86 cc be e8 00 db 3d
       0.15899912 0.12576972 -0.39946145 0.10693532
0001b0 8a eb ab 3e c6 5a cb be 01 16 ee 3d 9c 86 1f 3e
       0.3357814 -0.39717692 0.11625291 0.15578693
0001c0 d0 5e 7e bc 48 a9 03 be 6c 6a 98 be f8 4e 36 be
       -0.015525535 -0.12857544 -0.29768693 -0.17803562
0001d0 4e 00 9b 3c 9d 37 c1 bd d5 06 7d be 07 66 c6 3e
       0.018921044 -0.094344355 -0.24709637 0.38749716
0001e0 47 0d 07 bf 17 01 97 bc f5 ad b5 be 34 5a f6 bc
       -0.52754635 -0.018433137 -0.3548428 -0.03007231
0001f0 00 35 9b be eb 41 06 bf dc f3 2f be ca 66 34 3e
       -0.30313873 -0.5244433 -0.17182869 0.17617336
000200 9e cf 0b 3f 5c 62 97 be 92 df e8 3e fd 37 d8 3e
       0.54613674 -0.2956723 0.4548307 0.42230216
000210 42 ea 15 3f 11 c9 05 bf 23 fa e6 be 00 41 c7 bd
       0.58560574 -0.5225993 -0.45112714 -0.09729195
000220 ba 16 ab bc 84 9f 6f 3d 35 83 4f 3e 84 69 d8 be
       -0.02088486 0.058501735 0.20264895 -0.42268002
000230 84 1f 3a bd 92 26 9b be b9 1d 60 3e c0 d9 02 3f
       -0.045440212 -0.30302864 0.21886338 0.5111351
000240 3c 8a d4 bc 9d 3d 02 3f f0 27 4f be 86 09 c7 bd
       -0.025944822 0.50875264 -0.20230079 -0.09718613
000250 46 0a d5 3e f2 29 11 bf 34 90 b1 be 34 b4 d3 be
       0.416094 -0.5670463 -0.3468033 -0.41348422
000260 48 66 d3 be 21 1c a0 3e be 6b ec 3e 5d 1c 02 3f
       -0.41288972 0.3127146 0.4617595 0.5082453
000270 9e c4 eb be 2c e1 96 be 65 ee f9 be 6d b5 a5 3e
       -0.46048445 -0.29468668 -0.48814693 0.3236498
000280 51 6e f6 be 42 fc 75 be 5e 11 0c 3f cc 6e cd bd
       -0.4813104 -0.2402201 0.54714 -0.100308985
000290 df 5b df 3e 7f 06 a6 bd c0 67 d0 be 91 90 27 3d
       0.4362478 -0.08106708 -0.40704155 0.040909354
0002a0 56 56 cf 3e 21 e1 1e 3f 30 06 a5 3e ec a0 c7 3d
       0.40495557 0.6206227 0.32231283 0.0974749
0002b0 97 a7 fd 3e 34 2c 27 be 11 f1 ef be 74 2f fa 3e
       0.49541923 -0.16325456 -0.46863607 0.4886433
0002c0 ad 3d c7 3e 09 32 0a bf 0e 3e 81 be 98 80 60 3e
       0.38914242 -0.539826 -0.25242656 0.21924055
0002d0 cb 1b f1 3e 6e af 6c 3e 44 d5 5e 3e f5 85 d4 3e
       0.47091517 0.23113796 0.21761042 0.4150845
0002e0 d2 8a fe be a3 bc cd bd ab 45 e0 3e 9f 9b 0c bf
       -0.49715286 -0.10045745 0.43803152 -0.5492496
0002f0 62 c7 d9 be 8b 1f 18 bf a1 45 9b 3d b5 4b 67 3e
       -0.4253493 -0.5942313 0.0758164 0.22587474
000300 fe 04 7e be c1 7e 8f 3e 5d c8 6d 3e a0 ba 28 3e
       -0.24806592 0.28026393 0.23220964 0.16477442
000310 80 89 fa be 1d 63 b6 be 9a 7d a3 3e 27 d2 d0 38
       -0.4893303 -0.35622492 0.31931764 9.957357e-05
000320 69 48 0f 3f c8 74 0f bf a3 af c7 be 74 7e f2 be
       0.55969864 -0.5603757 -0.39001188 -0.473621
000330 c3 6b a4 be 21 1b 9d be b3 a6 c7 be f8 99 93 be
       -0.32113466 -0.3068476 -0.3899437 -0.28828406
000340 39 d9 aa be b9 ea 58 bd e4 5c 40 3e 12 da 7b 3e
       -0.33368853 -0.052958224 0.18785435 0.24594906
000350 42 db 4b be cd 4a fd be 48 93 87 3e 13 83 57 3c
       -0.19907859 -0.4947113 0.26479554 0.013153809
000360 3b e6 bd be eb 10 c8 3e 08 03 3b be c1 ac 75 be
       -0.37089714 0.39075407 -0.18262875 -0.23991682
000370 eb 91 32 be 13 51 ea 3d 4b f7 a1 3e 61 01 db be
       -0.17438476 0.11441245 0.31633982 -0.4277449
000380 19 67 0c 3f 18 6a 2e 3e dc 06 5a 3d 13 cc 0b 3d
       0.54844815 0.17032659 0.053229198 0.034130167
000390 89 83 c3 3e 45 05 77 3e 0e e1 b3 3e c1 5e 37 be
       0.3818629 0.24123104 0.3513264 -0.1790724
0003a0 fd 99 df be 21 74 b3 3e e0 98 ea 3e 7d 17 2d be
       -0.4367217 0.35049537 0.4581976 -0.16903491
0003b0 fa e3 01 3f f8 b8 92 3e 0a 73 36 3e 90 47 e7 3d
       0.5073849 0.28656745 0.17817321 0.11292946
0003c0 1a 8d ac bd c5 52 cd 3e 07 79 c7 be 08 53 bc bd
       -0.084253505 0.4010221 -0.38959524 -0.091955245
0003d0 fd f2 1b be a7 fe 0d bf 24 07 98 3e 19 22 dd 3c
       -0.15229411 -0.55466694 0.29692948 0.026993798
0003e0 a0 19 ef 3e 50 4a d1 3d f6 e5 2f 3e ad a1 ff be
       0.46699238 0.10219252 0.17177567 -0.49928036
0003f0 86 4e b6 be 1a 34 c3 be 0b 86 74 be ac 7e 9d bc
       -0.35606784 -0.38125688 -0.23879258 -0.01922544

encoder.layers.0.attention.w_k.bias f4 [16]
000000 36 c5 42 35 75 29 22 b5 a1 59 74 35 fd 2c f8 34
       7.255761e-07 -6.041003e-07 9.102751e-07 4.6226333e-07
000010 bd e6 be 31 d0 25 27 b4 d4 05 39 b4 01 49 d3 33
       5.5559597e-09 -1.5566843e-07 -1.7231588e-07 9.8387325e-08
000020 65 f0 00 b4 70 6a a1 34 bd 6b 9f b5 1a ca 91 35
       -1.2008384e-07 3.006603e-07 -1.1877779e-06 1.0862161e-06
000030 c1 84 c8 b5 67 3c 54 35 58 f5 92 b4 88 79 be 33
       -1.4939798e-06 7.906405e-07 -2.737313e-07 8.869671e-08

encoder.layers.0.attention.w_v.weight f4 [16, 16]
000000 5f a9 e8 3e e6 08 91 be 3f 4c 08 3f 1b c4 e0 3e
       0.4544172 -0.283271 0.5324134 0.43899617
000010 13 fa 02 bf cf 00 00 bf 12 0c 0e 3f ee 7b 84 be
       -0.5116283 -0.50001234 0.5548717 -0.258758
000020 6a 5f db be 6a f6 c2 3e 1c 7d 0b be d9 a1 a9 3d
       -0.42846233 0.38078624 -0.13621944 0.08282823
000030 cd 1a 95 3e 42 3f 34 bd fc ed 9d bb 9c d1 50 bc
       0.2912201 -0.04400564 -0.0048196297 -0.012745287
000040 b0 57 0f bf 81 e8 19 be 78 06 13 bf db b6 d8 be
       -0.55993176 -0.150301 -0.57431746 -0.42327008
000050 a3 4a 49 3e aa e5 48 3e b0 bb f1 3e 26 53 94 be
       0.19657378 0.1961886 0.47213507 -0.28969687
000060 90 8b 52 be 29 47 ec be f6 25 d9 be d2 5f 24 be
       -0.20561051 -0.4614804 -0.42411774 -0.16052178
000070 64 70 02 bf 35 19 8c 3e ee 56 d1 be da 4e 15 3f
       -0.50952744 0.2736298 -0.40886635 0.5832344
000080 10 41 b2 be d3 92 a7 3d a8 86 03 bd f5 d6 dd 3e
       -0.34815264 0.08182301 -0.03211084 0.43328062
000090 42 2f 70 be 98 0c c7 3e 36 71 c5 be d2 0e 15 3f
       -0.23455527 0.38876796 -0.38562936 0.5822574
0000a0 30 f3 b6 be c0 ea b7 3e 09 71 36 3c 33 40 14 3f
       -0.35732412 0.35921288 0.011135348 0.5791046
0000b0 b1 8a 7f 3e b1 d9 11 bf 98 2b 8c 3e 02 cd 5d 3e
       0.2495525 -0.56972796 0.2737701 0.21660236
0000c0 db 13 1a bf 7e e9 d7 be 35 22 14 3f b5 cd 37 3e
       -0.6018655 -0.42170328 0.57864696 0.17949565
0000d0 0f e1 b7 3e 03 ce 75 3e 5e d4 fb be 5e ac 75 be
       0.35913894 0.24004368 -0.4918546 -0.23991534
0000e0 e9 3f 09 3f 5a f3 82 be 5f fb fd be d6 d4 d5 3e
       0.53613144 -0.25576288 -0.49605843 0.41763943
0000f0 b6 29 67 be f7 e1 3d be 97 b6 ef 3e 96 f0 07 3e
       -0.22574505 -0.1854323 0.46818992 0.1327537
000100 fb 40 df 3d 1e bf a3 3d 57 39 2a 3e 3b 48 3c 3e
       0.10901066 0.07995437 0.16623436 0.18386929
000110 b5 e8 04 3e 8f 7a a0 3e c3 f9 c1 be 88 09 25 bd
       0.12979396 0.31343505 -0.37885866 -0.040292293
000120 06 d7 05 3f 70 b0 ef 3e 73 29 d7 bd 1f d2 ea 3e
       0.52281225 0.468143 -0.10505953 0.45863435
000130 59 e0 56 bc ca 4d b2 3d 91 bd 41 3e a7 67 34 bd
       -0.013115012 0.08706243 0.1891997 -0.044044163
000140 47 a6 ef be d4 ca 45 3e 1c 71 a8 3e 8b c8 9e 3e
       -0.46806547 0.19315654 0.32898796 0.31012377
000150 59 92 96 be d2 47 45 3e e3 b3 09 3f 3d f5 c9 3e
       -0.2940853 0.19265679 0.5379011 0.39444914
000160 cd 9a 95 3e ab 96 2d 3e 7e d0 14 bf 09 cf 5f 3e
       0.29219666 0.16952007 -0.58130634 0.21856321
000170 dc 50 05 bf 48 a1 1b 3f a0 63 fd 3e 88 96 b9 3e
       -0.52076507 0.6079297 0.4949007 0.3624766
000180 60 a9 bb 3d b3 4d dd 3e 58 2a a7 3e c3 dd 56 3e
       0.09163165 0.43223342 0.32649493 0.20983033
000190 e8 4b 75 bd ed 7d 0c 3f 90 a6 ac 3e 36 e1 07 3f
       -0.059886843 0.5487965 0.33720827 0.5307802
0001a0 98 c6 9a 3d ca 6f 15 bf 7c 68 d0 be 49 4b 17 3f
       0.0755741 -0.583737 -0.40704715 0.5909925
0001b0 34 92 08 3f f9 10 ce bd 20 41 41 be e4 1c 85 be
       0.5334809 -0.10061831 -0.188725 -0.25998604
0001c0 b1 a7 72 be 60 e6 fe be d4 f4 c6 be b1 4c 97 3e
       -0.23696782 -0.49785137 -0.38858664 0.29550698
0001d0 06 0c 88 bd 14 c8 f4 3e d0 ab 03 3f ae 4f 21 bd
       -0.06642918 0.47808897 0.5143404 -0.03938263
0001e0 3e 56 a1 3e a5 3c c7 3e 10 2b 1d 3e 0d ca 12 3d
       0.3151111 0.38913456 0.15348458 0.035837222
0001f0 a2 52 a5 be cf e3 3b bd a4 7d b3 be eb e6 ac 3e
       -0.32289606 -0.045871552 -0.35056794 0.33769926
000200 6c 05 49 be 3b d4 66 3e ea 74 c5 3e e2 be 01 be
       -0.19630975 0.22541897 0.3856576 -0.12670472
000210 e7 09 01 bd 70 8f 0b 3f 81 3d b5 3e 4e 70 39 3e
       -0.031503584 0.54515743 0.35398486 0.18109247
000220 c2 47 21 3e ed bc 06 3f bd ab 8d be 2b 9a ce 3e
       0.1575003 0.5263203 -0.27670088 0.40351996
000230 cc 77 0b bf 21 fa b1 3e bd 55 2c 3e 66 f0 e2 3e
       -0.5447967 0.34761146 0.16829582 0.44324034
000240 4f 54 47 3e bb 37 f1 be f6 6c 62 3e 04 23 81 be
       0.19465755 -0.4711283 0.22111878 -0.25222027
000250 55 82 1e bf 70 19 77 be d5 08 ab 3e dc 15 b6 be
       -0.6191762 -0.24130797 0.33405176 -0.35563552
000260 82 45 e5 3d 8d cf 76 be 7f 40 ec be 49 78 e6 3d
       0.11194898 -0.24102612 -0.46142957 0.11253411
000270 e3 48 97 3e bc 94 27 3e 8d cc e4 be 46 f0 09 bf
       0.29547796 0.16365331 -0.4468731 -0.53882253
000280 19 18 34 be da 85 4b 3e 71 15 d1 bb 82 57 c8 be
       -0.17587318 0.19875279 -0.00638073 -0.39129263
000290 ed 01 db 3e df 7e f3 be 70 b1 14 3f 7d 52 77 3e
       0.42774907 -0.47557732 0.5808325 0.2415256
0002a0 9b 11 63 3e 89 68 9b 3e 75 9d 08 3f 48 78 19 bf
       0.22174685 0.30353191 0.5336526 -0.5994916
0002b0 2a 35 c8 be 54 87 c9 be 3f 3a c3 3e ff 9f 4e 3e
       -0.3910306 -0.3936106 0.38130376 0.20178221
0002c0 eb 44 8f 3e 56 c5 03 3f 52 d5 fb be 9d 88 a1 be
       0.27982268 0.51472986 -0.49186188 -0.3154954
0002d0 11 b5 bd be 7e 0c b4 3e f3 14 a4 bd 65 d1 cc 3d
       -0.37052205 0.3516578 -0.08011808 0.10000876
0002e0 4b 58 84 3c 58 c1 be be 93 c5 35 3e a5 e1 7c 3e
       0.016155383 -0.37256885 0.1775115 0.24695452
0002f0 6a 8e 11 be 3d 81 ab be de 3b 47 3e fa ed 38 be
       -0.14214483 -0.33497038 0.19456431 -0.18059531
000300 dd 94 2b be cf 02 f2 3d c2 79 e6 be 61 fd 45 3e
       -0.16756006 0.11816942 -0.4501477 0.19334938
000310 7c 28 51 be 25 8a 0d 3f 37 cc 88 be fd 46 ad 3e
       -0.204256 0.55288917 -0.26718304 0.33843222
000320 f1 49 13 3f 89 46 9c 3e a3 dc c2 bc 64 1d 13 3f
       0.575347 0.30522564 -0.023786848 0.5746672
000330 d2 df ab 3d 4f 85 f9 be b0 ea 93 3e bc 4e 4e bd
       0.083923 -0.4873452 0.2888999 -0.050368056
000340 81 10 1d 3f dc 52 cf 3e ba 34 1b 3f 1f d7 d8 3e
       0.6135331 0.40492904 0.6062733 0.42351624
000350 84 5b 01 be 74 fd 88 3e 79 ef e4 3e 83 8f 6d 3e
       -0.12632567 0.2675587 0.44713953 0.23199277
000360 21 b5 8f bd d1 71 9b bd bc 35 75 be 9c b7 9f be
       -0.070169695 -0.07590068 -0.2394628 -0.3119477
000370 36 69 8d be 7f e2 1a 3f 93 95 ae be e7 71 1a 3f
       -0.27619332 0.60501856 -0.3409849 0.6033005
000380 b8 73 fe be b6 05 9d 3c d6 74 a3 be 8e ac 7a be
       -0.4969766 0.019167762 -0.31925076 -0.24479887
000390 a4 f1 bd 3e bc bf 8e 3e 9f f9 f0 3e 07 51 8f 3e
       0.3709842 0.27880657 0.47065446 0.27991506
0003a0 c9 df d1 be 0c 3c db 3e 28 98 05 3f a9 89 ac be
       -0.40991047 0.4281925 0.52185297 -0.33698776
0003b0 30 7c de be 8e 06 be 3e 53 6f b7 be 2f 13 e4 3e
       -0.43454123 0.37114376 -0.3582712 0.44545886
0003c0 e7 8c 75 be 62 0a 02 3f b6 1e b7 3d f9 40 0f bf
       -0.23979531 0.5079709 0.089414045 -0.55958515
0003d0 ec d4 f7 3e 86 d5 53 3e 89 98 0f be 1c 36 78 3e
       0.48404634 0.20686921 -0.14023031 0.24239391
0003e0 39 69 1a 3c bb 3f e4 be c9 8b 10 bf 6a bd 0e bf
       0.009424501 -0.44579872 -0.56463295 -0.5575777
0003f0 6f 60 d6 3e 0d fc e9 3e 79 27 86 3e cb de 04 3f
       0.41870448 0.45700112 0.2620199 0.51902455

encoder.layers.0.attention.w_v.bias f4 [16]
000000 75 f6 1f bc 04 2d 87 be 85 e6 b6 3d 66 fc 11 be
       -0.00976335 -0.26401532 0.08930687 -0.14256439
000010 4c e9 73 3e e1 04 2e 3e 79 7d c2 bd 19 42 f2 bd
       0.23819464 0.16994049 -0.09496588 -0.118290134
000020 46 c9 bc bd 42 12 39 be b3 22 63 3d cd 5c 08 be
       -0.09218077 -0.18073371 0.055453014 -0.1331665
000030 7e d7 d1 bd b3 15 0f 3e 9f 1c cc 3d 00 87 d2 3d
       -0.1024618 0.13973121 0.099663965 0.102796555

encoder.layers.0.attention.w_concat.weight f4 [16, 16]
000000 31 3a ab 3d a9 6a 86 3e 84 df db be f8 43 c3 3e
       0.083607085 0.2625325 -0.42943966 0.38137794
000010 8f 3b cc bd 48 59 b1 3e 7c d8 d8 bd c4 f4 47 bd
       -0.099722974 0.3463843 -0.10588166 -0.04881741
000020 68 9b 17 bf 20 97 be be 1a af b5 be 06 aa d0 3e
       -0.59221506 -0.37224674 -0.35485154 0.40754718
000030 64 10 35 be 14 c2 ec be 75 3b df be 9e 97 a2 be
       -0.17682034 -0.4624182 -0.4360005 -0.317563
000040 17 3d 71 3e c9 63 fd 3d 14 75 fe be 26 88 91 be
       0.2355846 0.12372548 -0.496987 -0.28424186
000050 9d 39 d8 be c5 7e 80 3d 3e 25 19 bf 98 ed f4 3e
       -0.42231455 0.06274179 -0.5982245 0.4783752
000060 fc d3 3e be 0c eb 69 be d5 ac d3 be 5c d0 10 bf
       -0.18635553 -0.2284357 -0.41342798 -0.5656793
000070 9d 8e 1b 3f d7 53 b3 3e 5b 93 17 3f b5 da c7 3e
       0.60764486 0.35024902 0.5920922 0.39034048
000080 4a 97 b0 be bf 4c 0b bf 73 b0 db be 6b f7 5c be
       -0.34490424 -0.5441398 -0.42908058 -0.21578757
000090 67 c5 ec be c5 56 ef 3e cb 40 c0 3e 4d 41 7e be
       -0.46244356 0.46745887 0.37549433 -0.24829598
0000a0 da 37 83 be 90 13 c9 be f9 8a 14 bf 0d 6c 0e bf
       -0.2562855 -0.39272738 -0.58024555 -0.5563362
0000b0 6e c0 24 be c3 a6 fb be d0 60 0b bf 6b a6 c2 3b
       -0.16089031 -0.49150667 -0.544446 0.0059402487
0000c0 b0 00 b2 bd a8 ae c7 be df 87 7c be b1 e0 98 3e
       -0.086915374 -0.3900044 -0.24661206 0.29858926
0000d0 1f b1 86 bd fa 0d 3f be 15 d9 c6 3e 54 59 5a 3e
       -0.06576752 -0.18657675 0.38837495 0.21323138
0000e0 9f 6b 51 be bb 33 14 3f e1 c0 94 3e f9 7c d8 be
       -0.2045121 0.57891434 0.29053405 -0.42282847
0000f0 48 54 ea 3d 94 2c 05 3f a6 38 8f be c3 e8 88 bd
       0.114418566 0.52021146 -0.27972907 -0.06685021
000100 c5 04 05 bf 3f 97 a3 3e 69 be 5a 3e ee 01 0d bf
       -0.519604 0.3195133 0.21361698 -0.5508107
000110 92 d6 9b be 03 45 fa 3e 44 80 ac be f3 b7 cc be
       -0.30437142 0.48880777 -0.3369161 -0.39984092
000120 60 f7 f7 3e 13 c2 4f be 00 3d 0d 3f f5 a4 e8 3d
       0.4843092 -0.20288877 0.55171204 0.11359588
000130 78 5f ac 3e fa 0b 08 3f 6f b7 c8 bd 93 32 11 3e
       0.33666587 0.53143275 -0.09800612 0.14179449
000140 81 74 d8 be 15 67 04 bf 13 2d cb be 31 27 3d be
       -0.42276385 -0.5171979 -0.39682826 -0.18471982
000150 5e 5b 0d be 07 88 e7 3e b4 c5 89 be 76 e1 73 3e
       -0.13804385 0.45220968 -0.26908648 0.23816475
000160 4c f7 13 bf d7 ea a0 be 8d d0 0e be 29 84 06 3f
       -0.5779922 -0.3142917 -0.13946743 0.5254541
000170 6b 96 89 3e 5e eb 7f 3e d9 d8 14 bf 65 16 db 3e
       0.26872572 0.24992129 -0.58143383 0.42790523
000180 39 2f 50 3e 8e 53 c3 3d 0a c0 2a be 54 25 20 3d
       0.20330514 0.09537421 -0.1667482 0.0390981
000190 82 79 90 3e 8f 61 9f 3e 08 a6 42 bc ab e0 0e 3f
       0.28217703 0.3112912 -0.011880405 0.55811566
0001a0 5a 1e 1c bf 9f 9f 89 be 49 f0 20 be 7a c3 ef 3e
       -0.6098381 -0.26879594 -0.15716662 0.46828824
0001b0 65 8e bd 3d c9 74 df be ae 31 f2 be 65 53 bb bd
       0.09255675 -0.43643788 -0.47303528 -0.091467656
0001c0 5a e0 09 bf f4 04 47 be 2c e3 d4 3e 99 d6 1a bf
       -0.5385796 -0.19435483 0.41579568 -0.604837
0001d0 6b 1b 75 3e 07 24 0f bf e3 e1 c4 3e d6 76 13 bf
       0.2393624 -0.5591435 0.38453588 -0.57603204
0001e0 18 67 18 be 7d c7 7b be 70 e2 12 bf 0b 03 67 be
       -0.14883077 -0.24587817 -0.57376766 -0.22559755
0001f0 17 d6 e0 3c 4d b6 81 3e eb 8e a0 3d 3f a8 f1 3e
       0.027445836 0.25334397 0.078397594 0.47198674
000200 54 d6 f3 3e 12 69 31 be 3d a5 be 3d 91 09 f9 bd
       0.47624457 -0.17325237 0.093088605 -0.12160028
000210 61 d8 af be 4a 63 12 be 4e 82 cf 3e b5 24 84 be
       -0.34344772 -0.14295688 0.40529102 -0.25809255
000220 16 33 ad bd f5 22 27 3d 36 19 9d be b3 2a b5 be
       -0.084570095 0.040804822 -0.30683297 -0.3538414
000230 35 76 80 bd 20 c5 01 3f 4d ef dd be 97 38 eb be
       -0.06272546 0.50691414 -0.43346635 -0.45941612
000240 5d 79 fd be f2 2d 9e 3e 04 78 9c be e2 af a2 3d
       -0.49506655 0.30894428 -0.30560315 0.07943703
000250 ed d8 24 3e ca e5 bf be c8 e4 b4 3e 7e 24 85 be
       0.16098376 -0.37480003 0.35330796 -0.26004404
000260 bf b3 9a 3c 37 aa 0a be 07 5d 6e 3e 17 fd ca 3e
       0.018884538 -0.13541494 0.23277675 0.39646217
000270 4d ae 87 3e 80 e0 e8 be ed 2c 19 3f 87 d4 46 3e
       0.26500168 -0.4548378 0.59834176 0.1941701
000280 64 c1 3a 3d d8 2d 02 bf 2e 71 55 bd cf 81 e2 bd
       0.045594588 -0.508512 -0.05210989 -0.11059915
000290 1e e0 ff be ef 84 a2 be c4 a6 e1 3e 48 5e d7 3e
       -0.49975675 -0.31742045 0.44072545 0.42064118
0002a0 c4 cc c1 be 4c c4 85 3e 9f ad ea 3e ca e3 4f 3e
       -0.37851536 0.26126325 0.45835587 0.20301738
0002b0 eb ed de be 3c 21 0a bf 93 d1 3b be 23 a2 11 bf
       -0.43540892 -0.5395696 -0.18341665 -0.56888026
0002c0 73 be ed 3e 87 8a 08 bf 87 be 1a 3f fb 9e 59 be
       0.46434364 -0.53336376 0.6044697 -0.21252052
0002d0 d0 51 a2 be 42 4d da 3c 57 9d 0d 3f 20 e1 b4 be
       -0.31703043 0.026648168 0.55318207 -0.35328007
0002e0 fd f7 06 be 68 2c b7 3e eb 03 53 3e 87 3a 09 3f
       -0.13180538 0.35776067 0.20606963 0.5360493
0002f0 14 6e ef be 72 f4 7c bd f2 36 fa 3e fe 78 8e be
       -0.4676367 -0.06175656 0.48870045 -0.27826685
000300 93 4b c0 3e b6 2c be be 18 22 1b 3f 2f 9f 85 be
       0.3755766 -0.37143487 0.605989 -0.2609801
000310 bd dc 45 3e 2f ff af bc 95 3d df be 21 4a 9b be
       0.19322486 -0.021483986 -0.4360167 -0.30329993
000320 47 84 2a 3e 6b 6e 1b be a5 15 08 3f 8a f4 05 bd
       0.16652022 -0.1517884 0.53158027 -0.032703914
000330 9a 3c ab be 8a b6 8c be 4b 63 66 bd 32 07 f7 3e
       -0.33444673 -0.27483016 -0.056247037 0.48247677
000340 af 37 10 be ec f8 f5 bc 43 23 01 be ed c0 07 3f
       -0.14083742 -0.030025922 -0.12611108 0.53028756
000350 fd 72 e4 bd 37 97 f3 be df 9d 04 3f e8 7f 08 bf
       -0.11154745 -0.47576305 0.5180339 -0.5332017
000360 bf 38 15 3b aa e7 91 3e aa 50 22 bd 2c 8e ab 3d
       0.002276942 0.28497058 -0.03962771 0.083767265
000370 bb 16 2e 3e 33 dd 5d be cc d4 26 be 94 08 ff 3d
       0.17000858 -0.21666412 -0.16292113 0.12452808
000380 dd 5d 99 be e7 9d e8 3e 8f b0 6a be 57 36 d0 3e
       -0.29954425 0.4543297 -0.22918914 0.40666458
000390 24 21 d0 3e eb 66 4a 3e 38 11 52 3e e1 3d 13 bf
       0.40650284 0.19765823 0.20514381 -0.57516295
0003a0 79 ee 02 bf 6d b4 83 3d 70 9e cc bd 41 40 52 3e
       -0.5114513 0.06430898 -0.09991157 0.20532323
0003b0 85 20 84 3e 2d 25 f1 bd c0 bf ae be d3 32 ba 3e
       0.2580606 -0.11774669 -0.3413067 0.363669
0003c0 04 92 9a 3e aa df 82 3e 22 85 db be 28 ce 1a 3d
       0.30189526 0.25561267 -0.4287501 0.037794262
0003d0 e9 54 a0 3e cf 16 fc 3e 69 02 9a 3e de 4c a9 be
       0.3131478 0.49236152 0.30079964 -0.33066458
0003e0 70 54 cd 3d 86 30 03 bf d1 21 91 be b3 ba ed be
       0.10025871 -0.51245916 -0.28346112 -0.46431503
0003f0 65 77 b4 3e 09 f1 e9 be 92 e6 0a 3f 70 76 0a 3f
       0.3524734 -0.45691708 0.5425807 0.5408697

encoder.layers.0.attention.w_concat.bias f4 [16]
000000 da 83 8a 3d 1b 21 48 be b0 77 1a 3e 2d 90 94 3d
       0.0676343 -0.19543879 0.1508472 0.07254062
000010 3d a0 21 be 21 ae 28 be e8 72 3b be de 23 68 be
       -0.15783782 -0.16472675 -0.18305552 -0.22669932
000020 93 42 e6 3c 79 7c 99 3b e9 7f d5 3d e4 b3 67 be
       0.028107917 0.0046840278 0.104247876 -0.22627217
000030 42 64 44 bd 23 ff 47 bc 71 43 4b be 01 f0 05 be
       -0.047947176 -0.012206825 -0.19849946 -0.13079835

encoder.layers.0.norm1.gamma f4 [16]
000000 3b ac 7f 3f 11 d8 7d 3f e1 99 7b 3f df ab 7c 3f
       0.9987218 0.99157816 0.98281676 0.98699754
000010 53 b9 80 3f 68 3b 79 3f a7 4c 7f 3f 06 f4 79 3f
       1.0056556 0.9735627 0.9972634 0.97637975
000020 88 e8 7d 3f a0 27 7d 3f 78 52 81 3f c7 d3 7e 3f
       0.9918294 0.9888859 1.0103292 0.99541897
000030 ae 26 7f 3f 42 b1 7d 3f 7c 5c 80 3f 81 a9 80 3f
       0.99668396 0.990986 1.0028224 1.0051728

encoder.layers.0.norm1.beta f4 [16]
000000 a3 d7 c1 ba 3c 97 9a bb 94 d1 00 3c b1 f0 f9 3a
       -0.0014788996 -0.0047177356 0.007862467 0.0019068924
000010 c0 3a 75 bb 01 ba f7 3b b1 bf d3 3a 32 4e cb 3b
       -0.003741905 0.007560015 0.0016155151 0.00620439
000020 8d 47 19 3b 29 b6 1c 3b 9d ea cd 3a b2 fc 7a 3c
       0.0023388595 0.0023912287 0.0015710179 0.015319036
000030 15 6f d2 3b 57 b3 33 3c de 1d d0 ba f1 1e 75 3c
       0.0064219334 0.010968051 -0.0015878042 0.01496099

encoder.layers.0.ffn.linear1.weight f4 [64, 16]
000000 40 41 2c 3d 41 95 34 be ae f4 dd bd b0 45 a0 bd
       0.042054415 -0.17635061 -0.108376846 -0.07825792
000010 65 f9 a9 be c1 1f 0c 3f ad 59 10 bf 73 f8 85 3e
       -0.33198085 0.5473595 -0.56386834 0.26166114
000020 f2 7c b4 be 93 d2 ed bc 0d 19 1a bf 1f 6f cb be
       -0.35251576 -0.029031074 -0.60194474 -0.39733216
000030 f7 4a d4 be 28 dc cb be e6 bf eb 3e 0d 5a 0e 3f
       -0.41463444 -0.39816403 0.46044844 0.55606157
000040 93 9b e8 3c 97 45 a8 bd c1 17 4f 3d 27 f8 32 be
       0.028394496 -0.08216398 0.050559763 -0.17477475
000050 08 26 b0 3e 0f ee 73 3e 31 aa 9a 3b 1f 27 95 be
       0.34404016 0.23821281 0.0047199954 -0.2913141
000060 d5 ff bb be aa c1 a9 3e a0 ab 9c 3e a4 fe fa 3d
       -0.36718622 0.33155566 0.3059969 0.122556
000070 6f 9b ec 3e bd 82 06 3e 5b a3 42 3e 0d ae bb 3e
       0.46212336 0.1313581 0.19007628 0.36656228
000080 8d 81 9b 3d 47 b3 b5 be 18 df 13 3f 1d 9a 72 be
       0.07593069 -0.3548834 0.5776229 -0.23691602
000090 c4 39 14 3f d1 b5 d3 3c ac 49 4b 3d eb bc b6 be
       0.57900643 0.025843533 0.049630806 -0.35691008
0000a0 ff d3 6e 3e 22 b8 48 3e 93 10 a5 be b8 5a 05 3f
       0.23323058 0.19601491 -0.32239208 0.5209155
0000b0 0a 1c f7 3e a7 3e 3b be d1 0a 05 be d1 d6 ed be
       0.4826358 -0.18285619 -0.12992407 -0.46452954
0000c0 4b c0 e1 be 95 c7 02 bf b3 c0 65 3e 57 48 dc be
       -0.4409202 -0.5108579 0.2243679 -0.4302394
0000d0 ce 01 81 3e 3e b1 a8 3e 02 fa e0 be a1 bc a9 3e
       0.2519669 0.32947725 -0.4394074 0.33151725
0000e0 4c 88 e0 be e9 3c 12 3f 51 39 c8 be 76 6e 47 bd
       -0.43853986 0.5712419 -0.3910623 -0.048689328
0000f0 f4 a1 30 bb 57 35 98 3e e4 fe 03 bf aa 2c ae 3e
       -0.0026952 0.29728195 -0.5156081 0.3401845
000100 c7 cd 47 3e f2 6a 27 be d6 72 06 bf b5 d8 72 3e
       0.19512092 -0.1634939 -0.52518976 0.2371548
000110 21 e5 a9 3c 10 c0 01 bf 39 92 bb be 27 53 52 3e
       0.02073914 -0.5068369 -0.36634997 0.20539533
000120 00 39 af 3e da 57 14 3f 02 83 21 be f3 fa b3 3e
       0.34223175 0.5794655 -0.15772632 0.35152397
000130 14 6a 0e 3f 2a 73 94 3e 68 a5 04 3f e0 45 87 be
       0.5563061 0.28994113 0.5181489 -0.26420498
000140 d0 09 57 bc 4e 5a ea be 11 1d 03 3f dc 8e 01 bf
       -0.013124898 -0.45772022 0.51216227 -0.5060861
000150 02 62 3c 3e 26 21 b4 bd c8 d0 3f 3e d8 c0 06 3f
       0.18396762 -0.08795385 0.18731987 0.52638006
000160 7f 98 4b be 69 e2 f0 be 62 cc 03 3f 4c f1 ec 3e
       -0.19882391 -0.47047737 0.5148374 0.46277845
000170 c1 42 0f bf 03 82 00 bf 16 4a df be 82 8f 1c be
       -0.55961233 -0.5019838 -0.4361121 -0.15289119
000180 17 93 32 be a0 6f 7f bd e5 e2 15 3f 85 a4 6f 3e
       -0.17438923 -0.062362313 0.5854934 0.23402603
000190 95 d1 cf 3d ba e5 09 3f 40 f1 86 be 6c 64 bc 3b
       0.101473965 0.5386616 -0.26355934 0.005749276
0001a0 b0 85 ea 3e df 15 b8 be 15 e7 9a 3e fe b3 c8 3e
       0.4580512 -0.35954186 0.30254427 0.39199823
0001b0 b1 be 0f bf 6a 47 91 3d b3 e4 74 be 2a b6 f2 3e
       -0.56150347 0.07093699 -0.23915367 0.47404605
0001c0 bc 65 61 3d 5d 1b f2 3e 0e 04 e9 bd a0 6e c1 3e
       0.055028662 0.47286502 -0.113777265 0.37779713
0001d0 87 9c cd be 7f 04 81 3e 01 b8 51 3e f3 05 0d 3e
       -0.40158483 0.25198743 0.20480348 0.137718
0001e0 a5 46 67 be 3b 7c fc 3e 3f 9c 3e 3e 4f ae ef be
       -0.22585543 0.4931353 0.1861429 -0.46812674
0001f0 b7 6a 5d be 49 2c e6 3e d8 d1 87 3d 67 af fc be
       -0.2162274 0.44955662 0.066318214 -0.4935257
000200 72 2f 59 3d f4 e8 e5 bb 86 2f 8b be 11 c4 42 be
       0.053023763 -0.0070162956 -0.27184695 -0.19020106
000210 f2 2c f9 be db 7d cc 3e 2f 69 f5 3e 30 ff 00 bf
       -0.48667103 0.3993977 0.4793181 -0.50389385
000220 35 c0 87 be dd c2 07 bf 82 a2 c9 3e 40 b5 16 3f
       -0.2651383 -0.5303171 0.39381796 0.58870316
000230 75 8e 08 3f 0d 40 8c 3e eb e6 17 3e 9d 1f 20 3e
       0.5334237 0.27392617 0.14834182 0.1563706
000240 78 7d 8f 3e 55 48 b0 bd 1c 76 0a bf d2 d1 7b be
       0.28025413 -0.08607546 -0.5408647 -0.24591759
000250 74 22 04 be fe 68 0e 3f 43 45 86 3d 4b 53 b0 3d
       -0.12903768 0.55628955 0.065561794 0.08609637
000260 07 2a 00 bf f5 fd ac be e0 b8 5a 3e 49 07 dd be
       -0.5006413 -0.33787504 0.21359587 -0.4316962
000270 4c cb d8 be 95 7b 04 3f 3e 72 9b bd ea 50 de 3e
       -0.42342603 0.5175107 -0.07590149 0.43421108
000280 7a f4 0d bf e8 87 0c be bc a0 b9 bd ce 40 7d 3e
       -0.55451167 -0.13723719 -0.09063861 0.24731752
000290 3e aa 06 bf e7 d7 2e 3d a6 d1 7d be 36 d1 a3 3e
       -0.5260352 0.04268637 -0.24787006 0.31995553
0002a0 66 af 18 3f af ab b9 3e 5a 36 14 3f 92 89 f4 be
       0.59642637 0.36263797 0.57895434 -0.47761208
0002b0 e7 7f dc be 24 e5 74 bd 31 e7 0d 3f 47 4b ee bd
       -0.43066332 -0.059788838 0.55430895 -0.11635452
0002c0 e1 69 db 3e 9b ee ed be 24 1a a7 3b 43 4e 11 bf
       0.42854217 -0.46471104 0.0050995518 -0.5676004
0002d0 b3 a3 fa 3e 75 6c c3 3e 57 73 01 be 4f 23 11 bf
       0.48953018 0.38168684 -0.12641655 -0.566945
0002e0 c4 ab 06 3f 66 94 c8 be d6 31 cf bd 7f ae d6 3d
       0.52605844 -0.3917572 -0.10116927 0.10482501
0002f0 2d da 68 3e 1d 7b 46 3e ee 57 21 be 93 18 df 3e
       0.22739477 0.19382901 -0.15756199 0.43573436
000300 66 65 ec be 99 76 e5 be 4a 70 3d 3e 54 1d cb 3e
       -0.4617111 -0.44817045 0.18499866 0.39670813
000310 73 cd 4a 3e 6d eb c5 3e 15 e0 52 3e df 8b 11 bf
       0.19804935 0.38656178 0.20593293 -0.5685405
000320 60 13 8c 3e 73 17 f5 bd 01 98 8e 3d f1 f3 12 bd
       0.27358532 -0.11967363 0.06962586 -0.035877172
000330 43 79 c6 be 50 42 94 be e6 2d 42 be c0 e3 9e be
       -0.3876439 -0.28956842 -0.18962821 -0.31033134
000340 1e e1 41 be 89 8e 07 bf e3 34 5d 3e 72 c4 e4 3e
       -0.18933532 -0.52951866 0.21602206 0.44681126
000350 fe 44 74 be 5e e0 0a 3e bd fd 78 be eb a6 0e bf
       -0.23854443 0.13562152 -0.24315543 -0.55723447
000360 d9 67 ff be 5e a7 dc 3e 7a b6 91 be cc 51 5b 3c
       -0.49883917 0.4309644 -0.2845953 0.013386201
000370 5b 93 27 3e 52 d0 95 be 0f cf ac 3e 42 6d d7 be
       0.16364805 -0.29260498 0.33751723 -0.42075545
000380 90 0f 06 bf f3 da 82 3e d4 8a be be 2f c4 25 3e
       -0.52367496 0.2555767 -0.37215292 0.1618812
000390 90 eb 10 bd 6e 23 c6 be 02 d5 71 3e e0 7b b5 3d
       -0.0353809 -0.38698906 0.23616412 0.08861518
0003a0 ff 99 18 3c fb 5c f1 3d bd b6 1f be ba 8f c9 bb
       0.009314059 0.11785313 -0.15597053 -0.0061511667
0003b0 fe e2 df be 28 d0 b9 be c5 af da 3e fb ec 73 3d
       -0.4372787 -0.36291623 0.42712227 0.059552174
0003c0 33 ea 7c 3e 41 46 a2 3d cc 04 12 3d 0e 5b 1d be
       0.24698715 0.07923556 0.035649106 -0.15366766
0003d0 c8 9f 75 be b9 67 75 bd 6d 07 b4 be 48 80 84 be
       -0.23986733 -0.05991337 -0.35161915 -0.2587912
0003e0 21 ef 34 3e db 92 9f 3e e9 88 b6 3d 0a 56 13 bf
       0.17669345 0.3116673 0.08912832 -0.5755316
0003f0 fd 08 09 bf 51 05 bc be 98 d3 31 be bf 61 5b bc
       -0.5352934 -0.36722806 -0.17365873 -0.013390004

encoder.layers.0.ffn.linear1.bias f4 [64]
000000 37 fb d1 bc f9 04 e0 3d 66 62 20 be 01 7e 38 be
       -0.025632484 0.109384485 -0.15662536 -0.18016817
000010 4f 3c 37 be 7f 80 bb bd ae 58 32 3e 8f 75 3b be
       -0.178941 -0.09155368 0.17416641 -0.18306564
000020 e8 5d fb 3d fd cb 36 3e cf d8 83 bd 89 37 60 3e
       0.122737706 0.17851253 -0.06437837 0.21896185
000030 9a fd 18 3e b8 5d f2 3d 84 a4 11 3e 6d cb 07 be
       0.14940491 0.11834282 0.14222914 -0.13261195
000040 5e 11 57 be e3 91 b0 3c 2d 58 55 3e 8f 82 6e 3e
       -0.21002719 0.02155394 0.20834418 0.23291992
000050 df 6d 57 be 44 f5 68 3d ce 0a 06 3e ca a4 2b 3e
       -0.21038006 0.05687453 0.13090059 0.16762081
000060 42 f2 75 bc b1 0b 1c be 3e b9 d1 3d c8 2f 4f bd
       -0.015011372 -0.15238835 0.1024041 -0.050582677
000070 46 d6 c9 bc 02 48 d5 3c 9c 37 ba bc fd 31 6f 3d
       -0.024638306 0.026035313 -0.022731595 0.058397282
000080 8d 1f 43 3e 54 18 f8 bd 6b bc a4 3d fd 74 0e be
       0.19055004 -0.12114015 0.080437504 -0.13911815
000090 3f 9d 5e be ed 5f 67 3c c9 30 40 3e e6 e9 2b 3d
       -0.21739672 0.014121992 0.1876861 0.04197111
0000a0 0a 5f 25 3e 5d 83 09 be 38 84 ba 3d 09 96 1c be
       0.16149536 -0.13429017 0.0910725 -0.15291609
0000b0 7a b3 a2 3c 0f d5 4a 3e 92 a7 3e bb cb b7 48 3e
       0.019860972 0.19807838 -0.002909158 0.19601361
0000c0 75 6a 44 3e 5c 7a 6c 3e 1d b0 2c 3e eb 85 80 3e
       0.19181235 0.23093551 0.16864057 0.2510217
0000d0 9d dd aa 3d fc 8e 3a 3d f7 79 58 3e ee 2f 36 bd
       0.08343051 0.045546517 0.21140276 -0.044479303
0000e0 bf eb 47 3d c4 bd 23 be ee 2b 87 3d ba 51 cb 3d
       0.04880881 -0.15990359 0.06600176 0.099276975
0000f0 a2 9f c3 3d 43 4a f0 3d aa 59 67 be a6 bc 18 3d
       0.09551932 0.11732914 -0.22592798 0.037289284

encoder.layers.0.ffn.linear2.weight f4 [16, 64]
000000 11 52 84 3e 11 ad 2e be 6f d6 7c 3d 59 b7 a7 3d
       0.25843862 -0.17058207 0.061727937 0.08189268
000010 a4 d3 c0 bc 1f 83 6b be 71 c4 99 be 05 7f 86 be
       -0.023538418 -0.22999237 -0.30032685 -0.26268783
000020 a5 31 ae bd 76 2b 80 be a7 86 80 3e fb 2d 4c bd
       -0.08505563 -0.25033158 0.25102732 -0.049848538
000030 df 83 f6 bd 2b 28 b7 bd 31 27 5b 3e c0 ab 1e be
       -0.12036871 -0.08943208 0.21401669 -0.15495205
000040 d2 13 2a 3e be 5f d0 3d 87 9f 44 3e 00 67 10 be
       0.16609123 0.101745114 0.1920148 -0.14101791
000050 93 1f 01 3e 6d d5 3a be 7e 73 e9 3d 34 7c 65 be
       0.12609701 -0.18245478 0.113989815 -0.22410661
000060 05 0b d8 bb 19 5f 33 3e df 6e 46 3c e0 42 56 3e
       -0.0065931105 0.17516746 0.012111395 0.20923948
000070 2c ac 90 3e 57 e7 84 3e fb cf 6e 3e cb bd ce 3d
       0.28256357 0.25957748 0.23321526 0.10094794
000080 ef 13 60 3e da c7 93 3e b0 87 69 3e cb 5e be bd
       0.21882604 0.28863412 0.22805667 -0.09295424
000090 f5 1b 73 be 92 a0 20 3e e5 f4 b2 3d 0d 1b 29 be
       -0.23741134 0.15686253 0.08738116 -0.16514225
0000a0 54 59 18 be 0e 08 66 3e b4 db 5f 3e 39 3d 38 3e
       -0.14877826 0.2246401 0.21861154 0.17992105
0000b0 ec b6 38 3e 96 87 10 be 4a 96 3d 3e ee 33 00 be
       0.18038529 -0.14114222 0.18514362 -0.1251981
0000c0 38 c3 33 3d d4 b3 bd bd 0e 65 89 be 35 db 54 be
       0.043887347 -0.09262815 -0.2683491 -0.20786746
0000d0 67 37 2f 3d 14 ab 23 3d 1f e3 2f 3d 28 1d d5 3d
       0.042777445 0.039958075 0.04294121 0.10405952
0000e0 47 b2 8e 3e ac 65 82 3e d8 5a 27 be 5e d7 74 3e
       0.2787039 0.25468194 -0.16343248 0.23910281
0000f0 f7 68 85 bd 8c ae 17 3e 47 33 85 3e 2a d6 72 3e
       -0.06514161 0.14812678 0.26015684 0.2371451
000100 3c af 9a be 1b 2f 49 be 10 22 84 be 5c b4 ea 3c
       -0.30211818 -0.19646876 -0.25807238 0.028650455
000110 35 bd 3b be 3a a8 8c be 7a f3 7f bd 5b ef 8a 3e
       -0.18333896 -0.27472097 -0.062488057 0.2713574
000120 90 bb 4c be 36 b1 95 3e 60 dd 92 be 97 a2 d8 bd
       -0.19993424 0.29236764 -0.2868452 -0.105778866
000130 ff 0f 8b be 3a 79 4a be f2 fb 76 be 82 c0 89 3e
       -0.27160642 -0.19772807 -0.24119547 0.26904684
000140 5d 31 06 3e 05 95 85 be 37 92 b3 ba 9a 8f 44 be
       0.13104768 -0.26090255 -0.0013700192 -0.19195405
000150 00 32 6c be 96 26 fe 3d eb 09 44 3e 14 20 7c bc
       -0.23065948 0.124097034 0.19144408 -0.015388507
000160 c6 00 11 3e 9e 1b 85 bd 7b 4a 57 be 87 ec 27 3d
       0.14160451 -0.06499408 -0.21024506 0.040997054
000170 45 b5 47 be c9 c7 62 be 7d 3b c1 bd a9 3e ea 3b
       -0.19502743 -0.22146524 -0.094351746 0.007148583
000180 08 88 c2 bc 32 c9 5b 3e 58 d7 e6 bd 55 df 49 3e
       -0.023746505 0.21463469 -0.11271542 0.197141
000190 8a 38 47 be 81 18 55 3d a3 8e 6c be e6 49 53 be
       -0.19455162 0.052025322 -0.23101287 -0.20633659
0001a0 21 81 0f bd 5a ad 2f be f9 17 17 3e b4 38 85 3e
       -0.035035256 -0.17155972 0.14755239 0.26019824
0001b0 79 ca 7a be 67 5d 6f 3e d4 bf 7d 3e de 29 4b be
       -0.244913 0.23375474 0.24780208 -0.1984019
0001c0 33 5e cf 3d e6 46 db bd e7 f2 14 be a2 00 1e be
       0.10125389 -0.10706882 -0.14545785 -0.15429929
0001d0 31 92 97 be 21 cc 2e 3e 06 b1 53 3e 05 e8 45 3e
       -0.29603723 0.17070056 0.20672998 0.1932679
0001e0 91 bf 4f 3e 3a c5 84 3d 7d 2f 88 be 11 4c 5b bc
       0.2028792 0.064829305 -0.2659873 -0.013384835
0001f0 32 eb 2d be cd 8c 98 3e 73 d1 32 be 8b 42 77 be
       -0.16984251 0.29794922 -0.17462711 -0.24146478
000200 47 06 73 be 08 73 b5 bd 3d c2 86 be 04 1f 8b be
       -0.23732863 -0.08859831 -0.26320067 -0.271721
000210 4c 8d 8d 3d 40 94 61 be b7 ff 4c bd db 70 88 3e
       0.06911716 -0.22029209 -0.050048556 0.26648602
000220 79 da 0b be dd d7 19 bd ad 5a 57 be a4 a2 82 be
       -0.1365756 -0.03755938 -0.21030684 -0.2551471
000230 a0 ba a0 3d 7e 23 03 3e 64 35 86 be 72 f2 03 be
       0.07848096 0.12806508 -0.2621261 -0.12885454
000240 7a 58 d4 3c b2 98 f3 bc 22 ff c5 3c 23 69 4e 3e
       0.025921095 -0.029735897 0.024169508 0.20157294
000250 1e 17 08 3d 08 df 38 3e c7 a2 05 be 1f fa 04 bd
       0.03322517 0.1805383 -0.13050376 -0.032465097
000260 ad 13 75 be 01 ff d5 bd 98 26 ec 3b 08 ce e4 3d
       -0.23933287 -0.10449029 0.007206749 0.1117211
000270 b1 82 80 3e 68 4b f2 bd 85 ce 45 be 2d 09 84 3e
       0.2509971 -0.11830789 -0.19317062 0.2578825
000280 04 b8 5a 3e 7a 5f b3 3d 07 22 4e bd a6 07 16 bd
       0.21359259 0.08758445 -0.05032542 -0.036628388
000290 2d 51 87 bd c2 f2 51 be 3b 20 67 3d 60 f0 84 be
       -0.0660728 -0.20502761 0.05642722 -0.25964642
0002a0 0d 35 17 be 7e f2 69 3e 81 49 9c 3d e9 50 ba bd
       -0.14766331 0.2284641 0.07631207 -0.09097464
0002b0 c2 3b c5 bd 4f d9 8a 3e ae 04 9d 3e ca a3 60 be
       -0.096305385 0.27118918 0.30667633 -0.2193748
0002c0 20 56 10 be c2 bf 13 bd 5a 03 d7 3c db 02 03 be
       -0.14095354 -0.036071546 0.026246715 -0.12794058
0002d0 b5 ca 39 be d9 24 8d 3e 02 e0 6d be a4 44 50 3e
       -0.18143733 0.27567175 -0.23229983 0.20338684
0002e0 72 ce 91 3e 6c 4c 6c be 37 a0 27 be 45 3d 40 3e
       0.28477818 -0.23076028 -0.16369711 0.18773372
0002f0 c9 3b 1e 3e 41 33 92 3e 34 73 11 be 2e 4e 01 be
       0.15452494 0.2855473 -0.14204103 -0.1262748
000300 46 10 cf 3d 02 d3 87 3e 01 9c 1d bd 96 19 8d 3e
       0.10110526 0.26528174 -0.038478855 0.27558583
000310 9b d9 98 be 16 3d 6c 3e 37 32 e8 bb 10 26 60 be
       -0.2985352 0.23070177 -0.007086064 -0.2188952
000320 b2 6c 37 3e 75 d8 66 3e 05 c1 c8 bd 5f bd 3b 3e
       0.17912558 0.2254351 -0.098024406 0.18333958
000330 87 ce 89 3e e6 28 bb 3d da 94 24 be bb 73 0f be
       0.2691538 0.0913866 -0.16072407 -0.14008991
000340 b9 01 85 3d 7e 9d 3c 3e 20 1f a0 bd 8c 4b 25 be
       0.06494469 0.18419454 -0.078184366 -0.161421
000350 1c f3 d6 3d b4 10 83 be ae 39 78 3e 1c c9 e1 3c
       0.10495588 -0.2559868 0.24240753 0.027561717
000360 d7 c2 5a be cd f2 20 bd fc 93 70 be cf bc 6a 3e
       -0.21363388 -0.039294053 -0.23493952 0.22923587
000370 ab 0a 29 be ce f9 04 3e d5 da 0d be 38 b0 6e 3e
       -0.16507976 0.12985918 -0.13853009 0.2330941
000380 5a 1c 1d be ba 76 2c 3e 74 99 d5 bc ff 07 86 3e
       -0.15342847 0.16842166 -0.026074149 0.26177976
000390 c2 78 71 3e 6d 1d 27 3e db 92 be bd 8f ab 45 bc
       0.23581222 0.16319819 -0.09305354 -0.012064829
0003a0 33 b8 9b be f2 3d 39 bd 61 90 c9 3d c0 b2 e3 bd
       -0.3041397 -0.04522509 0.09841991 -0.11118078
0003b0 af c3 58 3e a2 5e 61 bd e7 46 6b bd 40 1d 47 3e
       0.21168397 -0.05502189 -0.057440665 0.19444752
0003c0 85 4c 88 be 3a 4c 22 bb 5d 36 52 bd 7d e0 be bd
       -0.2662088 -0.0024764673 -0.051321376 -0.093201615
0003d0 04 49 94 3e 51 13 89 3e 5b a0 f3 bd 17 30 1e be
       0.28961957 0.2677255 -0.1189582 -0.15448032
0003e0 1d 11 a0 ba 29 21 a4 3e c9 98 94 3e 6e c2 b4 bd
       -0.0012212131 0.3205655 0.29022816 -0.08826147
0003f0 03 32 e7 bd c2 b2 a2 bd 5c 76 91 3e db 84 6e bd
       -0.11288836 -0.079442516 0.28410614 -0.05823217

encoder.layers.0.ffn.linear2.bias f4 [16]
000000 05 76 79 3c 18 99 e1 bc c8 03 25 3d 3b 81 de bd
       0.015225892 -0.027538821 0.04028681 -0.108644925
000010 23 2a b6 3d d2 ae 50 bd f1 0f b2 3d 65 cc d9 3d
       0.08894756 -0.05094797 0.08694447 0.10634688
000020 f2 25 17 bd c2 92 e6 bd 42 44 60 bd 37 ca 5c 3d
       -0.03690142 -0.112584606 -0.054752596 0.053903785
000030 2a db ca bd 17 c8 f3 3d 4a 19 bb bd 73 6e 83 bc
       -0.099050835 0.119033985 -0.09135683 -0.016043877

encoder.layers.0.norm2.gamma f4 [16]
000000 10 0d 80 3f 40 8e 7f 3f bf 30 7a 3f de 6a 7c 3f
       1.0003986 0.9982643 0.9773063 0.98600566
000010 63 8f 7d 3f f0 2d 80 3f 6b 76 80 3f 3f ec 7e 3f
       0.99046916 1.0014019 1.0036138 0.9957923
000020 b3 02 7c 3f fc c9 7f 3f 95 86 80 3f 45 1f 80 3f
       0.9844162 0.9991758 1.0041071 1.0009543
000030 78 44 7d 3f b1 0a 7c 3f fc 00 81 3f cd 4e 79 3f
       0.989326 0.98453814 1.0078425 0.97385865

encoder.layers.0.norm2.beta f4 [16]
000000 c2 b4 0f bc c1 fe 38 bb fe 12 b9 3c 04 25 0b bc
       -0.008771123 -0.0028228017 0.022592064 -0.008492712
000010 dd de 06 bc e5 b0 1d b9 c8 5f de 3a 38 5e 2a 3c
       -0.008231846 -0.00015038585 0.0016965801 0.01039844
000020 a2 80 56 bb 88 13 1c ba 11 04 d0 bb 4e d6 55 3b
       -0.003273048 -0.0005953838 -0.006348141 0.0032628956
000030 84 90 84 bc 36 e1 c9 3b cf 06 6f bc f1 3f e5 39
       -0.016182192 0.0061608804 -0.014589026 0.00043725924
