Trans_Prediction/model_saved/ratioMergedPrs/TM_ratioMergedPrs_delay_size_7_delay_5.pth (torch, 385400 bytes, 337 tensors)

encoder.layers.0.attention.w_q.weight f4 [16, 16]
00000000: d964 dd3e 4504 29be a359 363e 2d8c f3be
00000010: 6180 ddbe d5bb e93e 3a82 e8be 5352 093e
00000020: 4726 b23e b7c3 e4be 1564 b2be 5a12 d5be
00000030: e7a7 f53e 8a55 b13d bcf5 393d 6fd2 17bf
00000040: da4c 7bbd 334f 7bbd 9f78 a0be e820 d33e
00000050: 6444 96bd ca5c e23e ae8a 04be 4a93 653e
00000060: dc01 a8be 9431 c2be e07d d13e a307 993e
00000070: b539 07bf 34c9 c7be ef3f a7be 81b8 163f
00000080: b729 6cbe d92a bb3e 22d1 0d3e d133 e33e
00000090: fd88 ad3e 1dd6 94be ddd9 063f 4626 93be
000000a0: 6391 1c3f 7131 683d ce36 cbbe 1179 f4be
000000b0: eb97 eabe 505b 16bf a12e a9be dad4 763d
000000c0: 7646 0dbe a4dc 95be 7459 423e fa6c 0fbe
000000d0: 92c9 0c3f db73 173f bbc8 7fbe da75 0a3f
000000e0: ca5c e53e fec0 06bf d9cd 80be 91ad afbc
000000f0: 6552 3a3d 01ba c6be 3e0d 193f 1757 2d3e
00000100: 92a8 13bf d508 3bbe 9324 be3c 96cf d1be
00000110: 36e3 c9be 2b7f 17be 983f a8be 4c1c bc3e
00000120: bcd9 303e 8834 e53e 90cb 9a3d 7a9c e33e
00000130: 5f63 5f3e e31c f23e db33 d23e a010 12be
00000140: b191 84bc 44f4 c93e 4955 c53e aa67 6f3e
00000150: dbd6 16bf 37b3 9fbc 028c 75be a1d6 80be
00000160: e881 963e dd01 1a3f 3f18 ed3e f260 8f3e
00000170: 871b 853e c2fd 123f b5b0 37bd feac 19be
00000180: 98d5 10be 5707 debe a676 87be cdf1 e93e
00000190: d8ff 0d3d 8afb 193f c61b 523e df3e 933c
000001a0: 38e4 ffbd 37e9 57be 71ab bcbe c92d f73e
000001b0: 7c53 833e 7679 3bbe 9d07 a93e b7a1 95be
000001c0: b446 47be 8561 f6be 24e1 aebd d992 763c
000001d0: fbb3 d0bc fb92 debe 92d3 053f 063e ef3e
000001e0: 49cb 053e d11f a23e c659 a53e 5728 de3e
000001f0: 17dd 4dbe 549b cb3d 7701 e33e 27ee 67bd
00000200: e912 7ebe 51bb eebe 8f7b c53e a38f 733e
00000210: edf0 ab3e 37c9 e73e 118f 10bf 7e0f dc3d
00000220: 5328 0d3f 49a8 293e c40b 04bf fe68 08bf
00000230: 7f1a e63e 808a 363e a091 9abe cb61 a4be
00000240: 5fca 573e 34dc 043f 5f2a 07bf db07 883c
00000250: 1be1 9dbe f446 be3e 4805 603e 65f1 9abe
00000260: f7c0 c5be bc5a 92be 32f2 48be 1493 e73d
00000270: 1124 a1bb 1451 863e 8e21 083e b07d 173e
00000280: db47 063f 3996 783e bd5a 0dbf a8ca 1abf
00000290: 4c21 76be 30fa 0cbf 1691 a43e 3812 0f3e
000002a0: 7a84 c73e 8b76 313e 1dd1 823e 5d85 7f3e
000002b0: f9e0 d7be e646 023f beb8 f2bc fac6 b83e
000002c0: 8305 93be 997a 4cbd a26f 2ebe 625b d23e
000002d0: 1690 133f 244e bc3e 9e6f 963e 0aec 0bbf
000002e0: 6175 12bf f430 90be 1437 bcbe 4450 80be
000002f0: 7f1f fa3e e1ee dabd 40d1 75bd fd05 7dbe
00000300: c8a0 c23e ba6b cbbe 9dcb fbbd f790 ad3d
00000310: d3bd c1be fb93 9f3e a7ea 16be 331b b0be
00000320: c2e8 11bf 9ba8 173f 3670 19be 1540 d1be
00000330: c8f5 8c3e 59be 18bf c8c6 cc3e 87b3 0abf
00000340: d40c 6ebe 226d b63e 9663 1bbf e900 cf3e
00000350: e66f afbe c7a6 cebe f6dd 1f3e 96ec 92bd
00000360: 4947 3fbe 444c 913e 7991 49be 3159 713e
00000370: 7a38 9f3e 56bd 663e 148b 893e 360b 17bd
00000380: 0cab cd3d 5513 e73e 8e41 063f 1ae5 5fbd
00000390: 5952 afbe c660 963e 35db b73e dd80 d13e
000003a0: 0101 f03c 2b9b d83e 16de edbe e02a dfbd
000003b0: 31c8 973e a3f2 0a3f 65d0 093f bcd5 08bf
000003c0: d380 583c 69f0 573d ee53 09bf 0d25 d0be
000003d0: 2894 d5be 0738 8fbe 2f5c 823d 2ee8 1bbf
000003e0: 5a39 233e d34e 1b3e 9a00 4e3e de86 b3be
000003f0: 3b1d 1a3f 6bd4 1abf 4017 00bf 8b2b 7abe
0.43241003 -0.16505535 0.17807631 -0.47567883 -0.43262008 0.45651117 -0.45411855 0.1341031
0.34794828 -0.4468057 -0.34841982 -0.41615564 0.47979662 0.086588934 0.045400366 -0.5930547
-0.06135259 -0.061354827 -0.31342027 0.41236043 -0.07337263 0.44211417 -0.12943527 0.22419468
-0.3281392 -0.3792845 0.40916348 0.2988864 -0.5282243 -0.39020693 -0.32665965 0.5887528
-0.23062788 0.36556128 0.13849309 0.4437547 0.33893576 -0.29069605 0.52676183 -0.28740138
0.6115934 0.056687776 -0.3969025 -0.47748616 -0.4581903 -0.5873308 -0.33043388 0.060261585
-0.1379641 -0.29269898 0.18979436 -0.14006415 0.5499507 0.59161156 -0.24978916 0.5408608
0.44797355 -0.5263823 -0.2515705 -0.021445068 0.045488734 -0.38813785 0.5978583 0.16927753
-0.5767909 -0.18265088 0.0232108 -0.40978688 -0.3943116 -0.14794604 -0.32861018 0.3674034
0.17270559 0.4476664 0.07558358 0.4445532 0.21815251 0.47287664 0.41055188 -0.14264154
-0.016182752 0.39444172 0.3854163 0.23379388 -0.58921593 -0.019494636 -0.2397919 -0.2516375
0.29395986 0.60159093 0.4630756 0.2800365 0.25997564 0.57418454 -0.044846255 -0.15007398
-0.1414398 -0.43364975 -0.2645771 0.45692292 0.03466782 0.60149443 0.20518407 0.017974315
-0.12494701 -0.21085058 -0.3684955 0.4827712 0.2564963 -0.18308052 0.3301362 -0.2922494
-0.19460565 -0.48121276 -0.08539036 0.01504966 -0.025476446 -0.43471512 0.52275956 0.46727008
0.13065828 0.316649 0.32295054 0.43390152 -0.2010387 0.09941736 0.44337055 -0.056623604
-0.24811901 -0.46627286 0.3857083 0.23785262 0.3358225 0.45270702 -0.564683 0.107451424
0.55139655 0.16568102 -0.5158045 -0.53285205 0.4494209 0.17826271 -0.30189228 -0.3210586
0.21073292 0.51898503 -0.5279903 0.016605308 -0.30835804 0.37163508 0.21877015 -0.30262294
-0.38623783 -0.2858485 -0.1962364 0.1130735 -0.0049176295 0.26233733 0.1329405 0.1479404
0.5245339 0.24276055 -0.5521658 -0.6046548 -0.24036139 -0.55069256 0.32141942 0.13971794
0.3896826 0.17330377 0.25550166 0.24953218 -0.42163828 0.5088943 -0.029629108 0.36089307
-0.28715143 -0.049921606 -0.17034772 0.41085345 0.5764173 0.36778367 0.29382032 -0.5465704
-0.57210356 -0.28162348 -0.3676077 -0.25061238 0.48852155 -0.10690094 -0.06001401 -0.24709316
0.3801329 -0.39730626 -0.122946955 0.084749155 -0.37840137 0.31167588 -0.1473795 -0.3439575
-0.56995785 0.59241647 -0.14984211 -0.40869203 0.27531266 -0.5966545 0.39995408 -0.54180187
-0.23247081 0.35630137 -0.6069883 0.40430382 -0.3426506 -0.40361616 0.15612015 -0.071740314
-0.18679537 0.283785 -0.196844 0.2356918 0.31097776 0.22533163 0.2686392 -0.036875926
0.1004239 0.45131937 0.5244378 -0.054661848 -0.34242514 0.29370707 0.3590943 0.40918627
0.029297354 0.42305884 -0.464585 -0.1089685 0.2964492 0.54276484 0.5383361 -0.5345113
0.013214308 0.052719507 -0.5364369 -0.40653268 -0.41714597 -0.27972433 0.06365239 -0.60901153
0.15939847 0.15166788 0.20117417 -0.35063833 0.6020085 -0.60480374 -0.50035477 -0.24430673

encoder.layers.0.attention.w_q.bias f4 [16]
00000000: f8db 643e 62c9 6cbe d1ef 44be 52dc 10be
00000010: f04a 3a3e ecd2 803c 49b5 e3bd 721e 2dbe
00000020: e84d b63c 175b 99bd d0df 853d 773f 4f3e
00000030: f3a1 9fbd 15d5 3a3d 3a65 893d a481 253e
0.22349536 -0.23123696 -0.19232108 -0.14146546 0.18192649 0.015725575 -0.11118562 -0.16906145
0.022253945 -0.07488077 0.065368295 0.20239054 -0.07794561 0.045613367 0.067087606 0.16162735

encoder.layers.0.attention.w_k.weight f4 [16, 16]
00000000: 62b6 1b3d 3ed9 f5be e457 993e c85e e23e
00000010: e9fa 783e efd1 1bbf a0d4 173f ab10 6bbe
00000020: 5a8b 10bf 4168 3c3e eba7 eebe 0aaf 043f
00000030: 5a41 11bf 1669 af3e 8cc2 d73e 9aec 823b
00000040: 2ede bf3e 52d5 70be 5824 8bbd 56ef c7be
00000050: 5c33 04bc cbf4 033f 2e42 11be e571 0b3e
00000060: 0ff4 f33c 3cdd d83e 9f98 74be 3ca0 933e
00000070: 15fa 4bbd f5c0 dfbe dc10 f6be 33b8 9b3c
00000080: a77e 87be 3cc1 0bbf 04de 453e 3b15 23be
00000090: e3a6 223e 54d9 873d 7e6d d33d 4d8d e43e
000000a0: ec97 eb3e efee 01be b949 85be ce83 b03d
000000b0: 3da6 9c3e b04b fabe 0555 ef3c 3f84 debe
000000c0: c169 c93e 3272 15bf 6ce3 f63d c7f1 f4bd
000000d0: 0dc7 733e 0eca 0b3f 0522 d2be daf0 c63d
000000e0: 7d16 a73e 0812 c03e 2a99 02bf b485 14bf
000000f0: 3f23 27be fb90 d8be 16b1 f7be 75c1 afbc
00000100: d4f6 f63d 1fb1 fdbe 6138 343e 1e6d 4e3e
00000110: 5f2b c63e ee48 193f 8c9a f7be 4897 b6bd
00000120: 2452 e43e 3a30 a83e 5f8e a1be 37b2 0d3f
00000130: 6549 1fbe 150d 05be 247c fdbe d8a0 863e
00000140: c459 ae3d 772f e0be 550a 9e3e 046e 7dbe
00000150: 3c64 debe 9ddf b03e c375 bdbe 11f4 d33e
00000160: 4fc8 e3bb 6fed 8bbe 0227 35bd c525 3dbe
00000170: 4049 2abe d73f fe3e 15d5 bcbd 83a7 eb3e
00000180: a04f 333e ebc7 cf3e e995 46be cda1 0b3f
00000190: 2e00 a73e 7675 86be cebb 00bf 57b6 083f
000001a0: 706f 013f 5323 2d3c 3b7f c3be b243 d73e
000001b0: 804f 2b3e 429d 7e3c 4080 cebe c666 033f
000001c0: f454 0abf 7dc2 9c3d 6c18 46bd c232 8abe
000001d0: 01ed fbbc 2490 dc3e 9780 8bbd 1cda 11bf
000001e0: b3dd 183f 8d1e d83e 310d 7bbe 0cae c4be
000001f0: c82f 57be 05b1 de3e 6d3d 2a3d 8e4f 9dbd
00000200: 58e0 00bf 1f38 16bc ce64 ddbc 286c c5be
00000210: 96a2 17be d292 8e3e 53fa 47be 3f01 11bf
00000220: 812d 153f ea1c 02bf 1dbf 653d 4976 75be
00000230: 0beb bfbe 0a7c b4be 5152 a83e fdb6 d93e
00000240: 2c93 ad3c 29a8 8f3e 7a09 fbbe 5f7a d63e
00000250: c948 cb3e 4f88 b53e ab7f 8dbe 7263 3d3e
00000260: ee85 d33e 48d1 073f e339 c6ba c40c 003f
00000270: 5829 e0be afae af3e e600 223d 48ad e43e
00000280: 6ec9 56be ad9d 263e 1eee c8be e2d7 073f
00000290: 4195 803e 2e34 6bbe 2c7e 21bd 9032 3cbe
000002a0: 9c6c 36bd e4a8 813e d8a3 ae3e 975c bf3e
000002b0: a3af 70be 9e9d afbe 86fc d7be 6bb2 c63e
000002c0: c0ac e13d d17d aebe 2089 a73d 523b 4b3e
000002d0: c37d 443c 7f84 a73e f7f7 9bbe c51b 593c
000002e0: 36b0 b33e 5522 1fbe aa88 183f b4ea 79be
000002f0: 8bfc 2ebe a19f 353e 3fbb a33e 496e 693e
00000300: 89f5 4dbe 5597 8ebe 63bf 193f 4bac abbe
00000310: 3c4e 063f 8621 bdbe 9532 3bbe 787a d1be
00000320: 341e 7bbd bf66 b93b e09a 45be c221 673e
00000330: 5c82 86bd 8d98 8bbd f243 cdbe 9cda 6bbe
00000340: 7576 eb3d 7563 ca3d 49d2 b2be 5fcd 9ebd
00000350: fb3b 6a3e b7f4 ce3e 833f 963e 8139 183f
00000360: fdc4 823d 16cc c3bd 18b0 fe3e c2e0 26be
00000370: 04bb d1be 2dfd aebe 0889 cf3e 5247 c43e
00000380: 8cc5 b6be dd91 b93d 0343 debc 89f8 5f3d
00000390: bf99 3cbe e857 cdbe f66a bfbe 1189 44bc
000003a0: be41 8cbd 82bd fc3e e6b7 e3be 13e5 d8be
000003b0: 5580 673e 8a55 cb3d f01b 6f3e 0627 6b3d
000003c0: 43de e53e 8d38 06bf bd5f 4b3b 7880 123f
000003d0: c1df 5ebd 5195 a03e e3ea 1c3e 76c5 683e
000003e0: 2464 a93e b714 9bbe 6e0c d13e 7419 3a3d
000003f0: 8190 a7bd 9746 d13e db37 8fbe cdb4 0fbf
0.03801573 -0.48017305 0.29949868 0.44212937 0.24314465 -0.6086721 0.59308815 -0.22955577
-0.56462634 0.18399145 -0.46612486 0.5182959 -0.56740344 0.34259862 0.42140615 0.0039954903
0.37474197 -0.23518875 -0.067940414 -0.39049786 -0.008068886 0.515454 -0.14185402 0.13617666
0.029779462 0.42356288 -0.23886345 0.28833187 -0.049799044 -0.43701902 -0.48059738 0.019008731
-0.26463816 -0.5459173 0.19322973 -0.15926068 0.15883975 0.06633249 0.10323618 0.44639054
0.46014345 -0.12688802 -0.26032808 0.0861889 0.3059558 -0.4888587 0.029215345 -0.4346027
0.39338496 -0.58377373 0.12055096 -0.11960178 0.238064 0.54605186 -0.4104158 0.097139075
0.32634345 0.37513757 -0.5101496 -0.58016515 -0.16322039 -0.4229811 -0.48377293 -0.021454552
0.120587975 -0.49549195 0.17599632 0.20158812 0.38704965 0.59876907 -0.48360097 -0.08915573
0.44593918 0.32849294 -0.31553933 0.5535006 -0.15555342 -0.12993272 -0.49508774 0.2629459
0.08513215 -0.43786213 0.30867258 -0.24748999 -0.43435848 0.34545603 -0.37003908 0.41397145
-0.006951369 -0.27329585 -0.044226654 -0.18471439 -0.16629505 0.4965808 -0.0922033 0.4602624
0.17510843 0.40582213 -0.19393124 0.54543763 0.32617325 -0.2626149 -0.5028657 0.5340323
0.50560665 0.010567504 -0.38183007 0.42043835 0.16729546 0.015540423 -0.40332222 0.51328695
-0.5403588 0.07654283 -0.048363134 -0.2699185 -0.03075266 0.4307872 -0.06811636 -0.56973433
0.59713286 0.42210808 -0.24516751 -0.38414037 -0.21014321 0.4349443 0.041562486 -0.076811895
-0.5034232 -0.009168654 -0.027025606 -0.3855908 -0.14808115 0.2784639 -0.19529085 -0.56642526
0.5827256 -0.5082537 0.056090463 -0.23970903 -0.3748401 -0.35250884 0.32875302 0.4252242
0.021188341 0.28057984 -0.49030668 0.41890237 0.39703968 0.35455558 -0.27636465 0.18494967
0.41313118 0.5305371 -0.0015123453 0.5001948 -0.43781543 0.3431296 0.039551638 0.44663453
-0.20975277 0.16271086 -0.3924417 0.53063786 0.25113872 -0.22969124 -0.039426968 -0.18378663
-0.04453717 0.25324166 0.34109378 0.37375328 -0.235045 -0.3429994 -0.42184848 0.38807997
0.110192776 -0.34080365 0.081804514 0.19846848 0.011992875 0.32718274 -0.3046262 0.01325125
0.35095376 -0.1554044 0.5958353 -0.24405938 -0.17088525 0.17736675 0.31978795 0.22795977
-0.20113195 -0.27849832 0.6005766 -0.33529887 0.52463126 -0.3693964 -0.18281014 -0.4091375
-0.0613081 0.0056580002 -0.19297361 0.22571471 -0.06567833 -0.06816206 -0.400909 -0.23032612
0.11497203 0.09882251 -0.3492606 -0.07754015 0.22874443 0.40421078 0.2934533 0.59462744
0.06385229 -0.09560411 0.49743724 -0.16296676 -0.40962994 -0.34177533 0.40534234 0.38335663
-0.3569759 0.09061024 -0.027131563 0.05468038 -0.18418024 -0.4010613 -0.37386292 -0.01199557
-0.06848477 0.49363333 -0.4447624 -0.4236227 0.22607549 0.09928425 0.23350501 0.057410263
0.44896135 -0.5243004 0.0031032406 0.5722728 -0.054412607 0.3136392 0.15323977 0.22731575
0.33084214 -0.30289242 0.40829796 0.04543443 -0.08181859 0.40874168 -0.27972302 -0.56135255

encoder.layers.0.attention.w_k.bias f4 [16]
00000000: c61e 9535 00f0 c934 0911 0f36 0f95 64b5
00000010: f203 42b6 6089 4635 4d80 ec35 5307 f1b5
00000020: 76c5 9c34 4058 1335 cd12 8c34 7cb1 d835
00000030: 864f 61b6 e6ab 2d35 3ec8 6d35 36ea 59b6
1.1110321e-06 3.761379e-07 2.1318576e-06 -8.515353e-07 -2.891055e-06 7.3960655e-07 1.7620711e-06 -1.7958031e-06
2.9200936e-07 5.489019e-07 2.6090711e-07 1.6144909e-06 -3.3573901e-06 6.469767e-07 8.858077e-07 -3.2471848e-06

encoder.layers.0.attention.w_v.weight f4 [16, 16]
00000000: 83c9 ba3e 9c18 1b3e f63a 5a3e 79aa 073c
00000010: a86a f4be 3036 fdbd 1991 d73e 6139 39be
00000020: c022 063e a1d0 febd eb25 2b3e a435 623e
00000030: 6c0a fd3b 02bf 9bbd 8351 fa3e b473 09bf
00000040: ad99 23be e2b0 583d 967a 00bf 6310 473e
00000050: 27e3 ef3d f64b f33e bc41 f8be 475b aabe
00000060: 4f48 eb3d 086b d73e 6af8 d23e ab67 4cbd
00000070: 12bb e6be d0b0 11bd 83e4 e3be 3bd2 87bd
00000080: bd36 a63c d33f b53e 779e 083f 8751 753c
00000090: 7e4a 04bf de93 15bf 8838 e5be 446a cfbe
000000a0: 8ef8 bf3e cc33 d93d baf0 c83d 2f59 133d
000000b0: 99cc 043e f248 3f3d 6ed2 19be 16e5 cebe
000000c0: a375 07bf 2f63 bfbe 4ffc a2be 1727 f33d
000000d0: e234 133f 2980 d2be b8a8 f03d ff96 4fbe
000000e0: 8012 053f 2325 aabe 5467 8cbe ed4d 0bbd
000000f0: c0e4 0bbf 47e2 0e3f 046b aebe 64fb e63e
00000100: 8877 923e bffc 143f 2a1a 353e b3b1 c1be
00000110: 76ba 98bd 00db e8ba 79da a23e afc3 c93d
00000120: 615f c6be 7b93 b93e 1760 673d 058a 0a3f
00000130: af8f a03e 6b38 4a3e 59cd 49be 4633 9fbd
00000140: 7a07 9e3e 53f4 053e 9f91 e33d d7ed abbe
00000150: f086 9c3d 10bb 163f a636 4cbe f15b 0f3f
00000160: 7f7c c1be 20ea 1f3c a705 893e 88e2 c53d
00000170: 64a9 4dbe a5e8 09bf 547a b13e 745c 2ebd
00000180: adb9 ddbe 4a5c c3be 0cd6 a6be 7381 97bd
00000190: e0eb 11bf 329e 603d dcec 9ebe 617c 7ebc
000001a0: e20d a83e d561 08bf ec35 ccbd e757 ec3d
000001b0: 05ad 563e 2287 48be cdc3 e33e 39e1 3abe
000001c0: 2e67 cebe 6f5a 833e b84d 403e b6e9 213e
000001d0: 63e6 0ebe 4660 3b3e e653 b6be 5de0 afbe
000001e0: aa98 01bf d8f4 d0be f686 59bd fb82 363e
000001f0: ab95 d43e d8f3 0ebf be1e 2b3e 1221 923e
00000200: 578a f5be cc0d 09bf 52c3 81bd 042f b8be
00000210: b40e 913d c4ff 4bbe 4659 a8be c8fb c63e
00000220: 937b b4be 52b7 8bbe c05e b13e e2cd 98be
00000230: f8bc 6c3e eb15 373e 4b99 ed3c af57 babe
00000240: d5bc f9be a344 04bf b76e 0bbf 4fe2 853e
00000250: 3c32 0d3e ea74 0a3f 9f07 643e b8a3 643e
00000260: 0c87 873e 2c94 77bd 0dab 053f ffe9 f63d
00000270: ceba e73d 5231 ffbe 6dbf 0bbf 6825 fdbe
00000280: 59b3 023f a488 ea3e 13e1 cd3e ca38 d5be
00000290: 541b c7be 0d2f 89be 400b e8be 9b54 0b3e
000002a0: 2df5 71be 9508 0abf d18e 343e 7c29 013f
000002b0: 0bed 03bf 5e3e 18bf 69fa fa3d 120a f8bd
000002c0: b9d7 9ebe bcee 4c3e c457 d4be c91a bd3e
000002d0: f9db c3be 400f 123f efa5 38be 275b dabe
000002e0: cc77 f43c a590 ce3e 2f36 2ebe 12b0 913e
000002f0: 9dcb eabd 5e3d 91bd 7711 0f3f fb25 7f3d
00000300: 67b2 0f3f 0e1d 3e3e 18c6 cbbe 105a c33e
00000310: b702 c2bd 135b fdbd ae9a d6be 1ac4 3fbe
00000320: f152 8e3e 0176 a0be 95fb 193e 2187 b7be
00000330: afa0 fdbe 7200 f9be d605 ab3d 1137 7b3d
00000340: a97e d9be 78b3 e2be 1ce9 5cbe 0e15 e53e
00000350: 19a5 ffbe eb4a e5be 4b92 13bf 275b c8be
00000360: f512 56be 69df 8cbe 63c2 1abe 97ed d03d
00000370: f4aa fbbe df19 093f 0f59 0fbf 055b 913e
00000380: 5548 c23e 0453 06be f9a7 b03d 297f cb3c
00000390: f170 023f 4a40 0e3f ccf3 bbbe 7174 cd3e
000003a0: ab58 f93e cfdd b9be f3d6 633c 3453 b5bd
000003b0: 3957 a73d 2f7a b93e f814 cb3e 434c 033f
000003c0: 755f 443c 6850 b23e ed51 cabe ebc2 a9be
000003d0: f6d7 b83d 5ce2 51bd 1466 dabd a67a d3be
000003e0: 7936 e1bd aa35 05be 7f00 be3d 1ae0 0fbd
000003f0: 8096 933d 978b 103f 1e93 953e cf07 3fbe
0.36481866 0.15146106 0.21311554 0.00828039 -0.47737622 -0.12363851 0.42102888 -0.18088295
0.13099194 -0.124421366 0.16713683 0.22090775 0.0077221896 -0.07604791 0.48890314 -0.53692174
-0.15976591 0.052903064 -0.5018705 0.19439845 0.11713248 0.4751889 -0.4848765 -0.33272764
0.11488401 0.42073846 0.4120515 -0.049903553 -0.45064598 -0.035569012 -0.44510278 -0.06631895
0.020289773 0.35400257 0.533668 0.014973051 -0.51676166 -0.5842875 -0.44769692 -0.40510762
0.3749432 0.106055826 0.0981154 0.035973724 0.12968673 0.046700425 -0.15021679 -0.40409154
-0.52913874 -0.3738036 -0.3183312 0.1187269 0.5750257 -0.41113403 0.117509305 -0.20272444
0.51981354 -0.33231458 -0.27422583 -0.034009863 -0.5464592 0.5581402 -0.3406602 0.4511367
0.2860682 0.5819816 0.17685762 -0.37830886 -0.074574396 -0.0017765462 0.31807306 0.09851777
-0.38744643 0.3624533 0.056488123 0.5411685 0.31359622 0.19748084 -0.1970724 -0.077734515
0.3086508 0.13081484 0.111117594 -0.33579895 0.07642925 0.58879185 -0.19942722 0.55999666
-0.37790295 0.00976041 0.26762125 0.09662348 -0.20084149 -0.5387061 0.3466364 -0.04256864
-0.43305722 -0.38156348 -0.3258518 -0.07397737 -0.5700054 0.054838367 -0.31040084 -0.015532584
0.32823092 -0.5327428 -0.09971222 0.115402035 0.20964439 -0.19582799 0.44485322 -0.18249978
-0.40313095 0.25654933 0.18779647 0.1581181 -0.13955073 0.18298444 -0.35610884 -0.34350863
-0.5062357 -0.408118 -0.053107224 0.17823403 0.41520438 -0.55840826 0.16710946 0.28540856
-0.47957107 -0.5353668 -0.063360825 -0.3597337 0.070828825 -0.19921786 -0.3288061 0.3886397
-0.3525053 -0.272883 0.346426 -0.29844576 0.23118961 0.17879455 0.02900376 -0.36395022
-0.4877688 -0.5166723 -0.5446581 0.26149222 0.13788694 0.54084647 0.22268532 0.22328079
0.2647022 -0.060444042 0.5221413 0.1205635 0.11314927 -0.49842316 -0.5458897 -0.494426
0.5105491 0.45807374 0.4021078 -0.4164489 -0.38888037 -0.2679371 -0.45321083 0.13606493
-0.23628683 -0.53919345 0.17632605 0.50453925 -0.51533574 -0.59470165 0.12254793 -0.12111296
-0.31023958 0.20012945 -0.4147321 0.36934498 -0.38253763 0.5705452 -0.18032049 -0.4264767
0.02984228 0.4034473 -0.17012857 0.28454643 -0.114646174 -0.07091783 0.55886024 0.06229208
0.56131595 0.18565771 -0.3979957 0.3815465 -0.09473174 -0.12370887 -0.41914886 -0.1872715
0.27797654 -0.3134003 0.15037377 -0.35845283 -0.49536654 -0.48633152 0.083507225 0.061331812
-0.42479447 -0.4427755 -0.21573299 0.44742626 -0.49930647 -0.4478372 -0.576451 -0.39132044
-0.20905669 -0.27514198 -0.15113215 0.10201567 -0.49153864 0.535551 -0.5599527 0.28389755
0.3794581 -0.13117605 0.08625788 0.024840908 0.50953585 0.5556685 -0.3670944 0.401279
0.4870046 -0.3630204 0.013906228 -0.0885376 0.08170933 0.3622603 0.39664435 0.5128824
0.011985649 0.3482697 -0.3951563 -0.33156523 0.09025566 -0.051241264 -0.10664001 -0.4130451
-0.10996718 -0.13008752 0.09277438 -0.03512583 0.0720644 0.56463 0.29213804 -0.18655322

encoder.layers.0.attention.w_v.bias f4 [16]
00000000: 80ac a9bc 4dd4 cfbd 843e 6cbd fa3b 043e
00000010: 66a1 3bbe 7020 50bb eda9 0dbe 2949 3e3e
00000020: 0684 303d a4fd 1fbe d818 f83d 13de 263e
00000030: f157 17be 03e3 3abe ac09 e33d 7095 82bd
-0.020712137 -0.10147915 -0.057676807 0.12913504 -0.18323287 -0.0031757616 -0.13834353 0.18582596
0.043094657 -0.156241 0.121141136 0.16295652 -0.1477964 -0.1825066 0.11085829 -0.06376159

encoder.layers.0.attention.w_concat.weight f4 [16, 16]
00000000: e9c9 f3be a51f d1bd 5f35 b43e 4826 a8be
00000010: 607e 01bf 368d 3a3e 9fe3 a4be dbe9 873e
00000020: 8df4 d8be f7b3 113f d78b 493e fd2e f6be
00000030: 37f9 f7be 4c1c 293e 9f4c 093f 9c1c 36be
00000040: d4ab 10bf 6711 fc3e ff29 053f a0a4 033f
00000050: 38a9 263e ec83 413e eab8 8fba ce61 9ebe
00000060: 68e8 153e 1931 e3be 8bec 3cbe 0704 a3be
00000070: e920 bbbe 2232 16bf 72dd e5be c174 97bd
00000080: f3a7 f83d e723 05be 5bf7 3abd ae35 313e
00000090: 9f5a 0d3f 9fe4 22be cba6 d73e 4e0a 1c3e
000000a0: b3ed ab3d a133 d3be 7d74 babe 1389 a83e
000000b0: 0ff9 0b3e 1ca8 1b3f 63b2 d23e 7c59 843d
000000c0: 991e d7be 37dd 023f 1f9d 3a3e bb64 bbbe
000000d0: 57ba bb3e 4709 57bc a30d 0cbf a7a8 da3e
000000e0: 7373 ca3e c992 a6be a908 5a3e 459f 60be
000000f0: 9e07 70be 561d 7c3e a026 a1be 50b0 cabd
00000100: f6b1 3f3c c16e 41bd 8424 11bf 4849 023f
00000110: e97f 683e c255 de3e e56e 67be ffe0 dbbe
00000120: 2339 4c3e 9e06 113f b376 d8bc 7285 53bd
00000130: c688 a2be 1237 11bf 4b2c 0bbf 82db 5bbc
00000140: 496c 1e3e 6f59 84be b7f7 f9be a376 61bd
00000150: 5435 10bd 0930 e73e 3f46 e03e 126a 5c3e
00000160: 4a51 2f3e ada7 af3c 488a 23be f196 6ebe
00000170: 74f1 04be 150d dd3e 5051 0f3f 89aa 53be
00000180: 01d1 d23e 4d21 f53e 1b5f a73e a68f ebbe
00000190: 1533 bcbe 5f82 e3be e080 05bf 807d 39bc
000001a0: 4fbd 72be 049f ef3d 1830 8cbe 983e 003f
000001b0: 7be5 cf3e 285f c0be d5cc fe3c 2690 343e
000001c0: 3daf ccbd d99e 53be 0767 0dbf 38e6 2a3e
000001d0: ea26 53be 3d57 30be 5586 103f befd 723e
000001e0: f4ad 8e3d 13b2 38be a34b cc3e 4825 823e
000001f0: b550 a93d 7b9b 093f 3dc8 033d 3d7b 78be
00000200: 60d4 833d f49f 08bd 8b91 c83e 619a 3ebe
00000210: 64b5 cf3d 08b3 393e dd36 ec3d 3941 fbbe
00000220: ec10 4d3d a966 ccbe 4803 0c3f ec9a f33e
00000230: 61d3 e8be 6caa 15be d57e d2be 38c1 09bf
00000240: b68b f23e 12d1 afbe c002 853e 10f6 10be
00000250: 9044 adbd b2a9 5d3e 18f0 923e 0b74 67bc
00000260: 6d76 573e 1649 c7bd 8959 d8bb 3f98 ec3e
00000270: c88e 87be 56f1 5c3c 8b34 32be 25c6 94be
00000280: c712 8b3e 3316 fb3e f54a 39be 0e92 29bd
00000290: 6755 123f d064 02bf 4e47 eabd 1823 0bbf
000002a0: f3bd 27bd 7313 0d3e cc0b c73e 4c79 623c
000002b0: defc a4be c2cb 67bd 143a 2c3e 8076 fe3e
000002c0: 6fe4 a8be bb12 723e 33f1 e83c 4404 ff3e
000002d0: 056b f0be 2ee8 d1bd fa05 e3be d52c 15be
000002e0: a1ea 82be 2d1d bb3e 55db 023f 59e8 13bd
000002f0: 8b45 71bd 6470 fbbe a34c be3d 55e2 ddbc
00000300: b4a8 eb3e b14a 7b3d 7f42 e5be d240 13bf
00000310: 5d7b 1a3e a264 793e c526 b63d 92d8 83be
00000320: 558d a93e ab52 5cbe ab6a 81be 6919 0ebf
00000330: 7e83 e4be 759b c8be 56d6 d63e 3138 c6be
00000340: af8e 073f ee0a cd3d 39d3 a03e fbe4 e93d
00000350: aa21 2dbe 0bce acbe bc84 12bf 06d3 f4be
00000360: 450b c13e f7e0 25be f1fb a23e b01e efbe
00000370: cf4f dfbd 8e15 a2be 472d f0be c653 5fbe
00000380: 198c 92bd bab7 6dbe 2649 d73d 49ff bb3e
00000390: deb6 c0be ae98 efbe fa0c 1b3e cfca 5bbe
000003a0: 895b 35be f73d 81be 13ec 7cbe 99f0 95be
000003b0: 2926 febe fd8b a93e 0118 d93e 4d78 ee3e
000003c0: 4820 3c3e c60c 8bbd 6fd0 a8be d68a 153e
000003d0: 6fd4 20bc 838f 8a3d e842 103f a293 dcbd
000003e0: 88e3 163f e88c febd f394 d93d d1ef a23d
000003f0: 097b 143f 225f 573e 1407 04bf a617 21be
-0.47614983 -0.10211114 0.3519697 -0.32841706 -0.5058346 0.1821793 -0.3220491 0.26545605
-0.42374077 0.5691523 0.19682251 -0.48082724 -0.48432323 0.165147 0.5363254 -0.17784351
-0.5651219 0.49232027 0.52017206 0.5142307 0.1627549 0.1889798 -0.0010965143 -0.30933994
0.14639437 -0.44373396 -0.18449609 -0.3183901 -0.36548546 -0.58670247 -0.44895512 -0.07395316
0.12141409 -0.13001977 -0.045646053 0.17305633 0.552164 -0.15907525 0.4211944 0.15238306
0.08394947 -0.41250327 -0.36416999 0.3291708 0.13669227 0.6080339 0.41151723 0.0646238
-0.42015532 0.511188 0.18224 -0.3660029 0.36665604 -0.0131247705 -0.5470831 0.42706797
0.39541206 -0.32533863 0.21292366 -0.21935757 -0.23440406 0.24620566 -0.3147478 -0.0989691
0.011700144 -0.047224764 -0.56696343 0.5089307 0.22705044 0.43424803 -0.22600897 -0.42945096
0.19943671 0.5665072 -0.026423788 -0.051640935 -0.31744975 -0.56724656 -0.5436446 -0.013419034
0.15470995 -0.25849482 -0.48821804 -0.05504478 -0.035207108 0.45153835 0.43803594 0.21524838
0.17120853 0.021442259 -0.15970719 -0.23299767 -0.12982732 0.43174043 0.5598345 -0.20670523
0.41175082 0.4787697 0.32689747 -0.46008033 -0.36757722 -0.44435403 -0.5214977 -0.011321425
-0.23705028 0.11700252 -0.27380443 0.5009551 0.40604767 -0.37572598 0.03110353 0.17633113
-0.099943615 -0.20666064 -0.5523533 0.16689384 -0.20620313 -0.17220779 0.56454974 0.23729607
0.06966773 -0.1803668 0.39901456 0.25419068 0.08267347 0.5375287 0.032173384 -0.24265762
0.06436992 -0.03335567 0.3917354 -0.18613578 0.101420194 0.18134701 0.11533902 -0.49073198
0.050064966 -0.39922073 0.54692507 0.47579134 -0.4547377 -0.14615792 -0.4111239 -0.53810453
0.47372216 -0.34339195 0.2597866 -0.14156365 -0.08460343 0.21646765 0.28698802 -0.014126788
0.2104127 -0.09730737 -0.0066024703 0.46209905 -0.2647612 0.013485273 -0.17402856 -0.29057422
0.27162763 0.49040374 -0.18095 -0.041399054 0.57161564 -0.5093508 -0.114393815 -0.54350424
-0.040952634 0.1377695 0.38876188 0.013822865 -0.32224172 -0.056590803 0.1681903 0.49699783
-0.3298678 0.23639958 0.028435325 0.49807942 -0.4695665 -0.10249363 -0.44340497 -0.14567883
-0.25569633 0.36545697 0.51115924 -0.036110256 -0.058904212 -0.49109185 0.09291961 -0.027085463
0.46027148 0.06135053 -0.44777295 -0.5752078 0.15086122 0.24354795 0.088941135 -0.25751168
0.3311564 -0.2151591 -0.25276694 -0.5550752 -0.4463157 -0.39181104 0.419604 -0.38714746
0.5295209 0.1001185 0.3141115 0.11420628 -0.16907373 -0.33750948 -0.57233787 -0.47817248
0.3770391 -0.16199099 0.3183284 -0.467031 -0.10903894 -0.3165707 -0.46909544 -0.21809301
-0.07155628 -0.23214617 0.10511999 0.36718205 -0.37639517 -0.46796173 0.15141669 -0.21464084
-0.17710699 -0.25242588 -0.2469943 -0.29285124 -0.4963849 0.33114615 0.42401126 0.46576157
0.1837169 -0.06789546 -0.32971522 0.14603743 -0.009816273 0.06765654 0.5635209 -0.10770346
0.58940935 -0.124292195 0.10624113 0.079558976 0.58000237 0.21032384 -0.515733 -0.15731677

encoder.layers.0.attention.w_concat.bias f4 [16]
00000000: d01d 17bd e22e 19be b631 4cbe c5af 83bd
00000010: 51c9 5d3c e569 3dbe 82b1 243e 9639 c73c
00000020: a7ae 1abd 8baa 07be 5a14 ff3c a84e 773d
00000030: c132 44bd 28a4 a6bd ab8a a9bc 1579 003e
-0.036893666 -0.1495929 -0.19940838 -0.0643001 0.013536767 -0.18497427 0.16083339 0.024319451
-0.037764218 -0.1324865 0.031137634 0.060377747 -0.047899965 -0.08136779 -0.020696005 0.12546189

encoder.layers.0.norm1.gamma f4 [16]
00000000: d465 7c3f 301b 7a3f f3e2 763f defd 793f
00000010: 0858 7c3f 43a1 773f 33eb 793f 6275 7e3f
00000020: bd43 773f acbc 773f 0c0c 7d3f 6db8 7b3f
00000030: 96bd 803f b5d5 773f bba1 773f 0202 803f
0.9859288 0.97697735 0.9644005 0.97652996 0.98571825 0.9673044 0.9762451 0.9939786
0.96587735 0.96772265 0.9884651 0.98328286 1.0057857 0.96810466 0.96731156 1.0000613

encoder.layers.0.norm1.beta f4 [16]
00000000: e9de aabb fad6 293c efc4 fb3b 5a2f d03b
00000010: 8f65 c33b 8e0b 2c3b 13da bd3b d6f7 8b3a
00000020: c94e abbb d0a3 74bb 315f 1b3c bd47 953b
00000030: b180 503c 54a6 7abc 453f 78bc 7a54 d4bb
-0.0052145612 0.010366196 0.0076833884 0.006353301 0.0059630345 0.0026252004 0.0057938187 0.0010678719
-0.005227898 -0.0037329085 0.009483145 0.004555671 0.012725995 -0.015298445 -0.015151803 -0.006479797

encoder.layers.0.ffn.linear1.weight f4 [64, 16]
00000000: 7f7c a9be 1e4b b73e b1b7 21bd 7838 823e
00000010: 21c8 84bb 1e9d 9cbe 2073 bd3e 967c 2a3e
00000020: 21e0 3a3d a1fd dfbe c2df e4be aa2e cebc
00000030: 70fe bbbe dbfd a93e 01b9 c7be 21c9 e1be
00000040: ee6c fbbd fbc7 89bd 6cd9 f0be 5250 06bf
00000050: 72eb d3be 5f6b f9bd deb7 013c 5226 c4bc
00000060: 48bc 8bbd 6b65 b9be 9124 d4be 38b5 fcbd
00000070: e7d0 5a3c 901a 613e 5c21 ab3e 7329 09be
00000080: 7645 03bf 59ee 0b3f 7f41 3b3e c885 c73e
00000090: 95e8 8fbe 0cff 913d f960 6d3e 83cb e53e
000000a0: 53b6 023f 31c1 09bf 7924 65ba ecff 983d
000000b0: aed9 d03e 3846 f0be 8761 b0be c607 aabe
000000c0: f7cc 16be b20a 1dbd 284e d83e 82b3 e1be
000000d0: 8a35 553e 2060 c0be b04a 673d 3609 debd
000000e0: c18a ce3e 5ed4 00bf eb48 0abe 40a3 98bd
000000f0: 8c08 93be 6aec b73e 410f d5be 03d8 8d3e
00000100: 408d fe3e 59b9 ea3c e962 813e 0784 ac3d
00000110: 54a8 123e d89f bd3c 97a7 8dbd b658 443e
00000120: 72b2 513e 3d60 293a bfe3 89be f456 653e
00000130: 9065 5c3e 8841 3f3e f710 823e 4bcc c13e
00000140: a8c2 0dbf 0b9c bebe dae4 163d 260f 86be
00000150: 4ba0 883d 1d8c af3b 56ad f6bd c477 063f
00000160: 2afa 12bd 8d12 023f a4e6 013f 2b03 863e
00000170: 2a91 483e 4e0e b43e 4c65 cb3e b315 f6be
00000180: 630a d03e 36f3 18be dceb 96bd 987a 0ebf
00000190: 982f 86be 85de f8be f4dd d83e 6364 c63e
000001a0: bc72 90bd 4bd9 9e3e eb7f 283e 518d a1be
000001b0: 3669 813e 9fb8 023e a698 953e 82dd 993e
000001c0: 8668 03bf b578 073f 1f6b a63e 825d f83e
000001d0: 9ef1 d4be 16ec f33e 98b0 a6be d8f7 69be
000001e0: 5691 8d3e 7960 d3be 420a 5a3e 2d38 e6bd
000001f0: c009 e3be 10fd 06bf c5ea ccbe db86 12bf
00000200: bc8e 4e3e d442 ebba 0e4e eebe 0ebb 3e3e
00000210: e410 ddbe 2589 81be 08f7 a5be 9fab 2b3e
00000220: b210 5cbe fed4 febe a819 4c3e ec35 ba3e
00000230: 3800 ea3e 6511 883e 9ba1 d53e a6fe 993e
00000240: aff5 45be 9cd2 90be 61bc b0be 705e 72be
00000250: 792c 313e f644 343e 3593 5c3d 283b e93d
00000260: 77dc 8abc 1a50 4c3e 282b fc3d 8f27 df3e
00000270: 61c3 93be 3ca8 0a3e 36a9 083e ea63 ae3e
00000280: 9460 a33e 317e 9b3e b521 893e d301 03bf
00000290: ff92 ebbd e52d 06be 7cff b43e e7b1 dabe
000002a0: 27e4 8dbd a212 a03e 1294 2b3e a980 c93d
000002b0: 765c 0ebe 5ef1 08bf 89da 533d aecf e93e
000002c0: 0e39 a8be ef26 2cbe 4c9a c7bd 233a 873e
000002d0: 57c7 9a3c e71f 673e a23f e53e 71e1 b1be
000002e0: eb2c 4f3e ee30 f63e 6522 38be 544b 753d
000002f0: d3a7 bebe ec19 773d fe82 273d 163e c13e
00000300: ffcd a63e b7f2 213e 464a 683d 77b7 e0be
00000310: 75c9 a93e 9cf1 95be f309 903e 6d63 f13e
00000320: 59b8 713e 450b 8b3d 450d 29bd a1ad b3bd
00000330: 0ed2 933e b50f c13e 4067 8e3e ced2 a23e
00000340: baa3 fabe 9a9d 00bf d98d 97bd 6379 393e
00000350: 4430 083f 0a88 423e 8ef7 e1be 8c22 093f
00000360: e8d4 b33e 67a0 d1bd f40a 05bf 2d02 4bbd
00000370: 145d 2c3c dfa4 dc3c a8c8 733e 8d71 0fbe
00000380: e31c fabd 20e2 6abe 6b0c 1ebb a8fc f4bd
00000390: de33 c6bd 244a d13e fd82 e4be 3dc9 b9be
000003a0: 908a 5f3e ea41 f33b 0efd acbe 2b21 04bf
000003b0: 0b9c 5dbe 1469 69bd 9cd5 afbd ad58 10bf
000003c0: ed6c b63d ccc7 353e 6fda 663e ed4d 06be
000003d0: d577 0f3d 7b2f 6c3d 8d48 e0bd c613 8bbe
000003e0: 0428 de3d 7219 51be 3088 4e3e 54ee e43e
000003f0: b937 c63e 68c9 b3be 26b8 12bf eb08 64be
-0.33102795 0.35799497 -0.039481822 0.25433707 -0.0040521775 -0.3058862 0.37001896 0.16649088
0.045623902 -0.4374819 -0.44701964 -0.025168736 -0.36717558 0.3320149 -0.39008334 -0.44098762
-0.12276636 -0.06727596 -0.4704088 -0.5246631 -0.41390568 -0.121786825 0.0079173725 -0.023944054
-0.06823021 -0.36210188 -0.41434148 -0.12339252 0.01335547 0.21982789 0.3342389 -0.13394718
-0.51277864 0.54660565 0.18286704 0.38969254 -0.28107134 0.071287245 0.23181523 0.4488183
0.51059455 -0.5381041 -0.00087410916 0.07470688 0.40791076 -0.46928573 -0.34449407 -0.33209056
-0.14726625 -0.038340278 0.42247128 -0.44082266 0.20821205 -0.37573338 0.056467712 -0.108416006
0.40340236 -0.50324047 -0.13504378 -0.074530125 -0.28717458 0.35922557 -0.416132 0.27703866
0.4971714 0.028652834 0.25270775 0.0842362 0.14322025 0.023147509 -0.06916731 0.19174466
0.20478228 0.0006461179 -0.2693157 0.22396451 0.21523118 0.18677342 0.25403568 0.37851176
-0.55375147 -0.37228426 0.036839344 -0.26183432 0.066711985 0.005357279 -0.1204478 0.525265
-0.035883106 0.50809556 0.50742555 0.26174292 0.19586626 0.35167164 0.3972572 -0.4806343
0.40632924 -0.14936528 -0.07369205 -0.55655813 -0.26208186 -0.4860727 0.42356837 0.38748464
-0.07053134 0.31025156 0.16455047 -0.31553128 0.25275582 0.1276574 0.29218024 0.3005181
-0.51331365 0.5291856 0.32503602 0.4850884 -0.4159059 0.47641057 -0.32556605 -0.22848451
0.27649945 -0.4128454 0.21292976 -0.112411834 -0.44343376 -0.5272989 -0.40022865 -0.57237023
0.20171636 -0.0017948993 -0.46543926 0.18626043 -0.4317695 -0.25299945 -0.32415032 0.16764687
-0.21490744 -0.49771875 0.19931662 0.36369264 0.45703292 0.2657577 0.41724858 0.30077094
-0.19332002 -0.28285682 -0.34518722 -0.23668838 0.17302121 0.17604432 0.053851325 0.11388236
-0.016950829 0.19952431 0.12312919 0.43584868 -0.2886 0.13540739 0.13345799 0.34060603
0.3190962 0.30369714 0.2678353 -0.5117466 -0.11502647 -0.13103445 0.3535117 -0.42713854
-0.06928282 0.31264216 0.16755703 0.09838993 -0.13902459 -0.534933 0.051722083 0.4566626
-0.3285603 -0.16811727 -0.09746227 0.26411542 0.01889388 0.22570764 0.4477511 -0.3474231
0.20231979 0.48084205 -0.1798187 0.05988629 -0.37237415 0.060327455 0.04089641 0.3774268
0.32579038 0.15815245 0.056711458 -0.43889973 0.33161512 -0.29285896 0.2813259 0.47146168
0.2360548 0.06789259 -0.04127242 -0.087733515 0.28871197 0.37707296 0.27813148 0.31801456
-0.48953038 -0.5024048 -0.07400102 0.18112712 0.5319865 0.18997207 -0.44134182 0.5356834
0.35123372 -0.102356724 -0.5196984 -0.04956262 0.010520238 0.026934085 0.23807013 -0.1400816
-0.12212541 -0.22937822 -0.0024116288 -0.11962253 -0.09677862 0.40876877 -0.44631186 -0.36286345
0.21830201 0.007423629 -0.33786815 -0.5161311 -0.21641557 -0.056984976 -0.08585665 -0.5638531
0.08907495 0.17751998 0.22544263 -0.13115664 0.03502639 0.05766247 -0.10951338 -0.27163523
0.10847476 -0.20419863 0.20169139 0.4471308 0.38714388 -0.35114598 -0.5731224 -0.22269027

encoder.layers.0.ffn.linear1.bias f4 [64]
00000000: fd68 1ebe fa10 e5bd 0b8f 50be 8807 6d3e
00000010: b370 5b3c 1c5d 083e b5b9 a33d 20c0 bd3d
00000020: d05e b2bc fbfc 343e d927 a5bd a4a7 21bd
00000030: 089e 683d 9f31 15be 48e0 923d e27c 72be
00000040: 1c10 c1bd 9efa e73d 3c87 343e 5b42 88bd
00000050: 5b91 42be 31d2 203e e54f e73d 15bb bebd
00000060: 4e8f 8e3c a06b 9bbd ec90 0a3e 432a 5b3e
00000070: c9cf 0f3e b48f 463e af54 adbd d4e4 2dbe
00000080: bde3 08be 3216 57be 61bb 68be b795 4a3d
00000090: 4f38 d9bd 8bec 533e 276d 4fbe 3f73 3abe
000000a0: 9e3f 613e 85f9 9ebd 27a6 503e 90f0 34be
000000b0: 1fc6 093e e35d 08bc 4d97 793e c6ea af3d
000000c0: e811 fb3d d166 3c3d 4a86 513e ddd2 5c3e
000000d0: 2499 623e 6410 f1bd 22ce 5c3d a397 0cbd
000000e0: 0415 cd3b fa0d 6bbe 6037 283d 978b 1dbe
000000f0: 7106 22be 65a1 61bd b428 d4bd ce9f d8bd
-0.15469737 -0.11184879 -0.20367067 0.23147404 0.013393569 0.13316768 0.07994405 0.092651606
-0.021773726 0.1767463 -0.08064241 -0.039466515 0.056791335 -0.1456971 0.071716845 -0.23680452
-0.09426901 0.11327098 0.17629713 -0.06653281 -0.19000761 0.15705182 0.112945355 -0.09313027
0.017402317 -0.07588887 0.13531846 0.2140284 0.14044107 0.19390756 -0.08463418 -0.16981822
-0.13368125 -0.2100456 -0.2272773 0.049459185 -0.10606443 0.20695703 -0.20256482 -0.18208025
0.21996924 -0.07762436 0.20375882 -0.17669892 0.13454483 -0.008323166 0.24374123 0.08589701
0.12259275 0.04599649 0.20461383 0.21564813 0.22128731 -0.117707044 0.05390752 -0.0343243
0.006258609 -0.2295455 0.041068435 -0.1538528 -0.1582277 -0.05508556 -0.10359326 -0.10577355

encoder.layers.0.ffn.linear2.weight f4 [16, 64]
00000000: 775d 8dbe 31bd 7e3b 4931 82be 8c38 033d
00000010: c8e7 933d a275 21be bf03 8dbe 9e18 7cbe
00000020: ca37 69be 4d23 5abe 957e da3c 9cc0 993d
00000030: 62d3 803e d8c4 7fbe 4019 4bbe f7b4 eabc
00000040: 888f eb3d e176 96be 2b1c 533e a811 f6bd
00000050: c3ae 86bd 0e12 74be b399 81be c1c2 7d3e
00000060: c614 503e 2cd3 a9bc 8970 1ebb 7347 8abe
00000070: 1210 86be 4d3c a0bd 5f2b 70be b94f 663e
00000080: 1a5a 1ebe 106d 0d3e 3b8e 55bd 45cf 7abd
00000090: e20b d53d aad8 c93d ad22 8d3d 0d32 39be
000000a0: de1d 803e a516 603e 3c03 79bd b9c6 4bbe
000000b0: 4b23 a73d 3197 c6bd 8ffb 6cbc e9b9 973e
000000c0: 5c95 043e 45b7 bfbc 5db7 453e 1051 363d
000000d0: 2b2c 45be f852 2bbe cb56 4cbd 7eb8 2dbe
000000e0: 6374 183e 1408 653c 7395 da3d e28c c73d
000000f0: 0050 f3bd 02f7 723c a804 683e 0570 debd
00000100: 7d6a 52be 6863 743e f461 213e 1e2f efbd
00000110: b02f 5bbe ecda 473d 9854 4a3e d08c 563e
00000120: 794a 7fbe 1393 703e b94c 4cbe ff9e 57bc
00000130: 24c7 373e 09c3 55be e855 d13d 7116 933e
00000140: cd31 803e a31e 70be 61b9 0abe e853 95be
00000150: fc25 40be ba58 643e 9b79 5abd 495a 803e
00000160: 3aec 22bc d139 89bd 2f68 b0bd 78a7 84be
00000170: 62b1 84be e430 8e3e 5f8d 8d3e b0fa 5b3d
00000180: 0ae8 1c3e 6407 8bbe 7f1a 61be 46d4 243e
00000190: 6f1a a13d c93e 793e 6f5d c2bd 6316 5dbe
000001a0: 345c 503e 63a7 8fbe ae8d 0dbe 519b 2b3e
000001b0: 4981 95be 5f3d aebd 1613 4e3e fa07 8ebd
000001c0: 5702 8e3e bcc9 91bd 0e9b c43d 3f8f 103e
000001d0: ce7c 963e 0cf3 873e d223 2e3e 50ac 573e
000001e0: 2072 4e3e bcc1 7b3e 5c78 a8bd 497f 953d
000001f0: 847c 423c 983b 8fbe d287 d23d 7c99 1cbe
00000200: 2977 62be 7bb5 44bd 63e7 73be 3ade 1b3e
00000210: b149 0dbe 1fde 37be 9380 553c f751 54be
00000220: 6ad1 6e3e 13b2 0dbe 043c 18be d8d5 48be
00000230: dbf9 acbd 9d85 9ebd bb1d 893d fd2c babc
00000240: 3d4f 1e3e 43f8 ac3d 0e10 6e3d d09d 6ebd
00000250: 0553 86be ca2e 2d3e 3a32 0d3e 73db 1b3d
00000260: 4f30 96bd ed41 00bd 2f41 95be 550f 1abe
00000270: e380 0fbe b0c8 9cbe 36ff da3d dc03 75bd
00000280: 1fc4 663a 97c5 0cbe 7a0d 6f3e 66da 513e
00000290: 33fb 4ebe f352 013e 9b2f 05bd 9124 043e
000002a0: d6bd 47bd 2ad6 74be 737d 713e 3fb2 2b3c
000002b0: cfca 3f3e b961 3d3d 9716 963e a824 133e
000002c0: 75f9 9abd 883e 2bbe cd99 ab3d 1726 713d
000002d0: 6ae0 b9bd 8288 f53d aa31 0b3e bd9b 56be
000002e0: 805e ccbd 64f0 a1bd adae 813d ce7c e83d
000002f0: 093e 7cbe 8b88 5dbe a064 883e 93c6 8c3e
00000300: 90eb 8dbd b2e7 48be 8c98 093c f343 813e
00000310: dde8 703e a0cc bc3d c546 3f3e 8274 d03c
00000320: ec2c 403e 47fc 21bd ca2a 97bd 637d be3d
00000330: 5190 8f3e 36f4 88be ed37 26be bf95 283e
00000340: d3cd 44bd 8b22 48bd 4a71 7ebe cc3a cabd
00000350: 5221 dc3d 9c28 3bbe 8727 74be 5a9f 75be
00000360: 9c2c 133c f5ec 893e 9410 99be 3817 85bd
00000370: 96fe db3d 30f1 953e aea7 8dbd e06a 123e
00000380: a336 4c3a 1f43 55be 6111 9e3d c14d 6e3d
00000390: e979 5abe 7ff2 87be b746 8c3e 97b5 89be
000003a0: 328d 50be a9d0 773e 0a20 4cbe 4eb3 afbd
000003b0: 2061 53be daaf 503e a506 94be 52a7 79be
000003c0: 2880 8d3e 3570 8b3d b313 94bc b012 8a3e
000003d0: 3df7 2dbe 9dcc 833e 2b4b d83d e045 623e
000003e0: e848 84bd b146 683d 56b0 ffbd d641 0a3e
000003f0: 0e82 d83d b9fd bd3d 4087 7abe 8e4d 33be
-0.2761037 0.003887009 -0.25428227 0.03203635 0.07221943 -0.1576753 -0.2754192 -0.24618766
-0.22775188 -0.21302529 0.026671687 0.075074404 0.25161272 -0.24977434 -0.19833851 -0.028650744
0.11501986 -0.29387572 0.20616214 -0.120150864 -0.06576302 -0.23835012 -0.25312576 0.24781324
0.20320424 -0.020730577 -0.0024175963 -0.27007636 -0.26184136 -0.078240015 -0.23454045 0.2249135
-0.15464059 0.13811135 -0.052137595 -0.061232824 0.10402657 0.098557785 0.068913795 -0.18085499
0.25022787 0.21883638 -0.0607941 -0.19900025 0.081610285 -0.09696806 -0.014464273 0.29634026
0.12947601 -0.02340282 0.19308229 0.0445109 -0.1925513 -0.16730869 -0.04988746 -0.1696491
0.14888148 0.013978977 0.106730364 0.09743668 -0.11880493 0.014829399 0.22658026 -0.1086121
-0.20548435 0.23866045 0.15760022 -0.11678909 -0.2140491 0.048792765 0.19758832 0.20952153
-0.24930753 0.23493604 -0.19951142 -0.013160466 0.1794706 -0.20875181 0.102214634 0.2872806
0.25037995 -0.23449187 -0.13547279 -0.29165578 -0.1876449 0.22299471 -0.05333863 0.25068882
-0.009944016 -0.06700481 -0.086136214 -0.2590902 -0.25916582 0.27771676 0.2764692 0.05370587
0.15322891 -0.27154076 -0.21982764 0.16096601 0.0786637 0.24340357 -0.09490477 -0.21590571
0.20347673 -0.28057393 -0.13823578 0.16758467 -0.292002 -0.08507799 0.20124468 -0.06935115
0.2773616 -0.07118556 0.09599887 0.14117144 0.29392093 0.26552618 0.17005852 0.21061826
0.20160723 0.24585623 -0.08226082 0.07299668 0.011870507 -0.27975154 0.10279812 -0.15292925
-0.22115768 -0.048024636 -0.23818736 0.15221491 -0.13797642 -0.17955826 0.013031143 -0.20734392
0.23322073 -0.13837461 -0.14866644 -0.19612825 -0.08446094 -0.077403285 0.06695124 -0.02272653
0.15459915 0.0844579 0.05812078 -0.05825597 -0.26235214 0.1691238 0.13788691 0.03805108
-0.07333433 -0.03131287 -0.29151294 -0.15044911 -0.1401401 -0.30621862 0.10693209 -0.059818134
0.0008803028 -0.1374725 0.23344985 0.20493469 -0.20213012 0.12629299 -0.032516103 0.12904574
-0.048765026 -0.23909822 0.23583011 0.010479509 0.18729709 0.046235774 0.2931411 0.14369452
-0.075671114 -0.16723073 0.083789445 0.058874216 -0.09076007 0.119889274 0.13593164 -0.20957847
-0.09978962 -0.07907179 0.06332145 0.113519296 -0.2463304 -0.21634118 0.2663927 0.2749525
-0.069296956 -0.19619635 0.008398186 0.25247154 0.2352633 0.092187166 0.1867934 0.02544618
0.18767136 -0.03954723 -0.07381208 0.09301259 0.28039792 -0.26748818 -0.16232271 0.16463374
-0.04804785 -0.048861068 -0.24847904 -0.09874496 0.10748543 -0.1827721 -0.23843203 -0.23986569
0.008982804 0.26938596 -0.2989546 -0.06498569 0.10741918 0.29285574 -0.06916748 0.14298582
0.0007790124 -0.20826386 0.077181585 0.05817962 -0.21335568 -0.26552197 0.273977 -0.26896355
-0.20366362 0.24200691 -0.19934097 -0.085791215 -0.20642519 0.20379582 -0.2891132 -0.24380234
0.27636838 0.06808511 -0.0180758 0.26967382 -0.16988845 0.25742045 0.10561212 0.22096968
-0.06459218 0.05670804 -0.12484805 0.13501677 0.10571681 0.092769094 -0.24465656 -0.17510054

encoder.layers.0.ffn.linear2.bias f4 [16]
00000000: 0a83 4c3c a5c8 623d 36e8 b23d 62a4 abbd
00000010: d0da 93bd ff7e b6bd 40d0 df3d 2294 d83c
00000020: 7509 1b3d 4dc0 6fbc 6c0e 213b 8c35 8b3d
00000030: f6bc 8fbc d2e3 ec3c 418b 903d 5d32 a2bb
0.012482414 0.05536713 0.08735697 -0.08380963 -0.072194695 -0.08910941 0.109283924 0.026437823
0.037850816 -0.01463325 0.0024575246 0.06797323 -0.017546158 0.028917227 0.070578106 -0.0049498514

encoder.layers.0.norm2.gamma f4 [16]
00000000: d340 7b3f fa1d 813f 7c86 7c3f 945b 803f
00000010: edb1 793f 5928 7e3f 5fd2 7f3f 8c42 803f
00000020: 458e 7a3f e604 7d3f bd84 7d3f c9d0 733f
00000030: f482 7e3f e480 773f abeb 7d3f aea8 7d3f
0.9814579 1.0087273 0.98642707 1.0027947 0.9753712 0.99280316 0.99930376 1.0020308
0.97873336 0.988356 0.9903067 0.95240456 0.9941857 0.96681046 0.99187726 0.9908551

encoder.layers.0.norm2.beta f4 [16]
00000000: 2527 1bbb 3db8 883b 10d0 61bc ece1 02bb
00000010: 85c7 3a3a 61f5 0e3b c977 2a3b fb30 48bc
00000020: 0880 98ba 55e7 ecb9 f43a cf3a b678 3c3b
00000030: f078 d63b 165b 90bb 57a5 46bb 717b 5eba
-0.0023674455 0.0041723535 -0.013782516 -0.0019971086 0.00071250676 0.0021813738 0.002601134 -0.012218709
-0.0011634836 -0.00045185784 0.0015810416 0.0028758473 0.0065451786 -0.0044053895 -0.0030310953 -0.0008487022

encoder.layers.1.attention.w_q.weight f4 [16, 16]
00000000: 2ca4 3a3e b902 84be 9d5e e03e a78b 4dbe
00000010: c051 063f 3a8c d43e 6fd9 f63b 8fe4 37bc
00000020: 8b54 953d e208 f3be 96da 88be a9f9 363e
00000030: 1964 00bf a91e 9a3d f752 01be e44d d9be
00000040: 1328 cc3d 74f9 f83e aa4b 62be e759 8bbe
00000050: 32e9 d43e fb6b 173f 8b89 103e aec3 153f
00000060: 9e0e 073e f77d 12bf 9c98 80bb c510 a5bd
00000070: c35c 50be e667 d4be c532 15bf 0206 433c
00000080: f7e7 96be 981b cb3e a23c f0be 1ed5 2c3d
00000090: 308c f33e 9ffe 453e de52 463e 8bbe 0fbf
000000a0: 35ad f3be f480 72be 3097 b13e 2ea1 813d
000000b0: 214e 02bf 48ac ccbe b6d6 7e3e a48e c8be
000000c0: ea0d 2cbe 6957 e3bc 2c9a 23be fd78 8b3e
000000d0: 9891 623e 53b3 b43d 787a 94bd 847d 07bf
000000e0: 8563 8b3e ccb2 d93e fe50 b23e 75b4 d4bd
000000f0: 5328 063f b97c 4abe 343f cbbe dc92 543e
00000100: d581 e43e 07ba 8f3e af6e acbe 851e 053d
00000110: b363 06bf 5d71 90bd 7ed5 dabe 15b6 93be
00000120: 77ab b1be 6a5c 163e 6333 92be 4c97 dcbc
00000130: d9e7 ecbe 8253 b1be f067 16bd ba90 803e
00000140: 2ce6 b03e b90d abbe 717c 98be 85e7 c9be
00000150: 2a60 003e 6183 74be 9af9 50be dffe 60be
00000160: a1fd 613e ca05 0c3f 9d8c 02bf 9d86 ca3e
00000170: 9890 e13e ac12 fabd ae16 763e d823 a5be
00000180: 561b 9ebd 164c a8be 245a e43e 6edc 96bd
00000190: 1525 cf3e 0315 673e 8903 a4bc 8b9b b23d
000001a0: 181e 3dbe 9d93 8abd 75c3 f13e c82a b93e
000001b0: 68c3 d1be c00a cc3e 99b1 d6be b67f e53e
000001c0: e0ac ed3e 92a0 60be 9f01 2a3e d201 103f
000001d0: fc52 1e3d 1e35 2fbd d848 383d f179 50bd
000001e0: bcbc de3e 64f5 c6be d62d 163e 5289 e53e
000001f0: 006d c5be ba66 e0be 565e 643e db45 843e
00000200: 18e9 9f3d ac45 10bf a08c ec3e 1bab 753d
00000210: edec 00bf 95d8 fdbe fe67 b73e 4513 98be
00000220: 4c3f ce3d b6cf 813e c3de 3b3e 76dd b13c
00000230: 6f6e 0fbf 0465 9dbe 7f90 733d 7d82 bdbe
00000240: 2ec5 ed3e f8ca 8b3e ab48 c0bd b7b2 66be
00000250: e4b3 96be 3b73 133f 627c d73e b764 ed3d
00000260: f555 2bbe 32b1 b2be f653 6ebe 0e0e 433d
00000270: 616e 5e3e 9f5c a63e 494f ddbe f5da ff3e
00000280: 082f 5b3c 4e53 9dbb dd80 cc3e 0a10 5b3e
00000290: 18b6 c63e e386 e0be 8fa3 853e bc19 c4be
000002a0: 8045 cbbe cd92 253e 98ee b3be 2453 723e
000002b0: 3479 a3be 672a 703e b205 abbe 73d6 b2be
000002c0: 0fd3 e0be 4c09 57be 5f2f a6bd 90e3 bfbe
000002d0: bf42 b4be d120 c6bd 5f8b 613e 86e0 33be
000002e0: abe3 1dbe 7e46 22be cbbf 823e 61a4 233e
000002f0: c583 b73e 3ae8 ddbe 930e a0bd 9cb7 e8be
00000300: c92f 91bd 453c 9a3e 37fd 82bd 5f63 55be
00000310: bbc1 6abe 019b a3be 41ec c3be a98c 15bf
00000320: ef7e cc3e 1cd1 263e 3e0c a6bd 36b2 5ebe
00000330: 3024 93bd bc7f 9a3c a916 683e fcce a53e
00000340: 6eba 843e b12c 18bf 6f0d ab3d 8d55 a1be
00000350: bb77 153e fcd9 a6be 2cc8 f8be 0359 bfbe
00000360: ea62 c7be 1061 f9be d1a1 02be f9ba 3ebe
00000370: b28f b9be e92e d13d 3e19 723d 6630 08bf
00000380: b50c 343e 1f9e d1bd 5576 0bbf 842f debd
00000390: fdb0 2abe d0ed b9be 103d f83d 1a99 e8be
000003a0: 97af 2fbe 1747 f73b 4a7a 2b3c 29eb 17be
000003b0: 15de 5dbe 7abf aabe 39ff 54be 9df2 06bc
000003c0: 48de 903e edd8 d93d c86a 923e b8e4 d4bd
000003d0: 6501 ebbe 4763 ed3a 79a6 083d 17ba be3e
000003e0: 5b85 edbe b697 793e a517 ffbd a4b6 7b3e
000003f0: 835d 0d3c 4128 be3e f5b3 2ebd 6cb9 9ebd
0.18226689 -0.25783327 0.43822184 -0.20072804 0.5246849 0.41513234 0.0075332443 -0.011223926
0.07291516 -0.47467715 -0.26729268 0.17868675 -0.50152737 0.07525379 -0.12629305 -0.42442238
0.09968581 0.48627818 -0.22099176 -0.27217028 0.41584164 0.5914914 0.14114968 0.5850171
0.1318917 -0.5722346 -0.0039244425 -0.08059839 -0.20347886 -0.41485518 -0.58280593 0.011903288
-0.2947385 0.3966949 -0.4692126 0.042195432 0.47567892 0.19335411 0.19367549 -0.5615012
-0.47593084 -0.23682004 0.3468566 0.06329571 -0.50900465 -0.3997519 0.24886593 -0.39171326
-0.16802183 -0.027751641 -0.1597678 0.27240744 0.22125852 0.08823266 -0.072499216 -0.52925897
0.27224365 0.42519224 0.34827417 -0.10385982 0.5240528 -0.1977414 -0.39696658 0.20759147
0.44630304 0.28071615 -0.33678195 0.03249981 -0.5249588 -0.07052872 -0.42741007 -0.28849855
-0.3470113 0.1468369 -0.2855483 -0.026927613 -0.46270636 -0.34634024 -0.036720216 0.25110418
0.34550607 -0.33408907 -0.2978244 -0.39434448 0.12536684 -0.23878242 -0.20407715 -0.21972226
0.22069408 0.54696333 -0.5099581 0.39555827 0.4405563 -0.12210593 0.24032089 -0.3225391
-0.07720058 -0.3287055 0.44600022 -0.073662624 0.4045798 0.22566609 -0.020021217 0.08721074
-0.18468511 -0.06766436 0.47219434 0.36165452 -0.40969396 0.39851952 -0.4193237 0.44823998
0.46420956 -0.21936253 0.16602181 0.5625278 0.03865336 -0.042775266 0.044991344 -0.050897542
0.43503368 -0.38859093 0.14665923 0.4483133 -0.38559723 -0.43828374 0.22301611 0.25834545
0.07808131 -0.5635631 0.46201038 0.059977632 -0.5036152 -0.495793 0.35821527 -0.297022
0.10070667 0.25353783 0.18346696 0.021712046 -0.56027883 -0.3074113 0.059463974 -0.37013617
0.464395 0.2730329 -0.0938886 -0.22529112 -0.2943412 0.575977 0.42087084 0.115914755
-0.16732009 -0.34900814 -0.23274216 0.047620825 0.21721794 0.3249254 -0.43224552 0.49971738
0.013377912 -0.0048011905 0.39942065 0.21392837 0.38810802 -0.4385291 0.26101348 -0.38300884
-0.39701462 0.16169281 -0.3514297 0.23664528 -0.31928408 0.23453675 -0.33402783 -0.34929237
-0.43911025 -0.2099964 -0.08114504 -0.37478304 -0.35207173 -0.09674228 0.22025822 -0.17566118
-0.1541888 -0.15847203 0.2553695 0.15980674 0.3584272 -0.43341237 -0.0781528 -0.45452583
-0.070891924 0.30124107 -0.06395953 -0.20838688 -0.22925465 -0.31954196 -0.38266185 -0.58417755
0.39940593 0.16290706 -0.08107804 -0.2174767 -0.071846366 0.018859737 0.22664894 0.3238448
0.25923485 -0.59443194 0.08352172 -0.31510583 0.14596455 -0.32588184 -0.4859022 -0.37372598
-0.38942653 -0.48706865 -0.1275704 -0.18626012 -0.36242443 0.102140255 0.059106104 -0.5319885
0.17582972 -0.10235237 -0.54477435 -0.10848907 -0.16669078 -0.3631425 0.12121022 -0.45429307
-0.17156826 0.0075463164 0.010466168 -0.148358 -0.21666749 -0.3334921 -0.20800485 -0.008236554
0.28294587 0.106370784 0.28597093 -0.10395187 -0.458995 0.0018111252 0.033361886 0.3725135
-0.46390805 0.2437428 -0.12455682 0.2458139 0.008628252 0.37140086 -0.04265209 -0.0775021

encoder.layers.1.attention.w_q.bias f4 [16]
00000000: 1ecf 4cbc 7da0 b8bd a7ac b73c c462 c7bd
00000010: ca5b 5cbe f369 43be b033 533d e570 f53d
00000020: 75fe 48be 8490 c63d f1f9 0f3e 80c6 4fbe
00000030: 6d42 22be 3b2f 2d3c 2339 413e d9c6 363e
-0.012500552 -0.09014986 0.022421194 -0.09735635 -0.2151939 -0.19083385 0.051562965 0.119844235
-0.19628318 0.09695533 0.14060189 -0.20290565 -0.15845652 0.010570343 0.18869452 0.17849292
