Trans_Prediction/model_saved/ratioMergedPrs/TM_ratioMergedPrs_delay_size_8_delay_0.pth (torch, 385400 bytes, 337 tensors)

encoder.layers.0.attention.w_q.weight f4 [16, 16]
0.3535104 -0.374651 -0.59692514 0.13931449 -0.3508034 0.48609513 -0.4402444 -0.35117617
0.24550034 -0.01914676 0.4237837 0.23774959 -0.2163554 -0.07949388 -0.38413122 -0.4107886
0.23031865 -0.18389943 -0.5281668 -0.0143354805 0.1262451 0.58730066 -0.19971962 -0.0063496307
0.52856004 0.51389945 0.16975488 -0.5992578 0.19099236 0.4975441 0.44244397 -0.20909807
0.22000995 0.49452332 0.27014565 -0.14007127 -0.57300895 -0.3271411 0.39564064 -0.57449204
-0.09752534 -0.49824557 0.47960454 0.31150123 0.20599006 0.53339225 0.47933203 -0.41426945
-0.06292268 0.55639875 -0.33936897 0.19157368 -0.5157374 -0.5001101 -0.41406158 0.009213284
-0.29520237 0.37782016 0.2907115 0.20352559 -0.05588078 0.534844 -0.19415455 -0.47864696
0.5749011 0.5789523 -0.07329057 -0.107818834 -0.4651023 0.10191713 -0.08502393 0.3299404
-0.41645396 -0.30952483 0.023003217 -0.6041946 -0.4131604 -0.49432802 -0.39436215 0.3530795
0.12703407 -0.3273281 -0.038031213 -0.31982133 -0.37017453 -0.46243343 0.53327334 0.30432102
-0.007546215 0.104322955 -0.25741556 0.46448904 -0.21603468 -0.10903663 0.030037645 -0.10110533
0.43305528 -0.10906004 -0.16187331 0.2748319 0.58514595 -0.34580532 -0.040092923 -0.010988221
0.49798834 0.17676942 -0.46711373 -0.15833394 -0.42051837 0.17197149 0.46084267 0.0044987686
-0.56120664 0.06642378 -0.46666294 0.29914263 0.3907722 -0.45402735 0.21577464 -0.38612905
0.4580519 0.3767775 0.5658149 0.22229995 -0.09407739 -0.13900588 -0.25233617 0.116009
-0.52412456 -0.47458103 0.12684542 0.48195994 0.12546225 -0.19464777 -0.28377536 0.052612405
0.084065475 -0.2787653 0.27355474 0.425512 -0.4625194 -0.55823594 -0.23278013 -0.44263375
-0.04450151 0.37261933 -0.4158574 0.19282691 0.31955478 -0.20493826 0.028403932 0.26201114
0.018926509 0.12457049 0.1546264 -0.48395282 0.4386789 -0.11568313 0.3184371 0.38022932
0.5256117 -0.33623648 -0.2084064 -0.5775198 0.0896478 0.32441694 -0.2060033 0.051756784
-0.43435737 0.105722226 0.18464264 -0.2550364 0.36365584 -0.23689702 -0.31400746 0.12394878
-0.19090757 0.16023606 0.2960472 -0.18579419 -0.0001953619 0.03672341 0.42906862 -0.29871315
0.16528253 -0.5366977 0.04992246 -0.047741268 0.5501414 -0.38198748 0.50954694 0.53146374
-0.20632367 -0.052079078 -0.56440604 -0.21060537 -0.107194975 0.031518333 -0.44979525 -0.08548864
-0.1090999 -0.23918523 0.29245925 0.0010864768 0.54989356 0.58571154 0.27123374 0.1760128
-0.33831102 -0.0067049284 -0.4575611 0.34905374 -0.046342336 -0.5574693 0.14364281 -0.60307336
0.00057326874 -0.28852537 0.058272373 -0.20757894 -0.3181992 -0.52335197 0.20220117 -0.44995022
-0.08824837 -0.59734017 0.49250206 -0.48806995 -0.32563427 0.107431084 -0.015086517 0.3892756
-0.49130479 -0.21479724 0.4300353 0.2616107 0.24729113 0.35338914 0.5535066 0.4560179
0.022308065 0.18128708 -0.5127904 0.023241954 0.27968502 -0.42048237 0.4086064 0.27754316
0.05940513 -0.10692958 -0.28431168 0.40337753 0.123913154 -0.11470809 -0.51368004 -0.59309167
00000000: 51ff b43e 42d2 bfbe 16d0 18bf 75a8 0e3e
00000010: 819c b3be 76e1 f83e b767 e1be 5dcd b3be
00000020: 7164 7b3e abd9 9cbc 2dfa d83e a174 733e
00000030: 458c 5dbe b0cd a2bd d9ac c4be e252 d2be
00000040: a7d8 6b3e 2250 3cbe f035 07bf 5ddf 6abc
00000050: 6546 013e 5659 163f 4d83 4cbe 9010 d0bb
00000060: b64f 073f ea8e 033f 39d4 2d3e f668 19bf
00000070: 8093 433e 1abe fe3e 0488 e23e ce1d 56be
00000080: 4a4a 613e 2932 fd3e 8850 8a3e d86e 0fbe
00000090: b7b0 12bf 0a7f a7be 6991 ca3e e911 13bf
000000a0: 5ebb c7bd 0b1a ffbe ba8e f53e 177d 9f3e
000000b0: 0fef 523e 658c 083f 026b f53e 201b d4be
000000c0: 9bdd 80bd 2670 0e3f c5c1 adbe e42b 443e
000000d0: 5e07 04bf 3707 00bf e1ff d3be 50f3 163c
000000e0: c424 97be a571 c13e 23d8 943e 0369 503e
000000f0: 3fe3 64bd 89eb 083f 73d0 46be 3711 f5be
00000100: b82c 133f 3836 143f 5e19 96bd 1fd0 dcbd
00000110: e321 eebe eeb9 d03d 0721 aebd f3ed a83e
00000120: 7439 d5be 0a7a 9ebe 3e71 bc3c 7fac 1abf
00000130: c389 d3be 9018 fdbe d6e9 c9be d6c6 b43e
00000140: 3815 023e 8c97 a7be 9ec6 1bbd 9fbf a3be
00000150: 8487 bdbe 13c4 ecbe 9a84 083f f7cf 9b3e
00000160: 3d46 f7bb 46a7 d53d f9cb 83be 82d1 ed3e
00000170: 3238 5dbe 994e dfbd 8211 f63c 5010 cfbd
00000180: 6cb9 dd3e df5a dfbd 1ec2 25be c4b6 8c3e
00000190: 20cc 153f 650d b1be 7a38 24bd f007 34bc
000001a0: 54f8 fe3e 0b03 353e 8829 efbe 4b22 22be
000001b0: 2f4e d7be 4b19 303e 92f3 eb3e 686a 933b
000001c0: 3dab 0fbf 3109 883d 72ee eebe 3929 993e
000001d0: 4b13 c83e 4676 e8be 07f4 5c3e b5b2 c5be
000001e0: c785 ea3e fbe8 c03e 3fd9 103f 99a2 633e
000001f0: a6ab c0bd 8f57 0ebe 3532 81be 2096 ed3d
00000200: 072d 06bf 49fc f2be c4e3 013e 74c3 f63e
00000210: 2d79 003e bf51 47be 014b 91be 1b80 573d
00000220: 852a ac3d 53ba 8ebe 5e0f 8c3e b5dc d93e
00000230: 58cf ecbe 8de8 0ebf ea5d 6ebe e4a0 e2be
00000240: 3747 36bd f6c7 be3e 43eb d4be 6b74 453e
00000250: af9c a33e 56db 51be 5daf e83c 5326 863e
00000260: c40b 9b3c d01e ff3d 6256 1e3e aac8 f7be
00000270: 859a e03e 47eb ecbd 300a a33e 6bad c23e
00000280: 7d8e 063f 3027 acbe 7d68 55be 56d8 13bf
00000290: 4499 b73d fa19 a63e 87f2 52be ecfe 533d
000002a0: 1764 debe e584 d83d f612 3d3e 2294 82be
000002b0: 1931 ba3e 2295 72be 96c5 a0be dcd8 fd3d
000002c0: 467d 43be ec14 243e 8093 973e d540 3ebe
000002d0: 10da 4cb9 496b 163d e2ae db3e eef0 98be
000002e0: d33f 293e 0565 09bf 7e7b 4c3d 598c 43bd
000002f0: 11d6 0c3f dd93 c3be ab71 023f 020e 083f
00000300: 8346 53be df50 55bd ea7c 10bf efa8 57be
00000310: 0a89 dbbd 5e19 013d 904b e6be ab14 afbd
00000320: c56f dfbd f9ec 74be 38bd 953e 1d68 8e3a
00000330: d3c5 0c3f 31f1 153f 26df 8a3e b33c 343e
00000340: 1a37 adbe 04b5 dbbb 7345 eabe 2cb7 b23e
00000350: 76d1 3dbd 4fb6 0ebf 1a17 133e 0463 1abf
00000360: 6a47 163a 99b9 93be 03af 6e3d 938f 54be
00000370: 01eb a2be 65fa 05bf d30d 4f3e e05f e6be
00000380: 90bb b4bd 49eb 18bf 3b29 fc3e 4ee4 f9be
00000390: 89b9 a6be d404 dc3d 702d 77bc 224f c73e
000003a0: 4d8c fbbe cff3 5bbe 962d dc3e d6f1 853e
000003b0: e339 7d3e 6cef b43e 9cb2 0d3f 2e7b e93e
000003c0: 67bf b63c 52a3 393e 3b46 03bf e965 be3c
000003d0: e032 8f3e 7749 d7be dc34 d13e 231a 8e3e
000003e0: cb52 733d e5fd dabd 4d91 91be 8087 ce3e
000003f0: 2ec6 fd3d 13ec eabd 8980 03bf dbd4 17bf

encoder.layers.0.attention.w_q.bias f4 [16]
-0.12325931 0.20854375 0.2429625 -0.090934716 0.12803759 0.23736814 -0.16229948 -0.12332552
0.056104206 0.07741394 -0.20339541 0.018374396 0.049106672 -0.046567567 0.04736142 -0.23957728
00000000: 616f fcbd 7e8c 553e 29cb 783e fb3b babd
00000010: 491c 033e a210 733e d631 26be 1792 fcbd
00000020: 86cd 653d 338b 9e3d e346 50be e785 963c
00000030: 1424 493d a2bd 3ebd 0cfe 413d bf53 75be

encoder.layers.0.attention.w_k.weight f4 [16, 16]
0.48883086 -0.20509939 -0.355373 -0.14662334 0.31552488 0.5179289 0.5488362 -0.27895513
-0.33128482 -0.2012544 -0.31357914 0.1959032 -0.118770085 0.17751084 -0.069231234 0.20822106
0.2777985 -0.3245168 0.49737442 0.18795426 0.39754122 -0.1242574 0.3494108 0.5881199
-0.55483156 -0.045531925 -0.31378818 -0.4908055 -0.038168415 -0.4025141 -0.35622734 0.0023130968
-0.075728014 0.02360324 -0.23833103 -0.08977428 -0.52185446 0.38952044 -0.40315363 0.2215595
-0.07663745 0.3331661 0.46166173 0.25344947 0.14356908 -0.5449353 -0.018184824 -0.06895261
0.50011545 -0.15333548 0.1435167 0.2970156 0.16514042 0.50516546 -0.3401238 -0.1675433
0.513388 -0.28744102 -0.50216985 -0.19277416 0.40526122 0.054497004 0.26018822 0.27698907
0.21532604 -0.059635065 0.5989862 0.57711047 -0.60082877 -0.23766309 -0.16371804 -0.095999405
-0.5344647 0.16783884 0.2968663 0.2753465 -0.054281794 0.07027069 0.45185265 0.1322671
-0.5321897 0.018610341 -0.09616623 0.3036608 0.08909962 0.46578875 -0.19468829 0.5543823
0.5261829 0.29019 -0.4862717 -0.2882304 0.5295801 -0.08512486 0.14467283 0.22406733
-0.31432784 -0.2235244 0.02050842 0.28292948 0.04462937 0.26715344 0.16026604 -0.56923056
0.029661844 0.38349426 -0.49814308 -0.60996044 0.15007102 0.50963604 0.20086725 0.037201703
0.5316757 -0.347378 -0.28792006 -0.08189676 -0.1227843 -0.46883813 0.09263667 0.16992395
0.36291674 -0.21994859 0.45871612 -0.31615597 0.50252306 0.25273564 0.43107784 0.17806211
0.27922085 0.008642464 0.35464033 -0.01629346 0.42940348 0.29640287 -0.20423785 0.35672086
-0.45642138 -0.43328205 0.18819746 0.50620455 -0.016440123 0.23276065 0.57016844 -0.17607003
0.25328586 -0.3072525 0.2009351 -0.40581226 -0.329778 -0.56411403 -0.083925374 0.1423046
-0.53603435 0.5836344 -0.15625992 -0.4800926 0.17023979 0.3832876 0.58000946 -0.11805678
-0.054174487 -0.365063 0.17002068 -0.40316412 -0.051669244 0.3519793 0.1533408 -0.14528891
-0.49353886 0.039821073 -0.5426546 -0.35308692 -0.24193056 0.032618716 0.18970333 -0.31690735
0.3916448 -0.57165724 0.42209467 0.4784227 -0.48274046 0.20358455 -0.5517983 -0.16517359
-0.110497594 -0.5895819 -0.045467522 -0.18332213 -0.4190783 0.28081188 -0.43090326 -0.5624872
0.2387478 -0.3016699 -0.35840684 0.44119707 0.017505705 0.16603182 0.554733 0.06501244
0.5929369 -0.10208579 -0.11613381 -0.11441878 0.58063996 0.22873193 -0.38837734 -0.27090058
-0.43071193 0.31915483 -0.5431364 0.3722141 -0.16657177 -0.313239 0.5499951 0.26510087
0.021264987 -0.15134402 -0.27170157 -0.37740228 0.2682933 -0.35402766 0.06850888 0.5135435
-0.11030074 -0.23438509 -0.57818484 -0.32795092 -0.1849993 -0.071731836 0.1416256 0.031872116
0.469864 -0.2548478 -0.5606865 0.01641316 0.39574105 0.0072812713 0.10889916 0.076251596
0.42874816 -0.036456358 0.3626859 -0.14149164 -0.2809952 0.1908856 0.54537636 0.07955478
-0.32688525 -0.046636928 -0.4754145 -0.08066636 0.48183325 0.18397145 0.06763091 -0.3322015
00000000: 0a48 fa3e 9305 52be 73f3 b5be 6e24 16be
00000010: 7a8c a13e fd96 043f 8780 0c3f 35d3 8ebe
00000020: 2a9e a9be a215 4ebe 728d a0be d99a 483e
00000030: bb3d f3bd 67c5 353e 1bc9 8dbd e737 553e
00000040: 9b3b 8e3e 1127 a6be dca7 fe3e 1577 403e
00000050: 868a cb3e aa7a febd f9e5 b23e 078f 163f
00000060: 7109 0ebf af7f 3abd d8a8 a0be dc4a fbbe
00000070: 7c56 1cbd 5416 cebe 6e63 b6be 5397 173b
00000080: 4a17 9bbd 955b c13c 0d0d 74be 94db b7bd
00000090: 4198 05bf 396f c73e 276a cebe 7ee0 623e
000000a0: 18f4 9cbd bf94 aa3e ed5e ec3e 21c4 813e
000000b0: c603 133e e180 0bbf 57f8 94bc 0737 8dbd
000000c0: 9107 003f fa03 1dbe 0bf6 123e 6e12 983e
000000d0: 921a 293e 8652 013f b524 aebe 7990 2bbe
000000e0: 656d 033f 782b 93be 348e 00bf 9766 45be
000000f0: 667e cf3e 4038 5f3d 6437 853e 83d1 8d3e
00000100: 6e7e 5c3e e643 74bd 2957 193f 83bd 133f
00000110: eacf 19bf f45d 73be b4a5 27be 569b c4bd
00000120: aed2 08bf f2dd 2b3e dcfe 973e 37fa 8c3e
00000130: 9656 5ebd 14ea 8f3d 3b59 e73e 0771 073e
00000140: 963d 08bf b774 983c cdf2 c4bd 6e79 9b3e
00000150: dd79 b63d dd7b ee3e 5e5c 47be 00ec 0d3f
00000160: ecb3 063f c993 943e 9bf8 f8be ef92 93be
00000170: 9092 073f f155 aebd 1d25 143e e871 653e
00000180: 94ef a0be 95e3 64be 4601 a83c 22dc 903e
00000190: 49cd 363d 56c8 883e c81c 243e 18b9 11bf
000001a0: 65fd f23c 5c59 c43e 9c0c ffbe 5e26 1cbf
000001b0: 38ac 193e 8277 023f 25b0 4d3e d060 183d
000001c0: e61b 083f 87db b1be 426a 93be 7db9 a7bd
000001d0: 5676 fbbd 8d0b f0be 4bb8 bd3d 8b00 2e3e
000001e0: 39d0 b93e 343a 61be d7dc ea3e 32df a1be
000001f0: 5aa5 003f 9166 813e 3cb6 dc3e ea55 363e
00000200: 09f6 8e3e 1f99 0d3c 6b93 b53e dd79 85bc
00000210: c6da db3e 1ec2 973e ba23 51be 1ea4 b63e
00000220: 10b0 e9be 25d7 ddbe d6b6 403e 9f96 013f
00000230: 70ad 86bc cf58 6e3e 8ff6 113f b44b 34be
00000240: afae 813e 3350 9dbe eec1 4d3e a0c6 cfbe
00000250: a9d8 a8be c769 10bf 11e1 abbd 4cb8 113e
00000260: 8c39 09bf 1069 153f 9a02 20be b3ce f5be
00000270: 5753 2e3e 463e c43e 807b 143f c1c7 f1bd
00000280: 11e6 5dbd 8ae9 babe e719 2e3e 876b cebe
00000290: 21a3 53bd a136 b43e 5f05 1d3e 9ec6 14be
000002a0: 20b1 fcbe 6c1b 233d 69eb 0abf cfc7 b4be
000002b0: a5bc 77be 349b 053d 9741 423e ae41 a2be
000002c0: ab85 c83e 2158 12bf cb1c d83e d2f3 f43e
000002d0: c229 f7be 7878 503e a742 0dbf 4423 29be
000002e0: 904c e2bd d7ee 16bf 273c 3abd ccb8 3bbe
000002f0: 6e91 d6be 93c6 8f3e 5a9f dcbe 29ff 0fbf
00000300: 4e7a 743e 7a74 9abe 1a81 b7be 95e4 e13e
00000310: 2068 8f3c 3f04 2a3e fb02 0e3f 3e25 853d
00000320: b6ca 173f 5b12 d1bd 90d7 edbd 6554 eabd
00000330: d2a4 143f b438 6a3e 65d9 c6be 7bb3 8abe
00000340: 4686 dcbe 4368 a33e fd0a 0bbf d992 be3e
00000350: ca91 2abe dd60 a0be 7bcc 0c3f 4dbb 873e
00000360: e933 ae3c edf9 1abe 781c 8bbe df3a c1be
00000370: bd5d 893e 1d43 b5be 624e 8c3d 9677 033f
00000380: 5be5 e1bd a502 70be ec03 14bf 2fe9 a7be
00000390: 7570 3dbe 24e8 92bd 4d06 113e 568c 023d
000003a0: 0492 f03e 697b 82be 2789 0fbf e474 863c
000003b0: 929e ca3e bb97 ee3b 8606 df3d cc29 9c3d
000003c0: e184 db3e 4353 15bd f7b1 b93e 2fe3 10be
000003d0: 9ade 8fbe 8477 433e c99d 0b3f 9eed a23d
000003e0: 815d a7be 5d06 3fbd 8869 f3be 6834 a5bd
000003f0: d9b2 f63e 0363 3c3e 1382 8a3d 5116 aabe

encoder.layers.0.attention.w_k.bias f4 [16]
4.62745e-06 -3.6907463e-06 -4.0047908e-06 1.3335011e-06 6.804188e-06 1.2486048e-06 -1.1794559e-06 -2.6503146e-06
-5.242609e-07 4.4019475e-06 -4.0144046e-06 4.534964e-06 7.072559e-07 3.3136323e-06 3.9351444e-06 -3.621938e-06
00000000: 7e45 9b36 8aae 77b6 e460 86b6 c0fa b235
00000010: 884f e436 bc95 a735 cc4d 9eb5 0fdc 31b6
00000020: efba 0cb5 71b4 9336 79b3 86b6 0b2b 9836
00000030: 41da 3d35 c55f 5e36 a20a 8436 6c10 73b6

encoder.layers.0.attention.w_v.weight f4 [16, 16]
0.20157501 0.43498835 -0.46537584 0.50440675 0.2673523 -0.032059293 0.18901387 -0.25281462
0.45903423 -0.35408878 0.13543315 -0.068731256 -0.51891595 -0.20505568 0.17108944 0.23284593
0.19855459 -0.35481948 0.08697976 -0.38883513 0.44221702 -0.09249822 -0.029689716 -0.377883
0.18297017 -0.041533154 0.204864 -0.27702868 -0.2391735 -0.25504753 0.3375757 0.35188147
-0.4852618 0.3577217 0.12847571 0.18940687 0.21288228 0.29016545 -0.51847905 0.55789346
0.31807655 0.14342164 0.4467397 -0.21252602 0.48223454 -0.29172742 0.44516543 0.5064492
0.41257393 -0.028204158 -0.063633986 0.1807664 -0.27565423 -0.2683831 -0.50954694 -0.11870104
-0.16015045 -0.5054075 0.5166701 -0.564023 -0.12174617 -0.41520998 0.39227697 -0.516411
-0.31121376 0.05581105 -0.14640996 -0.17227882 0.38130486 0.40585154 0.030375132 -0.28984335
-0.05777092 -0.13445178 0.3127275 -0.39672467 -0.0043071206 -0.42822218 -0.20843019 0.4182012
-0.22579609 0.1131377 0.37665582 0.25521645 0.06721921 0.5023931 -0.013522036 0.16788806
0.47189415 0.17868966 0.2307379 0.25138292 -0.30416802 0.1847112 0.36454362 -0.30213067
0.26841232 0.438196 -0.13490877 -0.26920235 -0.06217241 -0.34494153 -0.37526575 0.42218968
0.07147632 0.53172296 0.5203139 0.111402124 0.4055986 -0.15287134 0.50283885 0.011068802
-0.27599674 -0.41155523 0.51243633 0.35302618 -0.48832172 -0.012803292 0.19660951 0.11587564
0.11425103 -0.1558634 0.12076818 -0.19518799 -0.48044288 0.38777137 0.49632984 -0.26138386
-0.068903625 0.32458746 -0.30945733 -0.23761824 0.13579436 -0.047876406 -0.2577457 0.5367816
-0.026073724 -0.46812212 -0.56065845 -0.36716452 -0.56788355 0.45009375 -0.07489754 -0.16813038
-0.29859698 -0.12949596 0.34264717 0.26481977 0.014051425 0.20276338 0.28589106 -0.41098216
-0.5612918 -0.28517658 -0.45568904 0.10103628 -0.33050823 -0.36349156 0.50190043 0.25308767
0.122439995 -0.19363925 -0.3828373 0.12797292 -0.16510296 -0.03954839 0.17580014 0.5020921
-0.24446547 -0.48157138 -0.5383632 0.025332872 0.3742247 -0.2647758 -0.15524644 0.40211436
-0.14041002 0.43215716 -0.21233779 0.50262415 -0.4680495 -0.18705848 0.003927625 0.19014849
-0.1792126 0.33744237 -0.4554247 0.38414845 -0.076250836 0.015067091 -0.3779379 -0.28745422
0.00510689 -0.22357953 -0.3210953 0.50437516 0.103845775 0.4049016 -0.50279444 0.0051673865
0.43646663 -0.4142303 -0.35434976 -0.014766785 0.40095377 -0.21886832 0.22632709 -0.59508324
-0.06315037 0.3362599 -0.14469975 0.38282976 -0.37475345 -0.088701785 0.08672358 0.4977465
-0.05117451 0.5069487 -0.115849465 0.39583448 0.32668296 0.4895319 -0.1918538 -0.41534168
0.017726112 -0.43313706 0.16637051 0.12774651 0.48503086 0.5199387 0.13532828 -0.49333775
-0.5085832 -0.064094454 -0.2595867 -0.18125334 0.55728966 -0.09821684 0.43136248 0.530021
-0.1739019 -0.068138756 0.38137493 -0.076907836 -0.21005003 0.36479592 -0.57211107 -0.0048806826
0.13887326 -0.29984355 -0.5151434 0.046156053 -0.36903298 -0.27649844 -0.10070355 -0.02031463
00000000: ae69 4e3e cbb6 de3e be45 eebe cd20 013f
00000010: 67e2 883e 9b50 03bd da8c 413e eb70 81be
00000020: 8906 eb3e 204b b5be fdae 0a3e f9c2 8cbd
00000030: add7 04bf 1efa 51be 1232 2f3e 2a6f 6e3e
00000040: e551 4b3e e6aa b5be 7222 b23d 6615 c7be
00000050: 456a e23e b56f bdbd d937 f3bc e179 c1be
00000060: 885c 3b3e ab1e 2abd dec7 513e b4d6 8dbe
00000070: e6e9 74be 9795 82be b9d6 ac3e cf29 b43e
00000080: 3c74 f8be 4c27 b73e 238f 033e e0f3 413e
00000090: d0fd 593e 9190 943e 0bbb 04bf 1bd2 0e3f
000000a0: eeda a23e 1fdd 123e 11bb e43e 6ca0 59be
000000b0: 72e7 f63e 4c5d 95be b9ec e33e a8a6 013f
000000c0: e43c d33e 680c e7bc 8952 82bd d41a 393e
000000d0: 8d22 8dbe 8269 89be ab71 02bf 8819 f3bd
000000e0: 7bfe 23be 6362 01bf 7e44 043f d063 10bf
000000f0: 0e56 f9bd 6796 d4be 87d8 c83e 8333 04bf
00000100: 6957 9fbe 219a 643d 7eec 15be dc69 30be
00000110: 643a c33e c6cb cf3e 45d5 f83c 5966 94be
00000120: 33a1 6cbd baad 09be d21d a03e 7f1f cbbe
00000130: bf22 8dbb f03f dbbe b96e 55be 781e d63e
00000140: 1737 67be bdb4 e73d 08d9 c03e bbab 823e
00000150: 3aaa 893d d69c 003f 888b 5dbc d9ea 2b3e
00000160: 1c9c f13e 6cfa 363e 8e46 6c3e 43b5 803e
00000170: e9bb 9bbe ef24 3d3e 76a5 ba3e dfb0 9abe
00000180: 576d 893e 3a5b e03e 8625 0abe e4d4 89be
00000190: 7fa8 7ebd 2d9c b0be d522 c0be 3f29 d83e
000001a0: 2d62 923d ff1e 083f 4b33 053f cc26 e43d
000001b0: 9faa cf3e 4e8a 1cbe 0cba 003f ec59 353c
000001c0: 724f 8dbe 5eb7 d2be 072f 033f d9bf b43e
000001d0: 4e05 fabe e6c4 51bc 0154 493e 3550 ed3d
000001e0: 72fc e93d a89a 1fbe 4f55 f73d 5cdf 47be
000001f0: 9cfc f5be f889 c63e f21e fe3e 1bd4 85be
00000200: 581d 8dbd 5430 a63e 3171 9ebe 3252 73be
00000210: ad0d 0b3e 0d1a 44bd 3ff7 83be 856a 093f
00000220: 9098 d5bc b4ad efbe 5087 0fbf fdfc bbbe
00000230: d160 11bf b072 e63e e263 99bd 5f2a 2cbe
00000240: b4e1 98be 979a 04be 736f af3e 7596 873e
00000250: f337 663c 34a1 4f3e 5060 923e 416c d2be
00000260: d2b0 0fbf aa02 92be 1350 e9be 1cec ce3d
00000270: 6038 a9be 911b babe 8c7c 003f b594 813e
00000280: d2c1 fa3d 5e49 46be 4003 c4be 550b 033e
00000290: c010 29be 7efd 21bd f404 343e 1c89 003f
000002a0: 2855 7abe 8690 f6be 2cd2 09bf e286 cf3c
000002b0: 619a bf3e b290 87be ecf8 1ebe efe1 cd3e
000002c0: a5c7 0fbe b443 dd3e 146f 59be faab 003f
000002d0: 2fa4 efbe 428c 3fbe 4eb3 803b 49b6 423e
000002e0: 8283 37be 3fc5 ac3e 6d2d e9be 1baf c43e
000002f0: 6629 9cbd f6db 763c 1481 c1be 332d 93be
00000300: b357 a73b 08f2 64be 9a66 a4be bb1e 013f
00000310: 18ad d43d 434f cf3e 23b7 00bf 2e53 a93b
00000320: 8e78 df3e fe15 d4be 556d b5be 63f0 71bc
00000330: d049 cd3e 041f 60be 4ac2 673e 6057 18bf
00000340: fb54 81bd 422a ac3e 2c2c 14be 4302 c43e
00000350: afdf bfbe 48a9 b5bd 229c b13d a1d8 fe3e
00000360: 5d9c 51bd 64c7 013f 7c42 edbd d1aa ca3e
00000370: fd42 a73e eda3 fa3e 5375 44be aaa7 d4be
00000380: 5a36 913c 24c4 ddbe 085d 2a3e fbcf 023e
00000390: f755 f83e b41a 053f 7f93 0a3e c496 fcbe
000003a0: 8232 02bf f443 83bd 8ce8 84be 7a9a 39be
000003b0: 89aa 0e3f e925 c9bd 8bdb dc3e 75af 073f
000003c0: 5713 32be 558c 8bbd 9343 c33e db81 9dbd
000003d0: 5b17 57be 88c6 ba3e df75 12bf 22ee 9fbb
000003e0: cb34 0e3e 1885 99be 70e0 03bf 210e 3d3d
000003f0: e4f1 bcbe 3491 8dbe aa3d cebd de6a a6bc

encoder.layers.0.attention.w_v.bias f4 [16]
-0.08750716 -0.010209414 -0.08952565 -0.1304626 0.09219528 0.094288014 -0.07879025 -0.18661247
-0.037707847 -0.19499487 -0.18798812 -0.10377099 0.10254321 0.05507845 -0.16607127 0.0073870467
00000000: f436 b3bd 6345 27bc 3959 b7bd fd97 05be
00000010: e1d0 bc3d 131a c13d c85c a1bd 5717 3fbe
00000020: 8b73 1abd bcac 47be f57f 40be e385 d4bd
00000030: 2d02 d23d f199 613d 960e 2abe 0a0f f23b

encoder.layers.0.attention.w_concat.weight f4 [16, 16]
-0.22012824 -0.3978426 0.32724592 -0.48501545 0.15243801 0.253171 0.4282215 -0.049366236
0.18154626 0.17506394 -0.036064588 0.026420118 0.14660025 0.083741575 0.27002105 0.56168157
0.123148516 0.22441919 -0.57495993 0.074792154 -0.4587511 -0.48584712 -0.27345094 0.3516167
0.38687873 -0.52466416 0.08247536 0.045787416 -0.262666 0.25873804 -0.08769255 -0.22004946
-0.2601196 0.49961802 -0.2440753 -0.047778267 -0.11207891 -0.049485773 -0.015274921 0.45392486
-0.15323342 -0.0673774 0.49441913 0.44510153 0.1189036 0.045913383 -0.07360537 0.07015601
0.42689538 -0.00014122488 0.3314947 0.22964607 0.058174707 0.47308695 -0.23292881 0.041865554
0.48209816 -0.27130094 -0.095921785 0.031927563 -0.030034225 0.3697881 -0.41981122 0.434629
0.23893839 -0.14267953 0.49067527 0.34983858 0.11961549 0.54093105 0.3547749 -0.0766055
-0.06280948 -0.37627235 0.24592629 -0.5162574 -0.07903718 -0.29719085 -0.53423905 -0.5695878
-0.17724591 0.052837797 -0.587248 0.5160598 -0.09015948 0.5501769 0.51935124 0.006512556
-0.51685834 0.16440587 -0.08121459 -0.4318638 -0.5395862 0.10076853 -0.27530065 -0.3583123
0.46746427 -0.41524148 -0.03994615 -0.36694407 0.43424603 0.43936595 0.393682 -0.27016595
-0.12683107 -0.3567875 -0.5437275 0.26118293 0.49004292 0.057723224 -0.4494394 -0.5309005
-0.23030575 -0.29644617 -0.15010889 0.5399033 0.13036977 -0.26062343 -0.14011905 0.2620163
0.105302595 0.37337023 -0.3613378 -0.011769179 -0.5151958 -0.26797277 0.2819947 0.0047950135
-0.39310163 -0.31248322 0.01859982 -0.5098868 0.44993696 -0.15486142 -0.12636256 -0.37794247
-0.43021086 0.2917863 -0.47703692 -0.2676167 -0.2203581 -0.41078895 -0.53688145 -0.4768775
0.0638319 -0.21023065 0.28762874 -0.37576407 -0.33213544 -0.14208804 0.17778368 -0.34544638
-0.4567026 0.25542468 0.15147895 0.4337985 -0.26403728 -0.10021811 -0.13877028 -0.5440618
-0.27682325 0.1423095 0.35404897 0.44560787 0.08083881 0.3048919 -0.3248676 -0.08857615
-0.062479038 -0.53879976 -0.3748683 -0.29916862 -0.36573884 0.42502403 0.1995412 -0.021993829
-0.3872088 0.19430795 -0.2075764 -0.4098097 0.14740464 0.6015275 0.31117854 0.46711797
0.5359905 -0.568447 -0.07746745 -0.24205337 0.4692621 -0.33523685 0.34973505 0.35541508
-0.19035916 -0.19426472 -0.4364779 0.4496081 -0.31411153 -0.29661715 0.20323777 0.02788434
0.18705936 0.10903799 -0.4574868 0.2353801 -0.12743276 0.17096594 -0.17105663 -0.34395722
-0.4072347 -0.17439122 0.24510983 -0.007895601 0.17992808 -0.4665767 0.12555362 -0.28451204
-0.11885272 -0.17723505 -0.37014756 -0.4213604 -0.36212334 -0.044009622 0.5517867 0.33654675
0.077858634 -0.37604576 -0.3777653 -0.062903896 0.09547469 -0.3827835 0.15767819 -0.12019889
-0.3799889 -0.28394985 -0.35004842 -0.40630126 0.02882099 -0.10987138 -0.28342915 0.20033374
0.20506522 -0.19241132 -0.12771098 0.45416752 -0.33038014 -0.08045605 0.4240893 0.10831753
-0.37474 0.43618304 -0.15147011 -0.1041524 0.53741837 0.24168624 -0.09296436 -0.11704839
00000000: 4c69 61be 06b2 cbbe c78c a73e f253 f8be
00000010: b618 1c3e a19f 813e d93f db3e 4034 4abd
00000020: 43e7 393e f643 333e 76b8 13bd 016f d83c
00000030: 601e 163e b480 ab3d 3340 8a3e 5dca 0f3f
00000040: 4a35 fc3d 25ce 653e 9330 13bf a12c 993d
00000050: 6de1 eabe f4c0 f8be c301 8cbe 1b07 b43e
00000060: f814 c63e 6450 06bf d7e8 a83d 968b 3b3d
00000070: 287c 86be 5079 843e 2798 b3bd a554 61be
00000080: 652e 85be efcd ff3e e0ee 79be 25b3 43bd
00000090: a189 e5bd 98b1 4abd aa43 7abc d768 e83e
000000a0: 39e9 1cbe 2afd 89bd 8124 fd3e 59e4 e33e
000000b0: bb83 f33d ac0f 3c3d 6abe 96bd f4ad 8f3d
000000c0: 0892 da3e c415 14b9 acb9 a93e 5728 6b3e
000000d0: 9a48 6e3d 7438 f23e e484 6ebe 377b 2b3d
000000e0: 92d5 f63e f5e7 8abe a472 c4bd 7ac6 023d
000000f0: 560a f6bc de54 bd3e 7ff1 d6be b187 de3e
00000100: 44ac 743e 951a 12be ca39 fb3e 0b1e b33e
00000110: f7f8 f43d 757a 0a3f 0ea5 b53e 58e3 9cbd
00000120: 42a2 80bd c5a6 c0be 1ad4 7b3e 7229 04bf
00000130: 3fde a1bd 6629 98be e4c3 08bf 82d0 11bf
00000140: f47f 35be 726c 583d e355 16bf 7f1c 043f
00000150: 89a5 b8bd 65d8 0c3f 34f4 043f 4867 d53b
00000160: d450 04bf 035a 283e d653 a6bd 411d ddbe
00000170: 5222 0abf bb5f ce3d 35f4 8cbe b674 b7be
00000180: 7a57 ef3e 889a d4be 939e 23bd 18e0 bbbe
00000190: 7f55 de3e 93f4 e03e b090 c93e 3153 8abe
000001a0: 01e0 01be daac b6be ba31 0bbf c5b9 853e
000001b0: e8e6 fa3e 306f 6c3d ec1c e6be 18e9 07bf
000001c0: 45d5 6bbe cbc7 97be 25b6 19be 1a37 0a3f
000001d0: a77f 053e 6f70 85be 5e7b 0fbe 0027 863e
000001e0: e3a8 d73d 622a bf3e 4501 b9be 84d3 40bc
000001f0: dfe3 03bf ba33 89be 9c61 903e 7d1f 9d3b
00000200: 9e44 c9be cdfd 9fbe a65e 983c f187 02bf
00000210: 235e e63e fe93 1ebe 3065 01be ad81 c1be
00000220: 9944 dcbe 0465 953e 2f3e f4be 0e05 89be
00000230: 8ea5 61be ee52 d2be 1071 09bf 4a29 f4be
00000240: 4dba 823d b446 57be 1344 933e 2664 c0be
00000250: a80d aabe 877f 11be ed0c 363e 59de b0be
00000260: ecd4 e9be 06c7 823e 4c1d 1b3e d61a de3e
00000270: e52f 87be 273f cdbd cc19 0ebe a247 0bbf
00000280: c7bb 8dbe 95b9 113e e845 b53e b726 e43e
00000290: d18e a53d cb1a 9c3e 0c55 a6be 6a67 b5bd
000002a0: 05ea 7fbd c8ee 09bf bdee bfbe a12c 99be
000002b0: 1f42 bbbe c09c d93e 8754 4c3e 672c b4bc
000002c0: 3b40 c6be aaf8 463e e88e 54be 94d2 d1be
000002d0: 3ef1 163e b5fd 193f cb52 9f3e 162a ef3e
000002e0: ac36 093f be85 11bf 41a7 9ebd d7dc 77be
000002f0: 1f43 f03e 2aa4 abbe 7910 b33e f7f8 b53e
00000300: 83ed 42be 55ed 46be 087a dfbe 0833 e63e
00000310: 3ad3 a0be 34de 97be 901d 503e b36d e43c
00000320: 7d8c 3f3e 4f4f df3d b63b eabe 7b07 713e
00000330: bc7d 02be b211 2f3e 7829 2fbe 291b b0be
00000340: 1181 d0be 9d93 32be 12fe 7a3e 8d5c 01bc
00000350: 113f 383e 24e3 eebe 2191 003e 90ab 91be
00000360: 0e69 f3bd 1b7d 35be fb83 bdbe 8dbc d7be
00000370: 3b68 b9be 6f43 34bd e541 0d3f db4f ac3e
00000380: 5974 9f3d 1289 c0be 746a c1be c2d3 80bd
00000390: 3c88 c33d 33fc c3be 6476 213e d62a f6bd
000003a0: e88d c2be e061 91be 8c39 b3be b806 d0be
000003b0: ff19 ec3c 3f04 e1bd a01d 91be 4a24 4d3e
000003c0: 9efc 513e 7907 45be abc6 02be a588 e83e
000003d0: 9627 a9be 24c6 a4bd 3c22 d93e 95d5 dd3d
000003e0: ecdd bfbe 6253 df3e fb1a 1bbe da4d d5bd
000003f0: 4094 093f 997c 773e 1964 bebd 11b7 efbd

encoder.layers.0.attention.w_concat.bias f4 [16]
0.14215457 0.14062294 -0.08067985 0.19700594 0.053388707 0.011981018 -0.024473269 0.04346031
0.003946626 0.14174965 0.034882154 0.23402958 -0.09994838 -0.14360937 -0.06744253 -0.08018351
00000000: f890 113e 76ff 0f3e 7a3b a5bd edbb 493e
00000010: 1eae 5a3d 084c 443c 2a7c c8bc 7003 323d
00000020: b352 813b d226 113e 97e0 0e3d 73a5 6f3e
00000030: bcb1 ccbd 560e 13be 4f1f 8abd 4137 a4bd

encoder.layers.0.norm1.gamma f4 [16]
0.96776 0.9627081 0.9751353 0.9331252 0.9542275 0.9646774 0.9783811 0.98052216
0.95039046 0.97516996 0.95210403 0.9740925 0.97001827 0.9290969 0.9319253 0.93147045
00000000: 1fbf 773f 0a74 763f 78a2 793f 4be1 6e3f
00000010: 4148 743f 19f5 763f 2f77 7a3f 8003 7b3f
00000020: ca4c 733f bda4 793f 17bd 733f 205e 793f
00000030: 1e53 783f 4bd9 6d3f a892 6e3f d974 6e3f

encoder.layers.0.norm1.beta f4 [16]
-0.007697852 0.0065873945 0.003504057 -0.0031814578 0.00041426072 0.004099289 -0.0032268337 0.0014146498
0.0053841653 0.007012116 -0.00017296422 -0.00379065 0.005660694 0.00092413276 -0.0028278711 -0.0026656087
00000000: 433e fcbb 12db d73b 52a4 653b 0180 50bb
00000010: 2231 d939 5453 863b 4979 53bb c56b b93a
00000020: a76d b03b e4c5 e53b bb5d 35b9 8e6c 78bb
00000030: 587d b93b 8041 723a ce53 39bb 7eb1 2ebb

encoder.layers.0.ffn.linear1.weight f4 [64, 16]
0.015886236 -0.07253747 -0.5424545 -0.4405293 0.099270165 -0.20413727 -0.39085507 -0.21191709
0.4260627 -0.34156343 0.35996154 0.026330557 -0.31968814 0.40047288 0.007580206 0.3009651
-0.20403102 0.51309454 -0.20009597 -0.395001 -0.25241554 -0.44941637 0.26533708 -0.19679965
-0.035179 -0.14797749 -0.012051726 0.5121249 -0.24532536 -0.48417267 -0.49207836 -0.103703186
0.093793556 0.28825462 -0.044271816 -0.106079265 -0.41326305 -0.4230178 0.07751637 -0.329666
0.31007856 -0.2155984 -0.462026 -0.26474053 0.3539748 -0.07270596 -0.42199883 0.0851967
-0.4786945 0.22004458 -0.09484132 0.22513108 0.18179293 -0.3007315 -0.4727088 0.1874865
0.058776174 -0.26043543 -0.05966442 -0.016775353 -0.076244734 -0.37838057 -0.33417892 -0.23337124
0.006603404 -0.12772885 -0.5295606 0.33152318 -0.09472477 -0.12753332 -0.5085606 -0.065893434
-0.14317782 0.2821233 0.465805 0.45550898 0.2716443 -0.40103796 0.071471885 -0.37218723
0.39725685 0.4846107 0.019751474 0.3997296 0.52413106 0.13123783 -0.2640168 0.025789512
-0.46026695 0.14620864 0.1789663 -0.14982831 0.3244469 -0.11786217 -0.04083358 -0.49467608
0.443202 -0.5443372 0.47518477 -0.0043950556 0.050349437 -0.22692713 0.21275537 0.20225118
0.059356708 0.4225645 0.40545464 -0.5217713 -0.33531982 0.46743187 0.3333198 0.36220688
-0.089150734 0.12761518 -0.32519022 -0.29411134 0.21270587 -0.4728355 0.571689 0.13037394
0.31106552 0.09433346 -0.43768153 -0.37156102 -0.49946612 0.10201683 -0.03692182 0.113943696
0.081917025 0.3554777 -0.4924927 0.41479522 -0.50097305 -0.17287403 -0.46080214 -0.051877897
-0.1418221 0.11873893 0.3488131 -0.19596803 -0.47140607 0.012827431 0.41343594 0.3409072
0.051227752 -0.03869506 -0.34335762 -0.43322748 -0.17335519 0.07360416 0.41457567 0.2617262
-0.44072488 -0.24732953 -0.4990497 0.43075103 -0.17718618 -0.23295228 0.19584465 0.4337665
0.2167343 0.20204327 -0.23506084 0.1580703 0.111015245 -0.14380462 -0.28993273 0.29827586
-0.096763566 0.20022133 -0.0015138175 0.40995508 0.23106776 -0.24331918 0.068752564 0.21978772
0.51633656 0.34576246 -0.14322641 -0.5372332 0.42620397 -0.058466665 -0.3473016 0.10095779
0.4970882 0.027301447 0.07340593 -0.19594568 0.2308949 0.48926347 0.28481108 -0.479671
0.012053601 -0.14852871 0.31912124 -0.08283941 -0.4915605 0.14239463 -0.3208212 -0.018101433
-0.5106434 0.098262995 -0.38852486 0.32397094 -0.28633973 0.14548688 0.021292683 -0.38978767
0.27335224 0.29788893 -0.08482302 -0.07974971 -0.40565073 0.05025567 -0.40126556 -0.029613918
-0.289799 -0.43470982 0.04022674 0.2949903 0.04765369 -0.021711169 -0.031132147 0.064865656
-0.30553523 0.1422566 -0.2043598 0.121647194 -0.4393308 0.47043636 -0.13169558 -0.36951542
0.46983454 0.32096058 -0.42949873 0.36777443 0.39123753 0.17030773 -0.43261176 -0.14604685
-0.07089841 -0.5327021 -0.11766615 -8.675106e-05 0.016125703 -0.46448097 -0.51757276 -0.04701713
0.0854775 -0.51782686 -0.10477654 0.48640484 -0.22779292 -0.49519676 0.39598635 0.063650794
00000000: da23 823c 868e 94bd 4cde 0abf 0e8d e1be
00000010: 284e cb3d 5c09 51be 281e c8be cb00 59be
00000020: e424 da3e 67e1 aebe e14c b83e 2eb3 d73c
00000030: 2aae a3be c80a cd3e 6063 f83b 1918 9a3e
00000040: 82ed 50be 2a5a 033f f5e5 4cbe 923d cabe
00000050: 9c3c 81be e719 e6be 43da 873e d985 49be
00000060: db17 10bd 6987 17be 9a74 45bc 9e1a 033f
00000070: 9236 7bbe 7be5 f7be b2f1 fbbe 5662 d4bd
00000080: d616 c03d 1c96 933e 5d56 35bd 1640 d9bd
00000090: 3797 d3be ca95 d8be e7c0 9e3d fbc9 a8be
000000a0: 9ec2 9e3e d4c5 5cbe ac8e ecbe 128c 87be
000000b0: 2f3c b53e dde6 94bd 3b10 d8be 9c7b ae3d
000000c0: 7217 f5be 5e53 613e 2a3c c2bd c388 663e
000000d0: ed27 3a3e 7bf9 99be e306 f2be 76fc 3f3e
000000e0: 49bf 703d cb57 85be ae62 74bd 776c 89bc
000000f0: 3326 9cbd 19bb c1be 8019 abbe dff8 6ebe
00000100: 5e61 d83b 5acb 02be 4991 07bf 68bd a93e
00000110: 0fff c1bd 1898 02be 0731 02bf 23f3 86bd
00000120: 359d 12be 7772 903e fe7d ee3e 7938 e93e
00000130: f614 8b3e d954 cdbe da5f 923d 538f bebe
00000140: 4065 cb3e e51e f83e d8cd a13c 5ca9 cc3e
00000150: 742d 063f 3663 063e 362d 87be 8744 d33c
00000160: 1ca8 ebbe b8b7 153e f142 373e 986c 19be
00000170: e71d a63e b961 f1bd 1d41 27bd 2f46 fdbe
00000180: 5feb e23e af59 0bbf 6b4b f33e 6604 90bb
00000190: 363b 4e3d 965f 68be 8bdc 593e ef1a 4f3e
000001a0: 0520 733d 605a d83e c097 cf3e ce92 05bf
000001b0: 0aaf abbe 3b53 ef3e e5a8 aa3e 2e73 b93e
000001c0: a994 b6bd 8ead 023e 557f a6be c395 96be
000001d0: 91cf 593e 7f17 f2be 365a 123f bf80 053e
000001e0: fb43 9f3e e731 c13d cb17 e0be 3f3d bebe
000001f0: 06ba ffbe 33ee d03d 563b 17bd 505b e93d
00000200: 1dc4 a73d 2c01 b63e 0128 fcbe 0a60 d43e
00000210: c53f 00bf e405 31be 42ee ebbe eb7d 54bd
00000220: d039 11be 652d f33d a197 b23e d8ab 48be
00000230: 235c f1be 252a 523c e0ad d33e 638b ae3e
00000240: 31d4 513d b67e 1ebd 92cc afbe fecf ddbe
00000250: 0684 31be c7bd 963d 4343 d43e fa00 863e
00000260: b1a6 e1be f443 7dbe 7183 ffbe 668b dc3e
00000270: 4b70 35be 0b8b 6ebe 808b 483e a516 de3e
00000280: 99ef 5d3e 6ee4 4e3e cab3 70be 2edd 213e
00000290: f65b e33d 8541 13be 1072 94be 9db7 983e
000002a0: fa2b c6bd d206 4d3e 496b c6ba a2e5 d13e
000002b0: 079d 6c3e aa28 79be 25ce 8c3d 0810 613e
000002c0: a22e 043f c707 b13e f2a9 12be 1d88 09bf
000002d0: 6837 da3e be7a 6fbd 84d1 b1be f5c2 ce3d
000002e0: 5882 fe3e 49a7 df3c d955 963d fca5 48be
000002f0: b66f 6c3e be80 fa3e c2d2 913e 7097 f5be
00000300: 787c 453c e917 18be dc63 a33e b5a7 a9bd
00000310: d1ad fbbe e6cf 113e ad42 a4be 7549 94bc
00000320: 87b9 02bf 1c3e c93d bbec c6be 85df a53e
00000330: 1f9b 92be 83fa 143e fe6d ae3c 4092 c7be
00000340: d3f4 8b3e e684 983e b1b7 adbd d153 a3bd
00000350: 74b1 cfbe e4d8 4d3d ae72 cdbe e398 f2bc
00000360: 8960 94be 4992 debe cbc4 243d f808 973e
00000370: 8430 433d 9fdb b1bc d808 ffbc 49d8 843d
00000380: 1d6f 9cbe b7ab 113e b243 51be 2a22 f93d
00000390: f7ef e0be 09dd f03e 35db 06be 2031 bdbe
000003a0: 278e f03e f254 a43e 42e7 dbbe ee4c bc3e
000003b0: 4950 c83e 2665 2e3e 4a7f ddbe 4e8d 15be
000003c0: 3033 91bd 2a5f 08bf f3fa f0bd 1fee b5b8
000003d0: 0d1a 843c 73d0 edbe a67f 04bf 0995 40bd
000003e0: d40e af3d 4d90 04bf 1595 d6bd 0e0a f93e
000003f0: 8c42 69be 6e8a fdbe b9be ca3e 595b 823d

encoder.layers.0.ffn.linear1.bias f4 [64]
-0.036112163 0.07372371 0.15703279 -0.17663665 0.16033906 -0.19241759 -0.1735475 0.132578
0.017423617 0.07975318 -0.10282416 -0.053321958 0.2006398 -0.066446155 0.13570401 0.09022123
0.08596786 0.10277978 0.16892157 -0.15094276 0.057210922 0.08683264 0.1023685 0.21555842
0.18165335 0.03815014 0.20172927 -0.11872288 -0.07066147 0.09437598 0.0037971595 0.07837197
0.08994005 0.16748853 0.12683995 -0.15622437 0.118648626 0.07635093 0.0916693 -0.14688317
0.22139336 -0.20474339 -0.05926764 0.04445354 -0.18280199 0.052199405 0.22150728 -0.06881625
-0.07685557 -0.029012432 -0.20255943 -0.07308838 0.07781294 -0.11654737 -0.1982494 -0.114531904
0.04869841 -0.07460134 -0.03857232 0.18308301 0.003117454 -0.041045114 -0.21307182 0.0974144
00000000: 59ea 13bd 75fc 963d 34cd 203e 3de0 34be
00000010: ec2f 243e 1e09 45be 70b6 31be 87c2 073e
00000020: f9bb 8e3c a355 a33d 7995 d2bd 2068 5abd
00000030: 8574 4d3e ec14 88bd fef5 0a3e e9c5 b83d
00000040: eb0f b03d 357e d23d c7f9 2c3e bd90 1abe
00000050: 0056 6a3d 50d5 b13d 93a6 d13d 59bb 5c3e
00000060: 5603 3a3e 5243 1c3d 1e92 4e3e fb24 f3bd
00000070: f6b6 90bd 3248 c13d c4d9 783b 7c81 a03d
00000080: 7d32 b83d 1d82 2b3e 55e2 013e 48f9 1fbe
00000090: 0dfe f23d e05d 9c3d 1dbd bb3d 8b68 16be
000000a0: f1b4 623e 40a8 51be a0c2 72bd ea14 363d
000000b0: 7230 3bbe 0bcf 553d ced2 623e 89ef 8cbd
000000c0: 7466 9dbd 7bab edbc bd6b 4fbe 5caf 95bd
000000d0: 645c 9f3d 63b0 eebd e401 4bbe b48f eabd
000000e0: fc77 473d 96c8 98bd 02fe 1dbd 1d7a 3b3e
000000f0: 334e 4c3b ec1e 28bd 802f 5abe 3381 c73d

encoder.layers.0.ffn.linear2.weight f4 [16, 64]
-0.17052875 -0.07828725 0.16911556 -0.2518948 -0.009399381 -0.28793633 0.05566817 0.1044659
-0.19213913 0.22411522 -0.14865634 -0.0037635304 0.045668703 -0.07624101 0.25532648 0.1484399
-0.22746952 -0.09439478 0.032372866 -0.12464671 -0.072345205 -0.22097334 0.16172963 -0.18500246
0.03612566 0.09945641 -0.28231752 0.18492767 0.27286068 0.19460845 -0.13755605 0.23876724
0.27425337 -0.1255944 -0.15011294 0.21244802 0.048759732 0.2332129 -0.048174657 -0.20110777
-0.13165516 0.20557716 -0.007932529 0.27142555 0.20563209 0.01256938 -0.07460681 0.17981061
0.13990119 -0.10134979 0.22033277 0.053077675 -0.2034795 -0.26304713 -0.009954185 -0.1198444
-0.1780929 0.117225066 -0.1618378 -0.029495368 0.15086775 -0.24782313 -0.19099112 -0.020289022
-0.18150388 -0.1972405 -0.03894549 -0.026689447 0.19678909 -0.22243626 0.07597685 0.16484734
0.26120248 -0.25474405 -0.052414626 0.27906352 0.028094936 0.23379707 0.16353741 -0.22081184
-0.013814812 0.20598496 -0.11554639 -0.0075051794 -0.14057562 0.08202049 0.16815732 0.041150272
0.013123545 -0.0105932765 0.20017877 0.08729109 0.11479483 0.23621735 -0.13360639 -0.2495149
-0.14432703 -0.019166516 0.01583183 -0.043950852 -0.024797449 -0.23419535 0.05904957 -0.09693616
0.13602957 0.06482396 0.21120995 0.28832087 -0.066927396 0.1934395 0.07430667 0.07272003
0.22697338 0.04144408 -0.08667532 -0.22248799 -0.016107643 0.08253013 -0.095944144 -0.005655262
0.08271328 0.23116565 0.03044546 0.16011308 -0.100995645 0.21935529 0.24883825 0.07438738
-0.25303012 -0.21536045 -0.18802379 -0.20314507 -0.21345986 0.26366082 0.0062691197 0.2863378
0.04261224 -0.09007288 0.018066399 -0.09516717 -0.0035827218 -0.1883455 0.06393957 0.16939703
-0.09392318 0.16190943 -0.20333146 -0.1899896 0.017919807 0.06078346 -0.18676217 -0.16133042
-0.0645567 0.29273656 -0.303758 -0.22682215 0.2790831 0.06654661 0.20866571 0.13802768
0.072909765 0.0022384496 0.12270163 0.19689949 -0.17772211 0.26990572 -0.043716755 0.18168686
0.22279845 -0.236078 0.1574102 -0.13268471 0.16442864 -0.22724923 -0.22920111 0.08856699
-0.006906416 0.19428033 -0.21795002 0.2509078 -0.009597161 0.23461288 -0.056258313 -0.218877
0.23005441 -0.13456495 -0.25658637 0.24763982 -0.22570029 0.009957597 -0.2656478 0.20235215
0.17431562 -0.23408921 0.010511367 0.11013951 0.14882277 0.08915257 -0.045848608 0.17362449
0.20433736 0.07810507 0.014601223 0.27048212 0.063680395 -0.19532917 0.06695508 -0.14879343
-0.1766143 -0.2883882 -0.022105325 -0.009713701 -0.19350758 -0.122796886 -0.23407723 0.12404292
-0.23599592 0.18760997 -0.18621884 -0.21947436 -0.13466895 -0.24443313 0.27788815 -0.036129747
-0.06506138 -0.17552122 -0.28515452 -0.22569336 0.20767063 -0.1988628 0.17632076 -0.11730096
0.20482999 0.21514238 -0.19454224 0.27370158 0.25516745 0.07724646 0.26442996 -0.19392926
-0.024847122 0.27499893 0.25298774 -0.24206507 -0.13751915 -0.14631937 0.13605936 -0.1057592
-0.057763983 -0.033333298 -0.13249545 -0.18481329 0.18827796 0.260339 -0.14945143 -0.055891607
00000000: 179f 2ebe 1155 a0bd a12c 2d3e 5bf8 80be
00000010: dcff 19bc 646c 93be 4f04 643d 38f2 d53d
00000020: 1fc0 44be 767e 653e 5e39 18be 90a5 76bb
00000030: 1b0f 3b3d 3f24 9cbd 27ba 823e a100 183e
00000040: c5ed 68be 0d52 c1bd 6999 043d c646 ffbd
00000050: b929 94bd d646 62be 749c 253e 4971 3dbe
00000060: 80f8 133d cdaf cb3d ec8b 90be ae5d 3d3e
00000070: 65b4 8b3e 7047 473e 7edb 0cbe 667f 743e
00000080: f06a 8c3e d29b 00be 35b7 19be f98b 593e
00000090: 49b8 473d 5dcf 6e3e ca52 45bd 32ef 4dbe
000000a0: 9cd0 06be d282 523e 70f7 01bc 4af8 8a3e
000000b0: 3891 523e cdef 4d3c 75cb 98bd 4620 383e
000000c0: 4242 0f3e 7b90 cfbd ea9e 613e fa67 593d
000000d0: ee5c 50be 1dae 86be e116 23bc fb70 f5bd
000000e0: fc5d 36be b213 f03d cfb8 25be 45a0 f1bc
000000f0: 137d 1a3e 59c5 7dbe 2d93 43be 2a35 a6bc
00000100: 27dc 39be 6af9 49be 4e85 1fbd d4a3 dabc
00000110: 1483 493e 55c6 63be c099 9b3d becd 283e
00000120: 55bc 853e d06d 82be b8b0 56bd 6ae1 8e3e
00000130: 5a27 e63c 8068 6f3e 5a76 273e 801c 62be
00000140: 8557 62bc b9ed 523e 96a3 ecbd 02ee f5bb
00000150: 0ef3 0fbe 5cfa a73d 6f31 2c3e 308d 283d
00000160: 2304 573c 6c8f 2dbc aafb 4c3e acc5 b23d
00000170: 8d19 eb3d f6e2 713e 1dd0 08be d580 7fbe
00000180: 77ca 13be 1903 9dbc c1b1 813c cf05 34bd
00000190: 0524 cbbc e8d0 6fbe f6dd 713d 7786 c6bd
000001a0: 564b 0b3e 6dc2 843d 6c47 583e cb9e 933e
000001b0: 3b11 89bd 0115 463e 182e 983d 3dee 943d
000001c0: b66b 683e 45c1 293d d582 b1bd e4d3 63be
000001d0: 2df4 83bc 8f05 a93d 5d7e c4bd c74f b9bb
000001e0: 9565 a93d b0b6 6c3e c268 f93c aff4 233e
000001f0: ced6 cebd ac9e 603e 74cf 7e3e 6958 983d
00000200: 2a8d 81be 7387 5cbe 4f89 40be 4305 50be
00000210: 3995 5abe 8dfe 863e 306d cd3b de9a 923e
00000220: 2c8a 2e3d 2178 b8bd fcff 933c 01e7 c2bd
00000230: 19cc 6abb a5dd 40be c0f2 823d 6a76 2d3e
00000240: cc5a c0bd 96cb 253e 1f36 50be a28c 42be
00000250: 8fcc 923c 14f8 783d 953e 3fbe cd33 25be
00000260: 4e36 84bd 91e1 953e 2b86 9bbe 1144 68be
00000270: fbe3 8e3e 9749 883d 77ac 553e 2157 0d3e
00000280: b751 953d f4b2 123b fe4a fb3d 05a0 493e
00000290: c9fc 35be 1531 8a3e 5710 33bd 1f0c 3a3e
000002a0: 4725 643e 6ebe 71be 2430 213e 80de 07be
000002b0: fb5f 283e 06b4 68be b2b3 6abe 9c62 b53d
000002c0: 374f e2bb 6cf1 463e 4a2e 5fbe fd76 803e
000002d0: 693d 1dbc 5c3e 703e 1e6f 66bd 4b21 60be
000002e0: 6293 6b3e 65cb 09be 4a5f 83be 4b95 7d3e
000002f0: fa1d 67be 3025 233c fd02 88be 6735 4f3e
00000300: cb7f 323e 15b5 6fbe de37 2c3c d390 e13d
00000310: ff64 183e 9f95 b63d c0cb 3bbd 9eca 313e
00000320: d03d 513e 8df5 9f3d f839 6f3c a27c 8a3e
00000330: de6a 823d 5f04 48be bf1f 893d 4e5d 18be
00000340: 61da 34be 9ea7 93be 3a16 b5bc 3726 1fbc
00000350: da26 46be ef7c fbbd f1b1 6fbe 370a fe3d
00000360: eaa8 71be d41c 403e 27b0 3ebe e3bd 60be
00000370: a8e6 09be ae4c 7abe 5b47 8e3e c9fc 13bd
00000380: e73e 85bd d6bb 33be c6ff 91be 291c 67be
00000390: 9ca7 543e b1a2 4bbe 6e8d 343e 7c3b f0bd
000003a0: f4be 513e 494e 5c3e 1536 47be 9d22 8c3e
000003b0: 4fa5 823e 6433 9e3d 5d63 873e 6495 46be
000003c0: 318c cbbc a9cc 8c3e 9c87 813e e8df 77be
000003d0: d2d1 0cbe bfd4 15be 2553 0b3e 4898 d8bd
000003e0: ed99 6cbd 7f88 08bd e3ac 07be b23f 3dbe
000003f0: f0cb 403e 274b 853e cc09 19be 99ee 64bd

encoder.layers.0.ffn.linear2.bias f4 [16]
-0.014691924 0.09454284 0.09881957 0.020068057 0.08512444 0.008918596 0.03845154 -0.07624267
-0.045802258 0.09713667 -0.110695645 0.06454745 0.023486378 -0.08196845 -0.091207385 0.014935325
00000000: 65b6 70bc ad9f c13d ea61 ca3d c465 a43c
00000010: b955 ae3d 4e1f 123c 5d7f 1d3d 1e25 9cbd
00000020: 269b 3bbd 97ef c63d 66b4 e2bd 7431 843d
00000030: 8166 c03c 13df a7bd f0ca babd 4bb3 743c

encoder.layers.0.norm2.gamma f4 [16]
0.9697296 0.9509598 0.956953 0.96383053 0.94805944 0.9758415 0.97421443 0.95630586
0.943025 0.9757109 0.9593519 0.98612213 0.9658984 0.981819 0.94268197 0.9592074
00000000: 3340 783f 1a72 733f dffa 743f 99bd 763f
00000010: 06b4 723f c0d0 793f 1e66 793f 76d0 743f
00000020: 166a 713f 31c8 793f 1698 753f 8072 7c3f
00000030: 1e45 773f 7d58 7b3f 9b53 713f 9e8e 753f

encoder.layers.0.norm2.beta f4 [16]
-0.00435053 0.0065798587 -0.003987606 -0.0071332655 -0.00023145045 0.004318692 -0.0065483744 -0.0020144735
-0.0053458693 0.0020429797 0.0048743817 -0.004366191 0.001278548 -0.0027171723 -0.0019486529 0.0077765537
00000000: e48e 8ebb db9b d73b 77aa 82bb 2bbe e9bb
00000010: 82b1 72b9 d083 8d3b bf93 d6bb 4205 04bb
00000020: 672c afbb 83e3 053b 47b9 9f3b 4412 8fbb
00000030: f494 a73a 9612 32bb f169 ffba 76d2 fe3b

encoder.layers.1.attention.w_q.weight f4 [16, 16]
-0.36405435 -0.41912863 -0.3203106 -0.16692393 -0.35074148 0.26150557 0.5454923 0.26957515
-0.30699793 0.05236805 -0.21154444 -0.06405605 0.07001685 0.20321707 0.27102968 0.4053518
-0.11151463 0.4919152 -0.3473718 0.2694177 -0.109235555 -0.034482684 0.45371887 -0.45339504
0.1337981 0.15613888 -0.43222117 -0.42695048 0.48369905 -0.25699916 0.1747877 -0.33108768
-0.46622163 -0.4916166 0.29548913 0.0072092274 -0.4317899 -0.19722539 0.52915174 0.50659007
0.14549321 0.014756401 0.4497937 0.02670836 -0.23633787 0.07458547 0.03474132 -0.074904285
-0.029461369 0.34354386 0.025205584 -0.2839175 0.24499093 0.1490118 -0.43775192 -0.48592123
0.42061213 -0.2593655 -0.27963606 0.2932788 -0.25037828 0.43390474 0.4542153 -0.45975724
0.4701093 -0.1150553 -0.38318068 -0.14089268 0.34798023 0.4284852 -0.30860186 -0.13378155
-0.4310666 0.28222445 -0.26728275 0.34336984 0.20716192 0.056542628 -0.45498753 0.17479707
0.2406455 0.23706292 0.26750576 -0.51374286 -0.38307482 -0.2695398 0.55683285 0.48009694
0.13143145 -0.0045618066 -0.15562591 -0.3729144 -0.5053293 -0.5214874 -0.52192295 -0.4301219
0.18682003 -0.017039731 -0.021689314 0.10457379 -0.028075198 0.07448695 -0.30942377 -0.42208594
-0.052215815 -0.4506161 0.062289294 0.2937981 0.2640584 -0.12012322 0.316404 -0.43186182
-0.16169085 0.45648885 -0.4606141 0.109494746 -0.053240027 0.22660308 -0.5027308 -0.07165504
-0.3689389 0.34656838 -0.5511742 0.381301 -0.35065114 0.12101518 -0.32393053 0.09559465
0.39206815 0.5209774 0.17664784 0.5379052 -0.45613554 0.095457286 -0.45406264 -0.076080985
0.08354067 0.23640989 -0.50139976 0.1509644 -0.15736692 0.10954623 -0.098433726 0.42792004
-0.27174604 0.4962212 0.0658962 -0.41131386 -0.21493992 -0.46024933 -0.47916633 0.34764352
0.06830325 0.17616789 -0.3582747 0.00069380715 -0.21489348 -0.2859915 -0.22439507 -0.027960718
0.5502635 0.41345033 0.31195664 0.16442914 0.35807157 0.46141708 0.39824656 -0.46855876
0.26831347 0.540008 0.045763753 0.33583394 0.5078595 -0.036752578 -0.05629423 0.3697064
0.5085611 0.168198 -0.48278138 -0.04289085 -0.2089326 -0.15390964 0.4045755 -0.47626057
-0.46933305 0.3807216 -0.19173832 -0.5091375 -0.27014095 -0.03845308 0.21092743 0.11116022
-0.04980849 0.12583819 0.23943979 0.33401337 0.43727008 0.25457406 0.1603296 0.38453114
-0.04811565 0.2707112 -0.5325576 0.2912758 0.3555588 -0.11050935 -0.5088968 0.3305967
0.0159361 0.42552012 -0.20398763 -0.39682347 0.0067597283 0.2155121 -0.15815336 -0.23338597
-0.124080524 -0.19584917 0.35432023 -0.50983477 0.13666792 0.40436172 -0.35884485 -0.3160882
-0.28707126 -0.5514431 -0.2597322 0.013727522 0.059854694 -0.2368742 -0.20598727 -0.47401115
0.06931788 0.15313742 0.1253033 0.013239289 -0.16252759 -0.3396607 0.52652985 -0.5460363
-0.22966951 0.5008221 -0.13628428 0.36817518 0.18908468 -0.014161052 0.49183694 0.27002564
-0.33535922 -0.0799312 0.52294576 -0.18775451 0.3812012 0.47969252 0.50100434 0.3875447
00000000: 5565 babe 0798 d6be c0ff a3be 1bee 2abe
00000010: 6394 b3be 0fe4 853e 62a5 0b3f c105 8a3e
00000020: d52e 9dbe e17f 563d 1b9f 58be d12f 83bd
00000030: ff64 8f3d 2318 503e 67c4 8a3e 458a cf3e
00000040: c861 e4bd 4fdc fb3e b7da b1be 1ef1 893e
00000050: e4b6 dfbd b73d 0dbd d74d e83e 6523 e8be
00000060: 5e02 093e dfe2 1f3e 184c ddbe 4199 dabe
00000070: 67a7 f73e 6595 83be 8cfb 323e 5384 a9be
00000080: 9ab4 eebe 2cb5 fbbe 5a4a 973e 623b ec3b
00000090: 9113 ddbe 74f5 49be 7d76 073f e3af 013f
000000a0: 2cfc 143e d5c4 713c 5c4b e63e 7ecb da3c
000000b0: 8e02 72be 44c0 983d ea4c 0e3d 6b67 99bd
000000c0: f858 f1bc fbe4 af3e f17b ce3c a25d 91be
000000d0: e7de 7a3e 8d96 183e 0521 e0be abca f8be
000000e0: 795a d73e 8ecb 84be 752c 8fbe a428 963e
000000f0: 9531 80be c328 de3e e88e e83e 4d65 ebbe
00000100: 2bb2 f03e 1da2 ebbd 4230 c4be 2c46 10be
00000110: 772a b23e 6a62 db3e 1001 9ebe 08fe 08be
00000120: c3b4 dcbe b97f 903e 49d9 88be 2cce af3e
00000130: 4122 543e 3e99 673d 20f4 e8be 01fe 323e
00000140: c66b 763e 9fc0 723e 84f6 883e a784 03bf
00000150: 6222 c4be 1f01 8abe 998c 0e3f 44cf f53e
00000160: f795 063e 357b 95bb 665c 1fbe a3ee bebe
00000170: 435d 01bf 3380 05bf be9c 05bf f038 dcbe
00000180: c04d 3f3e e896 8bbc caad b1bc c92a d63d
00000190: f5fd e5bc 9d8c 983d cb6c 9ebe a61b d8be
000001a0: 40e0 55bd 27b7 e6be 0f23 7f3d b46c 963e
000001b0: aa32 873e 2a03 f6bd b5ff a13e fe1c ddbe
000001c0: 4992 25be e8b8 e93e 9cd5 ebbe c83e e03d
000001d0: 3712 5abd a30a 683e f7b2 00bf e1bf 92bd
000001e0: 8fe5 bcbe 6971 b13e c119 0dbf e239 c33e
000001f0: 8c88 b3be cfd6 f73d 39da a5be 21c7 c33d
00000200: 28bd c83e c65e 053f 2ce3 343e 28b4 093f
00000210: 998a e9be 1c7f c33d e67a e8be 59d0 9bbd
00000220: 5f17 ab3d 6f15 723e bc5b 00bf 6996 1a3e
00000230: cb24 21be c659 e03d 9f97 c9bd 5618 db3e
00000240: 4c22 8bbe b510 fe3e 96f4 863d bb97 d2be
00000250: 3619 5cbe cda5 ebbe 4a55 f5be 55fe b13e
00000260: 93e2 8b3d 5b65 343e c86f b7be 9ce0 353a
00000270: 090d 5cbe 7a6d 92be d2c7 65be e00d e5bc
00000280: 12de 0c3f c3af d33e c8b8 9f3e 1d60 283e
00000290: 2855 b73e dc3e ec3e f9e6 cb3e efe6 efbe
000002a0: 6260 893e f73d 0a3f c672 3b3d 6df2 ab3e
000002b0: 1503 023f df89 16bd c794 66bd 284a bd3e
000002c0: 0f31 023f 193c 2c3e 1f2f f7be 51ae 2fbd
000002d0: 6df2 55be 7d9a 1dbe 8524 cf3e 6dd8 f3be
000002e0: 6c4c f0be f1ed c23e 0d57 44be d656 02bf
000002f0: ea4f 8abe fa80 1dbd 5cfd 573e f8a7 e33d
00000300: fd03 4cbd badb 003e b42f 753e cd03 ab3e
00000310: dde1 df3e 8857 823e 712d 243e 44e1 c43e
00000320: ea14 45bd a99a 8a3e b255 08bf 1a22 953e
00000330: ce0b b63e ba52 e2bd 1047 02bf f843 a93e
00000340: 6d8c 823c c6dd d93e 22e2 50be 722c cbbe
00000350: b680 dd3b 34af 5c3e f4f2 21be bbfc 6ebe
00000360: ee1d febd af8c 48be 7669 b53e 8884 02bf
00000370: adf2 0b3e 8008 cf3e 83ba b7be 50d6 a1be
00000380: 01fb 92be 602b 0dbf 9efb 84be 67e9 603c
00000390: 322a 753d 268f 72be 54ee 52be 97b1 f2be
000003a0: 88f6 8d3d 0ed0 1c3e 824f 003e 9ae9 583c
000003b0: a26d 26be 02e8 adbe a9ca 063f 09c9 0bbf
000003c0: 7c2e 6bbe e135 003f 1b8e 0bbe 7581 bc3e
000003d0: 6a9f 413e c203 68bc 0dd2 fb3e cd40 8a3e
000003e0: 34b4 abbe f8b2 a3bd c6df 053f b842 40be
000003f0: ce2c c33e 429a f53e d241 003f 426c c63e

encoder.layers.1.attention.w_q.bias f4 [16]
-0.014785133 0.111283034 0.02948293 0.101864904 -0.1610234 -0.21958739 -0.06452374 -0.097382486
-0.1793635 -0.18639758 -0.23220517 -0.22800909 -0.13106187 -0.22396761 -0.017089311 -0.04531681
00000000: 583d 72bc 5ce8 e33d 3086 f13c 8c9e d03d
00000010: 51e3 24be 84db 60be 0625 84bd 7870 c7bd
00000020: 11ab 37be 02df 3ebe 31c7 6dbe 377b 69be
00000030: 1535 06be c457 65be e2fe 8bbc 1f9e 39bd
