Trans_Prediction/model_saved/ratioMergedPrs/TM_ratioMergedPrs_delay_size_8_delay_6.pth (torch, 385400 bytes, 337 tensors)

encoder.layers.0.attention.w_q.weight f4 [16, 16]
00000000: 5902 fc3d 9cfc 3cbe bfc6 9c3e 013c 6bbe
00000010: 112a 11bf b3c8 babe a1e3 113f 9845 c73e
00000020: 8837 ccbe 67eb 5c3e aa99 c03d 1467 1bbf
00000030: eac1 ab3e d77d 9f3e dbea 3f3e ece0 723e
00000040: a911 5c3e 0fb5 3d3e 4098 9a3e 837b 1cbf
00000050: 0d51 9fbe f332 f43e 6f65 9b3e bd02 9cbd
00000060: ddd1 debd 271d 18bf 87fd aebe 6d73 96be
00000070: d4eb 0dbf 57c2 7c3e 9b0f d2bb 30e4 5e3e
00000080: ba47 dabe 1a1d 063e 7301 6d3e 1c22 1b3f
00000090: 3496 b4bb 7141 e5be f032 ad3d 9db6 163f
000000a0: 0a4a 893e 7aa9 b2be e44c 063e cedf 95be
000000b0: 39f1 4cbe d892 c93e 8df6 3dbe 0456 01bf
000000c0: 194e 9c3e 3198 0cbf f6a5 c63d d118 ac3c
000000d0: d1c6 10be 4a45 0f3e 0630 09bf f29d 18bf
000000e0: 45a6 b33d 0c76 833d 2887 9ebe 51a2 40bd
000000f0: ac01 01bf 71d2 5f3e 303c 213e bc31 2c3e
00000100: 9c10 953e 1e64 12bf de06 d63e 2264 8fbe
00000110: ec50 0fbf 7033 d6be 9d6c d03d 37e6 0e3d
00000120: 2663 b9bc 2ff7 173f 0960 ccbc b81e 1cbf
00000130: 6213 383e 9f03 cebe f420 3abd bb3c c0be
00000140: a4a4 143f 3a59 193f 9d01 96be 9dfe 27be
00000150: 9675 7e3e 30d9 7dbd 0030 0c3f 01d9 04bf
00000160: a55b c2be 70be 14bf bd79 13bf c1ab 733e
00000170: 0e80 cbbb 148f e33e 0bc9 bebe 9226 2f3c
00000180: 8d67 f63d e262 3d3e fabb 633e 1898 323e
00000190: 1a0e 053e 1622 8b3e d34d 88be ba60 12bf
000001a0: 4588 0e3e af1a bc3e 5883 04be 73a0 e1bd
000001b0: 5666 0f3f 9d81 593e 6aba d33e 033c 913e
000001c0: 2095 143f d90e a2be 2cfe cebe 5ff0 d93d
000001d0: 057a cf3e cb40 443e a8de 09bf da6e f4be
000001e0: f305 a6be ac4a 383e 0c0e 0a3d f898 c93e
000001f0: 8ed3 013e 996f 103f e65d e53e 703c c03e
00000200: 8a2e b1be 881f 1b3f 7079 0cbe de14 183e
00000210: c47f ca3e 7de1 193f 2ca7 02bd 86d0 bebe
00000220: b8ad c83e 6417 583d 6077 d43e 1c82 e4be
00000230: bc9a c4be a46a ee3e 6fcb 0bbe c834 c73e
00000240: 2f33 ee3e 987f 4c3e 5dd4 cb3c 08b0 02bf
00000250: 59fe 38be 7759 dbbd 86cb 6e3e ca8d 0dbf
00000260: 4dff 5fbe 8466 ee3e bf4b 183f 01d3 313e
00000270: da29 0ebf dfbb 67be f66f d4be 7f78 553e
00000280: d8f8 1ebd 120e 1dbf 169d 15be 8787 86be
00000290: ae49 e9bc 326f a9be d783 853e 70b7 68be
000002a0: fcf0 c0be 797f b3be 0f25 0fbf 8c73 74be
000002b0: 3da2 dbbe c628 ccbe e683 1ebf 8424 cfbd
000002c0: 8f5b d23e 0e43 18bf 163d 1b3f b2c7 b23d
000002d0: a1b0 c5be a744 113e 1317 d5be adf3 80bd
000002e0: 2a6c 34be 9080 9ebd 7ed2 843e 4fde 57be
000002f0: 0cb5 00bf be94 8dbe 7c64 e93e 2945 65bc
00000300: 2df5 8fbd b179 f03d d3c7 12bf e4b4 153f
00000310: 1569 b439 4fa0 05be 7cd9 e23e 5594 9ebd
00000320: d8ba b73e f35f 19bf 8a9d 6a3c 9874 ecbe
00000330: 3607 f9be d83c bc3e 5652 833d 957b 05bf
00000340: 2620 f73d ff14 aabe cbba 74be cbcf 923d
00000350: 9ad1 ffbe c5bd 0c3f f37c 10bf 8adb c0be
00000360: 66d1 ddbd 6ba2 b73e 61a6 7ebe 20a2 c8be
00000370: 023a 873e ef2c db3d c7a3 623e 0425 8abe
00000380: 0b84 13bf 080a cf3e a747 19bf 50d3 1f3b
00000390: b7f1 07bf 699f d83e f6b0 083f 68d5 b93c
000003a0: cce4 d9be 9a4b e6be c449 29be 1c52 b5be
000003b0: 7e87 b43c a6b7 1a3f 2f2c 1a3f e2c7 44bd
000003c0: a29f 6b3e 25a8 1dbf 5e75 3d3e 3625 783e
000003d0: 249e 8cbc c536 163f bb94 f0be 6305 7f3e
000003e0: 2c5b e53e 2b8b 113f 6cc7 093e 8d44 09bf
000003f0: 4ba4 203e 61cd c73e 9aba 26be e43d ab3e
0.12305135 -0.18455738 0.3062038 -0.22972108 -0.56704813 -0.36481246 0.5698796 0.38920283
-0.39886117 0.21574174 0.09404309 -0.6070416 0.33546382 0.31150696 0.18741934 0.23718613
0.21491112 0.185261 0.30194283 -0.61125964 -0.31116524 0.4769512 0.30350825 -0.0761771
-0.10879872 -0.5941948 -0.341778 -0.29384938 -0.5543797 0.2468351 -0.0064105517 0.21766734
-0.42632848 0.13097039 0.23145084 0.6059892 -0.0055110697 -0.4477649 0.08456981 0.58872396
0.268143 -0.34894925 0.13115269 -0.29272312 -0.20013894 0.39369845 -0.18551083 -0.50521874
0.30528334 -0.54919726 0.09699623 0.021007927 -0.14138342 0.13991275 -0.535889 -0.59616005
0.08771948 0.06419 -0.3096249 -0.047029797 -0.50393176 0.21857621 0.15745616 0.16815847
0.29114234 -0.57184017 0.41802114 -0.28006083 -0.5598285 -0.4183612 0.10176966 0.03488752
-0.022630285 0.5936155 -0.024948137 -0.60984373 0.17976144 -0.40237138 -0.045441583 -0.37546334
0.5806372 0.59901774 -0.29298106 -0.16405721 0.24849543 -0.061974704 0.5476074 -0.5189362
-0.37960544 -0.58103085 -0.5760763 0.23795988 -0.0062103337 0.44445097 -0.3726276 0.010690348
0.120314695 0.18494752 0.22239676 0.17440832 0.1299366 0.27174443 -0.26621875 -0.57178843
0.1391917 0.36739108 -0.12940729 -0.110169314 0.5601553 0.2124085 0.4135316 0.28366098
0.58040047 -0.31651953 -0.40428293 0.1064155 0.4052278 0.19165342 -0.5385537 -0.47740823
-0.32426414 0.17997235 0.033704802 0.39374518 0.12678358 0.56420285 0.447982 0.3754611
-0.3460582 0.6059499 -0.137182 0.1485171 0.39550602 0.6010969 -0.03189771 -0.37268466
0.39195037 0.052756682 0.41497326 -0.44630516 -0.38399303 0.46565735 -0.13651823 0.38907456
0.46523425 0.19970548 0.024881536 -0.5104985 -0.18065776 -0.107104234 0.23319826 -0.5529448
-0.21874733 0.46562588 0.5949058 0.17365648 -0.5553261 -0.22630261 -0.4149167 0.20846747
-0.038811535 -0.61349595 -0.14610705 -0.26275274 -0.028477516 -0.33092648 0.26077148 -0.22726226
-0.37683856 -0.3505819 -0.5591592 -0.23872203 -0.42897215 -0.39874858 -0.6192001 -0.10114387
0.4108548 -0.5947732 0.60640085 0.08729495 -0.3861132 0.14186345 -0.41619167 -0.062964775
-0.17619386 -0.07739365 0.25941843 -0.21080898 -0.50276256 -0.27652544 0.45584476 -0.01399354
-0.070291854 0.11741961 -0.5733616 0.5847914 0.00034410568 -0.13049434 0.44306552 -0.07743136
0.35884738 -0.5991203 0.014319787 -0.46182704 -0.48638314 0.3676517 0.06412189 -0.52141696
0.12066679 -0.33219144 -0.23899381 0.071685396 -0.499646 0.54977065 -0.5644066 -0.37667495
-0.10830955 0.35866103 -0.24868156 -0.39186192 0.26411444 0.1070193 0.22132789 -0.26981366
-0.57623357 0.4043734 -0.5987496 0.0024387427 -0.531032 0.4230912 0.5339502 0.022684768
-0.4255737 -0.44979554 -0.16532046 -0.35414207 0.022037264 0.60436475 0.6022367 -0.048042186
0.23010114 -0.61584693 0.18501803 0.24232945 -0.017165251 0.5867732 -0.46988472 0.24904399
0.4479612 0.5685298 0.1345498 -0.53620225 0.15687673 0.3902388 -0.1628212 0.33445656

encoder.layers.0.attention.w_q.bias f4 [16]
00000000: 0e12 66bc 24f5 613e 3aa5 4d3e 5686 743c
00000010: e222 67be ec9d 8cbd cc21 a9bb 5487 103d
00000020: b035 183e 0c36 28bd 7a44 48be aa95 683e
00000030: 957e c9bd 1c6b 363e db38 503d 3a30 da3c
-0.0140423905 0.2206617 0.2008256 0.014924606 -0.225719 -0.06866059 -0.0051614996 0.03528531
0.1486423 -0.041067168 -0.19557372 0.22713342 -0.09838597 0.17814296 0.05083547 0.026634324

encoder.layers.0.attention.w_k.weight f4 [16, 16]
00000000: 2deb efbe dd7c d8be a968 013f 35d0 f23e
00000010: 90d5 f43e bd02 f83e bb75 f0be 13aa 69be
00000020: 2b36 aa3e 61cf 663e b32a e0be 99ee 353e
00000030: 5dc0 18be e885 32be 2508 143e 80c6 c63e
00000040: b2fa 443e c0fc 003f 1eb3 87be e628 123f
00000050: 88fe 61be ce6b ebbe 3627 39bc 9a45 cd3e
00000060: 2c85 0abf acc2 0b3e 63b4 013e 7f3f 033f
00000070: d58e 11bf 7e18 0f3f 0f10 023d a098 753e
00000080: 20c0 b9be b01c 0ebf 0ccf 0c3f 75a4 90be
00000090: a49e b1be b054 283e f52f 9f3e 2073 07bf
000000a0: 030d 0abf a9a9 82be 099a d6be 6f29 ac3e
000000b0: 402f 893e 7923 bfbe 2254 e1be fa67 683d
000000c0: 95f4 663e 70e9 ddbe ad78 0f3f 5849 42be
000000d0: a298 133f 3ba7 ae3e eda4 0bbe 3a59 ce3e
000000e0: 98a6 0ebf 7515 a9be 8442 7abe 9733 123e
000000f0: 97b6 8a3d 2dbe 1bbd 2453 f0bd 530e 793d
00000100: 0ac0 323d 976c e33e db8b 9bbb 2177 ad3e
00000110: 1e5b f73e 9243 8e3e c1f9 e93e 4e05 e03d
00000120: 05d2 21bd a24c 29be 4a04 45be f306 bbbc
00000130: 6984 19bf c44f 57bc 4344 8c3e 34e8 b03e
00000140: e536 19bf a01d 0b3f f0da 3b3e 9290 d53e
00000150: 7bcf 1f3e 5012 0fbc 162b dd3e af50 293d
00000160: 6c63 cc3e 3978 da3e 70a8 183e d3d5 1fbe
00000170: 1baf b53e d256 24be 15fa f13e df1f e53e
00000180: ab3d 593e f06d c0bd 571e b1be c9f6 083f
00000190: c69b 123f 009a d5bc cfdb b23e 2b0b 50be
000001a0: 19c0 193f ad7a 16bd 3f03 5f3e f7dc cabe
000001b0: a4a8 8ebe 7fe7 6dbe 507d 183e 0044 113f
000001c0: 79e5 07bf c557 c63d da85 8a3d 8cf8 683e
000001d0: b44c c83e 764a 13bf d962 0dbf 6447 fabe
000001e0: 371b b23e 94ea a13e db4d b8be d0b1 f03d
000001f0: 3b11 023f 0ed4 f4be ee16 d43e 4814 be3d
00000200: 1de3 7dbe 878f 9a3e 6e0a aebe 72d0 c1be
00000210: 50a0 d4be 49fe cfbe 305a 3c3e a816 ff3e
00000220: ffce 053f 8fa2 a03e 5504 0a3f 2366 e4be
00000230: 61d3 003f 3f4a 863e c6f8 2dbe 300a 19ba
00000240: e8e7 2cbd 6a58 4c3e 015c b63d a639 78be
00000250: 4221 32bb e135 03be 1e0c c83e 51ee bf3e
00000260: 9e40 50be af12 ccbe 1a3b d9bc 28d1 00bf
00000270: 6731 cebd 711f fe3b d289 70be 972f 0b3e
00000280: 09e2 a5be 8d1b 103f 92fa 1b3f 12ab fb3e
00000290: 8536 ed3e 535e 153e 6bee cbbe eb77 fb3e
000002a0: 14d3 203e 43f5 34be c9da d33e 0022 b53c
000002b0: 7002 0e3e f083 563e a71e cebe 216f 8d3e
000002c0: d2d0 f53e b7b4 7dbe b67a b83c 44eb 193f
000002d0: 5a0d 033f 8f74 c5be c173 cfbe 3ce2 873e
000002e0: 7980 9e3e 56f4 fabe 13e9 a43e 02c8 f5be
000002f0: 6d01 11bf c3f1 9bbe 1424 fd3e 1723 063f
00000300: d70f 09bf fb49 c0be 1222 5c3e 2a3d 0ebf
00000310: 7dce 193f a5fd 073f 9faa fa3e 7455 32be
00000320: 090d bdbe ab3d a4be 05db ffbd 967f 9c3e
00000330: 2df8 113f 95f9 62be d364 59be 9a17 f13d
00000340: 274c 3fbe 564e a7be eb48 da3e ab27 acbe
00000350: 6f03 cdbe 386c 483e ac88 9b3d 5776 493d
00000360: 6e68 bbbd 1b2b c0be db94 343e f2bc b33e
00000370: db4e f33e 27d9 3d3d 9ea4 413e fc3c c8ba
00000380: 962d 19bf 9009 b13e 50b7 c6be 3341 053e
00000390: a77a 22be 0681 843b f842 cabe 7b76 1d3f
000003a0: 335c 043f 19d0 1a3f 7b7f d4bd f3fa 10bf
000003b0: f782 eb3e 0c01 a1be a833 d1be 585c e03e
000003c0: 7739 f23d 1ed7 e8bd 62b9 09bf 52d8 e93d
000003d0: ed75 ad3e 9e75 ae3e 2bb9 97bd 4f6d ca3b
000003e0: ff66 123f de10 56bd 9514 693d 0610 bb3e
000003f0: 5f99 9bbe 34e6 c1be ada1 b5bd 700a 743e
-0.46859112 -0.42282763 0.50550324 0.47424474 0.47819185 0.4843959 -0.4696482 -0.22818784
0.33244452 0.22540046 -0.43782577 0.17766799 -0.14917131 -0.17433894 0.14456232 0.38823318
0.19236258 0.50385666 -0.26503843 0.57093656 -0.22069752 -0.45980686 -0.0113008525 0.40092164
-0.54109454 0.1364848 0.12666468 0.5126876 -0.5685857 0.5589675 0.031753596 0.23984003
-0.36279392 -0.55512524 0.5500343 -0.2825047 -0.34691346 0.16438556 0.31091276 -0.5291004
-0.53926104 -0.25520065 -0.41914394 0.3362536 0.2679386 -0.3733175 -0.440095 0.056739785
0.22554238 -0.4334216 0.5604351 -0.18973291 0.57654774 0.34111962 -0.13637133 0.4030245
-0.5572295 -0.33024183 -0.24439436 0.14277492 0.067731075 -0.038023163 -0.11734608 0.060804676
0.043640174 0.44418785 -0.0047468967 0.3387995 0.48311704 0.27785927 0.4569836 0.10938512
-0.03950693 -0.1653314 -0.19239917 -0.022830462 -0.59967667 -0.013141576 0.2739583 0.34552157
-0.5984939 0.5434208 0.18345237 0.4171186 0.15606491 -0.008732393 0.43196934 0.04133671
0.39919603 0.42669848 0.14908004 -0.15608911 0.35485157 -0.16048744 0.4726111 0.44750878
0.2121493 -0.09395969 -0.3459346 0.53501564 0.5726894 -0.02607441 0.34933326 -0.2031676
0.6005874 -0.036738086 0.21778582 -0.39621708 -0.27863038 -0.2323284 0.14891553 0.56744385
-0.5308452 0.096847095 0.067638114 0.22751063 0.3912102 -0.57535493 -0.55228955 -0.48882592
0.34786388 0.3162428 -0.359969 0.11752665 0.5080754 -0.47818035 0.41423744 0.09281212
-0.24793668 0.30187628 -0.33992332 -0.37854344 -0.4152856 -0.40623692 0.18393779 0.49821973
0.52268976 0.31374022 0.5391286 -0.44609174 0.5032254 0.2622852 -0.16989431 -0.0005838005
-0.04221335 0.19955602 0.08904267 -0.24240741 -0.0027180468 -0.12813522 0.39071745 0.37486508
-0.2033715 -0.39858004 -0.02651744 -0.5031915 -0.100680165 0.007755213 -0.23490074 0.13592373
-0.32399014 0.5629204 0.60929215 0.49153954 0.46330658 0.14586763 -0.39830336 0.49114928
0.1570552 -0.17671685 0.41377857 0.022110939 0.13868117 0.20948768 -0.4025776 0.27623847
0.4801088 -0.24775968 0.02251945 0.6012461 0.5119225 -0.3856549 -0.40518 0.2653979
0.30957392 -0.4901454 0.32209072 -0.48004156 -0.566428 -0.30457887 0.49441588 0.5239729
-0.53539795 -0.37556443 0.21497372 -0.5556208 0.600807 0.53121406 0.489583 -0.1741541
-0.36924008 -0.320783 -0.124929465 0.3056609 0.5701931 -0.2216552 -0.21229868 0.1177208
-0.18681394 -0.32676953 0.42633757 -0.33624014 -0.40041682 0.19572532 0.075944275 0.049185123
-0.09150778 -0.37532887 0.17634909 0.3510509 0.475211 0.04634967 0.18910453 -0.0015276964
-0.59835184 0.34577608 -0.3881173 0.13013153 -0.158671 0.004043701 -0.39504218 0.6150891
0.51703185 0.6047378 -0.103758775 -0.5663292 0.45998356 -0.3144611 -0.40859723 0.43820453
0.11827367 -0.11369155 -0.53798497 0.11418213 0.33879033 0.3407411 -0.07408365 0.0061775814
0.5718841 -0.05226218 0.056904394 0.36535662 -0.3039045 -0.37870944 -0.08868728 0.23832107

encoder.layers.0.attention.w_k.bias f4 [16]
00000000: 7807 b5b6 735d 9cb6 96b0 bcb5 fd47 1bb7
00000010: a81b b9b7 5073 79b6 dd6a 8437 8198 5a37
00000020: 973e 6537 e253 efb5 e2cf 4eb6 ce13 81b6
00000030: b3e9 b8b6 3c40 72b6 d7ae c6b5 4a98 4937
-5.39509e-06 -4.660041e-06 -1.4058485e-06 -9.255481e-06 -2.2066597e-05 -3.7171012e-06 1.5785388e-05 1.302932e-05
1.36640365e-05 -1.7831301e-06 -3.0817396e-06 -3.846805e-06 -5.5108335e-06 -3.60982e-06 -1.4803035e-06 1.2015991e-05

encoder.layers.0.attention.w_v.weight f4 [16, 16]
00000000: d4ea 7d3e e5d2 7e3e c0a6 f1be 4b92 0cbf
00000010: 6206 c43e 4bc1 ecbd 5b8e e8be 1b05 013f
00000020: d310 163f 3674 d0bd b15f 13bd 9bf4 683d
00000030: e796 abbe 3e0c 983d db33 043e 901b 6fbe
00000040: 45bc e53e c483 f0bd 0a57 fcbe e917 9cbe
00000050: 84a8 00bf dbd8 bbbe 2bd8 5b3d c277 bc3e
00000060: f112 183f 9e80 e83e 0477 103f 9606 e5be
00000070: de98 a4be 0a16 8c3e 01de 0f3f 4daf 7dbe
00000080: 1cc2 9cbe 1d0f d3be ea7e 15bf 4b29 0cbf
00000090: 1c61 953e d491 08bf ba52 febe 1d32 be3e
000000a0: 0758 b2bd f867 ff3e b8ff 16be aee3 4fbe
000000b0: 2c9a e53e 44f7 233e 5f40 023e a015 cabc
000000c0: be85 dc3e 6444 003e 82dc af3e 3ba9 b7be
000000d0: 2148 82be 0f68 783e b758 913e b5f3 33be
000000e0: 0168 a73e 5dc6 4d3e 8640 3fbe 9a34 f53e
000000f0: d27b 3c3e 78b3 a5be ff6a a6be 24ff 833e
00000100: 17ec 7fbe b489 523e 185a 9cbd 193a 06be
00000110: eacf fabe cb27 4c3e d031 9bbe c9e9 0d3f
00000120: ac0e bf3e 96e2 563e 99d8 d83c 4b20 cdbe
00000130: cc2b af3e f4f2 00be f601 d53e d96a ce3e
00000140: c84d 07bf 8f9c f83e 6aba 533e 7a87 dd3d
00000150: 38ce 73be 120a 73be 1a7d 01bf 39e1 433e
00000160: 6db3 8dbe e215 023f 8847 083f c1ac 8e3e
00000170: 9b09 173f db7f 2dbe 5d04 d23d 7dc4 88be
00000180: 6b18 e73e 1a4f 313e d356 b43e 42db 48be
00000190: b227 11bf 3d18 0dbf 85ff 423e 02ef ec3d
000001a0: b4fe 613e 3b5b 81be b7bd 76be 5b44 bdbe
000001b0: e9cf f33d eb08 11be 65b2 0e3f f2fa cebe
000001c0: b52d 9dbd 7342 ba3e f11a 4f3d 1539 fe3e
000001d0: db0e 5ebe 1958 49bc bd61 fabe 98d9 cb3e
000001e0: cbf2 f1be a9a4 a2be 0990 41be 237f d63e
000001f0: 0b61 163f b483 033f 0e9c 063f afce 0c3f
00000200: df50 9d3e d930 e5be 48b0 ffbd 442c bc3d
00000210: a18e 19bd 80eb 6fbe 1588 05bd fcd1 99be
00000220: 0eda 14bf c9d7 85be 8a0d 00bf 1fc9 56be
00000230: f7d1 4a3a 91ae 02be fa13 e8bd 8b19 b0bc
00000240: b0fa ea3e a336 a4be a3f1 acbd 1e68 02bd
00000250: 9fd5 dcbe d878 f83d b395 d73e 2e09 30be
00000260: fb94 debd 9f43 2fbe 2e62 66be 4810 553e
00000270: 9d42 043f 72b4 ff3e 437b 62be 59f5 233e
00000280: f83d efbe 3a0c 10bf 9647 123f ab9a 063e
00000290: a39e b3be 8bc3 87be e33c 823e 3878 2abd
000002a0: b76e ba3d 11b4 a43e dd8f d8be db04 91ba
000002b0: b565 be3d 3684 0e3f b7c7 c63e 8030 2e3e
000002c0: 694c 76be 7af0 1b3e c35d cf3d aef9 7f3e
000002d0: 0628 2bbd 6d48 c23d 311c da3e 4b4d f9be
000002e0: c0f5 8ebe 4b9a 8e3e 57f6 d03e 0d49 04bf
000002f0: ec26 febe 1e17 55be a007 c63e a17f eb3e
00000300: 4ce2 1d3e 7d7e b93d 6190 823c 0275 afbc
00000310: ed87 2e3e 0494 0c3e 9d0d 66be 7b1b 6a3e
00000320: 726c 163c 46b0 903e 139f 633d 4505 04bf
00000330: 6390 c4bd 7497 0a3e a5c8 7a3e 0ec7 a13e
00000340: 9d79 16bf 6932 f83e 07ed 9a3d 7c3f 80be
00000350: be72 b4be 78d0 be3e 7246 94bd c8f5 fd3e
00000360: 353f 1b3f a6bf b83d 3134 b43d 6702 6a3e
00000370: 0a82 4e3e bd9b bc3e 9d71 e93b 177a 273e
00000380: 2075 a5bd 6fe3 9f3e 2cf0 bb3e 8f99 823e
00000390: 6fbb 15be 2cc2 debe 7727 7bbe f072 9f3e
000003a0: 8008 c23c 1431 02bf 3199 a33e 9114 143f
000003b0: f088 0c3f 8233 e0be 0b2e 1bbe 9be8 1c3e
000003c0: 6c0c 76be d23e a6be 8fa2 9b3e 6317 013f
000003d0: c7ee 20bf d564 17be c6a7 eebe 810f 96be
000003e0: 073c 0e3f e276 1bbf 5414 3f3e fb05 0b3f
000003f0: 2502 cd3e 0460 bfbe 070a 5d3e 4f21 a2be
0.24796611 0.24885137 -0.47197533 -0.54910725 0.3828612 -0.11560305 -0.4542111 0.50398415
0.5861942 -0.101784155 -0.03597993 0.0568739 -0.33513567 0.0742421 0.12910406 -0.23350358
0.448702 -0.11743882 -0.49285156 -0.30486992 -0.50257134 -0.36688885 0.05367295 0.36810118
0.594039 0.45410627 0.56431603 -0.44731587 -0.32147878 0.27360564 0.56198126 -0.24773903
-0.30616844 -0.41222468 -0.5839678 -0.5475051 0.2917565 -0.53347516 -0.4967249 0.37147608
-0.08708196 0.4988401 -0.14745986 -0.20301697 0.44844186 0.16012293 0.12719868 -0.024668515
0.43070787 0.12526089 0.34347922 -0.358713 -0.25445655 0.24258445 0.28387997 -0.17573436
0.32696536 0.20095201 -0.18676957 0.47891694 0.18406609 -0.32363486 -0.32503507 0.25780594
-0.24992405 0.20560342 -0.076343715 -0.131081 -0.4898675 0.19937055 -0.3031144 0.5543485
0.3731588 0.20984873 0.02647047 -0.400637 0.34213102 -0.1259268 0.4160306 0.40315893
-0.5285306 0.48556945 0.2067658 0.10816856 -0.23809135 -0.2373431 -0.50581515 0.19128884
-0.27675954 0.5081464 0.5323415 0.27866176 0.5899903 -0.16943304 0.102547385 -0.2671241
0.45135817 0.17315331 0.35222492 -0.1961489 -0.56701195 -0.5511511 0.19042785 0.115690246
0.22069818 -0.25264916 -0.24095808 -0.36966214 0.1190489 -0.14163558 0.5574096 -0.4042583
-0.076747335 0.36378822 0.050562803 0.49652925 -0.21685354 -0.0122890705 -0.48902693 0.39814448
-0.4725555 -0.3176625 -0.18902601 0.41893873 0.58741826 0.5137284 0.5258187 0.55002874
0.30725762 -0.4476383 -0.12484795 0.091881305 -0.037489537 -0.2342968 -0.03260048 -0.30043018
-0.58145225 -0.26141194 -0.5002066 -0.20975159 0.00077369757 -0.12761904 -0.11331935 -0.021496555
0.45894384 -0.32072935 -0.08444526 -0.031837575 -0.4313173 0.12132424 0.421064 -0.17191002
-0.108682595 -0.17115639 -0.2249839 0.20806992 0.51664144 0.49942356 -0.22117333 0.16011561
-0.46726966 -0.56268656 0.5714048 0.13144939 -0.35081968 -0.26516375 0.25437078 -0.041618556
0.091031484 0.3216863 -0.4229726 -0.0011064069 0.09296743 0.5567049 0.38824245 0.17010689
-0.24052586 0.15228453 0.101253055 0.24997589 -0.041786216 0.0948647 0.42599633 -0.48691782
-0.27921867 0.2785209 0.40812942 -0.51673967 -0.4963907 -0.208096 0.38677692 0.4599581
0.15418357 0.09057329 0.015937986 -0.021418098 0.17044039 0.13728338 -0.2246613 0.22862045
0.009181129 0.28259486 0.055571627 -0.5157054 -0.09597852 0.13534337 0.24490602 0.3159718
-0.5877932 0.4847596 0.07564741 -0.25048435 -0.3524379 0.37268424 -0.07239999 0.4960158
0.6064332 0.09020929 0.08799017 0.22852479 0.20166793 0.3683757 0.0071241395 0.16355167
-0.080789804 0.31228206 0.36706674 0.2550778 -0.14622281 -0.43507516 -0.24526773 0.31142378
0.023685694 -0.5085614 0.31952813 0.5784388 0.5489645 -0.43789297 -0.15154283 0.15323107
-0.24028176 -0.32469803 0.3039746 0.5042631 -0.62864345 -0.14784558 -0.46612376 -0.29308704
0.55560344 -0.60728276 0.18660098 0.54306 0.400407 -0.37377942 0.21585856 -0.31666037

encoder.layers.0.attention.w_v.bias f4 [16]
00000000: 164a 88be 4164 5e3e 2442 d43d 8bec 703e
00000010: ff28 493c 8854 123e dbff f0bc d73d 34be
00000020: 40aa 663d f4d7 08bc 3a98 173c 0731 24bd
00000030: bee6 44bd f2d7 4b3e 9f5e 2c3e 6d5f 42be
-0.26619023 0.21717931 0.10364178 0.23527734 0.012277841 0.14290059 -0.029418876 -0.17601715
0.056314707 -0.0083522685 0.009252602 -0.04008582 -0.048071615 0.19906595 0.1683297 -0.18981715

encoder.layers.0.attention.w_concat.weight f4 [16, 16]
00000000: a721 99be 8fc3 a0be 458f a43e 4ff8 1abf
00000010: 0d49 3dbd ddac f63e 62e0 95be a302 fdbe
00000020: 566a ea3e 3973 483d cd74 113f 7be8 873d
00000030: 6d5e 013f 8feb de3e d579 89bc 30bc a23e
00000040: c064 4fbe 9094 123f 8be4 e93e 214f 1abf
00000050: 600d 07be b2a5 c5be e34f d7be 00b8 debe
00000060: b7a7 b83e 154f f33e 38dc 483c b49d d4bd
00000070: cdd4 11bf b987 4f3e eaa7 08bf a989 75be
00000080: ee61 9cbc 7d94 9fbe 6e36 093f a5fe f2be
00000090: 331f f6be 4297 febe fd60 5dbe f57d 36be
000000a0: 989c dcbe b35d 12bf f4ee bdbd f120 a23e
000000b0: 69b3 acbe 7858 003e 2336 dd3e 62a3 13bf
000000c0: 0b97 02bf abaf 07bf dd0e e7be dcde cebe
000000d0: ac32 c13c 8884 053f 7933 2abd b787 01be
000000e0: 5657 09bf ec08 0e3e ee33 50ba 3214 62be
000000f0: 6015 c33c cfb1 0b3f 9901 9a3d 6871 e93e
00000100: d54d b83e 1e05 1fbe c80b 0cbe fab1 013f
00000110: 521f acbe 4fc2 83be 7b3e 033e 0056 debd
00000120: 2fbf 3dbe 72e1 8abe cb58 17be 8cc0 903e
00000130: da16 81bd 22ba cc3e 3bcd 04bf 18da 84bd
00000140: 1f65 bfbe a9f0 aebe abbb 663e b7e3 0cbe
00000150: 26cc ff3e a20d 353d a79c 1fbf 6a29 b2be
00000160: 3aa9 e4be 1be5 073e b0f6 d6be 2a1d 573d
00000170: e736 da3e 1af3 cfbe 47be 80bc f6f2 0cbf
00000180: 32d2 1e3c de5f 0abf 5584 063f 2934 d23e
00000190: 7467 123f 57eb ac3e 497f 79bd 723e 783e
000001a0: c135 fd3d 2d10 c83e a0f5 cbbc 7e1a c33d
000001b0: cbfb 2a3e 76d1 643e 7f5f 25be 3717 e1be
000001c0: de0b dcbe b4fe 4e3e bc97 cebe 638b f7bd
000001d0: 8d71 97be a226 a4be b7ae b63e 29a3 af3d
000001e0: ade2 f9bd 836a 823e afd0 7abc 9e28 29be
000001f0: e878 fbbd 481e 0bbf b68f 02bf 4ec6 10bf
00000200: 17e2 1cbf fd0f e13e b62a 2f3e ea53 1b3f
00000210: c901 bcbc 103f 27be 2a06 64bd e31c e93d
00000220: 0b5e 22bd b55a e63e 75ed edbe 2369 7c3e
00000230: 0bf8 03bf ed8a bebe de4e 463e ddd5 5dbe
00000240: 7c44 5fbe 84fe f23e 358f 5d3e d328 f9be
00000250: 2aae 2bbd 57cc dabe fb91 043f 887f ea3e
00000260: 2dac 133f ace8 163d cfe3 a13e 17f4 963c
00000270: 1156 033f d333 163e da32 353e 7a1d 0b3f
00000280: 7faa 7abe 276a e4bd 86c1 8c3e 72f3 bdbe
00000290: 1ba4 263e d8ee e9be 43ca b1ba 0c8f 35be
000002a0: e197 9e3e 0ee1 85be e9f7 88be 74f2 4ebe
000002b0: dc04 023e 41a4 273e 2827 b4be aa2b 7abe
000002c0: 1659 933e 4e1f b83e 2b1b 1bbf c5ed 473e
000002d0: 471b 62be 4f71 b93e 8aae f2be ceec dbbc
000002e0: e973 ca3e 9e0e 15bf 402f a2bd 43eb d8be
000002f0: 9f48 0fbe fbf4 7e3d 4b1e 033e 36f5 ca3e
00000300: 31bd 163e eeb7 913e 24c5 803e b428 85be
00000310: a968 9bbd facc 61be 9331 9b3e 10ff 08bf
00000320: 82e0 1dbe de69 c4be 8abd e33e 06e4 c9ba
00000330: 7a35 083f 0b43 6d3e 5eeb a3be d56b a2be
00000340: 73a5 12be 2277 37be 16c0 b93e d8c7 56be
00000350: 0e2c bfbe fbcd c13e 032e 47bd b923 f13e
00000360: a3d6 0b3e 6434 74bc 0e4d 023f b268 03bf
00000370: 7dca 583d 7bf6 ebbd 767a 13bf 9257 ecbe
00000380: 19a0 dc3e e7d9 133f f1ba 9dbe 7b4d 163e
00000390: 06e3 4c3e a5aa e43e 6a02 ddbe bbda efbd
000003a0: e5fb 03bf 05b3 ddbe 36e6 363d 90d0 f2bd
000003b0: ff0a 28be 1bc8 6d3e bd66 c8be 4d69 d8be
000003c0: 5985 d03e 9589 903e e223 d63e e65b 8e3e
000003d0: be3e e6bd e32f 00bf 5cb5 07bf 9c9f 9cbc
000003e0: 71b2 19bd 28d1 3dbe 329b 59bd c877 c3be
000003f0: 8c87 203f a772 363d bc7a 803e 9dbc 06bf
-0.29908487 -0.313992 0.32140556 -0.6053514 -0.046212245 0.4817876 -0.29272753 -0.49416074
0.45784253 0.04893801 0.5681885 0.06636139 0.5053471 0.43539092 -0.016781727 0.317842
-0.20253277 0.5725794 0.45682177 -0.6027699 -0.13188696 -0.38602978 -0.42053136 -0.43499756
0.36065456 0.47521272 0.0122595355 -0.10381642 -0.56965333 0.20266618 -0.53381217 -0.23978294
-0.019089665 -0.31167975 0.5359868 -0.47459903 -0.48070678 -0.49724776 -0.2161903 -0.17821486
-0.43088222 -0.57174224 -0.09274092 0.31665757 -0.3373063 0.12533748 0.43205366 -0.5767118
-0.51011723 -0.53002423 -0.45128527 -0.40404403 0.023583733 0.5215535 -0.041552994 -0.12649427
-0.5364889 0.13870591 -0.00079423084 -0.22078016 0.023813903 0.5456819 0.07519836 0.45594335
0.3599688 -0.15529296 -0.13676369 0.50662196 -0.33617646 -0.25734183 0.12816803 -0.10856247
-0.18529962 -0.27125126 -0.14779966 0.28271902 -0.06303187 0.39985758 -0.51875657 -0.064869106
-0.37381837 -0.34167984 0.22532527 -0.13758741 0.4996044 0.044202454 -0.6234841 -0.3479722
-0.4466036 0.1327099 -0.41985083 0.052518047 0.42620012 -0.4061516 -0.015715731 -0.5505823
0.009693669 -0.5405253 0.5254567 0.4105542 0.57189107 0.337733 -0.060912404 0.24242571
0.12363768 0.3907484 -0.024897397 0.09526537 0.16697614 0.22345528 -0.1614971 -0.43963024
-0.42977804 0.20214349 -0.4035014 -0.12087133 -0.2957882 -0.32060724 0.35680172 0.08576042
-0.12201438 0.25471887 -0.015308543 -0.165194 -0.122789204 -0.5434308 -0.51000535 -0.5655259
-0.61282486 0.4395751 0.17106137 0.6067492 -0.02295007 -0.1633265 -0.05566994 0.11382463
-0.039640468 0.4499108 -0.46470228 0.24649481 -0.5155036 -0.37215367 0.19366023 -0.21663614
-0.21803468 0.47459805 0.2163666 -0.4866396 -0.041914143 -0.42734024 0.5178525 0.45800424
0.57684594 0.036842987 0.31619117 0.018426938 0.513032 0.14668207 0.1769518 0.5434185
-0.24479102 -0.111530595 0.27491397 -0.37099797 0.16273539 -0.45690036 -0.0013564307 -0.1773035
0.3097525 -0.26148266 -0.2675164 -0.20209676 0.12697166 0.16371252 -0.35186124 -0.24430719
0.28778905 0.35961384 -0.6058833 0.19524296 -0.22080718 0.3621926 -0.47398788 -0.026846316
0.39541557 -0.5822543 -0.079191685 -0.4236699 -0.13992546 0.06224535 0.12804525 0.39640206
0.14720608 0.2846064 0.25150406 -0.26007617 -0.07588322 -0.22050849 0.3031126 -0.53514194
-0.15417674 -0.3836202 0.44480544 -0.0015403039 0.532066 0.23170106 -0.32015508 -0.31722894
-0.14320926 -0.1791654 0.36279362 -0.20974672 -0.373383 0.37852463 -0.048627865 0.47097567
0.13656096 -0.014905069 0.50898826 -0.5133163 0.052927483 -0.11521622 -0.57608736 -0.4616056
0.43090895 0.5775437 -0.30806687 0.14677994 0.20008478 0.4466144 -0.43165904 -0.117116414
-0.51556236 -0.43300644 0.04465314 -0.118561864 -0.16410445 0.23220865 -0.39140883 -0.42267838
0.40726736 0.28229967 0.4182425 0.27804488 -0.11242436 -0.5007307 -0.5301111 -0.019119076
-0.03752369 -0.18536818 -0.05312652 -0.38177323 0.6270683 0.044542935 0.2509364 -0.5263155

encoder.layers.0.attention.w_concat.bias f4 [16]
00000000: f4bc a3bd b264 a13c 45b2 adbd b1b6 6ebd
00000010: 8335 7e3d 073d 073e c7b7 b6bd c019 d13d
00000020: b72f 533d c55b 2f3e 0162 d2bd 3d48 453e
00000030: 055f 05be e8a3 78bd 4d3f 25be 7b85 dfbd
-0.07995024 0.019701336 -0.08481268 -0.058279697 0.06206275 0.13206874 -0.089217715 0.102099895
0.051559176 0.17124851 -0.10272599 0.19265838 -0.13024528 -0.06070319 -0.16137429 -0.10914131

encoder.layers.0.norm1.gamma f4 [16]
00000000: 7182 813f 875d 803f 8d3d 7d3f 33b4 803f
00000010: 9739 783f d77c 7b3f 40eb 793f 1f4d 7e3f
00000020: 6956 803f 91a3 7c3f 313a 7b3f 9088 823f
00000030: 69e0 7e3f 1bb1 7d3f f0ae 803f 21b9 7c3f
1.0117933 1.0028542 0.98922044 1.0054992 0.96962875 0.98237365 0.9762459 0.9933643
1.002637 0.9868708 0.9813567 1.0197926 0.9956117 0.99098366 1.0053387 0.98719984

encoder.layers.0.norm1.beta f4 [16]
00000000: 73e6 2f3c 66f2 a7bc d472 21bb 253f 163c
00000010: 149b bf3c c98e 233c b129 b5b8 0bdc 643c
00000020: 360f 683c 090a ce3c 41f8 40bc 2c1f c03c
00000030: 9620 12ba 3f9d 4fbb 8e88 a83c 9762 4dbc
0.010736096 -0.020501327 -0.0024635093 0.009170328 0.023389377 0.009982773 -8.638518e-05 0.013968478
0.014163783 0.02515127 -0.011777938 0.023452364 -0.00055743137 -0.003167942 0.020572927 -0.012535713

encoder.layers.0.ffn.linear1.weight f4 [64, 16]
00000000: 56fc f53e 5d92 dd3e a92d 03bf c513 4f3d
00000010: 4af7 fc3b 0cfc cd3d fea5 d23e d285 9d3e
00000020: fa45 73be df7e d73e 6492 b9be beff f03e
00000030: 3c52 3e3e a1d1 dabd 75b0 cf3d e6b8 afbe
00000040: ef5a f5bc 57c5 0e3f 9842 f7bd 6828 25be
00000050: 18e1 1c3f d095 f13e 57e6 04bf 1513 0f3e
00000060: 541a dabe 5035 22be 7e37 873e 01cf edbe
00000070: 4513 b93e 7baa f93d c753 70be dc54 ec3e
00000080: b533 0ebf c115 ffbd bfe7 c03e 16e3 8fbe
00000090: aba1 a1be 5d46 f0be 1589 8bbd a2a7 a8be
000000a0: 9083 443e f9af 423e 9482 07bf 8c22 523e
000000b0: e1b4 61be 975e cb3e 8c47 723e 16a0 ca3e
000000c0: bb9e fc3e 2175 dc3e a0d2 853e e016 ce3e
000000d0: 18c8 533e c86f 9cbe f9e6 ab3e 75a4 a63e
000000e0: 319c a7be 05d2 e5be e821 4b3e f1e6 abbe
000000f0: dfdd 5f3e 6dcb 73be d118 9ebe a734 083e
00000100: 9e40 b1be 2b46 203f 7e02 01bf 9296 103f
00000110: c09f 563e 2411 ae3e 8d7a a0be 075c f53d
00000120: 9db4 093f 3fdc e9be e9bc 9e3e d6de e4be
00000130: 19f0 c63e a7bb a33c 99df cabe f073 85bd
00000140: 62a9 02bf 0254 6fbe 22c0 85be 8b40 c1be
00000150: afe1 bc3e 53e4 c03e f347 95be 809d d1be
00000160: 75da 5fbe 7021 9abe d391 b1bd a617 b6be
00000170: d3d2 8a3e 8df2 06bf 182a 0cbf bdd9 a83e
00000180: 659f 3fbe 23f9 073e f783 90bd d30f a73d
00000190: 5331 c1bd 749b 223e 5acb 44bc fd0b d5be
000001a0: 8ee1 f9be badf 433e 6f07 f3be 36c7 8abd
000001b0: 31f8 6cbe 891c c83e d5fc e83e 34cd e1bc
000001c0: b76f 7dbe 37be 583e 9063 b1be cc90 243d
000001d0: b575 4b3e 7f05 8a3e 46ab 04bf b523 01bf
000001e0: b471 08bf 98e1 10bf 5218 61bc aed2 4dbe
000001f0: ee0d 7cbe 430b 1e3e 1652 15bf bef6 bdbe
00000200: 71c3 6abe c48c ecbe a495 64be c6f1 40bb
00000210: 32bd ccbe 240e 7a3e 873f 123f 33f4 853e
00000220: 8b0b 133e 1975 c73e 6e3d ff3d 733a 0a3f
00000230: b0df ce3d 525b e6be 2e05 073e f902 7d3e
00000240: edfa c7be dbf6 86be 393d 49bb 56ae e5bd
00000250: 6647 9b3d 73eb fc3d bb44 c43e 9974 82bd
00000260: e1ed bdbe 9550 a53e dd8d 96be 6206 033f
00000270: 0fed 79be f4b2 793e 2538 b5bb 37a9 12bf
00000280: 75bf f73a 8e63 a63b da17 533e bca0 3dbe
00000290: 89fc c53e 68f1 eebe b48f b43e 5466 61be
000002a0: b58d ac3e c2d8 e3be 9b1c b1be f158 e1bd
000002b0: e54d 113f 4b55 d6be a593 fcbe 7887 d1be
000002c0: 422f de3d d1b4 d2be 18fd 9fbe c2b5 79be
000002d0: e3c9 33be 24f0 0c3f 80ad ecbd cc24 0f3b
000002e0: b053 c7be cabe 053f cd6b 473e 0ff9 03bf
000002f0: fa90 ccbe e113 c3bd 7073 14bf 7d4a bd3e
00000300: 3a64 3d3e 4b06 17bf dc52 e3be 674c cabe
00000310: 0746 933e 7618 143f d082 6c3e ea02 7bbe
00000320: 18fa a43e 6a7d cc3d 46ea 17bf a494 90bd
00000330: 7159 99bd 8ea6 a63e d21e 253e 3e72 173f
00000340: efa2 10bf d616 05bf 8ca5 62bd b9ed 0f3f
00000350: a13e 22be 38bc 97be 16b7 0bbf d090 2bbb
00000360: 7046 313e 7fb2 0e3f 5438 283e f7c2 b2be
00000370: 035d 0ebe 5d62 00bf 6c3b 4cbe c484 c33e
00000380: 0fe6 f53e 9c79 be3e cc87 e0be a52f e4bc
00000390: caa9 b0be fb0d 6c3d b6f5 e23e c363 86bd
000003a0: 9e60 11be ca63 55bd d8a8 d33d 86e4 0a3e
000003b0: c6f9 f93e d8ff 643e ea0d 8cbe 3a19 853e
000003c0: 6c0f ac3e 89f1 03be 02b3 9fbe b0aa 953e
000003d0: c910 fabe ebb6 98bd 4b7a 68be 816f 593e
000003e0: 5c29 073f d600 f6bd 9590 c73e 1f67 0cbf
000003f0: 7c43 483e 55e9 c1be af38 123f 0799 7e3e
0.4804408 0.4327573 -0.51241547 0.050555963 0.007719909 0.1005784 0.41142267 0.3076616
-0.23757163 0.42088982 -0.362445 0.47070116 0.18586057 -0.10684515 0.101410784 -0.34320754
-0.029950587 0.55769867 -0.120732486 -0.16128695 0.61280966 0.4718461 -0.5191397 0.13972123
-0.42598212 -0.1584065 0.26409525 -0.46446994 0.36147514 0.1219072 -0.23469459 0.46158493
-0.5554765 -0.12455321 0.37676808 -0.2810294 -0.31568655 -0.46928683 -0.06813256 -0.32940394
0.19190812 0.1901244 -0.5293362 0.20520991 -0.22041656 0.39720604 0.23660105 0.3957526
0.49339852 0.43058112 0.26137257 0.40251827 0.20681798 -0.30554032 0.33574656 0.32547346
-0.32736352 -0.44886795 0.19837153 -0.33574632 0.21861981 -0.2380807 -0.30878308 0.13301335
-0.34619612 0.6260707 -0.5039443 0.5647975 0.20959377 0.33997452 -0.313435 0.119804434
0.5379122 -0.45675847 0.31003502 -0.4470126 0.38855055 0.01998694 -0.39623716 -0.06516254
-0.5103971 -0.2337189 -0.26123148 -0.37744555 0.36890933 0.37674198 -0.29156455 -0.40940475
-0.21860678 -0.30103636 -0.08670392 -0.35564917 0.2711397 -0.52713853 -0.5475173 0.3297862
-0.18713148 0.13278632 -0.0705642 0.08157315 -0.09433236 0.15879613 -0.012011373 -0.4161071
-0.48804897 0.19128314 -0.4746661 -0.06776278 -0.23141553 0.3908427 0.45505396 -0.027563669
-0.24749647 0.21166311 -0.34646273 0.04017715 0.1986912 0.26957318 -0.5182384 -0.5044511
-0.532985 -0.5659423 -0.013738709 -0.20099899 -0.24614689 0.15433984 -0.5832838 -0.37102312
-0.22926117 -0.46201146 -0.22322708 -0.0029440983 -0.39988095 0.24419457 0.57128185 0.26162872
0.14359872 0.38956526 0.12462889 0.53995436 0.10101259 -0.44991547 0.1318557 0.24708165
-0.3905863 -0.2636021 -0.0030706658 -0.112148926 0.075819775 0.12349596 0.38333687 -0.063698955
-0.3709555 0.32288042 -0.29405108 0.51181614 -0.24406837 0.24384671 -0.0055303746 -0.5728945
0.0018901663 0.005077786 0.20614567 -0.18518347 0.38669232 -0.46668553 0.35265887 -0.22011691
0.33701864 -0.4450131 -0.34592137 -0.11003292 0.5675948 -0.41861948 -0.49331394 -0.40923667
0.108488575 -0.41153577 -0.31247783 -0.24385741 -0.17557482 0.55053926 -0.1155653 0.0021842
-0.38931036 0.52244246 0.19474716 -0.5155191 -0.39954358 -0.09525276 -0.57988644 0.36970893
0.18495265 -0.5899398 -0.44399154 -0.39511415 0.28764364 0.57849824 0.23096776 -0.2451283
0.32222056 0.09984858 -0.5934185 -0.07059601 -0.07487763 0.32548946 0.16125038 0.59158695
-0.56498617 -0.5198797 -0.05533366 0.5622211 -0.15844204 -0.29635787 -0.5457624 -0.0026178844
0.17312026 0.55741113 0.16427737 -0.3491437 -0.13902669 -0.5015009 -0.19944543 0.3818723
0.48027083 0.37202156 -0.43853605 -0.02785475 -0.3450454 0.05763052 0.44328088 -0.06561997
-0.14197013 -0.05209712 0.10334939 0.13563737 0.48823375 0.22363222 -0.27354366 0.2599581
0.33605516 -0.12885107 -0.3119126 0.29231787 -0.4884093 -0.07456764 -0.22702901 0.21233942
0.52797484 -0.12011878 0.38977495 -0.5484485 0.19556993 -0.3787333 0.5711774 0.24863063

encoder.layers.0.ffn.linear1.bias f4 [64]
00000000: f332 86bd 92a4 24be b8c0 203e 0848 233e
00000010: 508b 6c3e a0bd 553e 8312 a73d 68af 5d3e
00000020: a9b7 5e3e be88 cc3d b7d1 01be 4d6b 033e
00000030: 0224 0f3e 9d65 09be 6bdc 6bbc 10ab 2dbe
00000040: 05f8 513e 6492 183e 1ac4 07be 0576 5f3c
00000050: 7c28 b2bd 7a86 213e d180 6f3e 69e5 5e3e
00000060: dc67 103e 3264 52be b6f6 53be f86e 5bbd
00000070: 7790 21bd ed5f 163e f200 323e 3c46 44be
00000080: 6c2a 4dbd 50d2 46bd da32 3bbe 4d49 173e
00000090: 8e43 603e d954 39be 9ada 19bd c9c7 123e
000000a0: a4fe 363e 3646 343e 353c 63be 4aec 3cbe
000000b0: 32cc 1b3e d6b2 41bc 7257 8a3c ef95 ba3d
000000c0: 44e2 09be efde 05be be52 e8bd 7edc f53d
000000d0: 90bd 163e de16 e83d e379 0d3d 16a0 033d
000000e0: c3fa 16be 9796 84bd ef45 babd a726 49be
000000f0: 0902 cd3c 0287 67bd 5661 343e c9f9 e3bb
-0.065526865 -0.16078404 0.15698516 0.15945446 0.23100019 0.20873117 0.08157828 0.21648943
0.21749748 0.09987019 -0.12677656 0.12833901 0.1397858 -0.13417669 -0.014395813 -0.16959786
0.20504768 0.14899594 -0.132584 0.013638978 -0.08699128 0.15773955 0.23388983 0.217672
0.14102119 -0.20546034 -0.20699582 -0.053572625 -0.039444413 0.1468503 0.17383173 -0.19167417
-0.050089285 -0.048540413 -0.18281117 0.14774056 0.2190077 -0.18098773 -0.03756199 0.14334024
0.17870575 0.17604908 -0.22190936 -0.18449512 0.15214613 -0.011822423 0.0168874 0.09110629
-0.1346522 -0.13073324 -0.11343907 0.12004946 0.1472075 0.113324866 0.03454007 0.03213509
-0.14744096 -0.06474035 -0.0909537 -0.19643651 0.025025385 -0.056525238 0.17615256 -0.006957267

encoder.layers.0.ffn.linear2.weight f4 [16, 64]
00000000: 1807 8dbd 38ce 88bc 6ed7 7f3d c48e 41bd
00000010: 59c0 483e 9d44 a9bc c698 063e 3d07 613e
00000020: 6e0a 84be 11ce a1bd a6d2 6dbe 69fe 153e
00000030: 9740 443e 204b 9a3e d608 943d 2efd b1bd
00000040: 1028 80be 212e adbd 616e 95be 5502 233e
00000050: b01a 2cbd a44b e8bc 3096 76be ccf7 08be
00000060: 1a61 193e 4480 3d3e daed 86bd f1cf 3b3e
00000070: 35bf bf3d 43a2 a0bd c4b2 1fbe ce3e 983e
00000080: ef5b 98bc 1260 7b3e b377 95bd b845 793e
00000090: 5d3f 303d 745a 953e 5f6a 91bd bbb9 863e
000000a0: 3660 7ebd 8ebf 8a3e f6e6 723e 71b7 81be
000000b0: bade 10bd 9bb9 8ebe b7b4 8c3a 319f 26be
000000c0: 35cd d73d 63bf 1fbe bb32 30be 2baa 22be
000000d0: d837 1d3e 002a 68be 9f90 01be c3c9 e43d
000000e0: 9bcb babd 14b2 283e 308a 1f3e de29 7abe
000000f0: f0d5 053d c991 013c 6d70 fb3d 37bb b13d
00000100: c3e5 4f3d f12d 353e ca72 cfbd 6c65 88be
00000110: 8621 3bbe 293b 98be 35f3 c63b 4a8c 643e
00000120: 4200 5dbe 32c0 6fbe 565e 3c3e 0594 6bbe
00000130: 3705 46be 67ee 033e f50f c4bd 0b0f 7cbe
00000140: bc58 ecbc ddde 393e 9a18 fe3d 22c6 393e
00000150: 36da 9dbd b027 c33d bb5d 29be a1cf cd3d
00000160: f9a1 4c3d 28a7 92be 43d4 eb3c 225b 5fbc
00000170: 49b2 68be 7264 a4bd 2992 4fbe 17ff 553e
00000180: 4926 c73d 2d2b 8fbe ec2f 553e 5fae 68bd
00000190: a5da 8abe 21e0 ed3d 8250 c13d 3333 b5bc
000001a0: 5346 8dbe 393d 48be 1be5 6cbe 4d62 26bd
000001b0: 52b2 443e 660c 82bb daa6 1a3c 0b09 94be
000001c0: a23f 5f3e 72c3 003d 79cd 143e 34ab 59bd
000001d0: df13 a53d d386 03bc 9e9d 9eba cd60 87be
000001e0: fc97 7f3c bcb7 f4bb da9d 183c 4611 833e
000001f0: 9e6f 163e 1275 09be ac4d 04be ff67 583e
00000200: 44c3 6c3d 4bd5 62be d57b 4f3d 7782 9f3e
00000210: dec8 863e 8040 6c3e 9837 ae3d 2c2f 10bd
00000220: aede 24be 517a 5dbe 75ec 8ebe 75f5 00be
00000230: 26c2 43be 9eca 353e a3e8 27be f4fc 33be
00000240: be46 95be c733 92be fedb 23be 566f b63d
00000250: 8427 7d3e c4df 8abd 1bc7 073e 1870 2b3d
00000260: 8156 7b3e 08c6 903d 9d6d 8bbe 383c 8b3e
00000270: c23d 20be ab7e 09bd c68b 57be cfa6 5d3e
00000280: a49e eebd 6b32 37be 5a8f 9b3e 5ad3 b93d
00000290: 6c57 6ebe d5d7 2abe c43f 9a3e 9162 44be
000002a0: c7e9 6c3e 85a9 c03d d3b7 9ebe 10eb 363d
000002b0: 03cf 723e ef2a 4fbe 5a8b b1bd 4d9b cc3d
000002c0: abe4 3a3e bb2a c23d 76ca 9bbe 565f 833e
000002d0: 9cc3 8bbd 26d4 3f3e afa8 843d 4451 72be
000002e0: 1c51 de3d 58cc 83be 39c4 563b 293d 82bd
000002f0: 1057 1abc 7d47 2d3e 38ed 07be 3a06 29be
00000300: 5cb6 873e 9b00 243d c878 9e3d 565b 0d3c
00000310: 405b ce3b 2eb5 adbd 1b33 623e bf57 15be
00000320: 7e06 a23e e7de 9a3e 10cf 593e fef7 8b3d
00000330: f100 783e 3b8e a13d d9f4 2dbe 84e7 a6bb
00000340: 2b31 6fbe 9a48 2d3e 3b10 65bd 587d 6abe
00000350: 17c6 683d 936d c03d d823 ffbd 02b1 73be
00000360: a377 673e 7fd8 4f3e 80a5 a03e 3f16 143d
00000370: cd3b e23d 235b d03c bdea 81be 21e5 623d
00000380: e82b be3d ee35 f2bd 2cde 7a3e b18d 243d
00000390: a6ce 653d bcad 453d be8f 633d 684e 9c3e
000003a0: f272 d53d 967b 52be 41ef 5d3c a88a 17bd
000003b0: b3db 95bd 5f1d 443e 79b5 9a3e 3409 963e
000003c0: c715 953e a20c 8dbe e217 423d 44de dabd
000003d0: f950 6d3e 97db 5dbd 0933 8a3e 1ff7 7fbe
000003e0: cd90 debd 2c49 78be 59e7 8e3e 2a31 283e
000003f0: 764e 8bbe 05a9 593e 286f 583d bdc3 3b3e
-0.06886119 -0.016699895 0.06246131 -0.047255293 0.19604625 -0.0206626 0.13144216 0.21975417
-0.25789207 -0.07900632 -0.23224887 0.14647831 0.19165264 0.3013544 0.07228248 -0.08690868
-0.25030565 -0.08456064 -0.29185775 0.15918858 -0.04201764 -0.02835638 -0.2408073 -0.13375777
0.14978448 0.1850596 -0.06588335 0.18341042 0.09362642 -0.07843449 -0.15595537 0.29735416
-0.018598525 0.24548367 -0.072982214 0.24343002 0.043029178 0.29170573 -0.07100367 0.26313576
-0.062103473 0.2709927 0.23720917 -0.25335267 -0.03536866 -0.2787598 0.001073501 -0.16271664
0.10537187 -0.15600352 -0.17206852 -0.15885226 0.15353334 -0.22672272 -0.12652825 0.111712955
-0.09120866 0.16474181 0.15580058 -0.24430034 0.03267473 0.007908293 0.12277303 0.086782865
0.050756227 0.17693307 -0.10129316 -0.2663988 -0.18274507 -0.29732636 0.006071473 0.22319141
-0.2158213 -0.2341316 0.18395361 -0.23005684 -0.19337927 0.12883912 -0.09573356 -0.24615113
-0.028850906 0.18151422 0.12407036 0.18141988 -0.07707636 0.09529054 -0.16539662 0.10049368
0.049959157 -0.28643155 0.028787738 -0.013632568 -0.2272426 -0.08026971 -0.202706 0.2089809
0.09724099 -0.27962628 0.20819062 -0.05680692 -0.27119938 0.11615015 0.09439184 -0.02211914
-0.27592716 -0.19554605 -0.23134272 -0.04062109 0.19208649 -0.003968763 0.009439195 -0.2891315
0.21801618 0.03143639 0.14531507 -0.053141788 0.08060431 -0.00802775 -0.0012101417 -0.2644104
0.015600201 -0.007468192 0.0093149785 0.25599116 0.14691016 -0.13423565 -0.12920254 0.21133421
0.057803407 -0.22151677 0.050655205 0.31154224 0.26325125 0.2307148 0.085066974 -0.035201237
-0.1610057 -0.21628691 -0.27914777 -0.12593634 -0.1911703 0.17753074 -0.16397338 -0.17576963
-0.29155535 -0.28555128 -0.16001889 0.089079544 0.24722105 -0.06780961 0.13259546 0.041854948
0.24544717 0.070690215 -0.27232066 0.2719438 -0.15648559 -0.033568066 -0.21049413 0.21645664
-0.11651352 -0.17890327 0.30382806 0.09073515 -0.23275536 -0.16683896 0.30126774 -0.19178225
0.23136054 0.09407333 -0.30999622 0.044657767 0.23711781 -0.20231222 -0.08669157 0.09990559
0.18251292 0.094808064 -0.30427903 0.25658673 -0.06824419 0.18733272 0.06477486 -0.23663813
0.10855314 -0.2574184 0.0032770766 -0.063593216 -0.009420171 0.16921802 -0.13274086 -0.16506281
0.26506317 0.04003964 0.07737881 0.008627733 0.006297499 -0.08481823 0.22089808 -0.14584254
0.31645578 0.30248186 0.21270394 0.0683441 0.24219109 0.078884564 -0.16987933 -0.005093517
-0.233586 0.16922227 -0.05592368 -0.22899377 0.05682954 0.093958996 -0.124580085 -0.23797992
0.22604232 0.2029743 0.31376266 0.036154028 0.11046562 0.025434082 -0.25374404 0.055394296
0.09285718 -0.118266925 0.24498814 0.04017419 0.05610528 0.04826139 0.055557005 0.3052857
0.10422315 -0.20554957 0.013545812 -0.036997467 -0.07317295 0.19151829 0.30216578 0.29303896
0.29118177 -0.275487 0.047386058 -0.10686925 0.2317542 -0.054164495 0.26992062 -0.24996613
-0.10867462 -0.24246663 0.2791088 0.16425005 -0.27208298 0.21255882 0.05284038 0.18336387

encoder.layers.0.ffn.linear2.bias f4 [16]
00000000: e3a7 d0bd 212e 893d 5f73 263c 41ff 4b3d
00000010: fb25 d23c 50df ecbd d3a9 27bc 8d71 b13d
00000020: e3c5 56bd 9f66 f23d 81aa 533c 7cff 583d
00000030: b64c 3c3c 31be 62bd b73c 9c3d b0b9 9cba
-0.10188272 0.066982515 0.010159343 0.049803976 0.025652876 -0.11566031 -0.01023336 0.08664236
-0.052434813 0.1183598 0.012919069 0.052978024 0.011492899 -0.055357162 0.07628768 -0.0011957195

encoder.layers.0.norm2.gamma f4 [16]
00000000: b4e1 793f 8fa2 803f 4fd6 7e3f 96ef 823f
00000010: 8ed5 7a3f 5cdd 783f 8eeb 7b3f a228 813f
00000020: 7c9d 7a3f 0d52 753f ed58 7e3f 2c7e 813f
00000030: e034 803f 4637 7e3f 75cf 7a3f 8b6a 7d3f
0.9761002 1.0049609 0.9954576 1.0229366 0.9798211 0.9721277 0.984063 1.0090525
0.9789655 0.95828325 0.9935444 1.011663 1.0016136 0.9930309 0.97972804 0.98990697

encoder.layers.0.norm2.beta f4 [16]
00000000: d876 ae3b b9b5 90bb 346c c8bb 3280 943b
00000010: dc93 92bb b889 093a abe5 98bc 5319 01ba
00000020: 0551 8c3b 0cbb 3a3c 5da8 b1bb 68de 403b
00000030: d04f acbb b933 b7bb b198 3dbc 7dcc 713a
0.005324226 -0.0044161943 -0.0061164144 0.0045318836 -0.0044731926 0.0005246657 -0.018664202 -0.0004924733
0.004282119 0.0113971345 -0.005421682 0.002942944 -0.005258538 -0.0055908826 -0.011572049 0.00092238915

encoder.layers.1.attention.w_q.weight f4 [16, 16]
00000000: 65e3 ca3e e866 39be fabb 9fbe a133 a4be
00000010: 12de ac3e 0f9c 053d 0d11 c23e e5b6 dabc
00000020: 0683 eabe e48a 1fbd ef39 27be 60c3 a3bd
00000030: bd5b e43e 8fdc cbbe bb50 9abe bb38 823d
00000040: b319 9abe 5f31 e13e a39b 133f 1b99 bb3d
00000050: 9b0e 7cbe 2ecd 113f 1f26 8e3e 84d8 ae3e
00000060: f241 e23d 21da a13e 6be9 b6be a9bb 18be
00000070: 01aa b33e cdc9 953d 46ce 043e 9daa b73e
00000080: c88b e5bd 227b 123f acf3 223e 8b3d d43d
00000090: b5d2 b93e 263a bbbe c0e0 c6be 8a50 3d3e
000000a0: 15fe fa3d ed01 97be c7e9 49be ed10 853e
000000b0: 9ce3 e7be 321f a6be 7de9 443e 9bf4 f83e
000000c0: 76a6 7ebe b2c1 ff3e b7a6 d3be 5079 ebbe
000000d0: c26e 6a3e 8e74 ec3e 389d 5cbe 47bc 84be
000000e0: 73fc e7be fe29 64be 6fa9 133e c682 ed3e
000000f0: 4427 273e 778c f3bd 09f2 94bd 8fc2 0fbf
00000100: d7ed 9a3e 6e97 b8be 42a3 4abe 8264 053f
00000110: 4e17 0dbf bc1f a1be 108d e8be 1f0d 2f3e
00000120: df9d 20bd 183b b8be ba05 c43e ee7e 0fbf
00000130: 9655 c03e 931e 04bf 6bcf 40be a4f2 20be
00000140: 6ebb 083f 5f02 7bbe 57fa b33d 8505 673e
00000150: d74e 083d bba5 1d3e 0a21 17bf 60f1 533e
00000160: 8aad 8d3e e688 bb3e 47d1 e63e 074a 3ebe
00000170: 2b7f 083f b3e5 9c3d 9a2c dfbe b61d d4be
00000180: 7718 ef3e f2c6 d53d e66b 34be a591 e33e
00000190: 7507 d93e 5acd 0c3f 0e32 9abe 8d4d 0e3f
000001a0: c262 14be 224d babe d401 14be 2292 3e3e
000001b0: f6c0 0d3f e7f7 e73e 2b3c 0a3f 678b 02bf
000001c0: 0dd3 0dbf e057 483e 023f 5f3e c797 0fbe
000001d0: 1d63 ef3e 84c7 e8be 9c91 0abf 2c39 a53e
000001e0: 4cab f43e c82c 11bf ef95 84bd dba6 a53d
000001f0: 5a52 673e 9ff4 cbbe e8fb fbbe 9fb9 8fbd
00000200: f929 203e bda3 10bf 9a69 a93e 195d 313e
00000210: 51d1 77be d8a5 45be 3433 f6be a252 1e3e
00000220: f6dc 5c3c d28d f63e 2616 23be 91b1 713e
00000230: 51cb 7cbe 9763 bf3e 2d4d 0ebf 2429 fdbc
00000240: 53de dd3e 43ea 173f 30b1 5fbe 440e aa3d
00000250: 136f febe 8c45 0f3f 9f91 d83e fd44 06bf
00000260: 1152 df3e 70e3 9a3e 3f56 0fbf 1910 4d3d
00000270: a88f f4be 231e a23e 4181 0e3f 28ea b8be
00000280: d498 4abe 3213 123f 55ab d13e 89ad 6cbd
00000290: 4e93 7c3e fd2a 053f 8ae2 f83e ee44 0dbd
000002a0: a39f fdbd 9a9a b63e 232b 0b3f 60bd f4be
000002b0: 9c47 103f 4068 af3d 447f 063f 8755 0ebf
000002c0: 49ca fb3e 958b 7bbd 5ff9 97be a1d3 83bd
000002d0: 6844 8bbe e33b 093e 0670 86bd e17f 6dbe
000002e0: 7517 c63e d1ca 08bf 3068 ccbd e842 873e
000002f0: ade1 163f 59f2 01be 6f28 b6be 3c15 e63e
00000300: 8387 07bf 0411 c93e b981 bbbe babd 9e3e
00000310: e56a 56bd c5e4 e8be 101f 9dbe 14a0 e5be
00000320: 0284 173e 6e87 f43e 5426 9a3e a757 a3be
00000330: 4f4e c9be f1dd 44be b1a7 193f b752 a2bd
00000340: cc8e cabd 48f4 07bf e48d 7abe e004 03bf
00000350: b42d 913e 7c53 8c3e b6f0 a9be b112 153f
00000360: 3ac0 f4be 1469 04bb f65d cfbe f829 b23e
00000370: 416b 85be 6cc1 e2be ba26 8dbe a434 5b3d
00000380: 6086 13be a0e6 e63e 0b3c 623e c734 cebe
00000390: 6fd9 36bd ade0 8f3e beb1 9dbe 9d47 963e
000003a0: 659d cebe 85c2 28ba aafa 14bf 0e7b 36be
000003b0: a8eb 98be b227 093f 4c55 1c3e 5704 e03d
000003c0: e7ac b63e 9492 cb3e 678a fabe 2261 23be
000003d0: 5101 013f 8f15 88be 3728 883e 741f 623e
000003e0: 1819 4a3e 35ec 6f3e b3a6 12bf 5947 a7be
000003f0: fcd1 d3be 59aa cd3d c84d 163f cdf9 e53e
0.39626613 -0.18105662 -0.31198102 -0.3207064 0.33763176 0.032619532 0.37903634 -0.026698539
-0.45803088 -0.038950816 -0.16330694 -0.07996249 0.4460124 -0.3981671 -0.30139717 0.06358477
-0.30097732 0.4398298 0.5765936 0.09160062 -0.24614947 0.56953704 0.2776346 0.34149563
0.11047734 0.31611732 -0.3572496 -0.14915337 0.3509064 0.07313881 0.12969312 0.35872355
-0.11208302 0.57219136 0.15913266 0.10363301 0.3629357 -0.365678 -0.38843346 0.18487754
0.122554936 -0.29493657 -0.19718085 0.25989476 -0.4529084 -0.32445675 0.19229694 0.4862412
-0.24868187 0.49952465 -0.4133813 -0.45990992 0.22893813 0.46182674 -0.21544349 -0.25924894
-0.4530979 -0.22281644 0.14420103 0.46388835 0.16323572 -0.11892026 -0.07272727 -0.5615625
0.30259582 -0.36053032 -0.1978884 0.5210649 -0.55113685 -0.31469524 -0.45420122 0.17094849
-0.039213058 -0.35982585 0.3828562 -0.56053054 0.37565297 -0.5160915 -0.18829124 -0.1571756
0.53410995 -0.24512623 0.08787983 0.225607 0.033278313 0.15395252 -0.5903479 0.20697546
0.27671462 0.36627883 0.4508154 -0.18582927 0.5331904 0.07660999 -0.43588716 -0.41428918
0.46698353 0.104383364 -0.17619285 0.44447055 0.42388502 0.5500084 -0.30116314 0.55587083
-0.14490798 -0.36386973 -0.14453822 0.18610433 0.5537256 0.45306322 0.5399806 -0.5099396
-0.5540016 0.19564772 0.2180138 -0.14022742 0.46755305 -0.45464718 -0.5412843 0.3227018
0.4778694 -0.56708956 -0.0647391 0.08088466 0.22590008 -0.3983507 -0.49215627 -0.07017826
0.15641011 -0.56499845 0.3308838 0.1732067 -0.24200942 -0.19301546 -0.4808594 0.1546121
0.013480416 0.48155075 -0.15926418 0.23602892 -0.24686934 0.3738067 -0.5558651 -0.030903406
0.43333682 0.5934183 -0.21844935 0.08303502 -0.49694118 0.55965495 0.422986 -0.5244902
0.436173 0.30251646 -0.55990976 0.05006418 -0.4776585 0.31663617 0.55665976 -0.36116147
-0.19784862 0.5706054 0.40951028 -0.057782684 0.24665567 0.5201872 0.48610336 -0.034489565
-0.12383964 0.35664827 0.54362696 -0.47800732 0.5635927 0.08564806 0.5253794 -0.55599254
0.4917777 -0.061412413 -0.29682443 -0.064368494 -0.27200627 0.13401751 -0.065643355 -0.23193313
0.3868977 -0.53434473 -0.0998081 0.26418233 0.58938104 -0.12690105 -0.35577723 0.44938076
-0.5294115 0.39270794 -0.36622408 0.31004125 -0.052348036 -0.45487037 -0.3068776 -0.44848692
0.1479645 0.47759575 0.30107367 -0.3190281 -0.39317557 -0.19225289 0.600215 -0.07925933
-0.098905176 -0.5310712 -0.2446819 -0.51179314 0.2835518 0.27407444 -0.3319146 0.58231646
-0.47802907 -0.0020204233 -0.40501374 0.34797645 -0.2605839 -0.44288194 -0.2756861 0.053517
-0.14406729 0.45097828 0.22093217 -0.4027464 -0.044640955 0.28101102 -0.3079967 0.29351512
-0.40354457 -0.0006437677 -0.58194983 -0.17820379 -0.2986729 0.53576195 0.15266913 0.10938328
0.3567879 0.39760268 -0.48933718 -0.15955022 0.50392634 -0.26578948 0.26593181 0.22082311
0.19736135 0.2342995 -0.5728561 -0.3267162 -0.41371143 0.10042257 0.58712435 0.44917145

encoder.layers.1.attention.w_q.bias f4 [16]
00000000: d5ba 0fbe b489 25be 315b 36be 1fdd 68be
00000010: 945b c23c 57fc 35bd 0fcd 033e 445f 39be
00000020: b62d 1e3e a4f9 6f3e de21 ebbd 330b edbd
00000030: bcab 963b d637 5bbe da9e 2dbe fd54 08be
-0.14036115 -0.16165811 -0.17808224 -0.22740601 0.023725308 -0.044430103 0.12871192 -0.18102747
0.15447125 0.23435074 -0.11481069 -0.11574402 0.004598109 -0.21408018 -0.16955128 -0.1331367
