Trans_Prediction/model_saved/ratioMergedPrs/TM_ratioMergedPrs_delay_size_7_delay_7.pth (torch, 385400 bytes, 337 tensors)

encoder.layers.0.attention.w_q.weight f4 [16, 16]
000000 b4 ab 0e 3f 1c 5a 7d 3e 70 c0 e5 3e 03 15 15 bf
       0.5573075 0.24741405 0.4487338 -0.58235186
000010 cb a8 23 3d 4c e9 c7 3d 28 f5 73 bd 7f 25 33 be
       0.039955895 0.09761295 -0.05955997 -0.17494772
000020 01 95 c9 be 9a 58 9b be a5 cb 79 3e 32 67 31 3d
       -0.39371493 -0.30341035 0.2439409 0.043311305
000030 68 5b c6 bc a9 58 4c 3d 71 24 0d 3f e5 b8 dd bc
       -0.024213508 0.04988924 0.5513373 -0.027065704
000040 92 73 d5 bd f1 82 17 3f c6 5c d1 3e 22 25 17 3f
       -0.10422434 0.59184176 0.40891093 0.59041035
000050 4d 61 d7 be 4c d6 39 3e da 5b 1c bf 3b 6b de be
       -0.42066422 0.18148154 -0.61077654 -0.43441185
000060 f1 f0 a0 3e c6 fa 3b 3e b4 fa 19 bf 11 8f 70 be
       0.31433824 0.18357381 -0.6014817 -0.23492076
000070 f0 7b 49 3d 9a 07 5a be 76 04 7c 3d 4f 29 5e 3e
       0.04919046 -0.21291962 0.06152769 0.21695445
000080 3d 8c 0f 3f 8e 78 96 bd b9 86 4f be d7 99 be 3e
       0.5607336 -0.07347213 -0.20266236 0.37226745
000090 93 63 97 3e 16 af 0b 3f 90 70 54 3e 10 34 a5 3e
       0.29568157 0.54564035 0.20746064 0.32266283
0000a0 cf 43 c8 3e 34 72 d0 be 13 2b 47 be 5a 4b 25 3e
       0.39114234 -0.4071213 -0.19450025 0.16142026
0000b0 39 a1 40 3d 7f 2f 0a bf 3d b7 5a 3d 6c 07 8e be
       0.047028754 -0.53978723 0.053397406 -0.27740037
0000c0 2b 07 f2 3e a4 c7 b0 3e fc 7f 2c bc 73 26 6c 3e
       0.47271094 0.34527314 -0.010528561 0.23061542
0000d0 ea fb da bd e1 f1 3b be ea 21 09 3e 72 14 bf be
       -0.1069258 -0.18353988 0.13391843 -0.37320286
0000e0 00 85 51 bd 8b 5d 0b 3f 2f c5 4d 3e 12 87 d4 3d
       -0.05115223 0.5443961 0.20094751 0.10377325
0000f0 13 63 de 3e 21 6e e0 3e 01 a3 bd 3e 34 91 9e 3e
       0.43434963 0.43834022 0.37038425 0.30970156
000100 4f 1e 62 be 51 9b cd 3e bf 34 c4 be be d2 fc 3e
       -0.22081874 0.4015756 -0.38321492 0.49379534
000110 68 0c b1 3e cd b9 d9 be 44 c8 d5 3e 2a f9 7c be
       0.34579778 -0.42524567 0.41754353 -0.24704424
000120 f6 3d 0f bf 65 26 36 bd f9 7c e5 be 34 f4 15 3f
       -0.5595392 -0.04447021 -0.4482191 0.5857575
000130 a7 34 0f 3f 64 e1 3f 3e 15 a5 0f 3f a4 5b d4 3d
       0.55939716 0.18738323 0.5611127 0.103690416
000140 dc 1a 0c 3f 53 7c ca bd f2 a2 0a be f6 9e 95 3e
       0.54728484 -0.09886994 -0.13538721 0.2922284
000150 e9 1d 87 be ea f6 bf 3e d8 ab e0 3d 50 b8 06 bf
       -0.26390007 0.37493068 0.109702766 -0.5262499
000160 7e 75 29 be 97 d7 ba 3d 32 bb b7 be 8a 8d 16 bf
       -0.16548726 0.09123152 -0.35885006 -0.5880972
000170 db 24 30 3e e6 10 50 be 2b 02 82 be 05 07 d4 bd
       0.17201559 -0.20318946 -0.2539228 -0.10352901
000180 f1 f9 f5 bd 2a 00 23 be 44 0e 18 3f 0e 87 b7 3d
       -0.12010563 -0.15918031 0.5939677 0.089613065
000190 de 9c 0a bf ed e2 6e be 2b 16 1b 3e 63 f7 94 be
       -0.5414561 -0.23328753 0.15145175 -0.2909499
0001a0 c9 3e 76 be 91 84 6a 3d ac 9f 0a bd dd a3 20 be
       -0.24047388 0.05725533 -0.03384368 -0.15687509
0001b0 ed bb 58 3e 38 ea 11 3d 84 3b 08 3f 04 f4 88 be
       0.21165438 0.03562376 0.53215814 -0.2674867
0001c0 8e ae f5 3e 2c 49 b3 be ab 35 59 3e d6 38 8c be
       0.47984737 -0.35016763 0.21211879 -0.27387112
0001d0 b7 ec df be 95 99 bb bb 6a c6 c0 bd 21 4a 0d bf
       -0.43735287 -0.0057250955 -0.094128445 -0.55191237
0001e0 47 9d a5 be 8c 6c b0 3e ca ff 84 3d 44 04 f9 3d
       -0.32346556 0.34457815 0.064941004 0.12159017
0001f0 10 6f 74 3d 3d 28 06 3f bc 7b 43 3e ba 0d 0c 3f
       0.05967623 0.5240515 0.1909017 0.54708445
000200 e9 42 a4 be 26 70 be 3e d7 5f fa 3e 8f 13 0d 3f
       -0.32082298 0.37194937 0.48901245 0.5510797
000210 44 dd 08 3e fd 43 0c bf 45 71 f8 3e ce e8 cd be
       0.13365656 -0.5479124 0.48523918 -0.40216678
000220 0d 65 f1 3d 08 f8 14 bf bd 05 13 bd 5c 24 e1 bc
       0.11786852 -0.58190966 -0.035894144 -0.027483158
000230 20 31 92 be 21 6c 9f 3e 43 04 a6 be 01 9e 1e be
       -0.28553104 0.31137183 -0.32425126 -0.15489961
000240 58 2e e6 be 12 f9 ea be 6a fd 0e 3f 29 0f 95 bd
       -0.44957232 -0.4589315 0.5585543 -0.07278282
000250 63 00 cb 3e 7a 5b 18 bf b6 61 bc be b0 1e fd be
       0.39648733 -0.5951458 -0.36793298 -0.49437475
000260 22 1c b1 3e ab fa 06 3e 40 e2 fa 3c be fb 3c be
       0.34591776 0.1318156 0.030625463 -0.18455407
000270 f3 d8 54 3d e4 e3 06 3f c8 d6 12 be a3 a0 c0 be
       0.05196471 0.52691483 -0.14339745 -0.37622556
000280 11 81 0b be ba f2 e5 3e 6e 05 da 3e 08 7c fc be
       -0.13623454 0.44911748 0.42582268 -0.49313378
000290 d8 ac 90 be 3b 13 e4 bc d5 6c a3 be 8c 9e 16 bf
       -0.2825687 -0.027841201 -0.3191897 -0.58835673
0002a0 73 98 f6 be b7 50 07 bf 6f c0 d7 3d 9d 2b e1 3b
       -0.48163185 -0.52857536 0.10534751 0.006871654
0002b0 76 fb 6b 3d 32 a6 8b 3e 9c 10 a3 be d8 73 1b bf
       0.05761286 0.27275234 -0.3184861 -0.6072364
0002c0 6a d1 c0 be 82 3b 6f 3e 61 6f c6 3e 05 db d5 3e
       -0.3765977 0.23362544 0.3875685 0.4176866
0002d0 46 30 16 3f 48 54 87 3e 4a 97 07 3f a3 c8 0c bc
       0.5866741 0.2643149 0.52965224 -0.008592757
0002e0 03 26 09 bf ce e5 d6 3d 2e a4 ad 3c 10 43 82 be
       -0.53573626 0.104930505 0.021196451 -0.2544179
0002f0 f8 51 f0 be 6c e0 14 3f f4 33 c3 3e 44 02 81 be
       -0.46937537 0.5815494 0.38125575 -0.2519704
000300 db 93 12 3e 44 fa 18 bf 59 0f e7 3d 87 1e c3 bc
       0.14314215 -0.59756875 0.11282224 -0.023818268
000310 5c da b5 be 34 af c2 3d 04 9a d9 3e 22 ca e1 3e
       -0.35518157 0.095060736 0.42500317 0.44099528
000320 d9 80 c1 3d ec d1 79 be 86 73 4d 3e be dc 4d bc
       0.09448404 -0.24396485 0.200636 -0.012564836
000330 34 c5 ba be 0b d6 bf be 6d 2a 73 bd 13 95 24 3e
       -0.3647858 -0.3746799 -0.059366632 0.16072492
000340 ee b2 83 be 38 6a 19 be 4d 4d e9 be 19 de 1b 3f
       -0.2572245 -0.14981925 -0.45566788 0.6088577
000350 66 f4 1a bf 09 ad 89 bd 4e c3 37 3e 4f 59 8d be
       -0.6052917 -0.06722457 0.17945597 -0.276072
000360 73 c1 ea be b5 0f c2 3e f2 2f bc 3e bc 6e 3f 3d
       -0.45850715 0.3790261 0.3675533 0.046736464
000370 9e b7 de 3d 59 87 ae 3e db 65 bf 3e fb c6 ba 3e
       0.10874866 0.34087637 0.37382397 0.36479935
000380 66 4e 10 3f d6 95 56 bd 77 8d dd 3d 78 4a 02 3f
       0.56369627 -0.05238899 0.10817998 0.5089488
000390 03 4f 9f 3e ad 7b 05 bf 8c 86 a5 be dd dc 97 3e
       0.3111497 -0.5214184 -0.32329214 0.29660693
0003a0 64 f5 fb bd 27 31 bb 3e f7 e2 bb be 85 e6 da 3e
       -0.12302664 0.36560938 -0.36696598 0.42753997
0003b0 b1 3d 2e be bd 33 f3 3e e9 c8 ab be 77 f2 86 bd
       -0.17015721 0.4750041 -0.3355172 -0.06589215
0003c0 78 65 30 be 04 1e a4 3e 8f f9 b6 be ca e1 18 bf
       -0.17226207 0.3205415 -0.35737273 -0.59719527
0003d0 bd a8 9a be 8e 81 c9 be 8b 07 59 be 9e 3f f1 3e
       -0.30206862 -0.39356655 -0.21194284 0.4711885
0003e0 33 93 05 bf 7e c9 b7 3d 84 e2 8f 3d 59 93 04 be
       -0.52177733 0.089739785 0.07025626 -0.12946834
0003f0 66 0b f9 be 39 04 db 3e 62 17 b0 3e c6 17 14 be
       -0.4864151 0.4277666 0.3439284 -0.14462194

encoder.layers.0.attention.w_q.bias f4 [16]
000000 fe 9a 61 bd a5 af 41 be ab 1a 76 3e e4 64 3e 3e
       -0.055079453 -0.1891466 0.2403361 0.18593174
000010 16 14 d9 3d ee 32 52 be 56 93 27 be ba 01 84 bc
       0.10599534 -0.2052724 -0.16364798 -0.016114105
000020 f0 44 b1 3d 83 d5 8d 3d 20 a2 59 3d a9 75 ec 3c
       0.08655727 0.0692549 0.05313313 0.028864698
000030 f5 c3 f0 3d 30 3b 0b 3e a2 43 5d be cb 22 6c 3e
       0.11756126 0.13596797 -0.21607831 0.23060147

encoder.layers.0.attention.w_k.weight f4 [16, 16]
000000 db 45 97 3e 74 a1 8c 3e 1a 6c fb 3e b8 27 35 be
       0.29545483 0.2746693 0.49105912 -0.17690933
000010 5b 7c e7 be 22 60 89 3e 4d 0c ec be b0 2f 8c 3e
       -0.45212063 0.26831156 -0.46103135 0.27380133
000020 5e 2e d5 3d 22 eb e9 3e fd 6e f2 be c2 b4 23 3e
       0.104092345 0.45687205 -0.47350302 0.15986922
000030 85 36 ee be 50 36 cf 3d ef 42 e2 bd d2 b4 87 bd
       -0.4652597 0.10117781 -0.11047923 -0.066262856
000040 90 c2 22 3e 45 05 19 3f 01 a4 c5 be ea bf 98 3e
       0.15894532 0.59773666 -0.38601688 0.2983392
000050 53 cb 0c bf 6e 8f 68 3d 8d 35 f0 3e ae b5 c2 3e
       -0.5499775 0.05677741 0.46915856 0.38029236
000060 6b e2 74 3e 1c d0 8e be 34 b1 0d 3f 19 25 69 be
       0.23914497 -0.2789315 0.55348516 -0.22768058
000070 59 ab 11 3e 4a c7 c2 be 4a fe 86 3d bf d0 a9 3e
       0.1422552 -0.3804267 0.065914705 0.33167073
000080 60 68 81 be f8 5e ea 3d c7 5b bf be b6 c5 0d bf
       -0.25274944 0.11443895 -0.37374708 -0.5537981
000090 0c 29 e9 3e 16 15 fc 3c 72 98 ae 3e b7 8c 9a be
       0.4553913 0.030771773 0.34100682 -0.30185482
0000a0 ed 59 af 3e c3 69 80 3e 17 30 9b 3e 00 2b 8b be
       0.34248295 0.2508069 0.30310127 -0.27181244
0000b0 c0 e0 7d bd 8c a0 dd 3e 9e b8 c8 bb fb 93 f1 3e
       -0.061981916 0.4328655 -0.0061255237 0.47183213
0000c0 7d 95 7b bd 1d dc 86 3e 46 3e 9a 3e 35 3c f5 3e
       -0.06142186 0.26339808 0.30125636 0.47897497
0000d0 e6 c5 03 3f c2 42 36 be 10 69 12 3e 46 c8 ef 3e
       0.51473844 -0.17798904 0.1429789 0.46832484
0000e0 f8 32 e6 3e 40 d9 0d 3e dd 58 90 3e 79 7f 0f 3e
       0.4496076 0.13852406 0.28192797 0.1401347
0000f0 4c ec 1a bd b0 c1 db 3d 31 8a be bd fb 80 52 be
       -0.037823007 0.10730302 -0.09303702 -0.20557015
000100 d9 e8 a3 3e ec 36 af 3e c5 9e ce 3e f8 c7 03 bf
       0.32013586 0.3422159 0.40355507 -0.51477003
000110 4f 29 af be 73 b0 95 3e 0f 73 d4 be 7c b0 fe 3e
       -0.34211203 0.29236183 -0.41494033 0.49744022
000120 1f 39 f3 3d a8 67 2a be 96 2b ac 3e ae a0 9a 3e
       0.11876129 -0.16641104 0.33627003 0.30200714
000130 b9 90 6c bd 56 39 22 be 8b 80 24 be 16 4c b2 3e
       -0.057755206 -0.15842184 -0.1606466 0.34823674
000140 63 eb 36 be 36 7c a5 be 1e ff 78 3e 4c 97 0e bf
       -0.1786323 -0.32321328 0.2431607 -0.5569961
000150 84 5a b4 3e 4c 24 d4 3e 52 30 bd 3d e6 cd 97 3e
       0.35225308 0.41433942 0.09237732 0.29649276
000160 dd 59 96 3e 87 0b cd be 40 ea fe bd f1 1f c7 be
       0.29365435 -0.40047857 -0.124470234 -0.38891557
000170 a2 e0 ba be 75 bf e9 be 16 64 80 be ef 8e b5 be
       -0.36499506 -0.45653883 -0.2507636 -0.35460612
000180 7f c4 af be 91 9e 0f 3f 67 b9 07 3f 88 56 05 bf
       -0.34329602 0.5610133 0.53017277 -0.5208516
000190 8d 41 07 bf c1 28 0a 3f 0d 44 1d 3e 08 06 f7 3e
       -0.528344 0.53968436 0.1535799 0.4824679
0001a0 8b 7d e0 be 88 37 83 be e7 2c c6 3e 89 76 e4 3e
       -0.43845782 -0.25628304 0.38706133 0.44621685
0001b0 5b 8e fc be d1 df 17 be 79 57 de 3e 7a 37 05 bf
       -0.4932736 -0.14831473 0.4342611 -0.52037776
0001c0 ba e8 ec be 6f 26 84 3e 93 ef 1e 3d 10 ca f5 3b
       -0.46271306 0.25810573 0.038802695 0.0075008944
0001d0 9e 55 fd 3d 4f 3f b8 be 76 51 8b bd b5 36 a1 bc
       0.12369846 -0.359858 -0.06802647 -0.019679407
0001e0 71 ed 1a bf 0a 1d f2 3e c9 67 e3 bd 8f 9b ec 3d
       -0.60518557 0.4728778 -0.1110378 0.11553108
0001f0 80 43 83 3e 6f cb dd be a8 1a 8e be 01 66 0c 3f
       0.25637436 -0.4331927 -0.27754712 0.54843146
000200 49 b7 2f 3e f2 05 93 3e 12 24 d0 be 06 21 87 3e
       0.17159761 0.28715473 -0.4065252 0.26392382
000210 2d 86 14 3f c7 84 99 be e6 4a 38 3e 7c 44 5e 3e
       0.58017236 -0.29984114 0.17997321 0.21705812
000220 19 ef d0 3e 7e 5a b2 be 0f 37 0f bf 29 98 cb 3e
       0.40807417 -0.34834665 -0.5594339 0.39764526
000230 b8 3a cb be c7 82 0c bf ce 58 06 bf 58 4e 21 bd
       -0.39693236 -0.5488705 -0.52479255 -0.039381355
000240 71 b2 79 be a2 88 4b 3e 2b 01 e3 3e 1d 3b a6 3d
       -0.24384476 0.1987634 0.4433683 0.08116744
000250 56 27 07 3e ec 4d 20 bd 28 c8 27 3c 2c d0 3c 3e
       0.13198599 -0.039136812 0.010240592 0.18438786
000260 be e1 2d 3e 68 f8 48 be 89 7b 02 3e 51 e1 d3 be
       0.16980645 -0.1962601 0.12742437 -0.4138284
000270 8d 71 1c 3f 00 b3 ba 3e 6b 5f 16 3d 6d 1e cc be
       0.61110765 0.3646469 0.03671209 -0.39866963
000280 90 0c 72 3e 05 93 10 3f 0f e7 c8 be b3 d6 c2 3e
       0.23637605 0.56474334 -0.39238784 0.38054428
000290 f8 78 c7 3e f2 fc 63 3d d1 b8 99 bc 62 82 23 be
       0.3895948 0.05566115 -0.018764885 -0.15967706
0002a0 9d 63 91 bd bd 91 8e 3e 8d 8a 2a 3e 6c 9c 12 3e
       -0.07099078 0.27845564 0.16654415 0.14317483
0002b0 cf 01 a1 be b1 37 ba be 2d 50 c9 bd d1 49 0d bf
       -0.31446692 -0.36370614 -0.098297454 -0.5519076
0002c0 c1 94 d2 3c 86 42 1b bf f9 4c 93 be 72 2b c0 3e
       0.025705697 -0.6064838 -0.28769663 0.37533146
0002d0 d0 9e 0e bf c0 ab c4 3e c5 54 c8 3e 59 fc 16 bf
       -0.5571108 0.38412285 0.39127174 -0.589788
0002e0 99 5a c0 3e 57 81 02 3f 76 62 98 bd 3d e0 0f 3e
       0.3756912 0.50978607 -0.07440655 0.14050384
0002f0 b3 f1 bc 3e fe e5 cc be be e5 04 3f 0a 07 b6 3d
       0.36903152 -0.4001922 0.5191306 0.08888061
000300 a3 b8 7d be ff f1 16 be 2b 78 62 3c 14 bc 81 3e
       -0.24777465 -0.14740752 0.013822596 0.25338805
000310 05 d9 28 3e a8 b9 a8 be 77 c2 be 3e 39 bd ae 3c
       0.16489036 -0.32954144 0.3725774 0.021330463
000320 eb 42 43 be b8 19 29 be 04 37 41 3e 2f db 31 3e
       -0.19068496 -0.16513717 0.18868643 0.17368768
000330 c5 9b 19 bf ae 3e cd 3d d2 a0 77 be e2 63 1c 3f
       -0.6000331 0.10021721 -0.24182442 0.6108991
000340 04 e1 1b 3f c0 19 ee 3e 3b 67 e6 bd 3e 13 a9 be
       0.6089022 0.4650402 -0.112501584 -0.33022493
000350 dc 16 67 be 2b 28 2e 3e 8d 35 33 3e 04 7b 15 3f
       -0.22567314 0.1700751 0.17500897 0.5839083
000360 4b d8 14 3d a4 f7 14 3f 50 69 89 be f8 32 18 3f
       0.036339086 0.5819037 -0.2683816 0.5945277
000370 4c 4d 0a 3f 09 58 d6 be 99 45 92 be b1 05 10 bf
       0.54024196 -0.4186404 -0.28568724 -0.56258684
000380 98 36 2e bd f7 b0 c4 be 66 ae bd 3d a5 12 97 be
       -0.042532533 -0.38416263 0.092617795 -0.29506412
000390 3c 2c ac 3e 56 d0 cb be 11 f0 02 be 59 7b 97 bc
       0.33627498 -0.39807385 -0.1278689 -0.018491434
0003a0 0d 1d 47 be 7d f0 66 3e b6 21 d1 be 8a 99 12 3e
       -0.19444676 0.22552676 -0.40846032 0.14316383
0003b0 db 66 bb bd dc 7a 83 3d 01 2f ae bc 0a 7c b8 be
       -0.091504775 0.06419918 -0.021262648 -0.36032134
0003c0 35 a4 d3 be e4 25 f3 be 52 7e f8 3e fa c6 49 3e
       -0.41336218 -0.47489846 0.48533875 0.1970481
0003d0 29 9c b2 3e 28 6a 19 3f 7b 51 e2 3d c9 94 09 bf
       0.34884766 0.59927607 0.110506974 -0.53742653
0003e0 16 cb 14 3f d5 68 84 3e 9f fd d1 3e 4c 53 a6 b9
       0.58122385 0.2586123 0.4101381 -0.00031724048
0003f0 6c 62 20 3d f3 b7 97 be 4a 92 a6 be 5d 48 01 3c
       0.039156362 -0.2963253 -0.32533485 0.007890788

encoder.layers.0.attention.w_k.bias f4 [16]
000000 88 f8 5f b6 b9 15 04 b6 47 6f 0b b6 26 6e fd 36
       -3.3374254e-06 -1.9682177e-06 -2.0777386e-06 7.5528105e-06
000010 34 03 d9 b5 ff 73 6a 36 cb 46 80 35 14 5f f8 b5
       -1.6168692e-06 3.4936236e-06 9.557347e-07 -1.8505111e-06
000020 2f 24 35 b4 37 3f 37 b4 4e be 0d b4 36 bc 8f b4
       -1.6870102e-07 -1.70662e-07 -1.3200881e-07 -2.6772767e-07
000030 26 e2 c4 b3 0a 28 dc 33 4f dd 46 34 64 fa 86 34
       -9.1680974e-08 1.02518314e-07 1.8520699e-07 2.5141628e-07

encoder.layers.0.attention.w_v.weight f4 [16, 16]
000000 26 4b d1 3e 26 34 eb 3d d6 e5 b1 3e d0 cb ea 3e
       0.40877646 0.11484556 0.34745663 0.45858622
000010 c5 ae bf 3e 88 6c ba 3e ef 5c ac 3d 26 77 15 3f
       0.37438026 0.36410928 0.08416163 0.5838493
000020 64 b1 79 3d f8 50 9d 3e e4 3c fd ba 63 dd df be
       0.06096019 0.30725837 -0.0019320515 -0.43723592
000030 cd a6 b9 3e 33 0b 86 3e df 36 c9 be 52 3a 31 be
       0.3626007 0.2618042 -0.39299676 -0.17307404
000040 dc a5 eb be e3 d1 16 bf 38 7e 16 3f 08 e7 f4 3e
       -0.46024978 -0.5891401 0.58786345 0.47832513
000050 3c 99 bd 3e 64 98 07 bf d4 39 9a 3e f8 07 15 bf
       0.3703097 -0.52966905 0.30122244 -0.58215284
000060 2b 7c 18 3d 42 08 a4 be 55 de ef be 2a 65 b3 3b
       0.03722779 -0.3203755 -0.46849313 0.005474706
000070 50 4b 9f 3e 7e d5 b7 3e de f3 d8 3e 17 22 81 bd
       0.31112146 0.3590507 0.42373556 -0.0630533
000080 ce 8e 79 3e ad 0b f9 3e 83 bd dd be ed 39 bd be
       0.24370882 0.4864172 -0.43308648 -0.36958256
000090 d8 c5 99 be 6f 70 37 3e 23 0c 5a 3e 76 43 09 bf
       -0.30033755 0.17913984 0.21293692 -0.5361856
0000a0 25 5d 63 3e 2b 84 cc 3e b6 54 83 bd 0c 02 01 bf
       0.222035 0.39944586 -0.06412642 -0.5039375
0000b0 4a 7b 98 3d c7 27 79 bd 7e cb dc 3e 69 01 65 be
       0.074453905 -0.06082895 0.43124002 -0.22363819
0000c0 4b 49 e7 bd 28 92 9b 3d 5b 82 fd 3e fa f3 9a be
       -0.112932764 0.075962365 0.49513516 -0.30264264
0000d0 50 00 0d 3f 75 a7 7f 3c 96 d2 a6 3e 93 ce a1 3e
       0.550786 0.01560389 0.3258254 0.31602916
0000e0 57 77 01 3f 33 ac 1c be fd 13 f9 be 2f 11 16 3f
       0.50572723 -0.15300064 -0.48648062 0.5861997
0000f0 0f e9 70 be 01 30 d2 be 7a d5 39 be ae c7 16 bf
       -0.23526405 -0.4105225 -0.18147841 -0.5889844
000100 30 e0 ee 3e db 49 fe 3d 54 92 03 3e 4d 29 87 be
       0.46655416 0.124164306 0.12848788 -0.26398697
000110 c4 c9 dc 3e 8d 91 fa be e4 c5 16 3f 04 46 1b be
       0.43122685 -0.4893917 0.5889571 -0.15163428
000120 4f 33 0d bf 40 88 01 bf f2 7c 0f 3f 6e 96 87 3e
       -0.55156416 -0.50598526 0.56050026 0.26481956
000130 87 16 c3 3e 80 5e 10 be 5f e6 c4 3e ec fd 70 3d
       0.38103124 -0.14098549 0.3845701 0.05883591
000140 09 12 fc 3d 0d ea 38 be d6 34 1d bf a3 59 0e bf
       0.123081274 -0.18058033 -0.61408746 -0.55605525
000150 fd 27 ca 3e fb fd 96 3e ab c7 b4 be 79 2e b7 be
       0.39483634 0.29490647 -0.35308585 -0.35777643
000160 f3 07 1c bf f1 38 3a be 25 ed 88 bd 62 b3 0b 3f
       -0.6094963 -0.18185784 -0.06685857 0.5457059
000170 b6 ca cc be b4 9f eb bd 5f 6f 43 be 70 9f 82 bd
       -0.39998406 -0.1150507 -0.19085453 -0.063780665
000180 7d 9b fb 3c 54 04 17 3e 73 b0 2c 3e 1a bc 8f 3e
       0.030713791 0.14747745 0.16864185 0.28073198
000190 52 5d b8 be 7b fe 97 3e 2f e1 b0 3e e9 2a 12 3f
       -0.36008698 0.2968634 0.345468 0.57096726
0001a0 86 c2 ea be b7 08 d4 3e 11 36 0f 3f c5 b2 70 be
       -0.45851535 0.414129 0.55941874 -0.23505695
0001b0 f3 c6 15 3f cb d8 9b be 91 b9 82 be 76 64 9b be
       0.585067 -0.30438837 -0.255322 -0.30350083
0001c0 5e b3 35 be fb 52 fa bc 5f 4b 1e bf 4f f7 17 bf
       -0.17744204 -0.030557146 -0.6183376 -0.5936174
0001d0 87 1a c0 be 05 6f 42 bd e1 64 63 be b5 68 76 3e
       -0.3752024 -0.047469158 -0.22206451 0.2406338
0001e0 a5 f0 fa be af f6 f5 bd 64 dc 08 3c b4 c0 0d 3f
       -0.49011722 -0.12009942 0.0083533265 0.55372167
0001f0 8b ca cd be 24 13 95 3e 2f 9f e0 3d dc 32 8f 3e
       -0.4019359 0.29116166 0.10967862 0.2796849
000200 fc 10 96 3e 78 47 c4 be 6a 0e 17 3f e6 17 c1 be
       0.29309833 -0.38335776 0.5900637 -0.37713546
000210 85 0e 60 3e 35 f2 0e bf 53 3f f4 bc f2 c6 29 be
       0.21880539 -0.5583833 -0.029815352 -0.16579798
000220 29 52 21 be c7 05 f4 3e 4c c8 38 be 4f d7 84 3e
       -0.15753998 0.47660658 -0.18045157 0.25945517
000230 71 15 e4 3e 3b 06 11 be 8f 74 76 3e 20 36 86 3e
       0.44547608 -0.14162533 0.24067901 0.2621317
000240 24 7a 10 bf 5a eb 0e bf 04 db 54 be 1c 21 c8 3e
       -0.5643637 -0.5582787 -0.20786673 0.3908776
000250 54 46 1c 3e db 08 18 3f bf 33 8d be 08 6a ef be
       0.15261203 0.5938851 -0.27578542 -0.46760583
000260 67 84 d8 3e 78 86 42 be c5 20 16 3d 67 49 e1 be
       0.42288515 -0.18996608 0.036652345 -0.44001314
000270 61 8d be bb 6a af 14 bf 5e 9d 17 be 41 7d e2 be
       -0.0058151935 -0.5808016 -0.14806125 -0.44236186
000280 8f 11 7d be 42 2d f2 3e 1f e9 a6 3e 6c 59 81 be
       -0.2471373 0.47300154 0.32599732 -0.25263536
000290 6a 01 0b 3e b2 85 52 be 8d 57 eb 3e f9 59 44 3e
       0.13574758 -0.20558813 0.45965233 0.19174947
0002a0 f1 dd 19 bf 68 88 58 3e d9 d1 11 be f0 29 4d be
       -0.6010428 0.21145785 -0.14240207 -0.20035529
0002b0 ff 90 cf be 17 52 62 3e fa ec 85 3e b9 1f eb be
       -0.4054031 0.22101627 0.2615736 -0.4592264
0002c0 c3 77 04 bf 14 32 15 be c9 79 b1 be 9a 5c fb be
       -0.5174524 -0.14569885 -0.34663227 -0.49094087
0002d0 d5 15 f2 bd 92 0c 5c 3d be c5 50 be 69 5c fd bc
       -0.118205704 0.053722925 -0.20387933 -0.030927854
0002e0 48 95 df be 73 db 29 3e d8 b8 ca 3e b3 78 0c bf
       -0.4366858 0.1658762 0.3959415 -0.5487167
0002f0 26 3f 27 3e 0d 7a b3 3e 35 e1 ca be cb 24 f3 3e
       0.16332683 0.35054055 -0.39624944 0.47489008
000300 e9 5c 19 bf 5c 75 a8 3e 95 83 85 bc 83 84 f3 be
       -0.59907395 0.32902038 -0.016298095 -0.47562036
000310 2b 38 fa be f3 0d b6 be f8 36 d3 be 36 c0 47 3e
       -0.48870978 -0.35557517 -0.41252875 0.19506916
000320 49 05 7d bc 0a c1 da be f0 d0 96 3e ad 6b a7 bc
       -0.015443155 -0.42725402 0.29456282 -0.020437086
000330 51 70 52 3e 21 25 06 be 91 5d 65 3e 49 9a c8 3d
       0.20550658 -0.13100101 0.22398974 0.097950526
000340 a3 6b a7 3c 3c ec c6 be 5f 5e f0 3e d3 4b 00 3f
       0.020437067 -0.38852108 0.46947 0.501157
000350 ba 2a 6a bb 71 3c e7 3e d2 87 04 3f 8c 79 2e 3c
       -0.0035731033 0.451633 0.51769745 0.010649096
000360 d8 2f 31 3e c6 d1 cf 3c d3 5d 56 3e 80 08 3b be
       0.17303407 0.025368582 0.20934229 -0.18264961
000370 f4 3f fa bd d3 a4 00 bf cc ed dc be 1e ee 84 3e
       -0.12219229 -0.502515 -0.43150175 0.2596292
000380 fa a4 05 bf 8c d9 80 be 00 5a 08 bf 71 2e 38 be
       -0.5220486 -0.25165975 -0.5326233 -0.17986466
000390 1e 06 a7 3e b4 7f bc bc 3e 0a 62 be ce 3b b3 3c
       0.32621855 -0.023010112 -0.2207422 0.021879103
0003a0 e0 c7 15 3f 09 a7 06 bd 7a 0c c5 bd a4 20 b1 3d
       0.5850811 -0.03287414 -0.0962152 0.08648804
0003b0 8a 16 6a be 78 d6 df 3e 07 c2 f8 be cd 9a 54 3e
       -0.2286016 0.43718314 -0.4858553 0.20762177
0003c0 db df b0 3d 05 ab 0e 3f a8 4d 4f be 8f 42 0e 3f
       0.08636447 0.55729705 -0.20244467 0.5557031
0003d0 0c 2d 8a 3e 3c af cc be ad 94 94 3d f6 9c 1f 3e
       0.26987493 -0.39977443 0.0725492 0.1558722
0003e0 ea 95 87 be bc e6 70 3e 0e ad aa 3e fa aa 78 3e
       -0.26481563 0.23525518 0.33335155 0.24283972
0003f0 f6 fd 76 3d cc 39 ce be 47 fb f9 3e 88 72 d3 3e
       0.06030079 -0.4027847 0.48824522 0.41298318

encoder.layers.0.attention.w_v.bias f4 [16]
000000 1b c5 31 be 9d 20 b5 bd e6 9b 06 bd 3c 44 45 bb
       -0.17360346 -0.08844111 -0.03286352 -0.0030100485
000010 24 5d e4 bb 8e e1 07 3d 54 fe 8e bd 52 5a 31 be
       -0.006969111 0.03317409 -0.06982103 -0.1731961
000020 66 a5 da 3d f8 63 2e 3c c3 b0 0d bd 88 1d 92 3d
       0.106760785 0.010643952 -0.0345924 0.07134539
000030 6b 82 01 bd 5e 4e 02 3e 31 ea e0 3d 60 c5 e0 bd
       -0.031618517 0.12725207 0.109821685 -0.10975146

encoder.layers.0.attention.w_concat.weight f4 [16, 16]
000000 65 ec 23 be 9c 85 d0 3d 2c d4 1a be ff 76 55 be
       -0.16008146 0.10181734 -0.1512 -0.20846175
000010 29 46 b6 be 77 0d 3c be 3d e4 98 3e b6 15 3e 3e
       -0.35600403 -0.18364511 0.29861632 0.1856297
000020 d8 e3 f1 3e 99 2a d9 be 65 db 9f bb de ad 30 3e
       0.47244143 -0.42415312 -0.004878449 0.17253825
000030 08 04 60 be ad 59 12 3f 94 e1 0b 3f fc ad b9 be
       -0.21876538 0.57168084 0.5464108 -0.36265552
000040 0b 22 fb be c0 8e f6 be e4 58 10 3e 53 51 7a be
       -0.4904941 -0.48155785 0.14096409 -0.24445085
000050 41 25 2a 3e 18 36 1d 3e 26 d7 0d 3e de 3c 96 be
       0.16615774 0.15352666 0.13851604 -0.29343313
000060 14 a7 1a 3e 7b dc 06 bf c9 5d 15 3f 08 a7 13 3e
       0.15102798 -0.52680176 0.5834623 0.14419186
000070 43 cd 59 be 33 bd ad 3e 97 75 ef 3e 6c f1 fe bb
       -0.21269707 0.3393341 0.467694 -0.0077802446
000080 b9 77 00 3f 7e d1 ed bd ae 7d e5 3e c1 b8 e4 3e
       0.5018268 -0.11612223 0.44822448 0.44672206
000090 b7 f6 92 3d 4f 52 6e 3e 78 17 0b 3f d3 d7 88 be
       0.07175963 0.23273586 0.54332685 -0.2672716
0000a0 09 3a 3e 3e 96 06 c4 3e 4c 3a 16 3e 82 fb af 3d
       0.18576826 0.38286275 0.14670676 0.08592893
0000b0 73 6e b9 3e dc ad c8 bd 1a a3 bf be f1 bd cb be
       0.3621708 -0.09798786 -0.37429124 -0.3979335
0000c0 19 0e 61 3d c9 75 0a 3e 3c e5 90 3e 8c 7b e9 3d
       0.054945085 0.13521494 0.28299892 0.11400518
0000d0 dc 5a b3 be 66 06 a0 be a7 81 53 3e 43 b7 f9 be
       -0.35030258 -0.31254882 0.20654927 -0.4877263
0000e0 18 e9 73 be 7a 66 9c bd cf 9a 09 bf 38 05 54 bd
       -0.23819387 -0.07636733 -0.53751844 -0.05176279
0000f0 22 a3 31 be b2 15 0e 3f 95 93 b6 3b bb 93 0c bf
       -0.17347386 0.55501854 0.0055717924 -0.5491292
000100 a2 76 d6 3e 7f 9e e0 be e7 83 14 3d e9 00 16 3f
       0.41887385 -0.43870923 0.036258604 0.5859514
000110 7a 3f 6b be 6e 5c 6c 3e d6 43 cf be 0a 80 e3 3e
       -0.22973433 0.23082134 -0.40481442 0.44433624
000120 47 6f d1 bd 18 4c 9d bd 42 53 d4 3e de a0 dd be
       -0.102263026 -0.07680529 0.4146977 -0.43286794
000130 f5 b3 f0 3c 5c 3b b0 3e a7 60 ca 3e 53 74 79 3d
       0.029382685 0.34420288 0.39526865 0.06090195
000140 74 66 d8 3d 3d 2f f4 3e d0 c7 0c 3f 19 06 c5 bb
       0.105664164 0.4769229 0.5499239 -0.00601269
000150 80 7c ac bc fc 6f 5d 3e 13 c6 9e be 8d 10 2a be
       -0.02105546 0.2162475 -0.31010494 -0.16607876
000160 21 d6 7f be 24 b8 22 3e 0a 43 59 be 3b 65 cf be
       -0.24984027 0.15890557 -0.2121698 -0.4050692
000170 bc af d0 bd ea a3 eb 3e cb 3e a7 3e 76 23 a1 be
       -0.10189769 0.46023494 0.32665095 -0.31472367
000180 b3 f3 a2 bd 3f 40 c1 be 2d 81 1b 3f 68 4f f5 3e
       -0.07956638 -0.37744328 0.6074398 0.47912145
000190 a1 aa b0 be 33 5a 98 3e 8a 6f 28 be 1e c8 54 3e
       -0.3450518 0.29756317 -0.16448799 0.20779464
0001a0 e7 d1 7c 3e 57 1c 1b 3f e3 9e 06 bf b9 f7 a5 be
       0.24689446 0.6059012 -0.5258619 -0.3241556
0001b0 8b 6d f3 3d e2 4e dd be 11 1c 35 3e 56 af 03 3f
       0.11886128 -0.43224245 0.17686488 0.51439416
0001c0 50 87 90 3e ef b4 c2 3e ad 4e 3c 3e 33 6c 60 bd
       0.28228235 0.38028666 0.18389387 -0.054790687
0001d0 d8 84 8c bd e3 5b 04 bf 87 eb ae be 97 1c c0 3e
       -0.068612754 -0.5170271 -0.34164068 0.37521812
0001e0 4d 88 dc be 69 22 90 3d fb 83 dd be d9 16 0b 3e
       -0.4307274 0.07037813 -0.43264756 0.13582934
0001f0 13 18 0f bf 14 cd 4d 3d b8 c2 19 3e 49 4f cb be
       -0.5589611 0.050244406 0.15015686 -0.39708927
000200 3f c9 73 3d 9b 54 48 3c bb 96 13 3d 2b ec 16 be
       0.059518095 0.012227203 0.03603242 -0.14738528
000210 92 24 8c bd 6e 77 ae bd f9 77 94 3d 0a f7 a7 be
       -0.06842913 -0.08518873 0.072494455 -0.32805663
000220 33 df 9e 3e 37 ae 2b 3d fd c7 06 bf 3d 09 57 3e
       0.31029662 0.04191419 -0.5264891 0.20999618
000230 08 dc 05 3f 2b 58 96 3e 7d 77 0a 3f 0d 88 0e 3f
       0.52288866 0.29364142 0.54088575 0.55676347
000240 4c 5e 07 bf d7 97 a3 3d 1e b9 b1 be d9 48 ef 3e
       -0.5287826 0.079879455 -0.34711546 0.46735266
000250 58 c5 ee bd 09 ec c9 3d 8e 82 8b be 48 8a c9 be
       -0.11658734 0.09859473 -0.27248043 -0.39363313
000260 6d 90 cb bc 69 3d c6 bd 78 08 82 be 2f 6f 7a be
       -0.024849141 -0.09679682 -0.25397086 -0.24456476
000270 40 a4 9d 3e 70 ec 1c be 84 7e ca 3e 05 25 b5 be
       0.30789375 -0.15324569 0.3954965 -0.35379806
000280 5b db 58 3e eb a1 c6 be 90 c0 d2 be 5d a2 a6 be
       0.21177427 -0.3879541 -0.4116254 -0.32545748
000290 3c 18 58 3e 17 83 f8 3e c9 57 0a bf dd 33 f0 3e
       0.21102995 0.48537514 -0.540402 0.4691457
0002a0 39 5b 98 be c9 0f 34 be d5 ad a0 be d1 6a 12 3f
       -0.29757097 -0.17584147 -0.31382623 0.5719424
0002b0 82 0c 13 be a2 0a f3 be 6a 9c dd 3e e5 e9 1d 3e
       -0.1436024 -0.4746905 0.43283397 0.15421255
0002c0 ea f9 89 be 9c 80 08 3f b4 04 bc be b9 2b 12 bf
       -0.26948482 0.5332124 -0.36722338 -0.57097965
0002d0 9b 80 af be e2 f7 02 3f 87 46 03 3f 69 78 ea 3e
       -0.34277806 0.5115949 0.5127949 0.4579499
0002e0 c9 96 e3 bd 10 cd e3 3c c0 26 5c 3e a1 22 a0 3e
       -0.11112744 0.027807742 0.21499157 0.3127642
0002f0 12 15 81 be 76 60 f6 be 18 fe 9b be 4b 14 13 bf
       -0.25211388 -0.4812047 -0.30467296 -0.5745284
000300 88 ee 65 3e 31 8b fc be c4 ff bb 3e b2 dc 11 bd
       0.22454274 -0.49324945 0.3671857 -0.035610862
000310 2b 1b 95 3e 52 82 06 3f df f9 1a be a2 56 0c bf
       0.2912229 0.52542603 -0.15134381 -0.5481969
000320 2e ec ec bb 37 2d 02 3e 56 a7 00 bf af 18 43 3d
       -0.0072303033 0.1271256 -0.50255334 0.047630962
000330 ba 46 cc 3e 0d 89 0f bf 57 82 62 be 6b 97 9b 3e
       0.3989771 -0.560685 -0.22120033 0.3038896
000340 3c e1 a9 be 35 31 d8 be c0 42 df be 47 ee 07 3e
       -0.33179653 -0.42225042 -0.43605614 0.1327449
000350 d9 76 27 3d a8 1d ab 3e b2 9e 91 bd 77 0c b6 3e
       0.040884826 0.33421063 -0.07110347 0.35556385
000360 cf a1 6e 3c 3e 43 7b 3e 3b 76 c6 be 96 b7 0c 3e
       0.014564945 0.2453737 -0.38762078 0.13741907
000370 60 84 57 3e 98 91 0a 3f e1 23 3a be 44 c4 bf be
       0.21046591 0.5412841 -0.18177749 -0.37454426
000380 a3 81 d0 3e 4f 54 94 be 23 ba d8 be 54 08 1d bd
       0.40723905 -0.28970572 -0.4232951 -0.03833802
000390 03 56 c5 3d 95 33 c0 be 59 f2 95 be f8 0e a9 3e
       0.09635546 -0.37539354 -0.2928646 0.33019233
0003a0 80 9c 11 3f cb 12 3f 3e 80 b5 e3 3d 59 24 01 3e
       0.56879425 0.18659513 0.11118603 0.12611522
0003b0 55 49 d8 3e 9d 74 68 be 82 aa a7 bc 4d d8 07 3f
       0.42243448 -0.22700734 -0.020467047 0.53064424
0003c0 81 1d 5f be 8c e3 e8 3d 10 f4 83 bd 8c 29 92 be
       -0.21788599 0.11371526 -0.064430356 -0.28547323
0003d0 82 60 16 3f 8a 6d b0 be 38 c9 28 be 8c 79 12 bd
       0.5874101 -0.34458572 -0.16483009 -0.035760447
0003e0 15 16 2c 3c 01 d0 9e 3c b8 b6 e7 bd d2 5e 05 bd
       0.010503312 0.019386293 -0.11314148 -0.03256113
0003f0 c4 c8 84 3e d4 27 84 be 34 c6 b3 3c 48 01 04 3f
       0.25934422 -0.25811636 0.021945097 0.51564455

encoder.layers.0.attention.w_concat.bias f4 [16]
000000 b1 69 9a 3d 88 ae 02 bd 27 23 dd 3c 57 4a cc 3d
       0.0753969 -0.031904727 0.026994301 0.09975117
000010 99 d2 b0 bb 80 70 fd bd e0 b5 03 3d 45 72 ad bd
       -0.005396199 -0.12374973 0.03215587 -0.08469061
000020 6f 6d fc bd 0e ce 0f be a9 07 59 bd d9 15 db bc
       -0.1232556 -0.14043447 -0.05298582 -0.026743816
000030 3c d5 72 bd ad f2 1e 3e b4 6b b3 bd 04 0e 8c 3d
       -0.059285387 0.15522261 -0.08760777 0.06838611

encoder.layers.0.norm1.gamma f4 [16]
000000 f9 56 7c 3f 22 9a 7c 3f 9f 40 84 3f b8 7a 81 3f
       0.9857021 0.9867269 1.0332221 1.0115576
000010 82 13 7c 3f 92 69 7d 3f e7 6c 80 3f 60 21 80 3f
       0.98467267 0.9898921 1.0033234 1.0010185
000020 02 c6 79 3f 28 c3 7c 3f 90 b2 79 3f 39 6c 7c 3f
       0.9756776 0.98735285 0.9753809 0.98602635
000030 34 49 7d 3f 2e 00 7f 3f 21 04 81 3f 6f ad 7f 3f
       0.98939824 0.9960965 1.0079385 0.99874014

encoder.layers.0.norm1.beta f4 [16]
000000 8d 07 3d 3c 20 57 56 bc ed a8 24 3c 73 42 aa 3b
       0.011537445 -0.013082296 0.010050041 0.0051959096
000010 cd 9a e1 3b 91 46 55 bb 80 8d 74 bc cf ff e7 3b
       0.006884909 -0.0032543282 -0.014926314 0.0070800553
000020 31 5c 60 bc b9 fa 17 bb cc 63 e6 ba 97 4f e3 3b
       -0.013693855 -0.0023190214 -0.0017577349 0.006936978
000030 fb 01 ff 3b f0 b4 1a bb f8 dd 4f 3b f5 90 f8 3b
       0.0077822185 -0.0023606382 0.0031717997 0.0075856396

encoder.layers.0.ffn.linear1.weight f4 [64, 16]
000000 67 eb 13 3f d9 86 20 3c 3b 49 fd 3e 2c be b9 3e
       0.5778107 0.009797775 0.49469933 0.36277902
000010 82 22 e6 be 65 0c 83 3e d1 2c 8e 3e 30 df 85 3e
       -0.44948202 0.25595394 0.27768567 0.2614684
000020 33 1b 78 be d6 6b e9 be da cf 14 bf 4a 7a da 3e
       -0.24229126 -0.45590085 -0.58129656 0.42671424
000030 c7 54 92 3d 30 a1 d5 be 08 d4 4f 3e 0a 91 dc bd
       0.07145076 -0.4172454 0.20295727 -0.107698515
000040 2d 15 30 3e cd 40 ff 3e 4e 4a 54 3e 01 85 c1 3e
       0.17195578 0.49854127 0.2073147 0.37796786
000050 9a 3c 9b 3e a4 c4 2a be 2d 55 12 3f 4c 0f c2 bd
       0.30319673 -0.16676575 0.5716122 -0.09475574
000060 d9 30 71 be dd 43 5b 3e 3c 39 75 be 70 af f9 3e
       -0.2355379 0.21412607 -0.23947614 0.4876666
000070 3a 56 dc be 56 a2 dd 3e 9c fc a1 3e 42 9b f8 be
       -0.43034536 0.43287915 0.31638038 -0.48555952
000080 3f 5c 6b 3e 7c c1 c7 3e 21 27 b8 3e 4b 5c f8 be
       0.22984408 0.39014804 0.35967353 -0.48507914
000090 0c 4b 03 3f 2e b7 cf 3e 6a 83 d3 3e da 7c 24 be
       0.5128639 0.40569443 0.41311198 -0.16063252
0000a0 16 45 94 3e 0a 4b 0a 3f d1 1f 51 3d b9 6c 9b 3e
       0.28958958 0.5402075 0.051055733 0.30356386
0000b0 3d e5 86 be 4a 40 e4 3e 05 f7 d6 bd 6a 28 5a 3e
       -0.2634677 0.445803 -0.10496334 0.21304479
0000c0 31 1d 29 3e d5 d8 1b be f7 e3 0f be 4d 11 d6 3e
       0.16515042 -0.15219434 -0.14051805 0.41810074
0000d0 d6 53 02 3f 82 36 06 3e fd 09 cb be 4a 32 ca 3e
       0.50909173 0.1310673 -0.39656058 0.39491493
0000e0 11 9b f7 3c 68 20 4f be 0e d6 c2 3e 7a 63 1a be
       0.030225309 -0.20227206 0.38053936 -0.1507701
0000f0 f1 23 88 be 97 b4 29 bd 51 77 c3 bd 2e d2 02 3f
       -0.2658992 -0.04143199 -0.09544242 0.5110196
000100 d3 86 1e 3c 0d dc 13 3e fc 0d 03 3e a6 2a bc 3c
       0.009675699 0.14439411 0.12798303 0.022969555
000110 91 17 b9 be a5 b1 ef bb 34 f5 56 be 4b 47 a7 be
       -0.36150792 -0.007314878 -0.20991975 -0.3267158
000120 d1 9e da be a4 48 b5 3e 60 85 e3 bc 1b a6 7a 3e
       -0.42699292 0.35406983 -0.02777356 0.24477427
000130 e4 5a 3c be bc 90 d8 3e ba a0 e0 3e df 5a ab 3e
       -0.18394047 0.42297924 0.43872625 0.33467767
000140 8c 17 13 bf b7 59 fd 3e 30 a9 5d be 60 62 03 3f
       -0.57457805 0.4948251 -0.21646571 0.51321983
000150 75 b3 53 be a8 e3 de 3d 51 6f b2 3d 32 f2 f5 be
       -0.20673926 0.10883266 0.08712638 -0.48036343
000160 94 9f aa be 7b 72 0d bf 53 2f 8f 3d 21 3d 4b 3e
       -0.33324873 -0.5525281 0.06991448 0.19847538
000170 fd f3 fc 3e c4 fa d5 3e 97 7e 5d 3d ce d8 b9 be
       0.49404898 0.4179288 0.054075804 -0.3629822
000180 a2 af b4 3e 33 6c 9d be 18 c7 7a 3e 60 8f ba be
       0.35290247 -0.30746612 0.2449001 -0.3643751
000190 db 4a 0a be 74 be 01 bc 3e 6d 9b 3e 8a cf a9 3e
       -0.13505118 -0.007918943 0.30356783 0.33166152
0001a0 93 4c 1b 3f cc 44 4a 3e f1 45 8a 3d 6e 97 4c be
       0.6066372 0.19752806 0.067516215 -0.19979641
0001b0 23 f8 0a 3f 8c 37 d3 be 06 50 9a bd d8 34 96 3e
       0.54284877 -0.41253316 -0.075347945 0.29337192
0001c0 bb 68 57 3c d0 58 96 be f5 a1 67 be 8e cf ba bd
       0.013147528 -0.29364634 -0.22620375 -0.09121619
0001d0 3b 08 dd 3e 78 66 88 3e e3 01 b2 be af 3c bd 3e
       0.43170342 0.26640677 -0.34767064 0.3696036
0001e0 f6 59 87 bd a2 5b c3 be ec 8e cb bc 9f 92 ed bd
       -0.066089556 -0.38155848 -0.024848424 -0.116002314
0001f0 22 59 fe 3e 59 47 9f 3e b1 ae 4c be fd eb b5 3d
       0.49677378 0.3110912 -0.19988514 0.08882902
000200 55 2c 5e bb 40 64 2c be 71 65 d0 3e 10 37 c3 3d
       -0.0033900936 -0.16835117 0.40702394 0.09531987
000210 47 eb fa 3e f8 9d 2a be 8d fd 95 be a3 89 af bd
       0.49007627 -0.16661823 -0.29295006 -0.08571174
000220 4a de ad be 7e aa 16 be 3f 28 74 be 36 63 b9 be
       -0.33958656 -0.14713475 -0.23843478 -0.36208504
000230 6e b7 71 3e b5 c0 d5 3e e3 8c 94 be 6a 61 14 bf
       0.23605129 0.41748586 -0.29013738 -0.5796114
000240 72 c5 0a 3f 6e 8b 94 3e cd 16 06 bf b1 c0 c3 be
       0.5420753 0.29012626 -0.5237854 -0.3823295
000250 92 ef b7 3e 41 f4 0d bf 67 27 9d 3d f6 5d c5 3d
       0.35924965 -0.55450827 0.07673531 0.09637062
000260 2e 9c 00 3f 05 ef 0e bf 44 0f 51 be 27 59 b1 3e
       0.5023831 -0.55833465 -0.2041598 0.3463833
000270 98 da c0 3e 02 ae 80 3e 07 5a 91 3e 9f b3 47 3e
       0.37666774 0.25132757 0.28388998 0.19502114
000280 9a ae 09 3f e0 6f 08 bf f7 e5 16 3d e6 1f 83 be
       0.53782046 -0.5329571 0.036840405 -0.25610274
000290 8f 76 6d be 96 6f dc 3d d4 5a 5b 3d 76 20 ea 3e
       -0.23189758 0.10763471 0.053553417 0.4572789
0002a0 f4 be c2 3e 84 a8 08 bf 2f dd 95 3d a6 1e 18 3e
       0.3803631 -0.53382134 0.07317578 0.14855441
0002b0 e0 f8 04 3f b9 09 63 be c4 16 78 3e 21 a8 00 bf
       0.51942253 -0.22171678 0.24227434 -0.50256544
0002c0 42 85 a6 be f6 14 7e be 4d 1e 0a 3e ef 2a 9c bd
       -0.32523543 -0.24812683 0.13488121 -0.076253764
0002d0 ea c7 db 3e bc 5d b7 be a9 35 6e be d2 d3 13 3f
       0.4292596 -0.358137 -0.23262657 0.5774509
0002e0 4f 60 d1 be ac 54 03 be 13 5a 08 3e f8 f7 b3 bc
       -0.4089379 -0.12825269 0.1331561 -0.021968827
0002f0 3a 17 4b 3e 6e 66 15 bf 3e 61 bd 3e 52 8e a4 be
       0.19833079 -0.5835942 0.36988252 -0.32139832
000300 0a 70 b3 3c 5f cb ec be f7 04 87 be 87 91 a3 be
       0.02190401 -0.4624891 -0.26370975 -0.31946966
000310 b9 ee 05 3f da 32 26 3e 14 6a b4 bc f1 5b 8d 3e
       0.52317387 0.16230336 -0.022023238 0.27609208
000320 cd 41 0a bf 17 a5 2c 3e 61 a2 7e be 8b 89 03 3e
       -0.54006654 0.16859852 -0.2486663 0.12845437
000330 61 82 07 3e dd 68 1d bf 13 a3 40 be 6a 5d 71 be
       0.1323333 -0.61488134 -0.18812208 -0.23570791
000340 07 fd e4 3c 78 f0 fa 3e fb c5 23 be a0 5d 60 3e
       0.027952684 0.49011588 -0.15993492 0.21910715
000350 c9 56 03 3f 8b 91 a7 be bd 23 1a bf 4d a6 07 3f
       0.513043 -0.32728228 -0.6021078 0.5298813
000360 d5 5b a6 be be 19 22 be d5 12 8e be e2 46 f0 3e
       -0.32491937 -0.15830132 -0.27748743 0.4692908
000370 30 2e c8 3e 87 f2 4e be 47 23 c0 3e 54 eb ee 3e
       0.39097738 -0.20209704 0.37526914 0.46663916
000380 47 95 0a bd 88 4d 49 3e 9f dc 03 3e 4d 67 0f be
       -0.03383377 0.19658482 0.12877129 -0.1400425
000390 0e ff 17 3f b7 2b 37 bd 48 35 05 3f bc 51 10 bf
       0.5937356 -0.044719424 0.52034426 -0.56374717
0003a0 1b ea a0 3e 6a 80 a4 be 10 98 df 3e 7f ec af 3e
       0.31428608 -0.32129222 0.43670702 0.3436012
0003b0 ac ec 86 3d 8a 31 82 3e a8 69 f3 be af 17 e8 3e
       0.0658811 0.2542842 -0.47541547 0.4533057
0003c0 e5 72 a4 be 79 23 08 3e 8f 54 dd 3e 4a bc f6 be
       -0.32118908 0.13294782 0.43228576 -0.48190528
0003d0 94 93 b2 3e fc e7 0f bf b4 b2 f1 3e 50 58 bc 3e
       0.34878218 -0.56213355 0.47206652 0.36786127
0003e0 d0 b5 94 be 6f 9a d8 be e1 a2 d8 3d f7 e8 f4 3e
       -0.29044962 -0.42305323 0.10577942 0.47833988
0003f0 de 24 e8 be ea 4d 5f be 69 97 9a 3e 44 92 23 3e
       -0.45340627 -0.21807066 0.30193642 0.15973765

encoder.layers.0.ffn.linear1.bias f4 [64]
000000 67 b3 30 3b 9e d6 e2 3d 13 94 cc 3d 32 4c fc 3c
       0.00269624 0.11076091 0.099891804 0.030798052
000010 b9 92 9d bd 97 50 a7 3d ff 10 4d bd ec 04 43 be
       -0.07694001 0.08169668 -0.050065037 -0.19044846
000020 3a 88 c7 bd 3f 6d 05 bc f8 94 49 3e 0a ff a8 bd
       -0.0974278 -0.008143722 0.19685733 -0.0825177
000030 a6 59 10 3e 10 ae b2 bd fe 4b e9 3c 73 e7 f7 bc
       0.14096698 -0.08724606 0.028478619 -0.03026173
000040 6a 4a 92 bd f8 3e ca 3d d8 e6 1e 3d 54 b0 1e 3e
       -0.071430996 0.098752916 0.03879437 0.15496951
000050 f9 4c 44 be e7 d8 10 be c6 99 f9 bd e1 1f 73 be
       -0.19169988 -0.14145242 -0.12187533 -0.2374263
000060 d1 ac c8 bc ce 6f c0 bd 79 f4 e8 3b a5 4e 50 be
       -0.024496468 -0.09396325 0.0071092215 -0.203425
000070 27 a4 12 be af b6 4f 3c ca f1 55 3e c2 76 31 be
       -0.14320432 0.0126778325 0.20893016 -0.17330459
000080 66 93 e9 bd 35 0a 3e bd 8e bf 71 3e ed ac 07 3e
       -0.11405067 -0.046396453 0.23608229 0.1324956
000090 dd 5b 07 be 14 69 57 3e 73 8f bb 3d 03 4a a9 bd
       -0.13218637 0.21036178 0.0915822 -0.0826607
0000a0 77 e7 a7 bd 9b fc 2d be a2 b5 05 3e 99 b7 23 be
       -0.08198445 -0.16990893 0.13057569 -0.15988006
0000b0 0d e4 06 3e bd a4 14 3e 06 57 0e 3e be 43 2f 3e
       0.13172932 0.14515968 0.13900384 0.17115685
0000c0 f0 de 80 3d 25 76 41 3e b1 70 10 be a8 40 31 bb
       0.06292522 0.18892725 -0.14105488 -0.0027046595
0000d0 30 5c 2f be 6d 33 5a be 4e af 4c 3e 33 b4 06 3e
       -0.1712501 -0.2130868 0.19988748 0.13154678
0000e0 0b e7 1d be c5 52 5e 3e 32 39 4c 3e 8e 3b 3b 3e
       -0.15420167 0.21711262 0.19943693 0.18284437
0000f0 47 ca 3d 3d 2e d5 36 be cf 89 44 3e 6c 65 48 3e
       0.046335485 -0.17854759 0.19193195 0.1956994

encoder.layers.0.ffn.linear2.weight f4 [16, 64]
000000 61 9c e6 3c 43 05 1f 3e ad 0a 34 bd e6 cf 3f bc
       0.02815074 0.15529351 -0.043955494 -0.011707282
000010 c6 22 b0 bb 77 78 3a be af 7f ca 3d 06 e3 73 3d
       -0.005375239 -0.18210016 0.09887635 0.05954268
000020 d9 b9 89 be 83 a5 af bd d4 ea 44 be 2d f0 75 3e
       -0.26899603 -0.08576491 -0.19230205 0.24017401
000030 fb 82 75 3d d5 4a 83 be a0 6f b1 bd 71 ec 7e be
       0.059939366 -0.2564303 -0.08663869 -0.24894883
000040 d4 d0 ad ba 66 36 76 be 9e 57 1f bd 05 73 78 be
       -0.0013261088 -0.24044189 -0.038901918 -0.24262626
000050 5a 2b d1 3c c9 3a 04 3e 9b 64 17 3e 5f 14 39 bd
       0.025533367 0.1291305 0.14784472 -0.045185443
000060 54 86 67 3e 4b 24 32 3d 4c 50 9a 3e 5e f7 3c be
       0.22609836 0.043491643 0.30139387 -0.18453738
000070 5c bb 87 be af 7a d7 bd 9a 94 1a 3e 8c 7e 79 3e
       -0.2651013 -0.10521447 0.1509575 0.2436468
000080 14 7b 53 bd f9 d1 e9 bd 30 6c 45 be 9c f1 5e 3e
       -0.05163105 -0.11417002 -0.19279552 0.21771854
000090 48 9c 90 3e ea af 4b 3e b7 f1 bc 3c 0a 33 8a bc
       0.28244233 0.19891325 0.023064477 -0.01687004
0000a0 01 56 0c 3e b5 83 2a 3e 11 de a0 bd 3b 79 be 3d
       0.13704683 0.16651805 -0.07854856 0.093004666
0000b0 d8 fc db bd 1e 40 a9 3d bd 3f 67 be 46 4c 63 be
       -0.107415855 0.082641825 -0.22582908 -0.22197065
0000c0 37 b2 a0 3d d2 b7 0d 3e 92 ad 53 be bd 8e 73 be
       0.07846492 0.13839653 -0.2067168 -0.23784919
0000d0 ba 39 94 3c 62 be 9b 3e 69 6b 5b be ef 65 ab 3d
       0.018093932 0.30418688 -0.21427692 0.08369052
0000e0 cf 1f 58 3d 18 d5 ba bc 4f 85 20 3d d0 c2 f5 3d
       0.05276471 -0.02280669 0.039189633 0.12000048
0000f0 8a 65 83 be 45 de 94 bd fb 88 6e be 75 83 1b be
       -0.25663406 -0.07268957 -0.23294441 -0.15186866
000100 5e 9e 1c be 97 6f 82 3e fd 69 19 bc 27 52 ab bd
       -0.15294787 0.2547576 -0.0093636485 -0.08365279
000110 3c 9b a4 3d 8a bc 7b bd 73 91 75 3e fe f0 4d bd
       0.08037421 -0.0614591 0.23981266 -0.050278656
000120 f4 07 e3 bd 4b 03 3b 3e cc 88 5c 3e 7e 88 c9 3d
       -0.11085501 0.18262975 0.21536559 0.09840487
000130 c7 a6 69 3d ec d7 52 3d fd 62 f8 bc c1 4a 11 bc
       0.057043817 0.05147545 -0.030320639 -0.00886792
000140 5a 8b 83 bd 9d 43 97 3d e7 93 df bd fc ee 3d be
       -0.064230636 0.07385943 -0.10916882 -0.18548197
000150 45 0a 91 be 88 9e fd bd 44 25 2c bd 8e e3 23 bd
       -0.28328148 -0.12383753 -0.042027727 -0.040011935
000160 ff 2a 80 be 9d eb d6 3d 1d 5c 09 3e c6 65 90 be
       -0.25032803 0.104941584 0.13414045 -0.28202647
000170 8a e9 75 be 36 1c 51 be c5 de 7d bd 0a 5e 8f 3e
       -0.2401487 -0.20420918 -0.061980028 0.28001434
000180 d0 c6 fa bd a8 07 a2 3e 5b e1 3f be 15 5b 8d 3d
       -0.12244952 0.31646466 -0.1873831 0.06902138
000190 57 5f b1 3d 66 8f 66 be b0 5f 78 3e 53 da 47 3e
       0.08660763 -0.2251564 0.24255252 0.19516878
0001a0 77 db 84 bc 80 18 a3 39 e8 fb 0d 3e 36 27 29 be
       -0.01621793 0.00031108037 0.13865626 -0.16518864
0001b0 20 32 73 be 57 50 92 3e 9b 9d 25 3e c0 9c 11 3e
       -0.2374959 0.2857692 0.16173403 0.14219952
0001c0 16 8b 1e 3e db 1d 15 be 66 ef 2d 3e 57 61 9c 3e
       0.15482745 -0.1456217 0.16985855 0.30543014
0001d0 6a 59 e3 3d f3 66 82 be 7e 6d 34 be 80 08 e7 bb
       0.11101039 -0.2546917 -0.17619893 -0.007050574
0001e0 f5 4d 71 3d 07 03 fa 3d 0a e1 7e 3e cd 06 17 3e
       0.058912236 0.12207609 0.24890533 0.14748688
0001f0 58 be 89 bd 23 72 5c be 0c 33 2d 3e f0 38 36 3e
       -0.06725758 -0.21527915 0.16914004 0.17795157
000200 c4 58 ee bb 21 ff 3a 3e 32 3b df 3d 52 5f 70 be
       -0.0072737653 0.18261386 0.108999625 -0.23473862
000210 e1 a2 26 3e bf 27 8b be b6 45 cb 3d 97 cb 80 3e
       0.16273071 -0.2717876 0.09925406 0.25155327
000220 19 30 b7 3d 96 df fc 3b c3 27 99 3e 3f d4 17 be
       0.08944721 0.007717083 0.29913148 -0.14827059
000230 14 10 0b 3e 43 18 b9 3d d8 31 5d bd 4d 05 c0 3d
       0.13580352 0.09037831 -0.054002613 0.09376011
000240 f1 c4 e3 bc 8b e5 f9 bc 33 ef 98 3d b0 a7 56 be
       -0.02780387 -0.030504962 0.07467499 -0.20962405
000250 e7 3e 9a 3e 5f b6 3a be d5 57 0b be f7 a3 b4 3d
       0.30126116 -0.18233632 -0.13607724 0.08820336
000260 f0 86 6e bc eb a0 76 3e a2 bb 4f 3e 0f a0 a4 bd
       -0.014558539 0.24084823 0.2028642 -0.08038341
000270 1c f6 92 3d ce 4d 08 be ce de 8f bd ed e3 87 3e
       0.07175848 -0.1331093 -0.070249185 0.2654108
000280 65 7d e1 3d 64 b8 f2 3d 13 24 69 3e 7a 05 8b 3e
       0.11010245 0.11851576 0.22767667 0.27152616
000290 45 bc 26 3d 2f fb 3e 3e a6 75 6a 3e b5 43 26 bd
       0.04070689 0.18650506 0.22896442 -0.040591914
0002a0 cf f3 4e 3e 49 8e 4d bc 7f e6 98 3e 2f e3 ed 3d
       0.20210193 -0.01254613 0.29863355 0.116155975
0002b0 cc 44 31 3e bc 45 c9 bd 82 b7 97 3e ea 3c e7 bd
       0.173114 -0.09827754 0.29632193 -0.11290915
0002c0 e8 70 6b be 63 e1 50 be 28 23 36 be 21 98 72 3e
       -0.22992289 -0.20398478 -0.17786849 0.23690845
0002d0 8a ba 06 be cc 89 96 be 39 18 57 3e f7 93 05 be
       -0.13157097 -0.29402006 0.21005334 -0.13044725
0002e0 67 9c b5 bd f1 6d 7f be a3 52 95 3e b9 2c 70 bd
       -0.08867722 -0.24944283 0.2916461 -0.0586364
0002f0 67 27 3f 3e 90 e9 1f bd b6 62 b9 3c 5e e3 00 3e
       0.18667375 -0.039041102 0.022630077 0.12586734
000300 72 07 83 3e 2a 75 94 bd aa d1 2e 3d 4c 30 31 be
       0.25591618 -0.0724891 0.04268042 -0.1730358
000310 b8 34 19 3e 21 ef e3 3c 92 35 61 bb f1 0f 68 3e
       0.14961517 0.027823986 -0.0034364206 0.22662331
000320 94 ff 23 be b3 0d 32 bd 4c c2 67 be ff 28 9b be
       -0.16015464 -0.043470096 -0.22632712 -0.30304715
000330 67 e0 d7 3d f4 93 9a 3e 7f 9b 79 3e 70 60 3d bd
       0.10540848 0.30191004 0.24375723 -0.046234548
000340 c2 79 15 3d 38 5a 5f 3e 9c 9d 84 3c 54 40 a9 3c
       0.03649307 0.2181176 0.016188435 0.020660557
000350 2f 6f 0c bd a3 92 5c be 73 2e b9 bd 3a 6c 83 3d
       -0.03428572 -0.21540312 -0.090420626 0.06417127
000360 15 d7 0c 3e d8 53 f8 3d a8 07 95 3e 7b 0f 6d be
       0.13753922 0.12125367 0.29107404 -0.23150437
000370 32 82 c9 bd 92 4b 82 be f5 c5 a4 3d a6 e8 20 3d
       -0.09839286 -0.2544828 0.0804557 0.03928437
000380 78 40 bb bc cf 1f 1e 3e a4 15 b1 3d ca 27 38 3e
       -0.02285789 0.15441822 0.08646706 0.17983928
000390 93 7d cc 3d 7c 39 f2 3d 7d cb 7a be 5f 41 9b 3e
       0.09984889 0.118273705 -0.24491687 0.30323312
0003a0 34 0a 15 3e 7f a8 3f be 0b 32 94 3e ac 55 c2 3c
       0.14554673 -0.1871662 0.2894443 0.023722492
0003b0 ca 21 d9 bd 09 27 8f 3e b4 c6 46 3e 01 de af bd
       -0.10602148 0.2795947 0.19411737 -0.08587266
0003c0 77 d9 0a be 84 8e 09 bd f0 96 b5 3d c4 2c 64 3d
       -0.13559519 -0.03358318 0.0886668 0.055706754
0003d0 af 79 1e be ef 6a e8 bc 0e ca ae 3c a9 f2 88 be
       -0.15476106 -0.028371302 0.021336582 -0.26747635
0003e0 2a c8 7b 3e a1 fc 81 be 9b 96 50 3d f8 bd 4f 3d
       0.24588075 -0.25388053 0.05092488 0.050718278
0003f0 bf d1 b9 bd 20 9a 11 be 9a 38 7e 3e fd d7 87 3e
       -0.09073209 -0.1421895 0.2482628 0.26531973

encoder.layers.0.ffn.linear2.bias f4 [16]
000000 0e 4f 38 bd 40 9f a2 3d 71 d7 bd 3d 6d ed 0d 3d
       -0.044997267 0.07940531 0.09269608 0.034650255
000010 96 57 e7 bc f2 5d fb 39 92 4e d6 3d ba 4f df 3d
       -0.028240006 0.00047944445 0.10464205 0.109038785
000020 ba 57 24 bd e9 23 36 3d 25 5c b0 3d 93 61 27 bc
       -0.040122725 0.04446784 0.08611325 -0.010216135
000030 2d 82 10 3d a4 78 93 bd 31 48 9f 3d 55 d2 fa bd
       0.035280395 -0.07200745 0.07777441 -0.12247149

encoder.layers.0.norm2.gamma f4 [16]
000000 1d fa 74 3f 4d 7a 7f 3f 6e 6f 7f 3f 60 ae 7d 3f
       0.9569414 0.9979599 0.99779403 0.990942
000010 5d 7b 7e 3f cf 70 7f 3f 8e d4 80 3f 76 00 80 3f
       0.9940699 0.9978151 1.0064867 1.0000141
000020 af 64 82 3f b1 c5 7d 3f 0e 41 78 3f 5f eb 7b 3f
       1.0186976 0.9912978 0.96974266 0.9840602
000030 eb b9 7a 3f 9a 79 7e 3f c8 c7 77 3f 2d a4 80 3f
       0.9793994 0.994043 0.96789217 1.0050102

encoder.layers.0.norm2.beta f4 [16]
000000 43 49 96 b9 a1 64 0f 3b de 13 54 3b 08 e5 42 ba
       -0.00028664814 0.0021880048 0.0032360475 -0.0007434641
000010 55 d6 b7 bb 97 cd a3 3b e1 8f cd b9 fc 60 ed 3b
       -0.005610267 0.0049988735 -0.00039207845 0.0072442275
000020 70 19 29 39 c1 65 47 3b a2 8a 8e 3c ed e6 46 3c
       0.00016126572 0.003042564 0.01740009 0.012140018
000030 9a 4f 4e bb 3b f7 9d ba 88 84 0f 39 ac 69 39 3a
       -0.0031480552 -0.001205183 0.00013686914 0.0007072936
