Trans_Prediction/model_saved/ratioMergedPrs/TM_ratioMergedPrs_delay_size_7_delay_8.pth (torch, 385400 bytes, 337 tensors)

encoder.layers.0.attention.w_q.weight f4 [16, 16]
-0.05885872 -0.5179883 -0.4525827 -0.46021417 0.57025176 -0.57294536 0.18945314 -0.28225973
0.579305 -0.06882083 0.3654536 0.49088714 0.47256443 0.58133614 0.45386666 -0.024953736
0.12074446 0.5571256 0.02013671 0.318074 -0.5331783 -0.4731972 -0.41308656 0.19386005
0.19581524 0.2191499 0.24622081 -0.35470474 -0.31520298 0.2973982 0.17954217 -0.57012415
0.13241716 0.08370544 0.14034739 -0.29438135 0.43453145 0.37503707 -0.14865215 0.38474053
-0.43408546 0.108497955 0.19246686 -0.017678674 -0.33360934 0.1488201 0.13460727 0.38079676
0.51361555 0.05431803 -0.4493659 0.23032667 0.54778045 -0.15330921 0.4652249 0.6110619
-0.010687575 0.41811723 -0.45361266 -0.10327023 -0.04297596 -0.37789991 0.47305852 0.19635779
-0.53064066 0.5733454 0.49631932 -0.3799694 0.20483324 -0.061435256 -0.3282502 -0.26024148
-0.006913292 -0.31503296 -0.12414526 0.09141762 -0.43143505 0.11859196 0.2066119 -0.5974203
0.33665177 -0.2095346 -0.41667014 -0.5650248 -0.03082466 -0.10591266 0.10706556 0.39226556
-0.45297918 0.34895086 0.2694734 -0.02977426 0.1339616 0.37735656 -0.55058277 0.2104551
0.37293568 -0.10886262 0.59021395 0.008958292 -0.28218892 0.16824205 -0.3726643 -0.33252516
0.5317605 -0.062452376 0.4588385 0.2590913 0.52869725 -0.54705626 -0.29998893 0.4985332
0.16293079 0.25464 0.58975625 -0.29286388 -0.14171623 -0.61347127 -0.503952 0.53790534
-0.6124225 0.2210542 0.11823847 -0.033927966 0.05525668 0.49382162 0.20310043 0.5327345
-0.31589416 0.357131 0.3439421 0.118584186 -0.44701052 -0.54924256 0.43641475 -0.07031555
-0.4485044 0.36156514 -0.33378342 -0.44245735 -0.49603322 0.112398334 -0.34789485 0.3380725
0.50894254 0.31220886 -0.20026506 0.49407402 -0.47279006 -0.4139263 -0.57930213 0.30988106
0.56227696 -0.11024193 0.34206957 -0.27424303 -0.08455367 0.2017919 -0.21422745 -0.31268674
0.27266958 0.29606417 0.32400298 0.27723444 0.5773497 -0.35703337 -0.016689338 -0.51571196
0.016815271 -0.47368506 0.405252 -0.38756517 -0.52343863 0.34154493 -0.20683369 0.4491817
-0.41217896 0.0065364265 -0.57218736 0.37393886 0.47352248 -0.18467973 -0.50355 -0.4070067
-0.36159658 0.0551225 0.084474266 -0.5779393 -0.18520339 0.44580397 -0.22481391 0.52284956
-0.537998 -0.30635437 -0.16139878 -0.34272656 0.38320908 0.40881288 -0.10241055 0.59927356
0.3311391 0.037959926 0.32671177 0.38046885 -0.06205176 0.6074538 0.17922378 0.4950583
-0.5670919 -0.14976 -0.57658887 0.26822424 0.11256249 -0.36827758 0.3263404 -0.28510725
-0.45374173 0.11073709 0.44522062 -0.23465666 -0.5149615 -0.29139912 0.501333 0.35145307
0.5916555 -0.3439661 -0.27612174 0.37039685 -0.1536606 0.17044257 0.3783077 0.19089955
0.16888653 0.2582374 0.24975787 -0.39231935 -0.38960847 -0.6038765 -0.29099432 0.41080126
-0.12982549 0.50518197 -0.5853441 0.10908891 -0.34775525 -0.22256152 -0.37112916 -0.1390101
-0.011538058 -0.2893461 -0.07316701 0.39545548 0.43997112 -0.59092534 0.033976395 -0.1612277
00000000: d715 71bd e29a 04bf ebb8 e7be 31a1 ebbe
00000010: 05fc 113f 8cac 12bf 0100 423e 5984 90be
00000020: 554d 143f eff1 8cbd bc1c bb3e 8f55 fb3e
00000030: f7f3 f13e 72d2 143f 3661 e83e c76b ccbc
00000040: df48 f73d c99f 0e3f bef5 a43c 98da a23e
00000050: 607e 08bf e746 f2be 1580 d3be 4083 463e
00000060: ca83 483e d568 603e 4f21 7c3e dc9b b5be
00000070: 4962 a1be 9444 983e e7d9 373e a8f3 11bf
00000080: 5d98 073e c26d ab3d 3ab7 0f3e 27b9 96be
00000090: e87a de3e dc04 c03e 4538 18be b6fc c43e
000000a0: 7340 debe 2d34 de3d 0816 453e ded2 90bc
000000b0: d8ce aabe 4c64 183e 7dd6 093e cbf7 c23e
000000c0: 4f7c 033f 957c 5e3d 4a13 e6be c1da 6b3e
000000d0: 573b 0c3f 17fd 1cbe f531 ee3e 8d6e 1c3f
000000e0: f01a 2fbc 7613 d63e eb3f e8be 587f d3bd
000000f0: 8f07 30bd 197c c1be ba34 f23e 0412 493e
00000100: 11d8 07bf c4c6 123f 911d fe3e 598b c2be
00000110: cebf 513e 89a3 7bbd 6910 a8be 5f3e 85be
00000120: e688 e2bb 004c a1be df3f febd 2939 bb3d
00000130: 0ee5 dcbe 57e0 f23d 1292 533e 89f0 18bf
00000140: 9f5d ac3e 3d90 56be ca55 d5be 77a5 10bf
00000150: ff83 fcbc bde8 d8bd 3045 db3d 08d7 c83e
00000160: e3ec e7be b0a9 b23e 6bf8 893e 26e9 f3bc
00000170: 3b2d 093e e134 c13e fef2 0cbf 8b81 573e
00000180: 6df1 be3e 5ef3 debd 4318 173f cdc5 123c
00000190: 117b 90be a547 2c3e dbcd bebe bd40 aabe
000001a0: 7521 083f 10ce 7fbd e1ec ea3e 9da7 843e
000001b0: b458 073f e10b 0cbf 2698 99be be3f ff3e
000001c0: 54d7 263e 2d60 823e 44fa 163f 41f2 95be
000001d0: 0f1e 11be 740c 1dbf 0003 01bf 2ab4 093f
000001e0: b9c7 1cbf 085c 623e 0327 f23d 0df8 0abd
000001f0: d454 623d 30d6 fc3e 8ff9 4f3e 4a61 083f
00000200: e1bc a1be e0d9 b63e 2e19 b03e 44dc f23d
00000210: 90de e4be 299b 0cbf c171 df3e 9901 90bd
00000220: 5ea2 e5be 111f b93e a9e5 aabe c589 e2be
00000230: 11f8 fdbe 1931 e63d 461f b2be d717 ad3e
00000240: 0f4a 023f d7d9 9f3e 4912 4dbe 45f7 fc3e
00000250: 8a11 f2be 26ee d3be 254d 14bf bba8 9e3e
00000260: 62f1 0f3f 85c6 e1bd be23 af3e 9569 8cbe
00000270: 792a adbd 89a2 4e3e 715e 5bbe 7a18 a0be
00000280: 599b 8b3e b995 973e b8e3 a53e acf1 8d3e
00000290: 31cd 133f 14cd b6be 14b8 88bc b305 04bf
000002a0: 2ec0 893c d986 f2be 317d cf3e f16e c6be
000002b0: 1300 06bf fade ae3e 36cc 53be 25fb e53e
000002c0: 1f09 d3be 852f d63b df7a 12bf ea74 bf3e
000002d0: 8a71 f23e af1c 3dbe a7e8 00bf 2f63 d0be
000002e0: 3023 b9be 21c8 613d d800 ad3d d4f3 13bf
000002f0: f5a5 3dbe 6b40 e43e 9e35 66be 78d9 053f
00000300: 3dba 09bf 7bda 9cbe b945 25be db79 afbe
00000310: fb33 c43e ec4f d13e 9fbc d1bd fe69 193f
00000320: 108b a93e de7b 1b3d c446 a73e d0cc c23e
00000330: fc29 7ebd 1882 1b3f 7086 373e 4878 fd3e
00000340: ef2c 11bf af5a 19be 549b 13bf b054 893e
00000350: 2a87 e63d e18e bcbe 1716 a73e 94f9 91be
00000360: d650 e8be 21ca e23d f5f3 e33e d649 70be
00000370: 84d4 03bf 4432 95be 5c57 003f a8f1 b33e
00000380: bc76 173f 531c b0be d45f 8dbe a8a4 bd3e
00000390: 3459 1dbe 7f88 2e3e 8cb1 c13e 2c7b 433e
000003a0: 97f0 2c3e b137 843e 87c0 7f3e 15de c8be
000003b0: c37a c7be a697 1abf 35fd 94be 8b54 d23e
000003c0: f9f0 04be 9b53 013f 1cd9 15bf 026a df3d
000003d0: fa0c b2be 2be7 63be a404 bebe aa58 0ebe
000003e0: 1f0a 3dbc 2c25 94be 96d8 95bd 2479 ca3e
000003f0: e543 e13e e246 17bf d52a 0b3d e018 25be

encoder.layers.0.attention.w_q.bias f4 [16]
0.009793084 0.082054295 -0.15786466 -0.18079287 -0.16460943 0.23966734 -0.073139496 0.12859339
-0.120731905 0.09530927 -0.035509612 0.044075273 0.037735905 0.17461681 0.24460497 0.02230261
00000000: 2c73 203c 150c a83d 46a7 21be c421 39be
00000010: 608f 28be 5b6b 753e 29ca 95bd fcad 033e
00000020: 4a42 f7bd 8231 c33d 8772 11bd 4688 343d
00000030: f790 1a3d c0ce 323e ba79 7a3e f7b3 b63c

encoder.layers.0.attention.w_k.weight f4 [16, 16]
-0.00079749286 0.44862247 0.07338534 -0.43092296 0.24148467 0.1255514 -0.009388673 0.04053329
0.1330739 0.107479416 0.3737302 0.3146817 -0.21184692 -0.16172059 -0.284648 -0.05453568
0.18604662 0.21613659 0.5793133 -0.24456163 0.18277653 0.25347307 0.38685924 -0.54798967
0.5775523 -0.40482798 -0.06938248 0.35518843 0.35939673 0.29669204 0.1739134 -0.22160535
0.2611016 -0.4325925 0.3490005 0.4829145 -0.12789294 0.12060106 0.1990175 0.5682487
0.13537936 0.090456516 0.038239446 0.10497831 -0.25021806 -0.20153861 -0.06749728 -0.3270218
0.07250899 -0.3617342 -0.28605366 0.46693087 0.0901327 -0.36653468 0.5812484 0.04282578
0.00046054888 -0.038318258 0.026761683 0.0487022 0.17317933 0.3808015 0.3039187 0.5975321
-0.18669151 -0.56435096 -0.369048 0.32919064 0.31857857 -0.20569094 0.22195981 -0.07002088
0.4981574 -0.0597424 -0.4623872 -0.5918011 -0.116871834 0.13347055 0.33414915 -0.4525338
-0.02649275 0.17892344 0.30717424 -0.19038779 0.5799171 0.40543208 0.5533354 -0.07622934
-0.5966157 -0.57515025 -0.42924085 -0.574546 0.3365076 0.30123633 -0.034259632 0.5129631
-0.1793885 0.50563717 0.5138179 -0.32634294 0.40369853 -0.5877159 0.24786957 0.55002487
0.5080214 0.061837308 0.40802366 0.37639198 -0.42044058 0.110318415 0.29175913 0.15412988
0.20687789 -0.4366939 0.027664559 0.22455645 0.1354425 -0.270019 0.3980699 -0.3506316
0.014695311 -0.2811132 0.22270812 0.5739061 0.44479668 -0.3570156 -0.27695543 -0.57642514
0.1072891 0.37602153 0.036982916 -0.40935177 0.13584812 0.53048986 -0.03495987 -0.58742267
-0.15782644 0.40945914 -0.46425968 0.11535293 -0.5834198 -0.38253316 0.43200862 -0.28941363
-0.56130046 0.4963013 -0.28237823 0.20211934 -0.21146536 -0.57959163 -0.2664214 0.22240818
-0.5428041 -0.36639792 0.124741286 -0.46178275 0.31938756 -0.55337316 -0.5661461 -0.13451873
-0.2807293 -0.40881687 -0.07680739 0.22412862 0.09927837 0.02740486 0.495857 0.19842969
0.30749163 -0.28748226 0.47022557 0.30382252 -0.445058 -0.060119513 -0.057715416 0.12662305
0.18747142 0.42838785 -0.179854 -0.49712583 0.3339134 -0.46947843 0.016429788 0.18761894
-0.2593818 0.0283969 0.48340756 0.413499 0.26570874 -0.27096754 0.37410063 -0.18916489
-0.025865998 -0.23663983 -0.24564835 -0.24947876 -0.29445374 -0.09232218 -0.5216385 -0.19083947
0.02284207 -0.28178254 0.5565406 -0.24485973 -0.555585 -0.4464744 -0.050882656 -0.16791229
-0.27762744 0.59917474 0.5228227 -0.38243806 -0.3707931 0.105214044 -0.21806598 -0.26354855
0.12758075 -0.21465704 0.40521577 0.07726533 -0.3241263 -0.27543107 -0.07181642 0.5156144
-0.09572313 0.27514216 0.40025312 -0.55974615 -0.2693828 -0.48922163 0.27152678 0.46181953
0.55227584 0.54340583 0.25032842 -0.09071668 -0.28953052 0.33850583 0.5785017 0.39005303
-0.19665225 -0.38361916 -0.12106224 -0.068064004 0.2401005 0.34711245 -0.5631708 0.06630112
-0.37453356 0.5159681 -0.23328212 -0.14140412 -0.60451275 0.306211 -0.19955163 0.321937
00000000: d70e 51ba d8b1 e53e 0e4b 963d efa1 dcbe
00000010: c247 773e 8c90 003e f3d2 19bc 3c06 263d
00000020: 8644 083e 2b1e dc3d 9159 bf3e f61d a13e
00000030: 66ee 58be 159a 25be 62bd 91be ce60 5fbd
00000040: 0183 3e3e e952 5d3e e04d 143f 5d6e 7abe
00000050: c529 3b3e 39c7 813e 6a12 c63e 0d49 0cbf
00000060: 78da 133f 9d45 cfbe 6718 8ebd 42db b53e
00000070: d902 b83e 05e8 973e 5b16 323e 83ec 62be
00000080: 1caf 853e c47c ddbe 32b0 b23e 9240 f73e
00000090: 5ef6 02be b0fd f63d 3ecb 4b3e bf78 113f
000000a0: e3a0 0a3e 4441 b93d f7a0 1c3d defe d63d
000000b0: 951c 80be 2360 4ebe 043c 8abd 676f a7be
000000c0: 987f 943d 3a35 b9be a075 92be 9011 ef3e
000000d0: 7e97 b83d 6faa bbbe b2cc 143f 166a 2f3d
000000e0: d375 f139 9bf3 1cbd 513b db3c f57b 473d
000000f0: ec55 313e 6af8 c23e 3b9b 9b3e ddf7 183f
00000100: 0f2c 3fbe 4e79 10bf dcf3 bcbe ad8b a83e
00000110: bb1c a33e a5a0 52be 6f49 633e 1b67 8fbd
00000120: 7d0e ff3e 72b4 74bd 04be ecbe 4780 17bf
00000130: 805a efbd 81ac 083e 9915 ab3e 83b2 e7be
00000140: 5307 d9bc b537 373e f145 9d3e 04f5 42be
00000150: 7275 143f cb94 cf3e 64a7 0d3f 211e 9cbd
00000160: cebb 18bf 0c3d 13bf 75c5 dbbe 7215 13bf
00000170: b94a ac3e a63b 9a3e d453 0cbd 8d51 033f
00000180: 9eb1 37be 7071 013f 9289 033f 6c16 a7be
00000190: 93b1 ce3e 8d74 16bf 85d1 7d3e 6ece 0c3f
000001a0: b10d 023f 1e49 7d3d 7ae8 d03e 73b6 c03e
000001b0: fd43 d7be 9fee e13d 7461 953e 39d4 1d3e
000001c0: ccd7 533e 5896 dfbe c9a0 e23c 20f2 653e
000001d0: 70b1 0a3e ee3f 8abe d1cf cb3e fc85 b3be
000001e0: 9ac4 703c 12ee 8fbe 990d 643e 83eb 123f
000001f0: 64bc e33e c0ca b6be 1acd 8dbe 9990 13bf
00000200: 63ba db3d e585 c03e 667b 173d 8e96 d1be
00000210: c51b 0b3e 2fce 073f 1532 0fbd 5561 16bf
00000220: 419d 21be a1a4 d13e 72b3 edbe 283e ec3d
00000230: 005b 15bf 63db c3be 3c30 dd3e 062e 94be
00000240: 63b1 0fbf 341b fe3e e193 90be 5ff8 4e3e
00000250: 608a 58be 1e60 14bf 6368 88be f8be 633e
00000260: 36f5 0abf 8298 bbbe 5c78 ff3d ca6e ecbe
00000270: c486 a33e dda9 0dbf f3ee 10bf 47bf 09be
00000280: c0bb 8fbe 7250 d1be 314d 9dbd f981 653e
00000290: 7552 cb3d 2880 e03c f8e0 fd3e 2731 4b3e
000002a0: 8b6f 9d3e e030 93be 68c1 f03e a08e 9b3e
000002b0: a4de e3be e13f 76bd 0067 6cbd 79a9 013e
000002c0: 82f8 3f3e a755 db3e a62b 38be 4787 febe
000002d0: b2f6 aa3e 7a5f f0be c397 863c 2e1f 403e
000002e0: b1cd 84be 9ea0 e83c 3281 f73e 24b6 d33e
000002f0: fa0a 883e 42bc 8abe 1e8a bf3e 71b4 41be
00000300: eee4 d3bc b651 72be 3e8b 7bbe 5c77 7fbe
00000310: a4c2 96be 6913 bdbd 1a8a 05bf 6c6b 43be
00000320: 4b1f bb3c cd45 90be 7279 0e3f 82bc 7abe
00000330: d23a 0ebf 4b98 e4be 556a 50bd 33f1 2bbe
00000340: 2f25 8ebe 8463 193f b5d7 053f ecce c3be
00000350: 98d8 bdbe 767a d73d b04c 5fbe d6ef 86be
00000360: 87a4 023e 0ecf 5bbe 7178 cf3e 493d 9e3d
00000370: e2f3 a5be 4d05 8dbe 7d14 93bd 4eff 033f
00000380: 7d0a c4bd 6fdf 8c3e faed cc3e 864b 0fbf
00000390: 8bec 89be 427b fabe 8f05 8b3e 9c73 ec3e
000003a0: f361 0d3f a51c 0b3f 0c2b 803e abc9 b9bd
000003b0: 583d 94be a350 ad3e b018 143f 08b5 c73e
000003c0: 355f 49be bb69 c4be 7bef f7bd 2465 8bbd
000003d0: e8dc 753e b9b8 b13e f62b 10bf e2c8 873d
000003e0: ddc2 bfbe 7c16 043f 82e1 6ebe 3ecc 10be
000003f0: 59c1 1abf b0c7 9c3e 4357 4cbe edd4 a43e

encoder.layers.0.attention.w_k.bias f4 [16]
2.5018076e-07 -3.0670594e-07 1.4357574e-06 1.1536565e-06 -3.18568e-07 1.8036216e-07 8.336451e-07 6.195191e-07
1.2002673e-07 -7.203864e-07 2.925409e-07 -5.428647e-07 -5.8983073e-07 -2.2087768e-07 5.117706e-07 -4.74721e-07
00000000: 9550 8634 58a9 a4b4 40b4 c035 56d7 9a35
00000010: a707 abb4 93a9 4134 a8c7 5f35 074d 2635
00000020: b2e0 0034 9460 41b5 840e 9d34 61b9 11b5
00000030: dc54 1eb5 652a 6db4 9c60 0935 28dd feb4

encoder.layers.0.attention.w_v.weight f4 [16, 16]
-0.024296673 0.5162518 0.43712917 0.3796084 0.19921303 -0.53320664 0.45308003 0.08675731
-0.20025913 -0.26659012 -0.3591003 0.21728209 -0.41171464 0.027156316 0.55937535 0.15956105
0.30530372 -0.20027222 0.34623954 -0.5936313 -0.11991535 0.24354479 0.36584926 0.57852
0.39937398 0.06250999 0.040902834 -0.35998198 0.14067905 0.30253777 -0.595272 -0.28160092
0.07428081 0.48395577 -0.3027669 -0.59204906 0.034126095 -0.31993657 -0.4941468 0.23812883
-0.011089387 0.33179763 -0.5317751 -0.32008803 -0.5836553 0.46687213 0.10406783 0.5509972
-0.4303739 -0.4136989 0.09365993 0.15064317 0.53398204 0.2247292 0.03114628 0.52184033
-0.11021135 0.16902319 0.14133827 0.032618333 -0.51673573 0.46786258 -0.33530295 0.5201718
-0.56119245 0.15037794 -0.13087268 -0.53443503 -0.410498 -0.5851507 -0.27055424 0.20385818
-0.48418564 0.47729513 -0.2521811 -0.5330277 -0.3267079 0.003621851 -0.38333014 0.57817304
-0.44444975 -0.068512104 0.014751452 -0.14188518 -0.08113215 -0.46567374 0.5277012 0.28786066
-0.22371994 -0.04258978 0.45028663 -0.14718612 -0.5508728 -0.24809209 -0.56819826 -0.44235924
0.09682691 -0.33569357 -0.42922187 -0.07756248 -0.38337088 -0.066174425 0.41557285 -0.54868454
-0.3865726 -0.45351383 0.19142741 0.09750113 -0.04464365 0.020067915 -0.40283582 0.08324256
-0.35770166 0.09713611 0.47180748 0.122530274 -0.240819 0.2759216 -0.3716599 -0.22285552
0.16534235 0.13635963 0.29096028 0.49789643 -0.010752738 -0.5417086 0.40470147 -0.44824615
-0.37484655 -0.20095326 -0.51699644 0.23706754 0.5235626 -0.4323772 -0.5171621 0.09198795
0.47496927 0.57915175 0.19224459 -0.04233064 0.43039814 -0.17860913 0.15776743 0.17244661
0.17902508 0.5603097 -0.051690694 0.56627923 0.07001947 -0.54875845 0.17797329 0.20686136
0.2797178 0.3601617 0.0022169317 0.34950832 0.49367404 -0.22076452 -0.021570757 0.40524638
0.5039663 -0.19850047 -0.6024875 -0.5528289 -0.06114557 0.3513201 0.47038686 0.41779512
-0.53862077 0.3492952 0.27251267 0.15731299 -0.60990614 0.48866573 0.010038038 0.38535866
0.52564144 -0.46098712 -0.38551852 0.2169896 0.32753912 -0.06963696 -0.43572566 -0.20303947
0.57557315 -0.124448925 -0.060774945 0.54581136 0.19309738 0.40552464 0.38858414 0.18565026
0.062962346 -0.49147934 0.19079255 0.41830492 -0.2985168 -0.2735213 0.5336103 -0.25950608
-0.10591823 0.4853469 -0.24958977 -0.054985087 0.009393842 -0.45258984 -0.15971924 0.3776792
0.3995818 -0.05463989 -0.35927424 0.23269911 0.07934166 0.07394379 -0.35584483 0.05244717
0.27539018 0.3548238 -0.03068211 0.3157753 -0.032309167 -0.6003329 0.07741665 0.5617793
-0.46485904 0.07073493 -0.40045756 -0.2901762 -0.052801616 -0.4085594 0.53433615 -0.03858
-0.46706688 0.62219924 -0.5622592 0.061904117 0.23626816 0.0018255839 -0.51540774 0.5748085
0.13809156 -0.06363818 0.3040873 0.12754434 0.32277417 -0.08292205 0.035607744 0.44866446
0.37413254 -0.37675685 0.16209438 -0.4139148 -0.098456174 -0.5745478 -0.45631683 -0.5937022
00000000: d109 c7bc 1429 043f 65cf df3e 085c c23e
00000010: 80fe 4b3e 3b80 08bf 1bfa e73e d1ad b13d
00000020: bb10 4dbe 807e 88be ffdb b7be 327f 5e3e
00000030: 43cc d2be ec76 de3c 3933 0f3f f963 233e
00000040: c550 9c3e 2914 4dbe 4f46 b13e 39f8 17bf
00000050: 2e96 f5bd ce63 793e 9850 bb3e e319 143f
00000060: bf7a cc3e 3d05 803d bb89 273d 8f4f b8be
00000070: 2b0e 103e 3be6 9a3e bf63 18bf ff2d 90be
00000080: 8a20 983d 0dc9 f73e 4304 9bbe 8790 17bf
00000090: cec7 0b3d bace a3be cf00 fdbe 0bd8 733e
000000a0: 43b0 35bc 61e1 a93e 6a22 08bf 94e2 a3be
000000b0: 6f6a 15bf dd09 ef3e 8421 d53d 270e 0d3f
000000c0: f859 dcbe 58d0 d3be c7d0 bf3d 3442 1a3e
000000d0: 0cb3 083f 691f 663e 7c26 ff3c 5497 053f
000000e0: 7db6 e1bd 6a14 2d3e fbba 103e cd9a 053d
000000f0: cb48 04bf af8b ef3e d4ac abbe fb29 053f
00000100: 4faa 0fbf adfc 193e 7d03 06be bcd0 08bf
00000110: cb2c d2be 70cc 15bf 1686 8abe 33c0 503e
00000120: 2ee7 f7be 0760 f43e e21d 81be 8174 08bf
00000130: 4246 a7be 945c 6d3b d943 c4be 2603 143f
00000140: eb8e e3be 1350 8cbd 13b0 713c 594a 11be
00000150: 9d28 a6bd ca6c eebe 6d17 073f 7962 933e
00000160: d716 65be 9f72 2ebd f88b e63e f5b7 16be
00000170: 0006 0dbf da0b 7ebe 7175 11bf e97c e2be
00000180: 304d c63d 07e0 abbe f8c2 dbbe 14d9 9ebd
00000190: 3049 c4be 7586 87bd f7c5 d43e 9776 0cbf
000001a0: d8ec c5be f732 e8be 8c05 443e acae c73d
000001b0: 43dc 36bd 7865 a43c 7f40 cebe 137b aa3d
000001c0: ac24 b7be 4cef c63d c090 f13e 27f1 fa3d
000001d0: 4299 76be 9945 8d3e 354a bebe 3d34 64be
000001e0: 814f 293e dca1 0b3e bff8 943e 48ec fe3e
000001f0: 412c 30bc 6aad 0abf 0835 cf3e 8580 e5be
00000200: e3eb bfbe b1c6 4dbe e159 04bf d5c1 723e
00000210: 3308 063f 8b60 ddbe bc64 04bf 2e64 bc3d
00000220: 2c2f f33e 4a43 143f c4db 443e e562 2dbd
00000230: 255d dc3e 50e5 36be c98d 213e d895 303e
00000240: 5a52 373e 7570 0f3f 9fb9 53bd adf7 103f
00000250: 5e66 8f3d 6f7b 0cbf a13e 363e 77d3 533e
00000260: 2c37 8f3e 1d67 b83e f149 113b c1f2 b23e
00000270: d8c2 fc3e 1810 62be 28b5 b0bc 747c cf3e
00000280: ef03 013f b543 4bbe 9f3c 1abf 3286 0dbf
00000290: c773 7abd 3ae0 b33e 8cd6 f03e 3ee9 d53e
000002a0: 0de3 09bf d2d6 b23e c886 8b3e a816 213e
000002b0: cf22 1cbf 6532 fa3e 9576 243c bb4d c53e
000002c0: 7090 063f 8106 ecbe af62 c5be 8632 5e3e
000002d0: 35b3 a73e d39d 8ebd 6f17 dfbe 94e9 4fbe
000002e0: c358 133f 14df febd 26ef 78bd 4bba 0b3f
000002f0: 52bb 453e eda0 cf3e 80f4 c63e 1a1b 3e3e
00000300: 67f2 803d 2ea3 fbbe 1f5f 433e 102c d63e
00000310: 32d7 98be fc0a 8cbe af9a 083f fbdd 84be
00000320: a8eb d8bd 647f f83e 7694 7fbe 0b38 61bd
00000330: a1e8 193c dbb9 e7be 718d 23be 2b5f c13e
00000340: fc95 cc3e 14ce 5fbd cbf2 b7be ad48 6e3e
00000350: e17d a23d d76f 973d 4b31 b6be d8d2 563d
00000360: f1ff 8c3e 77ab b53e 0c59 fbbc 4dad a13e
00000370: 9e56 04bd 6baf 19bf 9f8c 9e3d c5d0 0f3f
00000380: 0102 eebe 7add 903d c608 cdbe fa91 94be
00000390: 8246 58bd b32e d1be 41ca 083f 1006 1ebd
000003a0: 6423 efbe 7348 1f3f 38f0 0fbf 2c8f 7d3d
000003b0: 48f0 713e 6e48 ef3a c3f1 03bf a626 133f
000003c0: e067 0d3e bc54 82bd 55b1 9b3e fc9a 023e
000003d0: a842 a53e 09d3 a9bd 6dd9 113d 59b7 e53e
000003e0: 4d8e bf3e 46e6 c0be 12fc 253e a4ec d3be
000003f0: 64a3 c9bd 9115 13bf 5ca2 e9be defc 17bf

encoder.layers.0.attention.w_v.bias f4 [16]
0.08821386 0.00047084325 0.06656773 -0.07497249 0.123593464 0.074438654 0.073711626 -0.062760055
-0.084143855 0.05407697 -0.05562202 0.067886345 -0.11458309 0.06641201 0.04755153 0.061723903
00000000: 78a9 b43d 83db f639 a954 883d 2d8b 99bd
00000010: 921e fd3d 4b73 983d 1ff6 963d 5888 80bd
00000020: 9d53 acbd d07f 5d3d ead3 63bd ff07 8b3d
00000030: 8aaa eabd 0503 883d 65c5 423d 34d2 7c3d

encoder.layers.0.attention.w_concat.weight f4 [16, 16]
-0.27715936 -0.5845778 0.37191576 0.4310283 -0.18717813 -0.010034437 -0.1834274 -0.24188277
0.24750344 0.5396367 0.4712568 0.3701111 0.43155316 -0.008920207 0.22972839 0.34006935
-0.12593514 0.2636284 0.4544343 -0.36263916 -0.5265682 0.44134513 0.60853595 -0.32691497
-0.17717952 -0.19620171 0.24412327 -0.4509328 -0.13586062 0.42678028 0.28957954 -0.1240459
-0.5316482 -0.46514797 -0.15543668 0.12772124 -0.541388 0.119936496 -0.5196933 0.5176502
-0.16498287 -0.17111847 0.53110236 -0.5674792 -0.043587152 0.12465266 -0.4260636 0.36607733
0.32548544 -0.57650596 0.2482219 -0.6145718 0.25225824 0.28236318 -0.40075862 0.5314153
-0.51090264 0.5537075 0.32173792 -0.3591437 -0.59913355 -0.02099981 -0.49588758 -0.4876049
-0.56981206 -0.5264978 0.018723276 0.2591201 -0.10285952 -0.46531025 -0.5093635 0.6040496
-0.26868555 -0.5668982 -0.16289976 0.070578665 -0.4471259 0.36770692 0.19051355 -0.40587765
0.35665715 -0.312447 0.052833885 -0.09254218 -0.30316544 0.1405399 -0.38808525 -0.4420336
-0.47976223 -0.13037199 -0.59110934 -0.16278212 0.028663851 0.3191213 -0.4108397 -0.19350241
-0.5553389 0.056881953 -0.24957706 0.5125395 0.33385757 -0.59037006 -0.42903662 0.36774912
0.33855656 -0.31234485 0.43799064 0.32599416 0.50545245 0.5620351 -0.1606614 -0.030832972
0.023660513 -0.42756298 0.04689361 -0.22315554 -0.4068907 0.49407166 0.48683867 0.098831646
-0.1828872 0.42320335 0.02821335 -0.4099385 0.5285512 -0.055185348 0.22450243 0.31062505
-0.36334416 0.0666724 0.1886305 0.24176767 0.10730424 0.014554607 -0.44063717 0.4506087
0.0019098481 -0.15911151 -0.4424136 0.01162519 -0.052133545 0.392655 0.04961603 0.14828835
0.2792924 -0.40413755 0.12984248 -0.5842831 0.17961752 0.5675563 -0.17387527 -0.1504353
-0.24371292 0.25595662 -0.50486475 -0.32441106 -0.5947734 -0.47432896 0.47736874 -0.076653264
-0.13911869 0.25456244 0.44044048 0.03541672 -0.09242746 0.1388511 -0.5999339 0.16984604
-0.49226448 -0.46663508 -0.52739 0.21422131 -0.35416445 0.23417167 0.28542748 0.016997807
-0.509409 0.31450102 0.5685561 0.0703913 -0.3114416 -0.22704497 -0.3683155 -0.36007223
-0.035320118 -0.27861318 0.34569007 0.12517945 0.4053241 0.3838048 0.0911683 -0.44094098
-0.089337826 0.21174864 -0.5458396 -0.3318772 -0.4312164 0.04457057 0.27439582 0.10840238
-0.04783129 0.46447837 -0.35968882 -0.21463431 -0.54783523 0.36556727 -0.59264237 0.14237335
0.39184827 0.54104394 -0.07688026 0.21175602 -0.29763925 -0.4428726 -0.6079935 -0.0021495232
0.025433969 -0.39932796 0.46591118 -0.5604369 0.5382598 -0.5733278 0.27978638 0.30389154
-0.5548053 -0.13757083 -0.26686767 0.20674092 -0.4900937 -0.1902568 -0.19645913 -0.34302258
0.24056445 0.15554263 0.23909503 0.14295477 -0.010084303 0.36727768 0.20835228 0.5637584
0.10169077 0.4078399 0.45640922 -0.23302865 -0.03011234 -0.09875469 -0.1485403 0.5528258
0.03398654 -0.46625772 -0.16617979 -0.5173099 -0.027427608 -0.040307738 0.42869323 0.1255717
00000000: d5e7 8dbe e4a6 15bf be6b be3e beaf dc3e
00000010: a0ab 3fbe 7b67 24bc 64d4 3bbe 1eb0 77be
00000020: 8b71 7d3e a125 0a3f 9248 f13e 347f bd3e
00000030: 89f4 dc3e 0f26 12bc eb3d 6b3e 921d ae3e
00000040: 24f5 00be 4dfa 863e 9dab e83e d7ab b9be
00000050: 2ccd 06bf fdf7 e13e 03c9 1b3f 6661 a7be
00000060: 8c6e 35be 1ae9 48be 73fb 793e aae0 e6be
00000070: 0c1f 0bbe f282 da3e c543 943e c70b febd
00000080: 191a 08bf e027 eebe cb2a 1fbe 5bc9 023e
00000090: 6798 0abf 44a1 f53d 9f0a 05bf b984 043f
000000a0: 45f1 28be ae39 2fbe 53f6 073f 5146 11bf
000000b0: 7188 32bd e549 ff3d 0225 dabe 7d6e bb3e
000000c0: 07a6 a63e e595 13bf e22d 7e3e 9454 1dbf
000000d0: fe27 813e e891 903e 3c30 cdbe d50a 083f
000000e0: 84ca 02bf c6bf 0d3f d5ba a43e afe1 b7be
000000f0: d160 19bf cb07 acbc fae4 fdbe 59a7 f9be
00000100: 34df 11bf 8fc8 06bf 8e61 993c 64ab 843e
00000110: 03a8 d2bd 253d eebe a565 02bf ffa2 1a3f
00000120: 2791 89be 3e20 11bf 32cf 26be 8c8b 903d
00000130: b0ed e4be 1544 bc3e fc15 433e 32cf cfbe
00000140: c49b b63e 0ef9 9fbe 5868 583d c186 bdbd
00000150: 8038 9bbe b1e9 0f3e 1cb3 c6be 3a52 e2be
00000160: 65a3 f5be 3c80 05be f152 17bf 5bb0 26be
00000170: 74d0 ea3c de63 a33e 9559 d2be 7f25 46be
00000180: b12a 0ebf 0dfd 683d 2191 7fbe ca35 033f
00000190: 61ef aa3e 7e22 17bf b0aa dbbe 9d49 bc3e
000001a0: 4957 ad3e aaeb 9fbe 4f40 e03e b5e8 a63e
000001b0: 5565 013f 88e1 0f3f 6c84 24be 6e95 fcbc
000001c0: b1d3 c13c 89e9 dabe 8413 403d e382 64be
000001d0: fa53 d0be f6f6 fc3e eb42 f93e 3f68 ca3d
000001e0: c846 3bbe 1cae d83e af1f e73c 76e3 d1be
000001f0: 224f 073f 080a 62bd f7e3 653e 3f0a 9f3e
00000200: 3f08 babe 8a8b 883d 5b28 413e f291 773e
00000210: 53c2 db3d 7276 6e3c 329b e1be 2fb6 e63e
00000220: de53 fa3a 21ee 22be 0984 e2be 9577 3e3c
00000230: fc89 55bd 130a c93e 2e3a 4b3d e7d8 173e
00000240: 6aff 8e3e 1eeb cebe 6df5 043e 9493 15bf
00000250: a8ed 373e 5f4b 113f 5c0c 32be b60b 1abe
00000260: e18f 79be bf0c 833e d13e 01bf 3519 a6be
00000270: 1243 18bf 3fdb f2be ad69 f43e 63fc 9cbd
00000280: 2175 0ebe 0256 823e 6a81 e13e 1f11 113d
00000290: 9c4a bdbd fc2e 0e3e 4595 19bf 1fec 2d3e
000002a0: 170a fcbe cbea eebe 0803 07bf d55c 5b3e
000002b0: 0b55 b5be b3ca 6f3e 8d23 923e fc3e 8b3c
000002c0: a168 02bf 4706 a13e e48c 113f 5029 903d
000002d0: 4675 9fbe 7a7e 68be d993 bcbe 635b b8be
000002e0: d4ab 10bd 63a6 8ebe 4afe b03e 0b2f 003e
000002f0: a486 cf3e 1082 c43e 72b6 ba3d 04c3 e1be
00000300: c0f6 b6bd a3d4 583e 25bc 0bbf cfeb a9be
00000310: 65c8 dcbe a18f 363d 9c7d 8c3e 1102 de3d
00000320: beea 43bd 1cd0 ed3e 2229 b8be 19c9 5bbe
00000330: ee3e 0cbf a22b bb3e 69b7 17bf 52ca 113e
00000340: 56a0 c83e db81 0a3f 6673 9dbd 92d6 583e
00000350: 2c64 98be 33c0 e2be 76a5 1bbf 04df 0cbb
00000360: e65a d03c b774 ccbe e98b ee3e cb78 0fbf
00000370: 65cb 093f 9cc5 12bf 2940 8f3e ac97 9b3e
00000380: b807 0ebf 5edf 0cbe e1a2 88be e4b3 533e
00000390: 90ed fabe aed2 42be 952c 49be a8a0 afbe
000003a0: 8756 763e 9146 1f3e 54d5 743e bc62 123e
000003b0: a238 25bc d20b bc3e 4d5a 553e 7852 103f
000003c0: 4043 d03d 64d0 d03e 78ae e93e 109f 6ebe
000003d0: 27ae f6bc e63f cabd f31a 18be fe85 0d3f
000003e0: 7835 0b3d 55b9 eebe 092b 2abe 6c6e 04bf
000003f0: ddaf e0bc ba19 25bd ae7d db3e de95 003e

encoder.layers.0.attention.w_concat.bias f4 [16]
-0.09098337 -0.021170512 0.20431177 -0.0886061 0.04139384 0.02110738 0.25543338 -0.03263402
0.18160638 0.07098052 -0.0030649537 0.058791865 -0.16865629 0.19286029 -0.23535764 -0.029872524
00000000: 7d55 babd c86d adbc 1b37 513e 1d77 b5bd
00000010: 968c 293d 62e9 ac3c 2ac8 823e 40ab 05bd
00000020: 06f7 393e 3c5e 913d 64dd 48bb bdcf 703d
00000030: 3cb4 2cbe 2b7d 453e 9801 71be 39b7 f4bc

encoder.layers.0.norm1.gamma f4 [16]
0.9951657 1.019326 0.9837353 1.0002916 1.0067415 1.005691 0.9742161 1.003367
0.9793058 0.9824636 0.98143876 0.9672776 0.98681456 1.0298713 0.9922598 0.95395887
00000000: 2ec3 7e3f 4679 823f 14d6 7b3f 8e09 803f
00000010: e8dc 803f 7cba 803f 3a66 793f 546e 803f
00000020: c9b3 7a3f bc82 7b3f 923f 7b3f 819f 773f
00000030: e19f 7c3f d3d2 833f bd04 7e3f a636 743f

encoder.layers.0.norm1.beta f4 [16]
-0.002035319 -0.005133229 -0.010004137 -0.0013648877 -0.008550231 -0.0031235989 -0.0047920514 -0.0077191526
-0.007690086 0.016761338 -0.0053133937 -0.0077721374 0.007992705 0.0034294066 -0.004346409 0.016698763
00000000: fd62 05bb a534 a8bb 64e8 23bc 08e6 b2ba
00000010: 4516 0cbc 4bb5 4cbb a406 9dbb f2f0 fcbb
00000020: 1efd fbbb 134f 893c fa1b aebb 6aad febb
00000030: d6f3 023c e5bf 603b 526c 8ebb d8cb 883c

encoder.layers.0.ffn.linear1.weight f4 [64, 16]
-0.35160917 -0.25679624 -0.40884256 0.14060885 -0.5445384 -0.46485797 0.23049681 0.111126155
-0.12235694 0.44790998 -0.2630822 0.39683384 0.5946004 -0.5180777 -0.56224936 0.034751125
-0.15609598 0.5257454 0.30949068 -0.2801266 0.07079939 0.0894302 -0.45352608 -0.46105826
-0.2946202 -0.53146046 -0.52372134 0.43151933 -0.50773674 0.24108541 -0.32602948 -0.12096357
-0.4747733 0.3790931 -0.55353445 0.38895866 0.03384027 0.288973 -0.40629375 -0.16169418
-0.5147076 -0.5091015 -0.5085776 0.28655097 -0.47469854 0.2657608 0.39532474 0.2712743
-0.47869805 0.12625855 -0.18721077 -0.20153391 0.15280814 0.30514416 -0.02701188 -0.091840744
-0.535019 -0.18984608 -0.012804246 0.5976607 -0.19936049 -0.06446126 0.46863914 0.062307604
-0.35690638 0.50666535 -0.13008717 0.30697033 0.25245097 0.09145511 -0.48883465 -0.5067797
0.53057635 0.56926256 -0.5064605 -0.50467354 -0.57269967 -0.42371255 -0.28109765 0.0073697376
0.30442187 -0.17901812 -0.14902933 -0.3537391 0.5725281 0.22013082 0.0814546 0.18291603
0.35129192 -0.59924304 0.35571828 -0.121696524 0.15625021 -0.2673147 0.3414204 0.014229388
0.26247558 -0.1410609 0.39391926 0.24912497 -0.18552594 0.25855634 0.38824323 -0.33348933
-0.54760563 0.18791135 0.4275948 0.16241656 0.50667626 -0.54801565 -0.2905412 -0.17572352
-0.26638514 -0.025346125 -0.3555422 0.44711235 -0.041549962 -0.058326878 -0.20394272 0.20876901
0.3030783 -0.34324917 0.045318633 -0.5417334 -0.36757 0.027978871 0.40409312 0.39830527
-0.60086346 0.6050272 0.36634797 0.24374636 0.4022006 0.2636403 -0.35592034 -0.58631986
-0.33491147 0.43294033 -0.5134024 -0.35502172 0.24382325 0.29933137 -0.24615532 0.38421214
0.026259527 -0.06505981 0.36122528 -0.29423967 -0.33335456 0.55265844 0.5305426 0.3260569
0.03567328 0.16069578 -0.33780056 0.31613326 0.25590444 0.46327958 0.31950802 -0.32273492
0.35612544 -0.59250146 0.027229194 0.07835063 0.19743836 -0.34583572 -0.0055478313 0.14787214
-0.060875844 0.18607697 0.28883243 0.42688295 -0.19031009 0.08906493 0.6133474 0.4196415
0.2290868 -0.03946892 0.03357119 0.2139848 -0.05933464 -0.24079569 0.02446048 -0.444563
0.15994774 0.111864194 -0.087340534 0.46022874 -0.4863501 0.42858246 -0.5170864 0.47228009
0.01038029 0.39996612 0.39966074 -0.07356269 -0.37297487 -0.5174709 0.07609835 -0.12908132
-0.23333678 -0.27907422 -0.27863988 0.12813202 -0.43465343 0.2481573 0.42924264 -0.3082851
-0.3139775 -0.1583433 0.55828774 -0.29896575 -0.31082124 -0.082213044 0.45033386 0.32176542
-0.5736049 -0.28495836 0.4364225 0.24944401 -0.044354778 0.25465104 -0.4531541 -0.21339275
-0.17471227 -0.5950071 -0.05085641 -0.55598676 -0.048540246 0.45614585 0.09180504 0.46319324
0.060980488 -0.5990509 -0.20936884 0.26641813 -0.41422004 0.20265207 0.3401977 -0.4611403
-0.007945779 -0.46337047 0.5986762 -0.021438116 -0.13855872 -0.105337344 0.082763396 0.25005698
0.10952506 0.32045987 -0.53501374 -0.046760388 -0.12569413 0.011180533 0.46136984 0.45718694
00000000: 1e06 b4be cc7a 83be d053 d1be c4fb 0f3e
00000010: de66 0bbf dd01 eebe 5b07 6c3e 1c96 e33d
00000020: 4696 fabd 7554 e53e b6b2 86be ce2d cb3e
00000030: bb37 183f bda0 04bf 93ef 0fbf 3257 0e3d
00000040: a0d7 1fbe 4097 063f 9075 9e3e c16c 8fbe
00000050: 45ff 903d 2e27 b73d 9234 e8be d40f ecbe
00000060: 75d8 96be cb0d 08bf 9a12 06bf 1af0 dc3e
00000070: 09fb 01bf 18df 763e 56ed a6be c0bb f7bd
00000080: 7c15 f3be 7e18 c23e 6fb4 0dbf 9725 c73e
00000090: 189c 0a3d 45f4 933e bc05 d0be 2993 25be
000000a0: e1c3 03bf 7a54 02bf 2432 02bf cfb6 923e
000000b0: b00b f3be cd11 883e 0168 ca3e 77e4 8a3e
000000c0: e917 f5be ec49 013e 2eb4 3fbe e85e 4ebe
000000d0: bd79 1c3e db3b 9c3e 0548 ddbc 0017 bcbd
000000e0: 01f7 08bf 0367 42be e6c8 51bc 4b00 193f
000000f0: 2825 4cbe 4404 84bd 78f1 ef3e 4236 7f3d
00000100: 6fbc b6be d2b4 013f 9235 05be 372b 9d3e
00000110: 4141 813e d14c bb3d 8948 fabe 50bc 01bf
00000120: dad3 073f 31bb 113f 65a7 01bf 4932 01bf
00000130: 729c 12bf daf0 d8be 08ec 8fbe d77d f13b
00000140: 2fdd 9b3e 8750 37be 259b 18be 4b1d b5be
00000150: 3491 123f f969 613e abd1 a63d 574e 3b3e
00000160: 89dc b33e fe67 19bf b520 b63e 073c f9bd
00000170: 0e00 203e 79dd 88be a8ce ae3e 6122 693c
00000180: 3363 863e 4572 10be c9af c93e 9e1a 7f3e
00000190: 83fa 3dbe 7f61 843e d1c7 c63e 1dbf aabe
000001a0: e22f 0cbf d56b 403e b5ed da3e 8750 263e
000001b0: 89b5 013f c14a 0cbf d1c1 94be def0 33be
000001c0: a263 88be ada2 cfbc a109 b6be e9eb e43e
000001d0: 4b30 2abd 2ae8 6ebd 5cd6 50be 8bc7 553e
000001e0: 142d 9b3e 5bbe afbe 08a0 393d 0aaf 0abf
000001f0: 2332 bcbe f233 e53c 4be5 ce3e abee cb3e
00000200: 30d2 19bf 10e3 1a3f f691 bb3e a598 793e
00000210: 3ded cd3e ddfb 863e 313b b6be 0f19 16bf
00000220: 8479 abbe 5baa dd3e 576e 03bf 68c5 b5be
00000230: cdac 793e f641 993e 2410 7cbe 74b7 c43e
00000240: 381e d73c 143e 85bd 85f2 b83e 95a6 96be
00000250: 73ad aabe 067b 0d3f a4d1 073f eef0 a63e
00000260: 251e 123d 6f8d 243e 32f4 acbe 38dc a13e
00000270: e805 833e fb32 ed3e 8e96 a33e 833d a5be
00000280: 1356 b63e 2dae 17bf c20f df3c 4c76 a03d
00000290: 482d 4a3e 6111 b1be 95ca b5bb cb6b 173e
000002a0: f358 79bd f68a 3e3e d8e1 933e 6790 da3e
000002b0: a6e0 42be ad67 b63d 5604 1d3f 40db d63e
000002c0: bb95 6a3e 2aaa 21bd f281 093d d51e 5b3e
000002d0: e108 73bd 2593 76be 5861 c83c c39d e3be
000002e0: 57c9 233e 0e19 e53d 98df b2bd 1aa3 eb3e
000002f0: e102 f9be 296f db3e c65f 04bf b2ce f13e
00000300: 1812 2a3c 5cc8 cc3e 55a0 cc3e 09a8 96bd
00000310: 90f6 bebe f978 04bf 74d9 9b3d e52d 04be
00000320: d6ef 6ebe d1e2 8ebe e3a9 8ebe 0a35 033e
00000330: e58a debe f21c 7e3e b1c5 db3e 8bd7 9dbe
00000340: a9c1 a0be bf24 22be f2eb 0e3f 0a12 99be
00000350: f623 9fbe 505f a8bd 2992 e63e 70be a43e
00000360: c5d7 12bf 10e6 91be c572 df3e 406e 7f3e
00000370: 5bad 35bd 9f61 823e d003 e8be a183 5abe
00000380: c6e7 32be 6352 18bf d04e 50bd 2655 0ebf
00000390: 23d2 46bd f38b e93e 4804 bc3d aa27 ed3e
000003a0: adc6 793d 665b 19bf c964 56be f567 883e
000003b0: a614 d4be 0684 4f3e 652e ae3e 951a ecbe
000003c0: 032f 02bc e53e edbe d842 193f fd9e afbc
000003d0: 56e2 0dbe 1bbb d7bd db7f a93d 7807 803e
000003e0: ad4e e03d 5113 a43e a9f6 08bf d287 3fbd
000003f0: f6b5 00be 8e2e 373c ab38 ec3e 6814 ea3e

encoder.layers.0.ffn.linear1.bias f4 [64]
0.0007437343 -0.14856961 0.07007485 0.04104852 0.23166248 -0.17938921 0.12340648 -0.03521544
-0.052000295 0.08985548 -0.047462992 0.010090409 -0.05089391 -0.22877106 -0.081983276 0.16666459
-0.07428572 0.08044268 -0.09690908 0.0036719977 0.18996653 -0.23285444 0.14154704 -0.1235832
0.004600155 0.228805 0.09391911 -0.08166919 -0.21441133 0.18565738 0.1026401 -0.09878882
0.03474475 0.21635453 -0.16121237 -0.064211406 -0.025429852 -0.169179 0.20295246 0.11277063
0.16002311 0.075185835 -0.077461936 0.069793604 -0.122118175 -0.23404528 -0.092189394 0.11166714
-0.11544123 -0.095589384 -0.027671501 0.15755446 0.14415406 -0.038153995 0.13789561 -0.15605511
0.06431267 0.1148971 0.078705855 -0.16034164 -0.15652938 0.19497025 -0.11804683 0.11762461
00000000: 2af7 423a a222 18be 6783 8f3d 7e22 283d
00000010: ee38 6d3e ceb1 37be 89bc fc3d 113e 10bd
00000020: 43fe 54bd 2606 b83d 8e68 42bd 3e52 253c
00000030: 2276 50bd f642 6abe d9e6 a7bd 1faa 2a3e
00000040: 1d23 98bd 22bf a43d 4578 c6bd e6a5 703b
00000050: 9686 423e 6571 6ebe b5f1 103e 3019 fdbd
00000060: e6bc 963b dc4b 6a3e aa58 c03d 2d42 a7bd
00000070: a58e 5bbe f81c 3e3e f934 d23d cb51 cabd
00000080: 8350 0e3d 0b8c 5d3e db14 25be 4581 83bd
00000090: 4452 d0bc 433d 2dbe c5d2 4f3e 4af4 e63d
000000a0: 19dd 233e 08fb 993d 5da4 9ebd f3ef 8e3d
000000b0: 1819 fabd 91a9 6fbe cbcd bcbd beb1 e43d
000000c0: 746c ecbd 5ec4 c3bd 58af e2bc f555 213e
000000d0: 1f9d 133e 5d47 1cbd 8234 0d3e e9cc 1fbe
000000e0: 5cb6 833d 2c4f eb3d 8930 a13d 9930 24be
000000f0: 3d49 20be 48a6 473e 89c2 f1bd 2ce5 f03d

encoder.layers.0.ffn.linear2.weight f4 [16, 64]
-0.19163108 0.06867082 0.2790998 0.14661969 0.23438282 -0.3041583 -0.16703123 -0.1526904
-0.0020764265 -0.20923844 0.2447364 -0.12233673 -0.19008023 0.25197205 0.19281577 -0.16258888
-0.12183811 0.09948113 -0.09233102 -0.25556824 -0.27717972 0.12488988 -0.2743166 0.100871265
0.18836391 0.283318 -0.26077738 -0.18067642 0.01605123 -0.17080826 -0.292 -0.30521
0.06152012 -0.24139868 0.13134335 -0.26806837 -0.12072371 -0.1568053 -0.12509237 0.18578671
0.013787424 -0.0055649625 -0.09812526 -0.26642412 0.07171694 -0.16971503 0.060871013 0.24218722
-0.27454096 -0.18163173 0.25598684 0.18975277 -0.24885465 -0.2729956 0.030949872 -0.03922215
0.1252418 0.25919273 -0.07754612 -0.14124168 0.021363921 0.2637894 -0.2399554 -0.18862517
-0.0012852711 -0.17377922 -0.2587461 -0.06132478 -0.21701069 -0.08608003 -0.2028118 0.1399365
0.287102 0.10102789 -0.15745994 -0.0910408 -0.31675762 -0.025665386 -0.04151481 -0.110971056
-0.17777465 0.19688463 -0.21021228 0.24542148 -0.11085951 0.057367697 -0.1971107 0.19235057
0.24010114 0.020415004 0.091830336 0.14457905 -0.039004765 -0.27623042 0.10464851 -0.21906063
0.12544978 -0.19350034 0.067623496 -0.10737969 0.2765512 0.22216758 -0.23371768 0.12460889
0.28018132 0.28240812 0.06603417 -0.13065156 0.021724984 0.17326692 0.092044055 -0.1694237
0.26956686 -0.1663575 -0.2167225 -0.076117486 -0.14902668 -0.020910468 -0.028960653 0.27586153
0.061066713 -0.040563818 0.24782716 -0.11101843 0.12373328 -0.287642 0.21024416 0.17743042
-1.6032353e-05 -0.1858208 0.24732302 0.22059996 -0.25982586 -0.049594425 -0.19115557 0.1066548
0.20694537 -0.07872982 -0.25101408 0.040003862 -0.021508144 -0.21888536 0.22707894 0.11055377
-0.10746647 -0.15002024 -0.12746638 0.1432077 -0.15724924 -0.036193434 0.10338262 0.1415236
0.24645972 0.2963668 -0.056901608 0.20425822 0.11938476 0.02830703 0.23322682 -0.29783067
-0.15593757 0.023105744 -0.13241953 -0.17825471 0.08647641 -0.07083996 -0.13626799 -0.25927955
-0.2106537 0.051477876 0.26543316 0.25261396 0.2916684 0.070254624 0.0717351 0.25137314
0.26248237 -0.21404435 0.25273114 -0.2144567 0.02049752 -0.124972485 -0.13077174 0.25934565
-0.008652411 0.1988041 -0.0030244943 -0.2809877 -0.18596062 -0.2675136 0.045141473 0.043959096
0.095285326 -0.27903208 0.25752002 -0.28528434 0.19603059 0.067804195 -0.19134499 -0.24389319
-0.03617268 0.14944221 -0.2373671 0.15997876 0.1354975 0.22280775 -0.026667258 0.016906492
-0.060211133 0.15641792 -0.13824087 0.27842194 -0.18527405 -0.2128925 -0.24192326 -0.22813717
0.06398687 0.08548259 0.19014613 -0.010249396 -0.23462497 -0.13490756 0.28097856 -0.24645308
0.14966987 -0.23275948 0.11034367 -0.07906608 -0.22586937 -0.0048559783 0.0898063 0.0685804
0.27340215 0.19761528 0.0742097 0.1417876 -0.22445722 0.26985252 0.1520343 0.040766206
-0.2509716 -0.28042912 0.28727663 0.1940325 0.07555609 -0.0342539 0.023207901 -0.27666366
-0.08896565 -0.1982657 -0.18030463 -0.006515092 -0.26116017 -0.28577378 -0.25758153 -0.2139267
00000000: f03a 44be 49a3 8c3d 2be6 8e3e 7923 163e
00000010: 0d02 703e a3ba 9bbe 3c0a 2bbe df5a 1cbe
00000020: a814 08bb 9a42 56be 2e9c 7a3e ae8b fabd
00000030: 64a4 42be 7b02 813e 7f71 453e b37d 26be
00000040: 4286 f9bd c3bc cb3d 0c18 bdbd d7d9 82be
00000050: 80ea 8dbe 44c6 ff3d 3a73 8cbe 9895 ce3d
00000060: 78e2 403e 0f0f 913e 9d84 85be 3d03 39be
00000070: de7d 833c 5ce8 2ebe 0681 95be 7c44 9cbe
00000080: 85fc 7b3d 3731 77be df7e 063e 4240 89be
00000090: fe3d f7bd 9291 20be 3718 00be df3e 3e3e
000000a0: a6e4 613c 4a5a b6bb e5f5 c8bd be68 88be
000000b0: 55e0 923d c7c9 2dbe e253 793d edff 773e
000000c0: a290 8cbe abfd 39be b510 833e 8d4e 423e
000000d0: c1d3 7ebe 14c6 8bbe 968a fd3c 68a7 20bd
000000e0: 633f 003e e9b4 843e 80d0 9ebd a9a1 10be
000000f0: 6403 af3c 670f 873e deb6 75be f526 41be
00000100: 8b76 a8ba 2ef3 31be 5e7a 84be b12f 7bbd
00000110: 0d38 5ebe ba4a b0bd e6ad 4fbe 844b 0f3e
00000120: 09ff 923e b6e7 ce3d 2e3d 21be 9973 babd
00000130: 0e2e a2be 3740 d2bc 6f0b 2abd cb44 e3bd
00000140: 8f0a 36be 209c 493e e341 57be c54f 7b3e
00000150: 500a e3bd 64fa 6a3d 63d7 49be 8cf7 443e
00000160: 13dd 753e 5e3d a73c 8b11 bc3d 880c 143e
00000170: 76c3 1fbd 136e 8dbe f551 d63d 6e51 60be
00000180: e875 003e f424 46be 307e 8a3d e2e9 dbbd
00000190: 1e98 8d3e e67f 633e b053 6fbe f232 ff3d
000001a0: ed73 8f3e cc97 903e ec3c 873d 86c9 05be
000001b0: 98f8 b13c e26c 313e 9881 bc3d 687d 2dbe
000001c0: ab04 8a3e 9f59 2abe 81ec 5dbe 7ce3 9bbd
000001d0: 739a 18be 6e4c abbc e43e edbc b93d 8d3e
000001e0: 1721 7a3d 3f26 26bd 67c6 7d3e a15d e3bd
000001f0: e067 fd3d d045 93be 3f4a 573e 52b0 353e
00000200: 377d 86b7 cf47 3ebe 3f42 7d3e f5e4 613e
00000210: e507 85be 8623 4bbd 49be 43be d56d da3d
00000220: 7de9 533e 1a3d a1bd eb84 80be 17db 233d
00000230: d931 b0bc 7c23 60be 6287 683e 046a e23d
00000240: 6117 dcbd e89e 19be 8c86 02be 0aa5 123e
00000250: f205 21be 913f 14bd 44ba d33d 90eb 103e
00000260: f05f 7c3e 64bd 973e a911 69bd 1129 513e
00000270: ff7f f43d 25e4 e73c 03d3 6e3e 437d 98be
00000280: 19ae 1fbe 4248 bd3c fc98 07be 6788 36be
00000290: 8b1a b13d 8a14 91bd d689 0bbe 4ac0 84be
000002a0: 9bb5 57be 77da 523d dbe6 873e 9e56 813e
000002b0: 8f55 953e a8e1 8f3d dae9 923d fbb3 803e
000002c0: 1764 863e 712e 5bbe fa65 813e 8a9a 5bbe
000002d0: 6aea a73c 93f1 ffbd 07e9 05be f4c8 843e
000002e0: d8c2 0dbc 4d93 4b3e 9836 46bb 9fdd 8fbe
000002f0: 766c 3ebe 8bf7 88be 44e6 383d 740e 343d
00000300: f424 c33d 4bdd 8ebe aad9 833e ca10 92be
00000310: 3ebc 483e eddc 8a3d f1ef 43be 23bf 79be
00000320: ce29 14bd 6107 193e 5c10 73be 79d1 233e
00000330: dbbf 0a3e b727 643e 4b75 dabc 7c7f 8a3c
00000340: f39f 76bd 052c 203e 048f 0dbe 528d 8e3e
00000350: 7bb8 3dbe 7e00 5abe bbba 77be ca9c 69be
00000360: 8c0b 833d 7f11 af3d abb5 423e 15ed 27bc
00000370: 8741 70be 3525 0abe 6cdc 8f3e 325e 7cbe
00000380: 0f43 193e 8058 6ebe ddfb e13d 66ed a1bd
00000390: 4d4a 67be e61e 9fbb 5eec b73d e173 8c3d
000003a0: 5efb 8b3e a95b 4a3e 41fb 973d c530 113e
000003b0: 1dd8 65be 1c2a 8a3e e1ae 1b3e 77fa 263d
000003c0: 597f 80be 6894 8fbe ec15 933e 75b0 463e
000003d0: 27bd 9a3d d14d 0cbd 7f1e be3c dca6 8dbe
000003e0: 9f33 b6bd 2a06 4bbe c7a1 38be 8e7c d5bb
000003f0: c9b6 85be f150 92be bae1 83be 9a0f 5bbe

encoder.layers.0.ffn.linear2.bias f4 [16]
-0.018344812 -0.042066637 -0.05176808 -0.105386265 0.041593425 -0.08377811 0.041856892 0.10491325
0.1282192 0.06961768 -0.052924305 -0.10235122 -0.061012704 0.084317036 0.11764073 -0.05455917
00000000: dc47 96bc 114e 2cbd c40a 54bd c1d4 d7bd
00000010: de5d 2a3d dc93 abbd 2272 2b3d c2dc d63d
00000020: e54b 033e b793 8e3d 28c7 58bd 849d d1bd
00000030: 75e8 79bd 69ae ac3d a0ed f03d 7079 5fbd

encoder.layers.0.norm2.gamma f4 [16]
0.982531 0.99502456 0.96506363 0.9888327 1.0154221 1.001497 1.0016406 0.98875576
0.9927884 0.9896346 0.99941224 0.98977596 0.9783322 1.001342 0.99153316 0.98213494
00000000: 2787 7b3f eeb9 7e3f 690e 773f 2424 7d3f
00000010: 5af9 813f 0e31 803f c235 803f 191f 7d3f
00000020: 6127 7e3f b158 7d3f 7bd9 7f3f f561 7d3f
00000030: fb73 7a3f fa2b 803f 1ed5 7d3f 326d 7b3f

encoder.layers.0.norm2.beta f4 [16]
-0.0019071633 0.001352988 0.0033826572 0.0111879455 -0.0015356628 -0.000102162485 0.0025966289 0.005960593
0.010662481 0.0022884908 -0.00013317488 -0.0052859336 -0.0009244975 -0.00018744341 0.005036533 0.004404585
00000000: c8f9 f9ba be56 b13a 92af 5d3b a54d 373c
00000010: 4b48 c9ba 1140 d6b8 342c 2a3b 1451 c33b
00000020: b0b1 2e3c 81fa 153b dca4 0bb9 a035 adbb
00000030: fa59 72ba 758c 44b9 8009 a53b 5654 903b

encoder.layers.1.attention.w_q.weight f4 [16, 16]
-0.1930579 -0.12274773 -0.36223575 -0.6043449 0.17930742 0.12899712 -0.27978605 0.27235177
-0.0535227 -0.5377083 0.46591118 0.17076409 -0.5047807 0.16902953 0.41114312 -0.29130775
0.39765885 0.17700249 -0.35565972 0.021246878 -0.51377547 -0.04623295 0.26661956 0.6033927
-0.007502766 -0.18151884 -0.35392725 0.070066996 0.1153358 0.40740418 -0.46234065 -0.4163146
-0.40383884 -0.5444672 -0.28248408 -0.5043674 -0.31582093 0.22534247 -0.03459459 -0.31201717
0.23030226 0.034936655 -0.2694417 -0.4028667 -0.5106998 0.35665733 -0.57634306 0.29260612
-0.4757476 -0.17003308 -0.33840975 0.42697763 -0.49718446 0.16262473 0.023104709 0.33409247
-0.11218364 0.27006912 -0.33454996 -0.59343773 -0.0071107247 -0.2698427 0.19166283 0.5518992
-0.2356135 0.5133613 -0.35249403 0.5040052 0.12341708 -0.064147405 0.56829894 -0.15801671
0.06695166 -0.40986544 0.400971 0.07627521 -0.03696931 0.10445633 0.5015253 -0.2406858
0.40279934 0.2952553 -0.09703066 0.35541606 -0.45856535 0.44348451 -0.44863743 0.5731075
-0.10154424 0.53594303 0.19258665 -0.17518352 -0.20702861 0.61081064 -0.50326043 0.051339015
0.5351009 0.14457859 0.16087186 0.06532576 0.1483993 0.5338431 -0.088361144 0.0304279
-0.55595726 -0.057094164 0.079927266 -0.14422275 -0.470182 0.17970642 -0.44884259 -0.37284988
-0.36647642 0.38096002 -0.1695248 0.4603634 0.25233445 -0.4760726 0.56354773 0.36289886
0.06767431 -0.4227721 0.5884748 0.3055551 0.13560101 -0.06889108 -0.29374745 -0.1303491
0.18831357 -0.5348264 -0.10974578 0.2901329 0.40963534 0.29003477 0.12831914 -0.54157394
-0.28080067 0.57009935 0.37298828 -0.13979682 0.41375792 -0.34020588 0.2830269 0.42339686
-0.0017261946 -0.4367834 -0.51991487 -0.30858487 0.13897769 0.13684267 -0.46304354 -0.36564416
0.43966103 0.31658503 0.2501109 -0.51678056 -0.44042805 0.1794919 -0.4300376 0.058205508
0.49487883 0.0731233 0.11953397 0.06452277 -0.5640433 0.1848713 0.16471052 -0.16918476
-0.3810174 0.56913817 -0.31970036 -0.069676116 0.29753742 0.1886606 -0.14365974 0.326937
0.047196295 -0.060206868 -0.49788776 0.27465966 -0.47450253 0.11288027 -0.5186492 0.50347453
-0.032782365 0.14310037 -0.36186892 0.46932617 0.53933954 -0.21019563 -0.5433007 -0.5457242
-0.17664325 -0.43196827 0.20921619 -0.15051682 0.59058475 0.5980423 -0.20599341 0.18037635
0.36065587 0.29647887 0.5949808 0.17960359 0.42168337 -0.49454904 0.46392944 0.19000703
0.2501479 0.20380902 -0.07576386 0.51115525 -0.17706749 -0.28197533 0.36544126 -0.37037545
0.29389656 0.5038634 0.47143927 -0.37434146 0.22981575 0.3629798 0.48052543 0.55380404
0.3063647 -0.2506628 0.096959256 -0.08452444 0.3772671 0.20914629 -0.5678733 0.023915732
-0.44319972 -0.22684066 0.51764554 0.18186992 0.21139325 -0.5852841 -0.040595658 0.58422875
-0.092509456 0.07029821 0.56230175 0.5302303 0.40257215 0.56873477 0.04965688 -0.21298876
0.22969267 -0.16989532 0.45234853 0.03178185 0.45116258 0.11735523 0.015900828 -0.00566708
00000000: f8b0 45be 2963 fbbd f776 b9be 59b6 1abf
00000010: 5d9c 373e d217 043e 1e40 8fbe b171 8b3e
00000020: 9e3a 5bbd 40a7 09bf e98b ee3e c8dc 2e3e
00000030: 4f39 01bf 1416 2d3e 5a81 d23e 4a26 95be
00000040: f199 cb3e 2440 353e 0819 b6be ef0d ae3c
00000050: ca86 03bf c35e 3dbd 5c82 883e f277 1a3f
00000060: c3d9 f5bb 13e0 39be f435 b5be 497f 8f3d
00000070: 2d35 ec3d 4897 d03e eab7 ecbe 3027 d5be
00000080: f7c3 cebe 3462 0bbf c1a1 90be 391e 01bf
00000090: 48b3 a1be 2dc0 663e 0fb3 0dbd b7c0 9fbe
000000a0: 5bd4 6b3e bd19 0f3d 43f4 89be 8b44 cebe
000000b0: 39bd 02bf ca9b b63e 388b 13bf 78d0 953e
000000c0: 3095 f3be 271d 2ebe 0b44 adbe d09c da3e
000000d0: f68e febe 1987 263e 1646 bd3c 2b0e ab3e
000000e0: 89c0 e5bd 8046 8a3e 224a abbe 89eb 17bf
000000f0: 1501 e9bb d328 8abe 4343 443e 4449 0d3f
00000100: aa44 71be a56b 033f 197a b4be 7c06 013f
00000110: 18c2 fc3d b75f 83bd 0a7c 113f 22cf 21be
00000120: f41d 893d e2d9 d1be 124c cd3e 2d36 9c3d
00000130: 226d 17bd 33ed d53d f663 003f 5776 76be
00000140: b73b ce3e b42b 973e 03b8 c6bd 18f9 b53e
00000150: 14c9 eabe 6710 e33e ceb3 e5be 2cb7 123f
00000160: 6df6 cfbd 9033 093f 6f35 453e 4f63 33be
00000170: 4fff 53be 165e 1c3f add5 00bf dc48 523d
00000180: 5ffc 083f 690c 143e 98bb 243e 83c9 853d
00000190: fcf5 173e f1a9 083f b0f6 b4bd ee43 f93c
000001a0: 3753 0ebf 92db 69bd e8b0 a33d 21af 13be
000001b0: b2bb f0be f604 383e b2ce e5be 2ee6 bebe
000001c0: cca2 bbbe 310d c33e e997 2dbe c0b4 eb3e
000001d0: fb31 813e cabf f3be aa44 103f e1cd b93e
000001e0: d498 8a3d 9675 d8be 49a6 163f b871 9c3e
000001f0: feda 0a3e c416 8dbd 1166 96be 3c7a 05be
00000200: 46d5 403e 62ea 08bf 65c2 e0bd 4d8c 943e
00000210: b9bb d13e 707f 943e 1866 033e 97a4 0abf
00000220: 1bc5 8fbe 08f2 113f 52f8 be3e e626 0fbe
00000230: 14d8 d33e 772f aebe e7e8 903e 79c7 d83e
00000240: 7b41 e2ba 13a2 dfbe 2419 05bf d6fe 9dbe
00000250: 2b50 0e3e 7c20 0c3e 0b14 edbe b635 bbbe
00000260: 401b e13e 6f17 a23e 890e 803e bb4b 04bf
00000270: c97f e1be bacc 373e e32d dcbe e668 6e3d
00000280: c260 fd3e abc1 953d 3ace f43d 8424 843d
00000290: 2465 10bf e74e 3d3e e0a9 283e c53e 2dbe
000002a0: b614 c3be 0ab3 113f c4af a3be 5ab2 8ebd
000002b0: d356 983e 3f30 413e 8a1b 13be 4964 a73e
000002c0: e750 413d 7a9b 76bd 25eb febe 31a0 8c3e
000002d0: fff1 f2be c52d e73d 32c6 04bf b5e3 003f
000002e0: cd46 06bd e788 123e e246 b9be 854b f03e
000002f0: 2812 0a3f 863d 57be c115 0bbf 95b4 0bbf
00000300: f8e1 34be f22a ddbe c53c 563e 1521 1abe
00000310: 9030 173f 4d19 193f f0ef 52be 94b4 383e
00000320: e3a7 b83e 14cc 973e a950 183f 01ea 373e
00000330: e2e6 d73e 8835 fdbe 2988 ed3e 3491 423e
00000340: 6313 803e 50b3 503e 152a 9bbd 12db 023f
00000350: 2e51 35be 125f 90be 1e1b bb3e daa1 bdbe
00000360: 9c79 963e 31fd 003f 7d60 f13e afa9 bfbe
00000370: d254 6b3e 7dd8 b93e 6e07 f63e 1ac6 0d3f
00000380: d5db 9c3e e056 80be 9392 c63d 261b adbd
00000390: 2729 c13e 722a 563e 2560 11bf edea c33c
000003a0: 13eb e2be eb48 68be 6b84 043f 1c3c 3a3e
000003b0: 7977 583e 2ed5 15bf a247 26bd 0490 153f
000003c0: 9975 bdbd 82f8 8f3d 02f3 0f3f 2cbd 073f
000003d0: f01d ce3e 9a98 113f 0365 4b3d ba19 5abe
000003e0: 8e34 6b3e 0af9 2dbe 3a9a e73e af2d 023d
000003f0: c8fe e63e f057 f03d 7442 823c eab2 b9bb

encoder.layers.1.attention.w_q.bias f4 [16]
0.06458087 -0.18399075 -0.24813443 0.048796114 -0.23888408 0.20676082 -0.0067946953 -0.24209024
0.057089772 0.06992907 0.09581428 0.13857165 0.18894044 -0.21250558 -0.019741094 0.19975051
00000000: fa42 843d 1268 3cbe f416 7ebe 6fde 473d
00000010: 079e 74be 1cb9 533e 09a6 debb 81e6 77be
00000020: f7d6 693d f936 8f3d 473a c43d bae5 0d3e
00000030: 9a79 413e 109b 59be 13b8 a1bc 668b 4c3e
