Trans_Prediction/model_saved/ratioMergedPrs/TM_ratioMergedPrs_delay_size_7_delay_4.pth (torch, 385400 bytes, 337 tensors)

encoder.layers.0.attention.w_q.weight f4 [16, 16]
000000 fa 3b cd 3e 56 e8 b2 be 49 de 8e 3e 33 dd 5c be
       0.4008482 -0.34942883 0.27903965 -0.21568756
000010 6c 7c a3 3e 5d 06 b0 be d2 32 08 3f 25 be db be
       0.31930864 -0.34379855 0.53202546 -0.42918506
000020 02 fc 3c be 64 39 1e 3f fe 13 8f 3d 6a bb 99 be
       -0.18455508 0.6180632 0.06986235 -0.30025798
000030 f1 37 08 3f 94 e0 86 be 86 96 d8 3e 46 d1 09 3d
       0.5321036 -0.26343215 0.4230234 0.033646844
000040 44 ce e1 be 48 2b 75 3e ef 3e e7 3d 9d 98 e9 3e
       -0.4410268 0.23942292 0.112913005 0.45624247
000050 9a 70 db bd 83 2f b0 3e f4 de 14 be c8 30 cf be
       -0.107148364 0.3441125 -0.14538175 -0.40466905
000060 ef bc 4d be f6 68 be bd 4b 84 f0 be 6f 6b 1a 3f
       -0.20091604 -0.092973635 -0.46975932 0.6032018
000070 be bb 2a 3e 87 49 2a 3e 50 23 ce 3d 38 b1 ad 3e
       0.1667318 0.16629611 0.10065329 0.3392427
000080 63 1e 10 bf 4a 27 10 bf 64 1d e1 be 41 33 87 3e
       -0.56296366 -0.5630995 -0.43967736 0.2640629
000090 35 1d a0 3b ca d6 0f 3f 4b 27 86 3e 80 e2 9f 3e
       0.0048862942 0.5618712 0.26201853 0.31227493
0000a0 22 d4 0d 3f ea a0 14 3f 3d 8e c7 be e9 d7 d9 be
       0.55401814 0.58058035 -0.38975707 -0.4254754
0000b0 f9 4f ac 3e 5d 7a b5 3e d1 97 f6 be 6a 8e d2 3e
       0.33654764 0.35444918 -0.48162702 0.41124278
0000c0 dd 15 c8 3e 2d b1 a1 3e c7 56 01 3f a8 82 ac 3e
       0.3907918 0.31580487 0.50523037 0.33693433
0000d0 c6 a3 56 be 7f 8e 09 bf 0e a6 8b 3c e8 cb 34 3e
       -0.20960912 -0.53733057 0.017046954 0.17655909
0000e0 b5 74 f7 be f4 c7 b3 be ff e3 77 3e 06 eb c2 3e
       -0.48331228 -0.3511349 0.24208067 0.38069934
0000f0 4f 05 0f 3f 38 90 c7 3e 66 3a eb 3e 48 b7 23 be
       0.55867475 0.38977218 0.45942992 -0.15987885
000100 10 a6 a6 be 35 24 33 be 3c 58 75 bd d1 f6 f8 be
       -0.3254857 -0.1749428 -0.0598986 -0.48625806
000110 0d 9a 5e be cb b4 a0 3e 57 9d 84 3e 8d 0b 50 be
       -0.21738453 0.31387934 0.2590129 -0.20316906
000120 c2 b9 02 3f a7 f6 fd bd d1 61 c8 be 31 ce 17 3f
       0.51064694 -0.12400561 -0.39137128 0.59299
000130 e2 44 19 be 0d 25 95 be 82 7f 04 3f 2b 75 1a 3f
       -0.14967683 -0.2912983 0.5175706 0.60335034
000140 db d1 17 3f bd c4 95 3e 52 12 2c bd 0e ab 1c 3f
       0.5930459 0.29251662 -0.04200966 0.6119851
000150 56 15 08 bf 42 46 ff 3e e8 d6 cb be f4 0c 19 bf
       -0.53157556 0.4985829 -0.39812398 -0.5978539
000160 e3 54 cc 3e c7 df 89 bd 09 69 11 bf 57 90 93 be
       0.39908513 -0.06732135 -0.56800896 -0.2882106
000170 ef 82 43 be 3e 70 6f 3e 38 a4 00 bf e7 c8 00 bf
       -0.19092916 0.23382661 -0.5025058 -0.5030655
000180 fe fe 02 3f 39 1b 72 3d 19 bf ba 3e 80 4e 58 3d
       0.5117034 0.059107993 0.3647392 0.05280924
000190 94 6f a3 3e 5f af 33 be b4 25 7d be 5f 5e 33 bd
       0.31921065 -0.17547368 -0.24721414 -0.04379117
0001a0 94 90 cc 3e b0 58 ad be 47 9c 56 be 18 2c 76 bd
       0.39954054 -0.33856726 -0.20958053 -0.060100645
0001b0 aa ef 08 3f ae 20 16 3f 6d b4 ed bc e9 1e ee be
       0.534907 0.58643615 -0.029016698 -0.46507958
0001c0 cb 67 d2 3e 7e 16 1f 3e 7a 73 c4 be 3b 22 10 bf
       0.41094813 0.15535924 -0.38369352 -0.5630223
0001d0 22 05 64 be 1e e7 dd be 93 3f ee 3d 3e 31 f6 3d
       -0.22267583 -0.4334039 0.116332196 0.12021111
0001e0 30 0d d9 be 8f 87 29 3e fa 37 5c be 1b 24 c8 3e
       -0.42392874 0.16555618 -0.21505728 0.39090046
0001f0 3c 4b e8 3e a3 1f 1c 3f d0 b9 df 3d 0d 68 09 bf
       0.453699 0.60985774 0.10924113 -0.53674394
000200 5b 0a 95 3e 27 09 f7 bc a0 e9 1c bf 6c 73 c6 be
       0.29109463 -0.030155731 -0.61293983 -0.38759935
000210 4c a1 db 3e 1d 7b 91 3e ab df e3 3e 32 d0 0b 3f
       0.42896497 0.2841424 0.44506583 0.54614556
000220 37 50 0b 3f e4 18 bd be 6f aa 1e 3e 35 bb 14 3f
       0.54419273 -0.36933053 0.15494703 0.58098155
000230 1c 3e 44 be eb 34 c8 3e 04 9f 9f be 89 64 c5 3e
       -0.19164318 0.39102873 -0.31176007 0.38553265
000240 93 20 a1 3e 62 73 b7 be 9b c8 15 3f 6b 55 86 3e
       0.31470165 -0.35830218 0.58509225 0.26237044
000250 6b ab fe be 4e b0 05 bf 98 ef ad 3e 5a 79 bf be
       -0.49740157 -0.52222145 0.33971858 -0.3739727
000260 ae ae 07 bf cc 21 ce 3e 63 9b ce be c0 aa a0 3e
       -0.53000915 0.4026016 -0.40352926 0.31380272
000270 f5 5e 94 3d 7c 88 bc 3c af 2d a9 3e f7 2a 19 bf
       0.07244674 0.0230143 0.33042666 -0.59831184
000280 6e 94 62 3e ea 6b 20 3c 70 f7 f5 be a1 1e fe be
       0.22126934 0.009791354 -0.48040342 -0.49632743
000290 42 c2 a9 3e 3b b1 37 bd 6e 36 08 bf 73 1d 9e be
       0.3315602 -0.044846755 -0.53208053 -0.30881843
0002a0 7f 17 15 3f fb 17 15 3e 8b 18 35 3e 75 66 17 3f
       0.5823898 0.14559929 0.17685144 0.5914071
0002b0 d3 04 69 3d 46 00 08 3e 6b 44 d0 3e 82 03 aa 3d
       0.056889366 0.13281354 0.406772 0.0830145
0002c0 43 62 92 bd ec 8c cc bd 49 68 7a 3e 18 fb 19 bf
       -0.07147648 -0.09987816 0.24453844 -0.60148764
0002d0 8f 26 0d be 9c 73 0a bf 91 94 b0 3c ee b9 7b be
       -0.1378424 -0.54082656 0.021555217 -0.24582645
0002e0 5b 2d 4c be f8 45 06 3f 9a c4 92 be da 21 0d 3f
       -0.19939177 0.52450514 -0.2866562 0.5512978
0002f0 db f0 12 bf 39 5c fd bd b6 aa 2f be 9a 6b 18 3f
       -0.57398766 -0.12371106 -0.17154965 0.59539187
000300 0a f9 74 3b 54 8d 15 bf a5 4d 0d be a1 75 8e be
       0.0037379884 -0.58418775 -0.1379915 -0.2782412
000310 9e 19 02 bf 0f 1b 94 3e 57 25 df 3e 2b c4 9a be
       -0.5082034 0.28926894 0.43583176 -0.3022779
000320 eb 4c da 3c 7a 7e 09 3f 59 a6 e9 be d1 e6 8d be
       0.026648005 0.5370861 -0.45634726 -0.2771516
000330 6c ed 8f 3e 49 2b d6 bd d2 9f f3 3e 06 a1 8f bd
       0.28110826 -0.10457475 0.4758287 -0.07013135
000340 c2 1e 4f be be c2 17 bf f9 41 e1 3d c3 e7 e9 be
       -0.20226577 -0.5928153 0.109989114 -0.45684633
000350 de d8 06 bf 08 de 84 3d 3e 13 c5 3e fe f0 5a be
       -0.52674663 0.064876616 0.38491243 -0.21380994
000360 27 9d 1c 3e 2b 13 3a be 43 c1 9a be 27 ca 5e be
       0.15294324 -0.18171374 -0.30225572 -0.21756802
000370 b1 c0 92 3e 05 93 52 3e a7 e8 51 be 2e 60 ef be
       0.28662637 0.20563896 -0.20498906 -0.46753067
000380 79 bc c4 be 9a 6f 07 3f 16 f2 c9 3e 37 b5 e4 3e
       -0.38425043 0.52904665 0.3944251 0.44669506
000390 71 99 f8 3e 85 e3 2b be d6 82 ab 3e cf 77 bf 3e
       0.48554567 -0.1678601 0.33498257 0.37396094
0003a0 70 99 bf be 73 2e 57 be a7 8d c4 be 82 c8 1d be
       -0.3742175 -0.21013813 -0.38389322 -0.15408519
0003b0 c6 09 ba 3e 67 97 2c 3d 88 3c e9 3c 6f 13 65 bd
       0.36335582 0.042136576 0.028471246 -0.055926736
0003c0 65 e0 c8 be 75 42 55 3e de 56 8d 3e d2 75 ad 3e
       -0.392337 0.20826133 0.27605337 0.33878952
0003d0 5d 96 d9 be 37 83 c3 3e 32 fa 14 3f 88 31 0f 3e
       -0.4249753 0.38186046 0.5819427 0.13983738
0003e0 e8 f4 ae 3e 88 2e 49 bd e0 d4 0d bf 8e 16 e8 be
       0.34171224 -0.04911664 -0.55402946 -0.45329708
0003f0 9c 5b 2f 3e f1 ca 43 3e 98 1e fe 3e 85 18 4d 3e
       0.1712479 0.19120385 0.49632716 0.20028885

encoder.layers.0.attention.w_q.bias f4 [16]
000000 9e 11 15 3e c1 1f 2f be ec ed f7 3d 98 87 ef 3d
       0.14557502 -0.17101957 0.12105927 0.11695784
000010 28 01 3a 3e bb 6b 3e be 3e 66 3e 3e e9 1a f9 bd
       0.18164504 -0.18595783 0.1859369 -0.12163336
000020 86 e7 ce 3d 07 5e 6f 3e 07 9c 23 bd 25 2d ae ba
       0.10102753 0.23375712 -0.03994372 -0.0013288601
000030 c9 33 7d bd 05 06 5c be 91 07 f8 3d bc 48 7f be
       -0.061816964 -0.21486671 0.12110818 -0.2493009

encoder.layers.0.attention.w_k.weight f4 [16, 16]
000000 06 cb 8d 3e fc 22 f2 be b6 32 0e bf 5a 07 a8 be
       0.27693957 -0.47292316 -0.5554613 -0.3281811
000010 9c e7 be be 1a dd 22 3e fa 8d ab 3e 72 01 b6 3d
       -0.3728608 0.15904656 0.33506757 0.088869944
000020 27 7b c3 3d c3 50 07 bf 00 00 fb 3e d4 21 ae be
       0.09544974 -0.5285761 0.49023438 -0.34010184
000030 55 b9 5a 3d 6c 75 07 be 4e 3c ee bd b5 d2 b5 3e
       0.053399403 -0.13228387 -0.11632596 0.3551232
000040 c8 c3 0e bf 5b 04 0a 3f b9 1e e4 be ed 91 2d 3e
       -0.5576749 0.53912896 -0.4455469 0.16950198
000050 fc 9d 10 3f 08 b4 92 be 3f 4b 22 3e b5 68 9d be
       0.56491065 -0.28652978 0.15849017 -0.30743948
000060 45 90 63 be fe f4 af bd 49 94 08 3e 45 18 17 bf
       -0.22223003 -0.085916504 0.13337816 -0.5902141
000070 84 48 d0 3d 38 4f e2 be 6a 48 e3 be 83 84 4e bd
       0.10170081 -0.44201064 -0.44391185 -0.05041934
000080 c3 60 4e bd c2 a9 c8 be 95 71 eb 3e 0d 66 d7 bc
       -0.050385248 -0.39192015 0.45985094 -0.026293779
000090 7f 23 ab 3d cc 3c a9 be bf cf 2a be f0 68 a0 be
       0.0835638 -0.33054197 -0.16680811 -0.3133006
0000a0 97 75 05 bf 24 31 b6 3d 80 0b 19 bf f7 37 89 3e
       -0.5213255 0.088960916 -0.5978317 0.2680051
0000b0 e9 7a bc 3d bd 6f 92 3e 86 cf d7 3e 72 1b e1 3e
       0.09203131 0.28600875 0.42150515 0.43966252
0000c0 03 20 8c 3e fb 58 93 be d4 8e db 3e f4 67 ac be
       0.27368173 -0.28778824 0.42882407 -0.3367306
0000d0 05 8a 8d bd 60 ea 26 3c bf 03 da be de 09 0c 3c
       -0.06911091 0.010187715 -0.42580983 0.008547274
0000e0 48 f5 85 3e 63 c2 09 bf e1 79 0a 3f 78 53 12 3f
       0.26163697 -0.53812236 0.5409222 0.57158613
0000f0 93 c7 0c bf fa 1d ab 3d a9 2d da be bb 9e 96 3d
       -0.54992026 0.08355327 -0.4261296 0.07354494
000100 40 14 26 3e c2 49 2f be 8f 86 c1 3e e9 42 2e be
       0.16218662 -0.1711798 0.37797973 -0.17017712
000110 89 22 a7 be 3f cf 65 3d 73 ff 67 be 26 0a 14 be
       -0.32643536 0.05610585 -0.2265604 -0.14456996
000120 a6 03 a3 be 32 cd 05 3e a0 d3 b5 be e2 9d 1a 3e
       -0.3183872 0.13066557 -0.3551302 0.1509929
000130 e5 1c c6 3e 39 ba f9 bd 4e d7 99 be 02 9f a8 be
       0.3869392 -0.12193722 -0.30047077 -0.32933813
000140 bf 3e 01 3d f7 2f 41 be e5 9b b3 3e 4c c3 06 3e
       0.03155398 -0.18865953 0.35079876 0.13160437
000150 df 2f ce be 0d 6a 33 3e 68 a7 ac 3e f7 82 b6 3e
       -0.40270898 0.17520924 0.3372147 0.35646793
000160 72 cb 3e 3e df e0 02 be 1e 69 fc be 2a 97 92 3e
       0.18632296 -0.12781094 -0.49298948 0.28630954
000170 57 a8 a9 be 79 26 ce 3d 74 b7 f4 be c1 0c 94 3d
       -0.33136246 0.10065932 -0.47796214 0.07228995
000180 e9 be f0 3d 18 d9 c6 3e d4 09 f1 be f7 f8 41 3e
       0.11755163 0.38837504 -0.4707781 0.18942629
000190 95 12 15 bf b9 4b 3a be f2 5e 6e 3d 1b c5 c0 3e
       -0.5823148 -0.18192948 0.058196016 0.3765038
0001a0 c8 c7 17 bf 22 50 c4 be 89 69 7b be c8 48 24 bd
       -0.59289217 -0.38342386 -0.24551977 -0.040108472
0001b0 0d 08 f1 be ac 54 d7 be e2 9a fe 3e 50 31 67 3d
       -0.47076455 -0.42056787 0.4972754 0.056443512
0001c0 fa 52 04 bf 88 87 8a 3e e0 74 f0 3e 50 c2 b1 3e
       -0.5168911 0.27056527 0.4696417 0.3471856
0001d0 0e 7d c6 3e 43 81 94 3e b8 8e 18 bf 12 1a 26 be
       0.38767284 0.2900487 -0.5959277 -0.16220883
0001e0 d1 32 10 3f fa 41 0c bf 49 3b c9 3d 05 20 85 be
       0.5632754 -0.5478817 0.09825761 -0.2600099
0001f0 e4 06 ba 3e 53 73 40 be c8 00 c0 bd 53 43 d4 be
       0.36333382 -0.18793993 -0.09375149 -0.41457614
000200 eb 6c 03 3e 8e 63 0b 3f f9 50 8d 3e 24 50 a1 bd
       0.12834518 0.54448783 0.2760084 -0.07876614
000210 17 20 06 bf 21 7c 66 3e 5c da 5b 3d da d6 f2 3c
       -0.52392715 0.22508289 0.05367504 0.029643465
000220 9a ac 17 bf 85 0a b7 3e 9e 21 9f be 34 ab 14 3c
       -0.59247744 0.35750213 -0.31080335 0.009074021
000230 a0 ba 0d 3d af 35 09 bf ed 6f 7a be 1b 93 e3 3e
       0.034601808 -0.5359754 -0.24456759 0.4444817
000240 86 b8 d7 3e 1a e5 e2 be e9 37 15 be 15 23 d2 3d
       0.42132968 -0.44315416 -0.1457211 0.102605976
000250 e3 d3 08 bf fa 33 3a be aa 3a ea 3e 92 e6 86 be
       -0.53448313 -0.1818389 0.45747882 -0.26347786
000260 c9 72 df be 86 4f 12 3f b1 fb 16 3f af 00 b2 be
       -0.43642262 0.57152593 0.589778 -0.34766147
000270 8c 04 08 3f 3d dd 8a 3e 6d 29 02 bf 23 e8 b0 be
       0.5313194 0.27121916 -0.5084446 -0.34552106
000280 71 00 85 bb 79 26 5f bd e0 b0 9f be 68 6c 9a 3d
       -0.0040588905 -0.05448005 -0.31189632 0.07540208
000290 d3 db 06 3e 84 ca a2 3d 7a f4 6c 3e 67 13 47 3e
       0.13169794 0.07948783 0.23140135 0.19440995
0002a0 22 b5 88 be 76 21 4f 3e 31 b4 a8 3e fe 49 d7 3e
       -0.26700693 0.20227608 0.32949975 0.4204864
0002b0 7f b8 e4 3e 89 35 97 3e 1c 08 b9 bd 0c cc 3f 3d
       0.4467201 0.29533032 -0.0903475 0.046825454
0002c0 ab 4c 09 3e 9b b9 d3 bd 9c fe d3 be d0 48 52 3e
       0.13408153 -0.10338136 -0.4140519 0.20535588
0002d0 7e d6 b2 be cc cc b2 be 92 31 09 3f 52 9c f2 be
       -0.3492927 -0.34921873 0.53591263 -0.47384888
0002e0 35 74 50 be 25 2c 8b bd ff 2e a1 be bd 99 61 3e
       -0.2035683 -0.06795529 -0.31481168 0.22031303
0002f0 4b 71 e0 bd 6b cd 08 3f bd 08 b3 be a5 37 21 be
       -0.10959109 0.5343844 -0.34967604 -0.15743883
000300 e6 0e 83 3e be 61 a5 3e d4 eb e8 be 31 ca 90 3d
       0.25597304 0.32301134 -0.45492423 0.07069815
000310 8a ea ec bc f4 8a 1b bf fb 8e 35 be 59 09 fd 3e
       -0.02892043 -0.607589 -0.17730324 0.49421194
000320 58 10 9c 3e 28 a0 97 3d 64 89 f2 3e 0e 24 16 bf
       0.3048122 0.07403594 0.47370446 -0.58648765
000330 b4 5c 09 bc 5e cb 0a 3f 31 1b 69 be 80 3e 2f 3e
       -0.008383919 0.54216564 -0.22764279 0.17113686
000340 44 e2 6b be c5 30 1b be ee 3e 38 bc 92 b8 14 3f
       -0.23035532 -0.15155323 -0.011245472 0.5809413
000350 86 6b c2 be 45 28 19 3f 72 c1 cf be 4d 1d 3b bd
       -0.3797266 0.5982707 -0.40577275 -0.04568224
000360 b7 94 8c 3e a1 5c 97 bd 9b 11 b9 3e 7b 0a 22 bd
       0.2745721 -0.073907144 0.36146244 -0.039560776
000370 fa 5a 09 bf ae 4a 03 3f fc d1 bd be c5 de 76 3e
       -0.53654444 0.5128583 -0.37074268 0.24108417
000380 19 20 ec be 13 17 6d 3c f8 6c f8 3e 59 e5 0d 3e
       -0.4611824 0.014470833 0.48520637 0.1385702
000390 6f ef 0f bf ef b9 d7 3e b7 31 51 3e d1 95 fc bd
       -0.5622472 0.42134044 0.20429121 -0.12333263
0003a0 6b 35 e0 bd da 46 ce 3e d4 03 b3 3e e3 ec af 3e
       -0.10947689 0.4028843 0.34963858 0.34360418
0003b0 25 aa e9 be 5d 25 27 be b3 9c 3d 3e 3b 16 a9 3e
       -0.45637622 -0.16322847 0.18516807 0.33024773
0003c0 be a0 91 3d 83 1b a3 3e 1c c4 42 3e ea 82 50 3e
       0.07110737 0.31856927 0.19020122 0.2036244
0003d0 f9 12 fc 3e 29 d5 26 be 00 16 e6 3d 58 13 60 bd
       0.49233225 -0.16292252 0.11234665 -0.054705948
0003e0 e3 14 20 be ec d9 a1 3e 4e b7 b2 3c ca 18 35 3e
       -0.15632968 0.31611574 0.021815922 0.17685238
0003f0 cb 92 d3 be 01 41 d2 3d ee 22 ea 3e 2b 38 c6 be
       -0.41322932 0.10266305 0.45729774 -0.38714728

encoder.layers.0.attention.w_k.bias f4 [16]
000000 4d 65 d3 35 46 59 b5 35 a1 69 35 35 8c d8 ac 35
       1.5750207e-06 1.3511533e-06 6.7581465e-07 1.2878022e-06
000010 f5 b0 aa 35 e6 99 d9 b3 48 b2 9b 35 45 b7 61 b3
       1.2717488e-06 -1.0132844e-07 1.1600287e-06 -5.2553577e-08
000020 87 5d 94 36 12 89 0b b6 e6 23 fb 34 11 43 d7 b6
       4.4216317e-06 -2.07924e-06 4.6778513e-07 -6.415307e-06
000030 63 83 76 b5 ae fd 8a b6 cb 79 b1 36 81 de bb 36
       -9.1833334e-07 -4.1422527e-06 5.2891896e-06 5.598937e-06

encoder.layers.0.attention.w_v.weight f4 [16, 16]
000000 36 3a 4f be e1 c2 1e 3f 4d 2e 03 bf bd c3 7c be
       -0.2023705 0.6201611 -0.51242524 -0.24684043
000010 6b bb 37 3c c2 fb d8 be de 1f db 3d 19 da d6 3e
       0.0112141175 -0.42379576 0.106994376 0.4196327
000020 88 a8 b3 bd b6 9f e6 be b4 44 8b be 2d 24 84 3d
       -0.08772379 -0.45043725 -0.27200854 0.064522125
000030 1d 05 17 3f 90 99 c1 be 43 0f 85 3d d4 ea 81 be
       0.5899218 -0.3781247 0.064970516 -0.25374472
000040 56 90 fb bd 36 6a ab bd 5a c5 c5 3d d0 09 d4 3e
       -0.12283389 -0.083698675 0.096567824 0.41413736
000050 f0 33 13 bf 41 f4 01 bf a1 61 19 3f 35 8c bf be
       -0.57501125 -0.50763327 0.59914595 -0.37411657
000060 78 fc 06 3e fc 9d 17 3f d0 53 81 3d ab e7 1d be
       0.13182247 0.5922544 0.06314814 -0.15420406
000070 1f 6b f6 3e 38 54 d8 3e 64 bc 88 bd 9d 36 98 3e
       0.48128602 0.42251754 -0.06676558 0.29729167
000080 00 39 a9 3d f9 14 82 be 76 10 f8 be 5f 95 f2 be
       0.08262825 -0.25406626 -0.4845006 -0.47379586
000090 6f 6c 7d be 91 0c 13 be b4 48 04 3e 2c e6 9c be
       -0.24748395 -0.14360262 0.12918359 -0.30644357
0000a0 0c 5f 96 be 47 d3 59 3d c4 72 47 3e 2b 54 cb 3d
       -0.2936939 0.053180005 0.19477373 0.09928163
0000b0 cb dd 44 bd d4 70 82 3e 7f 78 0c bf 38 6d 08 3f
       -0.04806308 0.25476706 -0.5487136 0.53291655
0000c0 a1 bf a5 be df 12 4d bd a7 07 00 3f 2a 72 49 3e
       -0.32372764 -0.050066825 0.50011677 0.19672456
0000d0 7d 4b 14 3f 43 89 5f be 3b a0 1c 3e 3e 88 a2 bd
       0.57927686 -0.21829705 0.15295498 -0.079361424
0000e0 c5 41 c3 3e c8 57 c6 be 54 f5 cb 3d ca c8 e3 3d
       0.38136116 -0.38738847 0.09958902 0.11122282
0000f0 85 b1 b5 3e ac 92 ef bd 01 35 82 be d5 f2 cd bc
       0.35487 -0.11697897 -0.25431064 -0.025140205
000100 15 c0 bd be 7e 1f d0 be 66 d3 ce be 2e 92 ce be
       -0.3706061 -0.40649027 -0.4039566 -0.403459
000110 df 5e b4 3e 95 31 fd 3e 89 a9 48 be 76 15 06 3f
       0.3522863 0.4945189 -0.19595923 0.52376497
000120 4a 25 18 3f a3 5e 6e ba b2 ae 15 bf a2 e3 9e be
       0.594319 -0.00090930815 -0.5846969 -0.31033045
000130 23 de e8 3b c0 19 83 3e db 84 fb 3e 32 c1 51 be
       0.007106559 0.25605583 0.49124798 -0.20483854
000140 60 99 96 bd 85 fb c3 3d 87 c8 63 be d7 0c ae be
       -0.07353473 0.09569458 -0.22244464 -0.3399417
000150 e4 67 f0 3d 71 07 08 3f 65 0f e9 be b9 03 00 3e
       0.117385656 0.53136355 -0.45519558 0.1250142
000160 dd 21 9f 3e 8a 75 61 bc d4 5b 41 3e 69 29 e6 be
       0.31080523 -0.013760934 0.18882686 -0.44953468
000170 64 62 f5 3e b9 71 1f 3e 88 eb ab be c1 84 16 bf
       0.4792663 0.15570726 -0.33578134 -0.58796316
000180 d3 47 8d be e1 58 19 3f a8 a6 88 bd b1 83 0c 3f
       -0.2759386 0.59901243 -0.06672412 0.54888445
000190 ec 17 e5 3e e4 33 b8 3e b8 6e 4b 3e 4c 04 31 3e
       0.44744813 0.3597709 0.19866455 0.17286795
0001a0 5d 88 7a 3e 99 86 88 3d 0e 8c fc 3e 84 72 09 be
       0.24466081 0.066662975 0.49325603 -0.1342259
0001b0 ac 2b 79 be 1d 80 04 bf 9b 4c 2f 3d c8 67 00 3f
       -0.24333066 -0.51757985 0.042797666 0.5015836
0001c0 10 1a 07 bf af b9 38 bd 63 d4 32 3e 12 8e 71 3e
       -0.52774143 -0.045098957 0.17463832 0.23589352
0001d0 ca 5c a1 be 6b 03 07 3e 0d bb 92 be a1 d9 ae be
       -0.31516105 0.13184898 -0.28658333 -0.34150413
0001e0 6c 89 86 3d d1 01 0f bf 09 79 8b bd 82 ab f2 3e
       0.0656918 -0.55862147 -0.06810195 0.47396475
0001f0 e6 0e 19 be b5 fe 64 3e d9 53 12 3f 90 b6 88 be
       -0.1494709 0.22362788 0.5715919 -0.26701784
000200 f0 01 1b 3f 70 f8 01 bf 8d ed ae be 1b 60 bb 3e
       0.6054983 -0.5076971 -0.34165612 0.3659676
000210 37 52 11 3f db 42 49 be c7 10 2d be e5 8d ea be
       0.56766075 -0.1965441 -0.16900931 -0.45811382
000220 e4 fc fa be 93 90 14 bf b5 44 0c 3f 68 88 d7 be
       -0.49021065 -0.580331 0.5479234 -0.42096257
000230 eb ff d6 3d 4a 1e 9c 3e b0 9b 1b 3f 08 76 02 bf
       0.10498031 0.3049186 0.60784435 -0.5096135
000240 8d f3 bb bc ea a7 af be e6 93 c1 be 0f 64 05 3e
       -0.022943282 -0.34307796 -0.3780815 0.1302645
000250 a4 66 1a 3e 97 ca 0d bd ef d8 00 3f ce 6d ab 3e
       0.15078217 -0.034617033 0.50331014 0.33482212
000260 0b 78 db 3e ae ff 85 3e b0 7a e2 3e ba 3f b9 be
       0.42865023 0.2617163 0.44234228 -0.36181432
000270 d7 43 d3 3e 10 13 bb be f0 4b a3 3d c7 9d ec 3e
       0.41262695 -0.3653798 0.07973468 0.46214125
000280 a9 ae 99 3e 29 4c f1 3e 80 e9 43 3c 23 91 09 3e
       0.30016068 0.47128418 0.011957526 0.13434272
000290 4c de 3b be c2 64 92 be ae c7 2d be b6 5f c2 be
       -0.18346518 -0.28592497 -0.16970703 -0.37963647
0002a0 56 42 91 3e 2f b6 4b be 80 20 16 bf 42 80 d6 3e
       0.28370923 -0.19893716 -0.5864334 0.41894728
0002b0 f8 21 e5 be 26 76 f4 3e b6 11 12 bf 4d 54 a3 3e
       -0.4475248 0.4774639 -0.57058275 0.31900254
0002c0 a8 cf 00 bf 41 e8 08 bf 90 28 61 3e 22 fb dc 3e
       -0.5031686 -0.5347939 0.2198813 0.4316035
0002d0 c4 81 15 bf 26 4b bc 3e 85 d2 0e bf fa 3b b6 be
       -0.5840113 0.36776084 -0.5578998 -0.35592633
0002e0 ff d2 7b 3e dc 38 ca 3c 7e 7d 17 3e f2 c2 90 be
       0.24592207 0.024685316 0.14793965 -0.2827373
0002f0 96 8c 9c 3e b7 55 01 3f 38 2a 92 3e d8 68 c4 be
       0.3057601 0.50521415 0.28547835 -0.3836124
000300 4f 28 f2 be d5 d2 ef be c5 1f b1 3e 25 9f e9 3e
       -0.47296378 -0.4684054 0.3459455 0.4562923
000310 55 8f 8e 3e c0 cc a0 bd ba 83 ca be 1c 08 a3 be
       0.2784373 -0.07851553 -0.39553624 -0.31842124
000320 87 40 0b 3f d9 96 a5 bc 59 fd e4 3e 9f 19 ff 3e
       0.54395336 -0.020213531 0.4472454 0.49824235
000330 22 af 31 bd 4b 23 b7 be b1 13 15 bf ba ab 86 be
       -0.04337991 -0.35769114 -0.5823317 -0.26302892
000340 38 c8 37 be 5f 70 73 be 7b 78 82 be a4 ba 58 3e
       -0.17947471 -0.23773335 -0.25482544 0.21164948
000350 03 04 2b be e4 cb 37 3e 59 da 1f bf 3e 7b 29 be
       -0.16700749 0.17948872 -0.6244255 -0.1655092
000360 c7 ae c7 3e 25 cb 01 bf 65 2b af bd a5 b7 7d be
       0.39000532 -0.507006 -0.08553199 -0.24777086
000370 11 c2 ad 3b 6a 73 e4 bd a0 03 a7 3e 18 f1 48 3e
       0.0053026755 -0.11154826 0.32619953 0.1962322
000380 f2 31 7a 3e 57 e1 58 be 76 d0 3b 3e e6 0c 7f 3d
       0.24433115 -0.2117971 0.1834124 0.06226816
000390 96 4f fa 3e e0 ae 43 be ac 9d 16 3e 7e 6f 1b 3f
       0.48888844 -0.19109678 0.14708585 0.60717
0003a0 ec 38 1b 3d 45 56 40 bd 01 83 95 be 1d f6 b0 3d
       0.03789608 -0.046957273 -0.2920151 0.086406924
0003b0 84 89 5a 3e 5d ae c4 be bd 0f b3 be 6a 9d 08 bf
       0.2134152 -0.3841428 -0.34972945 -0.53365195
0003c0 0b 3e ba 3d bb 0d 17 3f 77 9b 72 3e e8 87 d6 3d
       0.09093865 0.59005326 0.23692118 0.10475141
0003d0 19 b3 ed 3e 38 da bc be eb bc 0f 3f 02 ce e8 3e
       0.46425703 -0.36885238 0.5614764 0.4546967
0003e0 5a 6b c8 3d 80 13 97 bd 4d cd a7 3e ac 97 07 3f
       0.09786101 -0.07376766 0.3277382 0.5296581
0003f0 66 af 8f 3e 2e 6f a2 bd 20 33 7d 3e f3 bb b2 3e
       0.28063506 -0.07931362 0.24726534 0.3490902

encoder.layers.0.attention.w_v.bias f4 [16]
000000 de cf 8d bd 0c f1 6c 3d 91 cd 3f be e5 4c ea 3d
       -0.06924413 0.057847068 -0.18730761 0.11440448
000010 1b a7 95 bd 99 d5 1c be cb ea 07 3d 5c 9f fa 3d
       -0.073072635 -0.15315856 0.0331829 0.12237427
000020 46 62 48 3e 52 21 f6 bd 27 33 c1 bd 39 8a fc 3c
       0.19568738 -0.12018074 -0.09433585 0.030827628
000030 43 fd 74 3d 96 66 b3 3d 9b db ec 3d bc 52 ee bc
       0.05981184 0.08759801 0.11565324 -0.029092185

encoder.layers.0.attention.w_concat.weight f4 [16, 16]
000000 ae 6a 6d be ff 3e 6c be af 14 0c 3e 95 ee a6 be
       -0.23185226 -0.23070906 0.13679765 -0.326039
000010 ae 24 f7 be 34 d9 ac be ee 20 b5 be b9 c0 06 bf
       -0.48270172 -0.33759463 -0.35376686 -0.5263782
000020 34 e7 bc be 3f 93 8f 3e ef 54 0c 3f 56 12 be be
       -0.36895144 0.28042027 0.548171 -0.37123364
000030 21 94 8d bd c5 fe 04 bf 78 81 04 bd 72 68 01 3f
       -0.06913019 -0.5195125 -0.032350034 0.50549996
000040 ca 77 9b be d4 de 88 3e 56 91 01 3f bf ed 43 3e
       -0.3036483 0.26732504 0.5061239 0.19133662
000050 15 34 6f be 2d 63 d5 bd f6 2c e9 be 5b 8d 41 3e
       -0.23359711 -0.10419307 -0.45542115 0.18901579
000060 5e 77 11 3e 45 2d db be 39 4b 01 3f ba b7 88 3c
       0.14205691 -0.42807975 0.50505406 0.01668917
000070 63 ff 08 bf ed 42 27 3e 64 fc df be e3 b5 7b 3e
       -0.5351469 0.16334124 -0.43747246 0.24581103
000080 34 24 95 3e 36 a4 9f bd c4 85 3c be b4 9f 9d bc
       0.29129183 -0.077949926 -0.18410403 -0.019241191
000090 8b 68 af be a4 18 fd 3d 9a 4d 39 3e d9 50 a7 3e
       -0.34259447 0.123582155 0.18096009 0.3267887
0000a0 42 f5 4f be a0 2d 95 be cd fb d6 3d 41 3e 0c bf
       -0.20308402 -0.29136372 0.10497246 -0.5478249
0000b0 51 2a ff be eb e1 6d 3e 17 7f d4 be 9a 64 38 be
       -0.49836972 0.23230712 -0.41503212 -0.18007126
0000c0 82 12 e3 3e 34 02 f7 3e d9 c3 86 3e 29 9d d6 bd
       0.44350058 0.48243868 0.26321295 -0.10479195
0000d0 76 49 fa bd ba 2f ba be 65 fd 06 bf a8 7c 8e bc
       -0.12221043 -0.36364537 -0.527304 -0.017393425
0000e0 ae 97 8d 3e 76 9a c4 bd 03 06 2c be 87 c1 ce 3e
       0.27654785 -0.095997736 -0.16799168 0.40382025
0000f0 07 38 44 bd c0 30 9c be 22 d2 cf be 80 7c 76 be
       -0.047904994 -0.30505943 -0.40590006 -0.2407093
000100 17 da ab be 5d ad ff 3d 93 07 73 be 2e cf dd 3e
       -0.33564827 0.12484238 -0.23733358 0.43322128
000110 c0 cd b1 be 71 cb d5 bd cc 50 18 3f bf 77 36 be
       -0.34727287 -0.10439194 0.59498286 -0.17819117
000120 45 6b d3 3b d1 58 b0 3e fe 1b 4a be ce e7 03 3f
       0.0064519965 0.34442762 -0.1973724 0.5152558
000130 54 ff 09 be 10 63 f6 3e 3a eb 00 3f 7e ca bf 3c
       -0.13476306 0.48122454 0.5035893 0.023411985
000140 9f 44 c3 3e de 83 64 3e 6a 3f 8a bc 94 b0 e6 3e
       0.3813829 0.22315928 -0.016875941 0.45056593
000150 8c 7c c1 3e fc 5f ab be 8a 05 8e be 37 83 10 bf
       0.37790334 -0.33471668 -0.277386 -0.5645022
000160 58 fe 99 bd 83 41 da bd ca 23 8c be bf 69 b3 bd
       -0.07519215 -0.106570266 -0.27371055 -0.08760404
000170 8d d8 8c be 6b 5b 05 bf f1 4c e7 3e 70 9a a2 be
       -0.27508965 -0.5209262 0.4517589 -0.3175845
000180 b0 ee 92 3d 8b 3b da be 78 ef 87 3d ab 80 55 3e
       0.07174432 -0.42623553 0.06637472 0.20849864
000190 a8 c7 e4 be 12 45 ee be 93 9d 14 bf db e4 18 3e
       -0.44683576 -0.4653707 -0.5805294 0.14931051
0001a0 83 95 8d 3e 1c b9 9b be 41 5f 9b 3d 8a 8a 70 be
       0.2765313 -0.30414665 0.075865276 -0.23490348
0001b0 f3 0f fb be 6e c3 fa 3d 29 a3 d7 be 21 e6 8d 3e
       -0.49035606 0.122443065 -0.4211667 0.27714637
0001c0 aa 7a df be ee 0e 10 bf b2 3a 1d 3f ef 67 e0 3e
       -0.43648273 -0.5627278 0.61417687 0.43829295
0001d0 33 73 8d 3d 6e 86 fd 3e c0 51 bf bd 5e 9b 03 3f
       0.06906738 0.49516624 -0.093417645 0.51408947
0001e0 c3 e0 12 bf 3b 6a 02 3f 7d 1e e7 3e db 7f d8 bd
       -0.5737421 0.50943345 0.45140448 -0.105712615
0001f0 74 6b 28 3e 8d 33 30 be 25 e4 5a 3e f4 c0 c5 3e
       0.1644724 -0.17207165 0.21376093 0.38623774
000200 9a e6 cd 3e ea e8 d4 3e 69 72 95 3e 1e 24 04 bb
       0.40214998 0.4158395 0.2918885 -0.002016313
000210 ef 45 04 bf 79 f7 e9 be c5 f1 1f bf 51 df d6 be
       -0.5166921 -0.4569662 -0.62478286 -0.41967252
000220 93 8e be 3e 9e 0a b2 3d 3e b0 8e 3e 5e d7 ad be
       0.3721815 0.08693431 0.27868837 -0.33953375
000230 fc a7 f8 3e ba fd 32 bd 52 e3 b3 be 75 1c 9a bd
       0.48565662 -0.043699004 -0.3513437 -0.07524959
000240 dd 21 87 3e 11 fe 01 bf 7c f0 1e 3e 1d 5c a4 3e
       0.26393023 -0.507783 0.15521425 0.32101527
000250 69 7c 48 be 10 fe d5 bd 48 f1 c5 3e e9 f9 df be
       -0.19578709 -0.10448849 0.38660645 -0.43745354
000260 fd e8 e2 3e d2 41 03 3f d3 c3 ba 3e ee bd 25 be
       0.4431838 0.5127231 0.36477527 -0.16185734
000270 6b 95 8d be bc f2 14 3f a1 a8 61 be 5b c7 e8 be
       -0.2765306 0.58182883 -0.22036983 -0.45464596
000280 47 95 f1 be 4d 32 8b 3e 72 b9 a7 be a3 36 bc 3e
       -0.47184202 0.27186814 -0.3275867 0.36760435
000290 44 a5 ad 3e 9c 8a 96 3b 93 3e bc bd 55 bb a1 be
       0.3391515 0.0045941602 -0.091916226 -0.31588235
0002a0 6d 10 a4 be 28 17 3d 3e 06 df a5 3e ad a0 fd 3e
       -0.32043782 0.18465865 0.32396716 0.49536648
0002b0 3d c1 a0 3e 91 85 27 be 1f d7 8d bd 86 8f 15 bc
       0.3139743 -0.16359545 -0.06925797 -0.009128457
0002c0 32 f5 f2 bd 87 70 f2 be 97 37 e7 3e 97 74 a4 3e
       -0.118631735 -0.47351477 0.451596 0.321202
0002d0 4d 06 f9 3e 1f 20 c2 be 3a 5d 46 3e 91 75 ad bd
       0.4863762 -0.3791513 0.193715 -0.0846969
0002e0 08 93 08 3e 6a 25 8d 3e 0d 50 8b 3d 86 b8 85 3d
       0.13337338 0.27567607 0.06802378 0.06529336
0002f0 42 04 03 bd e3 8d 18 bf 82 35 ef 3c fe 47 0f bf
       -0.031986482 -0.595915 0.02920032 -0.55969226
000300 bb cf c1 bd 2e 53 e1 be 0c d2 25 3e 2d 77 fe 3e
       -0.094634496 -0.44008774 0.16193408 0.497003
000310 e1 dd d0 3d 48 66 df be e1 e0 03 3f 75 30 a7 be
       0.1019857 -0.43632722 0.5151501 -0.32654157
000320 94 e1 0f be e3 4f 5b be ba b9 05 3e 8f b3 09 bf
       -0.14050895 -0.21417193 0.1305913 -0.5378961
000330 16 27 0e bf bf ed ea be c7 c1 ab be f0 66 08 3f
       -0.5552839 -0.4588451 -0.33546278 0.5328207
000340 fd 93 31 3d 66 ee f3 be f5 4f 52 bd 7c 84 e7 be
       0.043354023 -0.4764282 -0.051345784 -0.45218265
000350 65 92 d5 3e 24 ec a3 3d e2 07 e8 3e 3e 60 c7 3e
       0.41713253 0.080040246 0.45318514 0.38940614
000360 f6 12 0e 3f ab 82 4e 3e c1 be 9e be ad e8 d6 3e
       0.5549768 0.20167033 -0.3100491 0.41974393
000370 23 8e 85 3e 9f 1d 17 3f e3 3b 2c 3e f6 d8 d9 3e
       0.26085004 0.59029573 0.1681972 0.4254834
000380 fd 4a 10 3f f1 76 de 3e 53 a1 df be 75 04 ad be
       0.56364423 0.4345012 -0.43677768 -0.33792463
000390 13 d9 c2 3d e7 9a 4c be 75 b1 b2 3e ce b6 02 3f
       0.0951406 -0.19980966 0.34901014 0.5106019
0003a0 ad d7 b8 3c cb a5 23 bd 62 82 01 3f 34 db b0 3e
       0.02256378 -0.039953034 0.50589573 0.3454224
0003b0 29 03 4e 3e 07 e3 0d 3f 1a 9c 5e be b6 07 59 3e
       0.20118393 0.5542454 -0.21739236 0.21194348
0003c0 73 41 9c be f6 e3 b1 be f3 fc 27 3d ae 96 10 be
       -0.30518684 -0.34744233 0.041012716 -0.1411998
0003d0 ce 23 96 be d4 6a 9f 3d 66 24 e3 be 56 bb f8 3e
       -0.29324192 0.07784048 -0.44363707 0.48580426
0003e0 c2 22 98 3d 13 79 9e be 95 f4 c9 3c 56 f1 8c be
       0.074285045 -0.30951747 0.024652759 -0.27527875
0003f0 2c 5d ea 3e ac a1 6a bd 88 67 a5 bc dd 57 1a 3f
       0.4577421 -0.05728309 -0.02019097 0.6029032

encoder.layers.0.attention.w_concat.bias f4 [16]
000000 ca d7 ea 3c 33 7e e4 3d 1b 79 c0 bd f6 25 a4 3d
       0.02866735 0.11156883 -0.09398099 0.08015053
000010 f8 fe b6 bd 97 e8 e2 bc b2 e4 34 be f6 69 1f bd
       -0.0893535 -0.027698798 -0.17665365 -0.03891941
000020 d2 45 e4 bd 60 22 a6 bd 6d 01 20 be 86 c0 42 be
       -0.1114613 -0.08112025 -0.15625544 -0.19018754
000030 78 39 a9 3c eb ca 32 3e d2 f3 3e 3e 5e 50 ea 3d
       0.020657286 0.1746022 0.18647698 0.1144111

encoder.layers.0.norm1.gamma f4 [16]
000000 ec 5d 7f 3f 8b a1 74 3f da 63 80 3f 03 a6 7b 3f
       0.9975269 0.95558995 1.0030472 0.9830019
000010 ed ac 7f 3f 5c 7b 7c 3f d1 35 83 3f de 52 81 3f
       0.9987324 0.9862573 1.0250798 1.0103414
000020 b8 67 80 3f b6 7c 81 3f 91 2a 82 3f 16 f1 79 3f
       1.0031652 1.0116184 1.016924 0.9763349
000030 46 ee 7a 3f 80 be 77 3f ae 80 81 3f db 2d 80 3f
       0.98019826 0.96775055 1.0117395 1.0013994

encoder.layers.0.norm1.beta f4 [16]
000000 a8 21 fa 3b 06 6a ea bb ce 9b cb bc e0 f1 2b 3c
       0.0076334067 -0.0071537523 -0.024854567 0.010494679
000010 1a 66 52 bc 74 bc 91 ba dc 55 4e 3a 5a 47 2c 3c
       -0.012841726 -0.0011118785 0.00078710704 0.010515058
000020 8c a1 d9 bc ce a1 68 bc 24 c8 d5 3a 3f f7 85 3c
       -0.02656629 -0.0141987335 0.0016310257 0.016353248
000030 2e 3e 46 bc 82 0b d2 b9 a5 f6 65 bb e9 0f d3 b9
       -0.012099786 -0.00040062895 -0.0035089639 -0.0004025691

encoder.layers.0.ffn.linear1.weight f4 [64, 16]
000000 a2 61 a2 be 8a 97 be 3d d5 0a 91 bd 59 59 a7 3d
       -0.31715113 0.093062475 -0.07082144 0.081713386
000010 c9 03 ff be b6 44 05 3f ed 40 98 3d 8c e7 13 bf
       -0.49807575 0.5205797 0.074342586 -0.5777519
000020 cb 22 73 3d 46 1a 0e 3f a8 33 88 be 9c 56 a0 3e
       0.059359353 0.5550884 -0.2660191 0.31316078
000030 48 c9 ee 3e 6b 0f c7 3c 0c f1 34 3e 30 ed 0f 3f
       0.4663794 0.024299344 0.17670077 0.56221294
000040 a9 2a 4d be 69 2a 5d be e9 d2 bd 3e 0c 3b 1c 3e
       -0.20035805 -0.2159821 0.37074974 0.152569
000050 28 b3 3a 3e dc 6c a4 3d 6e 25 da 3e 3b 59 11 bf
       0.18232405 0.08028576 0.42606682 -0.5677678
000060 93 58 f0 bc 2f 1d e7 bd 7e 35 42 3d 23 9c 43 3e
       -0.02933911 -0.11284863 0.047414295 0.1910253
000070 75 3a f0 3e 8c b1 67 3e 97 4d 56 be 0a 01 a4 3e
       0.469196 0.22626323 -0.20928036 0.32032043
000080 f9 94 0f bf db 78 32 be 0c 2e 9c 3e a8 21 e0 be
       -0.5608669 -0.17428915 0.3050388 -0.43775678
000090 ab 61 11 3f cf b1 05 3f f2 1b 41 be ed 8c 54 3e
       0.56789654 0.5222444 -0.18858317 0.20756884
0000a0 87 0b c1 bc 03 0c 8f 3e dd 31 0f bf 89 d0 0b 3f
       -0.023565067 0.27938852 -0.5593546 0.54615074
0000b0 47 17 b4 be b3 70 c4 be 19 1a 8f 3e f9 8e fd 3d
       -0.3517401 -0.38367233 0.27949598 0.123807855
0000c0 43 0a 0f 3e f9 a1 c8 3c 3c 66 14 bf c5 36 29 3e
       0.13968758 0.024491297 -0.579685 0.16524799
0000d0 06 c8 1c 3e 4a 94 f7 3e 88 b7 8f 3e c4 72 79 bd
       0.15310678 0.48355323 0.2806971 -0.060900465
0000e0 2a 2f 9d be 14 97 f3 3e b9 ca 1a 3e dd fa 26 3e
       -0.30700046 0.475762 0.15116395 0.16306634
0000f0 2d 9c 17 3e 1a 0b 03 3f de 54 6c 3e c9 e1 19 bf
       0.1480567 0.51188815 0.2307925 -0.60110146
000100 0d 02 9a 3e 44 43 1a bd fe 74 e9 be a8 1f 8f 3e
       0.3007969 -0.037661806 -0.4559707 0.2795384
000110 c0 98 55 be 1a f8 87 be cd 7d fc be 1b e6 ef 3d
       -0.20859051 -0.26556474 -0.49314728 0.11713811
000120 c3 7a c0 3e 44 f4 81 be 98 c3 8d 3d ac 23 24 be
       0.3759366 -0.25381672 0.06922072 -0.16029233
000130 23 3b 09 3f 64 c7 0f be c6 35 02 3d 32 4f 1b be
       0.5360586 -0.14040905 0.031789564 -0.1516693
000140 e2 2d 87 be e0 e3 5f 3e 6f ae 04 3f cb 8d ea be
       -0.26402193 0.21864271 0.51828665 -0.45811304
000150 60 a5 10 3f 4d ce ba be 8b eb 45 3e 33 c6 b5 3e
       0.5650234 -0.3648552 0.19328134 0.35502777
000160 98 89 fa bd bb 3d f0 3e c0 d3 eb 3e a4 3d f3 bc
       -0.12233275 0.46922097 0.4605999 -0.029692478
000170 f8 c2 52 be 4a 54 00 3f ed 9c c0 be a1 66 2f be
       -0.20582187 0.50128615 -0.37619725 -0.17128994
000180 78 7d 17 3f 9d 37 c4 3e 10 2b 9a be 47 a8 c4 be
       0.59175825 0.3832368 -0.3011098 -0.38409635
000190 60 c1 8d 3b 37 a9 02 3e bf 4e 22 bd ad a9 8c 3e
       0.0043260306 0.12759863 -0.03962588 0.27473202
0001a0 9b 29 bc 3c 84 80 a9 be 21 1b c8 3e 91 0d 66 3e
       0.022969058 -0.33105862 0.39083198 0.22466113
0001b0 85 a8 93 be 0d 6e 67 be ae d7 ca 3e 86 72 82 3e
       -0.28839508 -0.22600575 0.39617676 0.25478
0001c0 72 7c ad 3d c1 f9 5a 3c 6d 1b 70 3e 29 a4 94 3c
       0.08471002 0.01336521 0.23447962 0.018144684
0001d0 aa 65 10 bf 1d 89 87 3e 5f 96 a3 be 32 82 47 3d
       -0.5640513 0.26471797 -0.31950662 0.04870815
0001e0 90 f9 9a bd 92 12 17 bf 21 b6 1a 3d 00 17 40 be
       -0.075671315 -0.5901271 0.037771348 -0.18758774
0001f0 04 5e 5a bd c2 6b c6 be d2 04 13 3e 2e 14 ba be
       -0.053312317 -0.38754088 0.14357308 -0.3634352
000200 ed 87 05 bf a9 ec c4 3e fd b0 b8 3e d0 d0 d9 be
       -0.5216053 0.38461807 0.3607253 -0.42542124
000210 51 11 02 bf db a8 01 3f a9 bd eb 3d fd 89 9b be
       -0.5080767 0.5064828 0.11510784 -0.30378714
000220 05 55 bb be 3d 77 b8 3d 54 f5 00 bf a9 c1 2c be
       -0.36588302 0.09007118 -0.5037434 -0.1687075
000230 27 cc 0a bf 93 29 05 bf f5 ec a8 bd 5b 19 90 be
       -0.5421776 -0.5201656 -0.08248321 -0.28144345
000240 d9 ab 62 3d 3d 6c be be 7f 48 12 3f 34 d8 ab bd
       0.055339668 -0.37191954 0.5714187 -0.08390847
000250 f1 3d 5f 3e ab fb 02 3f 1f 27 de 3d 40 d7 12 3f
       0.21800973 0.51165265 0.108473055 0.57359695
000260 7c b6 33 bc 93 65 1b 3f 2c aa fa 3e c3 20 63 3d
       -0.010968801 0.60701865 0.48957956 0.055451166
000270 58 e5 8f 3e 18 a7 af be fe 61 17 3e 1f 39 e8 bd
       0.28104663 -0.3430717 0.14783475 -0.1133902
000280 08 13 5e 3e c8 0b a0 3e 2e 30 62 3d bf 5f 76 be
       0.21686947 0.31258988 0.05522173 -0.24059962
000290 28 5c 08 3f b5 0c b8 be b8 d3 0d 3f cf 6a 05 be
       0.5326562 -0.35947195 0.5540118 -0.13029025
0002a0 6b ff 91 be 12 99 9c bd a8 90 81 be 64 cb 86 be
       -0.2851518 -0.07646383 -0.25305676 -0.2632705
0002b0 4a 8a 4f 3e a3 12 c5 3e 7b ef 27 be 67 82 2e 3d
       0.20267597 0.3849078 -0.16399948 0.04260483
0002c0 c1 70 bf bd a0 1c 78 3d 44 71 92 be 54 13 91 be
       -0.09347678 0.060574174 -0.2860204 -0.2833506
0002d0 3f ab 14 3e d0 3d 11 3d a3 bb 4b bd 0c bb ea 3e
       0.1451845 0.03545934 -0.04973949 0.4584583
0002e0 52 62 17 bf 78 4e 02 bf 10 01 0e bf f5 b9 12 3f
       -0.591344 -0.50900984 -0.5547037 0.57315
0002f0 e0 4e 02 bf 00 53 ca 3e 39 cb 0c bf c2 a0 c8 3d
       -0.50901604 0.3951645 -0.54997593 0.09796287
000300 7a d3 c0 bd 92 79 5e be c3 32 74 3e d2 c9 c0 bd
       -0.09415336 -0.21726063 0.23847489 -0.09413494
000310 d1 11 c7 3e e2 4e 08 3f d8 c0 ec be 7f cb 10 bf
       0.3888078 0.53245366 -0.46240878 -0.5656051
000320 9f d4 0d bf 66 19 38 be de b2 12 3e c4 51 2f 3d
       -0.5540256 -0.17978439 0.14326045 0.042802587
000330 08 76 81 be 5e 32 82 3e b2 c9 eb 3b ea 26 12 bf
       -0.25285363 0.25429052 0.007195675 -0.5709063
000340 c4 1f f3 be 8d 13 f2 3e e5 b7 5c be c4 1a c7 3e
       -0.47485173 0.4728054 -0.21554525 0.38887608
000350 71 1a d0 3e 92 10 85 3e 7b 69 a8 3e a4 ff 70 3e
       0.40645173 0.25989205 0.32892975 0.23535019
000360 56 e2 ba bd 7e 9b 3b be 54 c9 c1 3d 81 2a d2 be
       -0.091252014 -0.18321034 0.094622284 -0.41048053
000370 db 6d 99 be f9 8c 13 bf 1e 9e 61 3d 1e 08 ce 3e
       -0.29966626 -0.5763698 0.055082433 0.40240568
000380 3f 07 ab 3e ea df 15 3e e4 da c4 bc 48 e6 31 3d
       0.33403966 0.14636198 -0.024030156 0.043432504
000390 ad 46 e5 3c 00 58 e3 3e 5b 40 58 3e 3b 29 fd 3e
       0.027987802 0.44403076 0.211183 0.4944552
0003a0 bc b3 e0 bd 4e 2c 77 3e 8c 84 af bd af 08 b3 3e
       -0.109717816 0.24137995 -0.08570203 0.34967563
0003b0 8e 2b 05 bf 9f 57 98 bd 38 e6 c2 be 70 e9 17 3c
       -0.52019584 -0.074385874 -0.38066268 0.009271964
0003c0 e5 60 fa be d0 df 8a be cc 67 1a be 5d b3 4d be
       -0.4890205 -0.2712388 -0.15078658 -0.20087953
0003d0 dc 01 07 3f 28 12 78 3d 65 31 74 be d2 e4 9f be
       0.5273721 0.06056419 -0.23846968 -0.31229264
0003e0 57 61 8d 3d 86 e6 5b 3e e3 4a 9e 3e 3d 46 df 3e
       0.06903332 0.21474656 0.3091651 0.43608275
0003f0 5b ab 4d 3e 8c fd de 3d 34 b4 96 be 43 f0 b9 3e
       0.20084898 0.10888204 -0.2943436 0.36316118

encoder.layers.0.ffn.linear1.bias f4 [64]
000000 c5 1b 53 bd 4f 38 9c 3d 1b 52 41 3e a5 cb a9 3d
       -0.051540155 0.076279275 0.18878977 0.08290795
000010 08 47 2b 3e f7 2e 23 3e fa a3 a6 3d 8c 74 a0 3d
       0.16726315 0.15935884 0.08136745 0.078347296
000020 14 aa 67 3d bc fa f6 bb ee c9 4c 3e 07 9a 75 3e
       0.056558684 -0.007537214 0.19998905 0.23984538
000030 55 c0 8b 3d ce 90 96 bc e1 1c 6f 3e 13 cd 39 be
       0.06823794 -0.018379595 0.2335086 -0.18144636
000040 ee 25 3e 3e af 8f f7 3d fe a2 34 3e 49 e7 7e bc
       0.18569157 0.12087952 0.17640302 -0.015558072
000050 5f bb 4f be 1e 32 36 3e 92 f2 d2 bd e2 9c 65 3d
       -0.2028632 0.17792556 -0.10300173 0.05605782
000060 d8 05 07 3e 9a f1 6b be 33 1f d5 3c 7a e2 9f bd
       0.13185823 -0.23041382 0.026015854 -0.07806869
000070 ec 1d 34 3e 17 72 24 be 30 b9 29 3e 05 da 1d 3e
       0.1758954 -0.16059147 0.1657455 0.15415199
000080 e0 30 07 3e d0 99 7c 3e 2a 2c 1e 3d 15 79 69 be
       0.13202238 0.2466805 0.038616337 -0.22800095
000090 4d 6e 42 3e f4 4b a0 3c 23 e4 2a bb 0d 69 5d be
       0.18987389 0.019567467 -0.0026075921 -0.21622105
0000a0 66 10 7b bd 60 50 e7 bd 85 50 5a 3e 2f 79 2a 3e
       -0.061294936 -0.11294627 0.21319778 0.1664779
0000b0 b6 c5 43 3e 5d 6e 22 3e 68 f8 28 be 32 93 01 be
       0.1911839 0.15862413 -0.1650101 -0.12653807
0000c0 df 59 91 bd 1e 42 a8 bd 04 0b 2f 3e fb d4 ae 3d
       -0.0709722 -0.08215736 0.17094046 0.085367166
0000d0 75 55 39 3e 67 84 48 bb b0 e6 65 be 12 16 c1 bd
       0.18099006 -0.0030596496 -0.22451282 -0.09428038
0000e0 2f 42 23 3e 82 0e 10 3e 53 95 88 3d fa d5 8a bd
       0.15943216 0.14068034 0.06669106 -0.06779094
0000f0 d4 e3 6e be 32 a0 d0 bd 2d fe 0a 3e 99 a4 d2 bd
       -0.23329097 -0.10186805 0.13573523 -0.10285301

encoder.layers.0.ffn.linear2.weight f4 [16, 64]
000000 d2 35 93 bd e0 b8 df bd 39 a4 e6 bd 32 30 aa bd
       -0.07188 -0.10923934 -0.11261792 -0.08309974
000010 63 18 b3 3d c6 de 8d bd 0d 3b 17 be ba b8 4b 3e
       0.08744886 -0.06927256 -0.1476862 0.19894686
000020 db 0a f5 bd 68 56 86 3e 09 ed 26 3e f5 e4 98 3e
       -0.11964961 0.26237798 0.16301359 0.2986218
000030 c9 5c 54 3e a7 98 13 3e a1 cf 25 be e1 b3 82 be
       0.2073852 0.14413701 -0.16192485 -0.25527862
000040 40 89 66 be 8c 28 cd 3d 8c 4c 82 be b1 86 52 bc
       -0.22513294 0.10017499 -0.25449026 -0.012849496
000050 13 c2 77 3e cc 83 93 bd e2 49 ad bd c4 5b 20 be
       0.24195127 -0.07202873 -0.08461358 -0.15660006
000060 ce 3d fc 3c 3d d1 d3 bd d7 24 8a 3d 64 2b 78 be
       0.03079119 -0.103426434 0.06745308 -0.24235302
000070 10 81 80 bd 26 0b 34 3e a6 1a de bd 65 af b6 3d
       -0.06274617 0.17582378 -0.108449265 0.089201726
000080 ad 01 60 be c7 e0 af 3c fb 6b 9d be ae b3 97 be
       -0.2187564 0.021469487 -0.30746445 -0.29629272
000090 98 80 a1 bd f7 52 4e bd 0a e0 1a 3e f6 a5 92 3e
       -0.078858554 -0.05037209 0.15124527 0.28642243
0000a0 dd 64 6d be f8 31 b2 3d 7d 4f e2 bd f9 0b 02 be
       -0.23183008 0.08700937 -0.110503174 -0.1269988
0000b0 d2 1c 4a 3e dd e5 d6 3d 46 fa 0a 3c a2 7e d6 3d
       0.19737557 0.10493062 0.008482521 0.10473372
0000c0 52 5e db bc a7 11 95 be 68 86 90 be d4 ec c2 bd
       -0.026778374 -0.2911503 -0.28227544 -0.09517828
0000d0 78 a2 89 be 99 1b 5b 3e 4d 97 80 bd c9 b1 81 be
       -0.26881766 0.21397246 -0.06278858 -0.25330952
0000e0 db 78 23 bd 37 ae 16 be 47 16 f9 bd 55 7a 51 3e
       -0.03991018 -0.14714895 -0.12162452 0.20456822
0000f0 9b f5 fc 3b 0c 24 77 3e b4 d3 79 be ea 62 38 3e
       0.007719708 0.24134845 -0.24397165 0.18006483
000100 5d 77 00 bd 48 3a 62 be 32 a8 a3 bd 76 67 61 3e
       -0.031363834 -0.22092545 -0.07991065 0.22012123
000110 1c 57 4f be 68 fc b5 bd 97 cf c9 3d 0d 2d 70 3e
       -0.20248073 -0.08886033 0.09854048 0.23454686
000120 8e 9a 4a 3d 38 0c ad 3d 24 41 43 be 9f fc 10 3e
       0.0494638 0.08449596 -0.19067818 0.14158867
000130 fc 9a de 3c 32 7f ef bd 7f 52 77 3e 12 ba 6f 3e
       0.027173512 -0.116941825 0.24152564 0.23410824
000140 40 f5 be 3d f7 6d 42 be a6 5a 7d 3e 72 1a 1f 3d
       0.093241215 -0.18987261 0.24741611 0.03884358
000150 5b 1b b9 bd d8 77 d8 bd f7 34 c4 bd 23 80 51 be
       -0.09038421 -0.105697334 -0.09580415 -0.20459037
000160 d3 85 d1 bd 69 ba 89 3e f4 60 4e 3e e7 53 16 3e
       -0.10230603 0.26900032 0.20154172 0.14680444
000170 44 b1 34 be f1 71 08 3e b8 55 76 3d 71 ef 28 3d
       -0.17645746 0.13324715 0.06014034 0.041243974
000180 b4 77 ca 3d 02 7e 38 be c7 2c 80 3d ac f7 8e 3d
       0.09886113 -0.18016818 0.062585406 0.069808334
000190 07 34 88 be c3 ba a1 bb d7 45 79 3d 08 33 7a bd
       -0.26602194 -0.004935594 0.06085762 -0.061083823
0001a0 29 b0 89 bd 32 3c 64 bb 72 c3 82 3e b5 93 9b bd
       -0.06723053 -0.0034825918 0.25539738 -0.07596532
0001b0 4f 00 75 be a9 6d 6f bd 3b e8 1a be 6b 8e be 3d
       -0.23925899 -0.05845419 -0.15127651 0.09304508
0001c0 de 9e a8 3d 82 7b 80 be ad 6f 44 3d 2e c1 61 3e
       0.082334265 -0.2509423 0.047958065 0.22046348
0001d0 57 ef 7f 3e d4 a0 3e bc 59 cb 58 bd 0a 6e 92 be
       0.24993645 -0.011635024 -0.052928302 -0.28599578
0001e0 4b a1 8e be 41 35 63 3e a6 e8 5f bd 00 54 15 3e
       -0.27857432 0.22188284 -0.05466523 0.14582825
0001f0 a4 ff da 3d 45 7a 39 be c0 b1 86 be 4b ca 86 3e
       0.10693291 -0.18113048 -0.26307487 0.26326212
000200 5f 85 53 be 82 33 a0 3d 8a a8 8e 3d d9 31 ad 3d
       -0.20656346 0.07822324 0.0696574 0.08456773
000210 db 5c 2a 3e 81 54 08 be 49 79 81 be 0b b4 09 be
       0.16636984 -0.13313486 -0.25287846 -0.13447587
000220 83 2d 87 be d9 c6 f9 3d 3a 20 44 be f2 0d 42 be
       -0.2640191 0.1219613 -0.19152918 -0.18950632
000230 0a 31 88 be 61 55 d7 3d 43 1f 6f be 91 e4 99 bd
       -0.26599914 0.105143316 -0.23351769 -0.07514299
000240 bc 1f af bc 12 c5 70 3e e6 cb 1d 3c 49 2a 0f bb
       -0.021377437 0.23512676 0.009631133 -0.0021845272
000250 33 ac 23 3c ae 7b 31 3e ff e4 dc bd 6f 0a 81 be
       0.009989786 0.17332336 -0.10785865 -0.25203273
000260 69 a6 56 3e 25 0a 32 3e 6f ac 67 3e ca c3 bd 3d
       0.20961918 0.17386682 0.22624372 0.092658594
000270 a6 65 97 be d6 92 cc 3d d2 c4 e7 bd f5 6b fc bd
       -0.2956974 0.09988944 -0.11316837 -0.12325279
000280 a7 97 5b 3e d8 9e 41 3e 88 73 79 3e 2d 83 dd 3d
       0.2144457 0.1890825 0.24360478 0.108160354
000290 85 b0 97 3e 7b 12 7a be dd f9 8e be 5d ce 20 3e
       0.2962686 -0.24421112 -0.27925006 0.15703721
0002a0 92 2b 3b 3e f6 17 bd bd 40 e2 90 bc 06 eb 5b 3e
       0.1827834 -0.09233086 -0.01768601 0.21476373
0002b0 05 71 7d be 1a 40 95 be 3c 15 8d bd f5 c1 1b 3e
       -0.24750145 -0.29150468 -0.06888816 0.15210707
0002c0 9c 34 50 3e 9e f6 18 be f4 3c 1a be df fe f8 3d
       0.20332569 -0.14937827 -0.15062314 0.12157988
0002d0 67 43 8c 3e ab 27 80 bd ca b9 13 be 09 0e f7 bd
       0.27395174 -0.06257566 -0.14426342 -0.12063224
0002e0 e4 6a 2b be 9b 09 63 be 53 61 16 3e e1 54 96 bc
       -0.16739994 -0.22171633 0.14685564 -0.01835102
0002f0 25 3a 96 3d 02 74 f1 3d f9 a3 53 3e 89 54 46 bd
       0.07335309 0.11789705 0.2066802 -0.048420463
000300 1a 24 58 3e 31 c6 7f 3d ba f6 5b 3e 45 c1 08 be
       0.21107522 0.06244487 0.21480837 -0.13354976
000310 f9 be f7 bd d6 82 99 3d ea 2f 41 3e 43 14 66 bd
       -0.12096972 0.07495658 0.18865934 -0.056171667
000320 7a b0 88 be c5 d0 94 be d5 1e 04 bc b8 b7 87 bd
       -0.2669714 -0.2906553 -0.008063992 -0.066268384
000330 5d 21 aa bd ff 08 0d be a1 21 b7 3b c2 05 16 be
       -0.08307145 -0.13772963 0.0055887257 -0.14650634
000340 a0 46 c1 3d 6b dd 45 be e5 e8 7c 3d 3e 7b ce 3d
       0.09437299 -0.19322746 0.061745543 0.100821
000350 3b 1b 11 3c 7b 25 79 3e 8c 64 16 3e 58 8f 56 3e
       0.00885659 0.24330704 0.14686793 0.20953119
000360 9a e3 26 be 4b 12 97 3c 71 30 48 3e 81 f5 29 be
       -0.1629776 0.01844134 0.19549729 -0.16597559
000370 8c fe f3 bd a3 3c 69 3d 28 3c 2a be 56 15 c2 bd
       -0.11913785 0.056942593 -0.1662451 -0.09476726
000380 36 b5 4b bc e3 dc 9d 3e a2 e1 05 be 1c f0 96 be
       -0.012433341 0.30832586 -0.13074353 -0.29480064
000390 d7 a5 4d 3e f6 f7 3b 3e 7f 1f 58 bd ce 05 16 3c
       0.20082794 0.18356308 -0.052764412 0.009156657
0003a0 0b 15 92 be 9b f1 f3 bc 70 1f 36 3e cd 07 4b be
       -0.2853168 -0.029778292 0.1778543 -0.19827195
0003b0 72 6e 84 bd a5 c1 55 be 9f 2c 63 be 6b 87 5a be
       -0.06466378 -0.20874651 -0.2218499 -0.2134072
0003c0 87 9f d7 3d e2 1a 64 3d 64 51 9f 3d f7 b7 a4 3d
       0.10528474 0.0556897 0.07779196 0.08042901
0003d0 83 59 8f 3e da 5f 9d 3d ca 80 4a 3e 63 3b 53 be
       0.2799798 0.07684298 0.19775692 -0.20628123
0003e0 84 73 77 3e 57 d4 95 bc 16 d6 25 bc 92 84 97 3e
       0.2416516 -0.018289728 -0.010121843 0.2959333
0003f0 3a e5 3c 3e 27 1f 26 3e d2 9f 97 3e e9 68 cd bc
       0.18446818 0.16222821 0.2961412 -0.02507444

encoder.layers.0.ffn.linear2.bias f4 [16]
000000 aa 8f bf bd 6c d8 41 3d c2 86 89 3d c5 b3 f5 3d
       -0.093535736 0.047325537 0.06715156 0.11997179
000010 d5 b3 00 be 1d b1 ec 3d a5 fe b9 3d 97 24 0a 3e
       -0.125686 0.11557219 0.09081773 0.1349052
000020 99 bb 6e 3d 4e 0f 8d bd 61 c0 d9 3d 34 19 03 3e
       0.058284376 -0.06887685 0.106323965 0.12802583
000030 0b ba 62 bd 62 ab fa bc c6 42 dc 3d 6b 90 da 3d
       -0.055353206 -0.0305993 0.107549235 0.10672077

encoder.layers.0.norm2.gamma f4 [16]
000000 c6 b3 7e 3f 74 6b 78 3f a8 1f 7d 3f 0e 9e 7b 3f
       0.9949306 0.9703896 0.9887643 0.9828805
000010 ef b4 7f 3f 3f 91 7d 3f fd 8f 80 3f 75 56 7b 3f
       0.9988546 0.9904975 1.0043942 0.981788
000020 4c 92 7f 3f 11 4e 80 3f 02 e9 7c 3f 14 30 7a 3f
       0.99832606 1.0023824 0.9879304 0.9772961
000030 99 64 75 3f ed 03 7a 3f a6 8a 80 3f 03 11 7a 3f
       0.95856625 0.9766224 1.0042312 0.9768221

encoder.layers.0.norm2.beta f4 [16]
000000 07 7d 5b bb ef 36 34 ba c9 4d 04 bb 75 c9 2d 3c
       -0.003349127 -0.0006874641 -0.0020187965 0.010607113
000010 32 00 20 bb 63 a1 f9 bb 68 42 25 bb 8a 4f 79 3c
       -0.002441418 -0.0076181157 -0.0025216583 0.0152167175
000020 2f ac d9 bb e1 28 f2 b9 1f 28 af 3b 3e 44 81 3c
       -0.0066428403 -0.00046188294 0.005345359 0.01577961
000030 01 9f 89 bc 42 aa e4 bb 01 3c b9 3c e9 59 ff bb
       -0.016799452 -0.006978304 0.02261162 -0.0077927005
