Trans_Prediction/model_saved/ratioMergedPrs/TM_ratioMergedPrs_delay_size_7_delay_10.pth (torch, 385742 bytes, 337 tensors)

encoder.layers.0.attention.w_q.weight f4 [16, 16]
0.40028843 -0.3494096 0.27875313 -0.21883151 0.31707704 -0.34838083 0.5246436 -0.43192792
-0.18118006 0.6119523 0.0696359 -0.29997754 0.5300581 -0.26224706 0.42372668 0.034097478
-0.43812248 0.24162397 0.11360802 0.4565153 -0.10925395 0.3413031 -0.14974974 -0.40452418
-0.19685706 -0.09702654 -0.46796054 0.60480523 0.1682345 0.16984217 0.102586694 0.34096503
-0.5610167 -0.56376106 -0.43434256 0.26480576 0.0057750624 0.5610752 0.26448768 0.31207758
0.55454135 0.58230275 -0.38821524 -0.42387906 0.33967355 0.355246 -0.48329714 0.41379
0.38187093 0.31356922 0.503876 0.3299661 -0.21548153 -0.54123497 0.0069292393 0.16819519
-0.48547265 -0.35930523 0.2366632 0.37553075 0.5535207 0.3854156 0.45354962 -0.16363645
-0.32404163 -0.1721101 -0.056184065 -0.4879381 -0.21842863 0.30940488 0.2527864 -0.20476262
0.51370364 -0.12903745 -0.39092317 0.5938117 -0.14756276 -0.28890234 0.51790744 0.6040607
0.5942352 0.29052886 -0.04236645 0.6093457 -0.53128284 0.49703044 -0.39752916 -0.60115904
0.39440253 -0.071180716 -0.57318896 -0.29030576 -0.19454142 0.23070177 -0.5077188 -0.50560343
0.5146334 0.06022257 0.36780012 0.051196136 0.3177862 -0.17730454 -0.25151253 -0.043809026
0.4010355 -0.34254542 -0.20779535 -0.059740175 0.5351857 0.5889801 -0.028758768 -0.46339783
0.40884212 0.15347956 -0.38597137 -0.56210315 -0.22191644 -0.4348245 0.11432376 0.120085455
-0.42650074 0.16462162 -0.21475884 0.3921345 0.45335856 0.6087307 0.11145089 -0.53559023
0.3006292 -0.028179938 -0.6144322 -0.38085663 0.43490452 0.2921198 0.45559707 0.5555792
0.5433495 -0.36601314 0.16296954 0.5823478 -0.18456739 0.39518583 -0.30487686 0.39004904
0.31785077 -0.3574879 0.5844318 0.26558727 -0.49448547 -0.5196913 0.34250593 -0.36947456
-0.5292618 0.40542448 -0.40001243 0.31678072 0.07626241 0.025386384 0.33325583 -0.59533036
0.21394102 0.014803229 -0.47773856 -0.5011061 0.3315198 -0.052695032 -0.54049116 -0.31329283
0.5881027 0.14460286 0.16892643 0.5884942 0.052487575 0.12912618 0.4034811 0.07814858
-0.068319745 -0.10546403 0.24171473 -0.6011648 -0.13794874 -0.5337887 0.024006927 -0.24323077
-0.20236652 0.52445567 -0.28319502 0.55300146 -0.5714134 -0.12247561 -0.16977474 0.600134
0.0024099094 -0.58053637 -0.13686986 -0.27953872 -0.5074285 0.2874506 0.43565905 -0.30512953
0.031840783 0.5409187 -0.4603313 -0.2774196 0.2798621 -0.104911715 0.47610742 -0.07415172
-0.20028186 -0.5882014 0.11328859 -0.45566735 -0.52283424 0.064876445 0.38589543 -0.21558282
0.1582502 -0.1756726 -0.30111945 -0.21664153 0.28759876 0.20537706 -0.2026647 -0.46879986
-0.38751927 0.53077435 0.39335042 0.44490942 0.4869307 -0.17295003 0.32974675 0.36964744
-0.37391892 -0.21130484 -0.3860873 -0.15782191 0.36123183 0.03759605 0.027167492 -0.060995467
-0.40137982 0.20976572 0.27439275 0.33212498 -0.42829823 0.37087485 0.57373494 0.13219191
0.3436556 -0.05316003 -0.56136626 -0.4562852 0.16409197 0.18666928 0.49133322 0.19550073
00000000: 9bf2 cc3e d1e5 b2be bbb8 8e3e 5e15 60be
00000010: ec57 a23e f95e b2be 0b4f 063f a825 ddbe
00000020: 4487 39be e8a8 1c3f 449d 8e3d a896 99be
00000030: e3b1 073f 3f45 86be b4f2 d83e cca9 0b3d
00000040: 9751 e0be 466c 773e 52ab e83d 60bc e93e
00000050: 89c0 dfbd 48bf ae3e ff57 19be cb1d cfbe
00000060: e694 49be dab5 c6bd 8698 efbe 84d4 1a3f
00000070: aa45 2c3e 1beb 2d3e f918 d23d f892 ae3e
00000080: ca9e 0fbf a552 10bf 2662 debe 9f94 873e
00000090: bc3c bd3b a0a2 0f3f ee6a 873e a2c8 9f3e
000000a0: 6cf6 0d3f cb11 153f 26c4 c6be ad06 d9be
000000b0: b1e9 ad3e cee2 b53e b972 f7be 48dc d33e
000000c0: 9684 c33e 258c a03e 04fe 003f 51f1 a83e
000000d0: 31a7 5cbe 608e 0abf ac0e e33b 5c3b 2c3e
000000e0: df8f f8be dbf6 b7be d757 723e 9145 c03e
000000f0: 88b3 0d3f 3255 c53e a837 e83e 5090 27be
00000100: c9e8 a5be a13d 30be 4321 66bd 06d3 f9be
00000110: c1ab 5fbe 516a 9e3e 386d 813e 4bad 51be
00000120: 1582 033f 6522 04be 1527 c8be 0b04 183f
00000130: b11a 17be 02eb 93be 9595 043f b9a3 1a3f
00000140: cc1f 183f 33c0 943e 7188 2dbd 14fe 1b3f
00000150: 2702 08bf c67a fe3e f188 cbbe 8fe5 19bf
00000160: 21ef c93e 32c7 91bd 83bc 12bf f5a2 94be
00000170: de35 47be 163d 6c3e dcf9 01bf 3a6f 01bf
00000180: 04bf 033f f1ab 763d 4c50 bc3e 0ab3 513d
00000190: dfb4 a23e 528f 35be 40c6 80be 1871 33bd
000001a0: 8654 cd3e 1d62 afbe 4ec8 54be 1db2 74bd
000001b0: ee01 093f 66c7 163f 8297 ebbc 7b42 edbe
000001c0: c153 d13e bf29 1d3e 0a9e c5be fee5 0fbf
000001d0: 103e 63be 51a1 debe 9322 ea3d 5def f53d
000001e0: 4e5e dabe 9292 283e bee9 5bbe dac5 c83e
000001f0: 9d1e e83e c6d5 1b3f 5d40 e43d 711c 09bf
00000200: 12ec 993e 9dd9 e6bc 6e4b 1dbf a4ff c2be
00000210: ceab de3e ba90 953e 0544 e93e 703a 0e3f
00000220: f418 0b3f 1366 bbbe 7de1 263e bf14 153f
00000230: 3cff 3cbe cc55 ca3e d218 9cbe 82b4 c73e
00000240: 56bd a23e a708 b7be 539d 153f 0efb 873e
00000250: 332d fdbe 7d0a 05bf f05c af3e c52b bdbe
00000260: b47d 07bf cc93 cf3e 6ece ccbe 1531 a23e
00000270: 772f 9c3d 1bf7 cf3c 82a0 aa3e 9267 18bf
00000280: 5b13 5b3e 3e89 723c 269a f4be 7d48 00bf
00000290: f7bc a93e bfd6 57bd a15d 0abf eb67 a0be
000002a0: e68d 163f c612 143e 0dfb 2c3e 8ea7 163f
000002b0: 36fd 563d a739 043e 1395 ce3e 5d0c a03d
000002c0: 39eb 8bbd 86fd d7bd 1184 773e f0e5 19bf
000002d0: 6f42 0dbe 60a6 08bf 2daa c43c 7d11 79be
000002e0: 2b39 4fbe ba42 063f f0fe 90be 8191 0d3f
000002f0: 2648 12bf 7ed4 fabd 6ed9 2dbe 62a2 193f
00000300: 92ef 1d3b 089e 14bf 9d27 0cbe b31f 8fbe
00000310: d6e6 01bf ba2c 933e b40e df3e f039 9cbe
00000320: 7b6b 023d a679 0a3f 8bb0 ebbe f109 8ebe
00000330: 164a 8f3e f4db d6bd 5ac4 f33e dbdc 97bd
00000340: b016 4dbe 5e94 16bf d903 e83d 3b4d e9be
00000350: 77d8 05bf f1dd 843d 1694 c53e bec1 5cbe
00000360: 570c 223e 85e3 33be 542c 9abe 47d7 5dbe
00000370: 2540 933e 5d4e 523e 5687 4fbe 8906 f0be
00000380: ed68 c6be d4e0 073f 3a65 c93e 2bcb e33e
00000390: fb4e f93e d019 31be 91d4 a83e 6e42 bd3e
000003a0: 4d72 bfbe 4c60 58be 3cad c5be 119c 21be
000003b0: 61f3 b83e 51fe 193d 5c8e de3c 62d6 79bd
000003c0: a881 cdbe d3cc 563e 357d 8c3e 490c aa3e
000003d0: e849 dbbe 4fe3 bd3e 4be0 123f 515d 073e
000003e0: a0f3 af3e 55be 59bd b3b5 0fbf 379e e9be
000003f0: ba07 283e 3b26 3f3e 0790 fb3e 5831 483e

encoder.layers.0.attention.w_q.bias f4 [16]
0.1487756 -0.16388975 0.12248367 0.11666193 0.18623573 -0.18878321 0.18983309 -0.11872489
0.09730841 0.23443629 -0.042530414 0.0030898412 -0.06606154 -0.21944556 0.11628986 -0.24962695
00000000: a258 183e b7d2 27be b8d8 fa3d 73ec ee3d
00000010: 94b4 3e3e 6350 41be 9b63 423e 0926 f3bd
00000020: a249 c73d 1110 703e 5f34 2ebd ef7e 4a3b
00000030: 464b 87bd 56b6 60be 6129 ee3d 359e 7fbe

encoder.layers.0.attention.w_k.weight f4 [16, 16]
0.28001514 -0.47099617 -0.5517023 -0.321647 -0.36910936 0.16353661 0.33859557 0.091420874
0.100374386 -0.5223022 0.48973227 -0.336501 0.05747311 -0.12861554 -0.11101863 0.35893068
-0.5585003 0.5368462 -0.44569418 0.16669105 0.56316906 -0.28606257 0.15674055 -0.30951902
-0.22058496 -0.08557816 0.13384145 -0.59149504 0.10145231 -0.44163036 -0.4462507 -0.052393116
-0.046809938 -0.38759258 0.46174866 -0.020855183 0.08769059 -0.32789862 -0.16217339 -0.30854186
-0.51687187 0.09469619 -0.5941209 0.27030805 0.094030425 0.29069752 0.42618474 0.44451478
0.27014944 -0.2909387 0.42618805 -0.33819136 -0.07007747 0.008930868 -0.42725196 0.0052793575
0.25710166 -0.5390336 0.5385811 0.56774014 -0.5502869 0.078358434 -0.42729175 0.071076505
0.16112706 -0.17513096 0.37631387 -0.17236131 -0.32904336 0.05410515 -0.22950624 -0.14833726
-0.31966618 0.13022494 -0.3554818 0.14744146 0.38188392 -0.12577058 -0.3021661 -0.3330567
0.032559305 -0.18788336 0.35119385 0.13061248 -0.40218306 0.17588964 0.33689982 0.35825366
0.18537956 -0.1286009 -0.49192274 0.2874609 -0.33113745 0.10119492 -0.47825286 0.07427568
0.11249542 0.38167346 -0.4763768 0.18303995 -0.58661526 -0.18583368 0.054429952 0.3718929
-0.6021196 -0.39048746 -0.25294763 -0.046182476 -0.4765505 -0.4306655 0.4925557 0.050215732
-0.5178752 0.27022332 0.46970996 0.34729186 0.38648656 0.28847912 -0.59582126 -0.16292311
0.56366605 -0.54588205 0.09755081 -0.25954765 0.3635827 -0.18944305 -0.09514599 -0.41521505
0.12192539 0.5380855 0.26813534 -0.08423483 -0.53259826 0.21937755 0.04364589 0.023504227
-0.6041366 0.35160524 -0.3178673 -0.0019977982 0.030409608 -0.5426808 -0.24897546 0.4376022
0.42255554 -0.44437695 -0.14572707 0.100716025 -0.53540057 -0.18276916 0.45790577 -0.2621543
-0.43179247 0.5686789 0.5933971 -0.34512854 0.5302323 0.27035204 -0.5072548 -0.34573656
0.0031566054 -0.04686492 -0.30708173 0.083955035 0.13802758 0.086784236 0.23790418 0.19901517
-0.26385117 0.21017678 0.33364344 0.42607012 0.45718893 0.30256835 -0.0851542 0.054007296
0.13925792 -0.09904238 -0.4111211 0.21149564 -0.34227756 -0.3447191 0.54484195 -0.469093
-0.19577362 -0.06413581 -0.31031513 0.2290459 -0.10444675 0.54110605 -0.34071416 -0.15097472
0.25126356 0.32089698 -0.45830002 0.06739165 -0.032948602 -0.61452115 -0.1796421 0.49605098
0.3043475 0.07266365 0.47235724 -0.58998376 -0.012504903 0.5399671 -0.23178329 0.16706242
-0.2298201 -0.14954552 -0.009109476 0.58277893 -0.37630725 0.5965857 -0.40016648 -0.043041423
0.28133437 -0.07151986 0.3629363 -0.033885498 -0.5380558 0.51629543 -0.3687169 0.24221689
-0.4606709 0.012792793 0.48418432 0.13493238 -0.5649498 0.4233111 0.2004781 -0.123601556
-0.115736105 0.39760813 0.3503974 0.34038445 -0.45479503 -0.16653463 0.18125534 0.32949734
0.06873187 0.31688675 0.18814096 0.19836952 0.48739323 -0.16483457 0.10510345 -0.056174167
-0.16287068 0.31007046 0.020082382 0.16975036 -0.41385013 0.09944645 0.45046377 -0.39113474
00000000: 255e 8f3e 6926 f1be 5d3c 0dbf eaae a4be
00000010: e7fb bcbe 2476 273e 665c ad3e de3a bb3d
00000020: 1691 cd3d 99b5 05bf 30be fa3e dc49 acbe
00000030: ec68 6b3d cbb3 03be bc5d e3bd c3c5 b73e
00000040: e0f9 0ebf c16e 093f 0732 e4be 0fb1 2a3e
00000050: d92b 103f cb76 92be 9880 203e 4779 9ebe
00000060: 06e1 61be 9a43 afbd bc0d 093e 386c 17bf
00000070: 3bc6 cf3d 601d e2be f97a e4be 2a9a 56bd
00000080: c7bb 3fbd 8972 c6be 526a ec3e 7dd8 aabc
00000090: 2097 b33d 54e2 a7be c810 26be 33f9 9dbe
000000a0: b751 04bf 13f0 c13d 4f18 18bf d165 8a3e
000000b0: 0693 c03d 4ed6 943e e334 da3e 7197 e33e
000000c0: 0751 8a3e ebf5 94be 5235 da3e 6b27 adbe
000000d0: c784 8fbd c652 123c c5c0 dabe 76fe ac3b
000000e0: d4a2 833e 1bfe 09bf 73e0 093f 6b57 113f
000000f0: 9adf 0cbf 637a a03d fcc5 dabe 8f90 913d
00000100: 7efe 243e 8855 33be 36ac c03e 7c7f 30be
00000110: 5f78 a8be 5d9d 5d3d af03 6bbe b9e5 17be
00000120: 49ab a3be b059 053e b601 b6be e5fa 163e
00000130: 4a86 c33e 01ca 00be 84b5 9abe 6886 aabe
00000140: e85c 053d 7f64 40be aecf b33e 47bf 053e
00000150: f0ea cdbe 6a1c 343e 227e ac3e 066d b73e
00000160: 24d4 3d3e f4af 03be 4cdd fbbe 132e 933e
00000170: d98a a9be 483f cf3d 8fdd f4be d91d 983d
00000180: 0064 e63d b46a c33e a9e7 f3be d36e 3b3e
00000190: 6b2c 16bf 2f4b 3ebe f1f1 5e3d bf68 be3e
000001a0: 8324 1abf f9ed c7be 5a82 81be d629 3dbd
000001b0: 6dfe f3be 3080 dcbe 4330 fc3e 03af 4d3d
000001c0: 7893 04bf b65a 8a3e d37d f03e 3dd0 b13e
000001d0: 91e1 c53e 89b3 933e be87 18bf 51d5 26be
000001e0: 6b4c 103f edbe 0bbf b8c8 c73d 6ee3 84be
000001f0: 8327 ba3e 5cfd 41be e7db c2bd 1197 d4be
00000200: 05b4 f93d f9bf 093f 0949 893e 5083 acbd
00000210: 5c58 08bf 82a4 603e 08c6 323d f08b c03c
00000220: b2a8 1abf 9a05 b43e 81bf a2be 7eed 02bb
00000230: 921d f93c 21ed 0abf 6cf3 7ebe 650d e03e
00000240: 3359 d83e 6085 e3be 7a39 15be 3444 ce3d
00000250: 0310 09bf d727 3bbe a072 ea3e 1739 86be
00000260: e713 ddbe f194 113f dfe8 173f b0b4 b0be
00000270: 4ebd 073f 956b 8a3e 73db 01bf 6204 b1be
00000280: 0ddf 4e3b 6ef5 3fbd d139 9dbe 9ef0 ab3d
00000290: 1a57 0d3e efbb b13d 279d 733e a2ca 4b3e
000002a0: 8017 87be 9538 573e 50d3 aa3e dd25 da3e
000002b0: ab14 ea3e 3dea 9a3e 5365 aebd c136 5d3d
000002c0: a199 0e3e bbd6 cabd 777e d2be 5092 583e
000002d0: 013f afbe 067f b0be c37a 0b3f f52c f0be
000002e0: e178 48be a359 83bd a0e1 9ebe 028b 6a3e
000002f0: 2de8 d5bd ed85 0a3f 1672 aebe 1e99 1abe
00000300: 9ea5 803e 9c4c a43e 4da6 eabe a204 8a3d
00000310: 1df5 06bd 4251 1dbf 19f4 37be 65fa fd3e
00000320: 6fd3 9b3e aed0 943d cfd8 f13e 2d09 17bf
00000330: 5de1 4cbc 493b 0a3f 9958 6dbe 6912 2b3e
00000340: f655 6bbe 7622 19be e93f 15bc 0031 153f
00000350: 58ab c0be d7b9 183f 9fe2 ccbe 344c 30bd
00000360: 0f0b 903e 0179 92bd c9d2 b93e 85cb 0abd
00000370: 06be 09bf f02b 043f 76c8 bcbe b407 783e
00000380: 0edd ebbe dd98 513c 02e7 f73e b72b 0a3e
00000390: 8da0 10bf 3cbc d83e 224a 4d3e d022 fdbd
000003a0: 0d07 edbd 4b93 cb3e 4a67 b33e df46 ae3e
000003b0: e5da e8be 0e88 2abe 009b 393e e0b3 a83e
000003c0: 4bc3 8c3d fb3e a23e 06a8 403e 6121 4b3e
000003d0: 9b8b f93e 65ca 28be 7a40 d73d e216 66bd
000003e0: 92c7 26be 8ec1 9e3e cf83 a43c 0ad3 2d3e
000003f0: 2ae4 d3be 95aa cb3d 30a3 e63e d042 c8be

encoder.layers.0.attention.w_k.bias f4 [16]
2.7658868e-07 -4.769295e-08 1.14090234e-07 -2.8239683e-07 6.3752043e-07 -7.233349e-07 -4.011534e-08 6.3665476e-07
2.1315077e-06 -7.618256e-07 1.0830281e-06 -8.913526e-07 -8.604169e-07 -1.1414453e-06 -1.1399316e-07 -2.7687282e-08
00000000: 0f7e 9434 f4d6 4cb3 c501 f533 539c 97b4
00000010: 1222 2b35 322b 42b5 484b 2cb3 95e6 2a35
00000020: 060b 0f36 4280 4cb5 905c 9135 4945 6fb5
00000030: 66f7 66b5 c333 99b5 67cc f4b3 fad4 edb2

encoder.layers.0.attention.w_v.weight f4 [16, 16]
-0.19495596 0.61953866 -0.50455576 -0.23825471 0.021441653 -0.41640094 0.11204329 0.41791624
-0.08000002 -0.44209924 -0.26487175 0.0697466 0.6016997 -0.36971992 0.07807988 -0.2371335
-0.13369405 -0.0961833 0.08976494 0.40503535 -0.5837786 -0.51806134 0.5857692 -0.3876609
0.12511128 0.5813194 0.06273154 -0.16379488 0.4764716 0.41469422 -0.07340766 0.2981204
0.08524074 -0.2459563 -0.48057595 -0.47013655 -0.2441451 -0.14061955 0.13138016 -0.29808187
-0.29282662 0.05748987 0.1943919 0.10424775 -0.04540934 0.25874203 -0.5491614 0.530099
-0.32218474 -0.04657279 0.50079936 0.20003347 0.5833744 -0.21730305 0.1573579 -0.0745087
0.3815657 -0.3830701 0.103996694 0.11705195 0.35283038 -0.11507864 -0.257282 -0.026815489
-0.37812963 -0.41683102 -0.4071283 -0.40933967 0.35246128 0.48966646 -0.20839031 0.5074723
0.593727 -0.007529498 -0.5827135 -0.31733698 0.0082976 0.25180495 0.49187273 -0.20116815
-0.07759627 0.094082944 -0.22854316 -0.34510422 0.107606776 0.52422065 -0.45148325 0.12726359
0.3046937 -0.017608888 0.17943592 -0.45182133 0.467496 0.14910978 -0.34904203 -0.6061055
-0.28655595 0.5846065 -0.07485524 0.53705245 0.43977427 0.3484993 0.18282479 0.15350169
0.23478644 0.053022936 0.49310994 -0.14622636 -0.25218064 -0.5299072 0.035156745 0.49622196
-0.5318688 -0.043874353 0.17452745 0.23211883 -0.3194353 0.12931922 -0.28400555 -0.33912468
0.06591345 -0.5589276 -0.07362313 0.4724896 -0.1542425 0.22066808 0.564765 -0.27627838
0.60126543 -0.50973946 -0.34562188 0.35960758 0.5619299 -0.20217347 -0.17227858 -0.4633501
-0.50620985 -0.583148 0.5454018 -0.42563248 0.09933848 0.2969803 0.6058317 -0.5131359
-0.024820348 -0.336766 -0.36597148 0.13126759 0.15183379 -0.030012673 0.50134176 0.3393493
0.43495572 0.26529333 0.43955928 -0.3638862 0.41450253 -0.36921263 0.08673954 0.4638322
0.30164903 0.47488025 0.014135754 0.13776839 -0.18499489 -0.2825579 -0.17054051 -0.37544474
0.28471217 -0.20053208 -0.5834647 0.4203289 -0.4451199 0.4790564 -0.5705876 0.32032418
-0.5068735 -0.53412294 0.22821912 0.4254448 -0.5885872 0.36663988 -0.56853735 -0.35698393
0.24129778 0.017854309 0.14204672 -0.29001528 0.30011898 0.49410856 0.28791374 -0.38421723
-0.4725763 -0.46563286 0.35198537 0.45817477 0.28071514 -0.07659953 -0.39347583 -0.31524807
0.5504429 -0.015657939 0.44804943 0.499352 -0.042363502 -0.35712597 -0.5790037 -0.2619353
-0.18216135 -0.23587206 -0.2517597 0.20886332 -0.17074198 0.17894807 -0.6283471 -0.16741557
0.38153094 -0.5097395 -0.08775906 -0.25049338 0.004239576 -0.11294251 0.3297957 0.19717143
0.24415042 -0.21061891 0.18669152 0.063583605 0.4910721 -0.1888199 0.14942959 0.6065393
0.04575651 -0.0415027 -0.29497582 0.089513235 0.2154329 -0.38045737 -0.34732974 -0.53142697
0.09696254 0.58857477 0.22919264 0.110469714 0.4686626 -0.36727768 0.56939733 0.4562649
0.102859646 -0.06970407 0.33651063 0.53613794 0.28561643 -0.072422676 0.24434832 0.35058153
00000000: 89a2 47be 169a 1e3f 912a 01bf 0bf9 73be
00000010: 68a6 af3c 8132 d5be f476 e53d 1ef9 d53e
00000020: 0dd7 a3bd d55a e2be 459d 87be 4ed7 8e3d
00000030: fe08 1a3f ee4b bdbe 58e8 9f3d 20d3 72be
00000040: 18e7 08be c0fb c4bd aed6 b73d cb60 cf3e
00000050: 8472 15bf ab9f 04bf f8f4 153f 7d7b c6be
00000060: 2c1d 003e 59d1 143f 6579 803d d8b9 27be
00000070: 16f4 f33e cd52 d43e c156 96bd 3da3 983e
00000080: b292 ae3d f8db 7bbe 0d0e f6be bdb5 f0be
00000090: 2c01 7abe 92fe 0fbe 8588 063e 309e 98be
000000a0: 5fed 95be 7f7a 6b3d ac0e 473e d87f d53d
000000b0: 25ff 39bd d679 843e d795 0cbf 91b4 073f
000000c0: 66f5 a4be 1cc3 3ebd 6334 003f 93d5 4c3e
000000d0: 0658 153f b184 5ebe 6e22 213e 0498 98bd
000000e0: 945c c33e c421 c4be 38fc d43d efb8 ef3d
000000f0: 2fa6 b43e 5aae ebbd 77ba 83be 28ac dbbc
00000100: 359a c1be e06a d5be 1f73 d0be f894 d1be
00000110: ce75 b43e 90b5 fa3e 4564 55be b4e9 013f
00000120: 7efe 173f 02ba f6bb b62c 15bf fe79 a2be
00000130: a8f2 073c 94ec 803e bed6 fb3e 06ff 4dbe
00000140: cbea 9ebd 8fae c03d 3807 6abe 80b1 b0be
00000150: f160 dc3d 5333 063f d028 e7be 6351 023e
00000160: d000 9c3e 8440 90bc 0dbe 373e 2055 e7be
00000170: a35b ef3e 3cb0 183e a3b5 b2be bb29 1bbf
00000180: 76b7 92be c6a8 153f b44d 99bd 457c 093f
00000190: 182a e13e 806e b23e 6c36 3b3e 8c2f 1d3e
000001a0: db6b 703e 942e 593d e878 fc3e 5dbc 15be
000001b0: d21d 81be 00a8 07bf 8500 103d ce10 fe3e
000001c0: 8e28 08bf 98b5 33bd 53b7 323e 8fb0 6d3e
000001d0: 068d a3be 426c 043e 2d69 91be c0a1 adbe
000001e0: a2fd 863d e115 0fbf b9c7 96bd 28ea f13e
000001f0: bff1 1dbe d0f6 613e 7094 103f 5c74 8dbe
00000200: 88ec 193f 497e 02bf 5af5 b0be 7c1e b83e
00000210: a3da 0f3f 9006 4fbe cc69 30be 393c edbe
00000220: f896 01bf 3049 15bf 749f 0b3f 80ec d9be
00000230: f971 cb3d cd0d 983e c917 1b3f e05c 03bf
00000240: 0b54 cbbc 986c acbe 9d60 bbbe 036b 063e
00000250: 517a 1b3e 23dd f5bc ef57 003f 31bf ad3e
00000260: 84b2 de3e 87d4 873e ea0d e13e 4b4f babe
00000270: ad39 d43e 7009 bdbe 80a4 b13d 6a7b ed3e
00000280: be71 9a3e 8123 f33e a699 673c 2813 0d3e
00000290: 4d6f 3dbe 6eab 90be 2ca2 2ebe 4b3a c0be
000002a0: cbc5 913e 4858 4dbe f15d 15bf 5935 d73e
000002b0: c1e6 e3be e146 f53e 0712 12bf 8801 a43e
000002c0: 76c2 01bf 48bc 08bf 46b2 693e e7d3 d93e
000002d0: a7ad 16bf 39b8 bb3e aa8b 11bf 99c6 b6be
000002e0: c416 773e 3343 923c b274 113e e27c 94be
000002f0: 32a9 993e ccfb fc3e 6e69 933e 1fb8 c4be
00000300: 85f5 f1be 6e67 eebe 6d37 b43e e295 ea3e
00000310: e5b9 8f3e 37e0 9cbd aa75 c9be 3268 a1be
00000320: d3e9 0c3f 1445 80bc bc66 e53e 11ab ff3e
00000330: 5a85 2dbd 37d9 b6be 9639 14bf 621c 86be
00000340: 8188 3abe 7288 71be a6e6 80be 44e0 553e
00000350: fcd6 2ebe 2a3e 373e 5bdb 20bf fd6e 2bbe
00000360: 0658 c33e 4a7e 02bf 06bb b3bd ab40 80be
00000370: 24ec 8a3b 674e e7bd fbda a83e 4fe7 493e
00000380: 9102 7a3e 7cac 57be 102c 3f3e 1f38 823d
00000390: cd6d fb3e 015a 41be 1204 193e 2946 1b3f
000003a0: 2e6b 3b3d bcfe 29bd 1207 97be b752 b73d
000003b0: 719a 5c3e 4fcb c2be 34d5 b1be 990b 08bf
000003c0: 4c94 c63d d6ac 163f 7ab1 6a3e f23d e23d
000003d0: 8bf4 ef3e d20b bcbe 06c4 113f 8e9b e93e
000003e0: 14a8 d23d 02c1 8ebd 1f4b ac3e 5640 093f
000003f0: 513c 923e 5752 94bd 7236 7a3e 6c7f b33e

encoder.layers.0.attention.w_v.bias f4 [16]
-0.055420395 0.07556415 -0.19230983 0.11547809 -0.06552121 -0.14566186 0.029072292 0.11611043
0.18157956 -0.124649085 -0.09887217 0.040326923 0.05996865 0.07693992 0.10979509 -0.044080656
00000000: 7f00 63bd 61c1 9a3d deec 44be c77f ec3d
00000010: fc2f 86bd 6228 15be 0429 ee3c 4ecb ed3d
00000020: feef 393e 0548 ffbd 7e7d cabd d82d 253d
00000030: b0a1 753d ad92 9d3d 40dc e03d eb8d 34bd

encoder.layers.0.attention.w_concat.weight f4 [16, 16]
-0.229231 -0.23251492 0.13490847 -0.33087695 -0.47572246 -0.33192715 -0.35501188 -0.53075016
-0.35871792 0.2819244 0.55105233 -0.37216127 -0.06606335 -0.52119434 -0.031799786 0.5050823
-0.29315645 0.25690168 0.5165062 0.18691893 -0.2390751 -0.086084485 -0.46356878 0.19610447
0.14726532 -0.4306542 0.5100447 0.01940146 -0.5354478 0.16510162 -0.44925383 0.24427386
0.29588798 -0.08609493 -0.18015894 -0.026431635 -0.3426371 0.12773445 0.17457046 0.32632208
-0.2058093 -0.28672713 0.10096858 -0.55198574 -0.5024668 0.22957475 -0.4189868 -0.17551397
0.443587 0.48035216 0.27226552 -0.1050693 -0.12054385 -0.36065382 -0.5334787 -0.007828579
0.26788858 -0.09531376 -0.16798553 0.40256333 -0.04956694 -0.30492502 -0.4004597 -0.23852341
-0.32983026 0.11635342 -0.23044668 0.4238585 -0.3473787 -0.10933676 0.58840895 -0.17271908
0.0025113998 0.3377557 -0.19398281 0.5238147 -0.13264489 0.48821422 0.4923004 0.019773457
0.36942223 0.23942287 -0.028251946 0.4591125 0.38629657 -0.35746408 -0.2670153 -0.5751457
-0.08168005 -0.105936706 -0.27097666 -0.08701135 -0.2725658 -0.5210453 0.45924425 -0.31743497
0.06655285 -0.41803518 0.052983273 0.21404304 -0.44664988 -0.47658423 -0.5708825 0.13414639
0.28919998 -0.3033153 0.08403896 -0.23670122 -0.48907438 0.12091215 -0.41871294 0.27509478
-0.43602166 -0.55940557 0.60497123 0.44022113 0.06938713 0.49386722 -0.087835565 0.50360054
-0.58642423 0.519413 0.45312652 -0.10568682 0.17207974 -0.17396303 0.22802791 0.39034456
0.40306425 0.42104486 0.28215456 -0.0006452032 -0.52379996 -0.46807837 -0.61788213 -0.43297106
0.3662745 0.090427496 0.2746418 -0.33830538 0.49281538 -0.044326667 -0.35129163 -0.07408383
0.26366112 -0.51015675 0.16188096 0.32120404 -0.2029588 -0.101155 0.38356364 -0.43394196
0.43300667 0.51083314 0.35928768 -0.16292946 -0.28655434 0.5811229 -0.22420757 -0.45292392
-0.4657867 0.25947043 -0.31078345 0.35962534 0.334156 0.015574084 -0.10355922 -0.30349424
-0.32519683 0.1846174 0.3216097 0.4949714 0.31208223 -0.16164768 -0.06788698 -0.0074952864
-0.12161742 -0.47382504 0.45486626 0.32829082 0.4900018 -0.3727641 0.19253974 -0.07486832
0.14137556 0.27117148 0.070853375 0.06489743 -0.033296 -0.5942755 0.028941449 -0.5643573
-0.09514894 -0.4443787 0.1606273 0.49701676 0.10397803 -0.43730518 0.51827216 -0.32940713
-0.14222783 -0.2081782 0.128875 -0.54716736 -0.56476086 -0.46588182 -0.34028423 0.54018956
0.05030614 -0.48412636 -0.055120837 -0.45960426 0.4235648 0.08370227 0.45108658 0.39359745
0.56156266 0.20600559 -0.31698024 0.41418263 0.2552947 0.5850566 0.1662549 0.42911142
0.5626215 0.43503505 -0.42934126 -0.33790076 0.09332536 -0.19693847 0.345253 0.52188504
0.011075171 -0.04621397 0.5059503 0.3486978 0.19433592 0.5561076 -0.22970583 0.2122298
-0.3091356 -0.3406324 0.03706587 -0.13891822 -0.28104678 0.066801034 -0.44022843 0.48396766
0.073565744 -0.30479336 0.027630286 -0.27885565 0.46028063 -0.061015327 -0.014773591 0.60506094
00000000: 88bb 6abe 6418 6ebe 7225 0a3e b468 a9be
00000010: e591 f3be 5bf2 a9be 1ec4 b5be 3edf 07bf
00000020: e0a9 b7be 6558 903e c411 0d3f ec8b bebe
00000030: 394c 87bd fe6c 05bf 7e40 02bd 134d 013f
00000040: 9a18 96be 9e88 833e c039 043f ad67 3f3e
00000050: 1ad0 74be 104d b0bd e358 edbe 9ccf 483e
00000060: b8cc 163e b57e dcbe 4a92 023f d0ef 9e3c
00000070: 1b13 09bf 6610 293e 9904 e6be ed22 7a3e
00000080: a17e 973e 8a52 b0bd 967b 38be 2887 d8bc
00000090: 216e afbe d2cc 023e 99c2 323e b013 a73e
000000a0: acbf 52be e6cd 92be 9dc8 ce3d f04e 0dbf
000000b0: aaa1 00bf a515 6b3e 7085 d6be efb9 33be
000000c0: d61d e33e b8f0 f53e 6366 8b3e 932e d7bd
000000d0: b2df f6bd 9ea7 b8be 0f92 08bf 7143 00bc
000000e0: b128 893e dc33 c3bd 6604 2cbe c81c ce3e
000000f0: b406 4bbd 221f 9cbe 0e09 cdbe 7b3f 74be
00000100: 83df a8be b44a ee3d 37fa 6bbe fb03 d93e
00000110: 9fdb b1be f4eb dfbd f8a1 163f 45dd 30be
00000120: 4c96 243b 51ee ac3e 6ea3 46be b818 063f
00000130: 10d4 07be 37f7 f93e cc0e fc3e f2fb a13c
00000140: e924 bd3e 452b 753e a070 e7bc cb10 eb3e
00000150: aac8 c53e 8805 b7be 3bb6 88be c03c 13bf
00000160: df47 a7bd 58f5 d8bd 74bd 8abe 0233 b2bd
00000170: bf8d 8bbe 3a63 05bf 1022 eb3e d686 a2be
00000180: dc4c 883d b508 d6be fd04 593d 192e 5b3e
00000190: 4baf e4be d902 f4be 5b25 12bf ac5d 093e
000001a0: 0512 943e 254c 9bbe 9e1c ac3d ce61 72be
000001b0: f567 fabe caa0 f73d 8b61 d6be 39d9 8c3e
000001c0: 3b3e dfbe 3435 0fbf 65df 1a3f aa64 e13e
000001d0: d71a 8e3d 2adc fc3e 22e3 b3bd f7eb 003f
000001e0: e61f 16bf 40f8 043f 3300 e83e 5572 d8bd
000001f0: ac35 303e 5d23 32be 2680 693e 3edb c73e
00000200: 705e ce3e 3193 d73e 9076 903e db22 29ba
00000210: c117 06bf f8a7 efbe 862d 1ebf 62ae ddbe
00000220: 5588 bb3e 0d32 b93d da9d 8c3e 5d36 adbe
00000230: 4c52 fc3e e18f 35bd 7fdc b3be 43b9 97bd
00000240: 97fe 863e a299 02bf 1fc4 253e db74 a43e
00000250: 6fd4 4fbe 5a2a cfbd 7462 c43e a42d debe
00000260: 0db3 dd3e f6c5 023f 8ef4 b73e fbd6 26be
00000270: 40b7 92be 78c4 143f ab96 65be a5e5 e7be
00000280: 987b eebe 4fd9 843e 021f 9fbe d020 b83e
00000290: 7f16 ab3e 712a 7f3c db16 d4bd 9963 9bbe
000002a0: 3380 a6be 580c 3d3e 07aa a43e e46c fd3e
000002b0: 3ec9 9f3e f886 25be 5408 8bbd 059b f5bb
000002c0: 8e12 f9bd 3299 f2be 3be4 e83e bc15 a83e
000002d0: 84e1 fa3e f0da bebe 2329 453e 9054 99bd
000002e0: c1c4 103e fdd6 8a3e 931b 913d f2e8 843d
000002f0: 6361 08bd 7022 18bf 9e16 ed3c b879 10bf
00000300: 73dd c2bd 9b85 e3be 7c7b 243e fb78 fe3e
00000310: 6ff2 d43d 77e6 dfbe 7cad 043f 0da8 a8be
00000320: 2ca4 11be ab2c 55be cff7 033e 2913 0cbf
00000330: 2b94 10bf 1088 eebe bc39 aebe dd49 0a3f
00000340: d00d 4e3d 69df f7be 63c6 61bd 4051 ebbe
00000350: 7cdd d83e 196c ab3d d2f4 e63e 9b85 c93e
00000360: 92c2 0f3f 21f3 523e 3c4b a2be bf0f d43e
00000370: fdb5 823e 45c6 153f b93e 2a3e 7eb4 db3e
00000380: f607 103f eabc de3e 9ed2 dbbe 5401 adbe
00000390: 5e21 bf3d 3daa 49be 00c5 b03e 429a 053f
000003a0: a274 353c dc4a 3dbd f585 013f 8588 b23e
000003b0: ffff 463e 115d 0e3f 0138 6bbe c552 593e
000003c0: 0547 9ebe 5f67 aebe 62d2 173d 9440 0ebe
000003d0: 5de5 8fbe fbce 883d 9f65 e1be 9cca f73e
000003e0: a3a9 963d e00d 9cbe e958 e23c 2bc6 8ebe
000003f0: e7a9 eb3e 35eb 79bd ef0c 72bc 46e5 1a3f

encoder.layers.0.attention.w_concat.bias f4 [16]
0.010780649 0.10490994 -0.082131706 0.08803892 -0.071814775 -0.0134116905 -0.18129656 -0.04785973
-0.10995835 -0.07354545 -0.14107452 -0.17639817 0.009788389 0.14158131 0.19008753 0.12101933
00000000: 52a1 303c 06db d63d ab34 a8bd c04d b43d
00000010: a013 93bd b5bc 5bbc cea5 39be 9008 44bd
00000020: d831 e1bd ff9e 96bd d775 10be b9a1 34be
00000030: 7b5f 203c b1fa 103e 4ea6 423e fcd8 f73d

encoder.layers.0.norm1.gamma f4 [16]
0.9977294 0.9660381 1.0011822 0.98267907 0.99238735 0.9901329 1.0126777 1.0185134
1.0004334 1.0072024 1.0094026 0.98369557 0.9881677 0.97705466 1.0038121 1.0011109
00000000: 326b 7f3f 464e 773f bd26 803f db90 7b3f
00000010: 190d 7e3f 5a79 7d3f 6c9f 813f a65e 823f
00000020: 340e 803f 02ec 803f 1b34 813f 79d3 7b3f
00000030: 8ff8 7c3f 4120 7a3f ea7c 803f 6724 803f

encoder.layers.0.norm1.beta f4 [16]
0.004051241 -0.009356355 -0.02092024 0.009784029 -0.015161594 0.0015505705 0.00648296 0.00921966
-0.017952265 -0.010122524 -0.0015964191 0.012852152 -0.006766584 0.0015960048 -0.0035704856 0.0011562514
00000000: 46c0 843b 664b 19bc ec60 abbc 314d 203c
00000010: 5668 78bc 833c cb3a 036f d43b 0f0e 173c
00000020: a110 93bc f1d8 25bc f03e d1ba d591 523c
00000030: 38ba ddbb 0931 d13a cffe 69bb 5c8d 973a

encoder.layers.0.ffn.linear1.weight f4 [64, 16]
-0.32145345 0.09753206 -0.06694125 0.08317962 -0.4978294 0.5097691 0.07398577 -0.56936485
0.06202343 0.5475398 -0.25927258 0.30799323 0.4581206 0.025389662 0.17411153 0.55623674
-0.19335067 -0.22088426 0.36717504 0.15231861 0.1787574 0.07990794 0.4304976 -0.5690603
-0.029811453 -0.120318 0.044963777 0.1869825 0.47127482 0.23122081 -0.21012378 0.32675686
-0.55787444 -0.17603663 0.2980542 -0.4410271 0.57405216 0.52049226 -0.19454025 0.20148061
-0.033198155 0.27125135 -0.55102986 0.5430273 -0.3422486 -0.38684592 0.28241953 0.117360435
0.12992269 0.04137679 -0.5703008 0.17229885 0.14730267 0.47692394 0.2905174 -0.052287523
-0.30645034 0.48037043 0.1447911 0.1697394 0.1429215 0.50084215 0.21814302 -0.5938617
0.3046568 -0.040458445 -0.46266976 0.28011417 -0.21171379 -0.26819956 -0.4913237 0.11902073
0.37640348 -0.25743562 0.068416335 -0.16376412 0.5366079 -0.13879734 0.028003078 -0.14557236
-0.26185888 0.21726209 0.5227055 -0.46483025 0.567952 -0.37033227 0.19390899 0.35837278
-0.12462317 0.46917665 0.4616719 -0.03457838 -0.20356832 0.50166166 -0.37825418 -0.16960558
0.58821744 0.37640986 -0.30283144 -0.37983075 0.0061271302 0.12911034 -0.047517717 0.27275193
0.028682 -0.3289192 0.3953032 0.22584201 -0.29194343 -0.2151196 0.4021112 0.2549627
0.083142616 0.004037829 0.23326147 0.013551529 -0.55324996 0.27055103 -0.33336163 0.05196948
-0.08123616 -0.5911266 0.048972577 -0.18786426 -0.051817033 -0.39205217 0.15145116 -0.37313646
-0.52800035 0.37982544 0.36582252 -0.418405 -0.49748623 0.50512534 0.11351758 -0.31390846
-0.35497084 0.09411377 -0.49294624 -0.16345628 -0.54088014 -0.51965076 -0.07220216 -0.28696573
0.06208334 -0.37148675 0.5780763 -0.083781876 0.22309886 0.5118053 0.10560528 0.575732
-0.012080057 0.6076663 0.49390706 0.048795458 0.28376508 -0.3456736 0.1496791 -0.119799465
0.21895315 0.2971028 0.052532114 -0.2496271 0.5384792 -0.3593326 0.54673314 -0.12965484
-0.28775817 -0.07657484 -0.24906349 -0.26523572 0.20328254 0.39563265 -0.15698636 0.03933116
-0.094643064 0.055159785 -0.2888453 -0.28656644 0.14734393 0.03903028 -0.05733786 0.46439308
-0.59463865 -0.5073465 -0.55103475 0.57751274 -0.5126676 0.39764398 -0.5467558 0.09363954
-0.07963736 -0.23250116 0.22912207 -0.106069826 0.39739323 0.53505254 -0.47165656 -0.567039
-0.56432015 -0.19166067 0.15085398 0.025190907 -0.24128734 0.26562205 0.015334863 -0.57720494
-0.46864393 0.4749536 -0.22127369 0.38336825 0.40797165 0.2580221 0.3256235 0.23979932
-0.099194705 -0.1901537 0.0977325 -0.41734943 -0.2948657 -0.58072126 0.053590193 0.40522194
0.327873 0.15373391 -0.020850701 0.0514851 0.026990393 0.4519791 0.21463388 0.48882437
-0.10108258 0.24782905 -0.085024156 0.3595132 -0.52981627 -0.068962574 -0.37792835 0.0050652744
-0.49330562 -0.25968382 -0.14098875 -0.19767852 0.5241949 0.056776714 -0.23126103 -0.306074
0.070668906 0.21942425 0.30398637 0.4438421 0.19916928 0.09724731 -0.3069402 0.36893663
00000000: 8c95 a4be e4be c73d 7e18 89bd 145a aa3d
00000010: 7fe3 febe 3a80 023f da85 973d e5c1 11bf
00000020: 480c 7e3d 912b 0c3f 60bf 84be 4ab1 9d3e
00000030: c98e ea3e fbfd cf3c 4b4a 323e 8865 0e3f
00000040: b8fd 45be 7c2f 62be 5efe bb3e 69f9 1b3e
00000050: 2e0c 373e c6a6 a33d 2e6a dc3e f0ad 11bf
00000060: 2637 f4bc 4969 f6bd f02b 383d 5778 3f3e
00000070: ef4a f13e 26c5 6c3e b02a 57be ad4c a73e
00000080: dcd0 0ebf f242 34be 8f9a 983e 4ece e1be
00000090: 15f5 123f fb3e 053f 8f35 47be ef50 4e3e
000000a0: cafa 07bd 75e1 8a3e 4b10 0dbf d603 0b3f
000000b0: 353b afbe ab10 c6be 4b99 903e ab5a f03d
000000c0: 740a 053e b57a 293d 3cff 11bf 1c6f 303e
000000d0: 83d6 163e 602f f43e b2be 943e 712b 56bd
000000e0: 0fe7 9cbe 1df3 f53e 1e44 143e 2ad0 2d3e
000000f0: 045a 123e 3137 003f e260 5f3e 5207 18bf
00000100: fafb 9b3e c1b7 25bd 0de3 ecbe 206b 8f3e
00000110: 80cb 58be 7451 89be c88e fbbe 24c1 f33d
00000120: f5b7 c03e 9ace 83be dd1d 8c3d c8b1 27be
00000130: 235f 093f e420 0ebe b666 e53c ec10 15be
00000140: 5e12 86be f479 5e3e 07d0 053f 3bfe edbe
00000150: 4d65 113f 319c bdbe 1490 463e a37c b73e
00000160: 6f3a ffbd ec37 f03e 4260 ec3e 0fa2 0dbd
00000170: 3774 50be e66c 003f 88aa c1be 16ad 2dbe
00000180: 6b95 163f cbb8 c03e b90c 9bbe 2d79 c2be
00000190: 18c6 c83b 8035 043e f0a1 42bd 24a6 8b3e
000001a0: 83f6 ea3c 1968 a8be 2e65 ca3e 2143 673e
000001b0: 9c79 95be 5048 5cbe 85e1 cd3e 798a 823e
000001c0: ad46 aa3d c44f 843b 18dc 6e3e 3b07 5e3c
000001d0: caa1 0dbf aa85 8a3e 60ae aabe f3dd 543d
000001e0: 255f a6bd 1354 17bf 7897 483d 7d5f 40be
000001f0: 193e 54bd 10bb c8be 0316 1b3e be0b bfbe
00000200: 082b 07bf 7b78 c23e 174d bb3e 2e39 d6be
00000210: 84b6 febe e54f 013f e87b e83d 9cb8 a0be
00000220: bdbe b5be b8be c03d 7363 fcbe 1561 27be
00000230: 1f77 0abf d507 05bf bade 93bd 2ced 92be
00000240: 1a4b 7e3d 8333 bebe cffc 133f d595 abbd
00000250: 0774 643e ac05 033f 9547 d83d 2c63 133f
00000260: 6eeb 45bc 0590 1b3f 63e1 fc3e bfdd 473d
00000270: a849 913e 21fc b0be 7a45 193e 6c59 f5bd
00000280: 4135 603e dc1d 983e ea2b 573d 3f9e 7fbe
00000290: c6d9 093f 71fa b7be b4f6 0b3f 3dc4 04be
000002a0: 0a55 93be 45d3 9cbd 800a 7fbe facc 87be
000002b0: 4c29 503e 5d90 ca3e 08c1 20be b619 213d
000002c0: 39d4 c1bd 3aef 613d 88e3 93be d6b8 92be
000002d0: 54e1 163e 37de 1f3d 1bdb 6abd eec4 ed3e
000002e0: 3d3a 18bf 76e1 01bf 9d10 0dbf e0d7 133f
000002f0: 2f3e 03bf fe97 cb3e 30f8 0bbf 16c6 bf3d
00000300: ea18 a3bd c914 6ebe fa9e 6a3e 233b d9bd
00000310: 2077 cb3e 34f9 083f f87c f1be 7829 11bf
00000320: 4977 10bf b242 44be 7779 1a3e 295d ce3c
00000330: 0714 77be 9dff 873e 143f 7b3c b4c3 13bf
00000340: 19f2 efbe 1e2d f33e 9295 62be d848 c43e
00000350: a9e1 d03e 791b 843e 20b8 a63e f48d 753e
00000360: 9826 cbbd a7b7 42be fa27 c83d d3ae d5be
00000370: a3f8 96be 26aa 14bf 6481 5b3d 4079 cf3e
00000380: f8de a73e 6c6c 1d3e 17cf aabc 0ae2 523d
00000390: f51a dd3c ce69 e73e fcc8 5b3e 3047 fa3e
000003a0: 6204 cfbd e6c6 7d3e 2521 aebd 1d12 b83e
000003b0: 0aa2 07bf 403c 8dbd d37f c1be 9afa a53b
000003c0: 8e92 fcbe 47f5 84be 5b5f 10be 3d6c 4abe
000003d0: a331 063f b38e 683d b1cf 6cbe bbb5 9cbe
000003e0: dcba 903d c0b0 603e 1aa4 9b3e 463f e33e
000003f0: 08f3 4b3e 9929 c73d 4427 9dbe 43e5 bc3e

encoder.layers.0.ffn.linear1.bias f4 [64]
-0.05214876 0.07937649 0.19354965 0.07465319 0.16832319 0.16457629 0.0769178 0.08266971
0.06499432 -0.0059910533 0.20728223 0.2410297 0.07913433 -0.01587295 0.22927225 -0.18798724
0.18480414 0.11966889 0.16905715 -0.0024776224 -0.20102467 0.17866382 -0.104115404 0.05703119
0.13494343 -0.22928944 0.02012671 -0.08288778 0.18108511 -0.15938887 0.15672916 0.15310071
0.12956844 0.24255322 0.03650596 -0.23160937 0.18775499 0.02166934 -0.0017698284 -0.21715736
-0.060358632 -0.117841 0.2214809 0.1600677 0.1909679 0.16292177 -0.16868332 -0.13317987
-0.07404555 -0.08546216 0.17414203 0.080655105 0.1858333 -0.0044412613 -0.2269657 -0.09181671
0.16888286 0.14107259 0.06903792 -0.06851462 -0.23627768 -0.10574379 0.13516226 -0.10625019
00000000: f099 55bd 2490 a23d e131 463e c6e3 983d
00000010: ea5c 2c3e b086 283e 1487 9d3d bd4e a93d
00000020: be1b 853d 9950 c4bb cb41 543e 7dd0 763e
00000030: 2e11 a23d fd07 82bc 58c6 6a3e ba7f 40be
00000040: 4c3d 3d3e f714 f53d 511d 2d3e 9b5f 22bb
00000050: 69d9 4dbe a6f3 363e 753a d5bd 8999 693d
00000060: 9c2e 0a3e daca 6abe c5e0 a43c 12c1 a9bd
00000070: 606e 393e d636 23be 9c7d 203e 6fc6 1c3e
00000080: 97ad 043e df5f 783e 4687 153d 022b 6dbe
00000090: d842 403e e683 b13c 96f9 e7ba 805e 5ebe
000000a0: 9d3a 77bd 9f56 f1bd e4cb 623e cae8 233e
000000b0: 178d 433e f7d4 263e 52bb 2cbe 4e60 08be
000000c0: 31a5 97bd c906 afbd 4a52 323e 812e a53d
000000d0: 164b 3e3e 0088 91bb b269 68be 660a bcbd
000000e0: a1ef 2c3e 5575 103e c163 8d3d 6551 8cbd
000000f0: c7f2 71be 3390 d8bd fa67 0a3e b399 d9bd

encoder.layers.0.ffn.linear2.weight f4 [16, 64]
-0.07498727 -0.11629635 -0.11334216 -0.07467369 0.088625126 -0.066523455 -0.14335246 0.19860817
-0.11421734 0.27161825 0.15953442 0.29894343 0.21411893 0.14524251 -0.15997045 -0.25281107
-0.22715902 0.10298507 -0.24651499 -0.009387077 0.25282818 -0.06795993 -0.07746179 -0.14726059
0.026928766 -0.10455759 0.07099697 -0.24568263 -0.06523621 0.17676409 -0.10279619 0.08054201
-0.21957855 0.020579485 -0.3060973 -0.2941939 -0.0736738 -0.051176433 0.1540774 0.28404832
-0.23205654 0.09547754 -0.10976398 -0.12972158 0.19402073 0.113806665 0.014881637 0.11174926
-0.02048609 -0.29448807 -0.27864707 -0.102662176 -0.27121937 0.21213205 -0.05792278 -0.25541127
-0.036579993 -0.14586425 -0.12344717 0.20763937 0.007748553 0.24247031 -0.24888128 0.17226718
-0.027330369 -0.22282106 -0.080698974 0.21401343 -0.20528746 -0.088466235 0.09440591 0.23363796
0.060183156 0.07704389 -0.19229123 0.13863154 0.022578329 -0.122735925 0.23988909 0.23017281
0.09169546 -0.19319902 0.24086696 0.039607663 -0.09629896 -0.110491194 -0.10450493 -0.21276371
-0.10319476 0.2781664 0.19831821 0.14774734 -0.1788013 0.12978345 0.055878725 0.04163169
0.09460598 -0.17612246 0.0561864 0.06751892 -0.2734744 -0.008568369 0.05746445 -0.0631244
-0.070741236 -0.009140016 0.2634624 -0.07357493 -0.24039401 -0.061338983 -0.15366437 0.08224261
0.07670231 -0.25268304 0.06465716 0.22680236 0.24504995 -0.004826799 -0.053865466 -0.28502777
-0.28386846 0.22071345 -0.056632053 0.14054655 0.10721296 -0.18173522 -0.26579934 0.2661412
-0.20874359 0.0785456 0.060871866 0.06923416 0.16958581 -0.14505838 -0.25204083 -0.13358545
-0.27420864 0.10989335 -0.18821004 -0.18888491 -0.28056028 0.096249655 -0.23980476 -0.08572508
-0.019632202 0.22525981 0.00668373 -0.016982852 0.001677489 0.17323825 -0.1081648 -0.26563907
0.21474056 0.15758543 0.22835603 0.084737696 -0.29222596 0.102273986 -0.1286759 -0.11620927
0.21754475 0.17727284 0.2375336 0.10628954 0.29010516 -0.24887533 -0.27885735 0.15946941
0.18028745 -0.09937929 -0.031114724 0.20604178 -0.24438708 -0.29603976 -0.07906985 0.14332137
0.18863231 -0.15363722 -0.16136941 0.116331175 0.26797175 -0.07439448 -0.15779415 -0.12506154
-0.17968452 -0.2208857 0.15132847 -0.017814517 0.06684294 0.10202302 0.21159838 -0.04545986
0.20430885 0.056606255 0.21721397 -0.13982847 -0.12260789 0.0752552 0.1909463 -0.055657312
-0.25959095 -0.29095742 -0.011466472 -0.06634861 -0.08856725 -0.13219693 0.007937725 -0.14852896
0.095964745 -0.197651 0.06016691 0.10846546 0.0062780613 0.24591282 0.14574908 0.20113178
-0.16578767 0.010356465 0.19443262 -0.15686868 -0.12313572 0.05737468 -0.17230171 -0.09793503
-0.013059909 0.30177033 -0.13468462 -0.29147238 0.19594443 0.18631181 -0.05390465 0.007962803
-0.2812474 -0.028127298 0.17944989 -0.18925613 -0.06504318 -0.20991427 -0.22020158 -0.21350025
0.103794426 0.057145063 0.08218309 0.07746801 0.27988514 0.07169705 0.19560646 -0.21295811
0.23967627 -0.016565133 -0.011398871 0.29410207 0.18566485 0.1630295 0.29210702 -0.03187499
00000000: ed92 99bd c82c eebd ef1f e8bd 85ee 98bd
00000010: 1781 b53d 733d 88bd fdca 12be f15f 4b3e
00000020: c8ea e9bd 8c11 8b3e fe5c 233e 1d0f 993e
00000030: fe41 5b3e 74ba 143e 4bcf 23be 7470 81be
00000040: 609c 68be d6e9 d23d 6d6e 7cbe 41cc 19bc
00000050: b272 813e 932e 8bbd 49a4 9ebd 7bcb 16be
00000060: b799 dc3c 4a22 d6bd dc66 913d 3a94 7bbe
00000070: 909a 85bd a501 353e cf86 d2bd 36f3 a43d
00000080: 33d9 60be 4f96 a83c c9b8 9cbe 95a0 96be
00000090: 4ae2 96bd 619e 51bd 77c6 1d3e c86e 913e
000000a0: 3ba0 6dbe ba89 c33d f0cb e0bd bcd5 04be
000000b0: 5fad 463e 7813 e93d 1cd2 733c ccdc e43d
000000c0: 72d2 a7bc 24c7 96be d4aa 8ebe 8c40 d2bd
000000d0: 44dd 8abe 2539 593e 7040 6dbd 44c5 82be
000000e0: e7d4 15bd 705d 15be dfd1 fcbd 6a9f 543e
000000f0: 93e7 fd3b 234a 783e bcda 7ebe cf66 303e
00000100: f0e3 dfbc 342b 64be 8145 a5bd 5626 5b3e
00000110: e036 52be c92d b5bd e357 c13d ca3e 6f3e
00000120: 9d82 763d 30c9 9d3d fee7 44be 6df5 0d3e
00000130: 30f6 b83c f95c fbbd 7ca5 753e 6cb2 6b3e
00000140: d4ca bb3d f7d5 45be d4a5 763e a53b 223d
00000150: 6438 c5bd 3549 e2bd ae06 d6bd bbde 59be
00000160: c657 d3bd d46b 8e3e ee13 4b3e 144b 173e
00000170: b017 37be f4e5 043e 17e1 643d fe85 2a3d
00000180: c8c0 c13d 7259 34be b623 663d 5c47 8a3d
00000190: d604 8cbe 5862 0cbc d85f 6b3d 5e47 81bd
000001a0: c8e0 90bd 01c0 15bc 8be4 863e 74ae 96bd
000001b0: d929 76be 963e 7bbd 315a 1dbe d06e a83d
000001c0: 1a16 9d3d ac5f 81be f96a 843d e13e 683e
000001d0: 60ee 7a3e 202a 9ebb 09a2 5cbd 29ef 91be
000001e0: 3557 91be b502 623e 03f7 67bd 6feb 0f3e
000001f0: 7892 db3d cc18 3abe da16 88be a943 883e
00000200: e1c0 55be 84dc a03d c754 793d a4ca 8d3d
00000210: e7a7 2d3e 2f8a 14be 7f0b 81be a0ca 08be
00000220: 1365 8cbe c40f e13d 22ba 40be 0c6b 41be
00000230: 99a5 8fbe 8a1e c53d 618f 75be a190 afbd
00000240: b6d3 a0bc 82aa 663e 3103 db3b 9f1f 8bbc
00000250: 31df db3a 5e65 313e 8285 ddbd d801 88be
00000260: f3e4 5b3e 135e 213e 2ad6 693e f58a ad3d
00000270: a49e 95be 0675 d13d 9dc3 03be 20ff edbd
00000280: 0dc4 5e3e 0387 353e 023c 733e 55ae d93d
00000290: aa88 943e 2dd9 7ebe 64c6 8ebe f34b 233e
000002a0: 469d 383e 5f87 cbbd 4ee4 febc 9efc 523e
000002b0: 9b40 7abe 8692 97be 60ef a1bd d6c2 123e
000002c0: d428 413e 1353 1dbe 063e 25be 0a3f ee3d
000002d0: 9833 893e 225c 98bd ca94 21be 2210 00be
000002e0: 38ff 37be dc2f 62be daf5 1a3e c0ef 91bc
000002f0: f4e4 883d 72f1 d03d 3fad 583e 1e34 3abd
00000300: 5736 513e f6db 673d 576d 5e3e 322f 0fbe
00000310: d819 fbbd 661f 9a3d 6d87 433e ecf8 63bd
00000320: 1be9 84be 5ff8 94be dfdd 3bbc c8e1 87bd
00000330: bf62 b5bd a25e 07be 3b0d 023c fa17 18be
00000340: 2a89 c43d 0665 4abe 9471 763d 2423 de3d
00000350: 32b8 cd3b 92d0 7b3e 3f3f 153e 7df5 4d3e
00000360: 3ec4 29be 2aae 293c 5819 473e 2fa2 20be
00000370: 952e fcbd b601 6b3d dc6f 30be 2992 c8bd
00000380: 3bf9 55bc a481 9a3e c4ea 09be de3b 95be
00000390: a8a5 483e 86c8 3e3e 1fcb 5cbd 6b76 023c
000003a0: a9ff 8fbe 386b e6bc b6c1 373e 5ccc 41be
000003b0: 5c35 85bd c4f3 56be 867c 61be cf9f 5abe
000003c0: 2c92 d43d f110 6a3d 9c4f a83d 8ca7 9e3d
000003d0: 1b4d 8f3e e7d5 923d 0f4d 483e b111 5abe
000003e0: b26d 753e 9ab3 87bc 55c2 3abc 8c94 963e
000003f0: ed1e 3e3e 35f1 263e 0d8f 953e 598f 02bd

encoder.layers.0.ffn.linear2.bias f4 [16]
-0.0915705 0.044488426 0.06565195 0.118166715 -0.12951934 0.117025554 0.094427176 0.1304691
0.064169526 -0.06721309 0.098608285 0.122486405 -0.054599036 -0.029164063 0.10405345 0.104280494
00000000: 5089 bbbd 7f39 363d 8874 863d 6401 f23d
00000010: b8a0 04be 18ab ef3d 0963 c13d b199 053e
00000020: 506b 833d 04a7 89bd 24f3 c93d 27da fa3d
00000030: 3da3 5fbd 79e9 eebc fa19 d53d 0391 d53d

encoder.layers.0.norm2.gamma f4 [16]
0.9971362 0.9721044 0.9909224 0.9843008 1.000907 0.9937359 1.0009193 0.99208766
0.99545324 1.0032828 0.98538786 0.96582144 0.97003454 0.98063606 1.0039637 0.9819586
00000000: 5144 7f3f d5db 783f 17ad 7d3f 23fb 7b3f
00000010: b81d 803f 7a65 7e3f 201e 803f 75f9 7d3f
00000020: 06d6 7e3f 926b 803f 6142 7c3f 1340 773f
00000030: 2f54 783f f70a 7b3f e281 803f a461 7b3f

encoder.layers.0.norm2.beta f4 [16]
-0.0019368115 -0.001533144 -0.0034838752 0.0077155186 -0.0053962963 -0.004320003 0.0011881761 0.010898206
-0.0020376528 -0.0015800155 0.0016705538 0.011998661 -0.015175833 -0.00579249 0.008028988 -0.006297953
00000000: 9cdc fdba c7f3 c8ba ba51 64bb 76d2 fc3b
00000010: 6ad3 b0bb d08e 8dbb 93bc 9b3a 648e 323c
00000020: 248a 05bb 8618 cfba 7cf6 da3a 0896 443c
00000030: 0fa4 78bc eece bdbb 048c 033c 0f5f cebb

encoder.layers.1.attention.w_q.weight f4 [16, 16]
0.04884516 0.23225796 -0.11452755 0.1451847 -0.5066971 0.053437658 0.02217613 -0.016356023
-0.026615547 0.15366833 -0.61297756 -0.09921595 0.3930841 0.117211476 -0.3179569 -0.32898697
0.112808935 -0.47504205 0.4447593 0.30378398 -0.55018693 0.43095702 0.16855161 0.44447216
0.09478709 0.51838976 -0.45643434 -0.59265274 -0.19922788 -0.16218267 0.5960219 0.5636501
-0.04781363 0.09935051 0.47363952 0.16434033 -0.30045146 0.033587493 -0.5715758 -0.4446701
-0.0652961 0.5074654 -0.2691331 -0.12457318 0.5899106 -0.569623 0.5288615 -0.2579315
-0.58937323 0.20525134 0.47663915 0.15084124 -0.505407 -0.3493618 -0.56788176 -0.5886577
-0.29975185 0.08246666 0.31695634 -0.042017337 0.35130545 0.45498642 -0.45366853 -0.39261496
0.0042722034 0.43444717 0.21105242 0.039384563 -0.2632577 0.40082845 -0.4215377 -0.17353396
-0.03304271 0.11933474 0.33639356 -0.011311268 -0.34082004 0.48287424 -0.29725602 0.12326402
-0.12526426 0.082458586 -0.34186783 0.17503515 0.36122194 0.16102041 -0.5107747 -0.35709068
-0.064200826 -0.28150293 0.27505317 0.19263539 0.22265302 -0.5299439 0.5854974 -0.3461241
0.13511705 0.29197466 -0.1974362 0.23679501 0.3146231 -0.45134354 0.059697643 0.017598562
0.1878412 -0.5863638 -0.49805576 0.34654236 -0.22594585 0.42883223 -0.38695407 0.46437252
-0.03824697 0.4103222 0.042066358 -0.5016653 -0.5677328 0.2950993 0.44152123 -0.58604014
-0.17051479 0.11998284 0.27095753 0.42568192 0.36743948 0.25075504 -0.16727287 0.34203577
0.30588335 -0.22492433 -0.05069003 0.34360322 0.5118237 -0.2401752 -0.36044276 0.062358797
0.37568006 0.14083843 -0.4084535 -0.51970106 -0.09964909 0.21197486 -0.073191606 0.07983196
0.5513176 -0.15716599 -0.53788203 0.42645055 0.10147889 0.47115237 -0.5404358 0.30564258
0.50837165 -0.12725292 -0.35931894 -0.56427467 -0.026882574 -0.4658767 -0.5396611 0.45747262
0.5695127 0.4880284 -0.32066566 0.17995559 -0.31429943 -0.54315716 -0.18730335 0.23390485
-0.15510704 -0.24568197 0.08776293 0.22695456 -0.15298367 -0.18436223 -0.08570343 -0.5828221
0.39879376 -0.46826142 0.27389693 -0.25052038 0.16470933 -0.6049579 0.40029112 -0.1999662
0.07471864 0.47365373 0.43890858 0.038398527 -0.53535897 -0.050573733 0.021795608 0.30126473
0.33150044 -0.117351316 0.501512 -0.25042096 -0.0711479 0.47852594 0.029067151 -0.270756
0.20242983 0.29852524 -0.31113312 0.06041351 -0.26548213 -0.09448574 -0.43567085 -0.24606538
-0.20712948 0.5567347 -0.3279358 -0.4458961 0.41022637 0.3773233 -0.32963258 0.18154751
0.0006772924 0.5827053 0.58695656 -0.5103184 -0.38263047 0.55791855 0.059734974 -0.3384976
-0.32066402 -0.1629319 -0.0055433433 -0.1566543 0.52207106 -0.32948452 0.1729857 -0.053996
0.37382665 -0.5019004 -0.13234183 -0.24414816 0.20698501 0.443773 -0.2129623 0.026222425
0.25002074 0.2065917 0.2398117 -0.42344996 0.06853338 -0.546271 -0.060359117 -0.5420751
0.24236794 0.19348451 0.29077196 -0.5261984 0.287747 -0.26021045 0.14666611 -0.22227359
00000000: dd11 483d 08d5 6d3e 6c8d eabd 4cab 143e
00000010: e7b6 01bf 72e1 5a3d b7aa b53c 11fd 85bc
00000020: d908 dabc 3b5b 1d3e 19ec 1cbf bb31 cbbd
00000030: 5242 c93e 920c f03d 3fcb a2be fb70 a8be
00000040: 5f08 e73d b638 f3be 7eb7 e33e 9389 9b3e
00000050: 0dd9 0cbf 66a6 dc3e cb98 2c3e db91 e33e
00000060: bc1f c23d 31b5 043f c3b1 e9be 17b8 17bf
00000070: 6502 4cbe 3713 26be e494 183f 5f4b 103f
00000080: 3ad8 43bd 4878 cb3d e180 f23e d548 283e
00000090: c6d4 99be 0a93 093d cb52 12bf cdab e3be
000000a0: f6b9 85bd 41e9 013f d0cb 89be 3920 ffbd
000000b0: 6204 173f d0d2 11bf 7863 073f 990f 84be
000000c0: 2ae1 16bf 682d 523e 0c0a f43e 2076 1a3e
000000d0: 5a62 01bf 8ddf b2be b360 11bf 45b2 16bf
000000e0: 1379 99be 48e4 a83d 1a48 a23e 5f1a 2cbd
000000f0: 4fde b33e fbf3 e83e 3e47 e8be d404 c9be
00000100: d7fd 8b3b dc6f de3e 201e 583e b551 213d
00000110: b7c9 86be 6339 cd3e cad3 d7be e3b2 31be
00000120: cb57 07bd c665 f43d c73b ac3e e652 39bc
00000130: f77f aebe 4b3b f73e f131 98be d971 fc3d
00000140: 4645 00be 0ce0 a83d 4d09 afbe 6a3c 333e
00000150: 15f2 b83e 89e2 243e 21c2 02bf 97d4 b6be
00000160: b97b 83bd 2721 90be c5d3 8c3e 3642 453e
00000170: 27ff 633e 67aa 07bf 28e3 153f 2e37 b1be
00000180: 205c 0a3e b47d 953e b72c 4abe 647a 723e
00000190: 4716 a13e 8016 e7be 8485 743d dc2a 903c
000001a0: 7259 403e f01b 16bf 2a01 ffbe 006e b13e
000001b0: 595e 67be e68f db3e d81e c6be 3cc2 ed3e
000001c0: dba8 1cbd c015 d23e c64d 2c3d 236d 00bf
000001d0: f056 11bf 4117 973e 120f e23e ba06 16bf
000001e0: 6e9b 2ebe 90b9 f53d f2ba 8a3e fbf2 d93e
000001f0: 0721 bc3e f762 803e 9449 2bbe 501f af3e
00000200: be9c 9c3e 9052 66be 59a0 4fbd c3ec af3e
00000210: e106 033f 7df0 75be f48b b8be f06b 7f3d
00000220: 2359 c03e f337 103e d120 d1be 210b 05bf
00000230: d214 ccbd f00f 593e 7be5 95bd f07e a33d
00000240: 2623 0d3f 1ff0 20be a3b2 09bf ba57 da3e
00000250: 2ad4 cf3d e23a f13e 005a 0abf 2f7d 9c3e
00000260: a524 023f 974e 02be a7f8 b7be 4e74 10bf
00000270: d838 dcbc 6487 eebe 3b27 0abf da39 ea3e
00000280: 96cb 113f dcde f93e 4a2e a4be 4746 383e
00000290: dbeb a0be 590c 0bbf 73cc 3fbe c184 6f3e
000002a0: 61d4 1ebe 0e94 7bbe 0dbd b33d c766 683e
000002b0: c0a7 1cbe 74c9 3cbe 4885 afbd d433 15bf
000002c0: b22e cc3e f6bf efbe 383c 8c3e 3544 80be
000002d0: 90a9 283e 85de 1abf f5f2 cc3e f1c3 4cbe
000002e0: 1606 993d be82 f23e a0b8 e03e c647 1d3d
000002f0: 490d 09bf 6726 4fbd b48c b23c 5f3f 9a3e
00000300: 6dba a93e e355 f0bd 1763 003f 2d37 80be
00000310: fdb5 91bd 5a01 f53e 3c1e ee3c 88a0 8abe
00000320: c449 4f3e 4dd8 983e d74c 9fbe 2874 773d
00000330: 46ed 87be bd81 c1bd 4010 dfbe 90f8 7bbe
00000340: c019 54be 2a86 0e3f 34e7 a7be 7e4c e4be
00000350: 3109 d23e 8530 c13e 9ac5 a8be 97e7 393e
00000360: 538c 313a 2d2c 153f c942 163f 3aa4 02bf
00000370: 24e8 c3be c0d3 0e3f a9ac 743d 8f4f adbe
00000380: 132e a4be 9fd7 26be efa4 b5bb fc69 20be
00000390: 73a6 053f 32b2 a8be 2a23 313e e92a 5dbd
000003a0: 3566 bf3e 8b7c 00bf 9e84 07be fa01 7abe
000003b0: e1f3 533e 3736 e33e ca12 5abe 69d0 d63c
000003c0: b802 803e c68c 533e 3391 753e 6fce d8be
000003d0: 3b5b 8c3d 6bd8 0bbf 1f3b 77bd 6fc5 0abf
000003e0: 4d2f 783e ce20 463e 10e0 943e f0b4 06bf
000003f0: 9353 933e 4e3a 85be a42f 163e b09b 63be

encoder.layers.1.attention.w_q.bias f4 [16]
-0.1886168 -0.023416728 0.15322198 0.090660386 -0.18266569 0.028296709 -0.25852123 -0.10831855
0.17425057 -0.10701404 0.16010237 -0.19959587 0.21461228 0.11498045 0.15523694 0.060462605
00000000: c324 41be 70d4 bfbc 39e6 1c3e 27ac b93d
00000010: b70c 3bbe 80ce e73c e55c 84be 1ed6 ddbd
00000020: be6e 323e 2d2a dbbd e0f1 233e dc62 4cbe
00000030: 52c3 5b3e df7a eb3d 6ff6 1e3e a3a7 773d
