Trans_Prediction/model_saved/ratioMergedPrs/TM_ratioMergedPrs_delay_size_7_delay_3.pth (torch, 385400 bytes, 337 tensors)

encoder.layers.0.attention.w_q.weight f4 [16, 16]
000000 b8 bc ae 3e e0 80 e7 bc 7a 2b 34 be f1 95 b4 3c
       0.34128356 -0.028259695 -0.1759471 0.022044154
000010 38 5f f1 3d a2 b8 9b 3c fb 6c 07 3f 40 7d c6 3e
       0.1178574 0.019008938 0.52900666 0.38767433
000020 45 b2 9e be 65 20 1a bf 44 8b b7 3e b7 b2 06 bf
       -0.30995384 -0.6020568 0.3584844 -0.5261645
000030 cf cc 2e 3e 2a 0e 0c bf 77 d5 fe bd 4c a0 07 bd
       0.17070316 -0.5470911 -0.12443059 -0.033111855
000040 c5 1a f9 be 44 01 0a bf 74 a7 43 3e b7 ef 8e bd
       -0.48653236 -0.5390818 0.19106847 -0.06979316
000050 24 63 83 3e e5 90 dc 3e 0d 0f 02 3f 47 00 54 3c
       0.25661576 0.43079296 0.50804216 0.012939519
000060 7a 63 09 3f 58 cd 94 3e b7 72 d9 be 60 1a c5 be
       0.53667414 0.29062915 -0.42470333 -0.38496685
000070 62 54 2e 3e fa cc bc be 82 66 30 be 15 26 34 be
       0.17024377 -0.36875135 -0.17226604 -0.17592652
000080 09 ad fc be 1f 57 e7 be 23 b0 fb 3e a9 4f 9c bd
       -0.49350765 -0.45183656 0.4915782 -0.076323815
000090 a6 f0 b1 3e 79 fd 13 3f dd 6f f5 3d 4c dc 72 be
       0.34753913 0.57808644 0.11984227 -0.23716849
0000a0 6a 78 d8 3e d4 48 e9 3d 29 73 18 3f dd 07 97 3e
       0.4227937 0.11390844 0.5955072 0.29498187
0000b0 d8 8e 09 bf 63 1d b9 3e 18 23 04 3d 4b fb 19 bf
       -0.5373359 0.36155233 0.03226003 -0.6014907
0000c0 0d db 11 bf 7e 4a bf 3e 6c dd ca 3d bc 3a 10 3f
       -0.5697487 0.3736152 0.09905514 0.5633962
0000d0 f2 07 ed 3e 15 a0 3b be e4 13 d4 3e 3b c9 a8 3e
       0.46295124 -0.18322785 0.41421425 0.32966027
0000e0 2c 63 de be 8d c8 4f 3e ad 7e d7 3e b9 7d 8b bc
       -0.43435037 0.20291348 0.42088833 -0.017027723
0000f0 bd bd 44 bd e2 b0 04 3f 97 63 d3 3e 31 77 5b 3e
       -0.04803251 0.518324 0.4128692 0.21432187
000100 a3 0a e8 be 04 8c 5c be 1e d3 e8 be 57 4a 6d be
       -0.45320615 -0.21537787 -0.4547357 -0.2317289
000110 9d a0 13 bf d3 41 aa 3e 3d f0 d0 be 82 67 c7 3d
       -0.5766695 0.33253345 -0.40808287 0.097365394
000120 cf 22 33 3e a3 9c b6 3d 9c fe 61 3e 04 cc f4 3e
       0.17493747 0.08916595 0.22069782 0.47811902
000130 68 0a 63 be 07 03 ea 3d 3e 9e f0 be a4 c8 11 3f
       -0.22171938 0.11426359 -0.4699573 0.5694678
000140 b1 f4 09 3f 7f db bd be dc 35 16 3f df df 75 3e
       0.53888994 -0.37081525 0.5867593 0.24011181
000150 1d a6 b6 3d 1c d0 34 3e f8 54 0c 3f 62 d2 11 bf
       0.08918402 0.17657512 0.5481715 -0.56961644
000160 1c 29 08 bf 1f a4 1a bf d8 34 94 3d 88 53 f8 3e
       -0.5318773 -0.6040668 0.07236642 0.4850123
000170 60 3e bb 3e 21 1b 17 3f 47 81 be 3d b3 dc 80 3b
       0.36571026 0.5902577 0.093020014 0.0039325594
000180 70 ee 28 be f2 47 0c 3f 5a 74 94 be 54 28 85 3a
       -0.16497207 0.5479728 -0.2899502 0.0010159113
000190 fc b1 84 be de 54 38 3e 83 c5 91 bc ea 28 18 3d
       -0.2591704 0.18001124 -0.017794376 0.037148394
0001a0 60 16 f3 3e aa 6b 18 3e 0e 1e 0e 3f 37 5b 18 3f
       0.47478008 0.1488482 0.5551461 0.5951418
0001b0 f8 4a 36 be 90 0a 7e be a2 65 ba be 10 c0 78 be
       -0.17802036 -0.24808717 -0.36405665 -0.24292016
0001c0 c6 cd bb be 5f 2d 33 be 9a b7 45 be ee 2f d9 be
       -0.3668043 -0.17497776 -0.1930832 -0.4241938
0001d0 8a a6 94 3e 0b ec 95 3e d0 05 1c bf 0c 4c a2 3e
       0.2903331 0.2928165 -0.6094637 0.31698644
0001e0 7e ac 1e 3d e2 17 91 3e 8e 1b e2 3d 58 3a 4b 3d
       0.03873872 0.28338534 0.11040412 0.049616188
0001f0 72 91 7e be 58 a2 18 bf 83 77 0d 3f 7f 04 0e be
       -0.2486017 -0.59622717 0.55260485 -0.13868903
000200 41 00 a0 be ee 53 aa be 54 36 73 3e 78 cf cf be
       -0.31250194 -0.33267158 0.23751193 -0.40587974
000210 22 26 71 3e 67 4d ec 3e 8b b8 3d be 21 f2 ea be
       0.23549703 0.46152803 -0.18527429 -0.45887855
000220 61 6e f7 3d 08 d1 2f 3e df 9e 4e bd be 7e e5 3e
       0.120816 0.17169583 -0.05044448 0.4482326
000230 ab 8d de 3d 50 a5 a2 3d b3 aa ad be d6 6d f1 3d
       0.10866865 0.07941687 -0.33919296 0.11788528
000240 27 50 75 3e b4 31 09 bf 90 18 c4 be 32 25 8c be
       0.23956357 -0.53591466 -0.3829999 -0.27372128
000250 14 90 88 3d ae 37 a9 be 0d b0 0d 3f d3 9d 11 bf
       0.06668106 -0.33050293 0.5534676 -0.56881446
000260 9c ae 90 be e0 7a 23 3d 18 21 a3 3e 1a 43 e2 bd
       -0.28258216 0.039912105 0.31861186 -0.11047955
000270 25 32 f1 3e 84 0f ff 3e f0 34 88 be 0a 9a c3 3d
       0.4710857 0.49816525 -0.26602888 0.09550865
000280 09 50 2f 3d 59 09 c4 3e 42 99 5e 3d 46 40 9d 3e
       0.042800937 0.38288382 0.054345377 0.307131
000290 1c fb 70 be 6c ce 51 3d e6 a1 d2 3e 48 09 e3 3e
       -0.2353329 0.05122225 0.41139144 0.4434302
0002a0 90 0c 84 3e 74 eb 3a be eb f8 89 be fc 99 bc 3e
       0.25790834 -0.1825388 -0.26947722 0.3683623
0002b0 f3 0b 02 bf b4 84 5c be b4 7b 0e 3f 3c 35 c3 bd
       -0.50799483 -0.21534997 0.55657506 -0.09531638
0002c0 fa 10 bf 3e 5b b2 13 bf 2e 43 14 3f 5a e0 0d bf
       0.3731764 -0.57694024 0.5791501 -0.5542046
0002d0 e2 b0 1a bd 48 81 4b be 47 ff b7 be 49 99 d0 3e
       -0.037766345 -0.19873536 -0.3593695 0.40741947
0002e0 7e 66 17 bf 3f fd 8b 3b 4f f0 fd be 86 aa ef be
       -0.59140766 0.0042721326 -0.49597403 -0.46809787
0002f0 2d 88 a5 3e 1f b0 04 3f 01 61 45 be 5e 80 c5 3e
       0.32330456 0.5183124 -0.19275285 0.385745
000300 8f 93 e4 3e b3 41 5d be be e5 7b 3e 0b d8 44 3e
       0.44643828 -0.21607094 0.24599358 0.19223039
000310 8c 4e f6 be 55 83 a0 3e e2 0c c3 3d c6 89 fe 3e
       -0.48106802 0.31350198 0.095239416 0.49714488
000320 8f 75 da 3d d8 ad 25 3e 2c 6e b0 bd 78 e5 cc 3e
       0.10666954 0.16179597 -0.086147636 0.4001882
000330 63 d9 f1 3e e2 5b e3 3e 91 a9 5f 3e 45 64 cf be
       0.47236165 0.4440604 0.21842028 -0.40506187
000340 0f 9f 00 3f 2e d6 75 3e c0 81 b1 bd d5 1a 9a be
       0.50242704 0.24007484 -0.08667326 -0.30098596
000350 bd 58 91 3e 08 ff 8e 3d 25 1f 66 ba 46 10 5e be
       0.28388014 0.06982237 -0.00087784446 -0.21685895
000360 76 76 17 bf eb f5 0d bf 1a de b7 be ca 03 b3 3e
       -0.5916513 -0.55453366 -0.35911638 0.34963828
000370 0a 5e 06 bf b3 f5 6c be d0 d8 ea be 41 ec 99 3e
       -0.5248724 -0.23140602 -0.4586854 0.3006306
000380 d7 f5 f3 3e bc f0 d0 3e bf 97 ec be c5 81 c3 bd
       0.47648498 0.40808666 -0.46209523 -0.09546236
000390 bc c0 92 3e 88 90 19 3f 9a 83 d3 be 20 ab b7 3e
       0.2866267 0.5998616 -0.41311342 0.35872746
0003a0 52 e5 3e 3e 10 2e cc bd 98 52 76 be 4e a2 7c 3d
       0.18642166 -0.09969723 -0.24054945 0.061678223
0003b0 e6 c1 d2 3d c7 a7 5d be e9 ff 0a 3f 6a a1 aa 3e
       0.102908894 -0.21646033 0.5429674 0.33326274
0003c0 11 49 92 be b0 14 c2 3e 3b 44 72 be f8 2f c6 bd
       -0.2857137 0.37906408 -0.2365884 -0.09677118
0003d0 06 53 13 3f 94 c2 3e 3d c6 d2 f1 3e 13 60 3d 3e
       0.5754856 0.046572283 0.4723112 0.1849368
0003e0 f6 b1 bd be 49 dd c2 3b 07 81 b1 3e 5a a8 91 be
       -0.37049836 0.0059467894 0.34668753 -0.28448755
0003f0 38 fb 44 bd d5 93 17 bf 4d 9b 19 bf 5d 33 05 3e
       -0.048091143 -0.5920995 -0.60002595 0.13007875

encoder.layers.0.attention.w_q.bias f4 [16]
000000 3f 5a 73 3d 0e 43 c6 3d 36 d6 4b be 14 a2 22 3e
       0.059412237 0.096807584 -0.19905934 0.1588214
000010 14 cb 2b be 2e fa 27 be 64 20 d5 3d 04 78 33 3e
       -0.16776687 -0.1640403 0.10406569 0.17526251
000020 b0 f8 67 bc 6c 99 88 bd 67 87 0a 3c 48 db df bd
       -0.014158413 -0.06669888 0.008455134 -0.109304965
000030 ad 07 4b be ea 21 e2 bd 4a 83 48 bd 43 1c d3 bd
       -0.19827147 -0.11041625 -0.048953332 -0.10308125

encoder.layers.0.attention.w_k.weight f4 [16, 16]
000000 e4 db a4 3e db 30 9a be 7a ec 55 be 2b 85 96 be
       0.32199013 -0.301154 -0.2089099 -0.29398474
000010 83 b0 42 3c ca ac f2 be 82 c8 84 be 50 14 ed 3e
       0.011882904 -0.47397453 -0.25934225 0.4630456
000020 9e 3a 9a be 36 e6 ce be d5 cf cb 3d 42 2b 91 3d
       -0.30122846 -0.40410012 0.0995175 0.07088329
000030 6d 79 9f 3d 6c 50 96 3d 03 9e d1 3d 03 4d 43 be
       0.07786832 0.07339558 0.102352165 -0.19072346
000040 f2 9c c4 bd 38 87 ab 3e 3c 2e b8 be ec 1b f5 bd
       -0.096002474 0.335016 -0.35972774 -0.11968216
000050 9f d8 aa be ef 05 9d 3e fb 85 51 3e 61 84 b9 3d
       -0.33368394 0.3066859 0.20461266 0.090584524
000060 20 97 ec bd df 2e d5 be 41 1b 70 bd f2 00 37 3d
       -0.11552262 -0.41637322 -0.05861974 0.044678636
000070 05 57 14 bf 19 e4 c4 3c 4b 83 e5 be a0 2d 17 be
       -0.5794528 0.024034547 -0.4482673 -0.14763498
000080 c5 ac 9d 3e fb d4 d6 be ac bf 9b 3d 14 02 fa 3e
       0.30795875 -0.41959366 0.07604918 0.4882971
000090 6d 74 6a 3e c9 9b 05 3f c1 da 49 3e 97 ce 18 3e
       0.22895975 0.52190834 0.19712354 0.14922558
0000a0 84 a7 6c 3e 7f ad 0a bc c8 87 c8 be 9e f5 bc be
       0.23110777 -0.008464216 -0.39166093 -0.3690614
0000b0 fb 0d a8 3d 9a ec 02 bf 28 fa c8 be 95 80 ba 3e
       0.082057916 -0.51142275 -0.39253354 0.36426225
0000c0 81 55 58 3e da e0 e5 be f2 dc f0 be 67 70 aa 3e
       0.21126367 -0.4489811 -0.47043568 0.3328888
0000d0 7e c3 0b 3e d6 3e 95 3e 9a 8b 95 3e b5 95 64 3d
       0.13648793 0.29149503 0.2920807 0.055806834
0000e0 ef 22 0f bf 0f 83 1a 3e 2b 19 72 bd 59 87 ac bc
       -0.5591268 0.15089057 -0.059106033 -0.021060633
0000f0 c0 12 77 3d 59 17 80 3d db 1c 08 3e 02 69 a7 be
       0.060320616 0.06254453 0.13292257 -0.32697302
000100 18 40 1d 3e e3 73 2f be 81 c5 dc be f5 9f 04 3f
       0.15356481 -0.17134051 -0.43119434 0.51806575
000110 0d 46 6b 3c 10 9e e4 bd 86 bc 03 be 44 94 7c 3e
       0.014359963 -0.111629605 -0.12864885 0.24665934
000120 fa ba b2 be 6c 99 04 bf 1f 13 48 be 16 f6 47 be
       -0.34908277 -0.51796603 -0.19538544 -0.19527468
000130 45 b2 00 3d 87 19 01 3f 2a 6a 75 3e 2e 4e ed 3d
       0.03142001 0.50429577 0.2396628 0.11587177
000140 26 ed 5b be c7 b1 0c 3e d6 92 9a 3e 05 84 ef 39
       -0.21477184 0.13739692 0.30190152 0.00045683995
000150 d5 0d 35 3e 69 9e eb 3e e1 3a b7 be db c0 fc be
       0.17681058 0.46019295 -0.3578711 -0.49365887
000160 26 a6 8e be 1d 3e 19 3f c3 a1 0d be d3 c7 6a be
       -0.27861136 0.598604 -0.13831238 -0.2292779
000170 3e ec 18 3f a9 81 cd be 89 1d 9d be ce d0 17 3e
       0.59735477 -0.40137985 -0.30686596 0.14825746
000180 fd f0 ce be 25 cc a5 bd 39 25 23 be 0f 32 e3 be
       -0.40418234 -0.08095578 -0.15932168 -0.4437413
000190 2e d7 b9 bd fb 7c 11 3f a1 9d 9a be 6b 93 ae 3e
       -0.090742454 0.5683133 -0.30198386 0.34096846
0001a0 37 b1 1a 3f e5 ba 04 bf 7a a0 79 bd 81 66 18 3f
       0.6042666 -0.5184768 -0.060944058 0.5953141
0001b0 52 13 f3 3e 4d 73 2b 3e 99 ea 0c 3e d6 d2 97 3c
       0.47475678 0.16743203 0.13761367 0.018533152
0001c0 23 02 ac 3e 18 09 94 3e 08 f6 51 be d6 f5 a3 3e
       0.3359538 0.28913188 -0.2050401 0.32023495
0001d0 d9 32 c2 3d 92 b4 0b bf ef 96 db be c0 eb 19 bf
       0.09482355 -0.54572403 -0.4288859 -0.6012535
0001e0 23 f5 88 3e 40 38 05 3e 28 ff 0e bf 4c 13 da be
       0.26749524 0.13009739 -0.5585809 -0.42592847
0001f0 e9 18 14 bf bd c7 85 bc bb d3 a3 3e b3 2a c4 3e
       -0.5785051 -0.016330594 0.31997475 0.38313827
000200 e3 de 2d be a2 07 10 3e 0e c5 08 3f 05 a6 03 3d
       -0.16979556 0.14065412 0.5342568 0.03214075
000210 c7 c3 d5 3e a0 6f 0e bf 5c 42 6c be 43 34 fb 3e
       0.4175093 -0.55639076 -0.23072189 0.4906331
000220 eb 5e d6 3e f8 b6 23 3d 5e 73 cd be 19 48 5d 3d
       0.41869292 0.039969414 -0.4012708 0.054023836
000230 98 5a 93 be 64 9d a6 be e0 fa b2 3c 27 11 de 3e
       -0.28780055 -0.32541955 0.021848142 0.4337246
000240 d2 84 f4 3e 41 b4 21 3e fa 13 38 bd 36 ea 95 be
       0.47757584 0.15791418 -0.044940926 -0.2928025
000250 5f 67 af be da a1 af 3e 68 55 cb 3e 22 4e cb 3e
       -0.34258553 0.3430317 0.39713597 0.39708048
000260 51 b4 f5 be 9b 1a 7c be 8f 13 1d 3e 2f c5 b3 be
       -0.47989133 -0.24619524 0.15339492 -0.35111377
000270 24 40 86 be 9a ac 8b be eb 02 f6 bd 4b bb cc be
       -0.2622081 -0.27280122 -0.12012275 -0.39986643
000280 a9 64 44 bd b3 16 9c 3e 1a f4 b6 be 92 58 18 3f
       -0.04794756 0.30486068 -0.3573311 0.5951015
000290 f0 5a b6 3e 98 3d cc be 64 0e 06 bf 86 f2 d6 3e
       0.35616255 -0.39890742 -0.5236571 0.41981906
0002a0 7c 82 a5 be 8c d1 18 bf 8f 9f b0 bd f0 0c 1b 3f
       -0.32326114 -0.59694743 -0.086241834 0.60566616
0002b0 cf b7 19 be ef 78 58 3e 82 5a b0 3d 9f fe 0a be
       -0.15011524 0.21139883 0.08611013 -0.13573693
0002c0 80 b9 38 be a2 51 8f 3e 30 2a 5f be d0 ee f4 3d
       -0.18039513 0.27991968 -0.21793437 0.11959612
0002d0 a9 65 de be 66 25 c0 be 08 92 ed be fe 73 ac 3e
       -0.43436936 -0.37528533 -0.46400476 0.33682245
0002e0 0f 65 03 3e 14 ee db 3d 56 23 57 3e 53 86 0d 3f
       0.1283152 0.10738769 0.21009573 0.5528309
0002f0 05 4a 4d be c8 2b 0b bf 4a 6a 0d bf 82 18 10 bf
       -0.20047767 -0.5436368 -0.5524031 -0.56287396
000300 a7 75 1b bd 4e 7a 8e bd a1 ba a0 be 16 2d da bd
       -0.037954 -0.069569215 -0.31392387 -0.10653131
000310 f3 e5 40 be fa ca 0d 3f 60 70 79 bc 49 9b 41 be
       -0.18837719 0.5538784 -0.015224546 -0.18906893
000320 14 e8 b4 be 5d dd aa 3d 8d c3 a5 3e 8e 9b c3 be
       -0.35333312 0.08343003 0.32375756 -0.38204616
000330 74 da c3 be 25 7a 29 3d 25 28 ea be 6c 72 80 bd
       -0.38252604 0.04137625 -0.45733753 -0.06271824
000340 ae b4 42 be a7 fa c4 be 69 a2 8d 3e 47 cb a9 bc
       -0.19014236 -0.38472483 0.27662972 -0.020726813
000350 4c 54 01 bf af d4 af 3e 5b 07 0d 3f ad 7c 20 be
       -0.5051925 0.34341952 0.5508935 -0.1567256
000360 ae 05 ef be 65 2d 50 be 92 18 df 3d 96 fe cc be
       -0.4668402 -0.20329817 0.10893358 -0.40037984
000370 5b 31 17 be f2 e0 1b 3e b3 ff 06 3f 44 8a fa be
       -0.14764921 0.15222529 0.52733916 -0.48933613
000380 b0 1b c4 3c 0f 4a be 3e a6 a9 73 3e 90 4e 97 be
       0.023938984 0.37165877 0.23795184 -0.29552126
000390 0d 7d 00 be 39 b2 3e 3e 7b 51 c3 3d 03 e2 71 ba
       -0.12547703 0.18622674 0.095370255 -0.0009227099
0003a0 5c c5 de 3e e1 13 07 bf 53 96 f8 3e ab d1 c0 be
       0.43509948 -0.5276471 0.48552188 -0.37659964
0003b0 64 57 04 bd 52 c5 0b bf 9f c0 3b bc ed 2e 1a 3e
       -0.032309905 -0.5459796 -0.011459499 0.15056963
0003c0 5a f1 a0 3e e1 b9 37 be 38 ea 9e 3c 0f 0d ad 3c
       0.31434137 -0.17942001 0.019398794 0.02112439
0003d0 e7 b1 07 be 7e 96 71 be 71 ca b9 3d 64 d9 15 bf
       -0.13251458 -0.23592564 0.09071816 -0.58534837
0003e0 9a 46 61 3e 2a 04 08 bf 77 f2 f1 3e 0d 38 f5 bd
       0.21999589 -0.53131354 0.47255298 -0.119735815
0003f0 1a 07 4b 3e 8e 3f 04 3e 9f d9 10 3f 2b fe 9b bd
       0.19826928 0.12914869 0.56582063 -0.07616838

encoder.layers.0.attention.w_k.bias f4 [16]
000000 90 a4 26 b3 b4 8f 1f b3 69 81 3e 33 28 32 9e 33
       -3.8799556e-08 -3.715077e-08 4.435552e-08 7.366572e-08
000010 fc 89 a6 32 48 e5 94 33 09 0a 90 33 bd af e9 b2
       1.9387691e-08 6.933493e-08 6.707348e-08 -2.7204687e-08
000020 20 4a 46 b3 86 a1 fc 32 d4 b9 d9 b2 bf 2c c2 33
       -4.6167884e-08 2.9410113e-08 -2.534663e-08 9.041968e-08
000030 98 50 a3 33 e0 5b b0 b0 23 c4 06 33 b3 2b b8 b2
       7.604939e-08 -1.2831798e-09 3.137769e-08 -2.1440291e-08

encoder.layers.0.attention.w_v.weight f4 [16, 16]
000000 22 3c 12 3e 90 a6 d7 be 14 c4 be bc cf 36 08 3f
       0.14280751 -0.42119265 -0.023286857 0.5320863
000010 b3 01 4c 3d 3a 7b 88 3e c1 7b f3 3d c2 22 02 3f
       0.049806308 0.26656514 0.118888386 0.50834286
000020 20 f8 98 be 0e c8 15 3f de 66 c1 bc 9b 4a 12 3e
       -0.29876804 0.58508384 -0.023608621 0.14286272
000030 5e 89 06 be a8 eb 3c 3e 41 13 13 3f b4 c6 cf be
       -0.13138339 0.1844927 0.57451254 -0.40581286
000040 60 4b be 3d fa e0 87 be f1 15 1d 3e 01 99 34 be
       0.092917204 -0.2653883 0.15340401 -0.17636491
000050 d9 88 62 be d2 ce f2 be 06 da 16 3e ae 17 0e 3d
       -0.22122516 -0.47423416 0.14731607 0.03469055
000060 d5 f7 ca 3e 60 f3 15 bf 15 9f 03 bf 4f 44 09 3f
       0.39642206 -0.58574486 -0.51414615 0.53619856
000070 81 99 55 be b7 a5 ac bd 5f be 44 3e 36 54 ea 3d
       -0.20859338 -0.08430045 0.19213246 0.11441843
000080 ba e5 18 be 30 38 15 be 86 09 ba be 30 ad 0a 3f
       -0.14931384 -0.14572215 -0.3633539 0.54170513
000090 df e7 3d 3e 86 b4 9c be 9c b4 16 bf 5c 3b 87 ba
       0.18545483 -0.30606478 -0.5886934 -0.0010317373
0000a0 6a bf 07 bd 44 79 97 3d 21 59 6f 3e ca ec f5 be
       -0.03314153 0.073961765 0.23373844 -0.48032218
0000b0 9f 07 a3 3e 05 65 13 bd ab 3f fb 3e 2b da 29 be
       0.31841752 -0.03598501 0.49072012 -0.1658713
0000c0 50 94 8b be 31 16 ef be 4c c5 bd be 95 a4 39 3c
       -0.2726159 -0.46696618 -0.37064588 0.011330743
0000d0 27 da c7 be 44 80 35 3e 18 1f 26 3e b2 93 13 bf
       -0.39033625 0.1772471 0.16222799 -0.5764724
0000e0 b9 e3 c0 3e 00 c7 dd 3e 5b fd 74 3e cd 63 2a be
       0.3767374 0.43315887 0.23924772 -0.16639633
0000f0 5a 7a e2 3e 4a ca ce be c8 14 b2 3e 9e 39 16 bf
       0.44233972 -0.4038871 0.3478148 -0.58681667
000100 b8 fc 11 3e e0 0a e8 bd 83 cc 4d 3e c2 12 8a 3e
       0.14256561 -0.11330199 0.20097546 0.26967436
000110 a7 c8 73 3e 8d 75 0d 3f 7f be fc 3e 96 9e ca be
       0.23807012 0.55257493 0.49364087 -0.39574116
000120 fc 1a 8e 3e e5 76 b5 3e 64 04 b1 bc 70 a2 5f be
       0.27754962 0.35442272 -0.021608539 -0.21839309
000130 1e 3e 08 3f a0 db dc bc 57 7c 08 3f 6d d0 03 bf
       0.53219783 -0.026960194 0.5331473 -0.5148991
000140 83 a6 14 3f b2 16 72 3e 67 5b 8c 3e 4b 12 2d be
       0.58066577 0.2364147 0.27413484 -0.1690151
000150 97 b9 0e 3f 7b 4b f4 3e 88 19 0b 3e 95 8a 31 bd
       0.5575194 0.47713837 0.13583958 -0.043345053
000160 27 de 9a be f5 4b 6b be 54 43 d4 3e dd 13 13 3e
       -0.30247614 -0.22978194 0.41457617 0.14363046
000170 bb 33 b2 be e4 f6 fb 3e 12 c1 f1 3e d5 5e 8e be
       -0.34805092 0.492118 0.47217613 -0.27806726
000180 4d ea c6 3e 70 88 e6 3e 95 bf d1 be 75 0b 9f be
       0.38850632 0.4502597 -0.40966478 -0.3106343
000190 95 1f c8 3d 64 45 2e 3e 3e f4 03 bf 38 e8 8c 3d
       0.09771649 0.17018658 -0.5154456 0.0688023
0001a0 17 53 a4 be 4b bc e1 bd e4 55 c4 3e cc e7 4c 3e
       -0.32094643 -0.11022242 0.3834678 0.20010298
0001b0 49 e5 5a be 4d 2e e5 3e c7 df c1 3e 8f 21 06 3f
       -0.21376528 0.44761887 0.3786604 0.52394956
0001c0 75 42 11 bf 83 ce 88 3b 20 8f 31 3e 35 50 cf bd
       -0.5674203 0.0041750087 0.17339754 -0.1012272
0001d0 a1 69 01 be cd cd 40 3e 20 93 a7 3d 15 15 0b bf
       -0.1263795 0.18828507 0.08182359 -0.54329044
0001e0 80 24 1c 3e a9 16 99 3e fe 03 82 bd 37 e9 1f 3e
       0.15248299 0.299001 -0.06348418 0.15616308
0001f0 40 1f 15 bf 3e 1e ab bc 83 97 08 bf 28 19 7c be
       -0.5825081 -0.020888444 -0.5335619 -0.24618971
000200 22 c1 87 3e 21 53 60 be b9 32 0a be a0 73 0d 3f
       0.26514536 -0.21906711 -0.13495912 0.55254555
000210 2f 58 8b 3e 51 c4 f3 3d 8e db ab 3e 1a 33 30 3c
       0.27215716 0.11902679 0.33565944 0.010754371
000220 cd 57 0d 3f 52 1b 35 be d0 33 6f 3e 7f 99 5e bc
       0.552121 -0.17686203 0.23359609 -0.013586401
000230 fe a3 3c bd c3 70 04 3f d3 e7 4c 3e 5d af 68 be
       -0.046054833 0.5173456 0.20010309 -0.22723146
000240 7f 71 8e 3e 56 e4 c6 3e 9f 04 b2 be 00 2c 6a 3d
       0.27820966 0.38846081 -0.3476915 0.057170868
000250 4b 4f 54 3e af 02 02 3e 6b 4a 85 be fa c4 0c bf
       0.20733373 0.12696336 -0.2603334 -0.5498806
000260 fe 2d 2f 3e 7a 16 e6 3c 0e af 00 bf e1 1b 0c bf
       0.17107388 0.02808689 -0.5026711 -0.5473004
000270 1f 53 e1 3e 1a f0 c1 3e 4d 05 10 3f 7a 7d 63 be
       0.4400873 0.37878495 0.5625809 -0.22215834
000280 0c a9 b6 3e 6c a9 e6 3e 00 a0 30 3e 60 97 b5 be
       0.35675848 0.45051134 0.17248535 -0.35467052
000290 9a b3 0f bf 3c 22 0d bf 9a 4e 25 be 51 18 9b 3d
       -0.56133425 -0.5513036 -0.16143265 0.07572997
0002a0 08 d5 ee be 88 fb 9a 3e d6 b4 2e 3c 4b 21 a8 bd
       -0.46646905 0.30270028 0.010663232 -0.08209475
0002b0 55 14 63 bd ca 2b a3 bd 74 7f b4 3e 08 7e 6c 3d
       -0.055439312 -0.079673365 0.3525349 0.05773738
0002c0 57 08 4a be 48 fb 78 3e 43 9b 95 be 62 0d d0 be
       -0.19729744 0.24314606 -0.29220018 -0.4063521
0002d0 47 dd 82 3e ad 09 05 bf f3 08 8b 3e b4 d0 3d be
       0.25559446 -0.5196789 0.27155265 -0.18536645
0002e0 1f b0 ae 3d 84 b0 ee be 54 40 22 3b 77 65 dc 3e
       0.08529686 -0.46619046 0.002475758 0.43046162
0002f0 51 b4 48 3e d9 c4 ff be 5b 93 c7 be f5 0e dc 3e
       0.19600035 -0.4995487 -0.3897961 0.4298016
000300 83 2f fa 3e 9a a2 ac be 9f 28 db be a5 dc aa be
       0.48864374 -0.33717805 -0.4280443 -0.33371463
000310 6c 30 d4 3e 2b 48 a0 be 03 73 f7 3b 2f 44 ee be
       0.41443193 -0.3130506 0.0075515523 -0.46536395
000320 4e 11 0d 3f 56 54 97 be 6a aa 10 bf 71 63 c3 be
       0.5510453 -0.2955653 -0.5651003 -0.38161805
000330 7a f2 96 3e e7 cd 09 3f 19 e2 e7 be 70 53 0d 3f
       0.2948187 0.5382981 -0.45289686 0.5520544
000340 2b a0 9f 3e 59 91 ff 3a 01 a1 97 3e 18 d6 b2 3e
       0.31176886 0.0019498273 0.29615024 0.34928966
000350 ad c8 03 3f 7c 4f dd 3e 81 9e c8 be 90 fe d6 be
       0.5147808 0.43224704 -0.3918343 -0.4199109
000360 58 9d a1 3e 49 39 d1 be 19 2a 6f 3e e0 c4 03 bf
       0.31565356 -0.40864018 0.23355903 -0.5147228
000370 e8 7d b1 3e e2 0b 04 3f 74 2b 12 3f 94 83 0c bf
       0.3466637 0.5158063 0.57097554 -0.5488827
000380 0d 4a e7 3c f6 30 07 3f fe bb 8c 3e 9e 6a fa bc
       0.028233552 0.52809083 0.27487177 -0.030568417
000390 eb 9b 99 bd 7a 08 cc be 2a 82 c7 bd be 56 47 bd
       -0.07500442 -0.39850217 -0.09741624 -0.04866671
0003a0 6b 6f 47 be 7c 28 4b bc c5 6f e2 3e 2f da 03 3f
       -0.19476096 -0.012399789 0.44225898 0.51504797
0003b0 b6 0c cd 3e 6b 7f f8 be c6 14 93 be ea 73 0d bf
       0.4004876 -0.48534712 -0.28726786 -0.55254996
0003c0 e3 f5 e9 bb 21 2a b5 be 9f 20 11 bd e2 64 2f be
       -0.0071399077 -0.35383704 -0.0354315 -0.17128327
0003d0 89 14 33 3e fb 25 ed be 84 52 03 bf f7 f9 01 bf
       0.17488302 -0.4631804 -0.51297784 -0.5077204
0003e0 9b ac f0 3e 8e 01 ba be 60 03 83 bd 17 1e 60 bd
       0.47006688 -0.3632931 -0.06397128 -0.054716196
0003f0 d0 55 0a bf 20 13 c7 3e e2 b6 81 be 7b d8 f3 bc
       -0.5403719 0.3888178 -0.2533484 -0.029766312

encoder.layers.0.attention.w_v.bias f4 [16]
000000 10 cd 0b bc 2b f2 38 bd c1 45 b1 3c 07 15 df bc
       -0.008532777 -0.045152824 0.021639707 -0.027231706
000010 4c 93 d7 3c 7a b4 0f 3d 7e 2a 86 bc fe 8e 52 bd
       0.026315354 0.035084225 -0.016377684 -0.0514059
000020 ab b3 fe bb c2 c3 26 bd 8b 1e 78 3b 48 91 f0 bb
       -0.007772883 -0.040714033 0.0037860002 -0.0073415376
000030 b5 7f b2 bc 05 c0 19 3d 91 a5 cd 3b 3d 5d 18 3d
       -0.021789411 0.03753664 0.0062758406 0.037198294

encoder.layers.0.attention.w_concat.weight f4 [16, 16]
000000 ac 47 10 3f 3d 8f 75 3e 0b c5 a0 3e b0 8c 17 be
       0.5635936 0.23980422 0.31400332 -0.14799762
000010 ba 70 66 3e e6 ca 74 bc e9 cf e9 3e 5b ca 51 3d
       0.2250394 -0.014940953 0.45666435 0.05121837
000020 a1 78 e8 be 8b 83 9b be e5 e5 a3 be 3a 77 7e 3e
       -0.45404533 -0.30373797 -0.32011333 0.24850169
000030 7f 44 ef be 6b e1 40 3e f4 c3 52 be 5f 27 82 be
       -0.46731946 0.1883599 -0.20582563 -0.25420663
000040 4b 03 83 3d 2f 47 37 3e f2 3f 08 bf 20 6f a9 be
       0.063971125 0.17898248 -0.5322257 -0.33092594
000050 ce 70 e4 be b8 64 8c 3e 55 a3 ad be 30 d5 7c be
       -0.44617313 0.27420592 -0.33913675 -0.246907
000060 e6 d3 4b be d7 6f 3d be 9c 4e d9 3d 3d a6 39 be
       -0.19905052 -0.18499695 0.10610697 -0.18129821
000070 fc ec 0d 3b b2 f7 08 3f c8 2b 9c 3e 0e 93 ef 3e
       0.0021656146 0.53502953 0.30502152 0.4679188
000080 46 f1 e2 bc 72 a5 59 be d9 54 a4 bd 45 b2 f1 3e
       -0.027702939 -0.21254519 -0.08023996 0.4720632
000090 97 08 4b 3e 8f 66 d5 3e f8 9d f9 3e 82 aa bd 3e
       0.19827496 0.41679808 0.48753333 0.3704415
0000a0 0d a4 b5 3e 46 3b c4 3e 80 7a f6 be 38 d0 3a 3c
       0.35476723 0.38326472 -0.48140335 0.011402182
0000b0 0b 43 a3 be 75 47 80 be 0f 49 d6 3e 0d cd 0a bf
       -0.31887087 -0.25054517 0.41852614 -0.5421913
0000c0 8e 75 17 3f 98 38 69 be ee f8 02 bf b6 6d af 3c
       0.5916375 -0.22775495 -0.51161087 0.021414619
0000d0 05 08 20 be 49 e3 0e bf 56 d0 a1 3e 44 25 92 3e
       -0.15628059 -0.5581556 0.3160426 0.28544056
0000e0 86 3b 62 b9 55 60 ed bd e6 e6 db be 5e 01 94 be
       -0.00021575214 -0.115906395 -0.429496 -0.28907293
0000f0 85 34 ef be 48 cc 09 3f 59 02 72 be b5 7e fd 3e
       -0.46719757 0.53827333 -0.23633708 0.49510732
000100 27 0a 27 3e 9e b0 e5 be 4d 18 38 be bc b3 2c 3e
       0.16312467 -0.4486131 -0.1797802 0.16865438
000110 56 06 90 3d 91 48 d2 bd 45 ff 10 3f 6a 6d f6 be
       0.070324585 -0.10267747 0.5663951 -0.4813035
000120 8d dd 70 be 5d 37 a7 bd eb f6 b1 be 47 f1 b0 3e
       -0.23522015 -0.081648566 -0.34758696 0.3455908
000130 a6 75 a7 be 8a 18 28 3e 19 2e 84 be a5 23 cd be
       -0.32706946 0.16415611 -0.2581642 -0.40066257
000140 a3 15 a4 3c ee b0 19 3e 38 bc 8e be b2 47 b2 be
       0.020029848 0.150089 -0.27877975 -0.34820324
000150 6b 16 dc 3d 51 01 fb be f8 31 c4 bd fb 5e ec 3e
       0.107464634 -0.49024442 -0.09579843 0.46166214
000160 d3 94 7e be 86 d6 f9 bd b0 4a 6c bc ad ac cb 3e
       -0.2486146 -0.1219912 -0.014422104 0.3978018
000170 cd 8a b9 be c7 09 11 3f 4c d1 17 be 17 e8 bd 3e
       -0.3623871 0.56655544 -0.14825934 0.37091133
000180 bb 32 2d be 85 2c 05 bf fb 94 e9 be d1 ef c9 be
       -0.16913883 -0.52021056 -0.45621476 -0.39440778
000190 34 96 9e 3e d0 62 08 3f 03 c1 dc 3e d7 7a a2 3d
       0.3097397 0.53275776 0.43116006 0.07933586
0001a0 f0 80 20 be fe 3f 43 bb 03 b8 1d be 6f 5c 03 be
       -0.15674186 -0.002979278 -0.15402226 -0.1282823
0001b0 df ff d8 3d e4 df df bd fd 33 06 3d 0c 6b b0 be
       0.105956785 -0.109313756 0.032764424 -0.3445667
0001c0 15 13 59 3e f4 0a d6 3e a6 93 02 3e 68 77 91 bd
       0.21198685 0.41805232 0.12751636 -0.07102853
0001d0 78 75 2b 3c 2f 4c 15 bf b8 d9 ac be 55 ca cc 3d
       0.010465018 -0.5831937 -0.33759856 0.09999529
0001e0 73 24 15 3e 1a 6a 7c 3e 77 7b 10 bf b6 af f8 3e
       0.14564686 0.2464985 -0.5643839 0.48571557
0001f0 b8 7c fc 3e 9c ba 27 be 4a 7b 53 3e 84 9a 05 bf
       0.49313903 -0.1637978 0.206525 -0.521889
000200 03 1d 2e be 7a 62 ec be 16 31 eb 3e 82 b2 cf 3e
       -0.17003255 -0.46168882 0.45935887 0.40565878
000210 a1 d5 4c 3e b2 fd e3 3e be 89 96 3e de 1f 1b 3e
       0.20003368 0.44529492 0.29401964 0.15148875
000220 0b a5 6b be b8 9c e4 be b7 4c 9e bd 1f ce a1 3d
       -0.23012178 -0.44650817 -0.07729476 0.079006426
000230 20 95 fe 3d 5d 13 ee be 46 b3 cb be 81 35 cd be
       0.12430787 -0.46499148 -0.39785212 -0.40079883
000240 05 8e 8f be 54 1c f5 3b 45 6d ad be e1 d9 27 bc
       -0.2803804 0.0074801836 -0.3387243 -0.0102448175
000250 96 3d ba 3e 0a 21 bb 3e 03 a3 cb be 1f b6 cb 3e
       0.3637511 0.36548644 -0.39772806 0.39787385
000260 b8 14 7c be e4 8e 5b be 38 42 9a bc 13 6d bc be
       -0.24617279 -0.21441227 -0.018830404 -0.36801967
000270 bb 00 e3 be 86 7e 00 3e cb 0c 03 bf ce df fc be
       -0.44336495 0.12548265 -0.51191396 -0.493895
000280 ed 85 9c 3e 7d 63 04 3f 12 53 57 bd 64 c7 e6 3d
       0.30570927 0.5171431 -0.052569456 0.112684995
000290 80 91 65 be 18 70 f5 3d f5 35 bd 3d 6d 34 0e bf
       -0.22418785 0.11984271 0.09238807 -0.55548745
0002a0 ae 6d 83 3e ca 10 5d 3c 5a 52 06 be 74 00 7f 3e
       0.25669616 0.013492772 -0.13117352 0.24902517
0002b0 81 ad db 3d ed 93 9d be ae 25 9a bd ec bc 00 3f
       0.107264526 -0.3077692 -0.07526718 0.5028827
0002c0 7e b7 dc be 94 69 a4 bd af d5 20 be f9 13 99 be
       -0.43108743 -0.0802795 -0.15706514 -0.2989805
0002d0 59 01 7a 3e 04 20 86 3e d4 34 72 3e bf 89 b5 be
       0.24414577 0.261963 0.23652965 -0.35456654
0002e0 9b 75 f5 be 4a 25 86 3c 1c 43 7f 3e 0e a2 26 be
       -0.47941288 0.016375203 0.24927944 -0.16272756
0002f0 7b 87 ad 3e ca 89 58 3e 12 e2 8c be 66 fe eb 3e
       0.33892426 0.21146312 -0.27516228 0.46092528
000300 a4 d9 fb be 6e a2 02 3f c0 7a 8f be 4b b8 33 be
       -0.49189484 0.510291 -0.28023338 -0.17550771
000310 0d bd 31 3e 19 29 0e be f5 89 f8 bd b1 1a 07 3f
       0.17357273 -0.13882865 -0.12135688 0.527751
000320 19 b9 15 bb cb 4f a1 be 37 14 80 3e a3 59 00 3f
       -0.0022845923 -0.3150619 0.25015423 0.50136775
000330 2e f8 d1 3e d6 c8 f9 3e cc 81 32 be d2 14 01 3e
       0.4100966 0.48786038 -0.17432326 0.12605599
000340 50 af da 3e c2 1e 0d 3e 74 66 84 3d 06 51 81 bd
       0.42711878 0.13781264 0.06464854 -0.06314282
000350 78 d1 be bd bd 76 0e 3f 1b a9 b8 bd 89 d5 90 be
       -0.09317297 0.5564993 -0.09016629 -0.28287914
000360 9a 8c 06 3f e0 b2 9c be ab 31 2d be 55 a3 b0 be
       0.5255829 -0.3060522 -0.16913478 -0.34499612
000370 cc c3 f5 be e9 99 a8 3e 52 20 cf be 3a ef 14 3e
       -0.48000944 0.32929924 -0.40454346 0.14544383
000380 c8 f1 67 3e e0 0c 88 bd 61 b8 64 bd 64 56 ab 3e
       0.22650826 -0.06643081 -0.0558399 0.33464348
000390 8d 3a 99 be e8 05 a0 3e 02 de 94 3e c7 2a 86 3e
       -0.29927483 0.31254506 0.2907563 0.26204512
0003a0 50 ac 15 bf bf 69 c2 be 1b 7b 66 3d 4d 74 83 3e
       -0.58466053 -0.37971303 0.056269746 0.25674668
0003b0 51 3c d4 bd bd 4a 45 3d 7f ee 75 3e 88 71 05 bf
       -0.10363067 0.04816698 0.2401676 -0.5212636
0003c0 c5 78 70 3e 6f 67 db bd 89 28 a0 3e 21 f8 ac 3e
       0.2348357 -0.10713088 0.31280926 0.33783057
0003d0 41 a8 14 bf 78 88 2d be ee 58 0f bf 6a f5 65 3e
       -0.58069235 -0.1694659 -0.5599507 0.224569
0003e0 78 82 52 3e 5c dd 0d bf f0 40 aa bc 9c 7f 8a be
       0.20557582 -0.5541589 -0.020782918 -0.27050483
0003f0 ae c6 73 bc ac a5 0b 3f 9a 8f 9d be ca 12 a2 be
       -0.014878912 0.5454967 -0.30773622 -0.3165496

encoder.layers.0.attention.w_concat.bias f4 [16]
000000 4b 21 8b 3b 27 dd 09 bd 3e a2 e5 3b 37 8d 3d 3b
       0.004245912 -0.033658173 0.007007866 0.0028923282
000010 50 ea 1c bc 4f 12 a0 bc b6 62 d7 bc 04 61 00 bd
       -0.009577349 -0.01953998 -0.026292186 -0.03134252
000020 0a 9c 95 3b 9d 08 68 3b 72 e6 d2 3b a4 fb e0 bc
       0.0045657204 0.0035405525 0.0064361626 -0.027463742
000030 1b a1 4c bb f0 c8 61 ba 19 4c 64 bd 9b 63 63 bc
       -0.0031223956 -0.0008613011 -0.055736635 -0.013878728

encoder.layers.0.norm1.gamma f4 [16]
000000 55 43 75 3f a0 4e 77 3f d6 4b 76 3f eb 77 5e 3f
       0.95805866 0.9660435 0.96209466 0.8690173
000010 8b 5e 76 3f b6 4e 77 3f 6c 72 7a 3f 4e b9 77 3f
       0.9623801 0.9660448 0.97830844 0.9676713
000020 18 c0 6e 3f 01 21 72 3f f7 a9 68 3f 30 7f 6d 3f
       0.9326186 0.9458161 0.90884346 0.927722
000030 1c 34 79 3f 06 64 76 3f 92 c8 78 3f 03 03 7a 3f
       0.9734514 0.96246374 0.97181046 0.97660846

encoder.layers.0.norm1.beta f4 [16]
000000 c5 7e 52 3a 63 f9 37 bb 9d 04 af bb d9 88 b3 3b
       0.00080297544 -0.002807223 -0.005341126 0.00547896
000010 ef b8 03 3b 13 59 22 3b dd 70 9b 39 46 d0 41 3b
       0.0020099243 0.002477233 0.00029647994 0.0029573604
000020 13 f7 a9 37 64 db 22 bb 4f 60 01 bb c6 9c 31 3a
       2.0261423e-05 -0.0024850005 -0.0019741242 0.0006775375
000030 2a 52 e6 38 60 3b 82 3b 59 59 11 3b 0e 29 81 bb
       0.00010982559 0.003974363 0.00221785 -0.0039416617

encoder.layers.0.ffn.linear1.weight f4 [64, 16]
000000 e1 0b b1 bc cb 99 ab bc 63 4d 96 bd f7 ef c3 bc
       -0.02161211 -0.020947358 -0.07338979 -0.023918135
000010 24 42 f8 bc 28 c6 32 3e e1 b4 0a be b0 57 a7 3c
       -0.030304976 0.17458403 -0.13545562 0.020427555
000020 90 b7 06 bd b4 43 25 3d c4 58 0a ba 47 49 29 be
       -0.032889903 0.04034777 -0.00052775093 -0.1653186
000030 14 9a 8f 3c fc df f9 bd ac bf 33 3d e8 1a 60 3e
       0.017529525 -0.12200925 0.043883964 0.21885264
000040 d7 cd 3f 3d f4 91 1b be 60 8c cc 3e d6 2c bd be
       0.046827164 -0.15192395 0.39950848 -0.3694827
000050 78 d1 d0 3e d0 d5 64 3e 9d 03 05 3d 96 7b be be
       0.40784812 0.22347188 0.03247415 -0.37203664
000060 3c 75 67 3e 0a 3d d9 3e 8d 05 f1 be bc d2 70 3e
       0.22603315 0.42429382 -0.47074547 0.23517889
000070 ce 19 11 3e 8f d4 cd 3e 1b 6f e0 3d 11 8f 01 bf
       0.1417 0.40201232 0.10958692 -0.50608927
000080 d6 ba bd be 08 42 64 3e 04 6a 61 3d f5 0c ae 3e
       -0.37056607 0.22290814 0.055032745 0.3399426
000090 25 b5 03 3f 6b 9d 80 be 76 f6 ff 3e 6a 6a d3 3e
       0.5144828 -0.251201 0.49992722 0.41292125
0000a0 a9 6e 9c be f1 d6 71 be 1f 3a 62 bd 46 64 97 3e
       -0.30553177 -0.2361715 -0.05523121 0.2956869
0000b0 7f 85 a7 3e 5e f9 c1 3d 82 df 7a 3e 3a 2c 87 bd
       0.32719037 0.09471391 0.24499324 -0.066002324
0000c0 6a bb 05 be c5 ec 8f be dd d5 92 3e 1a 1d c6 bd
       -0.13059774 -0.28110328 0.2867879 -0.096735194
0000d0 fd 7f 01 3f ab 5d 89 3e 8f bf de 3e ff 82 e1 3e
       0.5058592 0.26829275 0.43505523 0.44045255
0000e0 a1 5d c9 bd 8a cd 6d be 87 de bb be e8 fc dc be
       -0.098323114 -0.23222938 -0.36693212 -0.43161702
0000f0 4c 12 49 be b1 dc c7 be 90 79 8f bd 78 78 e3 3e
       -0.19635886 -0.39035562 -0.07005608 0.44427848
000100 a8 25 e5 be d2 e4 d7 3d b7 d4 2d 3e d4 e2 78 be
       -0.44755292 0.10541691 0.16975676 -0.24305278
000110 aa 4a 11 3f c8 94 2e bd 01 46 14 3f ca 38 83 3d
       0.56754553 -0.042622358 0.5791932 0.06407316
000120 05 88 c1 be ac c4 a7 3e 42 0d a8 bd c8 83 e1 3e
       -0.37799087 0.32767236 -0.08205654 0.44045854
000130 bc 82 74 3e 42 3e 15 3f 76 03 c8 be 14 d5 f0 be
       0.23877996 0.5829812 -0.3906514 -0.47037566
000140 f4 8a 97 be 00 71 de bd b5 d9 23 3e 17 aa cc be
       -0.295982 -0.10861397 0.16001017 -0.39973518
000150 b0 e1 40 3e 00 99 f4 3e cc c2 a7 3c 48 a6 0f 3e
       0.18836093 0.4777298 0.020478629 0.14028275
000160 9c e9 50 be 7e d4 a3 3e be 3e d8 3e 56 40 ce be
       -0.20401615 0.31998056 0.42235368 -0.4028346
000170 0b ec 12 bf ad da 6d 3e e3 3e 95 be eb e4 9f be
       -0.57391423 0.2322795 -0.2914954 -0.31229338
000180 49 61 9d be 62 2d 83 be c0 67 ef bd 34 22 ca be
       -0.30738285 -0.25620562 -0.116897106 -0.3947922
000190 76 13 05 3f a2 f4 3f be dd de 79 be 74 a9 8d be
       0.5198282 -0.18745664 -0.24401422 -0.27668345
0001a0 7f 17 47 3c 35 33 7f be e2 fd a5 3e 06 dc 94 3e
       0.012151598 -0.24921878 0.3242026 0.29074115
0001b0 77 94 aa 3c b5 35 e9 3d 5d dd 14 3e b2 17 88 3e
       0.020822747 0.11387197 0.14537568 0.26580578
0001c0 a9 7f 70 bd 63 81 be 3d 52 34 b5 bb 5d f7 e2 3c
       -0.058715496 0.09302022 -0.0055299187 0.027705843
0001d0 0c fa 26 bd 04 cc 00 3d 94 5e 4c 3e 10 d3 12 3e
       -0.040765807 0.031444564 0.19957954 0.14338326
0001e0 04 57 66 bd 29 7c 40 bc 78 59 a8 bd 6d 6d f4 bd
       -0.05623533 -0.011748352 -0.0822019 -0.11934934
0001f0 d9 72 1d 3e 5b 1b 67 bd 67 19 58 3d e4 ec 0b 3a
       0.15375842 -0.056422573 0.0527586 0.00053377287
000200 90 22 e0 3b 12 f4 28 bd 2d f0 a6 3d 71 c1 8d 3e
       0.0068400577 -0.04124839 0.08151279 0.27686647
000210 76 26 34 3d c6 e9 a5 bd 04 c2 5f bd 2f 36 8b 3d
       0.04398199 -0.08101229 -0.054628387 0.06797444
000220 0c 4f 71 3d a1 61 86 3c 5d b5 a5 ba 86 8e 65 3d
       0.058913276 0.016403975 -0.0012642551 0.056044124
000230 0a 79 91 3e 19 d1 a4 bd 46 cd 3c be 58 97 e4 bc
       0.28412658 -0.08047695 -0.1843768 -0.027904198
000240 31 16 d0 3e db c8 a8 3d 73 86 7d 3e fc 2a cf 3e
       0.4064193 0.08241435 0.2475832 0.40462482
000250 ac dd a4 3e 21 12 ca 3d 1a 97 f6 3e 22 81 ee 3d
       0.32200372 0.09866739 0.48162156 0.11645724
000260 b8 f0 58 3d b7 74 c9 3e 2d d7 ea be 55 28 f7 3e
       0.052963942 0.3934686 -0.4586729 0.48272958
000270 df 62 7b 3e 92 ed ef 3e 0e 1c f6 3e 62 aa ac be
       0.24549435 0.4686094 0.4806828 -0.33723742
000280 14 1b 00 3f 89 91 b4 3e c4 dc 91 be 7d c1 cb be
       0.5004132 0.35267285 -0.28488743 -0.39796057
000290 a6 9b 0e 3f 15 d0 0c 3f 82 46 c8 bd 6d d1 cd be
       0.5570625 0.5500501 -0.09779073 -0.40198842
0002a0 ea 21 92 be 4d 74 9d be 15 95 5c 3e 33 75 ce 3d
       -0.285415 -0.30752793 0.21541245 0.10080948
0002b0 8b 62 83 3e 72 83 b7 3e 07 96 1d be 9e 70 9e bd
       0.2566112 0.35842472 -0.15389262 -0.07736324
0002c0 27 69 1b bc 96 0e c8 3e 84 d9 06 bd 7a 16 c4 3d
       -0.0094855195 0.39073628 -0.032922283 0.095745996
0002d0 32 8b 63 3e 7c 0d fb 3c b5 f3 a4 3e 15 1b 4e 3e
       0.22221068 0.030646078 0.32217184 0.20127518
0002e0 70 1b d6 bd 4a 58 bb 3e 6b a9 02 3d 2c 64 2a 3e
       -0.10454452 0.36590797 0.03189985 0.16639775
0002f0 c4 4f 84 3e 38 26 c7 bc 9b b0 6a 3e a0 55 04 bf
       0.25842106 -0.024310216 0.22918932 -0.51693153
000300 e5 0a b4 bd ac 95 fd 3e f9 72 0d 3f 94 a0 d9 3c
       -0.087911405 0.49528253 0.5525356 0.026565827
000310 88 91 cc 3e 1b 35 5d 3e 76 bb 81 3e 3a ca 33 be
       0.39954782 0.2160229 0.25338334 -0.17557612
000320 40 31 8a 3e 0d 40 8c be b5 62 7b 3e da 78 be bd
       0.269907 -0.27392617 0.24549372 -0.09300394
000330 6b 15 1c 3e 5b 82 2f 3e 15 2e 8c 3d aa c8 fa be
       0.15242545 0.1713957 0.06844727 -0.4898122
000340 3f 10 32 3e ca 99 54 3e bc cc 85 be a4 8a 77 be
       0.1738901 0.20761791 -0.26132762 -0.24173981
000350 ee 8c 00 be 71 30 8d be 0f 85 df 3e e6 6f e2 3d
       -0.1255376 -0.2757602 0.43656203 0.11056499
000360 61 c4 4c 3e f6 15 8a 3e 8c 84 59 3d a4 3e 3a be
       0.19996788 0.2696988 0.053104922 -0.18187958
000370 43 b8 d1 3e 1f 93 f3 bd dd 00 2d 3e 73 fa a4 3e
       0.40960893 -0.118932955 0.1689486 0.32222328
000380 8c 3a 54 bd a7 80 89 3b 66 ca 38 3e a1 92 de bc
       -0.051813647 0.0041962448 0.18045959 -0.027169527
000390 92 a0 8e 3e a8 88 cb 3d c1 a3 c2 bd 36 7a 0e 3e
       0.2785688 0.099381745 -0.0950389 0.13913807
0003a0 d1 12 08 bd 18 fe a3 3d 7d 68 12 3e 27 09 8c be
       -0.03322107 0.08007449 0.14297672 -0.27350733
0003b0 2b d4 8f 3e 61 d8 8a be 7f 04 0e be 32 6f 52 bd
       0.2809156 -0.2711821 -0.13868903 -0.051375575
0003c0 d8 7b f9 be b5 4f 0a 3f 3b c2 96 3e 27 be 89 bc
       -0.48727298 0.54027873 0.2944506 -0.016814305
0003d0 d7 45 a1 3e 35 8d 15 bf 8a 87 d2 bd 3d c2 21 3e
       0.31498596 -0.5841859 -0.10279758 0.15796752
0003e0 9a 42 60 be e9 43 5d 3e 53 73 2d be 6d 4f 0b bf
       -0.21900406 0.21607937 -0.16938524 -0.5441807
0003f0 f5 15 b3 3e 4b 04 09 3f 87 ea 91 3e fa 30 23 3e
       0.3497769 0.53522176 0.28499243 0.15936652

encoder.layers.0.ffn.linear1.bias f4 [64]
000000 42 50 1e bb 48 ee dc 3d 8d e1 06 be 5d a4 26 be
       -0.0024156724 0.10787636 -0.13171978 -0.16273637
000010 db d7 38 be 5f b6 b3 bd 87 94 0d 3e 1f 1d b4 bc
       -0.18051092 -0.08775019 0.1382619 -0.021986542
000020 9e e9 96 3d 10 20 36 3e aa 13 53 bd 1d 65 4a 3e
       0.07368778 0.17785668 -0.051532425 0.19765134
000030 8f 60 23 3e 7f b7 93 3d a6 36 72 3d e6 db 0c be
       0.15954803 0.072127335 0.059134148 -0.1375576
000040 41 6c 29 be 3a f5 8d 3c a9 6f 4e 3e ea be 5e 3e
       -0.16545202 0.017328847 0.20159782 0.21752515
000050 95 20 5b be 13 94 f1 3c 45 e3 0f 3e 98 37 05 3e
       -0.21399148 0.029489553 0.1405154 0.13009489
000060 61 12 7b 3b 0c ca 21 be 66 04 ce 3d cc cc 36 bd
       0.0038310515 -0.15799731 0.10059433 -0.044628903
000070 9a 2d c3 bc 94 de e7 3c cd ae d3 bc 9a c0 8d 3d
       -0.023825455 0.028304376 -0.025840187 0.069215015
000080 54 90 1b 3d f1 6b f5 bd 1b f6 a6 3d 3e f0 f1 bd
       0.03797944 -0.11983479 0.0815241 -0.11813401
000090 42 e5 ba bd 23 aa 53 3c ba 90 22 3e 88 20 58 3b
       -0.09125759 0.012918982 0.15875521 0.0032978375
0000a0 cf 85 e2 3d 2a 42 08 be 49 2a f7 3d f1 72 10 be
       0.11060678 -0.1330649 0.12068612 -0.14106347
0000b0 eb 3d c1 3c d6 0f 39 3e e6 75 41 3b 26 bf 3f 3e
       0.023589095 0.18072447 0.0029519736 0.18725261
0000c0 bc 2d 45 3e 7e 00 5d 3e 07 82 13 3e 9f ab 63 3e
       0.19255728 0.21582219 0.1440507 0.22233437
0000d0 3e f0 a8 3d 24 ec 02 3d 0a 65 5c 3e cb b7 8e 39
       0.082489476 0.031963482 0.21522918 0.00027221287
0000e0 49 13 24 3d 3e e1 93 b9 36 0c 79 3d c1 68 b0 3d
       0.040057454 -0.00028205843 0.06080266 0.0861373
0000f0 39 2e cd 3d 3b e0 0c 3d e1 ec 4c be eb 09 d2 3c
       0.10018582 0.03439353 -0.20012237 0.025639495

encoder.layers.0.ffn.linear2.weight f4 [16, 64]
000000 50 29 2a bd 44 8f 01 be da b3 49 be 1f b1 89 be
       -0.041543305 -0.12652308 -0.19697514 -0.26892945
000010 d8 35 81 be 74 12 9c 3d 20 33 20 3e 1d f8 73 3c
       -0.25236392 0.07620707 0.15644503 0.014890698
000020 61 dc d0 3c 53 b6 94 be d8 25 32 3e 01 3c 42 be
       0.02549571 -0.29045352 0.17397249 -0.18968202
000030 6e 98 9e bd fe 89 9e 3d ae 58 dd 3d da 97 8b 3e
       -0.077439174 0.07741164 0.1080793 0.2726429
000040 86 1d 28 be cc fe 78 be 99 58 98 3d 87 45 3d be
       -0.16417512 -0.24315947 0.07438774 -0.18483554
000050 43 98 c9 3d 40 b3 bf bb 04 40 30 be cd a4 6e bc
       0.09843495 -0.0058502257 -0.1721192 -0.014565659
000060 7e 70 e0 bd 42 01 2e 3e f4 fd 45 3e 1b eb cd bd
       -0.10958956 0.16992667 0.19335157 -0.100546084
000070 d5 5b 01 3e 32 87 fd bd d2 76 76 3e 26 13 43 3e
       0.12632687 -0.12379302 0.24068764 0.19050273
000080 67 09 02 3d a3 9c 65 3e 60 48 bd bd 88 7a 8b 3c
       0.031747248 0.22423033 -0.0924232 0.0170262
000090 55 9a 98 bc 24 74 68 3e 68 e1 dd 3d 01 f9 6b bc
       -0.018628279 0.22700554 0.108340085 -0.014402629
0000a0 f8 f9 d9 3d b0 74 2e 3e c1 e7 56 be b0 eb 5a 3e
       0.10643381 0.170367 -0.20986845 0.2137897
0000b0 0a e9 6a 3e a4 45 f5 3d 84 f3 88 bc 32 b0 3d 3e
       0.2294046 0.119761735 -0.01671768 0.18524244
0000c0 e3 c2 36 be 17 d4 09 bd 1e 6a 0e bd fc 63 98 be
       -0.17847781 -0.03364953 -0.03476917 -0.29763782
0000d0 db 92 83 be 7a d8 57 be 13 e6 17 3c ad a1 db b9
       -0.2569798 -0.21078673 0.009271163 -0.00041891393
0000e0 8e a1 87 3e 9e 75 2e bb 05 ad 24 be 15 a3 89 bc
       0.26490444 -0.0026620398 -0.16081627 -0.016801396
0000f0 c2 bc 4b be f3 92 02 3d e8 a4 8a 3e db 66 3e 3e
       -0.19896224 0.031878423 0.27078938 0.18593924
000100 f2 62 77 bc 6c 98 a7 bd 07 34 0c be f2 49 59 3e
       -0.015099274 -0.08183369 -0.13691722 0.21219614
000110 27 99 09 3e 78 aa 6d 3e 56 50 4d 3e 29 df b5 3c
       0.13437329 0.2320956 0.20050177 0.022201138
000120 03 27 db bc 09 17 26 3e 46 e0 6b be 55 75 7d be
       -0.026752 0.16219725 -0.23034772 -0.2475179
000130 b2 be 06 be da 77 e2 3d 96 1a 90 3d 45 61 27 ba
       -0.13158682 0.11058016 0.07036321 -0.0006385039
000140 65 f8 17 be 12 42 c5 bd 76 75 f7 3c 07 5c ab bd
       -0.14840849 -0.096317425 0.030207377 -0.08367162
000150 d4 18 47 3e 1f 32 52 bd 47 f1 7f 3e f1 2a be 3b
       0.19443065 -0.05131733 0.24994384 0.005803459
000160 28 44 7a 3e 6c a7 58 be 64 35 cb bd f4 06 4f 3c
       0.24440062 -0.21157616 -0.09922293 0.012635935
000170 6c 59 3a 3d 8c b5 43 3c 22 63 44 be 28 bd 10 3e
       0.045495436 0.01194514 -0.19178441 0.14134657
000180 f4 a7 17 3b ac b9 65 3e bf f6 d1 3c 39 e8 21 3e
       0.002314088 0.2243411 0.025630353 0.15811242
000190 02 e8 63 3d 2a 30 8e be d9 6e 9b bd eb cf b7 3c
       0.05564118 -0.2777112 -0.07589502 0.02243801
0001a0 e8 32 38 3e 86 6b 7c 3d 13 e1 89 3e 9b 5b 8c bd
       0.17988169 0.06162598 0.2692953 -0.0685341
0001b0 3e 02 4a bd d7 fc c8 bc 04 24 71 3b 2e 21 07 bd
       -0.049318545 -0.024534626 0.0036795149 -0.032990627
0001c0 34 60 0b 3e 64 94 24 be 19 50 c0 3c 8e 08 9f 3d
       0.13610917 -0.16072232 0.023475694 0.077653036
0001d0 72 4f 94 3b cf 6d ed bd ff c6 72 be 0e b1 0b bb
       0.004526072 -0.1159321 -0.23708723 -0.002131525
0001e0 51 b4 79 3e a1 68 18 bc 68 74 b2 bd 9e 04 c4 bd
       0.24385192 -0.009302289 -0.08713609 -0.09571193
0001f0 15 6c 26 3d f0 e4 7b 3d 9a 4b 62 be 37 cc 27 3e
       0.04063042 0.06149763 -0.22099152 0.16386496
000200 c5 cf ab bd 32 a3 52 bd 4f c6 83 3d ba ac 3a 3c
       -0.08389238 -0.051425166 0.06434309 0.01139372
000210 80 3d 60 be 79 94 8e 3e 2b c2 a0 bc 1c 6c 5d 3d
       -0.2189846 0.2784765 -0.019623837 0.05405818
000220 e6 07 98 bd 43 6e 20 3e 16 9a 53 3e a0 14 bd bc
       -0.074233815 0.15667062 0.20664248 -0.023081124
000230 36 58 05 3e 50 2d 15 3d 44 86 1a bd ae d2 1d 3d
       0.13021931 0.036420166 -0.037725702 0.038530998
000240 0e 0b 5e be 76 9b 38 be e3 15 90 3d ff d2 45 be
       -0.21683905 -0.18028054 0.070354246 -0.1931877
000250 6c f2 93 3e 61 af f2 bd 3e 84 ff bd 17 f6 43 be
       0.2889589 -0.11849857 -0.12476395 -0.19136845
000260 f6 f5 01 bd c5 b9 a6 bd 54 41 34 be d8 a3 41 3e
       -0.031728707 -0.081409015 -0.17603046 0.18910158
000270 67 1f b8 3c 12 77 48 be 03 5f 6d 3e 4c a3 19 be
       0.022475911 -0.19576672 0.23180775 -0.15003699
000280 24 2c 70 bd 81 9a d3 bd ac 43 37 3e 9f ab 1e be
       -0.058635846 -0.10332204 0.17896909 -0.15495156
000290 4e 2c d7 3c e3 1b 88 3e b1 54 1c be ba 2d 3b 3d
       0.026266243 0.26583776 -0.15266682 0.045697905
0002a0 73 ed be 3d 4a a6 6a bd ce c3 40 be c0 b9 92 3e
       0.093226336 -0.05728749 -0.18824694 0.2865734
0002b0 a9 58 5c bd 5c 39 8a bd 71 56 a5 bd ac e4 99 bc
       -0.05379549 -0.06749222 -0.08073128 -0.018785797
0002c0 fb a1 66 be ee f3 50 3e ca fa d1 3d ac a5 7e be
       -0.22522728 0.20405552 0.10252912 -0.24867886
0002d0 56 c1 5c be 36 62 e8 3d 6a 3a a1 3d f7 18 a3 3a
       -0.21558127 0.11346857 0.0787247 0.0012443353
0002e0 a5 58 94 be 4d ff 67 bb ce 83 05 be f2 91 aa bc
       -0.2897388 -0.0035399974 -0.13038561 -0.020821545
0002f0 46 9f b8 3d 72 16 36 3d 93 07 6b be 9f b7 f8 bd
       0.09014754 0.044455 -0.22952108 -0.12144398
000300 b6 81 e3 38 f8 5d 00 be 7b dd fb 3d 85 cc e7 3d
       0.00010848364 -0.12535846 0.122981034 0.11318306
000310 dc 2a 50 3d b2 47 04 be 61 3d 66 3e e5 9a b8 bb
       0.050822124 -0.12917975 0.22484352 -0.0056336992
000320 aa 27 8d bd 92 88 53 be 5e 32 6f 3d c8 21 5b bd
       -0.06892331 -0.20657566 0.058397643 -0.053499013
000330 8b 52 85 bd 70 9e 0b be c8 a7 ee 3c 71 79 8b bc
       -0.065098844 -0.13634658 0.029132739 -0.017025681
000340 24 d1 fa bc ba ef 2c bb 39 6e 7b be dd de a4 bd
       -0.030617304 -0.0026388005 -0.24553765 -0.0805032
000350 6c f6 86 bd c6 70 d2 3d dd aa 19 3e 21 da 68 be
       -0.0658997 0.10275416 0.15006585 -0.2273946
000360 45 db db 3d 03 8d 58 3d 5a 5a 69 3c 71 be 81 3d
       0.10735182 0.052868854 0.014242733 0.06335152
000370 eb e8 6f be 8c b1 26 3e 8a 8d eb 3d 27 ad 58 be
       -0.23428695 0.16278666 0.11501606 -0.21159802
000380 9e 36 1e bd 1e b9 01 3e 1c 66 6a 3d 95 4c e2 bc
       -0.038626306 0.12668273 0.057226285 -0.027624408
000390 59 e9 34 bd 13 c3 2a 3e 42 89 80 be ab 46 c1 3b
       -0.04416785 0.16675977 -0.2510472 0.005898317
0003a0 d7 ab 7e 3d e0 e0 34 3e 12 f5 aa 3d 63 65 71 bd
       0.062175598 0.17663908 0.08347525 -0.05893458
0003b0 b9 37 7f 3e 6c b4 6d be a5 c7 7f bd 50 de 1e be
       0.249236 -0.23213357 -0.062446255 -0.15514493
0003c0 12 c7 90 3e 7e be 76 bd c5 95 fb bd 11 e9 4e 3e
       0.2827688 -0.06024026 -0.12284426 0.20206095
0003d0 58 14 8e be 44 00 07 3d 60 04 aa 3d f7 08 99 39
       -0.27749896 0.032959238 0.08301616 0.00029189113
0003e0 8b 97 b8 3d 90 5e af b8 f2 f4 05 be b8 a2 68 3d
       0.090132795 -8.362264e-05 -0.1308172 0.056795806
0003f0 25 eb 10 be d2 46 07 3d 02 12 37 be ce b6 14 3e
       -0.141522 0.033026524 -0.17877963 0.1452286

encoder.layers.0.ffn.linear2.bias f4 [16]
000000 26 16 b5 3c 56 df dd bc ac 3b a4 3c c5 76 bc bd
       0.022105288 -0.027084034 0.020047985 -0.09202341
000010 67 ae bb 3d ab b2 4f bd 0e dc 9d 3d 1a 0d b1 3d
       0.09164124 -0.0507075 0.07707988 0.08645077
000020 68 32 12 bd 02 b6 df bd 8e 40 45 bd 86 b8 35 3d
       -0.035692602 -0.10923387 -0.048157267 0.04436543
000030 02 dc a7 bd a3 55 e6 3d 46 1a a5 bd 2a 83 4a bc
       -0.0819626 0.11246803 -0.08061652 -0.0123603735

encoder.layers.0.norm2.gamma f4 [16]
000000 95 84 73 3f 6e 71 73 3f ba e5 74 3f 32 cb 68 3f
       0.9512418 0.95094955 0.95663035 0.9093505
000010 44 b2 74 3f 13 a5 74 3f a0 54 7c 3f 8c d0 6d 3f
       0.9558451 0.95564383 0.9856663 0.9289634
000020 24 9e 6b 3f 8a 98 7b 3f 3d c7 6c 3f f4 19 75 3f
       0.9203818 0.9827963 0.92491513 0.95742726
000030 67 ab 79 3f 33 11 7e 3f 89 a2 75 3f 83 c9 6b 3f
       0.97527164 0.99244994 0.95951134 0.9210436

encoder.layers.0.norm2.beta f4 [16]
000000 f9 e5 37 bb 48 e8 e7 ba 1c b9 04 39 46 86 7a 3b
       -0.0028060658 -0.0017693127 0.0001265746 0.0038227006
000010 4a a0 0b 3b a2 64 40 3a ab 82 9a ba 70 2e 03 3b
       0.0021305257 0.0007339214 -0.001178821 0.0020016693
000020 d8 08 45 b9 c8 f3 ea ba f9 62 d2 ba 85 3c 15 bb
       -0.00018790679 -0.0017925436 -0.0016051225 -0.0022771668
000030 e1 ef 25 39 08 fe 2b 3b c3 7c 33 3b 7c 93 00 3c
       0.00015824988 0.0026243944 0.0027387596 0.007847663
