Trans_Prediction/model_saved/ratioMergedPrs/TM_ratioMergedPrs_delay_size_8_delay_1.pth (torch, 385400 bytes, 337 tensors)

encoder.layers.0.attention.w_q.weight f4 [16, 16]
0	0xbe06d8f2	-0.13168696
1	0xbea3fc79	-0.3202856
2	0x3e805dc4	0.25071537
3	0x3f0879e0	0.53310966
4	0x3e99e3cc	0.30056608
5	0x3f1552d5	0.58329517
6	0x3e1111e3	0.1416698
7	0x3d1f9d53	0.038968395
8	0x3ee8b4ea	0.45450526
9	0xbe1b680e	-0.15176412
10	0x3d42bc53	0.04754288
11	0x3e2991a9	0.16559471
12	0xbde934c1	-0.11387015
13	0x3cc5f268	0.02416344
14	0x3e100b49	0.14066805
15	0x3f08da23	0.5345785
16	0xbef4e712	-0.47832543
17	0xbed7e88e	-0.42169613
18	0x3ea2ca8d	0.3179516
19	0xbdf3b7b4	-0.11900273
20	0x3e0dfd1c	0.13866085
21	0xbe5d2923	-0.21597724
22	0xbc9bde39	-0.019026862
23	0x3eddaa1f	0.43293855
24	0x3eb460b7	0.35230038
25	0xbede9f3f	-0.4348087
26	0xbb83878b	-0.0040139607
27	0x3d931f66	0.07183723
28	0x3eb2a852	0.34894043
29	0xbdec210b	-0.1152974
30	0xbe8d7072	-0.2762485
31	0x3ef4b1ae	0.4779181
32	0x3eac9255	0.33705392
33	0x3da4eab5	0.08052579
34	0x3d988475	0.07447139
35	0x3ccce220	0.025010169
36	0xbd7008db	-0.058602195
37	0xbec38c77	-0.38193104
38	0x3ebe7163	0.37195882
39	0xbd85da73	-0.065358065
40	0x3e6f1ea9	0.2335154
41	0xbaf3e4e6	-0.0018607646
42	0x3dbd8658	0.0925414
43	0x3f01a67b	0.50644654
44	0xbf06fcef	-0.52729696
45	0x3f0ab219	0.54178005
46	0x3ee080a9	0.4384816
47	0xbf180d60	-0.5939541
48	0xbeca3234	-0.39491427
49	0xbec62227	-0.3869793
50	0x3f044b95	0.5167783
51	0xbe56f60c	-0.20992297
52	0xbf173b0b	-0.5907447
53	0x3e9d74e3	0.3075324
54	0xbe28cb09	-0.16483702
55	0xbe396eda	-0.18108693
56	0xbed0fae3	-0.4081641
57	0xbf05f909	-0.5233312
58	0xbd4401f6	-0.047853433
59	0x3f0304a9	0.51178986
60	0x3f17dc43	0.5932047
61	0x3f0f1826	0.5589622
62	0x3e1c7b5a	0.1528143
63	0xbefac28c	-0.48976552
64	0x3d54067d	0.051764
65	0x3f05d35b	0.5227563
66	0x3d9ae799	0.07563705
67	0xbd830ad2	-0.06398548
68	0x3b7df24b	0.0038749154
69	0xbe3ac8b6	-0.18240628
70	0x3e6cde23	0.23131613
71	0xbe9dcdf0	-0.3082118
72	0xbf0b4a42	-0.54410183
73	0x3e2a06c5	0.16604145
74	0x3f0f81bb	0.5605733
75	0xbe4d09e7	-0.20023309
76	0x3d8ab388	0.06772524
77	0xbf13d99a	-0.5775391
78	0xbf05f5cf	-0.523282
79	0x3e186b7b	0.1488475
80	0xbedc5f8f	-0.43041655
81	0xbedac419	-0.42727736
82	0x3db8db3d	0.090261914
83	0x3ea74070	0.3266635
84	0xbe7623e2	-0.24037126
85	0xbda56607	-0.08076101
86	0xbe841aab	-0.25801596
87	0x3dd5e1d2	0.104434624
88	0xbc570634	-0.0131240375
89	0xbe806c72	-0.25082737
90	0x3d1ac11b	0.037781816
91	0xbf12ff37	-0.57420677
92	0xbea40741	-0.32036784
93	0x3d3e76bd	0.046499956
94	0x3ea0893b	0.313547
95	0xbf018861	-0.5059872
96	0x3e5e7117	0.21722828
97	0xbe8855c5	-0.26627937
98	0x3e4e5af1	0.20151879
99	0xbce54ddf	-0.027991233
100	0x3e3ca065	0.1842056
101	0xbf134f80	-0.5754318
102	0x3ed43e7f	0.4145393
103	0x3efad030	0.4898696
104	0x3f19996f	0.59999746
105	0x3ef86468	0.48514104
106	0x3eeee06d	0.46655598
107	0xbed278da	-0.41107827
108	0x3eb6e3f3	0.35720786
109	0xbd80b12a	-0.06283791
110	0x3eed5bfd	0.46359244
111	0x3e264eb9	0.16240968
112	0xbe336b55	-0.17521413
113	0xbea0206b	-0.31274733
114	0x3da688a6	0.08131532
115	0xbeb853d3	-0.36001453
116	0x3e061db0	0.13097262
117	0x3f03c359	0.5146995
118	0x3dc022b1	0.09381617
119	0x3e4fedfa	0.20305625
120	0x3f153fc0	0.583004
121	0xbe4a8f82	-0.19781306
122	0xbf0ca97c	-0.5494611
123	0xbca5817e	-0.020203348
124	0xbe6bf174	-0.23041326
125	0x3f1391d5	0.576444
126	0xbe8c7537	-0.27433178
127	0xbec5a5ea	-0.38603145
128	0xbe99a11a	-0.30005723
129	0xbe5c311e	-0.21503112
130	0x3e55d4d6	0.20881972
131	0xbeb2cdd4	-0.3492266
132	0x3ed11483	0.40835962
133	0x3db3fef9	0.087888665
134	0xbe3d5cc4	-0.18492419
135	0x3efe4821	0.49664405
136	0xbc5af095	-0.013363023
137	0xbe5a7b7a	-0.21336165
138	0xbd71ceff	-0.059035297
139	0x3e216611	0.15761591
140	0xbe989e66	-0.29808348
141	0x3c17b5c5	0.009259646
142	0x3e68dd87	0.22740756
143	0x3e15e077	0.14636408
144	0xbe1fd1e5	-0.15607412
145	0x3eb3f74a	0.35149604
146	0xbe273f85	-0.16332825
147	0x3e9fe346	0.31228083
148	0x3e3f54f7	0.18684755
149	0x3e972394	0.2951933
150	0xbee89dd1	-0.45432904
151	0xbf09855f	-0.53719133
152	0x3e597ead	0.21239729
153	0xbf132a4d	-0.5748642
154	0x3e13afdb	0.14422552
155	0x3f0faa10	0.5611887
156	0x3d888548	0.066660464
157	0x3f13947e	0.57648456
158	0xbe17c6c9	-0.14821924
159	0xbeedebfb	-0.464691
160	0xbf174377	-0.5908732
161	0xbe66f9ab	-0.22556178
162	0x3ea23d27	0.3168728
163	0xbeb6a05a	-0.35669214
164	0x3ebf5c4d	0.37375107
165	0x3f0e3849	0.55554634
166	0xbeb636e9	-0.35588768
167	0xbf119c92	-0.5687953
168	0xbedb7ba7	-0.42867777
169	0x3f186bf7	0.5953974
170	0xbe18ff32	-0.149411
171	0x3ee09ccc	0.43869627
172	0xbe740083	-0.2382832
173	0xbcceb58a	-0.025233049
174	0xbddb8b21	-0.10719896
175	0x3eedbe05	0.46434036
176	0xbe9d7116	-0.3075034
177	0x3edaa816	0.42706364
178	0x3e71c6c5	0.23610981
179	0xbeb32793	-0.3499113
180	0xbea0037d	-0.3125266
181	0xbf09629f	-0.5366611
182	0xbe6905e8	-0.2275616
183	0x3ed27018	0.41101146
184	0xbf01188c	-0.5042808
185	0xbeabf57d	-0.3358573
186	0x3f150c38	0.5822177
187	0x3d8fb50e	0.07016955
188	0x3e5d2168	0.21594775
189	0x3e2e8614	0.17043334
190	0x3e803372	0.2503925
191	0x3f0ddc94	0.554147
192	0xbead8933	-0.33893737
193	0x3e0f5620	0.13997698
194	0x3dab58a4	0.08366516
195	0x3b370912	0.002792899
196	0x3e5d82a3	0.21631865
197	0xbefa145e	-0.48843664
198	0x3db53aa8	0.088490784
199	0xbecb1b52	-0.3966928
200	0xbf1441bb	-0.57912797
201	0x3ec836dc	0.39104354
202	0xbebeab5d	-0.37240115
203	0x3e9f434e	0.31106037
204	0xba813de7	-0.0009860367
205	0x3e86fb80	0.26363754
206	0xbcc4fc47	-0.024046076
207	0xbe8c4e72	-0.274036
208	0x3d53914a	0.05165223
209	0xbef1b733	-0.47210082
210	0xbe9f9be9	-0.31173638
211	0x3ecbb417	0.39785835
212	0xbf0aa195	-0.54152805
213	0x3d8eceee	0.069730625
214	0x3ef5a6b5	0.4797875
215	0xbb18e7c3	-0.00233315
216	0x3d1fb1b1	0.03898782
217	0xbe59d8ce	-0.2127411
218	0xbdf97c8a	-0.12181957
219	0x3e039a4b	0.12851827
220	0x3eb4eab8	0.35335326
221	0xbeaf6e81	-0.34263995
222	0x3edbb673	0.42912635
223	0x3e487c7f	0.19578741
224	0x3de4ed0e	0.11178027
225	0xbf18f8ef	-0.5975484
226	0xbea8a309	-0.32936886
227	0xbea4df8f	-0.32201812
228	0xbe84a680	-0.2590828
229	0x3f0542de	0.52055156
230	0xbed2aef3	-0.411491
231	0xbf1a4732	-0.60264885
232	0x3ec6a15d	0.38794985
233	0x3dd2a1e2	0.10284783
234	0x3d182a57	0.037149753
235	0xbeb5f3b3	-0.3553749
236	0x3d113a93	0.03545625
237	0x3edd96e5	0.43279186
238	0xbd327746	-0.04357078
239	0x3e702765	0.23452528
240	0x3f06db9d	0.52678853
241	0x3de0331f	0.109472506
242	0xbf19b4a2	-0.6004125
243	0x3f11c5ec	0.5694263
244	0x3e4f0b8d	0.2021925
245	0xbeb041cc	-0.344252
246	0x3e4cdc64	0.20005947
247	0xbdc097fb	-0.09403988
248	0x3ddc2691	0.107495435
249	0x3e242b1a	0.16032067
250	0xbf11f780	-0.5701828
251	0x3eda9039	0.42688158
252	0xbef9c611	-0.48783925
253	0xbdb1aa4e	-0.08675061
254	0x3ee5ecf3	0.4490734
255	0x3f12190e	0.5706948

encoder.layers.0.attention.w_q.bias f4 [16]
0	0x3e3bd786	0.18343934
1	0xbe12acdd	-0.14323755
2	0x3e4897e0	0.19589186
3	0xbc45f99c	-0.012083437
4	0x3db3adb3	0.08773365
5	0xbd9b3ff7	-0.0758056
6	0xbe47431f	-0.19459198
7	0x3db4f1ec	0.088352054
8	0x3e48d097	0.1961082
9	0x3d9779fa	0.07396312
10	0x3e17513d	0.14777084
11	0x3d97cd5e	0.074122176
12	0x3d6c51ee	0.05769532
13	0x3e5f0509	0.21779265
14	0x3e3e067b	0.1855716
15	0xbe4d44e1	-0.20045806

encoder.layers.0.attention.w_k.weight f4 [16, 16]
0	0xbed62282	-0.41823202
1	0x3ea6784d	0.32513657
2	0xbe75c5f9	-0.24001302
3	0xbefb1d97	-0.49046013
4	0x3c465875	0.012106051
5	0x3d0112e8	0.03151217
6	0x3c536a92	0.012903826
7	0xbe5e8eda	-0.21734181
8	0x3f06cf6b	0.52660245
9	0xbdf460ae	-0.11932503
10	0xbbc1fbf4	-0.0059199277
11	0x3ee73b1c	0.45162284
12	0x3e2e8f63	0.17046885
13	0xbed87bd7	-0.42281982
14	0xbf13d10c	-0.57740855
15	0xbdfbe3b0	-0.12299287
16	0x3e85b8a5	0.26117435
17	0xbe9a1d42	-0.30100447
18	0x3eb68597	0.35648796
19	0x3ea45c9b	0.32101902
20	0x3eed810c	0.46387517
21	0x3f0cde33	0.5502655
22	0x3ecf5bf8	0.40499854
23	0x3e94ff83	0.2910119
24	0x3ea7547b	0.3268164
25	0xbe8363ef	-0.2566218
26	0xbd2fde07	-0.04293635
27	0xbedc3f39	-0.43016985
28	0xbf0daa06	-0.5533756
29	0x3eca1c26	0.394746
30	0xbee5b458	-0.44864154
31	0xbdf4ef73	-0.11959734
32	0xbe634592	-0.22194508
33	0x3e52f339	0.20600595
34	0xbee8b48b	-0.45450243
35	0x3ef68325	0.4814693
36	0x3da5230f	0.080633275
37	0xbecee340	-0.40407753
38	0xbf0a8ea7	-0.5412392
39	0x3ee7e9ee	0.45295662
40	0x3ebd5e77	0.36986133
41	0xbf17ab2b	-0.59245557
42	0xbe0cf52a	-0.13765398
43	0x3ec20080	0.37891006
44	0xbe8233ac	-0.25430048
45	0x3f097ec3	0.5370905
46	0xbefeaa26	-0.49739188
47	0xbef80170	-0.48438597
48	0xbf0dbed7	-0.55369323
49	0xbf01080b	-0.504029
50	0xbe729685	-0.23690231
51	0xbf092019	-0.535646
52	0xbed9e5fe	-0.42558283
53	0x3f0447a8	0.5167184
54	0xbf126df1	-0.5719901
55	0xbe06a1bd	-0.13147636
56	0xbe844e28	-0.25840878
57	0x3dcfeb56	0.10152309
58	0x3f0ce181	0.5503159
59	0x3f076222	0.52884114
60	0xbe447809	-0.19186415
61	0xbef3b9a4	-0.4760257
62	0x3e9776ec	0.29582918
63	0x3cbca418	0.023027465
64	0xbe884dca	-0.26621848
65	0x3e8e57a7	0.27801248
66	0x3ee93083	0.45544824
67	0x3ed39d70	0.41331053
68	0x3e65b0c0	0.22430706
69	0x3ee6ce38	0.45079207
70	0x3e8628e9	0.26203087
71	0xbee70bb8	-0.45126128
72	0x3eb514fc	0.35367572
73	0x3db7cabc	0.089742154
74	0xbebbc409	-0.36673
75	0x3d501ecd	0.050810624
76	0xbcc6ae48	-0.024253026
77	0x3eacdc1e	0.33761686
78	0x3ebc378d	0.36761132
79	0x3eaeb665	0.3412353
80	0x3e7b654c	0.2455036
81	0xbea797ab	-0.327329
82	0xbe196bb1	-0.14982487
83	0x3d2d548c	0.04231696
84	0xbe8b40e2	-0.2719794
85	0xbedfed95	-0.43735948
86	0xbddd1bb6	-0.10796301
87	0x3e23e1a6	0.16004047
88	0xbd27d3b5	-0.040973384
89	0x3e93ba2d	0.28852978
90	0xbdd6b4a8	-0.10483676
91	0xbda40e48	-0.080105364
92	0x3e41fae4	0.18943363
93	0xbec3c89f	-0.38239
94	0x3eebaa0e	0.4602818
95	0x3e59cb54	0.2126897
96	0xbec13c24	-0.37741196
97	0xbe82a255	-0.25514475
98	0xbe7832de	-0.24238154
99	0x3e6a4ae2	0.22880128
100	0x3f1b0651	0.60556513
101	0x3cf9657a	0.030443896
102	0xbf132d23	-0.5749075
103	0x3dc59f5d	0.09649537
104	0x3ef813ea	0.48452693
105	0xbe717e7c	-0.23583406
106	0xbe719055	-0.23590215
107	0xbeb72576	-0.35770768
108	0xbe45da81	-0.19321634
109	0xbf123e13	-0.5712597
110	0x3e928e7e	0.28624338
111	0xbe8696e1	-0.26286986
112	0xbed34fa0	-0.41271687
113	0x3ee2e647	0.44316313
114	0x3f0cc8a5	0.5499366
115	0xbf022e91	-0.50852305
116	0x3e9d70a8	0.30750012
117	0x3cc28667	0.023745729
118	0xbf0e6cab	-0.55634564
119	0x3d0ee6ee	0.0348882
120	0xba1a3f21	-0.0005884041
121	0x3effe9b1	0.4998298
122	0x3ed32df7	0.41246006
123	0x3d8c7c45	0.0685964
124	0xbe285c5f	-0.16441487
125	0x3e3c23f2	0.18373087
126	0xbee1f95c	-0.4413556
127	0x3e5cdae2	0.21567872
128	0x3e725ec6	0.23668966
129	0x3eaefae4	0.3417579
130	0x3e0bb6d6	0.13643965
131	0xbe981b17	-0.29708168
132	0x3d9fe19e	0.07806705
133	0xbe0d53a1	-0.13801433
134	0xbe99fecb	-0.30077204
135	0xbdb9f3b6	-0.09079687
136	0x3d624763	0.05524386
137	0xbe6f42f0	-0.23365378
138	0x3ec66ee5	0.3875648
139	0xbe5df215	-0.21674378
140	0xbef2c386	-0.47414798
141	0xbeb5693c	-0.3543185
142	0xbee5b3a1	-0.44863608
143	0x3ed589f5	0.41706815
144	0xbe2398ac	-0.15976208
145	0x3ec9628f	0.39333007
146	0x3dc0c809	0.09413154
147	0x3f06ad23	0.52607936
148	0x3ef8f3a3	0.4862338
149	0x3af56bc4	0.0018724133
150	0x3f04c005	0.518555
151	0xbdab6dc9	-0.08370549
152	0xbeca464c	-0.39506757
153	0xbdb2583a	-0.08708234
154	0xbebb1d3e	-0.36545748
155	0x3ee6f4f6	0.45108765
156	0xbc860e70	-0.016364306
157	0x3f192c4d	0.5983322
158	0x3df8ba0d	0.12144861
159	0x3ef577f3	0.47943076
160	0x3ef116f4	0.47087824
161	0xbefc5ce8	-0.49289632
162	0xbe3f8158	-0.18701684
163	0x3eff9c9c	0.4992417
164	0xbec7c9b3	-0.39021072
165	0xbda620d9	-0.08111734
166	0x3e6ecfde	0.23321483
167	0x3ef8da0c	0.48603857
168	0xbf06c451	-0.52643305
169	0xbeaf253f	-0.34208104
170	0x3e670c9d	0.22563405
171	0x3edccc18	0.4312446
172	0x3ed128a9	0.40851334
173	0x3c80d3ec	0.015726052
174	0x3f124e8c	0.57151103
175	0x3e2e7e9e	0.17040488
176	0xbe81a19d	-0.25318614
177	0x3b0a7e8d	0.002113256
178	0xbf13a263	-0.5766966
179	0x3ea06a7d	0.31331244
180	0xbef66fde	-0.48132223
181	0x3e6a34f8	0.22871768
182	0x3ea88fad	0.32922116
183	0x3e8fbfc4	0.28075993
184	0x3ea68abe	0.32527727
185	0x3e16c195	0.14722283
186	0x3db9e4c6	0.09076838
187	0xbe0fcd5a	-0.14043179
188	0xbecfe6d7	-0.40605804
189	0x3ecf5919	0.40497664
190	0x3db8512a	0.08999856
191	0x3f141dee	0.5785817
192	0x3e19d48b	0.15022485
193	0xbeb63178	-0.35584617
194	0xbe4e1b60	-0.2012763
195	0x3e453ec9	0.19262232
196	0xbedf3670	-0.4359622
197	0x3ebff375	0.3749043
198	0x3bfb26a4	0.0076645184
199	0xbe6945b4	-0.22780496
200	0x3e8f2840	0.27960396
201	0xbe1d9f31	-0.15392758
202	0xbe6c0923	-0.2305036
203	0x3e7f146e	0.24910137
204	0x3ee939ed	0.45552006
205	0xbf0fd0d0	-0.56178
206	0xbdd2bfc8	-0.102904856
207	0xbd288e71	-0.041151468
208	0x3ec9e146	0.39429682
209	0x3dadec87	0.0849238
210	0x3c6f4607	0.014604098
211	0x3d56d1d5	0.052446205
212	0xbec77ab1	-0.38960794
213	0x3f1414c9	0.57844216
214	0xbc51c95c	-0.0128043555
215	0xbe7e0d63	-0.24809794
216	0xbe7372d5	-0.23774274
217	0xbec6d9da	-0.38838083
218	0xbe1fb82f	-0.15597604
219	0xbefb623a	-0.49098378
220	0xbf169771	-0.5882483
221	0x3eccace9	0.3997567
222	0xbf0fade0	-0.5612469
223	0xbdeef6cb	-0.11668166
224	0xbeb05c66	-0.34445494
225	0xbede819c	-0.4345826
226	0x3e478a2f	0.19486307
227	0x3f105567	0.56380314
228	0x3eb62168	0.35572362
229	0x3e069603	0.13143162
230	0xbef3d5d6	-0.4762408
231	0x3ec26c6a	0.37973338
232	0x3ed241b7	0.4106576
233	0x3e9ada7f	0.30244824
234	0x3efcbb6a	0.49361736
235	0x3ec73f3f	0.3891544
236	0x3e182a0c	0.1485979
237	0x3e4fd723	0.20296912
238	0x3e9e61ec	0.30934083
239	0xbee5f79e	-0.4491548
240	0xbed67eda	-0.41893655
241	0x3e3e45df	0.18581341
242	0x3e3c477b	0.18386643
243	0xbdbb20d9	-0.091371246
244	0xbe142ff4	-0.14471418
245	0x3f0cbe58	0.5497794
246	0x3edf92fb	0.43666825
247	0xbe95d944	-0.29267323
248	0xbf092ef1	-0.5358725
249	0x3ddeec98	0.108849704
250	0xbe8aae10	-0.27085924
251	0xbe456e86	-0.19280443
252	0xbc8b5a70	-0.017010897
253	0x3e9e856c	0.30961168
254	0xbf12667f	-0.57187647
255	0x3da2bffe	0.07946776

encoder.layers.0.attention.w_k.bias f4 [16]
0	0xb5025f91	-4.856784e-07
1	0x34ca38b8	3.76667e-07
2	0xb504592b	-4.930359e-07
3	0xb267c5a7	-1.3490911e-08
4	0xb3de3d05	-1.034878e-07
5	0xb3dd7d6d	-1.0313929e-07
6	0xb497ec0d	-2.829769e-07
7	0xb3ca9d4f	-9.434972e-08
8	0xb4785c3c	-2.3130355e-07
9	0x33baa5aa	8.691434e-08
10	0x353b331b	6.9737297e-07
11	0xb5805afc	-9.563223e-07
12	0x359bd08b	1.1609094e-06
13	0xb565c220	-8.5591637e-07
14	0x3619c468	2.29131e-06
15	0xb607eb23	-2.0253435e-06

encoder.layers.0.attention.w_v.weight f4 [16, 16]
0	0x3df6761a	0.12034245
1	0x3ea08944	0.31354725
2	0xbe73d63a	-0.2381219
3	0x3c4ace9c	0.012378361
4	0xbd2f7a4a	-0.042841233
5	0xbe91e327	-0.28493616
6	0xbdb02ef3	-0.08602705
7	0x3c71a766	0.014749384
8	0x3ead64cf	0.33865973
9	0xbe83c592	-0.25736672
10	0x3ef0d14f	0.4703469
11	0xbebb61ad	-0.36597958
12	0xbe891b7b	-0.26778778
13	0xbeb46265	-0.3523132
14	0x3e9c423e	0.3051929
15	0x3c041f7f	0.00806415
16	0xbe76a530	-0.24086452
17	0x3e34ea3e	0.17667481
18	0x3e386aaa	0.18009439
19	0x3eca0687	0.39458105
20	0x3c797822	0.015226396
21	0x3e5bdcdd	0.21470971
22	0x3ed3f496	0.41397542
23	0xbe399b2a	-0.18125597
24	0x3e895ed0	0.2683015
25	0x3e0ab552	0.1354573
26	0xbebda409	-0.3703921
27	0xbf079e1b	-0.52975625
28	0x3e8c5a50	0.27412653
29	0xbe912536	-0.28348702
30	0xbed43605	-0.41447464
31	0xbf045579	-0.5169292
32	0x3e0b881b	0.13626139
33	0xbf06e33e	-0.52690494
34	0x3dcc854e	0.09986363
35	0xbef97e29	-0.48729065
36	0xbe9d45f3	-0.3071743
37	0x3eebe709	0.46074703
38	0xbc6ac0c6	-0.014328187
39	0x3ec0d257	0.37660477
40	0x3ea5c9b3	0.32380447
41	0x3e9a838d	0.3017849
42	0x3efe8063	0.49707326
43	0xbdb7044c	-0.089363664
44	0x3d68c411	0.05682761
45	0xbf0a2aff	-0.53971857
46	0xbe043425	-0.12910517
47	0xbea1f006	-0.31628436
48	0x3e937843	0.2880269
49	0xbe04b155	-0.12958272
50	0xbe3107ab	-0.17288081
51	0xbd05bde9	-0.032651816
52	0x3ec060a9	0.37573746
53	0x3e767c5b	0.24070875
54	0x3f053189	0.5202871
55	0x3e8d8881	0.27643207
56	0x3daa2f3a	0.08309789
57	0xbc57f665	-0.013181304
58	0x3ec2fa20	0.38081455
59	0xbe2cbea8	-0.16869605
60	0x3ebe4e44	0.37169087
61	0xbea61601	-0.32438663
62	0xbe954dd1	-0.29160932
63	0x3c5d5e0a	0.01351119
64	0xbe34016f	-0.17578672
65	0x3efd8f8e	0.49523586
66	0xbf0019ab	-0.50039166
67	0x3e84b0c6	0.25916117
68	0xbe246692	-0.16054752
69	0x3eb51d2c	0.3537382
70	0xbdad3e19	-0.0845911
71	0x3e2314b7	0.15925871
72	0xbeeb2637	-0.45927593
73	0xbe6995a8	-0.22810996
74	0xbe0d7e0a	-0.13817611
75	0x3e8e1f5e	0.27758306
76	0xbcf9862c	-0.030459486
77	0x3cdade90	0.026717454
78	0x3ea0bf4f	0.31395957
79	0xbebb4b23	-0.36580762
80	0x3e743057	0.23846565
81	0xbed376f4	-0.41301692
82	0xbdec7202	-0.11545183
83	0x3da1205b	0.078674994
84	0x3e2175d3	0.15767603
85	0xbe474afe	-0.19462201
86	0x3ddb4c25	0.10707883
87	0x3eb9da2c	0.36299264
88	0xbed404d6	-0.4140994
89	0x3e30f0bc	0.17279333
90	0xbeaee724	-0.3416072
91	0xbb37f6ef	-0.0028070768
92	0x3cb11af9	0.021619307
93	0x3e0e143c	0.13874906
94	0xbe83b40d	-0.25723305
95	0x3e92ea13	0.2869421
96	0xbe6e46e6	-0.23269233
97	0xbdccd130	-0.10000837
98	0xbec51a9e	-0.3849687
99	0xbef744c5	-0.48294654
100	0xbed9c4dc	-0.42533004
101	0x3e1a000e	0.15039083
102	0x3eafec11	0.34359792
103	0xbde5de76	-0.11224072
104	0xbeefde5d	-0.46849337
105	0x3e2404a4	0.16017395
106	0x3db5b54b	0.088724695
107	0x3e957ba6	0.291959
108	0xbdc76df7	-0.09737771
109	0x3dabe935	0.0839409
110	0xbebc9131	-0.36829522
111	0xbec54ee7	-0.3853676
112	0xbec452ca	-0.38344413
113	0x3ed29d3b	0.41135582
114	0xbef4ddfb	-0.47825608
115	0x3eb9d179	0.36292627
116	0x3f069a5e	0.52579296
117	0x3ee3927e	0.44447702
118	0xbe39a44e	-0.18129084
119	0x3ed38d3c	0.4131869
120	0x3ef67976	0.48139542
121	0xbf0c361b	-0.5477006
122	0xbef03ed5	-0.46922937
123	0x3d98864e	0.074474916
124	0xbecfe792	-0.40606362
125	0xbe4f3489	-0.20234884
126	0x3e888ed4	0.2667147
127	0xbd94f54f	-0.072733514
128	0x3d5a0db4	0.053235725
129	0x3ea95a1d	0.33076563
130	0x3f0cec0e	0.5504769
131	0xbec008ff	-0.37506863
132	0x3ea9d76a	0.3317216
133	0xbe8c3f0f	-0.2739186
134	0x3ea1ac38	0.31576705
135	0x3e9331db	0.28748974
136	0xbed37ddb	-0.41306958
137	0x3db14c74	0.086571604
138	0x3e967111	0.29383138
139	0xbe910e00	-0.28330994
140	0x3f06f91f	0.5272388
141	0xbeb3662a	-0.35038882
142	0xbdf1f4c5	-0.11814264
143	0xbdbfe5e3	-0.09370019
144	0x3eca4c22	0.3951121
145	0x3de16721	0.110059984
146	0xbee290b8	-0.44251037
147	0x3ecbdb43	0.3981572
148	0xbec4c086	-0.38428134
149	0x3e09d262	0.13459161
150	0xbe3738d4	-0.17892772
151	0x3ee05da7	0.4382145
152	0xbe522c5e	-0.20524737
153	0xbdbcb656	-0.09214465
154	0xbe817636	-0.252855
155	0xbe984852	-0.29742676
156	0x3b377ba3	0.0027997277
157	0xbe5e0088	-0.2167989
158	0x3e7c25e8	0.24623835
159	0xbebaf892	-0.3651777
160	0x3b973171	0.004614048
161	0x3f052387	0.52007335
162	0xbeb4899b	-0.35261235
163	0xbf09b1d5	-0.53786975
164	0xbef34a66	-0.475177
165	0x3ee57560	0.44816113
166	0x3f0ae42d	0.5425442
167	0x3e95747e	0.2919044
168	0xbec9dbf4	-0.39425623
169	0xbed57125	-0.41687885
170	0xbe970c48	-0.29501557
171	0x3ee21899	0.44159392
172	0x3f0b11b6	0.543239
173	0xbe278562	-0.16359475
174	0x3ec1ee29	0.37877014
175	0x3eccf942	0.4003392
176	0x3e31f767	0.17379533
177	0x3eda8b9d	0.4268464
178	0x3ebb8e71	0.36632112
179	0xbea96904	-0.33087933
180	0xbe8a7989	-0.2704585
181	0x3e8d8d16	0.27646703
182	0x3f011029	0.50415283
183	0xbe88d307	-0.267235
184	0xbde344b4	-0.110970885
185	0x3a5e4c95	0.00084800395
186	0xbebe7e60	-0.3720579
187	0x3ba7698c	0.0051090177
188	0xbefa01a6	-0.48829383
189	0x3eb0731e	0.34462827
190	0x3f06d9e1	0.52676207
191	0x3f0a8a44	0.54117227
192	0xbee642ba	-0.44972783
193	0x3e876cc9	0.26450184
194	0x3e3a7db4	0.18212014
195	0x3e3a4030	0.18188548
196	0x3e53cbf9	0.20683278
197	0xbeb78570	-0.35843992
198	0xbe957496	-0.2919051
199	0x3c6f7c1e	0.014616994
200	0xbe897f49	-0.26854923
201	0x3e823b7d	0.2543601
202	0x3d3e22e5	0.046419997
203	0xbe1011f9	-0.14069356
204	0x3c75c0e9	0.014999607
205	0xbcb2af51	-0.021812113
206	0xbe2a7c87	-0.16649066
207	0x3e8a4f7f	0.27013776
208	0x3e81f950	0.25385523
209	0xbdc8e72c	-0.098097175
210	0x3ea2d0ed	0.31800023
211	0xbae0721b	-0.001712385
212	0xbe346b0e	-0.17618963
213	0x3dc560b7	0.096375875
214	0xbdb71aa5	-0.08940629
215	0x3e26b539	0.16280068
216	0xbe4148a7	-0.18875371
217	0xbe48df8b	-0.19616525
218	0xbbdde2e8	-0.006771434
219	0xbe10083a	-0.14065638
220	0x3ea335d2	0.31877
221	0xbde387cf	-0.11109888
222	0xbf08bb7c	-0.5341108
223	0xbec0c451	-0.37649778
224	0x3e4711c8	0.19440377
225	0x3ec6dc0f	0.38839766
226	0xbea7ef86	-0.3279993
227	0x3eebb8e3	0.46039495
228	0x3e664e1f	0.22490738
229	0x3ed5f034	0.41784823
230	0x3ee70715	0.4512259
231	0xbe8a18c0	-0.26972008
232	0xbe8e7ac9	-0.27828053
233	0x3ebc9805	0.36834732
234	0x3f081374	0.53154683
235	0xbe1c8bcf	-0.15287708
236	0xbc98ccc4	-0.018652327
237	0x3ee54647	0.4478018
238	0xbeca7583	-0.3954278
239	0x3c80678a	0.015674371
240	0xbee96af8	-0.45589423
241	0xbe567481	-0.2094288
242	0x3eb99ba4	0.36251557
243	0x3c02a364	0.007973526
244	0xbeeea3b2	-0.46609265
245	0x3f05e7a3	0.52306575
246	0x3ecd238a	0.40066177
247	0x3e168434	0.14698869
248	0xbf015138	-0.50514555
249	0xbf0e75d3	-0.55648535
250	0x3e087e77	0.13329493
251	0x3ec4eedf	0.38463494
252	0xbd98f9c2	-0.074695125
253	0x3ee7b8da	0.45258218
254	0xbdc9748d	-0.098366834
255	0xbe2881a8	-0.1645571

encoder.layers.0.attention.w_v.bias f4 [16]
0	0x3dd6d89a	0.10490532
1	0x3ca0f781	0.019649269
2	0x3d8e0b6f	0.069357745
3	0x3dfea46c	0.12433705
4	0xbded1eb3	-0.11578121
5	0xbd2a4faa	-0.04157988
6	0x3d2db064	0.042404547
7	0xbe314e8b	-0.17315118
8	0x3e2701fa	0.16309348
9	0xbe1cef52	-0.15325668
10	0xbc960ee6	-0.018317651
11	0x3dc5ed2e	0.09664379
12	0x3dddb782	0.10826017
13	0x3e27be29	0.16381134
14	0xbb931c18	-0.004489433
15	0x3e25630e	0.16151068

encoder.layers.0.attention.w_concat.weight f4 [16, 16]
0	0xbec82271	-0.39088777
1	0xbea63639	-0.32463244
2	0xbeb3f638	-0.35148787
3	0xbea14951	-0.31501248
4	0x3d79cd32	0.060986705
5	0x3e9130d1	0.28357556
6	0x3ec3076b	0.38091597
7	0xbd906f7f	-0.07052516
8	0x3ef7043e	0.48245424
9	0xbed55b96	-0.41671437
10	0xbe567c94	-0.2094596
11	0x3e72be66	0.23705444
12	0x3d9227a2	0.071364656
13	0x3e7ae89b	0.24502794
14	0xbdcae970	-0.09907806
15	0x3ed73568	0.42032933
16	0x3e8e90c6	0.27844828
17	0x3e95b1e1	0.29237273
18	0xbe2d486b	-0.16922157
19	0x3ee91f2d	0.45531598
20	0xbebbccb3	-0.3667961
21	0xbe5384cc	-0.20656127
22	0xbea79e95	-0.32738176
23	0xbee4160c	-0.4454807
24	0xbeaaf460	-0.33389568
25	0x3e668602	0.22512057
26	0x3eddca9d	0.43318644
27	0xbee082be	-0.43849748
28	0x3cecf086	0.028923284
29	0xbef09632	-0.4698959
30	0x3ef3ab7a	0.47591764
31	0xbe7eb4e8	-0.24873698
32	0xbe753b4d	-0.23948403
33	0x394e6eeb	0.00019687011
34	0xbe611761	-0.21981575
35	0xbea0ed3c	-0.31430995
36	0xbee7268a	-0.4514659
37	0xbdefb003	-0.117034934
38	0xbc506da1	-0.01272145
39	0x3e2b9fc8	0.1676017
40	0x3ea90944	0.33014882
41	0x3def0eed	0.11672769
42	0x3ef5ea46	0.480303
43	0xbdb4f645	-0.08836035
44	0x3e0e57e2	0.13900712
45	0x3eec60c1	0.46167567
46	0xbec8274e	-0.39092487
47	0x3ee51017	0.44738838
48	0xbe8542a0	-0.26027393
49	0xbef210dc	-0.47278488
50	0xbdab89bb	-0.083758794
51	0x3d798a27	0.060922768
52	0xbee130d1	-0.43982556
53	0x3edfa721	0.43682197
54	0xbea6a27a	-0.32545835
55	0x3f00d9f0	0.50332546
56	0xbdd46ce0	-0.10372329
57	0xbd624512	-0.05524165
58	0xbdcecee6	-0.100980565
59	0xbeddd616	-0.43327397
60	0xbe85e7a9	-0.26153305
61	0x3f01dc52	0.5072681
62	0x3eed356a	0.46329814
63	0x3e606563	0.21913676
64	0xbecbb186	-0.39783877
65	0xbee76519	-0.4519432
66	0xbeab1936	-0.33417672
67	0xbde25dbf	-0.11053037
68	0x3ea8a38a	0.3293727
69	0x3ec30b40	0.3809452
70	0x3eaaf009	0.33386257
71	0xbe0dbeb2	-0.13842276
72	0xbf07f725	-0.5311149
73	0xbe98201f	-0.29712006
74	0x3ea66ff9	0.32507303
75	0x3f08e6cb	0.5347716
76	0x3e1da7d8	0.15396059
77	0xbe88506e	-0.26623863
78	0x3ed0a21e	0.40748686
79	0xbdb064b0	-0.086129546
80	0x3e8137ce	0.25237888
81	0x3d984840	0.074356556
82	0xbe2f680b	-0.17129533
83	0x3e58ddb4	0.21178323
84	0xbec82f38	-0.39098525
85	0xbe32787b	-0.17428772
86	0x3e654dbc	0.22392935
87	0xbf02efcc	-0.5114715
88	0xbc6c50f2	-0.014423596
89	0x3e94f697	0.29094383
90	0xbd5d42da	-0.054018833
91	0x3f0416ce	0.515973
92	0x3ec31526	0.38102072
93	0x3dde53d8	0.10855836
94	0xbd96c733	-0.07362213
95	0x3b4f1003	0.0031595237
96	0xbdcb9e90	-0.09942353
97	0xbbdcf840	-0.006743461
98	0x3e0c986c	0.1373002
99	0x3e2c168f	0.1680548
100	0x3e570dc2	0.21001342
101	0x3df44939	0.119280286
102	0xbe58e5f0	-0.21181464
103	0xbc587424	-0.013211284
104	0xbe4cde1a	-0.200066
105	0xbd97fea5	-0.074216165
106	0x3ded7c91	0.11596025
107	0xbedaf273	-0.427631
108	0xbdaa916a	-0.08328517
109	0x3e99c121	0.30030158
110	0xbf0dbda5	-0.553675
111	0x3ebeacea	0.37241298
112	0x3e38f886	0.18063554
113	0xbd2c1023	-0.042007577
114	0x3e6f0eea	0.23345533
115	0x3e30eab4	0.17277032
116	0xbe788efe	-0.24273297
117	0x3e9bd35d	0.30434695
118	0x3dd14a6b	0.10219272
119	0xbeec61b8	-0.46168303
120	0xbe6190d1	-0.220279
121	0x3d24c43b	0.040226202
122	0x3edff505	0.43741623
123	0x3eb46298	0.3523147
124	0x3e49bac0	0.19700146
125	0x3ea5fd22	0.32419688
126	0xbebbead3	-0.36702594
127	0xbdf3fe9a	-0.11913796
128	0xbea0dcd6	-0.31418484
129	0x3d955550	0.07291663
130	0x3c46ce33	0.012134123
131	0x3edd7537	0.4325349
132	0xbea6c4a8	-0.32571912
133	0x3e433bda	0.190658
134	0xbceed1fb	-0.02915286
135	0xbe70bad8	-0.23508775
136	0xbee05b2f	-0.43819568
137	0x3eae39f6	0.34028596
138	0x3ec97916	0.39350194
139	0xbda18c22	-0.07888056
140	0xbd9fc9ec	-0.078021854
141	0x3eed9e19	0.4640968
142	0xbed012c2	-0.4063931
143	0xbecfe038	-0.40600753
144	0xbbfbb1fb	-0.007681129
145	0xbe9d6975	-0.3074452
146	0x3ead1f98	0.33813167
147	0xbea389e0	-0.31941128
148	0xbc7f123f	-0.015568315
149	0x3d861c49	0.06548364
150	0x3f09b2ec	0.5378864
151	0x3d6567dc	0.05600725
152	0xbe4c3db7	-0.19945417
153	0x3ec1e715	0.37871614
154	0xbe8dd017	-0.27697822
155	0x3e87cd8d	0.2652401
156	0x3e3c87fc	0.18411249
157	0x3d96fb4d	0.073721506
158	0xbe9a5216	-0.30140752
159	0x3df7ae75	0.12093822
160	0x3e096636	0.13417897
161	0x3e5697b6	0.2095631
162	0x3e89bbec	0.26901186
163	0x3f014e53	0.5051014
164	0xbd8baa73	-0.0681962
165	0x3edfeef9	0.4373701
166	0xbe961bbe	-0.2931804
167	0x3e154dce	0.14580461
168	0xbed27f50	-0.41112757
169	0xbea8ba17	-0.32954475
170	0x3e06344d	0.13105889
171	0x3ea6a8e7	0.32550737
172	0xbddee0f4	-0.1088275
173	0x3e9163f8	0.28396583
174	0xbebd6b53	-0.36995944
175	0xbd936ae9	-0.07198126
176	0xbdd324b7	-0.10309737
177	0xbe8bb956	-0.27289838
178	0xbe8d89b0	-0.2764411
179	0xbe7e245b	-0.24818556
180	0xbcbdc408	-0.023164764
181	0x3e9279dd	0.286086
182	0xbec076b8	-0.37590575
183	0x3e507515	0.20357163
184	0x3e4e7278	0.20160854
185	0xbd9b0719	-0.07569713
186	0xbd8f775b	-0.07005187
187	0x3ee6f36a	0.45107585
188	0x3daf6add	0.085653044
189	0xbe49127d	-0.19635959
190	0x3d26adc3	0.040693056
191	0xbda5d3b6	-0.08097021
192	0x3e14f4c1	0.14546491
193	0xbeb1ccac	-0.34726465
194	0xbea6470c	-0.3247608
195	0xbeb23eec	-0.3481363
196	0x3e644b62	0.22294381
197	0x3ea0fff8	0.3144529
198	0x3dc54ca9	0.096337624
199	0x3ec68ae1	0.3877783
200	0xbd977f6e	-0.07397352
201	0x3e9351da	0.28773385
202	0x3f06e9a1	0.5270024
203	0xbe1da16b	-0.15393607
204	0x3e86a923	0.26300916
205	0x3db3c31e	0.0877745
206	0x3f0bbb62	0.545828
207	0xbd25a4b5	-0.04044028
208	0xbe1172b0	-0.14203906
209	0x3de9449c	0.11390039
210	0xbc76d683	-0.015065792
211	0xbd6fe01d	-0.05856334
212	0x3e415079	0.18878354
213	0xbe8ef51b	-0.27921376
214	0xbefb1657	-0.4904048
215	0xbed58120	-0.41700077
216	0x3eb22331	0.34792474
217	0xbedb5d05	-0.42844406
218	0xbe9aa7fb	-0.30206284
219	0x3ebfbc9a	0.3744858
220	0xbe9095b3	-0.2823921
221	0xbe99aebd	-0.30016127
222	0xbdea3db9	-0.11437554
223	0xbedb8c8a	-0.4288066
224	0x3e840aec	0.25789583
225	0xbe38cbc6	-0.18046483
226	0x3ec91523	0.3927394
227	0x3f07b2e0	0.53007317
228	0xbd2963df	-0.04135501
229	0xbe0a99f8	-0.13535297
230	0xbe963bdf	-0.29342553
231	0x3e90c062	0.28271776
232	0x3dd650d8	0.104646385
233	0x3d98344b	0.07431849
234	0xbecaa0af	-0.39575717
235	0x3e4b1f5e	0.19836184
236	0xbeb6c6ea	-0.35698634
237	0x3eff8d16	0.49912328
238	0xbc004a92	-0.007830279
239	0x3ef72ca5	0.4827625
240	0x3eb53563	0.35392293
241	0xbebea5ac	-0.37235773
242	0x3ea3f7b6	0.32024926
243	0x3be01de7	0.006839502
244	0x3e2cd693	0.16878729
245	0x3ee66e11	0.4500585
246	0xbe183a44	-0.14865977
247	0xbe4553f2	-0.19270304
248	0xbe2e0d0f	-0.16997169
249	0xbed38f63	-0.41320333
250	0x3ea5d49f	0.3238878
251	0xbe2511c7	-0.16120063
252	0xbe68cb44	-0.2273379
253	0x3eba8585	0.36429992
254	0x3e492436	0.1964272
255	0xbe09dc32	-0.13462904

encoder.layers.0.attention.w_concat.bias f4 [16]
0	0x3e272827	0.1632391
1	0x3e0358e1	0.12826873
2	0x3d73fb9b	0.05956612
3	0x3d22afe3	0.03971852
4	0x3d2c383b	0.042045813
5	0xbb990573	-0.004669839
6	0xbd3926fb	-0.04520319
7	0x3e17236b	0.14759605
8	0x3e332674	0.17495137
9	0xbe0d20a0	-0.13781977
10	0x3d9c72a3	0.07639053
11	0x3d59cd97	0.05317458
12	0x3db2e0d0	0.08734286
13	0x3e0d8bb3	0.13822822
14	0x3d9d1077	0.07669156
15	0x3e255094	0.1614402

encoder.layers.0.norm1.gamma f4 [16]
0	0x3f6b5712	0.91929734
1	0x3f6463c8	0.89214754
2	0x3f64d33d	0.89384824
3	0x3f6a9ad4	0.916425
4	0x3f75c8d3	0.9600956
5	0x3f66af36	0.901111
6	0x3f764f28	0.9621453
7	0x3f6c7109	0.9235998
8	0x3f73671e	0.9507922
9	0x3f71a2e1	0.9438916
10	0x3f612925	0.87953407
11	0x3f7380b7	0.9511828
12	0x3f6767a4	0.9039252
13	0x3f6ae15d	0.9175013
14	0x3f70341a	0.938295
15	0x3f64380c	0.8914802

encoder.layers.0.norm1.beta f4 [16]
0	0x3b7659d3	0.003759016
1	0x3b30b288	0.0026961882
2	0xbaba7a47	-0.0014227115
3	0xbbcbf63a	-0.006224421
4	0xbb06c399	-0.0020563363
5	0x3b776380	0.0037748516
6	0xbc317bf4	-0.010832775
7	0x3b8caab2	0.0042928094
8	0x3b9f5834	0.0048628096
9	0xbbe2fa21	-0.0069267903
10	0x3bc51b96	0.0060152514
11	0x3c122c3e	0.008921681
12	0xbb6ab727	-0.0035814734
13	0x3bc4645c	0.005993409
14	0xbb94eea8	-0.0045450516
15	0xbb8f29ac	-0.0043689813

encoder.layers.0.ffn.linear1.weight f4 [64, 16]
0	0xbdfd5767	-0.12370186
1	0xbcc4fa20	-0.02404505
2	0xbe689b26	-0.22715434
3	0x3e8057ec	0.2506708
4	0x3da3d9d6	0.08000533
5	0x3ea49562	0.3214522
6	0xbebb5a77	-0.36592457
7	0xbe5b562a	-0.21419588
8	0xbeb00cf8	-0.34384894
9	0x3e96a223	0.29420575
10	0xbeb785c0	-0.3584423
11	0x3cdbbe4e	0.026824143
12	0xbe2d4fc1	-0.16924955
13	0xbedfcf42	-0.43712813
14	0xbe879d7d	-0.26487342
15	0xbd0519ae	-0.032495193
16	0xbebca901	-0.3684769
17	0x3d87670c	0.066114515
18	0x3e8456f6	0.25847596
19	0xbe09c70d	-0.13454838
20	0xbea1f7c8	-0.31634355
21	0x3e3bd9c1	0.18344785
22	0xbeda2eb3	-0.42613754
23	0x3e64393b	0.22287457
24	0xbbd81d73	-0.0065953075
25	0x3e5e5504	0.21712118
26	0xbe6adfc0	-0.22936916
27	0xbefb99a7	-0.49140665
28	0x3d5669c5	0.052346963
29	0x3e2d206e	0.16906902
30	0xbe0786fd	-0.13235088
31	0x3eb51586	0.35367984
32	0x3d53dcd1	0.05172426
33	0xbe25848c	-0.16163844
34	0xbea9832c	-0.3310789
35	0x3e0b7b19	0.13621177
36	0x3e0a8791	0.13528277
37	0xbd8693e4	-0.06571177
38	0xbf00fdb7	-0.5038714
39	0x3ecddb97	0.40206596
40	0xbe40dd79	-0.18834485
41	0xbe8ce1d2	-0.27516037
42	0x3eeaf7bf	0.4589214
43	0xbeeaee3f	-0.45884892
44	0x3e593df3	0.21215038
45	0xbe548879	-0.20755185
46	0x3e752be6	0.23942527
47	0x3cb65951	0.022259386
48	0x3e1d7a18	0.15378606
49	0x3e2f56d9	0.17122974
50	0xbec7d58b	-0.39030108
51	0xbec7e0dc	-0.39038742
52	0xbe1c1139	-0.15240945
53	0xbdffd881	-0.12492467
54	0x3e8c7aaf	0.2743735
55	0x3d3e2d1e	0.046429746
56	0x3e52b512	0.20576885
57	0x3e0b9762	0.13631967
58	0xbd6f8d54	-0.05848439
59	0xbe963c76	-0.29343003
60	0x3ea6320b	0.32460055
61	0xbeeff264	-0.46864617
62	0xbcacadb7	-0.021078927
63	0x3ebb8cbc	0.3663081
64	0x3dbf2c3b	0.09334608
65	0xbdd14c1e	-0.10219596
66	0xbed05bdd	-0.40695086
67	0xbe50e106	-0.2039834
68	0xbe2d2ca4	-0.1691156
69	0x3e9e0a69	0.30867317
70	0x3e20ffeb	0.15722625
71	0xbdc94698	-0.09827918
72	0xbe9b42d8	-0.30324435
73	0xbd279ad7	-0.04091915
74	0x3e9ebb81	0.3100243
75	0xbda140b4	-0.07873669
76	0xbe55d7dd	-0.20883127
77	0xbe241dec	-0.1602704
78	0xbe9328c3	-0.28742036
79	0xbe862390	-0.26199007
80	0xbd91b43a	-0.071144536
81	0xbea10fd5	-0.3145739
82	0x3e38616b	0.18005912
83	0x3e8f3c0d	0.27975503
84	0x3e61b36b	0.22041099
85	0x3ed095da	0.40739328
86	0xbe86d47c	-0.26333988
87	0xbca8820f	-0.02056983
88	0x3ed7db7b	0.42159638
89	0xbe4f8d34	-0.20268708
90	0xbdfc2105	-0.123109855
91	0xbea4bbb9	-0.3217447
92	0x3f05e184	0.52297235
93	0xbeaa41c6	-0.33253306
94	0x3e5c12fb	0.21491615
95	0x3d766baa	0.06016127
96	0xbdeb68cf	-0.114946
97	0x3ce2b622	0.027674738
98	0x3d1973a5	0.037463803
99	0x3cc573e1	0.024103107
100	0x3eaca855	0.33722177
101	0x3e1293fc	0.14314264
102	0x3e9e391e	0.30902952
103	0x3eb21d9f	0.34788224
104	0xbcf6012f	-0.030029861
105	0xbe506daa	-0.20354334
106	0x3ec28d2a	0.37998325
107	0x3e6d7ab2	0.23191336
108	0xbea12a59	-0.3147762
109	0xbef875c6	-0.48527354
110	0xbe930751	-0.2871652
111	0x3df1a833	0.117996596
112	0xbd98dd06	-0.07464032
113	0x3edd3ff5	0.43212858
114	0xbe398d14	-0.18120223
115	0x3e09d665	0.13460691
116	0x3eaac451	0.33352903
117	0x3ed86a3a	0.42268544
118	0xbe55c27a	-0.20874968
119	0xbe49e7bd	-0.19717307
120	0xbefb1167	-0.49036714
121	0xbd9b6a77	-0.07588666
122	0xbe0e839f	-0.13917397
123	0x3d9ca4df	0.07648634
124	0xbd950f33	-0.0727829
125	0x3ebcf0ed	0.36902562
126	0xbe64a446	-0.2232829
127	0xbe8b61eb	-0.27223143
128	0xbee3f871	-0.44525483
129	0xbe702869	-0.23452915
130	0x3e94bd27	0.29050562
131	0x3d2a7e3f	0.041624304
132	0x3f0208ed	0.5079487
133	0xbe8baf7b	-0.27282318
134	0x3dac966d	0.08427129
135	0xbe70f94b	-0.23532598
136	0x3ec6e467	0.38846132
137	0x3e155da5	0.14586504
138	0xbe39d1d9	-0.18146457
139	0x3dd98690	0.10621369
140	0xbe928817	-0.28619453
141	0x3e7ae33a	0.24500743
142	0xbecaebe4	-0.39633095
143	0x3ea9185a	0.3302639
144	0xbe0ceb4d	-0.13761635
145	0xbd2fd182	-0.04292441
146	0xbe92b704	-0.28655255
147	0xbe536f59	-0.20647945
148	0x3e91b9d9	0.28462103
149	0x3d34a665	0.044104
150	0x3d8b1324	0.0679076
151	0x3e9b0a2a	0.30281192
152	0x3e86f066	0.26355284
153	0xbefb1d5b	-0.49045834
154	0xbe7e52c1	-0.24836256
155	0xbea4f4b5	-0.32217947
156	0xbe3a709c	-0.1820702
157	0xbe5dfa20	-0.21677446
158	0x3e44b9e1	0.19211532
159	0xbeed9df7	-0.4640958
160	0xbd392d3f	-0.045209166
161	0xbecafd1b	-0.3964623
162	0xbe894972	-0.26813847
163	0xbe9ade38	-0.30247664
164	0xbe153e92	-0.1457465
165	0xbd969ba9	-0.073539086
166	0x3ea4c689	0.3218272
167	0x3e9532d0	0.2914033
168	0xbd68271c	-0.056677923
169	0xbee132e9	-0.43984154
170	0x3e5211a7	0.20514546
171	0x3eb7adf6	0.3587491
172	0xbe09af6d	-0.13445826
173	0xbef714fa	-0.4825819
174	0xbea69f40	-0.32543373
175	0xbefa544a	-0.48892432
176	0xbeebb7bc	-0.46038616
177	0x3ea36aca	0.3191741
178	0xbdc84dbb	-0.09780451
179	0x3ee68412	0.45022637
180	0xbe35b559	-0.1774496
181	0xbc687f00	-0.014190435
182	0x3e0745bd	0.13210197
183	0x3d19aa26	0.03751578
184	0xbeac3b55	-0.33639017
185	0x3db5b993	0.08873286
186	0xbeec7cf9	-0.46189097
187	0xbe58e772	-0.2118204
188	0xbec16088	-0.3776896
189	0xbed44572	-0.41459233
190	0xbe65f689	-0.22457327
191	0x3e84e93b	0.2595919
192	0xbee236fd	-0.44182578
193	0xbea4206e	-0.32055992
194	0xbd4c9b97	-0.04995307
195	0xbd5846d5	-0.052801926
196	0xbecc84cd	-0.3994507
197	0x3e8ce7e3	0.27520666
198	0x3ecbe233	0.39821014
199	0x3e819190	0.25306368
200	0x3c14bc64	0.009078119
201	0x3d639af8	0.05556771
202	0x3e863389	0.26211193
203	0x3e60429b	0.21900408
204	0x3dd8c7a6	0.10584955
205	0xbebab405	-0.3646547
206	0x3ece6e24	0.40318406
207	0xba2fd4cc	-0.00067074294
208	0xbe9c7349	-0.30556706
209	0x3dc09f43	0.09405377
210	0x3d67da75	0.05660482
211	0xbe35fcda	-0.17772236
212	0x3db01c38	0.08599132
213	0xbe587447	-0.21138106
214	0xbe1f9cbb	-0.15587132
215	0x3e3f4efa	0.18682471
216	0x3e4c2d3d	0.19939132
217	0x3af7147f	0.0018850713
218	0xbec43776	-0.38323563
219	0xbde5484d	-0.11195431
220	0xbe92eda9	-0.28696945
221	0x3e848821	0.25885108
222	0x3d5da412	0.054111548
223	0xbc925de2	-0.017867032
224	0xbe1ab868	-0.15109408
225	0x3ebedba5	0.3727695
226	0x3df9c7fd	0.12196348
227	0xbe34c442	-0.17652991
228	0x3ee5ee04	0.44908154
229	0xbe4b637e	-0.19862172
230	0xbdf0fd3f	-0.11767053
231	0x3d609e79	0.05483863
232	0x3e74b8c5	0.23898609
233	0x3ed49f3a	0.4152773
234	0xbe3bf277	-0.18354212
235	0xbd85d0b9	-0.06533951
236	0xbd52bff1	-0.05145258
237	0xbef7e3a6	-0.4841587
238	0x3dbc319e	0.09189151
239	0xbe42af60	-0.19012213
240	0x3ebb2ac4	0.36556065
241	0xbe0cfc2f	-0.13768075
242	0x3ea2a3ee	0.31765693
243	0xbee112d9	-0.43959692
244	0x3eaa063b	0.33207878
245	0xbdad4c9b	-0.08461877
246	0x3dabc882	0.08387853
247	0x3e59ddcd	0.21276017
248	0x3b4e16a6	0.0031446605
249	0xbd93e169	-0.07220728
250	0x3e59d0ca	0.21271053
251	0x3f050685	0.51963073
252	0xbe9e63d8	-0.3093555
253	0xbe8af90e	-0.2714314
254	0x3e5d86c3	0.21633439
255	0x3ea91885	0.3302652

encoder.layers.0.ffn.linear1.bias f4 [64]
0	0xbe31d61d	-0.17366834
1	0x3d51eef0	0.05125326
2	0x3e13386e	0.14376995
3	0xbe234f9d	-0.15948339
4	0xbe09cb8c	-0.13456553
5	0x3d60d486	0.05489018
6	0xbbb9b074	-0.005666787
7	0x3e53b8ce	0.20675966
8	0xbdb19782	-0.08671476
9	0xbd8416eb	-0.06449684
10	0x3ba18659	0.0049293456
11	0x3e1dc967	0.1540886
12	0x3dc6028b	0.09668454
13	0x3e22fa17	0.15915714
14	0x3def4ba9	0.11684353
15	0x3df3496f	0.11879241
16	0xbe25f10c	-0.16205233
17	0x3e23f48c	0.16011256
18	0x3e35e4d6	0.17763075
19	0xbd946d97	-0.07247465
20	0x3d9ff7ff	0.078109734
21	0x3e56e480	0.20985603
22	0xbe45799e	-0.19284675
23	0x3d0af09c	0.03392087
24	0x3dc7a55f	0.09748339
25	0xbb5f6c67	-0.0034091712
26	0x3e0808d3	0.13284616
27	0x3e31e7c2	0.17373565
28	0xbe4e0732	-0.20119932
29	0x3dddbf99	0.1082756
30	0xbdaa05e8	-0.08301908
31	0x3db5b957	0.088732414
32	0x3c25fae4	0.010130618
33	0x3dab4fd9	0.08364839
34	0x3e2e4ee9	0.1702229
35	0x3d4d6742	0.050147302
36	0x3e087867	0.1332718
37	0xbd8f3af9	-0.0699367
38	0xbdf40253	-0.11914506
39	0x3dc01ad5	0.09380118
40	0xbaad76bc	-0.0013234238
41	0xbdb17590	-0.086650014
42	0xbd3992b4	-0.045305923
43	0x3d3a22e4	0.04544343
44	0x3dc4d3a6	0.09610681
45	0xbe1749a1	-0.14774181
46	0xbe23342a	-0.15937868
47	0x3ca6eaed	0.020375693
48	0xbe2243d1	-0.15846182
49	0x3dc5b39a	0.09653397
50	0x3e1de1e7	0.15418206
51	0xbc586b4e	-0.013209177
52	0xbcaf840e	-0.021425273
53	0xbda15dbc	-0.078792065
54	0x3c9ee32c	0.019395433
55	0xba81f1a8	-0.0009913938
56	0xbc7e1abc	-0.015509304
57	0x3e1d31ff	0.15351103
58	0xbd953acf	-0.072866075
59	0x3e574cc9	0.21025385
60	0xbe648f9a	-0.22320405
61	0x3c3f5614	0.0116782375
62	0xbe2b790e	-0.16745397
63	0xbd950127	-0.072756104

encoder.layers.0.ffn.linear2.weight f4 [16, 64]
0	0x3c5abcee	0.013350708
1	0x3e66e1c1	0.22547056
2	0xbe07d89c	-0.13266224
3	0xbe101d39	-0.14073648
4	0x3e4d5393	0.20051412
5	0x3e89c2c7	0.26906416
6	0x3e407349	0.18793978
7	0x3de9a349	0.11408097
8	0xbe288063	-0.16455226
9	0x3e7a7365	0.24458082
10	0x3e176376	0.14784035
11	0xbe378cac	-0.17924756
12	0xbdfe07c8	-0.12403828
13	0x3e112611	0.14174677
14	0xbe072dcc	-0.13201064
15	0x3d92a051	0.07159484
16	0xbe24a167	-0.16077195
17	0x3daf8e3f	0.08572053
18	0xbc131d8f	-0.008979215
19	0x3e79f7e2	0.24410966
20	0x3d25cdd4	0.040479496
21	0x3e7ecb83	0.24882321
22	0x3d8626a2	0.065503374
23	0xbe7fb0e2	-0.24969819
24	0xbe101426	-0.14070186
25	0xbe265e10	-0.1624682
26	0xbe40a165	-0.18811567
27	0xbe61fc99	-0.22069015
28	0x3db2f8cb	0.0873886
29	0x3e2ee6f8	0.17080295
30	0xbe0be327	-0.1366087
31	0xbe0b5095	-0.13604958
32	0xbb720080	-0.0036926568
33	0xbe50a91f	-0.20377015
34	0x3e43ffae	0.19140503
35	0x3e2c9a72	0.16855791
36	0x3e8502af	0.2597861
37	0x3e758584	0.23976713
38	0xbd69aa64	-0.057047263
39	0xbe2656a3	-0.16243987
40	0xbc954f45	-0.018226275
41	0xbe685b73	-0.22691135
42	0xbce6066d	-0.028079236
43	0x3db10838	0.08644146
44	0x3df67690	0.12034333
45	0x3e315d9d	0.17320867
46	0x3dfca561	0.12336231
47	0xbdd8ffe4	-0.10595682
48	0x3e3fada4	0.18718582
49	0xbde13beb	-0.109977566
50	0xbd641e2d	-0.05569284
51	0xbdf325fe	-0.11872481
52	0x3dab33f1	0.083595164
53	0x3e4008be	0.18753335
54	0xbe4ad550	-0.19807935
55	0xbe4461e4	-0.19177967
56	0x3e7cb3ee	0.24678013
57	0xbe11648f	-0.14198516
58	0xbe1dceb3	-0.1541088
59	0x3d41566d	0.047201563
60	0xbe4d85a4	-0.20070511
61	0xbc9207e2	-0.017826024
62	0xbc380f46	-0.01123411
63	0x3d382d8a	0.044965304
64	0xbe615e0f	-0.22008537
65	0xbde094ff	-0.10965919
66	0x3e7f68e8	0.24942362
67	0xbd4b7817	-0.049675073
68	0x3e0389d7	0.1284555
69	0x3d178a5c	0.036997184
70	0x3d9611f9	0.07327647
71	0xbe848090	-0.25879335
72	0x3d26c8a2	0.040718682
73	0xbe353d2b	-0.17699115
74	0xbd87fe5f	-0.06640314
75	0x3cdd5399	0.027017402
76	0x3e745fe9	0.23864712
77	0x3c994a27	0.018712116
78	0x3c6137bb	0.013746197
79	0x3d1b9e56	0.037992798
80	0x3c0adb89	0.008475193
81	0x3d7c7c7e	0.061642163
82	0x3e444160	0.19165564
83	0x3e292a19	0.16519965
84	0xbe199570	-0.14998412
85	0xbd7fbd67	-0.062436488
86	0x3e84cc7b	0.25937256
87	0xbe7094e5	-0.23494299
88	0x3d700f8f	0.058608588
89	0x3e2650e0	0.16241789
90	0x3e0bb1eb	0.13642089
91	0x3e61395e	0.2199454
92	0x3e17244d	0.14759941
93	0x3e12312a	0.14276567
94	0x3d56aba2	0.052409776
95	0x3d88f152	0.06686653
96	0x3e55db84	0.2088452
97	0x3e0bb585	0.13643463
98	0xbd38c8f1	-0.045113508
99	0xbe040a27	-0.12894498
100	0xbe6b0a2d	-0.229531
101	0xbe3ed36f	-0.18635343
102	0x3e008526	0.12550792
103	0x3d2c8a04	0.04212381
104	0x3da38e1c	0.079860896
105	0xbe0645bc	-0.13112539
106	0xbdd6730b	-0.104711615
107	0xbe39ec41	-0.1815653
108	0x3d114304	0.0354643
109	0xbd726f96	-0.059188448
110	0x3e0989a5	0.13431413
111	0xbe20e78b	-0.15713327
112	0xbe82a6e1	-0.25517944
113	0xbe5c747f	-0.21528815
114	0xbe0923d7	-0.13392578
115	0x3dc49dcb	0.09600409
116	0xbd9e089a	-0.07716484
117	0xbe1d4e53	-0.1536191
118	0x3dd37b21	0.10326219
119	0x3e42ec51	0.1903546
120	0xbdd18a06	-0.10231404
121	0x3cebc052	0.028778229
122	0xbe74621f	-0.23865555
123	0x3d6327a6	0.055457734
124	0xbc5e98f7	-0.013586274
125	0xbe358142	-0.17725089
126	0x3db6965b	0.08915397
127	0xbe24db8b	-0.16099374
128	0x3e598703	0.21242909
129	0x3e2d6291	0.16932131
130	0x3c829880	0.015941858
131	0xbe119354	-0.14216357
132	0x3e244e94	0.160456
133	0xbe156af1	-0.14591576
134	0xbdd3b692	-0.10337557
135	0xbe93c43b	-0.2886065
136	0xbdc372c3	-0.095433734
137	0x3e3a352e	0.18184349
138	0xbc66e9ee	-0.014093859
139	0xbe630ffc	-0.22174066
140	0xbe2d8c66	-0.16948089
141	0xbe5fc90e	-0.2185404
142	0x3dc27f3e	0.09496926
143	0xbdcedf6f	-0.1010121
144	0x3e78a3e0	0.24281263
145	0x3e7d2f63	0.24725108
146	0x3e8ae85f	0.2713041
147	0xbdaf2cfb	-0.08553501
148	0xbe20bc9e	-0.15696952
149	0x3dca3f48	0.09875351
150	0x3df1bc8e	0.11803542
151	0xbdf5f14a	-0.12008913
152	0x3e1ded57	0.15422569
153	0xbddebf41	-0.108763225
154	0xbe60b115	-0.21942551
155	0xbe36ceab	-0.17852275
156	0x3d7ff625	0.0624906
157	0xbe16432a	-0.14674059
158	0xbd66478e	-0.056220584
159	0xbde74391	-0.11292184
160	0x3d768853	0.060188603
161	0x3e7159fc	0.23569483
162	0xbe892669	-0.26787117
163	0xbad97f11	-0.0016593655
164	0xbd90ff7f	-0.07079982
165	0x3dc95ad7	0.098317795
166	0x3e807f71	0.2509723
167	0x3e7c21e1	0.24622299
168	0xbc57156f	-0.013127669
169	0xbdc0da48	-0.09416634
170	0x3d6da4f4	0.05801864
171	0xbd1355fc	-0.035970673
172	0x3e58f82a	0.21188417
173	0x3d50692e	0.050881557
174	0xbc82baea	-0.015958268
175	0xbe14aa23	-0.14518027
176	0x3e59c976	0.21268257
177	0xbe68defb	-0.2274131
178	0x3e259309	0.1616937
179	0xbc92d636	-0.01792441
180	0x3e514489	0.204363
181	0x3e086236	0.13318714
182	0x3b955069	0.004556705
183	0xbe0b46ae	-0.13601181
184	0x3e41f59a	0.18941346
185	0x3e75e432	0.24012831
186	0xbe74549b	-0.238604
187	0x3e29fdd0	0.16600728
188	0x3d80ecb6	0.06295149
189	0xbc855f50	-0.0162808
190	0x3e572ebf	0.21013926
191	0xbe7d443e	-0.24733064
192	0xbe8668f2	-0.26251942
193	0xbc949cc9	-0.018141167
194	0xbe14ce94	-0.14531928
195	0x3dfb36ac	0.12266287
196	0xbdef43c6	-0.11682849
197	0xbe5e05ae	-0.21681854
198	0xbd53629f	-0.051607724
199	0xbe1fbeb4	-0.15600091
200	0x3e12c365	0.1433235
201	0xbde1ae6f	-0.11019599
202	0xbe4c7401	-0.19966127
203	0x3e5a457a	0.21315566
204	0xbdc63a47	-0.09679084
205	0x3da7d6db	0.08195277
206	0xbe1a0bb3	-0.15043525
207	0x3e13824b	0.14405172
208	0x3dcdcca3	0.10048797
209	0x3e4263e7	0.18983422
210	0x3e82cfbc	0.25549114
211	0xbe49d64d	-0.19710656
212	0xbe67ab9b	-0.22624056
213	0xbe7c20dc	-0.2462191
214	0xbe54fe8c	-0.20800227
215	0x3d8fbf97	0.07018965
216	0x3e1212be	0.14264962
217	0x3dfd268b	0.12360867
218	0xbd251448	-0.040302545
219	0x3d1df32b	0.03856198
220	0x3c00989c	0.007848885
221	0xbcef11d6	-0.02918331
222	0xbdd42163	-0.103579305
223	0x3e04f102	0.12982562
224	0x3e3d1fd1	0.18469168
225	0x3dda9663	0.10673215
226	0xbdfb6c57	-0.122765236
227	0xbd296275	-0.04135366
228	0x3e4645c9	0.19362558
229	0x3e3b77e2	0.1830745
230	0xbd060f5d	-0.032729495
231	0x3e042a0c	0.12906665
232	0xbcd697cf	-0.026195435
233	0xbdb51693	-0.08842196
234	0x3e22f39f	0.15913247
235	0xbe50bd71	-0.20384766
236	0xbe38b4b6	-0.18037686
237	0x3d6e88e3	0.058236014
238	0x3e805365	0.25063625
239	0xbe88ebf9	-0.26742533
240	0x3da4632f	0.0802673
241	0x3dff2e5b	0.124600135
242	0xbe4153e0	-0.18879652
243	0xbd8b697f	-0.06807231
244	0x3dea1bfa	0.11431117
245	0xbc99d551	-0.018778475
246	0x3e79b1db	0.24384253
247	0xbe22c184	-0.15894133
248	0x3d201ee4	0.03909196
249	0xbd84a53e	-0.0647683
250	0xbdda037a	-0.10645194
251	0xbe242ba2	-0.1603227
252	0xbe8037e7	-0.2504265
253	0x3e8b41d1	0.2719865
254	0xbd2b3258	-0.04179606
255	0x3da50408	0.080574095

encoder.layers.0.ffn.linear2.bias f4 [16]
0	0x3d72a8c1	0.059242968
1	0xbdde344a	-0.10849817
2	0xbd88e6c4	-0.0668464
3	0xbc2dfe10	-0.010619655
4	0xbddacd0a	-0.10683639
5	0x3d24f3de	0.040271632
6	0x3d4aa618	0.049474806
7	0x3c986941	0.018604876
8	0x3d5642fc	0.052309975
9	0x3c708fe6	0.014682746
10	0xbd1b4c04	-0.03791429
11	0x3d188531	0.037236396
12	0xbdc13ec1	-0.094357975
13	0x3d478214	0.048708037
14	0xbdc70975	-0.09718601
15	0x3d1384f3	0.036015462

encoder.layers.0.norm2.gamma f4 [16]
0	0x3f6e94d9	0.93195873
1	0x3f6f14b0	0.9339094
2	0x3f6aed0d	0.9176796
3	0x3f6f4da8	0.9347787
4	0x3f76185c	0.9613092
5	0x3f732f07	0.94993633
6	0x3f775de2	0.9662763
7	0x3f726829	0.94690186
8	0x3f756f21	0.95872694
9	0x3f6cf38a	0.9255911
10	0x3f75ab5b	0.9596459
11	0x3f78dced	0.97212106
12	0x3f687317	0.90800613
13	0x3f7b6418	0.98199606
14	0x3f702536	0.9380678
15	0x3f7125d8	0.9419837

encoder.layers.0.norm2.beta f4 [16]
0	0x3bb97e73	0.005660826
1	0xbb0c9e27	-0.002145657
2	0xba8bc73e	-0.0010664237
3	0xba3335b5	-0.0006836311
4	0xbc05ce53	-0.008166867
5	0x3aa073d3	0.001224155
6	0xbae59d35	-0.0017518165
7	0x3afdd7c7	0.0019366675
8	0x3bd267ec	0.00642108
9	0xbb1e46c3	-0.0024151064
10	0x3aa19bb5	0.001232973
11	0x3a92f86d	0.0011212953
12	0xbae10ab4	-0.0017169327
13	0x3c1575f8	0.009122364
14	0xbbc8efe4	-0.006132113
15	0xbb5e0d4d	-0.003388244
