Trans_Prediction/model_saved/ratioMergedPrs/TM_ratioMergedPrs_delay_size_8_delay_8.pth (torch, 385400 bytes, 337 tensors)

encoder.layers.0.attention.w_q.weight f4 [16, 16]
00000000: ae32 70bd 9fc3 03bf 43b4 e3be 91b8 e8be
00000010: 40f9 103f bad7 0fbf 3d32 433e add7 8fbe
00000020: 573e 153f 8a1b 89bd 9947 bb3e 136f fc3e
00000030: 9758 f33e 90e9 143f 3edd e83e 9400 cbbc
00000040: 1f44 fd3d 807b 103f 7ce6 083d f5cf a63e
00000050: 4e4f 07bf 7e47 e9be be31 d0be e0cf 483e
00000060: 105f 523e 3090 643e cab4 803e 2a1a b2be
00000070: 3415 9dbe f48b 9a3e ed5e 3e3e 4d06 11bf
00000080: 1856 023e 3944 ad3d bb9c 123e 313d 96be
00000090: d8a8 db3e 41ef c13e 5693 1cbe 73f7 c33e
000000a0: 89ee ddbe 8796 d83d 8787 423e 4f88 a1bc
000000b0: 1a80 acbe a68a 153e 3ec0 073e a5c1 c13e
000000c0: ce6b 033f 5de0 633d f40e e3be c89c 6e3e
000000d0: e3d8 0b3f 97d3 13be 4d8a ef3e fdab 1c3f
000000e0: b466 f3bb a4a7 d63e b822 e7be c355 d3bd
000000f0: f885 2bbd cae5 c1be ac87 f33e 15c0 483e
00000100: 310c 08bf 47bc 113f 1eb5 f93e 117e c4be
00000110: 390f 533e c46b 96bd a190 a9be c08f 86be
00000120: e757 2ebc a47c a3be edfa ffbd b386 b53d
00000130: d958 dfbe 04f6 f23d 563d 4f3e 4787 18bf
00000140: a136 af3e 162f 50be 6e73 cfbe 0485 0ebf
00000150: 5361 c1bc 71df c0bd 8848 ee3d bdff cb3e
00000160: 1c94 e3be ebf4 b63e d567 8d3e 57a3 b5bc
00000170: f04c 113e 95a7 c43e adc5 0abf 9040 5b3e
00000180: a6b6 be3e 65e1 d7bd 0f51 193f 034d 623c
00000190: 6bde 90be 8201 393e b3e9 bdbe f3b7 aabe
000001a0: cf4e 093f ea6b 7bbd 9fb9 eb3e e0e0 843e
000001b0: 5f05 083f 3d3d 0cbf 8074 98be 7b47 ff3e
000001c0: cea5 293e cb96 823e 2299 163f 6a60 93be
000001d0: 44f1 09be c3ec 1cbf cf7f 00bf 29ee 093f
000001e0: 2135 1cbf aaa3 643e 1e4f f13d fc02 03bd
000001f0: 3272 653d 6087 fd3e a918 503e d441 093f
00000200: 56bf a1be 6c6a b73e 76cf b13e 0a88 f53d
00000210: 9353 e5be c98e 0bbf 46ad df3e 62bc 92bd
00000220: e0d9 e4be 264b b83e 6fd7 aabe d942 e2be
00000230: b6ed fcbe 13e4 e83d 1bd4 b1be 92ba ad3e
00000240: cf6f 023f 533a a23e a470 48be ecbd fe3e
00000250: 3a68 f1be 5135 d1be b45a 13bf eb13 9e3e
00000260: 08dc 103f ddab e0bd 207d b03e 2e36 8bbe
00000270: fc8c a6bd 294a 513e cd9b 58be ab95 9ebe
00000280: 1c50 8a3e 9a94 953e 8a0f a33e 3414 8c3e
00000290: 431d 133f 43bc b9be cfad a2bc d611 04bf
000002a0: 9230 633c a30f f3be 2bc0 cd3e 0c00 c8be
000002b0: c105 07bf 4968 ad3e 58c2 56be ce0d e43e
000002c0: b729 d1be 81f7 d13b 771e 13bf c635 bf3e
000002d0: 423f f43e 6692 3fbe c5de 00bf cc3e cebe
000002e0: 5e1c babe d7ff 6f3d 33b5 af3d 43ee 13bf
000002f0: d02f 3cbe 86d9 e33e d8f5 64be c5ae 053f
00000300: 1215 0abf bc77 9bbe 4640 20be 7e0a aebe
00000310: 4e08 c43e 05cc d33e cd10 cdbd 7699 183f
00000320: 5847 ab3e abe4 173d 15c7 a73e 0561 c33e
00000330: 207d 74bd 3d20 1c3f e04d 393e a978 fe3e
00000340: e75c 11bf cb0e 17be dac1 13bf 3605 8a3e
00000350: cd30 e23d dfd5 bbbe 4b65 a73e baac 91be
00000360: 95f5 e8be 34a4 df3d 37df e43e 8499 6fbe
00000370: badf 03bf d7d0 94be d2ba 003f b5c7 b33e
00000380: 9573 173f 5cc6 b1be 9d53 90be db62 bc3e
00000390: 26b6 1ebe 2a6c 283e 2304 c03e 89f6 443e
000003a0: 098c 283e 5c64 843e 9282 7e3e fc71 c9be
000003b0: 53fd c8be 7b54 1bbf 950b 96be e709 d13e
000003c0: 60da 06be 21ed 003f 6a4b 15bf 3386 de3d
000003d0: 5c7e b3be 2808 62be 1b97 bebe 8bc6 10be
000003e0: 17bb 31bc db6c 95be 4f3f 9bbd d3a5 c93e
000003f0: dc36 e13e 4efc 16bf 1826 063d d49e 25be
-0.058642082 -0.5147037 -0.44473466 -0.45453313 0.56630325 -0.5618855 0.19062133 -0.28094235
0.5829825 -0.06694706 0.36578062 0.49303493 0.47528526 0.5816889 0.45481294 -0.02478055
0.12366509 0.56438446 0.033422932 0.32580534 -0.52855384 -0.45562357 -0.4066295 0.19610548
0.20544076 0.22320628 0.2513793 -0.34785587 -0.3068024 0.301849 0.18590899 -0.5665024
0.12728155 0.08460278 0.143176 -0.2934356 0.42902255 0.3787785 -0.15290579 0.38274726
-0.4334605 0.10575586 0.18997012 -0.019718317 -0.33691484 0.14603671 0.13256928 0.37843052
0.5133637 0.05563389 -0.44347346 0.23301995 0.5462782 -0.14436184 0.46785203 0.61199933
-0.0074280147 0.41924775 -0.45143676 -0.10319092 -0.04187581 -0.37870628 0.47564447 0.19604523
-0.531436 0.56927913 0.48770994 -0.3837743 0.20611276 -0.073447734 -0.33118156 -0.26281548
-0.010641075 -0.3193103 -0.12499032 0.088635825 -0.43622473 0.1186333 0.20238242 -0.59581417
0.34221366 -0.20330462 -0.40517753 -0.55671716 -0.023605978 -0.09417618 0.11634928 0.3984355
-0.44448936 0.35733733 0.2761828 -0.022172613 0.14189506 0.38409105 -0.5420788 0.21411347
0.37248725 -0.105410375 0.5988931 0.013812306 -0.2829469 0.18066981 -0.3709236 -0.33343467
0.5363588 -0.06138221 0.46040055 0.25952816 0.53133196 -0.5478094 -0.29776382 0.49859223
0.16567156 0.2550567 0.5882741 -0.28784496 -0.13470942 -0.6129877 -0.5019502 0.5387903
-0.6101857 0.22328058 0.117826685 -0.031985268 0.05601711 0.49517345 0.20321907 0.5361607
-0.3159129 0.3582338 0.34728593 0.11988838 -0.44790325 -0.5451475 0.43686885 -0.071648374
-0.44697475 0.35994834 -0.33367488 -0.44191626 -0.4940011 0.11371627 -0.34732136 0.33931404
0.50951856 0.31685123 -0.19574219 0.49754274 -0.4714983 -0.4086099 -0.57560277 0.3087457
0.5658574 -0.1097028 0.34470463 -0.27189773 -0.081323594 0.20438446 -0.21153183 -0.30973563
0.27014244 0.29214936 0.31847793 0.27359164 0.57466525 -0.36276445 -0.019858269 -0.51589715
0.0138665605 -0.47472867 0.40185675 -0.39062536 -0.52743155 0.33868626 -0.20972574 0.44541782
-0.40852138 0.0064076786 -0.5746836 0.37345713 0.47704512 -0.1870819 -0.5033992 -0.40282285
-0.36349767 0.058593597 0.08579483 -0.57785434 -0.18377614 0.44501895 -0.22359407 0.522198
-0.539384 -0.30364788 -0.15649518 -0.3399238 0.38287586 0.41366592 -0.1001297 0.5960916
0.33452868 0.03708331 0.32769075 0.38159958 -0.05968964 0.6098669 0.18096113 0.4970143
-0.5678238 -0.14751737 -0.5771767 0.269571 0.11044464 -0.36686608 0.32694468 -0.28452092
-0.45499864 0.10919991 0.4470155 -0.23398405 -0.51513255 -0.29065582 0.50285065 0.35113302
0.5916074 -0.3472165 -0.28188792 0.3679417 -0.15499172 0.16447511 0.37503156 0.1923467
0.16459669 0.25857818 0.24854496 -0.39344776 -0.3925577 -0.6067578 -0.2930571 0.40827867
-0.13169241 0.5036183 -0.583182 0.1086544 -0.35057342 -0.22073424 -0.3722466 -0.14138238
-0.010847828 -0.29184613 -0.075804345 0.39384326 0.43987167 -0.58978736 0.032751173 -0.1617387

encoder.layers.0.attention.w_q.bias f4 [16]
00000000: 3486 0f3c 54c6 a23d e6fc 23be 49d0 3ebe
00000010: c13a 23be 2a87 6f3e 595a 97bd c3f2 013e
00000020: 4c5d efbd 4cac c53d cd4f 1abd 4739 293d
00000030: 1542 263d c56e 333e 6c47 783e b050 cd3c
0.008760024 0.07947984 -0.16014442 -0.18634142 -0.15940382 0.23391405 -0.07390279 0.12690262
-0.11687717 0.09652004 -0.03767376 0.04131439 0.040590364 0.17522724 0.24245995 0.025062889

encoder.layers.0.attention.w_k.weight f4 [16, 16]
00000000: 1b03 22bc 4322 e13e 6e7e 843d 01bd dfbe
00000010: ee4f 6d3e f266 f03d d666 9bbc f2b3 f33c
00000020: 8952 fb3d bc0e c53d 5a83 ba3e cccd 9a3e
00000030: d0cc 5ebe 9e24 2abe 753e 94be 0c53 81bd
00000040: bdc4 3e3e a8e4 5f3e 31e7 133f cbfc 77be
00000050: b613 3c3e 97c0 823e a664 c63e 8602 0bbf
00000060: 4272 143f 4140 cdbe a512 8fbd 5cfb b53e
00000070: fcd7 b53e 79a2 963e 05a7 323e c10c 60be
00000080: 9874 863e 58c1 dbbe 9f25 b43e 16ef f63e
00000090: f57e fcbd ffd8 fa3d f914 513e 92c7 103f
000000a0: 1cbd 0a3e 5c56 b33d 3d4d 2d3d db24 db3d
000000b0: 7257 7bbe 9e34 4bbe dca9 87bd 690e a6be
000000c0: d8ce 8b3d ba15 b9be cbb0 93be cd56 ee3e
000000d0: 31cb b43d 64ed bcbe 7002 163f b3e8 073d
000000e0: d518 65bb 843e 3abd c9a2 d33c f7c7 313d
000000f0: ad54 313e 2b8f c13e 7109 9a3e 2906 193f
00000100: 4f69 3dbe ea66 10bf f531 bdbe 7e24 a83e
00000110: 0522 a23e beab 50be d5dd 613e 5c3d 82bd
00000120: 85dc fe3e 0092 69bd e9cd ebbe 82bc 16bf
00000130: 34f4 f2bd 40b8 083e 794e ac3e 0587 e7be
00000140: 7a8a 16bd b891 293e a2c6 963e 1196 4cbe
00000150: 4775 113f 2521 c93e 31b8 093f 1f7f adbd
00000160: 55c8 1bbf cd8a 15bf 8199 e3be e752 16bf
00000170: cd83 a73e c45e 953e a552 30bd daca 013f
00000180: 6017 2fbe 1420 043f 0628 073f c165 a5be
00000190: ab56 d53e 34a6 14bf 8f52 853e b2a1 0f3f
000001a0: 9520 053f a02a 8c3d 1e17 d83e 6c9f c83e
000001b0: 6cd2 d1be 35a8 f73d 4ba9 983e 1f32 243e
000001c0: 315d 4d3e 8540 e1be d706 b93c 7a94 613e
000001d0: 6032 083e fed4 8abe 57bc c93e 311e b4be
000001e0: f552 e43b 3e42 92be c9c1 5e3e bc41 113f
000001f0: c580 e23e 65ac b7be 5310 8fbe 8845 14bf
00000200: c542 d93d df12 be3e d91b 293d 4f27 d2be
00000210: ff32 0b3e ffc5 073f 523e 06bd e811 16bf
00000220: e9b7 20be 497a d13e db76 edbe 40af eb3d
00000230: fe68 15bf 79a3 c2be 9122 de3e 90de 93be
00000240: b3e5 0ebf ad8c ff3e 137d 8dbe 454c 523e
00000250: 82c4 55be c4c7 12bf 113a 84be 545c 6a3e
00000260: a5f6 09bf 0680 babe 72b0 043e cb65 eabe
00000270: 773d a53e 94c8 0cbf eef3 0fbf 1f92 05be
00000280: 6c90 90be 073e d2be 6aa6 a5bd 8f77 613e
00000290: 8e2c c63d 9fbd bd3c 2afc fb3e 6771 463e
000002a0: 9c17 9c3e ada2 94be e291 ee3e 7f4b 9a3e
000002b0: bea5 e4be dae1 7fbd 46e6 7cbd b532 fd3d
000002c0: dba3 413e 1168 da3e 0dff 32be 27ec febe
000002d0: a012 ac3e 2a1e f0be e2b7 a73c 7d72 433e
000002e0: f04c 84be 41df ec3c d5c2 f83e 4c53 d43e
000002f0: a8ab 883e e19e 88be fe44 c13e 73b5 3fbe
00000300: d03e d5bc f714 71be 8c06 80be f972 7fbe
00000310: 09f4 96be d3b4 bebd 123c 06bf 1d8f 45be
00000320: 8b20 b23c ac25 91be 971a 0e3f b599 7bbe
00000330: e648 0ebf de43 e5be af6c 57bd 2cfa 2cbe
00000340: c5bb 8dbe 0cf9 183f dc2f 073f f292 c3be
00000350: 83da bcbe 910b d83d b39b 5abe a5e9 84be
00000360: 7abc 043e 8273 5bbe d40e d13e a11f a23d
00000370: b21c a5be 07dc 8abe 58ee 8cbd 5b9f 043f
00000380: bb02 c1bd 78b9 8f3e 9bec cb3e c6d8 0ebf
00000390: c925 8abe 4226 f9be 4936 8c3e 6ae2 ed3e
000003a0: eb7e 0d3f 0357 0b3f 4fac 803e 02cf b6bd
000003b0: b43f 93be afed ad3e b6f2 133f d483 c83e
000003c0: d05e 49be 458b c4be 4b8e edbd 1ba6 8bbd
000003d0: 6cfc 763e 6a59 b23e db12 0fbf e6ce 8d3d
000003e0: afc4 bebe d0a8 043f ae7a 6cbe 65ab 0fbe
000003f0: 146c 1abf 61cf 9d3e 740e 4abe 25ad a53e
-0.009888436 0.43971452 0.06469427 -0.43698886 0.23175022 0.11738385 -0.018969934 0.02974889
0.12271602 0.09621951 0.36428338 0.30235136 -0.21757817 -0.16615531 -0.289539 -0.06314668
0.18629737 0.21864569 0.57774645 -0.24217527 0.18366894 0.2553756 0.38748664 -0.54300725
0.57986844 -0.40088084 -0.06985978 0.35543334 0.35516346 0.29420832 0.17446525 -0.21879865
0.2626083 -0.42920947 0.35184953 0.48229283 -0.12328903 0.1224842 0.20418157 0.5655452
0.13548702 0.08756706 0.04230999 0.10700389 -0.24545076 -0.1984429 -0.06624195 -0.3243287
0.06826562 -0.3614939 -0.2884582 0.465506 0.08827818 -0.36899865 0.5859747 0.033180904
-0.0034957428 -0.045469776 0.025834458 0.043403592 0.17317457 0.3780454 0.30085328 0.59775025
-0.18497203 -0.56407034 -0.36952177 0.3284034 0.3166658 -0.20378014 0.22057278 -0.063593596
0.49777618 -0.057024002 -0.46055534 -0.5888139 -0.11862984 0.13351536 0.3365362 -0.452202
-0.036753155 0.16559494 0.2944842 -0.19979121 0.56819576 0.392831 0.5379668 -0.08471512
-0.6085256 -0.5841492 -0.44453052 -0.5872025 0.32717744 0.29173863 -0.043047566 0.5070015
-0.1709876 0.5161145 0.52795446 -0.32304195 0.41667685 -0.58066106 0.2603955 0.561061
0.5200284 0.068440676 0.42205137 0.3918413 -0.40980852 0.1209263 0.2981666 0.16034745
0.20055081 -0.43994537 0.02258627 0.22029296 0.13300467 -0.27115625 0.39401504 -0.35179284
0.006967897 -0.28566164 0.2175361 0.5674093 0.44238868 -0.35873714 -0.27942142 -0.57918596
0.106084384 0.37123773 0.041286323 -0.41045615 0.13593672 0.53036493 -0.032774277 -0.5862107
-0.15695156 0.4091361 -0.46379742 0.11508036 -0.5836333 -0.38015345 0.43385747 -0.2888074
-0.55819243 0.49912015 -0.27634487 0.20536907 -0.20875743 -0.5733607 -0.2582555 0.22886783
-0.53891975 -0.364258 0.12957934 -0.45780787 0.32273456 -0.5499356 -0.5623158 -0.13044022
-0.28235185 -0.41062948 -0.080883816 0.22018264 0.09676467 0.023161707 0.49215823 0.19379197
0.30486763 -0.29030362 0.46595675 0.30135724 -0.446577 -0.06247125 -0.061743043 0.12363187
0.18910162 0.4265752 -0.17480107 -0.49789545 0.3360796 -0.46898013 0.020473424 0.19086643
-0.2583995 0.02891505 0.48586145 0.414698 0.26693463 -0.26683715 0.3774795 -0.18721561
-0.026030928 -0.23543154 -0.25004995 -0.24946202 -0.2948306 -0.09311833 -0.5243541 -0.19292875
0.021744033 -0.28349054 0.5550932 -0.24570353 -0.55579984 -0.4477834 -0.052593883 -0.16892308
-0.2768232 0.59755015 0.528074 -0.38198048 -0.3688546 0.10549081 -0.21348457 -0.25959507
0.12962523 -0.21430781 0.40831625 0.07916189 -0.32248455 -0.27120993 -0.06881398 0.5180566
-0.09424349 0.2807119 0.39828953 -0.5579952 -0.26981953 -0.48662 0.27385166 0.46461803
0.55271786 0.54429644 0.2513146 -0.08926202 -0.2875954 0.339704 0.5779222 0.39163077
-0.19665074 -0.38387504 -0.11599406 -0.068187915 0.24119729 0.34833843 -0.55888146 0.06924228
-0.37259433 0.5182009 -0.23093674 -0.14030226 -0.60321164 0.3082228 -0.19732076 0.3235866

encoder.layers.0.attention.w_k.bias f4 [16]
00000000: f33b 8a35 d5b4 73b4 8cbb 9eb4 a85c fdb4
00000010: 7e94 8b34 0c1a 0e34 317b 1534 74b7 8633
00000020: 10d2 04b5 457a b634 693a 4735 402b 4eb5
00000030: ce88 6a34 48a1 5db4 9ec7 19b4 5fd0 0fb5
1.0299249e-06 -2.2696925e-07 -2.9566252e-07 -4.7192339e-07 2.599881e-07 1.3234256e-07 1.3921523e-07 6.273231e-08
-4.9479513e-07 3.3989105e-07 7.4218275e-07 -7.680392e-07 2.1842718e-07 -2.0640903e-07 -1.4321856e-07 -5.357487e-07

encoder.layers.0.attention.w_v.weight f4 [16, 16]
00000000: d2ea dbbc d573 033f fbe2 e03e 2c9c be3e
00000010: 2e1b 493e 6598 09bf 9217 e63e 5aff a93d
00000020: 2b5d 52be 6310 8cbe 44fb b8be f25a 5a3e
00000030: b419 d4be aa5c d13c 001c 0f3f c486 1f3e
00000040: 320c 983e 5bee 53be 2e42 af3e 41a4 19bf
00000050: 8b2a 03be f204 763e 6f34 b73e 778d 113f
00000060: 2df0 c93e 29ee 583d c257 123d 3694 babe
00000070: defa 083e d447 9a3e 36aa 19bf fd09 92be
00000080: b618 8d3d 8db0 f43e 0fe9 99be 1a13 19bf
00000090: c830 bb3c a776 a4be b932 ffbe 290d 683e
000000a0: 2cac 88bc e802 a43e cb80 08bf ca9a a5be
000000b0: fc19 16bf 5155 ee3e e31c ca3d c113 0d3f
000000c0: 9c10 e0be 3bfc d6be dd08 bd3d d9f4 133e
000000d0: 150b 073f f523 673e 64ae b83c 5b46 033f
000000e0: c8d0 e4bd 6a22 253e 16f3 0c3e 7324 f83c
000000f0: 2cd1 05bf d833 ef3e 089e afbe e2e7 043f
00000100: e727 0ebf bdf5 1e3e 8af2 ffbd 554b 08bf
00000110: 6641 cebe fd60 16bf bb39 87be 5b59 573e
00000120: 3163 f7be 2cc8 f53e 92a9 7ebe a52f 08bf
00000130: 9764 a5be c8ed 3e3b cb94 c2be 2e72 143f
00000140: eb82 e0be 01a9 86bd 2547 203c b0b7 06be
00000150: 4712 a5bd 4a1c efbe fa39 093f d3c0 973e
00000160: 8ec1 65be 3cc6 09bd 311a e73e b894 17be
00000170: 7820 0bbf ab78 80be 7355 10bf 02e5 e2be
00000180: f133 c73d bc0a acbe c6fa e1be d4f5 90bd
00000190: be05 c5be 06e5 98bd 9017 d63e 11e0 0abf
000001a0: e45f c7be 5931 e4be 4c4b 3f3e 0d18 be3d
000001b0: a6fb 2ebd 9ff1 503c fa46 cdbe a4d3 9f3d
000001c0: a8a2 b5be 70a4 cb3d 7590 f33e 676f fb3d
000001d0: 0b09 71be a9b6 8d3e 71a1 bcbe 8d60 62be
000001e0: f0d3 2a3e 0593 0c3e 4608 963e 4dc2 ff3e
000001f0: aed4 f4bb 4568 0abf a72d cf3e b9da e3be
00000200: ed0d bdbe 5797 4bbe 1852 04bf b9bf 773e
00000210: 1a9f 073f 2ad4 dabe 909c 02bf 2948 d23d
00000220: 71c5 f33e 607c 163f eba5 423e ab4f 30bd
00000230: bad1 dd3e ec02 34be bff4 233e 7b19 2f3e
00000240: 20c2 373e de14 103f 9e06 63bd 6f40 103f
00000250: 96ba 943d a4de 0dbf a3b1 343e c0cb 5f3e
00000260: ce54 8b3e 30e3 b93e 5fd1 cd3b db11 b23e
00000270: d384 fc3e 63c1 6abe 018d 9dbc d07b cd3e
00000280: 7b40 003f bef6 4ebe dbb5 1abf 0419 0dbf
00000290: e5b1 85bd 7530 b33e df8a ed3e 9bed d33e
000002a0: 7d52 0abf 0c5e b03e 1aca 8b3e 6d28 213e
000002b0: 04a3 1cbf 7198 f83e 1c31 1a3c 1d80 c53e
000002c0: ece1 073f 344c ecbe 80a1 c5be 22c9 633e
000002d0: f0a9 a83e b7d8 83bd 854e dbbe 49bf 4cbe
000002e0: 50ec 153f 63a7 fabd 4b2b 81bd 6c5a 0c3f
000002f0: 54af 493e f704 d33e dac7 c73e e5d9 403e
00000300: f273 813d 6d58 fbbe afdc 443e 1f41 d83e
00000310: 3508 9abe c713 8abe ad4e 093f 4e6b 87be
00000320: 2077 cabd ae3a f93e 4342 82be a583 5cbd
00000330: 97ad 3b3c bcfc e3be 819b 23be c95e c23e
00000340: fc1a cd3e 2d5d 6abd b60e babe 0c0e 6f3e
00000350: 1902 a13d d63f 903d 99fe b3be 99d1 5a3d
00000360: 8d1d 8f3e 3a52 b53e 1a8a ffbc 2ad1 a13e
00000370: b729 03bd fb2a 19bf 30fa 9a3d ff13 103f
00000380: 0111 f2be d700 923d dc16 cbbe b7b1 9abe
00000390: 1197 55bd 8eb9 d0be 1634 073f 182d 12bd
000003a0: 45c5 f7be d542 1f3f e68b 0ebf 8f43 7f3d
000003b0: d0e0 733e b797 8cb9 f477 04bf c567 143f
000003c0: 45b4 0b3e 3951 7bbd 7789 9a3e b804 013e
000003d0: 186e a63e df38 a6bd 3f21 0b3d 0465 e93e
000003e0: 6358 bc3e b4ce bcbe 8c3e 283e 3637 d3be
000003f0: 014e c4bd 0786 11bf 0762 e9be 6b41 17bf
-0.02684537 0.5134862 0.43923172 0.37228525 0.19639274 -0.5374816 0.44939858 0.083006576
-0.20543353 -0.27356252 -0.361292 0.21323755 -0.4142586 0.025556881 0.559021 0.15578753
0.29696804 -0.20696394 0.3423018 -0.60016257 -0.12809198 0.24025324 0.3578219 0.56856483
0.39441052 0.052961502 0.035728224 -0.364412 0.13376948 0.30132926 -0.60025346 -0.28523245
0.06889479 0.47790948 -0.30060622 -0.5979477 0.02285041 -0.32121775 -0.49843386 0.2266127
-0.01668366 0.32033467 -0.5332152 -0.32344657 -0.586334 0.46549466 0.09868791 0.5510827
-0.43762672 -0.41989312 0.09230206 0.1444887 0.52751285 0.2257231 0.022544093 0.5127923
-0.11172634 0.16126409 0.13764605 0.030290818 -0.52272296 0.4671924 -0.34300256 0.51916325
-0.55529636 0.15523429 -0.124974325 -0.5323995 -0.4028427 -0.5874174 -0.26411232 0.2103018
-0.48317865 0.48004282 -0.24869373 -0.531977 -0.32303306 0.0029133428 -0.38004145 0.57986724
-0.43849882 -0.06575204 0.009782587 -0.13156009 -0.08060127 -0.4670127 0.5360409 0.296393
-0.22437117 -0.033636317 0.4513717 -0.14802825 -0.5434642 -0.25092062 -0.56380385 -0.44315344
0.09726704 -0.3360194 -0.44136637 -0.07078138 -0.38480943 -0.07465558 0.41814852 -0.5424815
-0.38940346 -0.445689 0.18681067 0.09281931 -0.04272046 0.012752919 -0.40093213 0.07804039
-0.3547566 0.09943473 0.4757115 0.12277108 -0.23538606 0.2767842 -0.3684192 -0.22107144
0.1668241 0.13727959 0.29303187 0.49952927 -0.0074716425 -0.5406535 0.40464517 -0.4450281
-0.36924687 -0.1988195 -0.51687765 0.2419423 0.52977145 -0.42739993 -0.51020145 0.1026767
0.47611573 0.5878353 0.19008605 -0.043044727 0.4332407 -0.1757924 0.16011332 0.17099564
0.17945147 0.5628184 -0.055426233 0.5634832 0.07262151 -0.5541785 0.17645888 0.21855068
0.27213138 0.36306143 0.0062810625 0.34779248 0.49320087 -0.22925334 -0.019232275 0.40133524
0.5009839 -0.20211312 -0.6043374 -0.55116296 -0.06528071 0.34997907 0.46395013 0.41392216
-0.5403212 0.34446752 0.2730263 0.15738077 -0.6118624 0.48553804 0.009411123 0.38574305
0.53079104 -0.46151888 -0.38599777 0.22244695 0.32942152 -0.064378195 -0.42833343 -0.19994844
0.5856371 -0.12238958 -0.063070856 0.5482547 0.19695789 0.41214725 0.39019662 0.1883312
0.06320943 -0.490909 0.19224809 0.42237183 -0.30084386 -0.26968214 0.53635675 -0.26449054
-0.098860025 0.48677582 -0.2544118 -0.053836484 0.011454961 -0.4452876 -0.15977289 0.3796294
0.4005965 -0.057217766 -0.3633935 0.23345202 0.07861728 0.07043426 -0.3515518 0.053422544
0.27952233 0.35414296 -0.031193782 0.31604892 -0.032022204 -0.5983121 0.07567251 0.5628051
-0.47278598 0.071290664 -0.39665878 -0.3021371 -0.05214602 -0.40766567 0.5281385 -0.035687536
-0.48392692 0.6221135 -0.5568222 0.06232029 0.23816228 -0.00026815917 -0.51745534 0.5797084
0.13642986 -0.061356757 0.30183002 0.12599456 0.3250587 -0.08116316 0.033967253 0.4558488
0.36786184 -0.36876452 0.1643011 -0.4125306 -0.095851906 -0.56845134 -0.455826 -0.59084195

encoder.layers.0.attention.w_v.bias f4 [16]
00000000: 7c03 b43d 6cb2 f23c cbf3 b73d cb39 1cbd
00000010: bb0a b43d 02d6 3d3d 6459 153d 0ee9 79bd
00000020: 0a3e e5bd bc5d 5b3c 7e4b 45bd 0d8d 7d3d
00000030: e312 acbd 50ba 843d cadd 793d e29b 5f3d
0.08789727 0.029626094 0.08982047 -0.038141053 0.08791109 0.046346672 0.036462203 -0.061013274
-0.11193474 0.013389047 -0.048167698 0.061902095 -0.0840204 0.06480849 0.06100253 0.05459202

encoder.layers.0.attention.w_concat.weight f4 [16, 16]
00000000: c6d4 8ebe 8687 15bf 1e93 bd3e df7b da3e
00000010: a54a 3dbe bd4e c4bb 0c83 37be e07a 7bbe
00000020: a3bd 783e 4744 093f ffaa f23e d5fe ba3e
00000030: b01d d83e af4c 32bc 5d60 683e 6641 ae3e
00000040: afc5 00be eab8 863e c892 e63e c82a bbbe
00000050: c537 07bf 7577 e13e 5223 1c3f b6c4 a9be
00000060: f473 32be cecd 4abe 5bea 7a3e 5a8a e9be
00000070: 54f9 14be 8813 da3e cbca 943e 192c f7bd
00000080: 009f 08bf 5e9e edbe 38eb 20be ef4a 053e
00000090: 59d9 0abf 33ae f03d bb28 05bf 70ab 043f
000000a0: cdd0 27be 7f2c 34be 23ce 063f b226 12bf
000000b0: b4b4 43bd 3e23 f93d 34f3 d7be f1da ba3e
000000c0: a7df a63e d54b 12bf 59ae 7b3e 563d 1dbf
000000d0: 510d 813e add5 903e a9f0 ccbe 76d7 063f
000000e0: e467 02bf 2f5d 0d3f 7b04 a23e d56e b8be
000000f0: 0c96 1abf fc21 a6bc 6a87 ffbe c1fd f5be
00000100: 49b6 10bf 84f1 05bf a59f a43c 1c87 873e
00000110: 96f5 d9bd 9c31 f0be ae62 03bf ea4b 1d3f
00000120: a1a8 8dbe 05e0 10bf 4fcd 29be da22 9c3d
00000130: 8234 e1be 15a1 bc3e 458a 403e 509b d1be
00000140: c19c b63e 8852 a0be 4336 653d c5a9 bfbd
00000150: 2316 9bbe c250 0e3e 3396 c6be 3d70 ddbe
00000160: aa21 f9be 2f9f 04be 3e35 18bf 97aa 22be
00000170: 2abf 173d 6106 a33e 3a80 d2be 2e51 4abe
00000180: f7ee 0cbf 411a 7b3d 6698 81be 103c 043f
00000190: 5e29 a93e d724 17bf 5201 dfbe 6cdb ba3e
000001a0: 80ca b13e 7b48 9cbe 46e6 e23e 4bc6 a93e
000001b0: a8cd 033f a994 113f 918c 28be 7195 d2bc
000001c0: f6e4 af3c 46b9 ddbe 076e 4c3d 42ce 68be
000001d0: aaaa cebe 438e fe3e 6df8 f93e 4538 bf3d
000001e0: abc6 30be 0103 db3e f3af 133d 855e d3be
000001f0: 7886 063f 6020 58bd 0c28 6c3e 5737 9e3e
00000200: 606f bcbe 7fae 813d d394 423e 5ad2 6f3e
00000210: 9040 e53d f36c 933c f849 debe 4f00 e23e
00000220: 5f87 353b 43ff 26be a4f9 e0be 97ca bc3b
00000230: c527 81bd 853a c63e 37b9 573d 589b 1b3e
00000240: 5b17 913e f305 cdbe 0ca6 033e 89d9 14bf
00000250: c3f5 343e 2a0f 113f 6a03 37be c7cf 1cbe
00000260: 4bf9 6dbe 1660 833e a880 ffbe eca6 abbe
00000270: 6bc3 19bf ac02 f3be cb41 f83e 0525 92bd
00000280: c6f4 11be e710 803e 2b85 df3e 99dc 083d
00000290: a525 bbbd 483e 0e3e 8161 18bf 25ba 2e3e
000002a0: 9521 fdbe e8bd eebe 5092 05bf 2f98 5b3e
000002b0: ac56 bcbe c5fb 703e 3886 913e ebe5 1c3c
000002c0: 43a9 02bf 16d3 9f3e 5d5d 123f 5ec0 973d
000002d0: e3bb 9fbe c63b 6abe 9709 bdbe ce66 b7be
000002e0: 9512 17bd 2871 8ebe ccda b13e 88f4 fc3d
000002f0: 76fa cf3e 75c1 c43e 3eac bf3d 325e e4be
00000300: 5d82 b5bd bcbc 563e 2181 0bbf b2a0 a8be
00000310: 851d ddbe c768 393d eb9a 8a3e 5e70 d03d
00000320: 7d7f 26bd d347 f13e 6de6 b1be 9248 56be
00000330: e62c 0bbf 2181 be3e a002 18bf a844 133e
00000340: 9530 c53e 106f 093f 5ab2 8abd 53e6 523e
00000350: 98d5 94be e24c e0be 5272 19bf 1234 733a
00000360: 2576 853c f923 ccbe 0340 eb3e 3b17 0dbf
00000370: 59a5 0a3f 1bac 12bf e7ec 8c3e 4d51 993e
00000380: e1aa 0dbf a6cb 0dbe 9e31 8abe cafb 533e
00000390: 64f5 fbbe 8c57 45be 7a13 4bbe 3d16 adbe
000003a0: eacf 7d3e 053e 1f3e 8dfc 713e c947 143e
000003b0: 0197 1dbb 044a bc3e 9a0b 5b3e effe 0f3f
000003c0: 38b5 d93d c850 d03e 08fa ea3e 978e 6dbe
000003d0: 86a5 ffbc f946 cdbd a3a4 19be 0f27 0f3f
000003e0: 087a e43c 8157 f0be ed0d 2dbe 9f44 05bf
000003f0: 1ffe ecbc 1dfc 31bd cc6e da3e e5ae 003e
-0.27896708 -0.5840992 0.37026304 0.4267263 -0.18485506 -0.0059908316 -0.17921084 -0.24558592
0.2429109 0.5361981 0.47396085 0.36522546 0.4221015 -0.010882541 0.2269301 0.3403427
-0.1257541 0.26312953 0.4503386 -0.36556077 -0.5281947 0.4403645 0.60991395 -0.3315789
-0.17427045 -0.19805071 0.24503462 -0.45613366 -0.14548236 0.42593026 0.2906097 -0.12068958
-0.53367615 -0.46409887 -0.15714729 0.13016866 -0.54237896 0.11751976 -0.52015275 0.5182409
-0.16388245 -0.17595099 0.5265829 -0.57090294 -0.047779754 0.12164925 -0.42177737 0.36495164
0.32592508 -0.5714696 0.24578227 -0.61421716 0.25205472 0.28288022 -0.4002736 0.5267252
-0.50939775 0.5522031 0.31644043 -0.36022058 -0.60385203 -0.020279877 -0.49908 -0.4804516
-0.56528145 -0.5232165 0.020095656 0.26470268 -0.10642545 -0.4691285 -0.5132245 0.6144396
-0.27667716 -0.56591827 -0.16582225 0.07623835 -0.43985373 0.36841646 0.18802746 -0.40938807
0.3566647 -0.31312966 0.05595995 -0.09358553 -0.30290326 0.13897994 -0.38786468 -0.43249694
-0.48658496 -0.12951349 -0.5945624 -0.15885387 0.037047543 0.31840804 -0.41113454 -0.1975753
-0.5505213 0.061304335 -0.25311583 0.5165415 0.33039373 -0.5904059 -0.43555695 0.3649553
0.34724808 -0.30524048 0.4431631 0.33159098 0.5148568 0.5686746 -0.16459872 -0.025706025
0.021471482 -0.43305415 0.049909618 -0.22734931 -0.4036458 0.49717912 0.48822346 0.093369044
-0.17263286 0.4277573 0.03605647 -0.4128305 0.52548933 -0.05276525 0.23062152 0.30901596
-0.36803722 0.063321106 0.19002084 0.23420087 0.11193955 0.017996287 -0.4341581 0.4414086
0.0027699096 -0.16308312 -0.4394046 0.0057614553 -0.063064136 0.38716522 0.05266687 0.15195978
0.2833813 -0.400436 0.1285631 -0.5814443 0.17671876 0.56663764 -0.17872396 -0.15313636
-0.23239629 0.25659245 -0.49902844 -0.3352579 -0.6006381 -0.47462976 0.48487696 -0.07135967
-0.1425353 0.25012895 0.43656287 0.033413503 -0.091380395 0.13890946 -0.5952378 0.17063196
-0.49439684 -0.46629262 -0.5217638 0.21444772 -0.36784875 0.23533542 0.28422713 0.009576301
-0.5103952 0.31215733 0.5717371 0.07409738 -0.31198034 -0.22874364 -0.3692138 -0.3582062
-0.036882956 -0.27820706 0.3473724 0.12351328 0.40620774 0.38428846 0.093590245 -0.44603115
-0.088627554 0.20970434 -0.5449391 -0.329351 -0.43186584 0.04526594 0.27071318 0.10177682
-0.040648926 0.4712511 -0.34746113 -0.20926121 -0.54365385 0.37207893 -0.59379005 0.14381659
0.38513628 0.5368509 -0.06772299 0.20595674 -0.2906921 -0.43808657 -0.59940064 0.00092774734
0.016291687 -0.39871195 0.45947275 -0.5511357 0.5415855 -0.5729386 0.27524492 0.2994484
-0.55338866 -0.13847217 -0.2699098 0.20701519 -0.49210656 -0.19271678 -0.19831648 -0.3380603
0.24786344 0.15551002 0.23631497 0.14480509 -0.0024046304 0.3677522 0.21391144 0.5624837
0.10630268 0.4068663 0.45893884 -0.23198925 -0.031206857 -0.100233026 -0.1500421 0.55918974
0.02789022 -0.4694176 -0.16899844 -0.5205783 -0.028929768 -0.043453325 0.42662656 0.12566717

encoder.layers.0.attention.w_concat.bias f4 [16]
00000000: d978 c6bd 9ee3 fcbc b264 5d3e 5de5 d8bd
00000010: ab87 7b3d bb34 3a3d 2f73 5c3e 150e 50bd
00000020: f635 393e f1eb eb3c 8db4 d23c fa1b 973d
00000030: b2d0 48be e35b 643e 2470 6dbe 45ae 6fbc
-0.096910186 -0.030870255 0.21620443 -0.105906226 0.06140868 0.045460444 0.21528314 -0.05079468
0.1808699 0.028799029 0.025720859 0.07378383 -0.19610861 0.22300677 -0.2318731 -0.014628951

encoder.layers.0.norm1.gamma f4 [16]
00000000: 41bd 7d3f a391 833f fe2d 7c3f e9b4 7e3f
00000010: dcae 813f 2469 813f 07ae 7a3f 1af6 803f
00000020: f76c 793f 7147 7b3f 35d3 793f 47c6 783f
00000030: 4af1 7c3f 24d9 813f 2f68 7e3f 6a31 763f
0.99116904 1.027882 0.9850768 0.99494797 1.0131488 1.0110211 0.97921795 1.0075104
0.9743189 0.98155886 0.975879 0.9717755 0.9880568 1.0144391 0.9937772 0.9616915

encoder.layers.0.norm1.beta f4 [16]
00000000: 77c3 3abb 69f4 16bc eaf2 03bc ed61 fbba
00000010: aa0c cbbb 8920 6cbb bcb9 cbbb 138c 33bc
00000020: 45a5 2dbc 0688 4f3c 39dc 16bb c78b c9bb
00000030: 888b e23b 0d60 803a 4861 03bb 36d6 4e3c
-0.0028497854 -0.009213545 -0.008053521 -0.0019178964 -0.006196578 -0.0036030135 -0.0062172096 -0.010958689
-0.010598485 0.012666708 -0.0023019447 -0.006150696 0.006913606 0.000979425 -0.0020046998 0.012624314

encoder.layers.0.ffn.linear1.weight f4 [64, 16]
00000000: 481d b4be 2f3b 83be cb03 cebe 22fa 0c3e
00000010: 26f7 0bbf c6a4 f5be 5ad8 663e 1b3d dd3d
00000020: 8e1c 08be a147 e83e 9834 88be dc36 c83e
00000030: 77f3 173f 33aa 02bf 227e 0ebf 1455 183d
00000040: b2a7 28be 9fd2 063f 2680 9e3e a99d 8cbe
00000050: 58cd 8d3d dbd9 b93d e734 e9be 1541 ebbe
00000060: b699 94be b3c4 07bf 3362 04bf fc09 dc3e
00000070: 61ca 02bf 1d1f 753e ebd4 a9be f75d efbd
00000080: 456b febe c1d3 c13e 4b00 0cbf 59f9 c23e
00000090: f437 1f3d d468 993e 616e d6be 53eb 25be
000000a0: 9dd9 00bf 81e7 01bf 3a16 fdbe 38ef 8c3e
000000b0: 0eab f0be 51a1 893e 750d c33e 7369 913e
000000c0: 3a5d f7be fe5c fd3d 0726 3dbe 068b 51be
000000d0: e51d 213e ef7b 9d3e 7db3 c0bc e086 c2bd
000000e0: 7cd5 07bf 952a 45be 1109 1abc a4c0 193f
000000f0: 2b0c 4cbe 171c 7bbd 0823 f03e 8a77 793d
00000100: 266d c3be 241b 013f 8df8 dbbd c3e6 973e
00000110: 03fc 823e d1d5 ee3d 4f8c 00bf 0c40 febe
00000120: bede 053f a614 0e3f 8ac0 f7be cec0 07bf
00000130: 1c93 10bf 1ac3 d1be d3cc 94be 4b01 a23c
00000140: a1c2 9a3e 7922 38be d9c1 17be 3add b4be
00000150: 3053 113f 503b 643e 13fc 9e3d 9a55 3a3e
00000160: 06f5 b23e 8039 19bf 28e4 b63e f3f5 01be
00000170: 711c 213e 3e96 87be 100f af3e dbef 853c
00000180: 4c2b 873e 5445 13be 7fa9 cc3e 7d55 803e
00000190: b944 3fbe 1032 853e 725d c63e f831 abbe
000001a0: eef0 0ebf 8913 3e3e a66e d83e 7294 263e
000001b0: d96e 023f fd55 0bbf 8bea 92be aa10 38be
000001c0: f3c3 80be d216 b9bc 2667 bcbe 4c8f ea3e
000001d0: 556a 42bd 2ac4 96bd 9680 42be dd40 593e
000001e0: 9671 9f3e b913 abbe c5d8 193d 6e1c 05bf
000001f0: 18d2 c1be fd15 a63c 9b74 ce3e d0cf c23e
00000200: 1a75 11bf d8f7 183f a17c bc3e cc9c 703e
00000210: b63b cf3e 9248 843e d82d abbe 5198 17bf
00000220: c67b acbe d7f6 da3e 698c 03bf a9e4 aebe
00000230: 004d 743e a5d4 9b3e 95ed 6dbe 3ca8 bb3e
00000240: c721 ff3c 132f 8dbd d314 b63e 4d89 95be
00000250: bb65 abbe 9da9 0d3f 1e6d 093f a49b a63e
00000260: 9b42 263d ecee 213e 8bdd acbe 6ef0 a43e
00000270: 592a 833e f698 eb3e 8149 a33e 77e9 a6be
00000280: 5222 b63e 1ad0 19bf b3a7 063d 418e 9d3d
00000290: 2be7 4f3e 0617 abbe 7050 123a 06ff 0d3e
000002a0: 276b 6abd b042 373e 72f4 943e f188 da3e
000002b0: f109 3fbe 7e1e ba3d e5a0 1d3f e777 d43e
000002c0: 22bb 5a3e 6f10 1cbd 3541 0d3d 0d3c 5f3e
000002d0: 3fbe 74bd 4e39 70be b850 bc3c 3543 e3be
000002e0: 7b07 283e 3653 e53d d924 a2bd f482 ea3e
000002f0: c4a7 f7be 2645 da3e c277 06bf 5aa2 f13e
00000300: 901a 233c 510c cc3e 2fae cc3e 473d a0bd
00000310: da8e bdbe 1584 04bf f034 a33d 8974 05be
00000320: ad4c 6abe 4f93 8fbe 5204 8dbe 165f 033e
00000330: 381e ddbe 3045 7e3e 74de dc3e 5a27 9ebe
00000340: f5bb 9fbe b2e7 21be 6de9 0e3f 2b42 99be
00000350: d44f 9fbe 4caa a6bd 327b e53e 50f8 a43e
00000360: ce03 13bf f761 91be 9493 de3e 4555 7c3e
00000370: eace 31bd 862d 823e 49c2 e7be ec10 5bbe
00000380: c2f9 33be 4a32 18bf acde 59bd 59e4 0dbf
00000390: 4cfd 4cbd 3b27 e93e 6dd1 bf3d 4a54 ed3e
000003a0: bdb0 833d 38ee 18bf d678 53be f4a7 883e
000003b0: a262 d4be f900 4e3e 7bdc ac3e 9c71 ecbe
000003c0: a1a6 37bc aba9 eebe ab4c 193f f480 d3bc
000003d0: 44b9 09be 239d cebd c102 aa3d 5d20 7a3e
000003e0: 73e4 e43d a0c2 a33e 415c 07bf fd0f 43bd
000003f0: 6e19 03be a41b 923c 5498 ea3e 160f eb3e
-0.3517859 -0.2563109 -0.4023727 0.13767293 -0.54673994 -0.47977275 0.22543469 0.108026706
-0.13292143 0.4536715 -0.26602626 0.39104354 0.5935587 -0.51040953 -0.55661213 0.03719051
-0.1647022 0.5266513 0.30957144 -0.27464035 0.06923932 0.09074756 -0.45548174 -0.4594809
-0.29023522 -0.53034514 -0.5171234 0.42976367 -0.51090056 0.2393765 -0.33170256 -0.11687844
-0.49691215 0.37856868 -0.5468795 0.38080862 0.03887172 0.2996279 -0.41881087 -0.1620305
-0.5033205 -0.5074387 -0.4943102 0.2752626 -0.47005504 0.26880887 0.38096204 0.28400764
-0.48313314 0.123712525 -0.18471538 -0.2046319 0.1573406 0.30758616 -0.023523087 -0.094983816
-0.53060126 -0.19254525 -0.009401576 0.6005957 -0.19926517 -0.061306085 0.46901727 0.060905017
-0.3816921 0.5043204 -0.10740767 0.29668245 0.25582895 0.11661876 -0.50214094 -0.4965824
0.52293 0.55500257 -0.48389083 -0.5302857 -0.5647447 -0.40969163 -0.29062518 0.019776007
0.30226615 -0.179819 -0.14820041 -0.35325032 0.5676756 0.22288251 0.07762923 0.18196717
0.34952563 -0.59853363 0.35720944 -0.12691478 0.15733506 -0.26481813 0.3419118 0.016349724
0.2640022 -0.14381915 0.39973065 0.25065222 -0.1867856 0.26014757 0.38743168 -0.3343656
-0.5583638 0.1856214 0.42271918 0.16267565 0.5095039 -0.5442808 -0.28694567 -0.17975107
-0.25149497 -0.02259389 -0.36797446 0.45812452 -0.047464687 -0.07361634 -0.18994364 0.2121615
0.31141347 -0.33413485 0.037560243 -0.51996505 -0.378556 0.020274157 0.40323338 0.38049173
-0.5681931 0.5975318 0.36813834 0.23497313 0.40475243 0.25836617 -0.33433414 -0.5921679
-0.33688182 0.4276645 -0.51386124 -0.3415883 0.23857498 0.30435672 -0.23235162 0.3665179
0.031144036 -0.06893744 0.35562763 -0.29206315 -0.33476052 0.55336934 0.53682125 0.3254062
0.040590864 0.15813798 -0.33762774 0.32214683 0.25618246 0.46015137 0.31892017 -0.32599995
0.3557306 -0.6008316 0.032874774 0.076931484 0.20303027 -0.33416003 0.0005581444 0.13866815
-0.057231095 0.17896533 0.29092747 0.42682603 -0.18656136 0.09087847 0.6157363 0.41497728
0.21360448 -0.03810161 0.034486014 0.21800251 -0.059751745 -0.2345936 0.022987708 -0.44387212
0.16409104 0.11197512 -0.079171844 0.45803034 -0.48370183 0.4263088 -0.52526486 0.47194177
0.009955063 0.39853147 0.39976642 -0.07824188 -0.3702305 -0.5176404 0.079690814 -0.13032736
-0.22880812 -0.28042075 -0.2754236 0.12829241 -0.43187118 0.2483108 0.43138468 -0.30889398
-0.31198087 -0.15811041 0.5582493 -0.29933295 -0.31115592 -0.0813795 0.44820553 0.32220697
-0.5742768 -0.28395054 0.43471968 0.24641903 -0.04341022 0.25425357 -0.45265415 -0.21393174
-0.17575744 -0.59451735 -0.053190872 -0.55426556 -0.05004625 0.45537743 0.09366117 0.4635337
0.064301945 -0.5973849 -0.20651564 0.26690638 -0.414815 0.20117559 0.33761963 -0.46180427
-0.011209161 -0.4661382 0.5988261 -0.025818326 -0.1344958 -0.10088565 0.083013065 0.24426408
0.11176386 0.31984425 -0.52875143 -0.04762267 -0.1280267 0.017835446 0.45819342 0.45909947

encoder.layers.0.ffn.linear1.bias f4 [64]
00000000: 952a 8dbb f652 17be 6266 863d df89 343d
00000010: 850b 613e 8fb5 3abe 44cc 013e ac44 d5bc
00000020: e187 6dbd 8e83 be3d 32f3 3bbd 306e 1d3c
00000030: 90f8 56bd 6974 6bbe 61f2 a9bd a66a 283e
00000040: 15f1 97bd a4d9 9c3d 76fb c5bd 308c 153b
00000050: 9d65 473e f398 70be 0abc 123e 66a4 f8bd
00000060: 5774 a83b 70da 6c3e 796a be3d a4ef a3bd
00000070: 99a1 55be ade6 403e 86e2 cf3d f431 cabd
00000080: 94d4 0f3d 4eb3 603e 33e0 2abe 04c1 83bd
00000090: f097 c3bc 6e88 2bbe 6674 443e 6ca6 f03d
000000a0: 7af6 213e 6f46 993d 7863 94bd 9568 873d
000000b0: 34fa f6bd 61b2 6dbe 9bea c1bd 5563 d83d
000000c0: 9f57 eabd e4a1 c0bd a752 e5bc ccdb 1e3e
000000d0: aa93 113e 9b49 19bd 7ec5 0e3e a745 1fbe
000000e0: e30f 7d3d a829 d03d 3ede 9f3d faae 1abe
000000f0: 9aac 1dbe 971a 493e 9644 febd 4bdb ed3d
-0.0043080547 -0.14777741 0.06562497 0.044076797 0.2197705 -0.18233322 0.12675577 -0.026033722
-0.057990912 0.09302436 -0.045886226 0.00960879 -0.05248314 -0.22993626 -0.08298183 0.16446933
-0.074190296 0.07658699 -0.09667103 0.0022819154 0.19472356 -0.23495845 0.14329544 -0.121407315
0.005140822 0.23130202 0.09297652 -0.08004692 -0.20862426 0.18837996 0.10150628 -0.09872809
0.03511484 0.219434 -0.16687088 -0.06433299 -0.02387616 -0.16751263 0.19185027 0.117504925
0.1581668 0.07484137 -0.07245535 0.06611744 -0.12059441 -0.23212577 -0.094685756 0.10565821
-0.11442494 -0.09405878 -0.027993513 0.15513533 0.14216486 -0.03742371 0.13942525 -0.15553914
0.06178273 0.10164195 0.07806061 -0.15105811 -0.15397874 0.1963905 -0.124154255 0.116140924

encoder.layers.0.ffn.linear2.weight f4 [16, 64]
00000000: af8c 43be 416f 873d c79d 8d3e b4db 123e
00000010: 6861 693e f7b7 9bbe e6df 29be 990e 15be
00000020: e50b c33b 67e8 57be a13a 783e 951e 00be
00000030: dc9c 47be 1d55 803e 27cc 423e 77fd 27be
00000040: 671d 00be 32ca bd3d 73f8 b7bd fd49 84be
00000050: d659 8dbe 6f03 ff3d 316d 8bbe 9723 cd3d
00000060: a558 413e 2f24 903e e014 88be de3a 3bbe
00000070: a314 bc3b bd3a 32be b8c1 99be 9cb3 9dbe
00000080: 1328 763d 35cf 75be 2708 043e be19 89be
00000090: 919c fabd 092c 21be f920 00be 8705 393e
000000a0: 7a0e 633c 541e 86bb 5125 cabd c30c 8dbe
000000b0: 75b7 8f3d 51ff 2dbe 54e6 4f3d bd32 723e
000000c0: 6ca5 91be d7b3 3abe 0f72 843e 7a76 413e
000000d0: be94 7abe 2857 93be 236d f03c 2259 20bd
000000e0: 0f56 003e 972c 7c3e 9373 a0bd 2f3d 12be
000000f0: 0b75 a23c cbdd 863e 3f7e 70be 88bb 43be
00000100: 6279 9d3a b7cb 32be d5b2 85be 11fa 80bd
00000110: ad86 61be 7137 c0bd d876 52be 12b1 093e
00000120: 1e2e 843e 48fb c53d 429b 24be facf b7bd
00000130: 5367 a0be 2f74 e4bc d4cb 35bd f64c e5bd
00000140: da8d 36be 223a 513e 7fbb 5cbe 374a 7a3e
00000150: e416 f2bd d57a 773d ce34 41be 9737 413e
00000160: da9d 6f3e d918 9a3c 532c c03d eca6 123e
00000170: 892b 08bd b48c 8ebe 198b ee3d 62f1 61be
00000180: f15f ff3d 46aa 49be 6e6e 843d 2578 d6bd
00000190: d481 8d3e aa61 5a3e 89fc 73be f35e 003e
000001a0: 3dc8 8c3e 57ef 8c3e 254b 583d 37a1 f3bd
000001b0: d500 933c 062c 2b3e 991b db3d c029 28be
000001c0: b4b0 8f3e 54a9 32be 0536 63be 0e28 a3bd
000001d0: a529 1dbe 8bb9 e1bb d7ec fdbc 20eb 8b3e
000001e0: 5cb2 643d f7fb a6bc a2ff 7d3e caa6 ebbd
000001f0: 6158 f93d cf39 95be da04 503e 949f 343e
00000200: 3931 18bb f364 3abe 1de1 7f3e 90f6 663e
00000210: d905 85be 8a05 3fbd 886a 46be d278 d63d
00000220: b760 553e 870b 98bd 15a9 7abe c87f 2a3d
00000230: 7832 56bc 951d 5cbe d762 6d3e b55c ee3d
00000240: 94bf d5bd ef85 1ebe c057 03be 4067 173e
00000250: 87f3 1dbe bae4 16bd 1d51 e33d 2f3d 113e
00000260: e943 7c3e e4f5 953e 3249 55bd 8114 533e
00000270: f4d6 e13d c8d2 003d 0e68 6d3e 348c 96be
00000280: f192 1ebe dbe2 b33c e4b8 02be 1887 36be
00000290: 9751 ac3d 49b0 93bd d97c 09be 8d49 84be
000002a0: e721 57be e3e6 623d 4fef 873e 000f 823e
000002b0: 817b 983e 9a20 963d 4fad 8c3d 697f 7c3e
000002c0: 3f1d 863e 9ae9 5bbe 1f8c 803e 29ed 57be
000002d0: 7d44 c13c 9167 06be b18a 01be a881 863e
000002e0: 1ddb 15bc 3c26 493e d819 b5bb a4b3 91be
000002f0: cf63 3bbe a7df 86be 1d17 303d fcc4 433d
00000300: e655 b93d 34d0 8fbe 08b9 833e ad0f 93be
00000310: 23ea 483e ad61 8b3d 9784 44be 76b9 6bbe
00000320: e67e f2bc fab1 193e a88e 72be 9aa0 233e
00000330: 6024 093e d9ee 623e fe8d dfbc af25 853c
00000340: 4d1f 78bd a4d8 193e 938d 0dbe 538f 8e3e
00000350: 7f7c 3cbe 4493 5abe 9b2f 6dbe d206 6abe
00000360: 064a 843d 3ddf a43d 4fd8 403e f382 2bbc
00000370: 5420 71be 4bf2 0bbe d760 913e 704d 7dbe
00000380: 38e6 193e 1054 6ebe 111f e13d 0e75 a0bd
00000390: af6f 69be e96c 88bb 5634 ac3d 90ae 8a3d
000003a0: 660f 8d3e 4b53 4a3e 4d82 8a3d b56f 0f3e
000003b0: 5367 65be f6d3 8a3e 7776 1b3e d78b 113d
000003c0: 2824 82be 41cb 8fbe 6f5a 933e 7c72 463e
000003d0: 9ca8 b23d 3514 31bd 80d4 bc3c e10f 8ebe
000003e0: 4bb2 b5bd 9605 4bbe a8b4 3cbe 74ff 84bb
000003f0: d41b 86be 5cd5 92be e5d2 84be 3e0c 5bbe
-0.19096635 0.06613017 0.27659437 0.14341623 0.22791064 -0.30413792 -0.16589317 -0.1455635
0.0059523457 -0.21084748 0.24241115 -0.12511666 -0.19493431 0.25064936 0.1902319 -0.16405283
-0.12511216 0.09267081 -0.08982935 -0.258377 -0.27607602 0.12451827 -0.27231744 0.10016554
0.18881471 0.28152606 -0.26578426 -0.18284175 0.005739765 -0.1740522 -0.30030608 -0.30801094
0.06009681 -0.24004824 0.12893735 -0.26777452 -0.12236894 -0.15739454 -0.12512578 0.18068515
0.013858432 -0.004092971 -0.09870399 -0.275488 0.070174135 -0.16991927 0.050756767 0.23652168
-0.2844652 -0.18232666 0.2586827 0.18892851 -0.24470803 -0.28777432 0.029348915 -0.039147504
0.12532829 0.24626385 -0.07834544 -0.14281152 0.019831201 0.2634109 -0.23485659 -0.19114506
0.0012014324 -0.17460524 -0.26113 -0.062976964 -0.22024031 -0.093855746 -0.20553148 0.13446453
0.25816435 0.09667069 -0.16074851 -0.08975215 -0.3132883 -0.027887432 -0.04438384 -0.1119632
-0.1782755 0.20432332 -0.21555899 0.24442373 -0.11820772 0.060419876 -0.188678 0.18868862
0.2340006 0.018810676 0.09383454 0.14321488 -0.033244643 -0.27841723 0.116476245 -0.22064736
0.12469471 -0.1969386 0.06466375 -0.104721345 0.27638113 0.21326318 -0.23826803 0.1253622
0.2749652 0.27526352 0.05280604 -0.11895984 0.017944733 0.16716012 0.10698623 -0.16422176
0.280645 -0.17447406 -0.22188576 -0.07966624 -0.15347917 -0.0068885735 -0.030996723 0.27327824
0.05583416 -0.020383818 0.24804547 -0.11506422 0.1217506 -0.29145667 0.2031435 0.17638999
-0.0023222698 -0.18202572 0.24988218 0.22554994 -0.25981024 -0.04663614 -0.19376576 0.104722634
0.20837675 -0.07424074 -0.24478562 0.041625768 -0.013073556 -0.2149566 0.23182236 0.11638776
-0.10436931 -0.15480779 -0.12826443 0.1478548 -0.1542493 -0.036839224 0.110994555 0.14183496
0.2463528 0.29289162 -0.052071758 0.2061329 0.11027327 0.031451017 0.23184225 -0.29403841
-0.15485741 0.021958759 -0.12765843 -0.17824972 0.084139995 -0.07211358 -0.13426532 -0.25837365
-0.21009026 0.055395972 0.26549765 0.2540207 0.29781726 0.07330437 0.068689935 0.24657978
0.26194188 -0.2147583 0.25106904 -0.21086563 0.023592228 -0.13125445 -0.12650563 0.26270795
-0.009146479 0.19643492 -0.0055267625 -0.28457367 -0.18299793 -0.26342508 0.042990793 0.04779528
0.09049587 -0.28088534 0.25727105 -0.28722897 0.19620566 0.068057396 -0.19191204 -0.23019966
-0.029601526 0.15009299 -0.23687232 0.15979233 0.13392782 0.22161426 -0.027289387 0.01625332
-0.060576726 0.15024048 -0.13823538 0.27843723 -0.18406866 -0.2134524 -0.23162691 -0.22854164
0.06459431 0.08050392 0.18832515 -0.010468232 -0.23547488 -0.13666646 0.28394195 -0.24736571
0.15029228 -0.23274255 0.109922536 -0.078348264 -0.2279651 -0.0041633737 0.0840842 0.067715764
0.2755081 0.19758336 0.06763134 0.14007457 -0.22402696 0.27114838 0.1518191 0.035533752
-0.2541821 -0.28084758 0.28779933 0.1937961 0.08723566 -0.04323216 0.023050547 -0.2774649
-0.08871897 -0.1982635 -0.1842829 -0.0040587727 -0.26193106 -0.28678405 -0.2594215 -0.21391389

encoder.layers.0.ffn.linear2.bias f4 [16]
00000000: 3fee a2bc face 37bd 3be4 48bd 58c7 d8bd
00000010: 3937 343d 3c89 acbd 30fb 213d 1672 d03d
00000020: e72f 023e 2cf4 8e3d 71c9 4dbd 05ac cebd
00000030: 7f6b 6fbd c705 a33d c8c2 f33d 7b6a 60bd
-0.019888995 -0.044875123 -0.049045783 -0.10584897 0.043997977 -0.08424613 0.03954619 0.1017801
0.12713586 0.06980166 -0.050240938 -0.10091404 -0.058452126 0.07960086 0.11902386 -0.054789048

encoder.layers.0.norm2.gamma f4 [16]
00000000: d192 793f f4a2 7f3f e12d 773f ba9b 7d3f
00000010: 48d2 813f 08e7 7f3f 7548 803f c9f4 7d3f
00000020: 4e80 7d3f 4408 7d3f 4bf6 7f3f f4b0 7d3f
00000030: 9f79 7b3f f311 7f3f 8f7e 7d3f 5800 7c3f
0.9748965 0.9985802 0.9655438 0.99065745 1.0142298 0.999619 1.0022112 0.9920164
0.990239 0.9884074 0.9998519 0.99098134 0.98232454 0.99636763 0.9902124 0.98438025

encoder.layers.0.norm2.beta f4 [16]
00000000: 93d6 96ba 47fc 21ba 1ec2 be3b 9e24 2c3c
00000010: a11c 0b3b 6f14 9ebb 518c 0d3b d14d 763b
00000020: 8c80 2a3c 9087 413b f6ea 133b 177a 7bbb
00000030: 167f 013b 7a12 f9ba 3315 c83b a02f 893b
-0.001150804 -0.0006179255 0.0058214804 0.010506777 0.002122678 -0.004824213 0.0021598528 0.0037583003
0.0104066245 0.0029530264 0.0022570468 -0.0038372332 0.0019759587 -0.0019002699 0.006106043 0.0041865855

encoder.layers.1.attention.w_q.weight f4 [16, 16]
00000000: 3d53 44be 0e19 fcbd a4fc b7be 935a 1abf
00000010: 87ff 353e 71fa 023e 10c6 8bbe 5075 8c3e
00000020: ba15 4fbd 44a6 09bf 812a ed3e c579 2d3e
00000030: ff36 01bf 9fb4 243e f806 d33e cd1d 93be
00000040: 61ed cb3e 6825 363e 2b8f b7be 36f4 b73c
00000050: 8392 03bf 7403 44bd 4b83 893e 6cff 1a3f
00000060: 17f4 ebbb 8fc1 3abe 82f2 b5be e747 8f3d
00000070: ab42 f23d 50fa cf3e 20fb eabe 77a5 d7be
00000080: 4c47 ccbe 8b99 0bbf 1f0e 91be 1d1e 01bf
00000090: 0d47 a1be 34df 653e 07f2 04bd 948a 9fbe
000000a0: d732 6b3e d748 093d 3ef6 89be 3387 cdbe
000000b0: a847 02bf 2946 b53e 42f6 12bf 94ce 933e
000000c0: 42b3 f1be 7950 2dbe bd27 aebe a062 db3e
000000d0: e518 ffbe 3228 243e e753 d33c e21e ac3e
000000e0: 2158 e3bd 4f1b 8a3e 6534 acbe 680d 18bf
000000f0: 78fd 8dbb 8cb7 8abe 99e0 473e 4d77 0c3f
00000100: cb59 76be 33c6 033f 3158 b6be c0bd 003f
00000110: a72b fc3d 862c 84bd 4849 133f 8d39 20be
00000120: 4e0c 8a3d 4e35 d3be a2ed cc3e 96ee 9e3d
00000130: 3709 0abd ba24 db3d d505 013f f71d 78be
00000140: e833 d23e 70e8 973e 90e9 b7bd d8d3 b73e
00000150: ffe8 ebbe 128f e13e 9951 e4be 495a 133f
00000160: 1d68 c9bd 3c26 0a3f e912 423e 44e9 35be
00000170: 6bd9 56be e1bd 193f 0a4e 00bf 5ecb 6b3d
00000180: 4bbe 083f b3a8 133e d277 223e e457 853d
00000190: 51bf 183e fdc6 083f d02f b7bd 3494 fe3c
000001a0: e08c 0ebf 3170 6ebd b10f a43d da8e 13be
000001b0: a78e f1be 6191 3a3e 6485 e5be a619 c0be
000001c0: 1719 bfbe 4c84 c43e d67b 2abe 4a39 ec3e
000001d0: 0ee8 7e3e 5efc f3be ae73 103f a289 bb3e
000001e0: cdd2 8f3d 4fce d6be 2ede 153f 11fa 9a3e
000001f0: eca8 093e 57aa 8bbd 2917 96be fbf4 ffbd
00000200: db62 403e cba4 08bf 1ad2 dfbd 9d41 943e
00000210: 2e08 d33e 9489 943e 0c7e 023e a741 0bbf
00000220: 12ac 91be ebd6 113f 1955 c23e 531f 0cbe
00000230: b3dd d23e 7d8b aebe 4a9d 903e e586 d83e
00000240: b97b a6ba a3bd dfbe a703 05bf cba1 9dbe
00000250: 3dd4 0c3e 585c 0c3e 2b52 ecbe 02fa b9be
00000260: 5438 e23e 824a a23e 29ff 7a3e c3e9 04bf
00000270: 9eff e0be 777c 373e 1f03 dcbe 293b 733d
00000280: 63c5 ff3e 2043 983d 7601 f83d 026f 873d
00000290: 8d9f 11bf 9e83 3d3e afd8 2b3e f9a0 2abe
000002a0: 1937 c3be 01af 113f 5873 a6be 163e 95bd
000002b0: 5c61 993e 221b 3f3e eebf 11be 06e6 a83e
000002c0: 85f9 383d 2f82 77bd 55e2 ffbe 6e98 8c3e
000002d0: 5368 f2be bbb9 e83d 23b4 04bf 0bc1 013f
000002e0: 2697 0abd 0130 133e 10b6 babe 3ea0 ef3e
000002f0: e3b3 0a3f cc90 57be 5871 0cbf ca40 0cbf
00000300: 32ce 35be bcf9 dcbe a1af 563e c862 1bbe
00000310: 0bfa 173f 8933 193f f9cb 52be 01f1 363e
00000320: 025b b83e 0e2b 973e 3eb0 193f d03d 3b3e
00000330: c7e3 d73e a3d9 fdbe 4ca4 ed3e 06b1 403e
00000340: 4c0f 803e 91de 513e 5174 9cbd c6d5 023f
00000350: 4fcc 34be 541c 91be 6cab ba3e 0b53 bebe
00000360: 8d89 953e c5fc 003f 5ba7 f33e d2f6 bebe
00000370: 637e 693e 3bf8 b93e f781 f63e e9ef 0d3f
00000380: 5058 9f3e dce5 81be ca09 c73d 93de adbd
00000390: 9264 c13e d9a3 573e a7fe 10bf a3a0 d53c
000003a0: ba0b e3be bd82 69be 948f 033f e8f9 373e
000003b0: e5b4 5b3e dc5f 16bf c694 23bd aa85 163f
000003c0: f974 bcbd f355 8d3d 7ef8 0f3f d5c0 073f
000003d0: 5e00 cd3e cf8b 113f 3fc8 4b3d 1bc7 58be
000003e0: d124 6e3e 9422 2dbe cf48 e53e 376d eb3c
000003f0: 1426 e83e c43f f23d 2a30 813c cae5 6fbb
-0.19172378 -0.12309466 -0.35934937 -0.60294455 0.17773257 0.12790848 -0.27299547 0.27433252
-0.05055783 -0.53769326 0.4632149 0.16940983 -0.5047454 0.16084526 0.41216254 -0.28733674
0.39829543 0.17787707 -0.35851416 0.022455316 -0.51395434 -0.047854856 0.2685798 0.6054599
-0.0072007286 -0.18237899 -0.3553658 0.06996136 0.11829122 0.4062066 -0.45894718 -0.42118427
-0.39898145 -0.5453116 -0.28331086 -0.50436574 -0.3149952 0.22448426 -0.032457378 -0.31160414
0.22968613 0.03351673 -0.2694568 -0.4014221 -0.5089059 0.3540509 -0.5740701 0.28868544
-0.47207075 -0.16925229 -0.34014693 0.42848682 -0.4982368 0.16030958 0.025796844 0.33617312
-0.11100794 0.2697396 -0.33633724 -0.59395456 -0.0043331943 -0.2709316 0.19519271 0.5486954
-0.24057691 0.51474303 -0.3561416 0.50289536 0.123130135 -0.06453805 0.57533693 -0.15646954
0.06740628 -0.41251606 0.4002505 0.077603504 -0.033700194 0.107003644 0.50399524 -0.2423018
0.41055226 0.29669523 -0.089800954 0.3590381 -0.460762 0.44054466 -0.44593504 0.5755964
-0.09834311 0.5396459 0.18952526 -0.17764765 -0.20981376 0.6005536 -0.5011908 0.057566993
0.53415364 0.14419822 0.1586602 0.065109044 0.14916731 0.5342863 -0.089446664 0.031076528
-0.5568371 -0.058212463 0.080108054 -0.14409962 -0.47179148 0.1821952 -0.4482833 -0.37519568
-0.3732383 0.38382185 -0.16648802 0.46137458 0.2489321 -0.47653478 0.56426513 0.36628443
0.07022629 -0.41954276 0.58542144 0.3026891 0.13443345 -0.06819599 -0.29314545 -0.12497898
0.1878771 -0.53376454 -0.109287456 0.2895631 0.41217178 0.29011214 0.12743396 -0.5439705
-0.28451592 0.56968564 0.3795555 -0.13683824 0.41184768 -0.34090796 0.28245002 0.42290416
-0.0012701667 -0.4369937 -0.519587 -0.307875 0.13752837 0.13707101 -0.4615644 -0.36323553
0.441836 0.3169747 0.24511398 -0.5191919 -0.4394502 0.17918573 -0.4297113 0.05938259
0.49955282 0.07434678 0.12109654 0.0661297 -0.5688408 0.18507239 0.16781877 -0.16662969
-0.38127974 0.5690766 -0.32509875 -0.072872326 0.29957092 0.18662694 -0.14233372 0.32987994
0.045159835 -0.060426887 -0.49977365 0.27460045 -0.47345218 0.1136355 -0.51837367 0.50685185
-0.033835553 0.14373781 -0.36467028 0.46801943 0.54180735 -0.2105133 -0.5486045 -0.5478636
-0.17754439 -0.43159282 0.20965435 -0.15174401 0.5936591 0.5984426 -0.20585622 0.17865373
0.36006933 0.29525036 0.6003455 0.18285298 0.42165968 -0.49580106 0.4641441 0.18817529
0.2501167 0.20495059 -0.07639373 0.5110744 -0.17656063 -0.28341925 0.3645891 -0.37172732
0.29206505 0.50385696 0.4758862 -0.37297684 0.22802119 0.36322197 0.4814603 0.554442
0.31122065 -0.2537068 0.09718664 -0.08489718 0.37772042 0.21058597 -0.5663857 0.026077574
-0.44344884 -0.22803779 0.5139096 0.17966425 0.21455725 -0.5874002 -0.039936803 0.58797705
-0.09201998 0.06901159 0.56238544 0.53028613 0.40039343 0.56853956 0.049751516 -0.21169703
0.23256232 -0.16907722 0.4478211 0.028738601 0.4534155 0.118285686 0.015770037 -0.003660547

encoder.layers.1.attention.w_q.bias f4 [16]
00000000: 285a 843d 3f27 3ebe 1aea 7ebe fd97 3e3d
00000010: 71aa 74be 6ace 503e 641f d9bb 4a8e 78be
00000020: 064a 6c3d 9937 8f3d 6758 c63d e7ce 0e3e
00000030: 6cec 423e 925f 5abe d7ab 9bbc 29f5 4b3e
0.064625084 -0.18569659 -0.2489399 0.046531666 -0.23893143 0.2039124 -0.0066260565 -0.24273029
0.05768778 0.06993026 0.0968483 0.13946114 0.190355 -0.2132552 -0.019002838 0.1991774
